graphrnn_v2/experiments/seeds/seed_experiment_seed_0/model_at_2700.pt (torch, 420155 bytes, 43 tensors)

adj_embedding.0.weight f4 [32, 15]
000000 77 43 99 3e 93 b2 a6 be fb 45 1f bf d3 42 15 3f
       0.29934284 -0.32558116 -0.62216157 0.5830509
000010 78 4b 24 bf ca fa 0b bf 04 c5 01 3f fd 79 81 be
       -0.64177656 -0.5467955 0.50691247 -0.25288382
000020 5a c7 32 be e7 aa 0a 3e 9d c3 13 3e 54 a6 70 be
       -0.17458859 0.13541757 0.1443009 -0.23500949
000030 74 99 0f be ef 6a f4 3d 3b 00 cd bd 21 cc 97 be
       -0.14023381 0.119344585 -0.100098096 -0.29647925
000040 33 07 1b bf 6c 80 e5 3d 2a 25 96 3e 75 66 4f be
       -0.6055786 0.11206135 0.2932523 -0.20253928
000050 ba 31 01 3f 82 93 3c bc ec 9c 95 bd ec 68 3a bd
       0.504665 -0.011509778 -0.07305321 -0.045510218
000060 db 0e de 3c 1b 43 6b 3d 3e 46 14 3e 79 1f 5c be
       0.027106693 0.057437044 0.1447992 -0.21496381
000070 8d eb c3 3c 2d 51 a5 be 79 d6 15 3f 5b 0f 70 3a
       0.02391603 -0.32288495 0.58530384 0.00091575616
000080 54 dc 14 be 92 58 12 3f 78 8b 11 be 59 dd 91 be
       -0.14537174 0.571664 -0.1421336 -0.28489187
000090 12 92 06 bf 1c 95 52 bd 87 2a 97 3c f5 90 88 3e
       -0.52566636 -0.051411733 0.018452896 0.26673093
0000a0 8d 71 ee bd 7e 10 31 ba 7c da bb bd ec bb 18 3e
       -0.11642752 -0.00067544717 -0.09172532 0.14915437
0000b0 f9 6f ff 3c bc 0f 47 3e 0e 23 bb be 5f 34 44 3c
       0.031181322 0.19439596 -0.36550182 0.011975377
0000c0 ca b1 9b 3e 96 1b c0 3e d7 4c 0b 3b ee 32 5e be
       0.3040908 0.37521046 0.0021255517 -0.21699116
0000d0 dd bd 89 3e 6f fd a5 3e 2c 4a 76 bd 7d cc a7 3e
       0.26902667 0.32419917 -0.06012933 0.327732
0000e0 98 eb 73 3e b7 79 3a 3e 19 dc 27 3c de 07 a1 3d
       0.2382034 0.18210493 0.010245346 0.07862829
0000f0 b1 a7 04 3f b4 12 8a 3e 98 e6 a2 3e 56 0e 16 3d
       0.51818377 0.26967394 0.31816554 0.036634766
000100 68 a0 24 be 84 9c 24 be 33 51 76 be 98 db c3 3e
       -0.16076815 -0.16075331 -0.24054413 0.38253474
000110 b6 df dd 3e 52 af e0 3e 16 c2 03 bd 16 b6 ee 3e
       0.4333474 0.4388376 -0.032167517 0.46623296
000120 26 b5 e8 3e d3 aa cb 3e 9b 3b da 3e 44 3a ab 3d
       0.45450705 0.39778766 0.426236 0.08360723
000130 74 4d 2d 3e ac f2 ca 3e 86 a7 7c 3e 22 9f 07 3e
       0.16924077 0.3963827 0.2467328 0.13244298
000140 ad c3 88 be 82 65 ef bd 5b 87 a7 3e c1 57 a0 3e
       -0.2671179 -0.11689283 0.32720456 0.3131695
000150 aa 17 ba 3c c4 0c c7 3e 97 2b 85 3e c3 50 30 bd
       0.022716362 0.38876927 0.2600982 -0.04304577
000160 1c 7b a4 3e a2 d7 3c 3d 77 0e 77 3e bf 32 09 bf
       0.32125175 0.04610408 0.24126612 -0.5359306
000170 dc 5e 68 be bc e8 69 bd e3 64 96 3e ac a6 34 3d
       -0.22692436 -0.05710672 0.29373845 0.044104263
000180 a3 58 81 be d7 cc 35 3e 0c b0 eb 3d 2c 29 87 be
       -0.25262937 0.17753921 0.11508188 -0.263986
000190 46 0e 5f 3e 1d 16 b1 bd 56 44 35 be d9 8a 04 be
       0.21782789 -0.08646796 -0.1770185 -0.12943591
0001a0 45 ad 05 3e af 7c 9c 3d c6 96 14 3f db 00 2b bd
       0.13054378 0.07640969 0.5804256 -0.041748863
0001b0 8a 5f 70 bd 7d 95 a6 be 49 ed db bd 0d 1d 1c 3e
       -0.058684863 -0.32535926 -0.10738618 0.15245457
0001c0 6f 37 b5 bd ed a3 cc 3d 37 36 2f 3e 33 06 2c be
       -0.08848464 0.09992204 0.17110525 -0.1679924
0001d0 37 ae 24 be 88 b9 2d be b3 cd 36 be 88 de 3f bd
       -0.16082083 -0.16965306 -0.17851906 -0.04684308
0001e0 39 34 e5 be 4d d9 1c bf 53 e3 31 3e 95 a7 b3 be
       -0.44766405 -0.61269075 0.17371874 -0.35088792
0001f0 29 cd 74 3d 02 04 28 3f 36 56 f4 3e 5d 8e 18 be
       0.05976597 0.65631115 0.47722024 -0.14898057
000200 2a 85 1f be aa be d4 bd 9f a0 93 bd ab ca 10 be
       -0.15578142 -0.10387929 -0.072083704 -0.14139812
000210 68 b7 c1 3d 2d cc f0 bd 1c b2 0e 3d 5e ce f8 3d
       0.0945881 -0.117576934 0.034837827 0.121487364
000220 d5 2c 7b be 9e 57 5b bd a4 ce df 3e 59 81 94 be
       -0.24528821 -0.053550355 0.43712342 -0.29004934
000230 da 17 3c be 9f 8e 59 bc 3e 52 14 3e e7 09 0d 3d
       -0.18368474 -0.013278632 0.14484498 0.03443327
000240 fb 44 25 be 03 61 87 bd 56 8d 02 bd 99 28 2c 3e
       -0.16139595 -0.066103004 -0.03187307 0.16812362
000250 d8 0b 35 3e 0c e7 af bc 82 ff 7f be 46 5b b5 bd
       0.176803 -0.021472476 -0.24999812 -0.088553
000260 ce f1 5d be 30 7e 53 3e c8 dd 20 3e 32 c5 a0 3e
       -0.21674272 0.20653605 0.15709603 0.31400448
000270 3c e4 68 3e b4 c2 93 be 15 e2 84 bd a0 dc d3 b6
       0.22743315 -0.28859484 -0.06488434 -6.313974e-06
000280 2a dc a5 be 1d 37 b8 3d be 61 bb bd 34 6b a5 bc
       -0.32394534 0.08994887 -0.09149502 -0.02019272
000290 2f fa e7 bd 1e 27 27 be 49 f1 16 be 81 4f 09 be
       -0.113270156 -0.16323516 -0.1474048 -0.13409235
0002a0 77 b9 36 be 86 61 c5 bb f8 75 ae bd 41 6f 26 be
       -0.17844187 -0.0060235886 -0.085185945 -0.16253377
0002b0 21 46 91 3d 02 7f 2b 3e b5 f2 46 3e 7c 30 d9 3c
       0.07093454 0.16747668 0.19428523 0.026512377
0002c0 b8 37 b8 bd c5 de 76 be 3e 22 82 bc 32 02 12 be
       -0.089950025 -0.24108417 -0.015885469 -0.1425865
0002d0 a9 00 05 3f cd be 7b be ef b8 d4 3c bf fd e5 3d
       0.5195413 -0.24584503 0.02596709 0.11230039
0002e0 6d 29 ff bd 07 cb 79 be 1b de 75 be d9 ae d0 bd
       -0.12459073 -0.24393855 -0.24010508 -0.101895995
0002f0 1c 2b 48 bd 52 0e 17 3e a2 89 ed bd d3 4d 71 be
       -0.048869237 0.14751557 -0.11598517 -0.23564844
000300 92 a0 08 3d ab 0e ec 3d 31 ba 40 3d 28 0c 4c 3f
       0.033356257 0.11526235 0.047052566 0.7970605
000310 31 19 37 3e 4c e7 c0 bd 3b 60 89 bd fc f2 f3 bd
       0.17880704 -0.094191164 -0.06707808 -0.1191158
000320 36 0e cc bd 7d 5e 30 bd 38 03 60 3e d8 94 09 3e
       -0.09963648 -0.04305886 0.21876228 0.13435686
000330 cc 61 d7 3d 17 3f 7d 3d 3b 42 9f 3e 26 2e 7a 3e
       0.105167 0.061827745 0.31105217 0.24431667
000340 a9 54 76 3e 18 5f 6b 3d 5d 36 67 be c0 ab e2 3d
       0.24055733 0.057463735 -0.22579332 0.11067915
000350 67 52 83 3e 9f 0c cb 3e 60 d0 51 3e 8f 6e 29 3e
       0.25648805 0.39658067 0.20489645 0.16546081
000360 30 f6 66 be bc 30 84 3d e7 15 76 3d db 22 a9 3e
       -0.2255485 0.06454608 0.06007948 0.33034405
000370 84 9b 95 3e 70 b3 99 3e 99 5a 97 3e 65 5d 69 3e
       0.29220212 0.30019712 0.29561308 0.22789533
000380 5e 3c ee bd d7 e8 b1 3c 15 9f bc bd e4 e6 aa 3e
       -0.11632608 0.021717472 -0.0921003 0.3337928
000390 0f 50 f2 3d 4f ec 8f 3e 02 37 37 be 90 c5 0c be
       0.11831676 0.28109977 -0.17892078 -0.13747239
0003a0 10 10 c6 3d 75 31 32 3e 2c 44 49 be 82 39 79 39
       0.096710324 0.17401679 -0.19654912 0.00023767914
0003b0 93 ac 85 be 02 d6 40 3e e4 91 33 3e 5c c1 52 be
       -0.26108226 0.18831638 0.17536122 -0.20581573
0003c0 63 14 1a 3f 08 8d fc bb ce 99 dc 3e 1b 3c 1a bd
       0.6018736 -0.007707242 0.43086094 -0.037654977
0003d0 0b 47 28 bd 24 3f f3 be a4 17 48 bd fc d3 6e 3e
       -0.041083377 -0.4750911 -0.04885067 0.23323053
0003e0 05 c0 0a 3e 1b 1c 28 be 46 f3 87 3e de 4d 04 3e
       0.13549812 -0.16416971 0.2655279 0.12920329
0003f0 91 c8 84 3d 7f 2d 0f be 7f 76 9c 3e a6 7b 93 be
       0.064835675 -0.13982199 0.30559155 -0.28805274

adj_embedding.0.bias f4 [32]
000000 9f 67 0e 3d cc dd e5 3e 6c 6f 11 3e 6c a7 6b bc
       0.03476679 0.4489578 0.1420266 -0.014383178
000010 bb 72 24 3e 86 89 08 be 79 f4 8c 3e 08 88 26 3d
       0.16059391 -0.13333711 0.27530268 0.040657073
000020 ed 25 ef 3e 5a 82 94 3e 8c 0b ff 3d 85 a9 36 be
       0.46708623 0.290057 0.12453374 -0.17838104
000030 cb 6b ff 3d c1 06 92 3c ee a7 32 be 2f d4 12 3e
       0.12471732 0.017825486 -0.17446873 0.14338754
000040 08 19 1c 3d 18 fe 71 3d 09 e1 9c 3d 40 54 6f 3d
       0.03810981 0.059080213 0.076601095 0.058429956
000050 01 10 16 bd 56 b2 4f be b9 38 1e 3e 22 c4 74 3e
       -0.036636356 -0.20282874 0.15451325 0.23902944
000060 bf 7d ef 3d 50 2e bf bd b5 1b ad 3e 76 77 af bd
       0.11693906 -0.09335005 0.338102 -0.08567707
000070 77 81 c5 bd 20 91 1e 3e 97 66 c6 3b 60 77 75 bd
       -0.09643834 0.15485048 0.00605471 -0.059928298

graph_rnn.weight_ih_l0 f4 [192, 32]
000000 78 90 b2 3e 3a c2 bb bd 44 4d 14 be 8f 94 89 3d
       0.34875846 -0.09167905 -0.144826 0.067177884
000010 05 b7 80 be 3f 5b bd 3c 8d bc b5 3d 36 87 3a bd
       -0.25139633 0.023114799 0.08873854 -0.045539103
000020 a4 b2 02 be 70 bc 80 3c 9a 2f 94 3e a0 db 72 bc
       -0.12763458 0.015714854 0.28942567 -0.0148228705
000030 b0 fb a5 be 87 de e2 be 7b d0 71 bc 67 92 9b bd
       -0.32418585 -0.443104 -0.014759178 -0.075962834
000040 f4 06 ab be d7 3d aa 3e e0 a4 9f be 89 c3 83 be
       -0.33403742 0.33250305 -0.31180477 -0.2573512
000050 3f 3b 44 be bf ba cd 3e c9 f4 2c 3e bf dc 18 bd
       -0.19163226 0.40181538 0.16890253 -0.037319895
000060 08 9c 39 be 38 34 a7 bd 68 3f 1f bc 28 19 eb be
       -0.18125927 -0.08164257 -0.009719707 -0.4591763
000070 8f 2b e9 be c2 4a ba 3e a3 4e e9 be 66 54 8e bd
       -0.45541045 0.3638516 -0.45567808 -0.069496915
000080 03 0a 84 be 71 55 eb bd 2e 9a ba bd e8 39 17 bc
       -0.25788888 -0.11490906 -0.09111439 -0.0092301145
000090 26 b1 16 3e 8e ab 6d 3d 02 5a bc 3d 64 85 c7 bd
       0.14716014 0.058024935 0.09196855 -0.09742239
0000a0 96 8c 93 3e 40 90 22 bc bb c4 53 3d 70 6a 66 3c
       0.28818196 -0.009922087 0.05170129 0.014063463
0000b0 2f c9 0e 3d 90 dc 8c 3d e5 ab 86 3d 31 40 0a 3e
       0.034859832 0.068780065 0.06575755 0.1350105
0000c0 91 07 fc 3c 33 be 32 be a8 85 01 bd 3c 82 e4 3d
       0.030765327 -0.17455368 -0.031621605 0.11157653
0000d0 40 39 96 bd b2 bb 2f 3e 9b 98 4c 3c fb b1 6d 3d
       -0.07335138 0.17161444 0.012487556 0.058031064
0000e0 41 06 ae 3d e5 24 4b bd b4 43 e3 3d 72 a5 0d 3e
       0.084972866 -0.049595732 0.11096898 0.13832644
0000f0 80 41 39 3d c2 ed 98 bb 60 2d 79 3e cd bd b9 3c
       0.04522848 -0.004667015 0.24333715 0.022673512
000100 d6 68 0d 3f fa 43 85 3c 70 4c db 3d 8b 3a 90 bd
       0.5523809 0.016267765 0.10707939 -0.07042416
000110 ac 8e 1d bd 87 14 b9 3b 66 db 81 3e 51 92 95 bc
       -0.03846614 0.005648199 0.253627 -0.018258246
000120 db 4a c9 bc 78 fe ad 3c 13 64 6e 3c 3c cb 81 bd
       -0.024571827 0.021239504 0.014550227 -0.06337592
000130 c6 e5 2d 3e 28 43 a9 3e c2 6c 26 be 14 a9 aa 3c
       0.16982183 0.3305905 -0.16252425 0.020832576
000140 5f a4 13 be 1e 9a e4 3d 67 8e 60 3e ca 86 b5 3d
       -0.14418171 0.11162208 0.21929322 0.088635996
000150 ba cd db 3c dd 4a 94 be 10 67 0d 3d 4d d4 6e 3e
       0.026831497 -0.28963366 0.034522116 0.23323174
000160 8d d5 07 be 03 5e b2 3d 14 5c 25 be 3b f3 c0 bd
       -0.13265057 0.087093376 -0.16148406 -0.094213925
000170 05 a0 47 bd 6a 05 6c 3e 1b 86 69 bd 4a b7 88 be
       -0.04873659 0.2304894 -0.05701266 -0.26702338
000180 d6 0b 2c 3e ca 12 b0 3d d1 ed 94 bd 8c 2a 0c 3e
       0.1680139 0.08597334 -0.072719224 0.13688105
000190 c0 43 15 be de 75 9e be 73 be b0 3d 68 1a 28 be
       -0.14576626 -0.309493 0.08630075 -0.16416323
0001a0 b1 a2 0d be 57 69 2f 3e 6d c8 9f 3d e8 29 76 3d
       -0.13831593 0.17130028 0.078019 0.06009856
0001b0 f9 f3 bb 3d 25 40 09 be e6 bd 52 be e5 76 56 be
       0.091773935 -0.13403375 -0.20580253 -0.20943792
0001c0 4a f8 62 be 15 ca 46 3e bd bc ac be 95 74 93 be
       -0.22165027 0.19413026 -0.33737746 -0.28799883
0001d0 99 ac 82 bd 23 84 db 3d ac 46 55 3d c5 4e d8 bd
       -0.06380577 0.107185625 0.05206935 -0.10561899
0001e0 7d b0 02 be 27 3c c0 3d 01 14 32 bd 24 a8 73 be
       -0.12762637 0.09386473 -0.04347611 -0.2379461
0001f0 6f d7 a7 bd ff e7 39 bc f5 01 56 be d9 fb c9 be
       -0.081953876 -0.011346816 -0.20899184 -0.39449957
000200 c9 18 ec 3e db a6 ce bd 14 fe 57 bc a7 97 c5 ba
       0.4611266 -0.10090419 -0.013183136 -0.0015075103
000210 24 e2 67 bd b8 ed 66 bd 88 a2 6d 3e 36 17 27 3e
       -0.05661215 -0.05637905 0.23206532 0.16317448
000220 1f b3 6b be fb 1f d9 3d fa f0 b1 bb b8 0f 8c 3c
       -0.23017548 0.10601803 -0.005430338 0.017097339
000230 17 6d 24 3e 0a 62 20 3e a8 04 a0 be 9c 25 f4 bc
       0.1605724 0.15662399 -0.31253552 -0.02980309
000240 c8 fa 31 3c e9 44 27 bd fc c2 48 3e 42 99 bd 3d
       0.010863014 -0.040837202 0.1960563 0.09257747
000250 d7 e2 eb bc ca a1 57 be f6 42 fd 3d e0 53 5b 3d
       -0.02879469 -0.21057811 0.123662874 0.053546786
000260 a9 e7 45 3b 57 59 09 3e 3d 64 69 be 28 6f 20 3d
       0.0030197895 0.13412987 -0.22792144 0.039168507
000270 7e 9d 5d bc fb 20 87 3e 75 31 15 3e 8b 13 af bd
       -0.013526319 0.2639235 0.14569648 -0.085486494
000280 df 33 79 3e f8 99 92 be 69 49 1f bd cf bd aa bd
       0.24336194 -0.28633094 -0.03888837 -0.08336984
000290 07 86 be bd 7d 96 86 be e7 a9 c9 3a 63 14 55 3e
       -0.093029074 -0.26286688 0.0015385718 0.20808558
0002a0 14 58 65 be dd ff b3 3d 67 c7 c6 bd 6e 8b c4 3d
       -0.2239688 0.087890364 -0.09706002 0.095969066
0002b0 e8 af 2c be be 17 92 bc e6 ce a8 be 28 60 35 be
       -0.16863978 -0.017833587 -0.3297035 -0.17712462
0002c0 ae ce 17 bf 19 d1 8e 3b 06 80 b9 bb 64 98 9f be
       -0.59299743 0.0043584225 -0.0056610135 -0.31170952
0002d0 2f 77 83 3d e3 b1 98 bd 82 ec 74 bc 9f 44 fd 3d
       0.06419217 -0.07455804 -0.014948966 0.12366604
0002e0 7f 22 9e bc f2 63 f5 3c 26 ba d2 be 11 f2 4e be
       -0.019303558 0.029954884 -0.41157645 -0.20209529
0002f0 81 7d a7 3d 3e e1 ce 3d bf 64 a2 be c1 51 cf be
       0.08178235 0.10101555 -0.31717488 -0.4049206
000300 d4 22 71 3e ca e1 89 bd b4 9f e2 bb 30 ff 91 bd
       0.23548442 -0.06732519 -0.0069160108 -0.07128751
000310 30 86 d7 3c b4 82 3c be 73 bd c8 3d 8c df 73 3e
       0.026309103 -0.18409234 0.098017596 0.23815745
000320 a6 00 04 3e c8 0a 1b 3e 34 0d a9 3d a8 c2 e4 bd
       0.12890872 0.15140831 0.082544714 -0.1116994
000330 89 d6 f3 3c d0 5b 37 3e 57 96 65 bd 84 d1 a0 bd
       0.029765384 0.17906117 -0.05605158 -0.07852462
000340 42 cf 71 be 98 1e 37 3e 9b 38 cd 3d 41 e8 ad 3d
       -0.23614219 0.17882764 0.10020562 0.084915645
000350 9e 5b 98 bc e6 4b e8 bd 3f f1 8a 3e 4c d4 b1 3d
       -0.018598374 -0.113426015 0.2713718 0.086830705
000360 b4 35 3f be f8 3f b4 3d 79 f2 59 3d be 87 07 be
       -0.1867283 0.088012636 0.053209756 -0.13235375
000370 7b 61 0d 3d 25 ff 6f 3e 30 60 b6 bd 21 2e 4e be
       0.034516793 0.23437174 -0.08905065 -0.20134784
000380 03 a1 fb 3e 87 25 87 be 53 5f 28 3e e5 2e ac bd
       0.4914628 -0.2639582 0.16442613 -0.08407382
000390 4e 02 b6 3d ad 5c a5 be 56 bb ee 3d f4 21 42 bb
       0.08887158 -0.32297269 0.11656825 -0.0029622288
0003a0 8a 47 47 be a4 49 ca 3c be 36 89 bd e0 4e bb bc
       -0.19460884 0.024693318 -0.06699894 -0.022864759
0003b0 18 3d ca 3c e8 75 e3 3e 12 3f c1 be 5c 8a 2b be
       0.024687335 0.44425893 -0.3774343 -0.16751999
0003c0 a2 ff d8 bd 3c a2 42 bb b6 78 99 3e 78 03 d5 ba
       -0.10595633 -0.002969875 0.29974908 -0.0016251644
0003d0 12 d2 20 3e 98 b1 12 be dd b5 8b bb 8c 59 1a 3e
       0.15705135 -0.14325559 -0.004263623 0.15073222
0003e0 63 b7 fc bb 46 8f 8b 3e 30 c6 84 be 7a ac 5d 3d
       -0.007712291 0.27257746 -0.25932455 0.054119565
0003f0 3d d4 cf 3e 7c 80 9e 3e e2 92 2d 3e d0 b4 7b be
       0.40591612 0.309574 0.16950563 -0.24580693

graph_rnn.weight_hh_l0 f4 [192, 64]
000000 81 e1 88 bc 47 92 23 bd 9b e4 c7 3d 08 23 d9 bd
       -0.016709091 -0.039934423 0.097604 -0.10602385
000010 c1 2e 28 3e 21 0d 03 3d f1 14 61 3c 08 20 89 3d
       0.16424085 0.031994943 0.013737903 0.066955626
000020 dd 2a b2 bd 32 22 c1 3b 19 8f 74 bd 0c 63 2a 3e
       -0.08699582 0.005893969 -0.05970678 0.16639346
000030 36 e5 c6 3c 24 da 1b be 8e bb a3 3d 68 c6 f6 bd
       0.024279218 -0.15219933 0.079947576 -0.12049562
000040 52 b6 99 bd b9 27 8d 3e fe 16 0c be 7e 17 a7 3e
       -0.07505478 0.27569368 -0.13680646 0.3263511
000050 6f 64 83 bd a1 94 b2 bd 7b 38 e3 bd ab ad 4c 3e
       -0.064156406 -0.08719755 -0.11094757 0.19988124
000060 6b 08 1d 3b 0d 5e 6a be aa 77 f9 bc 04 64 89 3e
       0.0023961316 -0.2288744 -0.030452568 0.26834118
000070 e3 e9 25 be 70 20 07 bd 6c 29 bd bd bb cd d5 3d
       -0.16202502 -0.03298992 -0.09236416 0.104396306
000080 69 81 8b 3d 67 af 7a 3e 87 f2 65 bd 7e e7 8b 3d
       0.068117924 0.24480973 -0.056139495 0.06831263
000090 d2 ff d7 bc 48 8c 3d 3e 76 9c c4 bc e3 43 1d 3e
       -0.026367102 0.18510544 -0.024000388 0.15357928
0000a0 fe c2 d4 3d e4 6b 57 bd ce 87 99 bc fb db 5a bc
       0.10388754 -0.052593127 -0.018741515 -0.0133581115
0000b0 6d fb 17 be de 4b ff bd 5e 32 2a 3d b8 75 41 be
       -0.14842005 -0.124656424 0.04155194 -0.18892562
0000c0 b0 15 a2 bc 63 13 25 3d 64 4f e3 bd db 6f 49 3d
       -0.019785732 0.04030169 -0.11099127 0.04917894
0000d0 0a 15 3d be 17 67 18 3c 97 a0 58 3e 19 2c c4 bc
       -0.18465057 0.009301922 0.2115501 -0.023946809
0000e0 39 47 9f be 96 91 49 3d 6c 7c 6b bd 4e 6c fe 3d
       -0.31109026 0.049211107 -0.057491705 0.12423001
0000f0 9b 7e 32 be ce e8 24 3e 39 11 b4 bd 68 c9 6a 3e
       -0.17431109 0.16104433 -0.087923475 0.22928393
000100 6b 95 9d be 0e ec 88 bd de bf 37 bd b4 0a 3e 3d
       -0.3077806 -0.06685649 -0.044860713 0.046396926
000110 c9 dd 8c 3c 38 93 bf 3b 71 bd 6a 3d 85 c9 b0 3c
       0.0171956 0.0058464073 0.05730957 0.021580467
000120 4d 8c c0 bd 5c 9d 23 bd cd 7e 5f bc 2f 12 9a 3d
       -0.0940176 -0.03994499 -0.0136410715 0.075229995
000130 49 93 e7 3d af 3b 46 bd e9 d6 b4 3d 25 48 85 3d
       0.11307389 -0.048396762 0.08830053 0.06507901
000140 bb d2 17 bd fb b8 88 bd d6 f8 ac bd bb 4d 7a 3d
       -0.037066203 -0.06675907 -0.08445899 0.061109286
000150 fd f6 1b 3e 69 13 f6 bc c8 58 a2 3d 62 5a 6c bd
       0.15230937 -0.030038552 0.0792709 -0.057703383
000160 9b 46 91 3d fc 17 8e 3b 15 92 92 bd f9 b9 3d 3d
       0.07093545 0.0043363553 -0.07156769 0.046319935
000170 78 78 89 bd 1c cc 95 3d ac 9b 8b 3b 04 7f a4 3d
       -0.06712431 0.073143214 0.004260501 0.08032039
000180 c6 96 9a bd 54 13 69 3d d9 0a a3 3c c1 4c a0 be
       -0.07548289 0.0569032 0.019902634 -0.3130856
000190 83 b9 d9 bd 60 96 23 3e d8 fc 25 bd 6a ce a8 3a
       -0.10631087 0.15975332 -0.040524334 0.0012878899
0001a0 7a a5 1d bc c8 42 01 bd 0c 95 19 3d 6d 50 95 3d
       -0.009621972 -0.03155783 0.037495658 0.072907306
0001b0 91 bd c3 3b 55 cf 3c 3e 89 bc 09 3e 40 dd b5 3c
       0.005973526 0.18438466 0.13450827 0.022200227
0001c0 1c ec 9e bd b2 82 e4 bd ff 7a 08 be 98 34 dc 3d
       -0.07759878 -0.11157741 -0.1332817 0.10752219
0001d0 fe f0 72 be 50 cc c9 3d d1 db 2e 3e 08 82 41 3c
       -0.23724744 0.09853423 0.17076041 0.011810787
0001e0 ff 1d 05 3d ab 61 b1 3d c3 ac f7 bd de 76 b3 bd
       0.03249931 0.08661207 -0.120934986 -0.087629065
0001f0 4e a0 11 3e 08 45 8a 3d 85 44 4e bd 1f c2 07 bc
       0.14221308 0.06751448 -0.050358314 -0.008286028
000200 1c dd 41 bd 21 6f d7 3d fa 21 82 3b 95 57 86 3e
       -0.047330007 0.10519243 0.0039713355 0.26238695
000210 7b ba 0c 3d e2 23 e1 bd 03 48 4b be 89 b2 41 bd
       0.03435753 -0.10993172 -0.19851689 -0.047289405
000220 04 f8 09 be 86 14 68 3d fc 84 fe bd 06 13 b7 bd
       -0.13473517 0.056660198 -0.124277085 -0.08939175
000230 5c b5 ac 3c 41 09 5e bc c1 b5 92 bd 58 cc b3 3a
       0.021082573 -0.013552011 -0.07163573 0.0013717515
000240 2a 0a 8c 3b 7c 36 e0 bd a5 3f a5 bd 8a cc 79 3e
       0.0042736726 -0.10947892 -0.0806878 0.24394432
000250 fa b1 89 3d 3e 88 80 be 08 6c c1 3d 47 81 ae 3d
       0.067233995 -0.25103945 0.094444335 0.085207514
000260 c8 39 52 3e be 32 3a bc c0 3b 8c be af c6 b3 bd
       0.20529854 -0.011364637 -0.27389336 -0.0877813
000270 ed db 64 3e 81 1b c9 bd 78 86 dd 3c 95 c5 39 be
       0.2234952 -0.09819699 0.027041659 -0.18141778
000280 ca 66 42 3d d0 9c 98 be f4 1b 58 3d 56 48 03 be
       0.04746131 -0.29807138 0.052761033 -0.12820563
000290 27 b4 b2 bc cc 11 b1 3d a5 b6 01 be 91 aa 02 bd
       -0.021814419 0.086459726 -0.1266733 -0.031900946
0002a0 32 ad 82 3e c1 98 8c 3c f4 ee 5e be f9 cc 7d 3d
       0.25522763 0.017162682 -0.21770841 0.061963055
0002b0 e6 3d 29 3e 0e f6 80 bd eb 09 2a 3e 84 d9 a5 3e
       0.16527519 -0.06296931 0.16605346 0.32392514
0002c0 c1 e6 2e be 78 79 5e bd 26 24 70 3a 36 2e 07 3e
       -0.17080213 -0.05431506 0.000916066 0.13201222
0002d0 00 8d b7 bd 72 f9 d6 3d 44 e7 09 bd 1d 09 f5 bd
       -0.089624405 0.10496797 -0.033667818 -0.11964629
0002e0 6a 5f be 3d 81 16 07 3d e9 59 1e be 6c 68 87 be
       0.092955425 0.032980446 -0.15463986 -0.26446855
0002f0 d9 b6 a1 3e a5 93 19 3d a5 1b ed bd 6d 3d ba 3d
       0.31584814 0.03749432 -0.115775384 0.09093747
000300 48 c6 1c 3e 07 ef f4 3d 74 61 0e be d9 28 45 3e
       0.15310013 0.11959653 -0.13904363 0.19253863
000310 e6 83 da bd d7 96 bb 3d ac 76 82 bd 34 bd 3d 3e
       -0.10669689 0.0915963 -0.06370291 0.18529207
000320 a2 f4 bb bd b1 c2 b1 3d 39 61 b0 3e 9d b4 d0 3d
       -0.091775194 0.086797126 0.34449175 0.10190699
000330 ae aa c0 3c 99 b6 d3 bd ac ed 2b 3e 7d 3a 8e bd
       0.023518886 -0.10337562 0.16789883 -0.069447495
000340 74 b7 45 be f0 d7 f2 3d c7 ce 30 3d 19 ba 5d 3e
       -0.19308263 0.11857593 0.04316595 0.21653022
000350 42 1b 8f 3c a9 11 d9 bd ae 07 de bc 9e 34 dd 3d
       0.017469052 -0.105990715 -0.027103271 0.108010516
000360 c0 ae 90 bd b9 56 22 3d 13 7f 64 3e 6a 90 77 3d
       -0.07064581 0.039633486 0.223141 0.06044046
000370 5f df df bd af b1 bf 3b 91 d7 1d 3e dd 02 32 3d
       -0.109312765 0.005850039 0.15414263 0.043459762
000380 73 e9 8a 3d f7 58 9f bc 0d 12 09 3d 6b 54 3d 3e
       0.06782808 -0.019451601 0.03346448 0.18489234
000390 0d 95 07 be 48 4e 22 3c 8a 88 53 be e6 f5 62 3d
       -0.13240452 0.009906359 -0.20657554 0.05541029
0003a0 b3 c4 e1 3d 24 47 8c bd 90 ff 64 3e f7 10 43 be
       0.110238455 -0.068495065 0.22363114 -0.1904944
0003b0 f2 78 68 be e3 f0 92 be 0a d3 36 be 4c 70 0c 3c
       -0.22702387 -0.28699407 -0.17853943 0.008571696
0003c0 8b eb 51 bd 27 dc 88 3d 00 09 09 be 84 89 b5 3c
       -0.051250022 0.06682616 -0.1338234 0.0221603
0003d0 36 fd 14 3d bf 76 94 be 27 fa c8 bc 80 1b 0a 3d
       0.036374293 -0.28996846 -0.024533344 0.033717632
0003e0 58 aa d4 be ed 31 32 3d a4 b8 32 be ec 08 55 bd
       -0.41536212 0.043504644 -0.17453247 -0.05201046
0003f0 8e 72 03 be 98 3e 84 3e 13 ce a0 bd 65 f1 66 3e
       -0.12836668 0.25829005 -0.078518055 0.22553022

graph_rnn.bias_ih_l0 f4 [192]
000000 49 72 00 be 6a 9b 38 3e 55 db 17 3d 67 89 41 be
       -0.12543596 0.18028036 0.037074406 -0.18900071
000010 e4 c0 ff 3c b6 81 a0 bd e9 dd 66 3d ce 66 75 bc
       0.031219907 -0.078372404 0.056363974 -0.014978124
000020 b8 81 1f 3e 73 97 35 3a 9b 4e f2 bd 02 a1 b7 3d
       0.15576828 0.000692717 -0.11831399 0.08966257
000030 15 f2 5f 3d c0 78 14 3e d6 d5 e5 bc 76 1a af bd
       0.054674227 0.14499187 -0.028056066 -0.08549969
000040 fd a6 26 bc 18 9b 0a 3d e7 31 09 3e 4b 4e e5 3c
       -0.010171649 0.033839315 0.13397942 0.027991435
000050 92 39 80 be bd 5c b3 bc ed 26 c8 bd 82 bd a0 bc
       -0.25043923 -0.021894807 -0.097730495 -0.019621614
000060 04 3a 2f 3e 2c 6a 3d be 3a e6 78 3d 62 6e ec bc
       0.17111975 -0.18497533 0.060766436 -0.028861228
000070 4e 57 ae bd 79 32 e6 3c d4 a5 9f bd 44 fb f8 ba
       -0.08512746 0.02810024 -0.07795301 -0.0018995781
000080 ea ee b6 bd 8d 4e ab 3b 88 6e 56 3c 53 ba 92 bd
       -0.08932288 0.00522787 0.013087876 -0.07164445
000090 d6 29 86 bd 72 3e 6a bd 5c bb 14 bd 6e 85 37 be
       -0.06550948 -0.05718846 -0.036311492 -0.17921993
0000a0 f5 e5 70 bd d4 a2 fd bd 22 0d 64 be a8 bb 7e bd
       -0.058813054 -0.123845726 -0.22270635 -0.06219068
0000b0 48 1e 2b bc 2d 2d 54 3d 05 08 86 bd 05 93 78 3c
       -0.010444231 0.051800895 -0.06544498 0.015171771
0000c0 b6 95 6a bd ae 26 1c bc c4 d2 8c be cd d6 84 bd
       -0.05727168 -0.009530706 -0.2750455 -0.064862825
0000d0 23 1c 89 3d 61 21 e3 bd fb 73 0a 3e 70 06 99 3d
       0.0669482 -0.11090351 0.13520806 0.07471931
0000e0 66 af 93 3b 32 0e fd bd e3 c1 23 3d f3 29 83 bd
       0.004506993 -0.12356223 0.039979827 -0.064044856
0000f0 44 d4 e9 3d 5c ab 8b 3d 17 9f fc bd d9 68 02 be
       0.114174396 0.068197936 -0.123350315 -0.12735309
000100 cb 3f c8 3c d1 e4 b0 bd 9d 4f 9e 3d 0c d0 9d be
       0.024444481 -0.08637393 0.07730029 -0.3082279
000110 ab cb 59 bd e7 14 9d be 00 5a a8 bd f6 a0 f7 3c
       -0.05317275 -0.3068001 -0.08220291 0.03022812
000120 90 7b b2 bc ab 11 a1 be 8d 36 5d be d4 67 a2 bd
       -0.021787435 -0.31458792 -0.2160284 -0.0792996
000130 11 29 67 be 20 a7 a0 be 5a 44 1a be 7c af 21 bd
       -0.2257426 -0.31377506 -0.15065137 -0.039473996
000140 56 c5 83 be bc bd ea bd 8a b6 4d be 22 de 00 3e
       -0.25736493 -0.1146197 -0.20089164 0.12584737
000150 d1 31 c8 bd 67 6d cc be 79 68 c3 be ac 4d 5a bd
       -0.09775127 -0.39927217 -0.38165644 -0.05329673
000160 d6 b8 70 be 92 52 dc 3c 54 91 1c be 85 60 6d 3e
       -0.2350801 0.026894841 -0.15289813 0.2318135
000170 7a e2 6a be 08 1f 49 be 2a 77 96 bd 0c fe 56 be
       -0.22937956 -0.19640744 -0.073469475 -0.20995349
000180 45 89 8c 3d c4 6d f5 bd 6d e9 c8 bd 65 c3 b2 bd
       0.068621196 -0.11983827 -0.098101474 -0.08728675
000190 72 89 89 be a5 6b d0 3d b6 fa 0d be 08 e4 85 bd
       -0.26862675 0.101767816 -0.1386517 -0.06537634
0001a0 2b a2 40 be 57 4b 74 be 19 b5 f6 be ee ca 75 be
       -0.18811862 -0.23856865 -0.48185042 -0.24003193
0001b0 b9 dd c4 bd 49 01 04 be 49 9b c7 be 36 05 a5 be
       -0.09612603 -0.12891115 -0.3898566 -0.32230538
0001c0 a5 d2 74 bd 69 6c 27 be 9d 28 45 be 5f b6 01 be
       -0.0597712 -0.16349949 -0.19253774 -0.12667225
0001d0 82 6c 1e be 52 43 e8 bd 80 48 38 bc 90 74 21 3e
       -0.1547108 -0.11340965 -0.011247754 0.15767121
0001e0 0a 9c 06 bd 55 a4 be 3c b2 e1 78 3d fe 02 f9 bd
       -0.032863654 0.023271719 0.060762115 -0.12158774
0001f0 03 42 48 be a0 b3 b4 bd 6c 8d 12 be 51 fe b3 3c
       -0.19556431 -0.08823323 -0.1431176 0.021971853
000200 c3 6d 86 3d 1e 74 09 bd 5f d3 80 3d df e3 ac bc
       0.06563904 -0.033558004 0.06290316 -0.021104751
000210 0b f2 7c 3d 67 71 ac bd a8 4e 08 bc 89 94 80 bd
       0.061754268 -0.08420067 -0.008319534 -0.06278331
000220 9b 72 fb bd f8 51 e6 bd f1 23 94 3c 24 9f 05 be
       -0.12277719 -0.11246103 0.018083544 -0.13048989
000230 a4 b4 f4 bd a9 05 a2 bd 87 6d db bd 9a 55 9d 3d
       -0.11948517 -0.07911236 -0.1071425 0.07682343
000240 6c ea 44 bd a9 08 dd 3d b9 b4 bc 39 7a 5c 8c bd
       -0.048075125 0.107926674 0.00035992803 -0.06853576
000250 9b e6 9e 3d a8 6a 34 3c 5e c5 9f bd 70 3b 7e bd
       0.07758828 0.011011757 -0.07801317 -0.062068403
000260 3f a7 9c bd 4e 66 5e 3d 50 9e 07 bd 94 7d ca 3d
       -0.07649087 0.054296784 -0.033109963 0.098872334
000270 77 3b c3 bd 19 fe ac 3d 41 48 45 3d 81 49 23 3e
       -0.095328264 0.08446903 0.04816461 0.15946008
000280 96 d5 47 be fb 4d 50 bc 5f 9b b8 3d 6e 2e d6 bd
       -0.1951507 -0.0127139045 0.0901401 -0.104580745
000290 ba 61 1e 3d 29 d9 39 3d 6d f9 8d bd cb 47 ff bc
       0.038667418 0.045373116 -0.0693234 -0.031162163
0002a0 c0 67 88 3d c2 6d f4 3d 52 d1 d9 3d bf 04 ab bd
       0.06660414 0.11934997 0.10635628 -0.083505146
0002b0 e6 24 06 be 00 ec 65 bd e1 fe 48 bd f3 d1 f9 bb
       -0.13100013 -0.05613327 -0.049071196 -0.007623905
0002c0 ed 89 e4 3c 77 c3 40 3c d8 ec 58 3d a4 51 11 bd
       0.0278978 0.011765352 0.052960247 -0.03547825
0002d0 5a 50 6e bd 2c 5e 3b bd ed a1 a7 3d 38 65 f3 bd
       -0.058182098 -0.045744106 0.08185182 -0.1188454
0002e0 fb e2 0e be 88 02 ef 3d 32 46 3a bd ec 8a 09 3e
       -0.13953774 0.11670405 -0.0454771 0.134319
0002f0 20 0a e1 bd 6f 50 54 3c 2a 8c 1f bd 21 86 07 3e
       -0.10988259 0.01295863 -0.03895203 0.1323476

graph_rnn.bias_hh_l0 f4 [192]
000000 34 fe a7 3c 0b bb 2e bd 33 f6 ed 3d 80 04 23 be
       0.020506956 -0.042658847 0.116192244 -0.15919685
000010 0a 96 26 3d 16 f7 15 bc 45 fc ab 3d 0a 43 cc 3c
       0.040670432 -0.009153148 0.08397726 0.02493431
000020 5a 2d 55 3e f7 21 e3 bd 85 eb 03 3c 3e 31 5f 3e
       0.20818081 -0.11090463 0.008051758 0.21796128
000030 50 a4 8d bd 66 fc c0 3c 8c 31 72 bd 63 f6 00 bd
       -0.06916106 0.023557853 -0.059129283 -0.031484973
000040 d9 4e cf bd fd f7 88 bd 59 15 ce 3d 08 73 6a bd
       -0.10122461 -0.06687925 0.100626655 -0.05723861
000050 c0 48 1e bd 24 eb 27 3d 23 d6 4d be 51 7f 42 3c
       -0.0386436 0.040995732 -0.20101218 0.011871175
000060 cf 4c 8e 3d b0 7e 08 be d7 ce e7 bd 46 d4 22 be
       0.06948244 -0.13329577 -0.113187484 -0.15901288
000070 37 d4 ba bc 03 e1 0c be aa 94 0f 3c f8 d3 ff bc
       -0.02280627 -0.1375771 0.008763472 -0.031229004
000080 63 fe 8a 3d 2d ff 13 be 87 e7 94 bb 2b 8d f9 bd
       0.06786802 -0.1445281 -0.004544202 -0.12185129
000090 10 96 a1 bd df ac 1b 3d 2e 80 e5 bd d0 b7 f1 bd
       -0.0788995 0.03800666 -0.11206089 -0.118026376
0000a0 3f 3c 43 bd 6c 79 68 bd 79 c3 7c bd ad 0d 2e be
       -0.047664877 -0.056756422 -0.061709855 -0.16997404
0000b0 e5 94 77 bd 8c 3c 8c 3b 8a ee 24 3d a7 89 20 3e
       -0.06044473 0.0042796787 0.04026655 0.1567751
0000c0 3c bd e7 bd 1d 44 50 bd d5 d4 9f be 96 73 4f be
       -0.113153905 -0.050846208 -0.31217065 -0.20258936
0000d0 b0 71 0a be 0f 5f 0f be f9 27 26 3e e8 35 15 3e
       -0.13519931 -0.14001106 0.16226186 0.14571345
0000e0 13 26 1d 3e ea 97 92 3d e6 e8 42 bd 51 45 d1 bd
       0.15346555 0.071578816 -0.04758539 -0.10218299
0000f0 27 e9 d0 3d 6d 40 00 be 75 60 08 be 94 9e 4d be
       0.1020072 -0.12524576 -0.13318045 -0.20080024
000100 c5 92 01 be 21 85 f2 bd 9a 94 4d bd b2 41 c7 be
       -0.12653644 -0.118417986 -0.050190546 -0.3891731
000110 9f 68 a1 bd 95 45 44 be 2f 1a 61 be 42 e1 fc bd
       -0.07881283 -0.19167168 -0.21982644 -0.12347652
000120 07 76 3e 3d 32 93 8d be 8e 42 af be 70 22 2a 3d
       0.04649928 -0.27651364 -0.34230465 0.04153675
000130 7c e7 25 be 69 22 a4 be d1 f2 45 bd f2 30 51 be
       -0.16201586 -0.32057503 -0.04832727 -0.20428827
000140 24 c6 a7 bd 06 aa cd bb a9 fd 21 bb ff 1e a3 3b
       -0.08192089 -0.006276372 -0.0024717844 0.0049780603
000150 9b 3e 64 bd 16 03 bf be 87 d9 a5 be 42 66 14 be
       -0.055723768 -0.37307042 -0.32392523 -0.14492133
000160 19 5b 99 bd 06 2f ea bc 44 eb 63 be bf 1e 26 3e
       -0.074880786 -0.028586876 -0.22257715 0.16222666
000170 9e 25 3a be 46 f9 46 be aa 65 f4 bd d1 21 41 be
       -0.18178412 -0.19431028 -0.119334534 -0.18860556
000180 ec a8 5a 3e 79 42 81 be 90 66 40 bd 42 16 3f bd
       0.21353501 -0.25246027 -0.04697281 -0.046652086
000190 0c 9f 3f be ac 71 49 3c 9e a1 90 bc d5 da 3a be
       -0.18713015 0.012295168 -0.01765519 -0.1824754
0001a0 07 5b 20 be 75 86 20 be 3d 48 ba be 3e ad 84 be
       -0.15659724 -0.15676291 -0.36383238 -0.25913423
0001b0 3a fb 08 bd 65 b6 dd bd c3 25 95 be f4 82 af be
       -0.033442713 -0.108258046 -0.29130372 -0.34279597
0001c0 52 ff 62 be 54 a3 00 3a 1a 6c 9c be 45 b5 72 bd
       -0.2216771 0.000490715 -0.30551225 -0.059254903
0001d0 c7 18 4a 3d 1f a5 64 be 5b 26 0b bc a7 99 dd 3d
       0.049340036 -0.22328614 -0.008493031 0.108203225
0001e0 c4 19 b4 bd 3e ac ff bc a6 f4 c0 3d 8e 09 c4 3d
       -0.08793977 -0.031210061 0.09421663 0.09572135
0001f0 23 07 b5 be 28 53 f9 bd 5f 25 25 be bc d7 32 be
       -0.35357007 -0.12174064 -0.16127537 -0.17465109
000200 80 71 8f bd f2 5c 28 3d cb 98 1a 3d 2d 13 10 3c
       -0.0700407 0.041104265 0.03774337 0.008793634
000210 4e e4 ee 3d 60 ed e7 3c 5b 63 68 3d 1f 85 87 bd
       0.116646394 0.028311431 0.056735378 -0.06617188
000220 c0 52 f1 bd 58 58 fc bd 58 bf 58 bc a4 33 e0 bd
       -0.117833614 -0.12321538 -0.013229214 -0.1094735
000230 ae a2 b9 3d e6 8b 13 be 3d 92 a0 bd 85 df 9b 3c
       0.09064232 -0.14408836 -0.07840393 0.01902748
000240 30 e1 cb bd 24 7a 69 3d 9a 23 31 3d 05 db 0e be
       -0.099550605 0.057001248 0.043246843 -0.13950737
000250 fe 95 46 3e d9 74 ba bd 9a 41 04 3c 2f 95 b9 3c
       0.19393155 -0.09104318 0.008072281 0.022654144
000260 95 21 34 be f9 cb ae 3d 9f 96 96 bc fe ac a8 3c
       -0.17590936 0.085349984 -0.018382369 0.020590302
000270 7f e6 1f 3d 04 e8 3f 3d 11 6e 1e 3d f4 70 29 3e
       0.039038178 0.046852127 0.038679186 0.16546994
000280 76 f5 cd 3c 2d f5 9a 3d e3 48 d9 bd d3 a9 95 3d
       0.025141459 0.07566295 -0.10609605 0.07307782
000290 d3 57 85 bd b6 83 35 3c 9d 1b 33 3c 60 38 7f bd
       -0.06510892 0.011078766 0.0109318765 -0.062309623
0002a0 2f df a5 bc 62 30 ad 3d b4 c5 95 3d 10 cc f6 bd
       -0.020248024 0.08456494 0.073130995 -0.120506406
0002b0 ed d4 81 3d f4 54 a2 3d 49 c2 0b bd 9b 14 0c be
       0.063394405 0.0792636 -0.03412083 -0.13679735
0002c0 e9 fc 41 bd 2d ac 9f bd 89 7f dd 3d 83 a2 87 3c
       -0.047360335 -0.07796512 0.10815341 0.016556984
0002d0 1f 46 b2 bd 1f d9 10 3e cb d8 4b bd 7b 9f 1b be
       -0.08704781 0.14145325 -0.049767297 -0.15197556
0002e0 f7 ea ca bc f2 9e 07 3e 7a c8 51 3d 92 4c 13 3e
       -0.024770243 0.13244227 0.05121658 0.14384678
0002f0 32 7e f2 bd 39 35 af 3d db de b2 3d c8 2c 2b be
       -0.11840476 0.08555073 0.087339126 -0.16716301

graph_rnn.weight_ih_l1 f4 [192, 64]
000000 58 f3 01 3d 09 1b 15 be 8e 8b 1b be 94 17 80 be
       0.03172621 -0.14561094 -0.15189955 -0.2501799
000010 53 6b 00 3e cc 82 a9 bd 26 85 a7 bc 73 d2 d2 3d
       0.12540941 -0.08276901 -0.020449232 0.10294046
000020 a0 33 64 be e3 23 a0 bd 9c 2a ff 3c 7e 59 fa ba
       -0.22285318 -0.07819345 0.031148247 -0.0019100157
000030 2a 2d d1 be e0 dc 7f bd 52 65 8d 3e d8 c7 9a 3d
       -0.4085477 -0.062466502 0.27616364 0.075576484
000040 20 bc 20 3f 75 f8 0b bf c1 a7 92 3e 58 5f 93 bd
       0.62787056 -0.5467599 0.2864361 -0.0719592
000050 6d 77 8c 3d 4f 5f 91 3d ab 70 a7 be 00 dd 3c 3c
       0.06858716 0.07098257 -0.32703146 0.0115273
000060 8d e0 2f 3e 63 45 d3 bd c1 70 15 be d0 5b ee be
       0.17175503 -0.10315969 -0.14593793 -0.46554422
000070 04 47 a1 bd a8 f8 71 be 59 3d 04 3e 03 9a 8e 3d
       -0.07874873 -0.23630011 0.12914027 0.06962969
000080 37 fa 42 3d 62 2a 04 3c 68 71 89 bc 21 e5 1a be
       0.047601905 0.0080667455 -0.01677771 -0.15126468
000090 0b 20 1b 3f 4e d2 d5 3c b4 05 7f 3d 4a 47 1e bf
       0.6059577 0.026101258 0.0622613 -0.6182753
0000a0 26 a0 b1 bd b3 6b a8 bd 7c 79 a7 3d 1d 3d ed 3e
       -0.08673124 -0.08223667 0.08177468 0.46335688
0000b0 22 98 a0 3e 56 4d 8f 3d bd ff 08 bd f9 8f b0 bb
       0.31366068 0.069971725 -0.033447016 -0.0053882566
0000c0 39 40 7c 3b bd 3e 78 3e e5 96 6f 3e d8 d7 c4 3e
       0.0038490428 0.24242683 0.23397405 0.38445926
0000d0 6a 7d b2 3d f1 d0 30 3e 31 1d 6c 3d 77 15 6d 3e
       0.08715327 0.17267205 0.057645027 0.2315272
0000e0 b2 b0 d8 bd 84 11 e1 bd ff 24 12 3d 00 93 78 be
       -0.10580577 -0.10989669 0.035679813 -0.24274826
0000f0 bb 9b 8d 3c b5 dc 84 3e 5f e8 b8 bd 40 b4 9b bc
       0.017286172 0.25949636 -0.09028696 -0.019006848
000100 90 82 ee 3d a1 ff af bd 4d cf fa 3c c7 da a2 bd
       0.116459966 -0.08593679 0.030616427 -0.07951885
000110 5e 2c 59 be a0 b8 5c 3b b1 7c 08 bc d3 6d 74 be
       -0.21208331 0.003367938 -0.00833051 -0.2387002
000120 b3 89 f3 3d fc 1d 6b be 73 55 b7 bd b4 72 50 be
       0.118914984 -0.22960657 -0.08951845 -0.20356256
000130 cd df b8 be 15 e8 a4 3d 8d ac 63 3e a6 73 cb 3d
       -0.36108246 0.08052079 0.22233792 0.099341676
000140 75 e6 e1 3e cc 74 17 bf b5 6b a4 3e 0e 80 10 bd
       0.44121137 -0.5916259 0.32113424 -0.035278372
000150 bc e0 48 3e 10 3c 6f 3e 01 5b 07 be 31 75 0f 3e
       0.1961698 0.23362756 -0.13218309 0.14009549
000160 11 0c 00 3e 63 06 af 3c 23 11 09 3c a1 1b c4 be
       0.12504603 0.02136535 0.008365902 -0.3830233
000170 be e2 79 3c 18 fb e8 3d ff 3c fc bc 9d 78 14 3c
       0.015251813 0.11376017 -0.030790804 0.00906196
000180 61 e0 7d 3e 77 fb 04 3e 53 5d cc be 1e bd 03 3e
       0.24792625 0.12986551 -0.3991495 0.12865111
000190 d8 14 d3 3e 64 52 3f 3e 16 8e d0 3d a4 45 32 bf
       0.4122684 0.18683773 0.10183351 -0.69637513
0001a0 12 06 d3 3d 44 ac c1 3d 56 4d e2 3d c1 d1 7a 3c
       0.10303892 0.09456685 0.11049907 0.015308798
0001b0 c8 a5 ca 3e 35 5c 81 be fb 85 c5 bc 28 71 74 be
       0.39579606 -0.2526566 -0.024111738 -0.2387129
0001c0 da d9 6e 3e b9 49 91 3e d9 a1 18 3e 68 82 a8 3d
       0.23325291 0.28376558 0.1490549 0.08227998
0001d0 a7 7a d6 3d e8 82 1d 3e 48 9c d4 be 99 c6 09 be
       0.10472613 0.15381968 -0.41525483 -0.13454665
0001e0 1a af 8b bd 66 cf 8d bb 92 52 c2 3e 5e aa 29 3e
       -0.06820507 -0.0043277023 0.3795362 0.16568896
0001f0 e4 4a 28 be e6 9c 29 3e 85 2b 15 3e 31 6f 00 be
       -0.16434819 0.16563758 0.14567383 -0.12542416
000200 bc d1 cb bb 9d 93 25 be 68 32 12 be 3a 2d 4d 3d
       -0.0062200706 -0.16169591 -0.14277041 0.05009196
000210 66 be 5a 3d 4e 57 e2 3d cf 23 6d 3d fe ed 95 3c
       0.053404234 0.11051808 0.057895478 0.01830196
000220 72 46 5a be 4a 0a ef 3d 6a cc 68 bd c2 78 a8 3e
       -0.21315935 0.11671884 -0.05683557 0.3290463
000230 65 06 42 3e 13 fa b7 bd e8 9b b3 bd d1 b3 d1 bd
       0.18947752 -0.08983245 -0.08769971 -0.102393754
000240 49 ec 18 bd 21 a5 3e 3e 0c 21 82 be f5 26 48 3e
       -0.037334714 0.18617679 -0.25415838 0.19546111
000250 55 d9 2a 3e 56 f3 1d be ab 42 0d 3d e3 35 47 3e
       0.16684468 -0.15424857 0.034487408 0.1945415
000260 ad f9 66 bd 33 1f 72 3e 07 ee 10 be a8 dd 96 3c
       -0.056390453 0.23644714 -0.141533 0.01841624
000270 0d ec f0 be 37 1d 05 3e 4b ae ac be 11 a7 e6 bd
       -0.47055092 0.12999426 -0.33726725 -0.11262334
000280 1f 56 41 3d b6 37 93 3d 68 06 94 bc ef ca d4 bd
       0.047201272 0.071883604 -0.018069461 -0.10390269
000290 1a f5 3c be 2e fd 25 bd 5e 5c 29 be 4a 90 90 3d
       -0.18452874 -0.040524654 -0.16539142 0.07058771
0002a0 e3 8a bb 3d 6f a1 a8 bd df a7 9e bc 41 52 6d be
       0.0915735 -0.08233916 -0.019367157 -0.23175909
0002b0 c0 2e 30 be b8 d9 6a 3e 80 ee ed bd e1 50 c6 3d
       -0.17205334 0.22934616 -0.11617756 0.09683395
0002c0 c7 66 16 be a8 cb bd 3d 81 40 3c be 91 de 97 be
       -0.14687644 0.0926736 -0.18383981 -0.29661992
0002d0 29 3b 76 3b 71 70 10 bc 07 fd 63 3c 08 c1 79 be
       0.0037571883 -0.008815871 0.013915307 -0.24390042
0002e0 6f e8 c5 be 8d 2a 94 be 38 01 36 3d 97 4a a5 3e
       -0.38653895 -0.28938714 0.044434756 0.3228347
0002f0 7c 3b 93 be 12 c0 06 be f9 0f 84 be cf 0d 2d 3d
       -0.2875632 -0.13159207 -0.25793436 0.042249497
000300 43 c9 7d 3d 1a d2 db bd 79 c9 81 be bb 63 a4 bd
       0.061959516 -0.10733433 -0.25349024 -0.080268346
000310 38 28 55 be a2 13 2d 3e 2d 53 87 bc 54 a1 1f be
       -0.20816123 0.1690202 -0.016519153 -0.15588886
000320 06 e9 20 bd 2b fc 06 3d 08 57 c5 3e c7 20 06 3e
       -0.03928473 0.03295533 0.38542962 0.13098441
000330 ce d3 60 bb 29 bd dc be ce 8b 29 be 8d 29 f9 3c
       -0.0034305933 -0.43113068 -0.16557238 0.03041532
000340 27 65 70 3b a7 68 29 3d fb 68 b4 3d 46 1d fc bc
       0.0036681385 0.04135957 0.08809086 -0.030775677
000350 0c 96 a4 be a5 e5 2c be 69 e9 e1 bd 3e 10 0d bf
       -0.32145727 -0.16884477 -0.110308476 -0.5510291
000360 cd 2e ad bb 00 c4 22 bf 7a b7 5d 3e 7f 40 a0 3c
       -0.00528512 -0.6358032 0.21652022 0.019562004
000370 18 0e 0a bf 13 6f 98 bd ec 67 70 bd 75 b8 27 be
       -0.53927755 -0.07443061 -0.058692858 -0.16378959
000380 f4 5f 39 be f6 65 b1 3e 03 81 5a 3e e3 7d 32 3e
       -0.1810301 0.34648103 0.21338277 0.17430834
000390 d8 78 df bc e0 50 52 be 37 d2 25 bd 16 fa ec 3d
       -0.027279302 -0.20538664 -0.04048368 0.115711376
0003a0 df bd 6e be ec 6d 3e be 0b 7b 78 3e ec 6e 78 3d
       -0.23314618 -0.1859662 0.24265687 0.06065266
0003b0 32 e2 15 3e 8e 8e a5 be e6 96 d8 be 74 d9 1b be
       0.14637068 -0.32335323 -0.42302626 -0.1521967
0003c0 b1 ad 1d be 28 1a 38 be e4 53 24 bd a6 ca fd 3d
       -0.1539829 -0.17978728 -0.040119067 0.12392168
0003d0 b4 6f 67 3e ee 2c 1b bf 15 54 96 3d ca c2 26 3e
       0.22601205 -0.6061543 0.07340256 0.16285244
0003e0 04 8b 7d 3e 85 94 53 be 86 5e b0 3d b1 85 0e bf
       0.24760062 -0.20662124 0.08611779 -0.55672747
0003f0 44 8c 23 be ab d0 07 3b 68 9b 50 bd c7 41 6c 3c
       -0.15971476 0.002072374 -0.050929457 0.014419979

graph_rnn.weight_hh_l1 f4 [192, 64]
000000 9f 26 1b ba 8c 66 49 be 7a 8c a5 3d bd 74 cd bb
       -0.0005918536 -0.19668025 0.080834344 -0.00627002
000010 43 7f 12 3c 88 dd a3 bc 03 92 ae bd 2a c0 f7 bd
       0.008941474 -0.020003095 -0.08523943 -0.12097199
000020 53 b5 c2 bd 30 3d da 3c 33 5c 00 be 36 3f b2 bd
       -0.09507241 0.026640505 -0.12535171 -0.08703463
000030 c3 74 0d be 63 39 7b bc b4 15 2d 3d 81 10 a5 3d
       -0.13814072 -0.015333506 0.042257026 0.080597885
000040 3c ad 6b 3e f1 ea db bc 72 ca de 3c 0f 2d 82 3e
       0.23015302 -0.026845427 0.027196143 0.25425002
000050 d6 5e 0f be 71 60 15 be 55 bb ad bd 11 3a 8a 3d
       -0.14001021 -0.1458757 -0.084829964 0.067493565
000060 b9 93 d0 3d 85 df 22 be bc 07 ba 3c 9a f4 17 be
       0.10184426 -0.15905578 0.022708766 -0.14839402
000070 24 ae 37 be dd e6 b0 3d bc 39 c5 3d 47 92 bf bb
       -0.17937523 0.08637784 0.096301526 -0.005846295
000080 94 20 0a be 3b ff eb 3d 8e 6f e9 bd 1e a3 94 bd
       -0.1348899 0.11523291 -0.113982305 -0.07257675
000090 58 eb 01 3e 11 02 e4 bb d5 1e da 3c 90 36 2c bd
       0.12687433 -0.006958254 0.02662603 -0.042044222
0000a0 b9 5d cf bd cd 67 97 bd 47 db f5 3d 3c ac 1c bc
       -0.10125298 -0.07392845 0.120047145 -0.009562548
0000b0 3a 9b d3 bd bc 62 00 3e 00 a0 4b be ff 24 4c 3d
       -0.103323415 0.12537664 -0.19885254 0.04983997
0000c0 a1 6b 4f bc 28 54 96 3d c3 85 43 be c8 f9 d2 bc
       -0.012659938 0.0734027 -0.19093995 -0.02575387
0000d0 a7 a7 27 3c 73 11 1c 3d 87 2f b9 bd 3d 2a f7 3c
       0.0102328425 0.03810258 -0.09042268 0.030171508
0000e0 25 85 e3 3c 94 7c 71 3e 7c 1f 6d be f9 7d 53 bd
       0.02777345 0.23582679 -0.23156542 -0.05163381
0000f0 ad d7 79 bd 5d 05 f2 3c bb 5d ba bc ef ff 2f be
       -0.0609967 0.029543573 -0.022749772 -0.17187475
000100 a5 6c 3b 3e 59 33 92 bd 38 61 46 3e 36 d6 3d 3e
       0.18303163 -0.071387 0.19373024 0.18538746
000110 64 8c 55 be fa 75 e3 bd ac 81 43 3d 66 44 8f 3d
       -0.20854336 -0.111064866 0.047731087 0.06995468
000120 76 9c cc 3d 30 b1 86 be 33 28 22 3d 3c e5 94 3e
       0.0999078 -0.26307058 0.03958912 0.29081142
000130 2a 72 f4 3a 14 a6 0f bb 28 4b 73 bd 3d 51 d2 3d
       0.0018649746 -0.0021919059 -0.059397846 0.10269401
000140 17 e4 80 bd 1e 08 2a be a6 11 8c bd 3e e4 03 3e
       -0.06293505 -0.16604659 -0.06839304 0.12880036
000150 5e 67 97 bd 0d d0 95 be 9f 0d 97 3d e3 c4 03 be
       -0.073927626 -0.29260293 0.07375645 -0.12868075
000160 23 fd b2 bd ba 9b e6 bd 95 f0 87 be df cf 03 be
       -0.08739688 -0.11260171 -0.26550737 -0.12872265
000170 54 3a 40 be 20 1b 5c 3c 47 c6 b7 bd 76 34 0b 3e
       -0.1877225 0.0134342015 -0.08973365 0.13594231
000180 5d 24 d0 3d 1e ba 1f be 3d 0a c5 3d 8f 2b 24 bc
       0.10163186 -0.15598342 0.096210934 -0.010020151
000190 9c 4a 4d 3d 84 f7 27 3d 97 52 0c bc 79 ef eb 3b
       0.05011998 0.041007534 -0.008564613 0.007200178
0001a0 3e 4d c4 3c 0d 46 27 3c d2 94 86 3e 61 65 61 be
       0.023962613 0.0102095725 0.26285416 -0.22011329
0001b0 3e b4 af 3d 02 65 42 3e 83 25 c6 bd ac 1e 17 be
       0.085793 0.18983844 -0.096751235 -0.14757794
0001c0 b9 6b 9b 3d aa 0c 02 3c ad e0 e9 3d 5a b4 b9 bd
       0.07588906 0.00793759 0.11419807 -0.090676025
0001d0 2a db 42 3c 9e 65 2f bc 3c 0e 4d bd 1c 2a 22 bd
       0.011893073 -0.01070538 -0.050062403 -0.03959094
0001e0 d3 11 52 bc 7c 1b ec bd 8b e8 e0 3d cf 3d d5 bd
       -0.012821632 -0.1152868 0.10981854 -0.1041218
0001f0 17 94 2a 3e bd 37 d7 bd 66 21 1c bb 0c 52 26 3c
       0.16658054 -0.10508678 -0.0023823618 0.010151397
000200 8c b9 d9 3d 57 8a cc bd cb 93 ab 3d 6b e8 9d 3d
       0.106310934 -0.09987324 0.08377799 0.07710346
000210 df 0e bd 3d 7c 78 4a 3d b0 27 4c bc ec 8f 3c be
       0.09231352 0.04943131 -0.012460634 -0.18414277
000220 12 68 15 be 47 e1 6b 3e 2d 25 88 3e a7 4a b7 3d
       -0.14590481 0.23035155 0.26590863 0.08949786
000230 8b df 9b bc 4e 28 bb bd d5 64 f4 bd 21 1b dd 3d
       -0.019027492 -0.09138547 -0.11933295 0.1079619
000240 f0 a5 ac bc 22 e0 90 bd f5 40 b7 bd b4 70 18 3e
       -0.021075219 -0.07074 -0.089479364 0.14886743
000250 5e 9b 69 be 05 ee 01 be a8 42 28 3e 14 85 31 3e
       -0.22813174 -0.12688453 0.16431677 0.17335922
000260 18 8c 5d 3e e9 a2 89 ba 47 09 05 bd 7b ef 44 3b
       0.21635473 -0.0010500822 -0.03247955 0.0030049968
000270 96 35 da 3d 15 39 a1 3e 42 75 b0 bd 8d 4d 81 bd
       0.10654752 0.31488863 -0.08616115 -0.0631362
000280 9c 85 a6 3e bb 79 71 bd 7b 5e fa be 57 14 14 3d
       0.3252381 -0.05895398 -0.48900208 0.03615221
000290 e5 b8 ac 3c 1d 31 14 be ac 3a e5 3d 98 87 9b bd
       0.021084258 -0.1447186 0.111928314 -0.07594222
0002a0 28 e6 91 bd 09 e5 f5 3d d1 ed 9f bc c5 89 00 be
       -0.07123977 0.120065756 -0.01952258 -0.12552555
0002b0 bf 1f 0b be be 94 01 be 2d 57 d7 bd 79 b1 36 3d
       -0.13586329 -0.12654397 -0.10514674 0.044602845
0002c0 ea 63 16 3e 58 a3 66 bc 11 e5 34 3e 8f c7 32 3c
       0.14686552 -0.01407703 0.17665507 0.010911836
0002d0 0c ad f3 3d ca 45 ff 3d 00 cf 0b 3e 9b 4a 8b 3d
       0.118982404 0.12464483 0.13653183 0.06801339
0002e0 3a 80 63 be 5f 8b 03 be 8b 89 18 be f8 02 6a 3e
       -0.22216883 -0.12846135 -0.14896218 0.22852695
0002f0 00 c7 76 3d e2 e9 13 be 7c 9a 37 3e a0 32 82 3d
       0.060248375 -0.14444688 0.17930025 0.06357312
000300 88 da 4d bd 24 9a b1 3e da 31 78 bd b9 07 8b be
       -0.050257236 0.34687912 -0.060594417 -0.2715433
000310 6a 9f c2 be dd c8 e4 bd dc 70 b7 3d 3a 4c 8a be
       -0.38012248 -0.11171124 0.08957073 -0.2701128
000320 15 96 53 be 00 ae a5 3e dc f6 bf bc 86 4b fe bc
       -0.2066272 0.32359314 -0.023433141 -0.031041872
000330 67 5e 3e 3d 50 e0 23 bd 48 36 14 bd e4 8c 91 bd
       0.046476748 -0.040008843 -0.03618458 -0.07106951
000340 87 f6 8d 3c b9 95 96 3e 1f ed 88 3d 5e 34 1b 3e
       0.017329467 0.29411104 0.06685852 0.15156695
000350 18 48 15 3e 67 ea 58 3d a6 6e 33 3d e6 33 3a bc
       0.14578283 0.05295792 0.043806694 -0.011364913
000360 21 e6 44 3e 34 07 66 3d 86 bb 16 be 09 77 ab bc
       0.19228412 0.056159213 -0.14719972 -0.020930784
000370 0f 06 96 bd 3e 2a a5 bd 46 bf b8 3c 14 dc 0c bd
       -0.07325374 -0.08064698 0.022552144 -0.03438957
000380 b3 fd 87 be ea 56 65 3e 3c 57 c1 be 67 d6 db 3d
       -0.26560745 0.22396436 -0.37761867 0.107342534
000390 bc c4 e5 bd 8b b5 b8 3c 94 20 3c bd 2e b4 10 3e
       -0.11219165 0.022547504 -0.045929506 0.14131233
0003a0 64 ce 84 be f8 c8 48 be 64 52 f8 bd ad 75 43 be
       -0.25938714 -0.19607913 -0.1212509 -0.19087858
0003b0 28 fc fd bd bd 25 0f be e2 8c 9d 3e ec 65 c1 bd
       -0.124016106 -0.1397924 0.30771548 -0.09443268
0003c0 91 f5 73 3e 05 c8 17 be b3 dc 2e 3d 81 ef bc bd
       0.23824145 -0.14822395 0.042690944 -0.09225369
0003d0 a1 70 fc bc 80 40 a6 bd 9d 18 e3 bd 10 38 da 3e
       -0.030815424 -0.08117771 -0.11088679 0.42620897
0003e0 18 b6 99 be f3 c9 c7 3c 1f e8 80 be 82 7f 63 3c
       -0.3002174 0.02438829 -0.25177094 0.013885381
0003f0 95 eb 10 be 15 1c c9 bd 0a 1e 1e 3d 49 da 44 3e
       -0.14152367 -0.09819809 0.038602866 0.19223894
