graphrnn_v2/experiments/seeds/seed_experiment_seed_0/model_at_0.pt (torch, 420155 bytes, 43 tensors)

adj_embedding.0.weight f4 [32, 15]
0.1922466 -0.06743065 -0.22920357 0.2514104 -0.13380988 -0.25424576 0.014168761 -0.25288382
-0.17458859 0.13541757 0.1443009 -0.23500949 -0.14023381 0.119344585 -0.100098096 -0.21728216
-0.23101604 -0.12197206 0.00911251 -0.1912464 -0.07563236 -0.18868554 0.038487345 0.06603041
0.13864718 0.16897754 0.25633958 -0.10342345 0.13545656 -0.21134488 0.09154531 0.004469586
-0.19375288 0.15565906 -0.0029297327 -0.15423384 0.016215242 -0.09870236 -0.028837783 0.21943708
-0.16371751 -0.04796617 -0.13901538 0.10186344 -0.016109575 0.05138315 -0.22426112 -0.09974998
0.029245175 0.19105431 0.19126153 -0.0014759839 0.16887276 0.22404401 -0.16027993 0.22757684
0.13805203 0.08195358 -0.08990528 -0.021522252 0.22531557 0.20430505 0.18582644 -0.070110835
-0.10747114 0.12785724 -0.12759608 0.1747384 0.22555082 0.23104101 -0.23996241 0.2584364
0.24671048 0.18999133 0.2184395 -0.07664986 0.20921461 0.073031224 0.078959085 0.18990752
-0.23158452 -0.196576 0.1758288 0.16179354 -0.12866005 0.23739366 0.108725294 -0.1944225
0.16987613 -0.10527249 0.017642427 -0.23848872 -0.2296177 0.038604695 -0.12559563 0.18031368
-0.05884532 0.19836944 0.1359121 -0.24315608 0.23865803 -0.06563772 -0.15618815 -0.10860558
0.15137401 -0.22325546 0.12643112 -0.07310026 -0.0637416 -0.16570637 0.13768032 0.2424325
-0.08848464 0.09992204 0.17110525 -0.1679924 -0.16082083 -0.16965306 -0.17851906 -0.04684308
-0.25434822 -0.23512495 0.03039904 -0.19500212 -0.09870622 0.06120455 0.061523184 -0.14898057
-0.15578142 -0.10387929 -0.072083704 -0.14139812 0.0945881 -0.117576934 0.034837827 -0.12666212
-0.14673032 -0.13690545 0.08450739 -0.24312057 0.17396162 0.20549202 0.19929187 0.08887972
-0.10694875 -0.01165613 0.022573242 0.22257017 0.23124936 0.032973673 -0.24835634 -0.075130336
-0.09284804 0.21600348 0.03865471 -0.015144435 0.017623749 -0.17474963 0.048960906 0.113839105
-0.21010014 0.2037942 0.022350281 0.093652636 0.0005751158 -0.16323516 -0.1474048 -0.13409235
-0.17844187 -0.0060235886 -0.085185945 -0.16253377 0.07093454 0.16747668 0.19428523 0.026512377
-0.089950025 -0.24108417 -0.015885469 -0.1425865 0.10355279 -0.15660243 -0.01819842 -0.00310316
-0.15765491 0.072701976 0.21062449 -0.09679709 -0.04377064 0.15261367 -0.11088622 -0.23055033
0.038455065 0.12036054 0.052151453 0.24962607 0.14980893 -0.10443075 -0.23047453 0.15819862
-0.12240329 0.0070812134 0.09421062 0.009805248 -0.019384995 -0.062723964 0.18649602 0.11976473
0.11600548 -0.06708809 -0.2232491 0.1253611 0.029391237 0.028039914 0.06476679 0.11976747
-0.087068945 -0.055797264 -0.06026355 0.21000017 0.17185783 0.17985305 0.17526864 0.10755218
-0.23666956 -0.06379472 -0.0039911387 0.15139076 0.0005974694 0.16865295 -0.13708498 -0.2083926
0.12168869 0.19899419 -0.17157158 0.025216626 -0.23610304 0.2132939 0.20033865 -0.18083815
0.2320482 -0.1761101 0.18098879 -0.10209896 -0.0810587 -0.0156248715 0.11353625 0.17828703
0.08055503 -0.21911326 0.2105863 0.07426024 0.009888888 -0.19476548 0.25065023 -0.19832651
00000000: 4bdc 443e 1519 8abd 57b4 6abe ddb8 803e
00000010: 7505 09be 802c 82be 1724 683c fd79 81be
00000020: 5ac7 32be e7aa 0a3e 9dc3 133e 54a6 70be
00000030: 7499 0fbe ef6a f43d 3b00 cdbd 377f 5ebe
00000040: 788f 6cbe 7dcc f9bd a34c 153c 19d6 43be
00000050: 24e5 9abd c836 41be e8a4 1d3d f43a 873d
00000060: 87f9 0d3e 7308 2d3e f13e 833e accf d3bd
00000070: 20b5 0a3e cb6a 58be 1c7c bb3d 9b75 923b
00000080: 2867 46be 1765 1f3e c200 40bb 7aef 1dbe
00000090: d4d5 843c 7724 cabd 373d ecbc 1db4 603e
000000a0: 90a5 27be 2d78 44bd 0c5a 0ebe c79d d03d
000000b0: 3af8 83bc 2377 523d b5a4 65be b849 ccbd
000000c0: 9493 ef3c bea3 433e 10da 433e cd75 c1ba
000000d0: fbec 2c3e cb6b 653e 6c20 24be e709 693e
000000e0: 835d 0d3e 47d7 a73d 4220 b8bd 6f4f b0bc
000000f0: 20b9 663e 5835 513e 4949 3e3e 4596 8fbd
00000100: d419 dcbd 02ed 023e 8ca8 02be a0ee 323e
00000110: cbf6 663e 0496 6c3e b5b8 75be c751 843e
00000120: aca1 7c3e 168d 423e 9bae 5f3e 9afa 9cbd
00000130: 5b3c 563e 6591 953d 4db5 a13d 1e77 423e
00000140: 7e24 6dbe 384b 49be 770c 343e 35ad 253e
00000150: 76bf 03be 5317 733e 5eab de3d b116 47be
00000160: 02f4 2d3e 1a99 d7bd da86 903c 6336 74be
00000170: e720 6bbe f51f 1e3d 249c 00be 26a4 383e
00000180: ca07 71bd 5c21 4b3e 8b2c 0b3e e8fd 78be
00000190: c562 743e 126d 86bd c9ef 1fbe 9a6c debd
000001a0: ca01 1b3e 149d 64be 2977 013e 97b5 95bd
000001b0: f58a 82bd eeae 29be 12fc 0c3e 3a40 783e
000001c0: 6f37 b5bd eda3 cc3d 3736 2f3e 3306 2cbe
000001d0: 37ae 24be 88b9 2dbe b3cd 36be 88de 3fbd
000001e0: ee39 82be 98c4 70be 6807 f93c a3ae 47be
000001f0: 7d26 cabd 9fb1 7a3d bcff 7b3d 5d8e 18be
00000200: 2a85 1fbe aabe d4bd 9fa0 93bd abca 10be
00000210: 68b7 c13d 2dcc f0bd 1cb2 0e3d b7b3 01be
00000220: 7940 16be f130 0cbe 3612 ad3d 99f4 78be
00000230: ff22 323e 806c 523e 2b13 4c3e 9206 b63d
00000240: f207 dbbd 5af9 3ebc 85eb b83c 6fe9 633e
00000250: a2cc 6c3e 670f 073d 2051 7ebe efdd 99bd
00000260: 1d27 bebd 0430 5d3e 6754 1e3d 5d20 78bc
00000270: ae5f 903c 91f1 32be 3b8b 483d 7a24 e93d
00000280: 7e24 57be 6daf 503e f017 b73c f4cc bf3d
00000290: 5ec3 163a 1e27 27be 49f1 16be 814f 09be
000002a0: 77b9 36be 8661 c5bb f875 aebd 416f 26be
000002b0: 2146 913d 027f 2b3e b5f2 463e 7c30 d93c
000002c0: b837 b8bd c5de 76be 3e22 82bc 3202 12be
000002d0: 7c13 d43d 635c 20be da14 95bc 635e 4bbb
000002e0: 4a70 21be c6e4 943d f2ad 573e 8d3d c6bd
000002f0: d848 33bd c246 1c3e 5118 e3bd 6315 6cbe
00000300: 0f83 1d3d 967f f63d c39c 553d fa9d 7f3e
00000310: 8367 193e cadf d5bd 8401 6cbe d2fe 213e
00000320: 93ae fabd 8609 e83b 7ff1 c03d 31a6 203c
00000330: 48cd 9ebc 6c75 80bd d0f8 3e3e 3647 f53d
00000340: 4894 ed3d 7b65 89bd 699b 64be a95e 003e
00000350: e4c5 f03c f6b3 e53c 73a4 843d a648 f53d
00000360: 3451 b2bd ac8b 64bd ead6 76bd 490a 573e
00000370: 80fb 2f3e 662b 383e 9f79 333e 5144 dc3d
00000380: 8159 72be cea6 82bd 19c8 82bb 2e06 1b3e
00000390: 7e9f 1c3a 5cb3 2c3e 0160 0cbe df64 55be
000003a0: eb37 f93d 22c5 4b3e 76b0 2fbe 1993 ce3c
000003b0: ffc4 71be b769 5a3e 9325 4d3e a32d 39be
000003c0: 0b9e 6d3e 3556 34be 2055 393e 4219 d1bd
000003d0: 1b02 a6bd 76ff 7fbc b285 e83d e090 363e
000003e0: 09fa a43d 3a5f 60be efa3 573e c115 983d
000003f0: 0105 223c 9a70 47be 3a55 803e 1b16 4bbe

adj_embedding.0.bias f4 [32]
-0.15280814 0.11291357 0.14391112 0.051325105 0.24566743 -0.09146944 0.23065414 -0.097531594
0.2021138 0.24920605 0.101963095 -0.17838104 0.23585157 -0.048160374 -0.2225595 0.19662382
-0.039621197 -0.23442662 -0.11195333 0.10048875 -0.13577056 -0.11396523 0.01014247 0.18217115
0.21250716 -0.07155729 0.124695666 -0.099213466 -0.20365992 -0.09924662 -0.1333522 -0.0024793232
00000000: bd79 1cbe 3b3f e73d 705d 133e 463a 523d
00000010: 3e90 7b3e 5454 bbbd 9930 6c3e a5be c7bd
00000020: ecf6 4e3e df2f 7f3e 07d2 d03d 85a9 36be
00000030: 1383 713e d043 45bd a3e6 63be c157 493e
00000040: d649 22bd 880d 70be ca47 e5bd 0ccd cd3d
00000050: 7007 0bbe 9a66 e9bd 9a2c 263c 138b 3a3e
00000060: 7a9b 593e a18c 92bd 7160 ff3d 6e30 cbbd
00000070: 3a8c 50be d041 cbbd 7b8d 08be 247c 22bb

graph_rnn.weight_ih_l0 f4 [192, 32]
0.101731375 -0.055581536 0.020705616 0.060988363 -0.053698592 0.11295012 0.050869476 -0.042377364
-0.12355939 0.004061998 0.0881142 -0.0148228705 -0.115138754 -0.03736494 0.0079676835 0.01822514
0.028385313 -0.055188544 -0.112489946 0.02206391 0.08875649 0.045968186 0.007108814 -0.021087142
-0.10907684 0.04364141 -0.017535176 -0.07800165 0.109030366 0.029421752 0.082268104 -0.03566642
-0.04855527 -0.11592321 -0.021639101 -0.06173624 0.10336311 0.037337884 -0.039025538 -0.04985704
0.10762865 0.0016659766 0.063578844 0.014063463 -0.028696273 -0.09318863 0.09207359 0.088181615
-0.11705473 -0.07055907 -0.12228131 0.029776553 -0.035177834 0.069622464 -0.06341265 0.06428932
0.040803343 0.011239578 0.09553097 0.07041577 0.061668467 0.11674313 0.049019776 -0.08208821
0.07745411 0.11229106 0.032780606 -0.10381047 -0.040650573 0.10727644 0.074897766 -0.040396616
-0.037449855 -0.020215353 0.007862479 -0.06337592 0.110817775 0.029318921 0.070422836 0.073163815
-0.036372412 0.067612514 0.100064695 0.12238468 -0.034439616 -0.114737734 -0.025652222 0.12098201
-0.09717522 -0.0027294455 -0.044877853 -0.025814664 -0.065217614 0.021085894 -0.092243835 -0.06078629
-0.09860227 0.12083745 -0.09620898 0.065599315 0.021930069 -0.06857776 -0.041960236 0.11324548
-0.059683215 0.12282705 0.087502204 0.06009856 0.09682191 -0.020996843 0.09606846 -0.0597284
0.0113723595 0.09084332 -0.044807807 -0.120784 0.11396686 0.07058246 -0.06373852 0.11183548
0.012934461 0.050065782 0.07191108 0.015133136 0.016957328 -0.105509 -0.046684634 -0.1118816
0.015384334 0.08306438 -0.07364428 -0.043038275 -0.11408811 0.002920134 0.091295324 0.022378664
-0.042687975 0.018241288 0.11396656 0.017097339 0.081986025 0.010763917 -0.121075 0.029383536
-0.017580315 -0.041806895 -0.05968555 0.08842354 -0.075939596 -0.07789791 0.11803705 -0.09382714
-0.026120141 0.10365407 0.027703831 0.042061333 -0.07042868 0.10957559 0.007888588 0.06250831
0.07493405 -0.06958476 -0.031271037 0.0047743465 0.03855609 -0.057798512 0.0027145473 0.055644386
0.07071113 0.10249968 -0.069697514 0.095969066 -0.063230984 0.053809028 -0.122493714 0.012027954
-0.02939729 -0.11021631 -0.0804695 0.029764337 0.092990175 -0.08112688 -0.052205794 0.06457726
0.1215622 -0.03766034 -0.12126858 0.09357168 0.015195726 0.017748082 -0.07159018 -0.024349881
-0.059844382 -0.07669288 -0.06377651 -0.1096955 -0.013422596 -0.042967085 -0.12396792 0.061110806
0.04685339 0.062389523 0.007826833 -0.1116994 0.014141496 0.08018595 0.08481888 0.004390451
-0.084177226 0.08643249 -0.027549377 0.092880465 -0.04403703 -0.028163323 0.12282824 -0.0786094
-0.11214962 0.005860125 0.123556554 0.0020134042 0.011298051 0.044149462 -0.06360425 0.055090077
0.05124217 -0.029404296 0.043083705 -0.07652525 0.038366336 -0.115663 -0.07305926 -0.055035453
0.0055917455 0.030610852 0.070204 -0.022864759 -0.07410638 -0.10050198 0.03412502 -0.017463077
-0.06452735 -0.029611858 -0.050838266 0.10141704 0.04675469 0.100050606 -0.030567687 -0.119603395
0.062046282 0.049787164 0.03980986 0.11454395 0.04168448 0.11387512 0.018278025 0.11074799
00000000: 8a58 d03d 77a9 63bd d39e a93c efce 793d
00000010: 0ef3 5bbd 6452 e73d 835c 503d e393 2dbd
00000020: b50c fdbd 821a 853b 3875 b43d a0db 72bc
00000030: decd ebbd fb0b 19bd e38a 023c e44c 953c
00000040: 5188 e83c 620d 62bd 2161 e6bd 5fbf b43c
00000050: f6c5 b53d 2349 3c3d 0ef1 e83b f1be acbc
00000060: ae63 dfbd 56c1 323d eea5 8fbc 54bf 9fbd
00000070: 504b df3d e305 f13c 2e7c a83d f416 12bd
00000080: e4e1 46bd 2669 edbd 7c44 b1bc 24df 7cbd
00000090: 0ab0 d33d 9cef 183d 3ed9 1fbd e536 4cbd
000000a0: 696c dc3d e65c da3a a035 823d 706a 663c
000000b0: 7214 ebbc aed9 bebd 1491 bc3d 9098 b43d
000000c0: 64ba efbd 4681 90bd a06e fabd f5ed f33c
000000d0: a216 10bd 3996 8e3d 7ede 81bd 1eaa 833d
000000e0: 6821 273d 3526 383c bea5 c33d 2536 903d
000000f0: 1398 7c3d 0617 ef3d f6c8 483d dd1d a8bd
00000100: 43a0 9e3d dbf8 e53d f544 063d 959a d4bd
00000110: 3781 26bd c0b3 db3d 0064 993d ec76 25bd
00000120: 0565 19bd ab9a a5bc a1d1 003c 3ccb 81bd
00000130: 6ef4 e23d 3c2e f03c d939 903d e9d6 953d
00000140: 3dfb 14bd 6e78 8a3d b8ee cc3d d2a4 fa3d
00000150: 8e10 0dbd 9efb eabd 9c24 d2bc 6bc5 f73d
00000160: cd03 c7bd 7fe0 32bb d7d1 37bd 4679 d3bc
00000170: d090 85bd 53bc ac3c 56ea bcbd 0bfb 78bd
00000180: fdef c9bd a079 f73d 3709 c5bd ef58 863d
00000190: b0a6 b33c 7f72 8cbd 7fde 2bbd 3fed e73d
000001a0: 6376 74bd c08c fb3d 5b34 b33d e829 763d
000001b0: 914a c63d 9201 acbc 8abf c43d c4a5 74bd
000001c0: 2253 3a3c 100c ba3d 6488 37bd 9a5d f7bd
000001d0: 7567 e93d 898d 903d 5789 82bd 000a e53d
000001e0: 10eb 533c c711 4d3d 1e46 933d f9f0 773c
000001f0: 18ea 8a3c 1a15 d8bd 6338 3fbd 2e22 e5bd
00000200: 930e 7c3c a81d aa3d d0d2 96bd e748 30bd
00000210: 07a7 e9bd b85f 3f3b 0bf9 ba3d 7653 b73c
00000220: 96d9 2ebd c16e 953c 4d67 e93d b80f 8c3c
00000230: 4ae8 a73d 245b 303c 2bf6 f7bd beb5 f03c
00000240: 9804 90bc b53d 2bbd d678 74bd 6717 b53d
00000250: 3886 9bbd f088 9fbd 69bd f13d 7228 c0bd
00000260: e8f9 d5bc 9648 d43d 25f3 e23c 8148 2c3d
00000270: e93c 90bd 2b69 e03d 233f 013c 5b04 803d
00000280: 0677 993d 7482 8ebd 0f16 00bd 1f72 9c3b
00000290: feec 1d3d 22be 6cbd 8ce6 313b 5eeb 633d
000002a0: ffd0 903d 5aeb d13d 92bd 8ebd 6e8b c43d
000002b0: 3f7f 81bd db66 5c3d fcdd fabd e510 453c
000002c0: 96d2 f0bc 17b9 e1bd 31cd a4bd 57d4 f33c
000002d0: a271 be3d da25 a6bd bed5 55bd 1541 843d
000002e0: 9af5 f83d bb41 1abd a95b f8bd 82a2 bf3d
000002f0: 7ff7 783c 6d64 913c df9d 92bd 6779 c7bc
00000300: 621f 75bd 2811 9dbd 429d 82bd 09a8 e0bd
00000310: 73ea 5bbc 41fe 2fbd e5e2 fdbd 534f 7a3d
00000320: 57e9 3f3d 288c 7f3d 1e3c 003c a8c2 e4bd
00000330: bcb1 673c 8838 a43d 85b5 ad3d c6dd 8f3b
00000340: 1c65 acbd 8403 b13d 3baf e1bc 1d38 be3d
00000350: 2c60 34bd c5b6 e6bc 5f8d fb3d f7fd a0bd
00000360: b3ae e5bd 4b06 c03b 380b fd3d 51f3 033b
00000370: 761b 393c 11d6 343d f242 82bd 22a6 613d
00000380: 4fe3 513d 47e1 f0bc 8a78 303d 45b9 9cbd
00000390: 0526 1d3d b9e0 ecbd 18a0 95bd db6c 61bd
000003a0: f63a b73b 9cc3 fa3c 1dc7 8f3d e04e bbbc
000003b0: 16c5 97bd fbd3 cdbd adc6 0b3d ba0e 8fbc
000003c0: ea26 84bd 9194 f2bc c93b 50bd bdb3 cf3d
000003d0: d981 3f3d 55e7 cc3d 1669 fabc a0f2 f4bd
000003e0: 3e24 7e3d a0ed 4b3d aa0f 233d 0596 ea3d
000003f0: 58bd 2a3d 5c37 e93d ccbb 953c d8cf e23d

graph_rnn.weight_hh_l0 f4 [192, 64]
-0.04477742 -0.0023111503 0.087308004 -0.09887592 0.096046165 -0.07839061 -0.0067726453 -0.10790484
-0.11418767 -0.015257408 -0.117701426 0.043419868 0.038998928 -0.08026021 0.012850046 -0.058897402
0.09693446 0.037261967 -0.06304219 0.023123922 -0.11251673 -0.009098043 -0.07585353 0.09969644
0.035626464 -0.014965862 0.073388405 0.007928844 -0.035473764 -0.00985671 -0.046960205 0.077988505
0.03889371 0.071440905 0.026193336 -0.0048265457 0.08155731 0.11955671 -0.05076256 -0.1127131
-0.077357374 -0.045512933 -0.039531536 0.05959442 -0.014942647 -0.013820807 0.061980315 -0.10688021
-0.015380281 0.08406038 -0.09504453 0.04756785 -0.11875633 0.08989577 -0.016015563 0.09212071
-0.1153645 0.06774683 -0.08058248 0.057026077 -0.120879956 -0.09103269 0.005464635 0.0952348
-0.118815035 -0.102165766 -0.0042199306 0.009152261 0.04283323 0.0014719418 0.0968858 -0.04241283
0.022591071 -0.027607555 0.082333334 0.08107777 0.107580505 -0.046500355 0.09370618 0.041617338
-0.02572086 -0.06988107 0.033471044 -0.07641397 0.01556279 -0.031734664 0.12377421 -0.07587397
0.051027745 -0.052734364 0.044309843 0.04476653 -0.08026168 0.045996007 -0.08268037 0.100454964
-0.03049713 0.10673106 0.06880377 -0.09530596 -0.10129296 -0.011459662 -0.01570167 -0.025186563
-0.004157286 -0.023047887 0.03494728 0.06758506 0.0006824941 0.0844226 0.10824388 -0.03921679
-0.06365322 -0.034785833 -0.099282295 0.10600283 -0.025825707 0.047497407 0.100025244 0.10706056
-0.012318882 0.09481896 0.030745406 -0.00698279 0.03879581 0.07233214 -0.014953153 0.054116566
0.078073986 0.092923686 -0.02954951 0.030748624 0.018699123 0.026272656 -0.08255206 -0.058131333
-0.07749085 0.023520159 -0.08786367 -0.03156145 0.07706232 -0.042614013 -0.057742443 -0.07848242
-0.03410532 -0.07143053 -0.070301004 0.057321277 0.09262246 -0.09684744 -0.013576406 0.08484667
0.0038470712 0.08200177 -0.100417584 -0.054194145 0.05373691 -0.030988688 -0.04197953 -0.120309815
0.08963831 0.07673363 0.0074285665 -0.12235368 0.021618648 0.08418161 -0.09184183 -0.014752226
0.11627367 -0.094419986 0.04050544 0.070895694 0.10726261 -0.032827526 -0.012762106 0.12307959
-0.12247729 0.060287256 0.020040806 0.0969776 0.03628058 0.04381473 -0.11956705 -0.10196764
0.016907146 -0.09092863 -0.118711665 -0.058980163 0.054071903 0.09910366 -0.09688911 0.0676491
0.035970747 0.07666833 -0.076887526 0.0758803 -0.08768048 0.048987612 -0.06080222 0.094487496
-0.11886659 0.043434802 0.11682585 0.051055025 -0.052856546 0.0048645623 0.10685754 -0.039761346
-0.07980204 -0.011402336 0.032378063 0.10257987 0.028350027 -0.046826843 -0.08195256 0.09067435
-0.010801573 0.0711459 0.10578511 -0.041673295 0.07136911 0.08299071 0.1041076 0.030931538
-0.03962269 -0.094143726 -0.07824826 0.08141623 -0.06276579 -0.010092487 -0.08606577 -0.045977533
0.08661417 -0.037464987 0.11301916 -0.06395822 -0.05733512 -0.100887306 -0.10762539 0.1084704
0.014924295 0.047767196 -0.055179104 0.11814879 0.07377891 -0.098116234 -0.071868815 -0.085035905
-0.124482885 0.038364142 -0.1158599 -0.1217357 0.022564169 0.10559926 -0.06044871 0.09517652
00000000: 8768 37bd ab76 17bb 8ace b23d 757f cabd
00000010: dab3 c43d 428b a0bd 11ed ddbb 36fd dcbd
00000020: 3adb e9bd 35fa 79bc 720d f1bd 08d9 313d
00000030: 57bd 1f3d 775f a4bd 0089 523c 673e 71bd
00000040: 9385 c63d 01a0 183d 441c 81bd 616e bd3c
00000050: 2c6f e6bd f50f 15bc 1859 9bbd a62d cc3d
00000060: 0eed 113d 6033 75bc a94c 963d fbe7 013c
00000070: f04c 11bd 0a7e 21bc 5859 40bd 70b8 9f3d
00000080: 034f 1f3d 9c4f 923d 6893 d63c 0028 9ebb
00000090: 8507 a73d 26da f43d 67ec 4fbd 20d6 e6bd
000000a0: 8b6d 9ebd c56b 3abd d2eb 21bd 4719 743d
000000b0: 01d2 74bc ab70 62bc 12df 7d3d 03e4 dabd
000000c0: 93fd 7bbc d927 ac3d b5a6 c2bd 82d6 423d
000000d0: 8536 f3bd 461b b83d 1233 83bc c8a9 bc3d
000000e0: 3944 ecbd dabe 8a3d 6d08 a5bd 2d94 693d
000000f0: e98f f7bd 596f babd ae10 b33b 760a c33d
00000100: 4c55 f3bd 493c d1bd 5847 8abb 5df3 153c
00000110: e671 2f3d 2cee c03a 106c c63d 13b9 2dbd
00000120: e910 b93c 3d29 e2bc 619e a83d 1a0c a63d
00000130: 2b53 dc3d 2877 3ebd 07e9 bf3d f176 2a3d
00000140: 8eb4 d2bc ce1d 8fbd ef18 093d ed7e 9cbd
00000150: 13fb 7e3c 35fc 01bd 557d fd3d d063 9bbd
00000160: 7802 513d fdff 57bd 3d7e 353d 1c5d 373d
00000170: 3c60 a4bd 4f66 3c3d 5354 a9bd 55bb cd3d
00000180: 1ed5 f9bc d095 da3d fee8 8c3d c52f c3bd
00000190: af72 cfbd 4ec1 3bbc caa0 80bc 0d54 cebc
000001a0: d839 88bb ecce bcbc e124 0f3d 096a 8a3d
000001b0: 67e9 323a c2e5 ac3d f8ae dd3d c9a1 20bd
000001c0: 9f5c 82bd 977b 0ebd 8454 cbbd 0318 d93d
000001d0: 6f90 d3bc a48c 423d 09da cc3d 9142 db3d
000001e0: 23d5 49bc 7130 c23d cadd fb3c e3cf e4bb
000001f0: 5be8 1e3d df22 943d 12fe 74bc 55a9 5d3d
00000200: 41e5 9f3d c64e be3d d011 f2bc 8ae4 fb3c
00000210: e72e 993c c139 d73c 0e11 a9bd 1f1b 6ebd
00000220: 86b3 9ebd 59ad c03c def1 b3bd 9446 01bd
00000230: dad2 9d3d 088c 2ebd 5783 6cbd 64bb a0bd
00000240: 05b2 0bbd 2b4a 92bd f9f9 8fbd b7c9 6a3d
00000250: d8b0 bd3d f357 c6bd 936f 5ebc 17c4 ad3d
00000260: 251f 7c3b 8bf0 a73d bca7 cdbd aefa 5dbd
00000270: 3c1b 5c3d fddb fdbc baf2 2bbd fe64 f6bd
00000280: 4a94 b73d 8526 9d3d 556b f33b 9194 fabd
00000290: 9719 b13c 6867 ac3d 9217 bcbd 52b3 71bc
000002a0: e420 ee3d 445f c1bd 08e9 253d c331 913d
000002b0: 80ac db3d 2876 06bd 2718 51bc 2711 fc3d
000002c0: 60d5 fabd c5ef 763d 9e2c a43c 319c c63d
000002d0: f29a 143d 1377 333d 92df f4bd 69d4 d0bd
000002e0: db80 8a3c ca38 babd 1a1f f3bd 2f95 71bd
000002f0: 807a 5d3d dcf6 ca3d cc6d c6bd 9d8b 8a3d
00000300: 1056 133d 4904 9d3d 3577 9dbd 2167 9b3d
00000310: d391 b3bd 3ca7 483d c00b 79bd a982 c13d
00000320: 5470 f3bd b1e8 313d 6442 ef3d 131f 513d
00000330: 1b80 58bd e866 9f3b 20d8 da3d cbdc 22bd
00000340: 406f a3bd ddd0 3abc dc9e 043d 6515 d23d
00000350: 513e e83c 81cd 3fbd bed6 a7bd 79b3 b93d
00000360: 15f9 30bc f1b4 913d dda5 d83d 9eb1 2abd
00000370: f829 923d 09f7 a93d 5e36 d53d 2364 fd3c
00000380: 674b 22bd 6dce c0bd a040 a0bd 8dbd a63d
00000390: 5a8b 80bd f55a 25bc 4043 b0bd f052 3cbd
000003a0: c562 b13d e374 19bd 9776 e73d 87fc 82bd
000003b0: 3bd8 6abd 019e cebd b36a dcbd bb25 de3d
000003c0: 0885 743c 89a7 433d 7c03 62bd fef7 f13d
000003d0: 6619 973d 2af1 c8bd f52f 93bd 4e27 aebd
000003e0: e2f0 febd b823 1d3d f547 edbd 9150 f9bd
000003f0: 7ed8 b83c 6d44 d83d 1199 77bd e8eb c23d

graph_rnn.bias_ih_l0 f4 [192]
-0.103200875 0.12074189 -0.022268368 -0.10974054 0.024238408 -0.04010652 -0.048797973 0.013528966
-0.047281824 0.05859207 -0.04235212 -0.05984229 0.0896591 0.12131134 0.020652343 0.028269067
0.039862167 0.08155335 0.112917 -0.03546848 -0.12200209 -0.011505666 -0.0039503 0.06218031
0.12489646 -0.09750066 0.06102389 0.00955146 -0.06060065 0.1043108 -0.075138345 0.026598882
-0.04919794 0.026574887 0.07134546 -0.02092868 -0.04419301 -0.04046155 -0.00041793878 -0.12255562
-0.07709423 -0.08892531 -0.11483756 0.033478826 0.018529382 -0.06070111 -0.01820902 -0.032877218
-0.031073885 -0.009604059 -0.063157514 0.09990942 0.090123616 -0.03332825 0.07634711 -0.06628387
-0.03552646 -0.115052834 0.013295316 0.08290775 0.08437585 0.11291479 -0.08300696 0.073407836
0.09838829 -0.07594434 0.111324474 -0.010683736 0.07939633 -0.11552526 0.023767753 0.06965795
0.021242693 -0.12043595 0.040149767 -0.0013445917 -0.005222204 -0.116784915 -0.09103259 0.08513827
-0.092861675 -0.0257022 -0.12383433 0.07149021 -0.049042776 -0.052845195 -0.08375553 0.050801676
-0.06056052 0.06730166 0.011464611 0.05491656 -0.06811004 -0.117887095 -0.06083238 -0.12325962
-0.06170546 0.058954213 -0.067820184 0.001527686 -0.1203237 0.072880276 -0.061083708 0.032621853
0.016374424 -0.006477423 -0.071008265 -0.0978154 -0.016389484 0.06635731 -0.028894773 -0.040699452
0.055658832 -0.07108343 0.00069637335 0.030839738 -0.08336467 0.056725938 0.044033397 0.030399676
-0.06835622 0.0818045 0.055758342 -0.109564096 0.117473245 0.035439666 -0.020150196 0.08336026
0.06318809 -0.036788583 0.11644775 0.017383827 0.053372473 -0.120377846 -0.004260875 0.043245085
-0.09297084 -0.12539136 -0.09824049 -0.020294167 -0.0790006 0.06208204 -0.11257688 0.07148682
-0.06436207 0.117665164 -0.014442439 -0.041378852 0.032487236 0.04153272 -0.054983284 -0.021600112
-0.040921364 0.038605746 -0.075799115 0.054927755 -0.022905238 0.07071851 0.013272293 0.11640583
-0.116145924 -0.08259613 0.09189706 -0.068366356 0.016351016 0.06547369 -0.045875065 -0.02773534
0.061257478 0.10501115 0.04571908 -0.09918649 -0.11847471 -0.043208692 0.009810196 0.024352768
-0.011545082 -0.02559156 0.00423604 -0.03795494 -0.029879745 0.018680193 0.09229875 -0.045559965
-0.11910396 0.11065691 -0.090698674 0.04697342 -0.0053587304 -0.0015693275 -0.056586068 0.11737243
00000000: fb5a d3bd 8647 f73d 276c b6bc a6bf e0bd
00000010: a08f c63c bc46 24bd 62e0 47bd 99a8 5d3c
00000020: 96aa 41bd 3dfe 6f3d 6b79 2dbd 301d 75bd
00000030: 319f b73d 1472 f83d 1a2f a93c 8894 e73c
00000040: 8346 233d 7105 a73d 0741 e73d 6647 11bd
00000050: 3bdc f9bd 4382 3cbc 8571 81bb c8b0 7e3d
00000060: b7c9 ff3d 6dae c7bd 30f4 793d ba7d 1c3c
00000070: 6338 78bd e7a0 d53d 22e2 99bd e6e5 d93c
00000080: c783 49bd 94b3 d93c 921d 923d a072 abbc
00000090: bb03 35bd 03bb 25bd cb1e dbb9 71fe fabd
000000a0: 94e3 9dbd 791e b6bd f42f ebbd 1821 093d
000000b0: eeca 973c baa1 78bd 152b 95bc 43aa 06bd
000000c0: a98e febc 585a 1dbc ba58 81bd 4f9d cc3d
000000d0: bb92 b83d 3483 08bd e05b 9c3d d6bf 87bd
000000e0: 3184 11bd d2a0 ebbd 99d4 593c 8acb a93d
000000f0: 3fcd ac3d df3f e73d 8eff a9bd d956 963d
00000100: cd7f c93d b588 9bbd 16fe e33d d60a 2fbc
00000110: 8b9a a23d 8298 ecbd 97b4 c23c d4a8 8e3d
00000120: 2805 ae3c 20a7 f6bd 1574 243d 033d b0ba
00000130: 061f abbb ee2c efbd 4b6f babd f95c ae3d
00000140: 432e bebd 6c8d d2bc da9c fdbd 7669 923d
00000150: 14e1 48bd 3474 58bd 0588 abbd 6b15 503d
00000160: 4f0e 78bd 74d5 893d 10d6 3b3c 30f0 603d
00000170: 477d 8bbd ca6e f1bd 602b 79bd 8a6f fcbd
00000180: ddbe 7cbd f979 713d 4fe5 8abd a33c c83a
00000190: 466c f6bd 4142 953d e932 7abd 7e9e 053d
000001a0: a823 863c 9040 d4bb c86c 91bd 7153 c8bd
000001b0: 3d43 86bc 57e6 873d bbb4 ecbc 78b4 26bd
000001c0: 84fa 633d 3094 91bd d38c 363a 9ea3 fc3c
000001d0: 19bb aabd 7559 683d 5d5c 343d be08 f93c
000001e0: 59fe 8bbd 1e89 a73d dc62 643d 2463 e0bd
000001f0: d095 f03d 2f29 113d 0612 a5bc c9b8 aa3d
00000200: c268 813d a0af 16bd 287c ee3d 8768 8e3c
00000210: 189d 5a3d a988 f6bd cf9e 8bbb c221 313d
00000220: 7f67 bebd 9866 00be 4f32 c9bd f43f a6bc
00000230: 11cb a1bd bd49 7e3d b58e e6bd af67 923d
00000240: 43d0 83bd 6ffa f03d fb9f 6cbc df7c 29bd
00000250: 5611 053d 371e 2a3d 2736 61bd b8f2 b0bc
00000260: 299d 27bd 0f21 1e3d 913c 9bbd edfb 603d
00000270: c4a3 bbbc ded4 903d 0874 593c 2e66 ee3d
00000280: eadd edbd 2928 a9bd 8734 bc3d a903 8cbd
00000290: 91f2 853c 1217 863d 7ee7 3bbd 3935 e3bc
000002a0: 1fe9 7a3d 1610 d73d ee43 3b3d 4922 cbbd
000002b0: dea2 f2bd 99fb 30bd f2ba 203c 757f c73c
000002c0: 9527 3dbc 64a5 d1bc 7bce 8a3b a476 1bbd
000002d0: 5ec6 f4bc 3407 993c 2107 bd3d 169d 3abd
000002e0: c7ec f3bd 17a0 e23d 3ac0 b9bd 3367 403d
000002f0: 4a98 afbb e5b1 cdba cbc6 67bd f560 f03d

graph_rnn.bias_hh_l0 f4 [192]
0.042742107 -0.10219769 0.056848947 -0.07993649 0.03368865 0.02911195 -0.021184318 0.053441443
0.0051302686 -0.053004127 0.08401253 0.06845705 -0.03417487 -0.00012466195 -0.0104209585 0.08228412
-0.051191334 -0.019164942 0.07956312 -0.12069868 0.0897911 0.051384207 -0.10723291 0.09367314
0.023260795 -0.0458219 -0.1129297 -0.12059768 0.0017208481 -0.0613675 0.011577874 -0.0027306124
0.10799376 -0.12318232 0.05371332 -0.071136996 -0.057582613 0.05473398 -0.076167665 -0.061362647
-0.0659464 -0.021836424 0.046161205 -0.07430522 -0.031470854 -0.10822248 0.08750283 0.10872578
-0.08695504 -0.050919406 -0.10028507 -0.037815504 -0.11202552 -0.06243752 0.10340251 0.0047102445
0.1134313 0.080088064 -0.07427014 0.04476863 0.072208725 -0.08052782 -0.092838556 -3.945323e-05
-0.05259227 -0.107988425 -0.016165761 -0.09162941 0.05375687 -0.00039428388 -0.11385515 -0.08404595
0.08952962 -0.08236204 -0.08613096 0.119492635 0.0585044 -0.12358478 0.011290765 -0.079677455
0.082582556 0.08264031 0.07458435 -0.049380675 -0.007015364 -0.026643215 -0.026025781 -0.040823776
0.099639975 0.011819782 -0.058214396 -0.01467018 -0.020514583 -0.11578992 -0.106696874 -0.101911575
0.08320857 -0.07366877 -0.016691258 0.04216354 -0.03882647 -0.01659263 0.059915077 -0.08447582
0.0478957 0.075327955 0.047009602 -0.11691905 0.04629334 0.08701072 0.069657765 -0.0611898
-0.10624726 0.092907295 -0.112277016 0.0982568 0.120685436 -0.053154226 0.0467881 -0.019067828
-0.123431854 0.027322454 0.08921312 0.107746005 -0.040534545 0.0019320528 -0.038307633 -0.11326509
-0.018406944 -0.026503796 0.046580613 0.06274812 0.09099885 -0.033706833 0.021871444 -0.02767137
-0.07879009 -0.02288048 -0.06590854 0.007084991 0.095993906 -0.047747236 -0.040907845 -0.013479708
-0.09415024 0.09090248 0.031754065 -0.1114411 0.116431065 -0.006260197 -0.007213391 -0.03193886
-0.11747941 0.089088365 -0.054537013 0.08480846 0.092716455 0.03999717 -0.027187552 0.08443085
0.10411682 0.011880553 -0.067144185 0.124854036 -0.05845896 -0.054366257 0.06485259 -0.029580642
0.031395394 0.03772038 0.008884874 -0.086280294 0.082264245 0.07284748 -0.0030524726 -0.05384537
-0.049247243 -0.0348062 0.05501582 0.05251662 -0.062324695 0.09781152 -0.0057591954 -0.056165926
0.0050509046 0.076379515 -0.034224644 0.119124405 -0.030633776 0.06912228 0.08710392 -0.0919961
00000000: 5912 2f3d 064d d1bd 71da 683d beb5 a3bd
00000010: 1cfd 093d 2f7c ee3c bc8a adbc 6ae5 5a3d
00000020: d01b a83b db1a 59bd c30e ac3d 3633 8c3d
00000030: f3fa 0bbd b0b7 02b9 abbc 2abc 9484 a83d
00000040: 01ae 51bd ccff 9cbc fdf1 a23d df30 f7bd
00000050: 65e4 b73d 3f78 523d ee9c dbbd b4d7 bf3d
00000060: 6c8d be3c bfaf 3bbd b047 e7bd ebfb f6bd
00000070: 158e e13a 7d5c 7bbd 20b1 3d3c 13f4 32bb
00000080: d52b dd3d 0347 fcbd 8002 5c3d 46b0 91bd
00000090: bfdb 6bbd bd30 603d cbfd 9bbd 6657 7bbd
000000a0: e80e 87bd 4de2 b2bc 8813 3d3d 562d 98bd
000000b0: 95e7 00bd bfa3 ddbd af34 b33d 9fab de3d
000000c0: 7c15 b2bd de90 50bd 4262 cdbd 6ee4 1abd
000000d0: a36d e5bd 7cbe 7fbd b2c4 d33d 6558 9a3b
000000e0: ab4e e83d 3605 a43d f11a 98bd 505f 373d
000000f0: 2be2 933d c5eb a4bd 2422 bebd 957a 25b8
00000100: fe6a 57bd 0929 ddbd 0f6e 84bc 33a8 bbbd
00000110: 2a30 5c3d e3b7 ceb9 e42c e9bd 4820 acbd
00000120: 4e5b b73d 6ead a8bd 6e65 b0bd 8eb8 f43d
00000130: 4fa2 6f3d 041a fdbd e7fc 383c ef2d a3bd
00000140: 0b21 a93d 533f a93d aebf 983d 6443 4abd
00000150: 23e1 e5bb df42 dabc 0534 d5bc d536 27bd
00000160: 0b10 cc3d c2a7 413c 3872 6ebd 325b 70bc
00000170: 330e a8bc 4423 edbd e483 dabd 04b7 d0bd
00000180: 4169 aa3d a7df 96bd 1bbc 88bc adb3 2c3d
00000190: 8108 1fbd 44ed 87bc 8369 753d a901 adbd
000001a0: 482e 443d 8b45 9a3d 248d 403d 4173 efbd
000001b0: 169e 3d3d ad32 b23d bba8 8e3d 28a2 7abd
000001c0: 2a98 d9bd 2e46 be3d 7ef1 e5bd dc3a c93d
000001d0: ed29 f73d 3fb8 59bd e1a4 3f3d 2234 9cbc
000001e0: d7c9 fcbd 57d3 df3c 5eb5 b63d f0a9 dc3d
000001f0: 8d07 26bd ef3c fd3a 77e8 1cbd 87f7 e7bd
00000200: 29ca 96bc 7d1e d9bc 50cb 3e3d 1682 803d
00000210: 9b5d ba3d 2d10 0abd be2b b33c 12af e2bc
00000220: b35c a1bd d86f bbbc 0efb 86bd 3629 e83b
00000230: 7498 c43d 9b92 43bd fc8e 27bd fed9 5cbc
00000240: d7d1 c0bd 142b ba3d 8d10 023d 3b3b e4bd
00000250: 6973 ee3d 5722 cdbb 4f5e ecbb 52d2 02bd
00000260: 0b99 f0bd f673 b63d 3462 5fbd 0fb0 ad3d
00000270: 20e2 bd3d 13d4 233d 6eb8 debc 15ea ac3d
00000280: 333b d53d a7a6 423c e482 89bd 79b3 ff3d
00000290: aa72 6fbd 27af 5ebd 6fd1 843d 1a53 f2bc
000002a0: 7598 003d af80 1a3d dd91 113c b9b3 b0bd
000002b0: 287a a83d 0f31 953d fe0b 48bb f68c 5cbd
000002c0: 7ab7 49bd f290 0ebd 4558 613d ab1b 573d
000002d0: 2e48 7fbd 6851 c83d a2b7 bcbb 3e0e 66bd
000002e0: 0f82 a53b dd6c 9c3d 242f 0cbd 7ff7 f33d
000002f0: aff3 fabc fb8f 8d3d 8a63 b23d 7468 bcbd

graph_rnn.weight_ih_l1 f4 [192, 64]
0.06230962 -0.10343926 -0.013713247 -0.041569628 0.088822104 -0.108350374 -0.07572352 0.07534307
-0.07789981 -0.04527285 0.074284844 0.034039065 0.08391826 -0.031810228 0.009984361 0.091853395
0.11949805 0.10099323 -0.025916502 -0.12357522 0.024393115 0.0817294 -0.09700988 -0.004411883
-0.090328746 -0.10509628 -0.116315655 0.0963839 -0.032473944 -0.11477977 0.09053788 0.05479091
0.073659554 0.045643274 0.01541663 -0.09075912 -0.08479438 -0.006998557 -0.053415332 0.11828692
0.044295106 -0.12408778 -0.0011875576 0.014890693 0.016120857 0.05597095 0.0065906327 0.031547762
-0.067969665 0.114669755 0.02082521 0.11345483 0.10241986 0.07952407 0.069105126 0.117336914
-0.08105643 -0.108979 -0.1223723 -0.061546724 0.0352297 0.093535334 -0.07773019 -0.0009256385
-0.051925242 -0.08532258 0.0063527767 0.06945806 0.041215144 0.009571843 0.09868709 -0.0594689
0.063432515 -0.08255179 0.038414747 -0.109596886 -0.06921747 -0.062541105 0.076284625 0.011814315
0.1078912 -0.09067911 0.08853673 -0.012030273 0.053694263 0.024202904 -0.05774309 0.08133454
0.031011948 -0.07861117 -0.03477754 -0.004710581 -0.08614536 0.09616128 -0.030826718 -0.04192324
0.08012212 0.06380721 -0.10429734 0.10805946 -0.096697554 0.086786985 0.014814607 -0.091032475
0.09402815 0.084947616 0.034577426 -0.046406917 0.113384016 -0.021058377 -0.06531595 0.08785426
-0.0036955364 0.07598618 0.115643956 -0.03578121 0.051535778 0.015853945 -0.016373448 0.083228655
-0.10560422 -0.027813183 0.08355254 -0.03395758 -0.11209435 -0.009550147 -0.03329755 -0.0046819956
-0.011926047 0.048850313 -0.08735844 -0.051472235 0.038544744 0.110379525 -0.11390168 -0.06930448
-0.06707536 -0.04806096 -0.043591037 0.11849394 0.08714902 0.0014053837 0.03900289 -0.05518829
0.05572169 0.0665844 0.054027896 0.11790797 -0.10699427 -0.094259836 0.00853658 -0.08249761
0.031102564 -0.040643506 -0.05032597 0.0035457395 -0.09300214 0.122035116 -0.10867896 0.051108602
-0.11894849 0.034602128 -0.022788884 -0.051561736 -0.046361376 -0.023815297 0.066805676 -0.02174176
0.052045736 -0.090600125 0.06590155 -0.0851935 0.0036874155 -0.084748745 -0.123624064 -0.01936105
-0.043562472 -0.06872179 0.07817876 -0.050861232 -0.0146236 0.09278971 -0.034598485 0.009428276
-0.085868806 -0.06259934 0.097197406 -0.06432684 -0.08283726 -0.012425187 -0.0452276 0.0691684
-0.062302064 0.015317787 -0.11988631 0.038491838 -0.121057786 0.0011814282 0.09022337 -0.072887704
0.0174912 -0.048299063 -0.0009017929 0.119870305 0.09822522 0.012091826 0.088469855 0.10775458
-0.032221854 -0.060216784 -0.052201882 0.105384186 -0.031848997 -0.11885798 0.0799053 -0.09604299
-0.025230177 0.016160823 0.025700932 0.025511714 -0.06190069 0.011700598 0.046416882 -0.12191069
-0.009750319 -0.07396154 0.02789414 0.055092745 0.09558952 0.052449662 -0.0786351 0.024143346
-0.09699944 -0.06878943 -0.10281066 -0.032773882 0.087266445 -0.06907691 -0.113145545 0.056506258
-0.061862916 -0.11813269 -0.059505913 0.073450744 0.10498496 -0.08566759 0.033020563 0.029178657
0.10936655 -0.11955185 0.021166116 0.1138474 0.025096882 0.03799678 -0.013811725 0.055527363
00000000: 5f38 7f3d f6d7 d3bd 87ad 60bc ea44 2abd
00000010: 5de8 b53d cde6 ddbd ef14 9bbd 784d 9a3d
00000020: f089 9fbd 0670 39bd a722 983d 8c6c 0b3d
00000030: 56dd ab3d 714b 02bd 7295 233c a21d bc3d
00000040: 65bb f43d 8ad5 ce3d d84e d4bc 0115 fdbd
00000050: 12d4 c73c be61 a73d 1ead c6bd 8f91 90bb
00000060: 47fe b8bd b83c d7bd e736 eebd ec64 c53d
00000070: 6603 05bd a811 ebbd ed6b b93d 6f6c 603d
00000080: d2da 963d 71f4 3a3d 0896 7c3c ebdf b9bd
00000090: ada8 adbd 2754 e5bb 09ca 5abd 6a40 f23d
000000a0: c96e 353d bc21 febd d2a7 9bba 18f8 733c
000000b0: e30f 843c cb41 653d 3cf6 d73b 3a38 013d
000000c0: ae33 8bbd fad7 ea3d a199 aa3c 025b e83d
000000d0: 81c1 d13d 84dd a23d fd86 8d3d 564e f03d
000000e0: ea00 a6bd 6230 dfbd 549e fabd 6b18 7cbd
000000f0: 054d 103d 748f bf3d 0131 9fbd 8ca6 72ba
00000100: 90af 54bd 9bbd aebd f42a d03b 0740 8e3d
00000110: 36d1 283d 38d3 1c3c 751c ca3d a995 73bd
00000120: e8e8 813d ea10 a9bd c858 1d3d 5574 e0bd
00000130: e4c1 8dbd 8d15 80bd 1d3b 9c3d d490 413c
00000140: 10f6 dc3d f8b5 b9bd bf52 b53d 9f1a 45bc
00000150: 84ee 5b3d 2b45 c63c 0584 6cbd b992 a63d
00000160: c50c fe3c e5fe a0bd e572 0ebd 385b 9abb
00000170: fa6c b0bd 35f0 c43d 5088 fcbc b4b7 2bbd
00000180: 1117 a43d 5bad 823d d899 d5bd 474e dd3d
00000190: 5e09 c6bd 60bd b13d f7b8 723c 3c6f babd
000001a0: d591 c03d 04f9 ad3d 0fa1 0d3d 2e15 3ebd
000001b0: e135 e83d 9e82 acbc 5ec4 85bd efec b33d
000001c0: d030 72bb a49e 9b3d bdd6 ec3d 518f 12bd
000001d0: 2e17 533d 22e0 813c 9c21 86bc c973 aa3d
000001e0: 0647 d8bd 79d8 e3bc 981d ab3d 1a17 0bbd
000001f0: b991 e5bd 3878 1cbc 0363 08bd 6d6b 99bb
00000200: 7765 43bc 4417 483d fbe8 b2bd 8dd4 52bd
00000210: 18e1 1d3d a90e e23d 4945 e9bd 82ef 8dbd
00000220: ce5e 89bd 92db 44bd 848c 32bd f3ac f23d
00000230: 2f7b b23d da34 b83a 7fc1 1f3d 1e0d 62bd
00000240: 6d3c 643d 675d 883d 5b4c 5d3d bc79 f13d
00000250: d01f dbbd 4d0b c1bd 03dd 0b3c 82f4 a8bd
00000260: ceca fe3c ce79 26bd 9b22 4ebd a35f 683b
00000270: e877 bebd 8ced f93d 1393 debd 4157 513d
00000280: 449b f3bd f6ba 0d3d c1af babc 6632 53bd
00000290: 6de5 3dbd 4c18 c3bc 6ad1 883d c71b b2bc
000002a0: e92d 553d 8f8c b9bd 64f7 863d ee79 aebd
000002b0: 91a8 713b c090 adbd 9d2e fdbd 119b 9ebc
000002c0: 906e 32bd 03be 8cbd 301c a03d de53 50bd
000002d0: d397 6fbc 8808 be3d 24b7 0dbd 0e79 1a3c
000002e0: fcdb afbd 1534 80bd 6f0f c73d cabd 83bd
000002f0: 95a6 a9bd 0393 4bbc 9340 39bd 29a8 8d3d
00000300: 7330 7fbd 75f7 7a3c f486 f5bd 9ea9 1d3d
00000310: 25ed f7bd 27da 9a3a 08c7 b83d 2646 95bd
00000320: b449 8f3c 3dd5 45bd 4c66 6cba 907e f53d
00000330: 4e2a c93d cb1c 463c af2f b53d 6fae dc3d
00000340: 10fb 03bd e0a5 76bd a4d1 55bd aad3 d73d
00000350: 1874 02bd d06b f3bd 64a5 a33d 30b2 c4bd
00000360: 84af cebc b463 843c c38a d23c f1fd d03c
00000370: 948b 7dbd ddb3 3f3c a11f 3e3d 50ac f9bd
00000380: cdbf 1fbc 2679 97bd 4082 e43c eea8 613d
00000390: 70c4 c33d 75d5 563d 700b a1bd 44c8 c53c
000003a0: a4a7 c6bd 79e1 8cbd 658e d2bd e83d 06bd
000003b0: c0b8 b23d 3278 8dbd dab8 e7bd 1b73 673d
000003c0: f863 7dbd 8def f1bd 79bc 73bd 586d 963d
000003d0: 5b02 d73d 7d72 afbd 9240 073d 1408 ef3c
000003e0: 92fb df3d 9ad7 f4bd 9064 ad3c d328 e93d
000003f0: fa97 cd3c 83a2 1b3d 934a 62bc a970 633d

graph_rnn.weight_hh_l1 f4 [192, 64]
-0.09344758 -0.058217566 0.10506209 -0.047383275 0.123694 -0.06378878 -0.10489574 -0.123653665
-0.06794299 -0.10058528 -0.115122214 -0.03413066 -0.06828075 0.084310696 0.0006280724 0.09168938
-0.010380335 0.042344872 -0.021310585 0.12107181 -0.09556411 -0.113441974 0.050043877 -0.033737548
-0.0026222006 -0.05933444 0.11147995 -0.09816684 -0.08198759 0.090694495 0.028189179 -0.11407085
-0.11142036 0.04976189 -0.1197232 0.017489878 0.07899057 -0.04491154 0.02598586 -0.06508967
0.01416964 -0.1100935 0.041234426 0.046799082 -0.09847554 -0.03217955 -0.07507276 0.022420019
0.036523357 0.06415537 0.008146815 0.07085093 0.074274994 0.020169681 -0.07119603 0.03664744
0.12192881 0.09315651 0.031405527 0.004730315 -0.09579849 -0.07509534 -0.09270436 -0.123076245
0.015719663 -0.077224284 0.07500545 0.017670682 -0.037649874 -0.068810426 0.107387535 -0.026747575
0.048783273 -0.05903749 0.051977005 0.07167814 -0.023546642 0.05152165 -0.024551716 0.017536964
0.05580885 0.0168487 -0.11502505 0.09784662 0.0601228 -0.121517725 -0.019920437 -0.12157074
-0.108009145 -0.072974734 -0.08409245 0.04710794 0.055748954 0.017803514 0.0021290665 0.008153489
0.10407707 -0.0355403 0.012487444 0.106949 -0.08394761 0.025585046 0.056941535 -0.039792247
0.08856636 0.05296126 0.06650425 -0.02266534 0.008636406 0.10994821 -0.09526665 -0.10781167
0.011493401 0.047545414 0.076989345 0.02062223 0.11734679 -0.067735 0.064175904 0.06224852
0.10077276 -0.031971272 0.069604106 -0.11338102 0.11070265 -0.07818706 -0.0024437949 0.010402827
0.090257116 -0.0040406026 -0.056598317 0.041101802 -0.03329398 0.037438527 -0.0055968044 0.07822888
-0.061952755 0.09205197 -0.034998346 0.06927739 -0.03791937 -0.08830794 -0.083168015 0.084550634
-0.06756959 0.0054127937 -0.088859536 0.067042485 -0.043761767 -0.09528395 0.054708548 -0.0028181975
0.0735735 -0.048331328 -0.049550913 -0.0084415125 0.09704545 0.045840092 -0.053508464 -0.063156515
0.11470409 0.028013168 -0.07728634 -0.0053093345 0.058337 -0.028969325 0.10103589 -0.123189755
-0.022409879 -0.029102035 -0.008835767 -0.1085308 -0.117649384 -0.11615726 0.010255994 0.115288004
0.09880245 0.12413412 0.0871971 0.01644947 0.084489964 0.09997816 0.012534288 -0.09605562
-0.083969004 -0.06906193 -0.10920109 -0.05960426 0.08202416 -0.094221294 -0.03951886 0.06761957
7.9846905e-06 0.08652536 0.11737551 -0.11112039 -0.10903596 -0.056538295 0.05892403 -0.03371336
-0.11326608 0.031348333 -0.09852374 0.0818205 -0.013278735 -0.013325631 0.03219629 -0.0153777655
-0.040462557 0.08249146 0.08478473 0.024858953 0.09496356 0.08558594 -0.033893168 -0.103153616
0.073641576 0.040048584 -0.027742153 -0.051184755 -0.054883946 -0.04116945 -0.011413989 0.026133412
-0.07239122 0.014366596 -0.121881194 0.10710495 0.0028875028 0.063145846 -0.057928983 0.015575459
-0.037611306 -0.0865223 -0.05360038 -0.10340727 -0.054487076 0.03336329 0.079550855 0.08270336
0.1250707 -0.0022567236 0.04104376 -0.11777789 -0.0073391115 -0.060609628 -0.04911964 0.084131025
-0.103995115 0.05536127 0.048819464 -0.029922608 -0.03170525 -0.044730764 -0.061916497 0.124701254
00000000: 7261 bfbd 8b75 6ebd cb2a d73d f714 42bd
00000010: 4853 fd3d b1a3 82bd 94d3 d6bd 223e fdbd
00000020: b225 8bbd a8ff cdbd 32c5 ebbd 97cc 0bbd
00000030: c7d6 8bbd 16ab ac3d 3aa5 243a a4c7 bb3d
00000040: 4812 2abc d171 2d3d 8993 aebc 7ff4 f73d
00000050: 1eb7 c3bd 4454 e8bd cffa 4c3d 6230 0abd
00000060: 3ad9 2bbb ab08 73bd 9a4f e43d b20b c9bd
00000070: 1ce9 a7bd 09be b93d feec e63c fa9d e9bd
00000080: 5c30 e4bd 20d3 4b3d 7031 f5bd ef46 8f3c
00000090: cfc5 a13d 2af5 37bd 4ce0 d43c bc4d 85bd
000000a0: c727 683c b378 e1bd 6ee5 283d 65b0 3f3d
000000b0: 8bad c9bd b4ce 03bd bfbf 99bd 30aa b73c
000000c0: 8499 153d e463 833d 387a 053c 4b1a 913d
000000d0: 7d1d 983d e33a a53c 39cf 91bd a01b 163d
000000e0: d0b5 f93d d7c8 be3d 15a3 003d c200 9b3b
000000f0: 0032 c4bd 96cb 99bd c9db bdbd 660f fcbd
00000100: 86c6 803c c427 9ebd 759c 993d 1bc2 903c
00000110: c136 1abd 7bec 8cbd ffed db3d bb1d dbbc
00000120: f8d0 473d 4cd1 71bd d7e5 543d fdcb 923d
00000130: e3e4 c0bc 5e08 533d ae20 c9bc aea9 8f3c
00000140: d297 643d 4906 8a3c 4192 ebbd cf63 c83d
00000150: 5343 763d 49de f8bd 2f30 a3bc 15fa f8bd
00000160: e633 ddbd c773 95bd aa38 acbd 41f4 403d
00000170: 0459 643d add8 913c cf87 0b3b 3696 053c
00000180: 5c26 d53d b592 11bd 2398 4c3c 1408 db3d
00000190: b9ec abbd bb97 d13c 873b 693d 32fd 22bd
000001a0: 4862 b53d e8ed 583d 6133 883d aaac b9bc
000001b0: b67f 0d3c 872c e13d 291b c3bd 5dcc dcbd
000001c0: d14e 3c3c fbbe 423d 97ac 9d3d f3ef a83c
000001d0: 8453 f03d a6b8 8abd a86e 833d 4ef8 7e3d
000001e0: f361 ce3d 4ff4 02bd 998c 8e3d 4f34 e8bd
000001f0: 12b8 e23d 8a20 a0bd 1328 20bb 9e70 2a3c
00000200: b9d8 b83d 0867 84bb a3d3 67bd 5d5a 283d
00000210: 455f 08bd 2459 193d 6665 b7bb 7736 a03d
00000220: 2cc2 7dbd be85 bc3d 6d5a 0fbd 4ee1 8d3d
00000230: 5751 1bbd cbda b4bd fe53 aabd e228 ad3d
00000240: ed61 8abd ce5d b13b fdfb b5bd 924d 893d
00000250: 8a3f 33bd 3b24 c3bd 1216 603d 82b1 38bb
00000260: b4ad 963d 12f7 45bd e6f5 4abd 454e 0abc
00000270: c4bf c63d d2c2 3b3d b12b 5bbd 3458 81bd
00000280: fae9 ea3d df7b e53c 4d48 9ebd edf9 adbb
00000290: c7f2 6e3d 1451 edbc e8eb ce3d e94a fcbd
000002a0: ec94 b7bc 6467 eebc e5c3 10bc 6545 debd
000002b0: 29f2 f0bd dce3 edbd c208 283c 1e1c ec3d
000002c0: f058 ca3d 083a fe3d 6594 b23d 0ac1 863c
000002d0: 1309 ad3d 59c1 cc3d 9d5c 4d3c cfb8 c4bd
000002e0: f1f7 abbd 5770 8dbd d2a4 dfbd 9923 74bd
000002f0: 48fc a73d 18f7 c0bd 87de 21bd 217c 8a3d
00000300: fcf5 0537 3534 b13d 9262 f03d 1693 e3bd
00000310: 3f4e dfbd b394 67bd 535a 713d 0517 0abd
00000320: 0cf8 e7bd 1c67 003d d1c6 c9bd 8291 a73d
00000330: 0d8f 59bc bf53 5abc 42e0 033d 06f3 7bbc
00000340: 11bc 25bd 48f1 a83d 9ea3 ad3d 01a5 cb3c
00000350: 417c c23d ae47 af3d 90d3 0abd 3442 d3bd
00000360: 65d1 963d fc09 243d 8343 e3bc 1ba7 51bd
00000370: fdcd 60bd 4ca1 28bd bd01 3bbc bd15 d63c
00000380: d941 94bd df61 6b3c d99c f9bd d759 db3d
00000390: 423c 3d3b 9c52 813d f146 6dbd 3630 7f3c
000003a0: 500e 1abd 9b32 b1bd 128c 5bbd 31c7 d3bd
000003b0: d72d 5fbd f2a7 083d 8feb a23d 6160 a93d
000003c0: 8912 003e 8ae5 13bb 801d 283d 8935 f1bd
000003d0: ee7c f0bb cd41 78bd ad31 49bd e34c ac3d
000003e0: 64fb d4bd 80c2 623d ebf6 473d 4220 f5bc
000003f0: 5ddd 01bd 9b37 37bd 279c 7dbd 5f63 ff3d

graph_rnn.bias_ih_l1 f4 [192]
-0.109615624 0.09707069 -0.0379505 -0.11242712 0.07580021 0.02537199 -0.10033404 0.11478591
0.02036815 0.0873788 0.09908874 -0.10299373 0.08273169 -0.09678899 -0.0017100405 -0.10236395
-0.07514432 0.088514276 0.04415595 0.096278846 -0.0922895 0.10552512 0.038662646 0.09816881
0.021613335 0.096424595 -0.06110806 0.012274021 -0.11057636 0.055324897 -0.011609768 0.03500599
-0.08450402 -0.09719947 0.05124728 -0.025044503 -0.07860702 -0.1131815 0.047096066 0.03678585
0.0894554 0.0797933 -0.08648623 -0.043065228 0.06715229 0.016472328 0.027564893 -0.118917696
-0.015567107 -0.03103616 0.046814803 -0.059742123 -0.01977493 -0.11156349 -0.003890941 -0.06265057
0.07894752 -0.028041909 -0.014176756 -0.02540989 -0.0020301307 0.023227857 -0.046687953 0.045538526
-0.09325623 0.022291383 -0.046266124 0.062073477 0.025923032 0.018062267 -0.12328435 0.06365784
-0.021312103 0.11041578 0.036033466 0.09431673 -0.048292186 -0.05949063 0.038085178 -0.09680341
-0.046208333 -0.09634156 0.11286925 0.102735616 -0.09973275 -0.039884377 0.06084307 -0.022354197
-0.104948945 -0.014072614 0.013684138 -0.05235623 0.014097947 0.022313282 -0.105294906 0.064698964
0.060476203 0.00220492 0.09763957 -0.06450554 -0.03295034 -0.06065406 -0.08785505 -0.029877264
0.08618821 0.07724347 0.063280046 -0.11479555 -0.02486301 -0.017937386 -0.123396 -0.03578234
-0.037655845 0.04566502 0.064249046 -0.026111748 -0.010479143 0.11796454 -0.11616028 0.11310638
-0.11565081 -0.031428907 -0.10173031 -0.11443067 -0.021480916 0.06113778 0.05650792 0.00072070974
0.058730703 0.035190333 0.09846636 0.041958712 -0.067960896 0.07860851 0.063138254 0.056002196
-0.110278316 0.0016909309 0.09382001 -0.084491014 0.041568838 -0.08364641 0.09553955 0.119471215
0.051477887 0.07050831 -0.048061464 -0.021217564 0.11207084 -0.103213646 -0.05817901 0.06337398
-0.0039123944 -0.100585245 0.004710259 -0.09800255 -0.08400678 0.027189875 0.123952106 -0.049221586
0.012211992 -0.06180144 -0.10490998 -0.11800692 0.04049242 0.04992563 -0.106549874 0.08007269
-0.080318205 -0.08105917 0.0881164 -0.0898724 0.12457492 0.11532449 -0.047665425 -0.060658876
-0.07877959 0.11068941 0.06059147 0.021136362 -0.0035775306 0.03864717 0.036011938 -0.0046295933
0.038724314 0.10219473 -0.104724936 -0.120845765 -0.08178513 0.044887327 -0.086869895 0.044139747
00000000: 287e e0bd ffcc c63d fc71 1bbd 3140 e6bd
00000010: 243d 9b3d ebd8 cf3c ef7b cdbd e014 eb3d
00000020: 1bdb a63c a8f3 b23d 0aef ca3d 60ee d2bd
00000030: 3b6f a93d 4e39 c6bd 7023 e0ba 31a4 d1bd
00000040: 44e5 99bd f946 b53d dfdc 343d d82d c53d
00000050: 4702 bdbd 8e1d d83d b95c 1e3d bb0c c93d
00000060: 730e b13c 427a c53d 724c 7abd fa18 493c
00000070: dc75 e2bd 5c9c 623d e536 3ebc 7162 0f3d
00000080: 7210 adbd 8410 c7bd abe8 513d 212a cdbc
00000090: b8fc a0bd b4cb e7bd cee7 403d c2ac 163d
000000a0: 6534 b73d ab6a a33d b11f b1bd 2a65 30bd
000000b0: 2487 893d faf0 863c c5cf e13c 1f8b f3bd
000000c0: 2e0d 7fbc 8c3f febc e1c0 3f3d 28b4 74bd
000000d0: 09ff a1bc 667b e4bd 28ff 7ebb f14e 80bd
000000e0: 3daf a13d 25b8 e5bc a045 68bc 6728 d0bc
000000f0: f10b 05bb 5948 be3c de3b 3fbd 9b86 3a3d
00000100: 1ffd bebd 6b9c b63c 8c81 3dbd c240 7e3d
00000110: 8a5c d43c 52f7 933c 817c fcbd 0b5f 823d
00000120: b896 aebc ab21 e23d d497 133d 2129 c13d
00000130: 07ce 45bd 72ac 73bd 34ff 1b3d de40 c6bd
00000140: f344 3dbd b94e c5bd fe27 e73d 0d67 d23d
00000150: af40 ccbd cd5d 23bd 9536 793d 2620 b7bc
00000160: 79ef d6bd d290 66bc 6f33 603c 7c73 56bd
00000170: 13fb 663c 58ca b63c dba4 d7bd e480 843d
00000180: e5b5 773d 6b80 103b 41f7 c73d 7b1b 84bd
00000190: f0f6 06bd 6470 78bd 59ed b3bd 2ac1 f4bc
000001a0: 7283 b03d d331 9e3d f898 813d ee19 ebbd
000001b0: 83ad cbbc 6df1 92bc 0bb7 fcbd 8190 12bd
000001c0: 043d 1abd 3e0b 3b3d 0195 833d 4ee8 d5bc
000001d0: b6b0 2bbc 6597 f13d 71e5 edbd 51a4 e73d
000001e0: 55da ecbd 99bb 00bd fb57 d0bd a15a eabd
000001f0: bff8 afbc 9c6b 7a3d d974 673d 03ee 3c3a
00000200: 9b8f 703d bd23 103d bba8 c93d e6dc 2b3d
00000210: 152f 8bbd 80fd a03d a14e 813d 8f62 653d
00000220: 99d9 e1bd 3aa2 dd3a b524 c03d a009 adbd
00000230: 1644 2a3d cf4e abbd 3daa c33d 53ad f43d
00000240: 7ada 523d a966 903d 19dc 44bd 75d0 adbc
00000250: 6685 e53d ad61 d3bd 1d4d 6ebd 38ca 813d
00000260: 8b33 80bb a3ff cdbd 8458 9a3b 90b5 c8bd
00000270: bf0b acbd 4dbd de3c 9ada fd3d 939c 49bd
00000280: cf14 483c 8223 7dbd 0bdb d6bd 9dad f1bd
00000290: 61db 253d d17e 4c3d d236 dabd 27fd a33d
000002a0: df7d a4bd 5a02 a6bd 5f76 b43d 050f b8bd
000002b0: 2321 ff3d 3f2f ec3d d23c 43bd 7175 78bd
000002c0: 3257 a1bd 21b1 e23d c32e 783d 2a26 ad3c
000002d0: 0175 6abb 7f4c 1e3d 4181 133d d8b3 97bb
000002e0: 639d 1e3d 784b d13d 077a d6bd fc7d f7bd
000002f0: f67e a7bd c6db 373d d8e8 b1bd e1cb 343d
