graphrnn_v2/experiments/seeds/seed_experiment_seed_0/model_at_600.pt (torch, 420155 bytes, 43 tensors)

adj_embedding.0.weight f4 [32, 15]
0	0x3e93c047	0.28857633
1	0xbeaa38ab	-0.3324636
2	0xbf1636d7	-0.5867743
3	0x3f115b2f	0.5677976
4	0xbf244b78	-0.64177656
5	0xbefb1884	-0.4904214
6	0x3f04878a	0.51769316
7	0xbe8179fd	-0.25288382
8	0xbe32c75a	-0.17458859
9	0x3e0aaae7	0.13541757
10	0x3e13c39d	0.1443009
11	0xbe70a654	-0.23500949
12	0xbe0f9974	-0.14023381
13	0x3df46aef	0.119344585
14	0xbdcd003b	-0.100098096
15	0xbe95a09f	-0.29224107
16	0xbf1b701d	-0.60717946
17	0x3dc63cb1	0.09679545
18	0x3e9079a3	0.282178
19	0xbe3643ce	-0.17799303
20	0x3ef3afff	0.47595212
21	0x3db855c0	0.090007305
22	0xbd959cec	-0.07305321
23	0xbd3a68ec	-0.045510218
24	0x3cde0edb	0.027106693
25	0x3d6b431b	0.057437044
26	0x3e14463e	0.1447992
27	0xbe5c1f79	-0.21496381
28	0x3cc3eb8d	0.02391603
29	0xbea5512d	-0.32288495
30	0x3f0fbf0e	0.561509
31	0x3ad27948	0.0016057873
32	0xbe1860b9	-0.14880647
33	0x3f0a7423	0.5408346
34	0xbe0ea4fb	-0.13930123
35	0xbec4f871	-0.38470796
36	0xbf03f652	-0.5154773
37	0xbd47f399	-0.048816297
38	0x3cac6ca0	0.02104789
39	0x3e89e4cf	0.2693238
40	0xbde920c7	-0.11383205
41	0x3afb9bca	0.0019196209
42	0xbdb689b6	-0.08912985
43	0x3e1b63db	0.1517481
44	0x3d0a5909	0.033776317
45	0x3e374195	0.17896111
46	0xbeb1356f	-0.3461108
47	0x3cfbf855	0.030758062
48	0x3e968c82	0.29404074
49	0x3eb2d01f	0.3492441
50	0x3c2488d9	0.010042393
51	0xbe9639a7	-0.2934086
52	0x3e7ade3c	0.24498838
53	0x3e99aeb7	0.3001611
54	0xbdac5e2e	-0.08416401
55	0x3e9b7dc5	0.30369392
56	0x3e5b4e94	0.21416694
57	0x3e21dcb3	0.15806846
58	0xbc61ee57	-0.013789735
59	0x3d5f9d14	0.05459316
60	0x3f006530	0.501544
61	0x3e8a3550	0.269938
62	0x3e9f0320	0.31057072
63	0x3d023002	0.031784065
64	0xbe2ab817	-0.16671787
65	0xbe01f178	-0.1268977
66	0xbe87096a	-0.2637437
67	0x3eb7fa01	0.35932925
68	0x3ed1fe1f	0.41014192
69	0x3ed4cdbb	0.4156321
70	0xbd62cba5	-0.05536999
71	0x3ee2d47f	0.44302747
72	0x3edcd38f	0.43130156
73	0x3ebfc93c	0.37458217
74	0x3ece5a04	0.4030305
75	0x3da4aa0d	0.08040247
76	0x3e300196	0.17188105
77	0x3ec00fd4	0.37512076
78	0x3e778e72	0.24175432
79	0x3e013e8d	0.12621517
80	0xbe8c27a2	-0.27373987
81	0xbe0da279	-0.1383151
82	0x3e9c5706	0.30535144
83	0x3e95276c	0.2913164
84	0x3a61d298	0.000861445
85	0x3ebbdc6f	0.36691615
86	0x3e73f6e5	0.23824652
87	0xbd84eab2	-0.06490077
88	0x3e994ac7	0.29939863
89	0x3cc6a5fb	0.024249068
90	0x3e74d9ac	0.2391116
91	0xbf05847f	-0.521553
92	0xbe55ca59	-0.20877971
93	0xbd1bab38	-0.038005084
94	0x3e8b6e28	0.2723248
95	0x3d4afe08	0.04955867
96	0xbe865e9d	-0.2624406
97	0x3e35ccd7	0.17753921
98	0x3debb00c	0.11508188
99	0xbe87292c	-0.263986
100	0x3e5f0e46	0.21782789
101	0xbdb1161d	-0.08646796
102	0xbe354456	-0.1770185
103	0xbe048ad9	-0.12943591
104	0x3e05ad45	0.13054378
105	0x3db0d129	0.08633644
106	0x3f0f03fb	0.5586545
107	0xbd464ef3	-0.048415136
108	0xbd67af35	-0.056563575
109	0xbeadd11d	-0.33948603
110	0xbe1641a0	-0.14673471
111	0x3d680bb3	0.056651782
112	0xbdb5376f	-0.08848464
113	0x3dcca3ed	0.09992204
114	0x3e2f3637	0.17110525
115	0xbe2c0633	-0.1679924
116	0xbe24ae37	-0.16082083
117	0xbe2db988	-0.16965306
118	0xbe36cdb3	-0.17851906
119	0xbd3fde88	-0.04684308
120	0xbedc0e5d	-0.42979708
121	0xbf17bca9	-0.5927225
122	0x3e286572	0.16444948
123	0xbeaa6e96	-0.33287495
124	0x3d90f6e7	0.07078343
125	0x3f2088c8	0.6270871
126	0x3f0ed76c	0.5579746
127	0xbe188e5d	-0.14898057
128	0xbe1f852a	-0.15578142
129	0xbdd4beaa	-0.10387929
130	0xbd93a09f	-0.072083704
131	0xbe10caab	-0.14139812
132	0x3dc1b768	0.0945881
133	0xbdf0cc2d	-0.117576934
134	0x3d0eb21c	0.034837827
135	0x3de39412	0.111122265
136	0xbe7240be	-0.2365751
137	0xbd85ab75	-0.065268435
138	0x3eca3e78	0.39500785
139	0xbe9481dc	-0.29005325
140	0xbe38a7d0	-0.18032765
141	0xbc9960b1	-0.018722864
142	0x3e215ca6	0.15757999
143	0x3d41332a	0.047167934
144	0xbe183a93	-0.14866094
145	0xbd5a9814	-0.05336769
146	0xbc9cc891	-0.019138606
147	0x3e393301	0.18085863
148	0x3e421640	0.189538
149	0xbc0f2a65	-0.008738135
150	0xbe82a671	-0.2551761
151	0xbdaf3a82	-0.08556081
152	0xbe568a2e	-0.20951149
153	0x3e4e8e87	0.20171557
154	0x3e1ab233	0.1510704
155	0x3ea58da3	0.32334623
156	0x3e7b2271	0.24524857
157	0xbe93c2b4	-0.28859484
158	0xbd84e215	-0.06488434
159	0xb6d3dca0	-6.313974e-06
160	0xbea5dc2a	-0.32394534
161	0x3db8371d	0.08994887
162	0xbdbb61be	-0.09149502
163	0xbca56b34	-0.02019272
164	0xbde7fa2f	-0.113270156
165	0xbe27271e	-0.16323516
166	0xbe16f149	-0.1474048
167	0xbe094f81	-0.13409235
168	0xbe36b977	-0.17844187
169	0xbbc56186	-0.0060235886
170	0xbdae75f8	-0.085185945
171	0xbe266f41	-0.16253377
172	0x3d914621	0.07093454
173	0x3e2b7f02	0.16747668
174	0x3e46f2b5	0.19428523
175	0x3cd9307c	0.026512377
176	0xbdb837b8	-0.089950025
177	0xbe76dec5	-0.24108417
178	0xbc82223e	-0.015885469
179	0xbe120232	-0.1425865
180	0x3efb14f2	0.49039418
181	0xbe674593	-0.22585134
182	0x3c1227ac	0.008920591
183	0x3dc89b6c	0.09795269
184	0xbe028b87	-0.12748538
185	0xbe62b3ef	-0.22138952
186	0xbe049d66	-0.12950668
187	0xbdd0aed9	-0.101895995
188	0xbd482b1c	-0.048869237
189	0x3e170e52	0.14751557
190	0xbded89a2	-0.11598517
191	0xbe714dd3	-0.23564844
192	0x3d08a092	0.033356257
193	0x3dec0eab	0.11526235
194	0x3d40ba31	0.047052566
195	0x3f438517	0.76374954
196	0x3e3cd8f4	0.18442136
197	0xbdd04098	-0.1016857
198	0xbd926bb8	-0.07149452
199	0xbdee89b1	-0.11647356
200	0xbdd002d2	-0.10156788
201	0xbd361a5f	-0.044458743
202	0x3e5e08c0	0.21683025
203	0x3e079a60	0.13242483
204	0x3dd36d28	0.10323554
205	0x3d755580	0.059895992
206	0x3e9e44a8	0.30911756
207	0x3e7833a8	0.24238455
208	0x3e745a31	0.2386253
209	0x3d637544	0.055531755
210	0xbe75ab45	-0.23991115
211	0x3dde63ed	0.10858903
212	0x3e80629e	0.2507524
213	0x3ec49ae8	0.38399434
214	0x3e483755	0.19552357
215	0x3e286bf1	0.16447426
216	0xbe70b64a	-0.23507038
217	0x3d191b68	0.037379652
218	0x3d06d01f	0.032913323
219	0x3e9b39e6	0.3031761
220	0x3e87b28f	0.26503417
221	0x3e8bca7b	0.27302918
222	0x3e8971a4	0.26844513
223	0x3e4d8bea	0.20072904
224	0xbe12efbd	-0.14349265
225	0x3c896682	0.016772512
226	0xbdaeee37	-0.085415296
227	0x3ea934fc	0.33048236
228	0x3df90230	0.1215862
229	0x3e866cd4	0.26254904
230	0xbe382961	-0.17984535
231	0xbe8be71d	-0.27324763
232	0x3df07347	0.117407374
233	0x3e4762dd	0.19471307
234	0xbe3412c4	-0.17585284
235	0x3cab80bf	0.020935414
236	0xbe762754	-0.2403844
237	0x3e56076a	0.20901266
238	0x3e48c34c	0.1960575
239	0xbe3d8ff4	-0.18511945
240	0x3f0f992d	0.560931
241	0xbbab0217	-0.005218755
242	0x3ed15abf	0.40889546
243	0xbd2e3933	-0.04253502
244	0xbd6f3b17	-0.05840596
245	0xbedfc084	-0.43701565
246	0xbd5bafdb	-0.053634506
247	0x3e69edc1	0.22844602
248	0x3e05d9ce	0.13071367
249	0xbe2d0256	-0.16895422
250	0x3e858081	0.26074603
251	0x3dfecf32	0.12441863
252	0x3d75f667	0.06004944
253	0xbe1413ba	-0.1446065
254	0x3e9a03ba	0.30080968
255	0xbe98cf53	-0.29845676

adj_embedding.0.bias f4 [32]
0	0x3cf83e01	0.030303003
1	0x3ee41a08	0.4455111
2	0x3e02174f	0.12704204
3	0x3b925511	0.004465707
4	0x3e298648	0.1655513
5	0xbe050172	-0.12988833
6	0x3e8f9a3d	0.28047362
7	0x3cc40217	0.023926778
8	0x3eece573	0.46268806
9	0x3e83e1c7	0.25758192
10	0x3df6ce43	0.1205106
11	0xbe36a985	-0.17838104
12	0x3de3b835	0.11119119
13	0x3b0b12aa	0.0021220841
14	0xbe2ba623	-0.16762595
15	0x3e2015dc	0.15633339
16	0x3cfd9927	0.030956818
17	0x3d1c83f2	0.03821177
18	0x3d8c492a	0.068498924
19	0x3d810ee3	0.063016675
20	0xbd31bcc3	-0.043392908
21	0xbe46492c	-0.1936385
22	0x3e1ab945	0.15109737
23	0x3e687b90	0.22703385
24	0x3e032547	0.12807189
25	0xbdb1d7df	-0.08683752
26	0x3eafa51c	0.34305656
27	0xbdac6080	-0.084168434
28	0xbde5e27d	-0.1122484
29	0x3e0bd532	0.13655546
30	0xbaf75474	-0.0018869773
31	0xbd48f6be	-0.049063437

graph_rnn.weight_ih_l0 f4 [192, 32]
0	0x3eb817d9	0.35955694
1	0xbd983e4a	-0.07433756
2	0xbe08213b	-0.13293926
3	0x3da07ec9	0.07836682
4	0xbe71a767	-0.23599015
5	0x3cc15d9d	0.023604209
6	0x3dd51a1c	0.104053706
7	0xbd45b005	-0.04826357
8	0xbdf35009	-0.118805
9	0x3ccde34f	0.025132803
10	0x3e98315a	0.29725152
11	0xbc72dba0	-0.0148228705
12	0xbe9f3cc7	-0.31101057
13	0xbed717ec	-0.42010438
14	0xbb789a91	-0.0037933926
15	0xbd85102d	-0.06497226
16	0xbea56a6a	-0.3230775
17	0x3ea9e027	0.33178827
18	0xbe9aadf5	-0.30210844
19	0xbe730790	-0.23733354
20	0xbe3a9562	-0.18221048
21	0x3ebe1c12	0.3713079
22	0x3e3a82c0	0.1821394
23	0xbd133f01	-0.035948757
24	0xbe35f072	-0.17767504
25	0xbd8a3b6a	-0.067496136
26	0x3bb475b3	0.005507195
27	0xbee4e11c	-0.44702995
28	0xbed9f5c8	-0.4257033
29	0x3ebc4d6b	0.36777815
30	0xbee049ab	-0.43806204
31	0xbda09ae8	-0.07842046
32	0xbe6da08c	-0.23205775
33	0xbdd56afe	-0.10420798
34	0xbd4babb3	-0.049724292
35	0x3c87d2c0	0.016579986
36	0x3e3dd1bd	0.1853704
37	0x3db734c7	0.08945613
38	0x3dd256de	0.10270475
39	0xbd416974	-0.04721971
40	0x3e8a161d	0.26969996
41	0x3c96d7c1	0.018413426
42	0x3d8b21d5	0.06793562
43	0x3c666a70	0.014063463
44	0x3d8d1193	0.06888118
45	0x3e12bbbf	0.14329432
46	0x3dc790d2	0.09744419
47	0x3e234a8f	0.1594641
48	0x3d32c6ec	0.043646738
49	0xbe0d54fc	-0.1380195
50	0x3cd099e0	0.025463998
51	0x3e04d735	0.1297272
52	0xbc023aba	-0.007948572
53	0x3e175204	0.1477738
54	0x3c8efd6b	0.017454823
55	0x3deda0ab	0.116029106
56	0x3de6ba4c	0.11266002
57	0x3c141f84	0.009040717
58	0x3df77c33	0.12084236
59	0x3e327207	0.1742631
60	0x3dc3b2d2	0.09555592
61	0x3d1988c9	0.037483964
62	0x3e905ecf	0.28197333
63	0x3ceede71	0.029158803
64	0x3f0d8428	0.5527978
65	0x3bc8d0a7	0.006128389
66	0x3ddc61b3	0.10760822
67	0xbd93f7a2	-0.072249666
68	0xbceef9ea	-0.029171903
69	0x3bd27a11	0.006423243
70	0x3e7cf26f	0.24701856
71	0xbbd29b8b	-0.0064272336
72	0xbd061c4b	-0.032741826
73	0x3c9344cd	0.017977143
74	0x3b3aa3ec	0.0028479053
75	0xbd81cb3c	-0.06337592
76	0x3e368d48	0.17827332
77	0x3eb536ab	0.3539327
78	0xbe29c7f8	-0.16580188
79	0x3ca9adc1	0.020712735
80	0xbe06525a	-0.13117352
81	0x3dd2954e	0.10282384
82	0x3e6f3bb6	0.23362622
83	0x3dc08be7	0.09401684
84	0x3cfc7354	0.030816711
85	0xbe97d4fb	-0.2965468
86	0x3cb6500b	0.022254964
87	0x3e8064fa	0.2507704
88	0xbe020136	-0.12695774
89	0x3dba3bd2	0.09093441
90	0xbe2bd466	-0.16780242
91	0xbdadf074	-0.084931284
92	0xbce36d65	-0.027762124
93	0x3e64b3bb	0.22334187
94	0xbd3ce358	-0.04611525
95	0xbe886805	-0.2664186
96	0x3e27ff34	0.16405946
97	0x3da8799c	0.0822632
98	0xbd6b0dc3	-0.05738617
99	0x3e0dc200	0.13843536
100	0xbdeb1a0c	-0.114795774
101	0xbe920f10	-0.28527117
102	0x3db71bcc	0.08940849
103	0xbddcfa23	-0.10789897
104	0xbe06c431	-0.13160779
105	0x3e2de203	0.16980748
106	0x3db3d159	0.08780164
107	0x3d7629e8	0.06009856
108	0x3db23e69	0.0870331
109	0xbdbfb3f1	-0.09360493
110	0xbe3c4c3d	-0.18388458
111	0xbe4a36fa	-0.19747534
112	0xbe4f188d	-0.20224209
113	0x3e5b5ce4	0.21422154
114	0xbe9619fd	-0.29316702
115	0xbe8a6620	-0.2703104
116	0xbcfbf9cf	-0.030758766
117	0x3ded2775	0.115797915
118	0x3d4a60e4	0.04940881
119	0xbd454326	-0.04815974
120	0xbde7e8d6	-0.11323707
121	0x3df88cea	0.12136252
122	0xbd2739fe	-0.04082679
123	0xbe52fc28	-0.20604002
124	0xbd3ee45a	-0.04660449
125	0x3c57b276	0.013165107
126	0xbe4e812f	-0.20166467
127	0xbec3b585	-0.38224426
128	0x3eeb226b	0.45924696
129	0xbdc0fbb0	-0.094230056
130	0xbb88968f	-0.0041683386
131	0x3ae58ec1	0.0017513857
132	0xbd0dee7d	-0.03465127
133	0xbd37811d	-0.044800866
134	0x3e66fc9d	0.22557302
135	0x3e3a0e97	0.18169628
136	0xbe629688	-0.22127736
137	0x3dde8373	0.10864916
138	0xbbb298a8	-0.005450327
139	0x3c8c0fb8	0.017097339
140	0x3e285396	0.16438136
141	0x3e3a5506	0.18196496
142	0xbe95bd7f	-0.29246137
143	0xbcc98a90	-0.024602205
144	0x3cd75a80	0.026288271
145	0xbd4407d8	-0.047859043
146	0x3e63ad77	0.2223414
147	0x3dd26fbb	0.10275217
148	0xbc3038a5	-0.010755693
149	0xbe61c1f3	-0.22046642
150	0x3df92323	0.12164905
151	0x3d99f542	0.07517482
152	0x3c78be7d	0.015182135
153	0x3e0fbfe0	0.14038038
154	0xbe6209e2	-0.22074082
155	0x3d683f90	0.056701243
156	0x3c30a470	0.010781392
157	0x3e84572e	0.25847763
158	0x3e220f69	0.15826191
159	0xbd9e9663	-0.07743528
160	0x3e65ffff	0.22460936
161	0xbe896e63	-0.2684203
162	0xbd05f6f2	-0.03270621
163	0xbd8fc2ff	-0.070196144
164	0xbdb22595	-0.086985745
165	0xbe7850b2	-0.24249533
166	0x3acc8f00	0.0015606582
167	0x3e3e0189	0.18555273
168	0xbe40457f	-0.1877651
169	0x3dc04b8b	0.09389409
170	0xbde37c76	-0.111077234
171	0x3dc48b6e	0.095969066
172	0xbe21bbab	-0.15794246
173	0xbc336872	-0.010950195
174	0xbe9eed01	-0.31040195
175	0xbe2554a8	-0.16145575
176	0xbf0d7c81	-0.552681
177	0xbcbac6d7	-0.022799892
178	0xbc964c01	-0.018346788
179	0xbe8c3ed2	-0.27391678
180	0x3d792e61	0.060835246
181	0xbdacc05a	-0.08435126
182	0xbce992d1	-0.02851239
183	0x3ddc488d	0.107560255
184	0xbc14eff4	-0.009090412
185	0x3c8e8d5c	0.01740139
186	0xbec672b0	-0.38759375
187	0xbe33d840	-0.17562962
188	0x3db474b0	0.08811319
189	0x3d99a2d1	0.07501758
190	0xbe9ba447	-0.3039877
191	0xbebecb64	-0.3726455
192	0x3e5bd816	0.21469149
193	0xbd8f948e	-0.070107564
194	0xbc0fa0ea	-0.008766392
195	0xbd9b0d21	-0.075708635
196	0x3d92afb3	0.07162418
197	0xbe24eb7f	-0.1610546
198	0x3db989d6	0.09059493
199	0x3e826726	0.2546932
200	0x3e0fde35	0.14049609
201	0x3e158ffe	0.1460571
202	0x3d7695e7	0.06020155
203	0xbde4c2a8	-0.1116994
204	0x3d5acffd	0.05342101
205	0x3e6d6dc5	0.23186405
206	0xbd5c6a1a	-0.053812124
207	0xbd7c10c1	-0.061539415
208	0xbe37b3b7	-0.1793965
209	0x3e16743b	0.14692776
210	0x3e0f2555	0.13979085
211	0x3deb715c	0.11496231
212	0xbbc2a0e4	-0.00593959
213	0xbe0f44cb	-0.13991086
214	0x3e7f0b91	0.24906756
215	0x3de4bc76	0.111687586
216	0xbe130d72	-0.14360598
217	0x3d9a50dd	0.07534955
218	0x3d4e7d89	0.05041269
219	0xbdbe0205	-0.09277729
220	0x3dbabb40	0.09117746
221	0x3e4f6caa	0.20256296
222	0xbd35fc66	-0.04443016
223	0xbe318cd3	-0.17338876
224	0x3f02e9b3	0.51137847
225	0xbe852da3	-0.2601138
226	0x3e2c4a53	0.16825227
227	0xbdc171bc	-0.09445521
228	0x3db15b21	0.086599596
229	0xbea4c0a4	-0.32178223
230	0x3de915eb	0.11381134
231	0x3c07f842	0.008298935
232	0xbe36d2ef	-0.17853902
233	0x3cd6c32a	0.026216108
234	0xbd6e200e	-0.05813604
235	0xbcbb4ee0	-0.022864759
236	0x3c9e0f7f	0.019294498
237	0x3ee2d8ee	0.4430613
238	0xbec1cfe0	-0.3785391
239	0xbe345fbd	-0.17614646
240	0xbddccff2	-0.1078185
241	0x3a2c60af	0.0006575686
242	0x3e9cc4ed	0.30618992
243	0xbb9e014d	-0.0048219324
244	0x3e221a1c	0.15830272
245	0xbe15c62a	-0.14626375
246	0x3b8837cc	0.004157042
247	0x3e245ca1	0.1605096
248	0xbc1dbd14	-0.009627599
249	0x3e8b40da	0.27197915
250	0xbe858a8f	-0.26082274
251	0x3d5e101c	0.05421458
252	0x3ec976c3	0.3934842
253	0x3ea1a007	0.31567404
254	0x3e26b90e	0.1628153
255	0xbe7c7e6f	-0.24657606

graph_rnn.weight_hh_l0 f4 [192, 64]
0	0xbd05c3f1	-0.032657567
1	0xbcd32db7	-0.025778634
2	0x3dd946d8	0.106092155
3	0xbdf019f4	-0.117237
4	0x3e2ec840	0.17068577
5	0x3d0a6e8f	0.033796843
6	0x3cf3cdca	0.029761214
7	0x3d8fa659	0.0701415
8	0xbdb93691	-0.09043611
9	0xbadf639c	-0.0017043236
10	0xbd2867aa	-0.041114487
11	0x3e18c787	0.14919864
12	0x3ca79dda	0.020461012
13	0xbe0d572b	-0.13802783
14	0x3d995dd9	0.07488603
15	0xbde9c9cf	-0.11415445
16	0xbd8d78fd	-0.06907842
17	0x3e885c20	0.26632786
18	0xbde0ab57	-0.109701805
19	0x3e9ab2d4	0.3021456
20	0xbd555535	-0.052083213
21	0xbd944697	-0.072400264
22	0xbe0359b9	-0.12827195
23	0x3e40a633	0.188134
24	0xbbb559c0	-0.0055343807
25	0xbe7764ee	-0.24159595
26	0xba9e97c7	-0.0012099677
27	0x3e821eb8	0.25414062
28	0xbe2e9c66	-0.17051849
29	0xbccaf4ae	-0.024774875
30	0xbd9b706b	-0.075898014
31	0x3dc9deeb	0.09856971
32	0x3d4ab177	0.04948565
33	0x3e80724b	0.250872
34	0xbd4adfd2	-0.049529858
35	0x3d6df71a	0.058096983
36	0xbb18886a	-0.0023274668
37	0x3e42fa17	0.19040714
38	0xbd142609	-0.036169086
39	0x3e10ce6e	0.14141247
40	0x3d83323c	0.06406066
41	0xbd6673ff	-0.056262966
42	0xbb60e9d2	-0.0034319055
43	0x3bc71e12	0.0060765827
44	0xbe026c9f	-0.12736748
45	0xbe020cd0	-0.127002
46	0x3ca5ef3e	0.020255681
47	0xbe451d56	-0.19249472
48	0xbc0f23dd	-0.008736578
49	0x3d2cf54b	0.042226117
50	0xbdd4d816	-0.103927776
51	0x3d682897	0.056679334
52	0xbe382939	-0.17984475
53	0x3c1c7095	0.009548326
54	0x3e5115b6	0.20418438
55	0x3c5f0102	0.01361108
56	0xbe8911d8	-0.26771426
57	0x3d68afbd	0.056808222
58	0xbd831345	-0.0640016
59	0x3dceb889	0.10093791
60	0xbe26956d	-0.16267939
61	0x3e220026	0.15820369
62	0xbdd15b4c	-0.102224916
63	0x3e5e71ad	0.21723051
64	0xbe8f9b1b	-0.28048024
65	0xbd65084e	-0.055916123
66	0xbc4e54de	-0.012593476
67	0x3d2a9cb1	0.04165334
68	0x3cacd2c8	0.021096602
69	0x3c20650f	0.009789719
70	0x3d31ec22	0.043438084
71	0xbc304248	-0.01075799
72	0xbd86ac82	-0.06575872
73	0xbd85916f	-0.0652188
74	0xbcc86b06	-0.024465095
75	0x3d1ef4ca	0.038807668
76	0x3dce53fb	0.10074612
77	0xbca60c29	-0.02026947
78	0x3daa3375	0.08310596
79	0x3db22c62	0.086998716
80	0xbcc15f02	-0.023604874
81	0xbda008d3	-0.07814183
82	0xbd30f2cf	-0.04320031
83	0x3d008bdb	0.031383377
84	0x3e0f6815	0.14004548
85	0x3c08c65a	0.008348072
86	0x3da4539d	0.080237605
87	0xbda6b6e5	-0.08140353
88	0x3d9f9550	0.07792151
89	0xbc5d22d6	-0.013497075
90	0xbd66f6c0	-0.056387663
91	0x3d1e7b97	0.038692083
92	0xbd66ca8a	-0.0563455
93	0x3d9d0ee3	0.07668855
94	0x3ce38f23	0.027778214
95	0x3dce25dc	0.10065815
96	0xbd856ba2	-0.0651467
97	0x3d86bbdd	0.06578801
98	0x3cab06f3	0.020877337
99	0xbe924940	-0.2857151
100	0xbdc6a82b	-0.09700044
101	0x3dfdb501	0.123880394
102	0xbce93731	-0.0284687
103	0xbc5df8b4	-0.013548065
104	0xbcbe742f	-0.02324876
105	0xbc8b6b18	-0.01701884
106	0x3d13531b	0.035967927
107	0x3da32d1b	0.079675876
108	0x3ceb0e2d	0.028693283
109	0x3e32bda2	0.17455152
110	0x3e0e9123	0.13922553
111	0x390542c7	0.00012708745
112	0xbd36c279	-0.044619057
113	0xbdcdeca0	-0.10054898
114	0xbe103565	-0.14082868
115	0x3dddd578	0.108317316
116	0xbe52efea	-0.20599332
117	0x3dbe9928	0.09306556
118	0x3e0e6168	0.13904345
119	0x3d77aef4	0.060469583
120	0x3db2a253	0.08722367
121	0x3de6d98c	0.112719625
122	0xbdbf8188	-0.09350878
123	0xbdc1c2c9	-0.094609804
124	0x3e135b0f	0.14390205
125	0x3d839a24	0.06425884
126	0xbd13c8d3	-0.036080193
127	0xbc7f4ab6	-0.015581777
128	0x3b98f8b4	0.0046683196
129	0x3e14a547	0.14516173
130	0x3b81c779	0.0039605466
131	0x3e6ecb3d	0.23319717
132	0x3b1423f4	0.0022604438
133	0xbdc8d807	-0.09806829
134	0xbe527131	-0.20550992
135	0xbdb89e35	-0.090145506
136	0xbdf376d7	-0.11887901
137	0x3d581ab3	0.052759837
138	0xbe0fee61	-0.14055778
139	0xbdabd33d	-0.083899
140	0x3d0a7c84	0.033810154
141	0xbca7804a	-0.020446915
142	0xbd82626f	-0.06366431
143	0xbc4903f1	-0.012269006
144	0xba2c8993	-0.00065817795
145	0xbdd9052c	-0.105966896
146	0xbd980361	-0.074225195
147	0x3e644799	0.22292937
148	0x3daa4b73	0.08315172
149	0xbe729f87	-0.23693667
150	0x3db5619d	0.08856509
151	0x3da488d4	0.080339104
152	0x3e328daf	0.1743686
153	0x3b74bfed	0.0037345842
154	0xbe5ac37f	-0.21363638
155	0xbdb569f1	-0.08858097
156	0x3e5c1828	0.2149359
157	0xbd9f46df	-0.077771895
158	0x3d699d5e	0.057034843
159	0xbe0410de	-0.1289706
160	0x3d2fec35	0.042949874
161	0xbe60b6b3	-0.21944694
162	0x3cedd589	0.029032486
163	0xbdf0ab1c	-0.117513865
164	0xbc9fca73	-0.019505715
165	0x3e0933cd	0.13398667
166	0xbdca3d14	-0.09874931
167	0xbce2192c	-0.027599894
168	0x3e7b39a7	0.24533711
169	0x3c5422d9	0.012947761
170	0xbe3e1c18	-0.18565404
171	0x3d7896e9	0.060690794
172	0x3e2e65b3	0.17030983
173	0xbda096af	-0.078412406
174	0x3e06e892	0.13174656
175	0x3e97bc9f	0.29636094
176	0xbe1c160a	-0.15242782
177	0xbd8f6a34	-0.070026785
178	0x3cfb674e	0.030688908
179	0x3e0de4b4	0.13856775
180	0xbd89a0ac	-0.06720099
181	0x3e0bc354	0.1364873
182	0xbd2834fc	-0.041066155
183	0xbdfac226	-0.12244062
184	0x3d877460	0.06613994
185	0x3ccd00cc	0.025024794
186	0xbe18bbb7	-0.14915358
187	0xbe575a92	-0.21030644
188	0x3e87acef	0.26499125
189	0x3c0bb269	0.008526423
190	0xbdb51df4	-0.08843604
191	0x3dfdd4f6	0.12394135
192	0x3e1f0a77	0.15531336
193	0x3ddc5a65	0.10759429
194	0xbe1428aa	-0.14468637
195	0x3e5bce27	0.2146536
196	0xbdb9d7d3	-0.09074368
197	0x3dbc20ae	0.09185921
198	0xbda048f9	-0.078264184
199	0x3e29df37	0.16589056
200	0xbd8d6f64	-0.06906012
201	0x3d7b21c2	0.06131149
202	0x3eac1ae6	0.33614272
203	0x3dd4bc6b	0.103875004
204	0x3cbff7ee	0.023433652
205	0xbdefc101	-0.117067344
206	0x3e2286be	0.15871713
207	0xbd63d811	-0.05562598
208	0xbe47e233	-0.19519882
209	0x3df175ca	0.117900446
210	0x3d1231c8	0.035692006
211	0x3e549821	0.20761158
212	0xbc8ac98d	-0.01694181
213	0xbdfa1c11	-0.122123845
214	0xb98d046d	-0.00026896913
215	0x3d54954f	0.051900204
216	0xbde4d38b	-0.11173161
217	0x3cbdda20	0.0231753
218	0x3e6db9fa	0.23215476
219	0x3d325bdb	0.04354463
220	0xbdb64655	-0.089001335
221	0x3c817572	0.015803073
222	0x3e0efcb5	0.13963588
223	0x3d244792	0.040107317
224	0x3d404924	0.046944752
225	0xbcf16000	-0.029464722
226	0x3c82d30b	0.015969774
227	0x3e40f0f4	0.18841916
228	0xbe099790	-0.13436723
229	0x3c42f7aa	0.011899868
230	0xbe55ae00	-0.20867157
231	0x3d68b8bb	0.056816798
232	0x3e10d525	0.14143808
233	0xbd824033	-0.06359901
234	0x3e556670	0.20839858
235	0xbe5d7b90	-0.21629167
236	0xbe546972	-0.20743349
237	0xbe901be8	-0.2814629
238	0xbe2f8a0e	-0.17142507
239	0x3d14e3e6	0.036350153
240	0xbc859886	-0.01630808
241	0x3cfd61f2	0.030930493
242	0xbe11bb45	-0.14231594
243	0x3c8b0368	0.016969398
244	0x3d48f16c	0.049058363
245	0xbe90531f	-0.28188416
246	0xbd13dc0a	-0.036098517
247	0x3d43d377	0.04780909
248	0xbeb1888c	-0.3467449
249	0x3d0870f9	0.033310864
250	0xbe43d219	-0.19123115
251	0xbdb0fd8c	-0.0864211
252	0xbdce08b8	-0.10060257
253	0x3e5847eb	0.21121185
254	0xbd828ce9	-0.06374533
255	0x3e63959b	0.22225039

graph_rnn.bias_ih_l0 f4 [192]
0	0xbde85c36	-0.11345713
1	0x3e5b1e17	0.21398197
2	0x3cf50f09	0.029914396
3	0xbe309869	-0.1724564
4	0x3d0c6284	0.03427364
5	0xbda5d5c6	-0.08097415
6	0x3d6c796a	0.057732977
7	0xbc684153	-0.014175731
8	0x3e231ecd	0.15929718
9	0xbc2fd56d	-0.010732037
10	0xbe085103	-0.13312154
11	0x3da90620	0.082531214
12	0x3d96a7a3	0.07356193
13	0x3e0cd12f	0.13751672
14	0xbcde0fa3	-0.027107066
15	0xbd500292	-0.0507837
16	0xbb187c5e	-0.0023267488
17	0x3d7e4eb8	0.06208679
18	0x3e0c002c	0.1367194
19	0x3d0980f9	0.033570264
20	0xbe5fd1d5	-0.21857388
21	0xbc4f0a99	-0.012636804
22	0xbdab068e	-0.083508596
23	0xbb8988b5	-0.004197205
24	0x3e1f9d15	0.15587266
25	0xbe3c62c5	-0.18397053
26	0x3d5810db	0.05275045
27	0xbca0c5cd	-0.019625569
28	0xbdb08ecb	-0.086209856
29	0x3ca07cf8	0.01959084
30	0xbd713474	-0.058887914
31	0x3c13b432	0.00901513
32	0xbde99522	-0.11405398
33	0x3b9529cb	0.0045521013
34	0xbb30febd	-0.0027007305
35	0xbd931381	-0.071814544
36	0xbd8e0b62	-0.06935765
37	0xbd5f0ba1	-0.05445445
38	0xbd2292e0	-0.039690852
39	0xbe1f5bcf	-0.15562366
40	0xbd842600	-0.064525604
41	0xbde5334a	-0.11191423
42	0xbe5ce845	-0.21572979
43	0xbd5d4352	-0.05401928
44	0xbc5a4f4d	-0.013324571
45	0x3d4b04ae	0.04956501
46	0xbd9eb7a8	-0.077498734
47	0x3b278ec0	0.0025567263
48	0xbd81cc18	-0.06337756
49	0x3b885c73	0.0041614114
50	0xbe8f207d	-0.27954474
51	0xbd590530	-0.052983463
52	0x3d9b9a2e	0.07597767
53	0xbdf0e34c	-0.117621034
54	0x3dd9cf7e	0.10635279
55	0x3d9def4c	0.07711658
56	0xbc73f477	-0.014889828
57	0xbe02bea7	-0.1276804
58	0x3d1b8ae1	0.037974242
59	0xbd7077ca	-0.05870799
60	0x3df52000	0.11968994
61	0x3d815c41	0.06316424
62	0xbdd67cf8	-0.10473055
63	0xbdf94e0c	-0.121730894
64	0x3cfcb177	0.03084634
65	0xbd9a4b5a	-0.075339034
66	0x3daf2e64	0.0855377
67	0xbe9af3c8	-0.30264115
68	0xbd4ce90a	-0.05002693
69	0xbe92af7c	-0.2864951
70	0xbdb11e32	-0.086483374
71	0x3d060e5a	0.03272853
72	0xbc770add	-0.015078274
73	0xbea419c7	-0.32050917
74	0xbe37bb44	-0.1794253
75	0xbd361e42	-0.04446245
76	0xbe46797c	-0.1938228
77	0xbe9a2f3c	-0.30114162
78	0xbe133636	-0.14376149
79	0xbd197339	-0.0374634
80	0xbe6bb2a6	-0.23017368
81	0xbdb8c37d	-0.090216614
82	0xbe47dae8	-0.195171
83	0x3dffbf4e	0.1248766
84	0xbdf7d2ae	-0.12100731
85	0xbec4ac11	-0.38412526
86	0xbeafaf38	-0.3431337
87	0xbd21f41a	-0.039539434
88	0xbe5a7d00	-0.21336746
89	0x3cc3946a	0.02387448
90	0xbe1285d3	-0.14308862
91	0x3e627546	0.22115049
92	0xbe6554ae	-0.22395584
93	0xbe3834be	-0.1798887
94	0xbd89c7dd	-0.06727574
95	0xbe457527	-0.19282971
96	0x3d8e551e	0.069498286
97	0xbdef02ec	-0.11670479
98	0xbd870bd1	-0.06594051
99	0xbd9f512e	-0.07779156
100	0xbe86878b	-0.26275286
101	0x3dbfc391	0.09363473
102	0xbe0bc0f1	-0.1364782
103	0xbd2f4993	-0.042794775
104	0xbe389798	-0.18026578
105	0xbe3bf194	-0.18353873
106	0xbee1ef0e	-0.44127697
107	0xbe6cde1b	-0.23131602
108	0xbdce9941	-0.100878246
109	0xbde35251	-0.11099685
110	0xbead5c56	-0.3385951
111	0xbe9e502e	-0.30920547
112	0xbd202f3b	-0.039107542
113	0xbe24a1b4	-0.1607731
114	0xbe30a0ab	-0.1724879
115	0xbdbf94af	-0.09354531
116	0xbe14615b	-0.14490263
117	0xbd85cd51	-0.065333016
118	0xbb583a01	-0.0032993557
119	0x3e2138fe	0.15744397
120	0xbca8d6b8	-0.020610198
121	0x3d25d2e5	0.040484328
122	0x3d547776	0.05187174
123	0xbe02cfb2	-0.12774542
124	0xbe2d70fd	-0.16937633
125	0xbd8aea2a	-0.067829445
126	0xbe0c02f7	-0.13673006
127	0x3d23538e	0.039874606
128	0x3d89af0b	0.0672284
129	0xbccb8288	-0.024842516
130	0x3d87f636	0.06638758
131	0xbb908fa7	-0.004411656
132	0x3d7af0cd	0.0612648
133	0xbdb12773	-0.086501025
134	0xbb348418	-0.0027544554
135	0xbd509c5f	-0.050930377
136	0xbdf532c2	-0.11972572
137	0xbe0175c5	-0.12642582
138	0x3c0b7cb6	0.00851362
139	0xbdf8ddef	-0.121517055
140	0xbddf8310	-0.1091367
141	0xbd5a85fb	-0.05335043
142	0xbde796b3	-0.113080405
143	0x3dc0dff6	0.09417717
144	0xbd2a8437	-0.041629996
145	0x3dc551de	0.096347556
146	0xbaaca14d	-0.001317063
147	0xbd78f2ae	-0.060778312
148	0x3d964b01	0.073385246
149	0x3c817bb4	0.015806057
150	0xbd7bb4f4	-0.061451867
151	0xbd70030c	-0.058596656
152	0xbd9be6f2	-0.07612409
153	0x3d436594	0.047704294
154	0xbcf52558	-0.029925033
155	0x3dc35a70	0.09538734
156	0xbdc3999c	-0.09550783
157	0x3d9c5561	0.07633472
158	0x3d559323	0.052142274
159	0x3e26b3ff	0.162796
160	0xbe581079	-0.21100034
161	0xbc9fbd26	-0.019499373
162	0x3dc82152	0.0977198
163	0xbdd0f9e9	-0.102039166
164	0x3d0e96be	0.034811728
165	0x3d84515c	0.064608306
166	0xbd83f935	-0.06444017
167	0xbd23e7a7	-0.040015843
168	0x3d75dcfe	0.060025208
169	0x3df973a9	0.121802635
170	0x3dac8941	0.084246166
171	0xbdc4f0b1	-0.09616221
172	0xbdfd0924	-0.12355259
173	0xbd4c28eb	-0.04984371
174	0xbcfe1a8b	-0.031018516
175	0xbc72cabb	-0.0148188425
176	0x3cbdb65d	0.023158247
177	0x3c2c925b	0.010532941
178	0x3d047324	0.03233637
179	0xbd169a42	-0.036768205
180	0xbd79b14b	-0.060960095
181	0xbcbfce76	-0.023413878
182	0x3db0af4c	0.08627185
183	0xbddb0ad5	-0.106954254
184	0xbe1b6d2f	-0.15178369
185	0x3e06301e	0.13104293
186	0xbd55b975	-0.05217882
187	0x3e0140a0	0.12622309
188	0xbdeb3d94	-0.114863545
189	0x3bdba9da	0.0067035975
190	0xbd180696	-0.037115656
191	0x3e0bbbf4	0.13645917

graph_rnn.bias_hh_l0 f4 [192]
0	0x3d050fc9	0.032485757
1	0xbc12c260	-0.008957475
2	0x3ddf4c41	0.10903216
3	0xbe121382	-0.14265254
4	0x3d3317f2	0.043724008
5	0xbc409a3b	-0.011755521
6	0x3daeca0a	0.0853463
7	0x3cd2d5ca	0.025736708
8	0x3e58ca6f	0.21170972
9	0xbdfa876e	-0.122328624
10	0xbbdd6699	-0.0067566154
11	0x3e57e41c	0.2108311
12	0xbd4dea47	-0.050272252
13	0x3c83bd5e	0.016081508
14	0xbd6e4e92	-0.0581804
15	0x3b53c2b4	0.0032312097
16	0xbdbf3df6	-0.0933799
17	0xbd1e3c56	-0.03863176
18	0x3dd3b198	0.10336608
19	0xbd539922	-0.05165971
20	0xbbde258e	-0.006779379
21	0x3d4dd615	0.050252993
22	0xbe3f461f	-0.18679093
23	0x3cdf9af8	0.027295575
24	0x3d5e27c5	0.054237146
25	0xbe077766	-0.1322914
26	0xbdf83970	-0.1212033
27	0xbe195ed0	-0.14977574
28	0xbcc3b0e6	-0.023888063
29	0xbe1597ca	-0.14608684
30	0x3ce3f8d3	0.02782861
31	0xbca66a2b	-0.020314297
32	0x3d30b078	0.043137044
33	0xbe14b079	-0.14520444
34	0xbca690ed	-0.020332778
35	0xbdf9e702	-0.12202264
36	0xbda9779b	-0.08274766
37	0x3d26dfec	0.040740892
38	0xbdec6c27	-0.11544066
39	0xbdc164db	-0.09443065
40	0xbd5aa27e	-0.05337762
41	0xbd379adf	-0.04482543
42	0xbd602db0	-0.05473107
43	0xbe25afe2	-0.16180375
44	0xbd81b096	-0.06332509
45	0x3b05ee24	0.0020436132
46	0x3ce71f01	0.028213026
47	0x3e139e8f	0.14415954
48	0xbdf43e36	-0.11925928
49	0xbd182ec7	-0.037153985
50	0xbea2228e	-0.31666988
51	0xbe43490d	-0.19070835
52	0xbe01331c	-0.12617153
53	0xbe16402e	-0.1467292
54	0x3e089bfa	0.1334075
55	0x3e17aa5c	0.1481108
56	0x3e094934	0.13406831
57	0x3d8a28e8	0.067460835
58	0xbd4b1fe8	-0.049590975
59	0xbdc657b8	-0.096847
60	0x3ddc34ec	0.107522815
61	0xbe0567e0	-0.13027906
62	0xbdea9f91	-0.11456216
63	0xbe47dd0a	-0.19517913
64	0xbdf608d3	-0.12013402
65	0xbddbebaa	-0.10738309
66	0xbd2bd69d	-0.041952718
67	0xbec4656e	-0.38358635
68	0xbd9af6ca	-0.075666025
69	0xbe2f7a4d	-0.17136498
70	0xbe657c95	-0.22410806
71	0xbdf7c1b2	-0.12097491
72	0x3d59f137	0.053208556
73	0xbe909b4e	-0.28243488
74	0xbe9c8557	-0.3057048
75	0x3d9c6a6c	0.07637486
76	0xbe0537e7	-0.13009606
77	0xbe9daa85	-0.3079416
78	0xbd29bb26	-0.041438244
79	0xbe4f2279	-0.20227994
80	0xbd602c4c	-0.054729745
81	0x3c947d75	0.018126229
82	0x3b54dae2	0.0032479097
83	0x3b834603	0.004006149
84	0xbda1c042	-0.078979984
85	0xbeb741c0	-0.3579235
86	0xbe922046	-0.28540248
87	0xbe065035	-0.13116534
88	0xbd59c569	-0.05316678
89	0xbd017692	-0.031607218
90	0xbe59dfc3	-0.21276765
91	0x3e1b3380	0.15156364
92	0xbe3497d2	-0.1763604
93	0xbe360efc	-0.17779154
94	0xbde7b660	-0.11314082
95	0xbe2f98ec	-0.17148179
96	0x3e5b8ede	0.21441218
97	0xbe7f4fe6	-0.24932823
98	0xbc72ad03	-0.014811757
99	0xbd183086	-0.03715565
100	0xbe399b29	-0.18125595
101	0x3b885c73	0.0041614114
102	0xbc7d9eca	-0.015479753
103	0xbe23bade	-0.15989253
104	0xbe185074	-0.1487444
105	0xbdd059a7	-0.1017335
106	0xbea58232	-0.32325894
107	0xbe80370f	-0.25042006
108	0xbd1c730d	-0.03819566
109	0xbdb905cc	-0.09034309
110	0xbe75cda2	-0.24004224
111	0xbea8cdec	-0.32969606
112	0xbe4dd677	-0.20101343
113	0x3b52dbc7	0.0032174455
114	0xbe9227f0	-0.28546095
115	0xbcd60ac6	-0.026128184
116	0x3d724562	0.0591482
117	0xbe336b28	-0.17521346
118	0xba0ec50d	-0.0005446233
119	0x3ddd2313	0.107977055
120	0xbd9b0127	-0.07568579
121	0xbc655536	-0.013997367
122	0x3daebf75	0.08532611
123	0x3db76d70	0.089564204
124	0xbea79eb1	-0.3273826
125	0xbdcf89b2	-0.10133685
126	0xbe1e9aea	-0.15488783
127	0xbe208305	-0.1567498
128	0xbd8bba87	-0.06822687
129	0x3d26333c	0.040576205
130	0x3d310ece	0.04322701
131	0x3c8ede78	0.017440066
132	0x3df65577	0.1202802
133	0x3bece5a2	0.007229523
134	0x3d7e4f76	0.0620875
135	0xbd7952e9	-0.060870085
136	0xbdea81eb	-0.11450561
137	0xbdf096a5	-0.11747483
138	0xbc90bfda	-0.017669607
139	0xbdd407af	-0.10353028
140	0x3db63cff	0.08898353
141	0xbe06f5a5	-0.13179643
142	0xbd9a9e74	-0.07549754
143	0x3d1b95a1	0.037984494
144	0xbda88600	-0.082286835
145	0x3d20d39a	0.0392643
146	0x3d45f77e	0.04833173
147	0xbe006dcd	-0.12541886
148	0x3e41fc1d	0.1894383
149	0xbda4ae8f	-0.08041107
150	0x3b708e6c	0.0036705984
151	0x3c968def	0.018378226
152	0xbe354c31	-0.17704846
153	0x3dd24145	0.102663554
154	0xbc6291f6	-0.013828745
155	0x3cced725	0.025249073
156	0x3d7950d1	0.06086809
157	0x3d63f4f8	0.055653542
158	0x3d2c79a8	0.042108208
159	0x3e246ae8	0.16056406
160	0x3c3b79ac	0.011442583
161	0x3d68fa88	0.05687955
162	0xbdb9473d	-0.09046791
163	0x3d9cb663	0.07651975
164	0xbd735c89	-0.05941442
165	0x3c82bcc9	0.01595916
166	0x3c373544	0.011182133
167	0xbd91e4b3	-0.07123699
168	0xbc9d0541	-0.019167544
169	0x3db53e4e	0.08849774
170	0x3d425c78	0.047451466
171	0xbdedaa6a	-0.116047695
172	0x3d77e0ba	0.06051705
173	0x3dae82e1	0.08521057
174	0xbc7403d2	-0.014893489
175	0xbdf61c39	-0.12017102
176	0xbd4ddabf	-0.05025744
177	0xbd98405c	-0.074341506
178	0x3db5b12c	0.088716835
179	0x3cb34da9	0.021887617
180	0xbdb52c5b	-0.08846351
181	0x3e0f75d7	0.14009796
182	0xbd48f5d9	-0.049062584
183	0xbe0d068c	-0.13772029
184	0xbd0bc31a	-0.03412161
185	0x3e0ecc4e	0.13945124
186	0x3d3bdf47	0.04586723
187	0x3e187b21	0.1489072
188	0xbdee18e4	-0.11625841
189	0x3d985d55	0.07439677
190	0x3da3a07d	0.07989595
191	0xbe21e799	-0.15811004

graph_rnn.weight_ih_l1 f4 [192, 64]
0	0x3d9089f6	0.07057564
1	0xbe45e3df	-0.19325207
2	0xbca19411	-0.019723924
3	0xbe85fc7a	-0.26169187
4	0x3de0bf6b	0.1097401
5	0xbd441518	-0.04787168
6	0xbd2da7bc	-0.042396292
7	0x3dcfb90c	0.10142717
8	0xbe337ec4	-0.17528826
9	0xbd9fb950	-0.077990174
10	0x3d53783d	0.05162834
11	0x3ce04216	0.027375262
12	0xbe9b06fa	-0.3027876
13	0xbcacdd79	-0.0211017
14	0x3e7bceb8	0.24590576
15	0x3d65cb6d	0.056102205
16	0x3f0f563b	0.5599095
17	0xbf03ae03	-0.51437396
18	0x3e9e688e	0.30939144
19	0xbe0c62b4	-0.13709527
20	0x3d8d073b	0.06886145
21	0x3e1c5f8b	0.15270822
22	0xbeb15f14	-0.3464285
23	0xbcca82a8	-0.024720505
24	0x3e2b4cf0	0.16728568
25	0xbe0f2770	-0.13979888
26	0xbdc11a16	-0.094288036
27	0xbed464e6	-0.4148323
28	0xbd1212ba	-0.03566239
29	0xbe7f9de0	-0.24962568
30	0x3da4a85d	0.08039925
31	0x3d368558	0.04456076
32	0x3dbc73bd	0.09201763
33	0x3d59ef36	0.053206645
34	0x3d715ed1	0.058928315
35	0xbe32666c	-0.17421883
36	0x3f1d8fcd	0.6154755
37	0x3d0e6e38	0.03477308
38	0x3dda58c0	0.10661459
39	0xbf147bec	-0.5800159
40	0xbdbf27a1	-0.093337305
41	0xbe01c3ef	-0.12672399
42	0x3de81f56	0.11334102
43	0x3ef0a4b4	0.4700066
44	0x3e91357f	0.28361127
45	0x3d799bb4	0.060939506
46	0xbd6613fa	-0.056171395
47	0xbdd7258e	-0.1050521
48	0xbcf98403	-0.030458456
49	0x3e96cc79	0.29452875
50	0x3e646614	0.22304565
51	0x3ec7ca11	0.39021352
52	0x3dfc43ce	0.1231762
53	0x3e03449c	0.12819141
54	0x3d317a80	0.043329716
55	0x3ddc48bf	0.10756063
56	0xbe1429b8	-0.1446904
57	0xbe160905	-0.14651878
58	0x3d701296	0.058611475
59	0xbe36d179	-0.17853345
60	0xbc3657a6	-0.011129295
61	0x3e8d4937	0.2759492
62	0xbdc20af5	-0.09474746
63	0xbcb35b06	-0.02189399
64	0x3dbc8322	0.09204699
65	0xbdd0409b	-0.101685725
66	0x3caa5592	0.020792756
67	0xbd3b2edf	-0.045698997
68	0xbe1a0456	-0.15040717
69	0x3bdddc6e	0.006770662
70	0x3d8dc93c	0.06923148
71	0xbe27e237	-0.16394888
72	0x3d35e866	0.044411086
73	0xbe625167	-0.22101365
74	0xbd82f9fc	-0.06395337
75	0xbe37e26e	-0.1795747
76	0xbeb911d7	-0.36146423
77	0x3c818493	0.015810287
78	0x3e5ed501	0.21760942
79	0x3df1ab91	0.11800302
80	0x3ece9431	0.40347436
81	0xbf06de8c	-0.5268333
82	0x3e99cb01	0.30037692
83	0x3ce31f90	0.027725011
84	0x3e9eb815	0.30999818
85	0x3e198fb8	0.1499623
86	0xbdfba9ad	-0.122882225
87	0x3e35bccc	0.17747802
88	0x3dcd74dc	0.10032055
89	0xbd3f2411	-0.046665255
90	0xbd3a4667	-0.045477297
91	0xbec194f9	-0.3780897
92	0xbd8434af	-0.06455361
93	0x3e0f7b3a	0.14011851
94	0xba889628	-0.0010420727
95	0xbcbd834e	-0.0231339
96	0x3e66f16a	0.2255303
97	0x3dfbec47	0.12300926
98	0xbeb4dfd7	-0.35327026
99	0x3dd8bb9c	0.10582659
100	0x3ebee4fb	0.37284073
101	0x3e80a7aa	0.25127918
102	0x3d886193	0.06659236
103	0xbf23d33c	-0.63994193
104	0x3e02a127	0.12756787
105	0x3dd5fe19	0.10448856
106	0x3db0aaa3	0.08626296
107	0xbc1594b9	-0.0091296965
108	0x3e974fe9	0.29553154
109	0xbe6b7bcb	-0.22996442
110	0xbbc246de	-0.005928858
111	0xbe52e531	-0.20595242
112	0x3e340372	0.1757944
113	0x3e7b23b2	0.24525335
114	0x3dfec185	0.12439255
115	0x3d5a1ba1	0.053249005
116	0x3d48ad30	0.04899329
117	0x3def975b	0.11698791
118	0xbe9d5bb2	-0.3073402
119	0xbe280826	-0.16409358
120	0xbe186c86	-0.14885148
121	0x37e17cbc	2.6880174e-05
122	0x3eb59009	0.35461453
123	0x3e38c6f0	0.18044639
124	0xbe368dd4	-0.1782754
125	0x3e08ff45	0.13378628
126	0x3d8342de	0.06409238
127	0xbe0d26ec	-0.13784379
128	0x3c9a56f7	0.018840296
129	0xbe147b68	-0.14500201
130	0xbded6734	-0.1159195
131	0x3ce53df5	0.027983645
132	0x3da8366b	0.082135044
133	0x3e0f8ff9	0.14019765
134	0x3d277f92	0.040893145
135	0xbd084384	-0.033267513
136	0xbe5267a2	-0.20547345
137	0x3d9437eb	0.07237228
138	0xbd7f1dd6	-0.062284313
139	0x3eac9649	0.33708408
140	0x3e4a95b5	0.19783671
141	0xbdecd8cd	-0.11564789
142	0xbd7abab5	-0.061213214
143	0xbdcba996	-0.09944455
144	0xbd349ab1	-0.044092838
145	0x3e3ef17b	0.18646805
146	0xbe862515	-0.26200166
147	0x3e4edf6f	0.2020242
148	0x3e18f318	0.14936483
149	0xbe12f6df	-0.14351986
150	0x3cd7109a	0.026253033
151	0x3e48a09c	0.19592518
152	0xbdda032a	-0.10645135
153	0x3e4a97aa	0.19784418
154	0xbe01b41a	-0.1266636
155	0x3cd1cf78	0.025611624
156	0xbeebc4ef	-0.46048686
157	0x3dea48c6	0.11439662
158	0xbe96f4ec	-0.29483736
159	0xbe056646	-0.13027295
160	0x3d800a75	0.062519945
161	0x3db68457	0.089119606
162	0xbdb85c16	-0.09001939
163	0xbd98ceed	-0.07461343
164	0xbe434821	-0.19070484
165	0xbcc13052	-0.023582611
166	0xbe048786	-0.12942323
167	0x3d96d0ca	0.07364042
168	0x3d6dc491	0.05804879
169	0xbdd26b09	-0.102743216
170	0xbc30c1d2	-0.010788398
171	0xbe77d4f0	-0.24202323
172	0xbe23391a	-0.15939751
173	0x3e4f4449	0.20240892
174	0xbe0c3ba2	-0.13694623
175	0x3de5af36	0.112150595
176	0xbe04fbd6	-0.12986693
177	0x3d94fd82	0.07274915
178	0xbe265f6f	-0.16247343
179	0xbe893d31	-0.26804498
180	0x3c4e0e31	0.012576626
181	0x3c96cccf	0.018408207
182	0x3c42fc8a	0.01190103
183	0xbe73a242	-0.23792365
184	0xbee1f53d	-0.44132414
185	0xbe9244bf	-0.28568074
186	0x3d0f81e7	0.035035994
187	0x3eac0097	0.335942
188	0xbe95fa99	-0.29292753
189	0xbe2b3044	-0.1671763
190	0xbe6c37a4	-0.230681
191	0x3d53fddd	0.051755775
192	0x3d6682fa	0.056277253
193	0xbd9bf1e2	-0.07614495
194	0xbe6e95cc	-0.2329933
195	0xbd84253f	-0.06452417
196	0xbe46b097	-0.19403301
197	0x3e141630	0.14461589
198	0xbb2fff81	-0.0026855173
199	0xbe36ebd8	-0.17863405
200	0xbd116764	-0.03549899
201	0x3d13d0be	0.036087744
202	0x3eb0fce0	0.34567928
203	0x3e14f3c2	0.14546111
204	0x3c9c4a8f	0.019078521
205	0xbedb355f	-0.42814156
206	0xbe4ac722	-0.19802526
207	0x3d16b8f4	0.03679748
208	0x3a94c296	0.0011349495
209	0x3d4cf930	0.05004233
210	0x3dc757c7	0.09733539
211	0xbcb8b98f	-0.022549419
212	0xbe63f2ff	-0.22260664
213	0xbe435a15	-0.19077332
214	0xbd8ebbb6	-0.06969397
215	0xbeef17bd	-0.46697798
216	0xbc82f6a2	-0.015986744
217	0xbf1deb73	-0.6168739
218	0x3e82234b	0.2541755
219	0x3d5f3a21	0.054498795
220	0xbefaad19	-0.48960188
221	0xbd50af7f	-0.050948616
222	0xbd3cfe79	-0.04614112
223	0xbe1c7e20	-0.15282488
224	0xbe49e7fa	-0.19717398
225	0x3eb0f320	0.3456049
226	0x3e03b867	0.12863313
227	0x3e14e268	0.14539492
228	0xbd3c0279	-0.045900796
229	0xbe1cf2b1	-0.15326954
230	0xbcd67e6e	-0.026183333
231	0x3dfb0096	0.12255971
232	0xbe4faf3b	-0.20281689
233	0xbe293dfb	-0.1652755
234	0x3e5a1a07	0.21298991
235	0x3c6aecd5	0.014338692
236	0x3e1b960b	0.15193956
237	0xbe97b525	-0.2963039
238	0xbec674e0	-0.38761044
239	0xbe2da670	-0.16958022
240	0xbe2eb3ed	-0.17060824
241	0xbe497061	-0.19671775
242	0xbd86e8fd	-0.06587408
243	0x3dff5b16	0.12468545
244	0x3e698004	0.2280274
245	0xbf14cd43	-0.58125705
246	0x3d834715	0.06410042
247	0x3e26b748	0.16280854
248	0x3e670ee3	0.22564273
249	0xbe4a104c	-0.1973278
250	0x3dd41a63	0.10356595
251	0xbefc076f	-0.4922442
252	0xbe2350e7	-0.1594883
253	0xbc1ae966	-0.009455061
254	0xbd63dda0	-0.05563128
255	0x3cafb3c2	0.02144802

graph_rnn.weight_hh_l1 f4 [192, 64]
0	0x3c4967d9	0.012292826
1	0xbe2d623e	-0.16932008
2	0x3d234886	0.039864086
3	0xbca54ca9	-0.020178156
4	0x3c910df1	0.017706843
5	0xbc8d9028	-0.017280653
6	0xbe08f5a0	-0.13374949
7	0xbdf3a93c	-0.11897513
8	0xbdd073ed	-0.10178361
9	0x3dab2a26	0.083576486
10	0xbdd651a4	-0.104647905
11	0xbdcb4143	-0.09924557
12	0xbdeed6fe	-0.116621
13	0xbbce0e6c	-0.0062883403
14	0x3ca63949	0.020290988
15	0x3d4bdb70	0.04976982
16	0x3d9fad1b	0.07796689
17	0xbca39ec0	-0.019973159
18	0xbdb36815	-0.087600864
19	0x3e8f18b4	0.27948534
20	0xbe26362a	-0.162316
21	0xbde109a3	-0.10988166
22	0x3d913618	0.07090396
23	0x3d74111d	0.059586633
24	0x3cfc924a	0.030831475
25	0xbdadff26	-0.08495931
26	0x3cf6c379	0.030122506
27	0xbe0e5814	-0.13900787
28	0xbe58d0ba	-0.21173373
29	0x3e123105	0.14276512
30	0xbb573bc1	-0.0032842013
31	0x3a60fb3d	0.00085823593
32	0xbdd38eba	-0.10329957
33	0x3d7628ac	0.06009738
34	0xbc6dec7e	-0.014521716
35	0xbd273c20	-0.040828824
36	0x3e6cb2c7	0.23115073
37	0xbd0417f9	-0.032249425
38	0x3d8011ba	0.06253381
39	0xbe02a8db	-0.12759726
40	0x3ad112ac	0.0015950999
41	0xbd3d401a	-0.04620371
42	0x3de328fe	0.11091803
43	0xbba174b8	-0.004927244
44	0xbe038823	-0.12844901
45	0x3e03eddf	0.1288371
46	0xbe350f57	-0.17681633
47	0x3d81381f	0.063095324
48	0xbc6748e9	-0.014116504
49	0x3d1da9c6	0.038491987
50	0xbdf7b13f	-0.12094354
51	0x3d9a45bd	0.07532833
52	0x3cbbbad0	0.022916228
53	0x3d3c46a9	0.045965824
54	0xbd489461	-0.04896963
55	0x3d0901cf	0.03344899
56	0x3e033ddd	0.12816568
57	0x3e7659f2	0.24057749
58	0xbe4753cc	-0.1946556
59	0xbbb9135b	-0.0056480593
60	0xbd92d686	-0.07169823
61	0xbcf35b69	-0.029706674
62	0xbdd2a9c9	-0.1028629
63	0xbe1197f2	-0.14218119
64	0x3e50c078	0.20385921
65	0xbdd74148	-0.10510498
66	0x3df1b01d	0.11801169
67	0x3e44a743	0.1920443
68	0xbe672e45	-0.22576244
69	0xbe0d496e	-0.13797542
70	0x3dfb16c0	0.122601986
71	0xbb95469f	-0.004555538
72	0x3dfc8b01	0.123312004
73	0xbe8adbaf	-0.2712073
74	0x3dc5fb24	0.09667042
75	0x3e72ff6d	0.2373025
76	0x3bf9dee2	0.0076254467
77	0xbc0db4ce	-0.008649064
78	0xbbbdac88	-0.0057883896
79	0x3e017d92	0.12645558
80	0xbbb7fd9f	-0.005614951
81	0xbe280f6e	-0.16412136
82	0xbcfda177	-0.030960781
83	0x3e38314f	0.1798756
84	0xbd6eeb85	-0.058330078
85	0xbe921100	-0.28528595
86	0xb9c37514	-0.00037280528
87	0xbd0c14d7	-0.034199562
88	0xbd37054b	-0.044682782
89	0xbdea0e9d	-0.114285685
90	0xbe87915d	-0.2647809
91	0xbe1530f5	-0.14569457
92	0xbe0e8b23	-0.13920264
93	0x3c151c5c	0.009101
94	0xbccff15a	-0.02538364
95	0x3e131eba	0.1436719
96	0x3d7e60f9	0.0621042
97	0xbe534c2e	-0.20634529
98	0x3ca22d42	0.019796971
99	0xbcfeab53	-0.031087553
100	0x3ca2c33c	0.019868486
101	0x3d85b084	0.06527808
102	0xbd208ef7	-0.039198842
103	0x3d30be37	0.043150153
104	0xbc0a7639	-0.008451038
105	0x3c14b7b4	0.009077001
106	0x3e8bc868	0.27301335
107	0xbe6ba610	-0.23012567
108	0x3dcc5cba	0.09978624
109	0x3e5b9549	0.21443667
110	0xbe04b1f6	-0.12958512
111	0xbe35a609	-0.17739119
112	0x3dbc9f7b	0.09210106
113	0x3d57b358	0.05266127
114	0x3d71dcef	0.05904859
115	0xbdffabab	-0.12483915
116	0xbc1827a5	-0.009286796
117	0x3c48a5e6	0.0122465845
118	0xbd6fdf4d	-0.058562566
119	0xbd5af0c0	-0.053452253
120	0xbd1b4629	-0.037908707
121	0xbda2db61	-0.079519995
122	0x3d6a2c1d	0.057170976
123	0xbe110265	-0.1416107
124	0x3e493745	0.1964999
125	0xbd6ed376	-0.058307134
126	0xbcc97550	-0.024592072
127	0xbc913ce1	-0.017729225
128	0x3ddb9beb	0.10723098
129	0xbe1a3fe0	-0.15063429
130	0x3d9b1041	0.075714596
131	0x3e086c5a	0.13322583
132	0x3d8b3898	0.06797904
133	0x3d9da75a	0.076979354
134	0xbcf16abe	-0.029469844
135	0xbe13e03d	-0.14441009
136	0xbdf4e61d	-0.11957953
137	0x3e845bdd	0.25851336
138	0x3e63b8e9	0.22238506
139	0x3db9081e	0.09034751
140	0xbbeabda0	-0.0071637183
141	0xbda3f5dd	-0.08005879
142	0xbdeab634	-0.11460534
143	0x3df8b4aa	0.12143834
144	0xbd2d9561	-0.042378787
145	0xbdc0e646	-0.09418921
146	0xbdd77f4f	-0.10522329
147	0x3e0da7a1	0.13833477
148	0xbe3618fc	-0.17782968
149	0xbdce5e18	-0.10076541
150	0x3e353065	0.17694242
151	0x3e23f202	0.16010287
152	0x3e32a31f	0.17445038
153	0xbc17e0a5	-0.009269868
154	0xbd2674b6	-0.040638648
155	0xbc20ab86	-0.009806519
156	0x3db24eb3	0.08706417
157	0x3eae923e	0.3409595
158	0xbdd98ab5	-0.106221594
159	0xbd6b09ca	-0.057382382
160	0x3eaeb838	0.34124923
161	0xbd851bb3	-0.06499424
162	0xbed8cdee	-0.42344612
163	0x3d4f61ab	0.050630253
164	0x3cbe6bc8	0.023244753
165	0xbe3485b4	-0.17629129
166	0x3ddf84be	0.109139904
167	0xbdce1918	-0.1006338
168	0xbd7e475d	-0.062079776
169	0x3e05e43e	0.13075349
170	0xbc5b5fa8	-0.013389505
171	0xbdfdb832	-0.12388648
172	0xbe0f106b	-0.13971107
173	0xbdef4057	-0.11682194
174	0xbe20c90d	-0.15701695
175	0x3ca31a0a	0.019909877
176	0x3e11523b	0.14191525
177	0x3b6d0241	0.0036164674
178	0x3e3ac42a	0.18238893
179	0xbcc4079c	-0.02392941
180	0x3dedb8ef	0.11607539
181	0x3df31a03	0.11870196
182	0x3e0e836a	0.13917318
183	0x3d860590	0.0654403
184	0xbe72aebd	-0.2369947
185	0xbe0ebdfb	-0.1393966
186	0xbe0e9cdd	-0.13927026
187	0x3e65cd91	0.22441699
188	0x3d95b0e1	0.073091276
189	0xbe1e7cd8	-0.15477312
190	0x3e1dd371	0.1541269
191	0x3dc5b227	0.096531205
192	0xbd223bbf	-0.03960776
193	0x3eab2ceb	0.33432707
194	0xbdbdadbe	-0.09261654
195	0xbe698658	-0.22805154
196	0xbec98622	-0.39360148
197	0xbd925668	-0.07145387
198	0x3d61740f	0.055042323
199	0xbe82a41d	-0.25515833
200	0xbe1b2cc3	-0.15153794
201	0x3eaf6758	0.34258533
202	0xbce87d60	-0.028380096
203	0xbcc28317	-0.02374415
204	0x3d4147e9	0.04718772
205	0xbd39c772	-0.04535622
206	0xbd929fb2	-0.07159366
207	0xbd7e733e	-0.062121622
208	0xba44d4e2	-0.00075085287
209	0x3e7e3a41	0.2482691
210	0x3d837eb6	0.064206526
211	0x3df636fa	0.12022205
212	0x3e1550e6	0.14581642
213	0x3d456f87	0.048202064
214	0x3d8d4fc9	0.068999834
215	0xbca42379	-0.020036446
216	0x3e1d171a	0.15340844
217	0x3d8e5469	0.06949694
218	0xbe1112dd	-0.14167352
219	0xbbf9e45d	-0.0076261
220	0xbd7f8d3c	-0.06239055
221	0xbca82d45	-0.020529399
222	0x3c843937	0.016140563
223	0xbcce7ba7	-0.025205446
224	0xbe6f5e29	-0.23375763
225	0x3e605b18	0.2190975
226	0xbebb2f47	-0.36559507
227	0x3decbf18	0.11559886
228	0xbe06ffce	-0.13183519
229	0xbd10176e	-0.035178594
230	0xbd324cd6	-0.043530308
231	0x3de720bc	0.112855405
232	0xbe8244b1	-0.25443032
233	0xbe1211ad	-0.14264555
234	0xbdddcb1f	-0.10829758
235	0xbe317eab	-0.17333476
236	0xbe2b1796	-0.16708216
237	0xbdde1c49	-0.10845239
238	0x3e8f240d	0.27957192
239	0xbe0ffcc2	-0.14061263
240	0x3e488ae8	0.19584239
241	0xbe06124a	-0.13092914
242	0x3d525962	0.051354773
243	0xbda68ad6	-0.081319496
244	0xbbb832ea	-0.005621304
245	0xbdc5645d	-0.096382834
246	0xbd881774	-0.06645098
247	0x3ecfbe42	0.40574843
248	0xbea5e31d	-0.32399836
249	0x3cfa38de	0.030544695
250	0xbe6ed86b	-0.23324744
251	0x3d133780	0.0359416
252	0xbe438aad	-0.1909587
253	0xbd936125	-0.07196263
254	0x3b8ba422	0.0042615095
255	0x3e647b6c	0.22312707

graph_rnn.bias_ih_l1 f4 [192]
0	0xbd89b642	-0.06724216
1	0x3ea1da8c	0.3161205
2	0xbc1dec49	-0.009638854
3	0xbe1924bb	-0.14955418
4	0x3e15b840	0.14621067
5	0x3d3cbb6c	0.046077177
6	0xbde5b01f	-0.11215233
7	0x3e0fb26a	0.14032903
8	0x3e63af6b	0.22234885
9	0x3e45cf56	0.19317374
10	0x3d9078a6	0.07054262
11	0x3c562b60	0.013071865
12	0x3d09cb61	0.033641223
13	0x3dd1b7d2	0.10240139
14	0x3d1ca1c4	0.03824021
15	0xbccf1d38	-0.025282487
16	0x3ce5f4e9	0.028070884
17	0x3de3c7e0	0.111221075
18	0x3e25d66f	0.16195081
19	0x3e23826d	0.15967722
20	0x3b42e6d2	0.002973963
21	0x3dfcd8bc	0.12346026
22	0x3e2b03fb	0.16700737
23	0x3d6988dc	0.057015285
24	0x3e014555	0.12624104
25	0x3d1e1430	0.03859347
26	0x3c65ecca	0.014033506
27	0x3db3b733	0.08775177
28	0xbe047f38	-0.12939155
29	0x3de8d8cc	0.11369476
30	0x3d8d73ac	0.06906828
31	0x3d55c8e3	0.052193534
32	0xbe0791d0	-0.13239217
33	0x3c5c7030	0.013454482
34	0x3c8954e3	0.01676411
35	0x3d0b4601	0.034002308
36	0xbdbd9a76	-0.09257977
37	0xbcd28109	-0.025696294
38	0x3e06767c	0.13131136
39	0xbb7f8ee2	-0.0038995077
40	0x3d6f3011	0.05839545
41	0x3df37cc0	0.118890285
42	0x3bc7fe55	0.006103317
43	0xbd93145c	-0.071816176
44	0x3e1dd5bd	0.15413566
45	0xbc2d0c3f	-0.010562002
46	0x3c9c3e47	0.019072665
47	0x3d4080ba	0.046997763
48	0x3ce033bf	0.027368424
49	0x3d557d61	0.052121524
50	0x3e7117a0	0.23544168
51	0x3dda7a4c	0.106678575
52	0x3e0ef2db	0.1395983
53	0xbe83595d	-0.25654116
54	0xbd84351e	-0.06455444
55	0x3d7ce010	0.06173712
56	0x3df341ef	0.1187781
57	0xbcb8b121	-0.0225454
58	0x3e5e89d9	0.21732272
59	0xbd20773b	-0.039176207
60	0x3e53bdbe	0.2067785
61	0x3da0513f	0.078279965
62	0xbdb91155	-0.09036509
63	0x3dc1aeef	0.09457194
64	0xbdbdb4fb	-0.09263035
65	0xbe95620d	-0.2917637
66	0xbe5e01df	-0.21680401
67	0xbcec4c16	-0.028844874
68	0xbe57010f	-0.20996498
69	0xbec92ce2	-0.39292055
70	0xbeab0119	-0.33399275
71	0xbdbb35a1	-0.09141088
72	0xbec1d096	-0.3785445
73	0xbdb3b26a	-0.08774264
74	0xbe2a4766	-0.16628799
75	0xbe0cc66b	-0.13747565
76	0xbe17492b	-0.14774005
77	0xbe09747f	-0.13423346
78	0xbc17d50f	-0.009267106
79	0xbebad632	-0.36491543
80	0xbd96ad8d	-0.07357321
81	0xbe9a809d	-0.3017625
82	0xbd241f20	-0.040068746
83	0x3e49300b	0.19647233
84	0xbe8d1da0	-0.27561665
85	0xbd91ab36	-0.07112734
86	0xbd849728	-0.06474143
87	0x3c56394e	0.013075186
88	0xbe8ef248	-0.2791922
89	0xbe964b15	-0.29354158
90	0x3e0c074e	0.13674662
91	0xbdf7d245	-0.121006526
92	0xbe5f46c1	-0.21804334
93	0xbe58edf5	-0.21184523
94	0xbecbb9ed	-0.39790288
95	0x3de07691	0.10960115
96	0xbce48ad5	-0.027898232
97	0xbdd9d2d5	-0.10635916
98	0x3d8836a1	0.06651045
99	0xbebe2f45	-0.3714544
100	0x3d7b01a4	0.06128086
101	0xbdbbfe99	-0.0917942
102	0xbeff2d71	-0.49839357
103	0xbe4e9c74	-0.2017687
104	0xbe169c94	-0.14708167
105	0xbe118f6c	-0.14214867
106	0x3d505eaf	0.050871547
107	0xbe673c0c	-0.225815
108	0xbeddb2d7	-0.43300506
109	0xbcaf1f38	-0.021377191
110	0xbe92b9f6	-0.28657502
111	0xbdc3c54d	-0.095591165
112	0xbea00771	-0.31255677
113	0xbe89d134	-0.26917422
114	0xbe9a27da	-0.3010853
115	0xbdbf9732	-0.0935501
116	0xbea0a5cf	-0.31376502
117	0xbe1994e3	-0.14998202
118	0xbe93776c	-0.2880205
119	0x3db26286	0.08710198
120	0x3cf1d78c	0.029521726
121	0xbe287901	-0.1645241
122	0xbeb9c7dd	-0.36285296
123	0xbe4efc7c	-0.20213503
124	0xbedc84dd	-0.43070117
125	0xbc301c4f	-0.010748937
126	0x3d6e2425	0.05813994
127	0xbd2b8cab	-0.0418822
128	0x3d00c01f	0.03143322
129	0x3d0a778b	0.03380541
130	0x3d52b6fb	0.051444035
131	0x3dc43075	0.09579555
132	0xbe2d38ef	-0.1691625
133	0x3e32d0ec	0.1746251
134	0x3da0b89e	0.07847713
135	0xbd1c2254	-0.038118675
136	0xbc31afe1	-0.010845155
137	0xbd00cf34	-0.031447604
138	0x3e354190	0.17700791
139	0xbd919494	-0.07108417
140	0x3d318041	0.043335203
141	0xbe44656b	-0.19179313
142	0x3df2a97b	0.11848732
143	0x3e139ab3	0.14414482
144	0x3e74c664	0.23903805
145	0x3d62a0c8	0.055329114
146	0x3d5cb158	0.053880066
147	0x3de4a2c8	0.111638606
148	0x3e6ade7d	0.22936435
149	0xbe906ab7	-0.28206417
150	0xbdcbaed0	-0.09945452
151	0x3d7647a0	0.0601269
152	0x3da32a4c	0.07967052
153	0xbdcfc5e2	-0.10145165
154	0xbdca27a6	-0.098708436
155	0xbe4cb032	-0.19989088
156	0xbd2c4fdd	-0.04206835
157	0x3d10f797	0.03539237
158	0x3e2d0292	0.16895512
159	0x39fdce26	0.00048409513
160	0xbd87568d	-0.06608305
161	0xbdaa904b	-0.08328303
162	0xbe849f1d	-0.25902644
163	0xbe10aea9	-0.14129128
164	0x3e0eb63d	0.13936706
165	0x3d65173e	0.05593037
166	0xbe5529a1	-0.20816661
167	0x3e61cefc	0.22051615
168	0xbda4e398	-0.080512226
169	0xbd9f9875	-0.07792751
170	0x3e8f732b	0.28017554
171	0xbe052f45	-0.13006313
172	0x3e67358f	0.22579025
173	0x3e419d3d	0.18907638
174	0xbd935762	-0.07194401
175	0xbe01332f	-0.12617181
176	0xbdc495e4	-0.09598902
177	0x3e662c7e	0.2247791
178	0x3c2b63b2	0.010460781
179	0xbd3a7bc7	-0.0455282
180	0xbe0d9eb1	-0.13830067
181	0x3dd082cc	0.101811975
182	0xbd7e43e4	-0.062076464
183	0xbdbb13bf	-0.09134626
184	0x3d1a9733	0.03774185
185	0x3df798f4	0.1208972
186	0xbdda995d	-0.10673783
187	0xbe049e56	-0.12951025
188	0xbd58057f	-0.052739616
189	0x3e19185f	0.14950703
190	0xbdee18f7	-0.116258554
191	0x3bec1339	0.00720444
