graphrnn_v2/experiments/seeds/seed_experiment_seed_0/model_at_1300.pt (torch, 420155 bytes, 43 tensors)

adj_embedding.0.weight f4 [32, 15]
000000 39 18 99 3e c1 9e aa be a4 d5 1b bf 8a 8f 13 3f
       0.29901293 -0.33324245 -0.60872865 0.576409
000010 78 4b 24 bf a3 c8 07 bf 7a 19 fe 3e fd 79 81 be
       -0.64177656 -0.5304052 0.49628812 -0.25288382
000020 5a c7 32 be e7 aa 0a 3e 9d c3 13 3e 54 a6 70 be
       -0.17458859 0.13541757 0.1443009 -0.23500949
000030 74 99 0f be ef 6a f4 3d 3b 00 cd bd aa a0 98 be
       -0.14023381 0.119344585 -0.100098096 -0.29810077
000040 e9 47 1c bf dc 7f e0 3d 3c 5d 95 3e 12 41 4c be
       -0.61047226 0.10961887 0.29172695 -0.19946697
000050 aa c5 fc 3e b7 cb cb 3b ec 9c 95 bd ec 68 3a bd
       0.49369556 0.006219353 -0.07305321 -0.045510218
000060 db 0e de 3c 1b 43 6b 3d 3e 46 14 3e 79 1f 5c be
       0.027106693 0.057437044 0.1447992 -0.21496381
000070 8d eb c3 3c 2d 51 a5 be ef db 13 3f 45 46 ae bb
       0.02391603 -0.32288495 0.5775747 -0.0053184354
000080 28 24 12 be fd 64 0f 3f f4 76 11 be 8b a8 ac be
       -0.14271605 0.5601347 -0.14205533 -0.33722338
000090 54 0d 00 bf ac fe 56 bd 8c 56 8e 3c 6e 03 88 3e
       -0.5002034 -0.052488968 0.017375253 0.26565117
0000a0 3e a6 f0 bd fb c5 e5 ba 2d 0f be bd 3c a1 17 3e
       -0.11750458 -0.0017530316 -0.09280238 0.148076
0000b0 14 9c f6 3c fa 67 3c 3e 11 79 b8 be d9 05 4e 3c
       0.03010372 0.18399039 -0.36029866 0.012574636
0000c0 6a 49 9a 3e 37 87 bc 3e e4 22 ee 3a 74 65 66 be
       0.30134135 0.3682191 0.0018168357 -0.22499639
0000d0 5a 94 87 3e ec d3 a3 3e 13 c9 83 bd fa a2 a5 3e
       0.2648037 0.3199762 -0.06434836 0.32350904
0000e0 7d 99 6f 3e 9c 27 36 3e c8 76 c5 3b d6 63 98 3d
       0.23398395 0.17788547 0.0060261227 0.07440917
0000f0 93 15 03 3f 27 c9 88 3e b3 cd 9e 3e 49 c8 07 3d
       0.51204795 0.26715967 0.3101631 0.03314999
000100 f3 e5 29 be 68 82 26 be fa 9a 79 be 6f 36 c2 3e
       -0.16591625 -0.16260684 -0.24375525 0.37932155
000110 8d 3a dc 3e 29 0a df 3e 7d e9 10 bd ed 10 ed 3e
       0.4301342 0.4356244 -0.03537892 0.46301976
000120 fd 0f e7 3e aa 05 ca 3e 72 96 d8 3e 3d 27 9f 3d
       0.45129386 0.39457446 0.4230228 0.07771156
000130 41 bc 2d 3e 00 a1 c7 3e da 7c 7a 3e c9 15 03 3e
       0.16966344 0.3899002 0.2446169 0.12801279
000140 66 1d 87 be 95 86 fe bd 8e 91 a3 3e f4 61 9c 3e
       -0.26389617 -0.12428013 0.31946987 0.30543482
000150 18 6f 75 3c f7 16 c3 3e ca 35 81 3e ff 00 50 bd
       0.0149801 0.38103458 0.2523635 -0.0507822
000160 4f 85 a0 3e 66 27 1d 3d 20 3d 77 3e b5 a4 07 bf
       0.31351706 0.03836765 0.24144411 -0.529857
000170 0a 40 68 be 19 50 68 bd 37 e0 95 3e 8e 99 34 3d
       -0.22680679 -0.056717012 0.29272625 0.044091754
000180 75 73 81 be d7 cc 35 3e 0c b0 eb 3d 2c 29 87 be
       -0.252834 0.17753921 0.11508188 -0.263986
000190 46 0e 5f 3e 1d 16 b1 bd 56 44 35 be d9 8a 04 be
       0.21782789 -0.08646796 -0.1770185 -0.12943591
0001a0 45 ad 05 3e d7 08 b3 3d af b7 11 3f 16 a0 31 bd
       0.13054378 0.087419204 0.56920904 -0.04336556
0001b0 c8 51 53 bd 19 50 a9 be d5 31 fe bd f6 db 0b 3e
       -0.051591665 -0.33068922 -0.124118485 0.13658127
0001c0 6f 37 b5 bd ed a3 cc 3d 37 36 2f 3e 33 06 2c be
       -0.08848464 0.09992204 0.17110525 -0.1679924
0001d0 37 ae 24 be 88 b9 2d be b3 cd 36 be 88 de 3f bd
       -0.16082083 -0.16965306 -0.17851906 -0.04684308
0001e0 76 a3 e4 be b3 7d 19 bf 20 f3 35 3e 8f ae af be
       -0.4465596 -0.59957427 0.17768526 -0.34312865
0001f0 7f d8 67 3d 19 73 26 3f 08 1e f8 3e 5d 8e 18 be
       0.05660295 0.65019375 0.48460412 -0.14898057
000200 2a 85 1f be aa be d4 bd 9f a0 93 bd ab ca 10 be
       -0.15578142 -0.10387929 -0.072083704 -0.14139812
000210 68 b7 c1 3d 2d cc f0 bd 1c b2 0e 3d f9 0b f4 3d
       0.0945881 -0.117576934 0.034837827 0.11916346
000220 85 a4 7e be 7c 4b 7d bd 24 00 d8 3e 78 d2 96 be
       -0.24867447 -0.061839566 0.42187607 -0.2945745
000230 c3 c0 3a be fa b8 18 bc 48 aa 15 3e 5b 69 12 3d
       -0.18237595 -0.009321446 0.14615738 0.035745006
000240 f1 ec 23 be 00 b1 84 bd ef 5b fa bc a3 80 2d 3e
       -0.16008355 -0.064790726 -0.030561415 0.16943602
000250 e2 63 36 3e a9 28 a5 bc a4 14 80 be 66 9f b2 bd
       0.1781154 -0.02016099 -0.25015748 -0.08721809
000260 46 5d 59 be 67 25 53 3e 87 42 1e 3e 7a 23 a4 3e
       -0.21226987 0.20619737 0.15455066 0.32058316
000270 da b2 65 3e b4 c2 93 be 15 e2 84 bd a0 dc d3 b6
       0.22431508 -0.28859484 -0.06488434 -6.313974e-06
000280 2a dc a5 be 1d 37 b8 3d be 61 bb bd 34 6b a5 bc
       -0.32394534 0.08994887 -0.09149502 -0.02019272
000290 2f fa e7 bd 1e 27 27 be 49 f1 16 be 81 4f 09 be
       -0.113270156 -0.16323516 -0.1474048 -0.13409235
0002a0 77 b9 36 be 86 61 c5 bb f8 75 ae bd 41 6f 26 be
       -0.17844187 -0.0060235886 -0.085185945 -0.16253377
0002b0 21 46 91 3d 02 7f 2b 3e b5 f2 46 3e 7c 30 d9 3c
       0.07093454 0.16747668 0.19428523 0.026512377
0002c0 b8 37 b8 bd c5 de 76 be 3e 22 82 bc 32 02 12 be
       -0.089950025 -0.24108417 -0.015885469 -0.1425865
0002d0 b9 06 03 3f c5 cf 79 be 65 1f af 3c 15 75 dc 3d
       0.5118213 -0.24395664 0.021377275 0.10764519
0002e0 79 d5 fc bd 08 a7 72 be ad c9 f1 bd d9 ae d0 bd
       -0.12345404 -0.2369653 -0.11806045 -0.101895995
0002f0 1c 2b 48 bd 52 0e 17 3e a2 89 ed bd d3 4d 71 be
       -0.048869237 0.14751557 -0.11598517 -0.23564844
000300 92 a0 08 3d ab 0e ec 3d 31 ba 40 3d c9 0e 4a 3f
       0.033356257 0.11526235 0.047052566 0.7892881
000310 8a 07 37 3e 9a 97 c2 bd a9 e7 8c bd ba bd e7 bd
       0.1787397 -0.09501572 -0.06880123 -0.11315484
000320 f0 70 c7 bd 6f 24 27 bd e2 51 62 3e 82 e3 0b 3e
       -0.09738338 -0.04080623 0.22101548 0.13661006
000330 12 ff db 3d b7 3c 83 3d 0a 69 a0 3e d0 7c 7c 3e
       0.1074201 0.06408065 0.31330138 0.24656987
000340 53 a3 78 3e 26 99 74 3d c1 1c 6b be b3 bd e0 3d
       0.24281053 0.059716366 -0.22960187 0.10973682
000350 70 56 80 3e 75 10 c9 3e 89 26 50 3e 15 16 24 3e
       0.25065947 0.39270368 0.203272 0.16024049
000360 2b 9f 65 be 1b c9 70 3d cf 7d 5e 3d 95 2f a6 3e
       -0.22423999 0.05878554 0.0543192 0.32458177
000370 3e a8 92 3e 2a c0 96 3e 53 67 94 3e 7b 77 63 3e
       0.28643984 0.29443485 0.2898508 0.22213547
000380 8a 08 fa bd 7b c0 6e 3c a2 94 b9 bd ee 74 a8 3e
       -0.1220866 0.014572258 -0.090615526 0.3290171
000390 40 d9 f2 3d 25 5a 8d 3e 51 7c 38 be 66 ea 4b be
       0.118578434 0.27607837 -0.18016173 -0.19913635
0003a0 14 ed d4 3d ba 9f 39 3e e7 d5 41 be 53 9c f5 3b
       0.103967816 0.18127337 -0.18929254 0.007495442
0003b0 4e f5 81 be 47 44 48 3e 29 00 3b 3e 17 53 4b be
       -0.25382465 0.19557296 0.1826178 -0.19855915
0003c0 21 86 15 3f 10 6f 22 bc d7 76 d8 3e 74 51 27 bd
       0.5840779 -0.009914175 0.42278168 -0.040849164
0003d0 0e dc 46 bd 0a 05 ec be 83 b5 46 bd 86 2c 6f 3e
       -0.048549704 -0.46097594 -0.048512947 0.23356828
0003e0 8f 18 0b 3e 91 c3 27 be de 1f 88 3e 68 a6 04 3e
       0.13583587 -0.16383196 0.26586813 0.12954104
0003f0 1a 79 85 3d f5 d4 0e be 17 a3 9c 3e 8a 1b 91 be
       0.06517239 -0.13948424 0.30593178 -0.28341323

adj_embedding.0.bias f4 [32]
000000 0a 40 f1 3c 94 1c e4 3e 7c c8 0e 3e 62 78 48 bc
       0.029449482 0.44553053 0.13943666 -0.012235733
000010 b2 3e 22 3e ef 68 07 be 06 85 8c 3e 45 1e 24 3d
       0.15844229 -0.13223623 0.2744524 0.04006793
000020 07 c6 ed 3e 9d 63 8e 3e aa f6 ff 3d 85 a9 36 be
       0.46440145 0.27810374 0.12498219 -0.17838104
000030 3a 39 00 3e 08 fc 8a 3c a9 fe 2f be f6 48 15 3e
       0.1252183 0.016965881 -0.17186989 0.14578614
000040 94 7d 10 3d bc 12 5f 3d 54 46 9a 3d fc a0 78 3d
       0.03527601 0.054461226 0.07532945 0.0607004
000050 16 35 1b bd c1 2e 4e be 93 a2 1c 3e d3 ee 76 3e
       -0.037892424 -0.20135023 0.15296392 0.24114542
000060 c1 f9 f3 3d 38 e9 ba bd f5 3f ac 3e 6c 6b af bd
       0.11912871 -0.09126514 0.33642545 -0.08565411
000070 5e cb c4 bd 82 be 19 3e 52 ff 89 3b 64 6e 67 bd
       -0.09609102 0.15014079 0.0042113448 -0.05650176

graph_rnn.weight_ih_l0 f4 [192, 32]
000000 43 12 b4 3e d3 63 b4 bd e4 66 13 be fa 2d 8c 3d
       0.35170183 -0.088081025 -0.14394718 0.06844707
000010 10 27 81 be da f1 9c 3c fb 20 bc 3d 05 c4 40 bd
       -0.25225115 0.019158293 0.09185978 -0.04706194
000020 63 6a ff bd 8f 3e 89 3c 39 d4 94 3e a0 db 72 bc
       -0.124714635 0.016753463 0.29068163 -0.0148228705
000030 9b 64 a5 be 1c 07 e2 be 72 5e 78 bc 8b 27 9c bd
       -0.32303318 -0.4414605 -0.015159236 -0.0762473
000040 6b fb ab be 42 29 a9 3e 53 2e a0 be 1f 07 83 be
       -0.33590254 0.3303929 -0.31285343 -0.2559137
000050 a5 6a 45 be 3a bd c8 3e e2 ff 2f 3e e3 98 1e bd
       -0.19278963 0.39206868 0.17187455 -0.038720023
000060 ce 61 3c be 6c 47 a6 bd c8 cc e3 bb ea 31 ec be
       -0.18396685 -0.081190914 -0.006951902 -0.4613183
000070 80 7c e7 be 36 a2 b9 3e 0e 50 e9 be 37 f8 99 bd
       -0.45212173 0.3625657 -0.4556889 -0.07518046
000080 81 67 81 be 84 2e eb bd 48 f2 a8 bd 8d a5 e8 ba
       -0.2527428 -0.114834815 -0.082493365 -0.0017749533
000090 86 45 1f 3e 9b 51 82 3d c1 74 cc 3d 15 83 a8 bd
       0.15553865 0.06363221 0.099832065 -0.08228127
0000a0 31 e5 91 3e 0d 9a ca bb 57 c6 6a 3d 70 6a 66 3c
       0.28495172 -0.006182915 0.057318058 0.014063463
0000b0 c7 e0 29 3d 6c 12 b7 3d 24 69 90 3d 8e b7 10 3e
       0.04147413 0.089390606 0.07051304 0.1413252
0000c0 29 83 05 3d cc ce 25 be 43 22 8a bc ca 15 e8 3d
       0.032595787 -0.16192168 -0.01686204 0.11332281
0000d0 78 f1 69 bd 9d 64 2c 3e cc ca 72 3c c9 d2 99 3d
       -0.05711505 0.16835256 0.014818858 0.07510907
0000e0 de e1 b4 3d 00 fd fc bc 5e de e4 3d 79 56 16 3e
       0.08832143 -0.030882359 0.11175226 0.14681424
0000f0 99 41 72 3d 9e 66 07 3c 3a 38 80 3e 31 c7 c2 3c
       0.05914459 0.008264212 0.25042897 0.023776622
000100 50 7f 0b 3f 14 14 63 3c 93 6d d8 3d 30 82 92 bd
       0.5449114 0.0138597675 0.105677746 -0.071537375
000110 b5 d0 17 bd 07 0e ab 3b 2b a5 80 3e 47 fb 85 bc
       -0.037064273 0.005220178 0.25126013 -0.01635517
000120 ca cc d9 bc 50 9d a0 3c 06 38 36 3c 3c cb 81 bd
       -0.026586909 0.019606262 0.0111217555 -0.06337592
000130 26 86 2d 3e 9f 57 aa 3e 14 45 27 be f8 da 9e 3c
       0.16945705 0.33269975 -0.16334945 0.019391522
000140 68 d0 0f be 4e ac de 3d 7e 3c 62 3e b2 b4 b7 3d
       -0.14044344 0.10872708 0.22093388 0.08970012
000150 5c dc db 3c 36 95 94 be b8 47 02 3d d8 89 72 3e
       0.026838474 -0.2902009 0.031806678 0.23685396
000160 85 e7 06 be 5d ce b3 3d c5 67 27 be 6a 37 bc bd
       -0.13174255 0.08779595 -0.16348179 -0.09190257
000170 10 8a 37 bd 8b 70 68 3e 9f fd 62 bd ad eb 88 be
       -0.0448094 0.22699182 -0.055417653 -0.26742306
000180 c2 b9 25 3e 94 00 a5 3d 70 01 94 bd 6e e6 07 3e
       0.16184142 0.08056751 -0.07226837 0.13271496
000190 5e e8 0e be ce 6d 9c be 46 d0 a7 3d d6 b1 17 be
       -0.13955829 -0.30552524 0.08194022 -0.14813933
0001a0 c5 1c 0e be cb f2 2a 3e a1 b4 9e 3d e8 29 76 3d
       -0.13878162 0.1669418 0.07749296 0.06009856
0001b0 25 ca b2 3d e8 8d 00 be db 6d 50 be d6 0a 57 be
       0.08729962 -0.12554133 -0.20354407 -0.21000227
0001c0 42 57 5f be 6b fe 4a 3e 06 10 a7 be f7 0c 93 be
       -0.2181063 0.19823615 -0.32629412 -0.2872083
0001d0 10 19 67 bd 74 c7 da 3d 01 54 3e 3d 63 bd b8 bd
       -0.056420386 0.10682574 0.04646683 -0.09020498
0001e0 0f 47 00 be 57 fb ca 3d 9f d2 44 bd 7f 74 6d be
       -0.12527107 0.099112205 -0.048052426 -0.23188971
0001f0 82 7b 9b bd 26 04 d9 bb af 02 55 be c6 7a c9 be
       -0.075919166 -0.006622809 -0.20801805 -0.3935148
000200 70 5f e7 3e 6d 93 d1 bd 0d a5 89 bc 73 49 e5 bb
       0.4519 -0.10233197 -0.016802335 -0.006997281
000210 70 47 50 bd d3 9a 5b bd 76 66 66 3e 49 fb 2b 3e
       -0.050849378 -0.05361445 0.22500023 0.16795076
000220 3a ed 69 be 44 9f d0 3d 07 af 26 bc b8 0f 8c 3c
       -0.22844401 0.101866275 -0.010173566 0.017097339
000230 99 1d 24 3e 93 2c 28 3e 64 18 9f be 89 01 ff bc
       0.16026916 0.16423254 -0.31073296 -0.031128662
000240 11 5d 92 3c 51 72 3e bd 30 1c 4e 3e a9 73 c5 3d
       0.017866643 -0.04649574 0.2012794 0.09641201
000250 c6 7e d9 bc dc cd 5c be 19 07 f3 3d f0 f7 6f 3d
       -0.026549708 -0.21562904 0.11866588 0.05858606
000260 4f 32 d2 3b 5d 36 06 3e 2f 47 6c be 85 c3 38 3d
       0.0064146887 0.13106675 -0.2307403 0.045108337
000270 63 48 99 bb 90 f6 83 3e 57 af 19 3e 91 82 ab bd
       -0.0046778186 0.2577405 0.15008293 -0.08374513
000280 73 14 76 3e 5b 0b 94 be 73 59 1c bd 5e 50 b5 bd
       0.24031238 -0.28914914 -0.038171243 -0.088532194
000290 2f 2c c5 bd 0e 29 86 be 0b 8f 10 bc 73 26 4d 3e
       -0.09627568 -0.26203197 -0.008823167 0.20034198
0002a0 d5 5d 6d be b2 8d b3 3d 1d a3 d9 bd 6e 8b c4 3d
       -0.23180325 0.087672606 -0.106268145 0.095969066
0002b0 86 76 2d be 84 fc 93 bc 0b 6e a8 be d5 9d 3c be
       -0.16939744 -0.018064745 -0.32896456 -0.18419583
0002c0 7b 54 16 bf 8f 22 c2 bb c8 ef 23 bc d5 92 9e be
       -0.58722657 -0.00592453 -0.010005899 -0.309714
0002d0 4c cd 7b 3d e2 8b a8 bd 27 75 c4 bc 0b 9e ef 3d
       0.061475083 -0.082298055 -0.023981644 0.11700066
0002e0 ce 5b b1 bc cb 73 cc 3c 89 c9 d4 be cc f1 4c be
       -0.021650221 0.024957558 -0.4156001 -0.20014113
0002f0 40 db a4 3d 28 4d be 3d cd ec a1 be 98 f6 cf be
       0.08049631 0.0929206 -0.31625977 -0.40617824
000300 5d fa 62 3e f4 13 93 bd 85 0f 7d bc e8 dc 9c bd
       0.22165819 -0.0718154 -0.015445595 -0.07659322
000310 b0 76 0d 3d de 77 38 be 09 79 bb 3d 80 83 77 3e
       0.034537017 -0.18014476 0.09153945 0.24171257
000320 13 5d 07 3e 6e 7d 13 3e be d8 93 3d a8 c2 e4 bd
       0.13219099 0.14403316 0.07219075 -0.1116994
000330 6c a0 e6 3c c5 0e 39 3e 22 69 65 bd 68 24 9a bd
       0.028152667 0.1807204 -0.056008466 -0.07526475
000340 f7 75 66 be 02 3f 2b 3e 9d ca d6 3d 28 2a bc 3d
       -0.22505938 0.16723254 0.10487864 0.09187728
000350 2a d1 ae bc 19 37 fc bd 78 da 84 3e cd 29 b9 3d
       -0.021339972 -0.123151965 0.25947928 0.09041176
000360 8a c7 36 be 8a 07 9e 3d 96 a4 51 3d 49 3b 01 be
       -0.17849556 0.07716282 0.051182352 -0.12620272
000370 3c f7 1f 3d 6c e6 61 3e 9c cb ab bd f4 d6 46 be
       0.03905414 0.22060555 -0.08388445 -0.19417936
000380 66 c0 fb 3e f4 43 87 be e3 04 29 3e e3 cc b2 bd
       0.49170226 -0.26419032 0.1650577 -0.08730485
000390 90 ff bb 3d 77 6b a3 be 9b b6 ed 3d 7b 5f bf 3b
       0.09179604 -0.31917927 0.11607095 0.0058402396
0003a0 fb ce 3e be 47 d0 bf 3c 66 17 85 bd e0 4e bb bc
       -0.18633644 0.023414744 -0.064986035 -0.022864759
0003b0 7c a0 ab 3c 89 0d e6 3e e4 5e c0 be 26 73 2b be
       0.020950548 0.44932202 -0.37572396 -0.16743144
0003c0 bd 95 d0 bd e8 a0 21 b9 c8 aa 9c 3e 5f 4f 47 39
       -0.1018481 -0.00015414099 0.30599046 0.00019007687
0003d0 c7 ea 23 3e 66 0f 13 be b5 5f 9d bb 01 86 23 3e
       0.16007529 -0.14361343 -0.004802669 0.15969087
0003e0 f0 93 bd bb 35 9d 8c 3e fb 1c 85 be 5a c9 6e 3d
       -0.005785458 0.2746369 -0.25998673 0.058297493
0003f0 6c ed cf 3e c1 13 a0 3e 85 55 2c 3e 14 b3 77 be
       0.40610826 0.3126507 0.16829498 -0.24189407

graph_rnn.weight_hh_l0 f4 [192, 64]
000000 d7 55 c4 bc 60 27 1a bd 3c 8b ca 3d 5d 17 eb bd
       -0.023966713 -0.037635207 0.09889838 -0.114790656
000010 65 41 28 3e 5a 91 3d 3d 01 98 8f 3c 3a 82 8c 3d
       0.16431196 0.046281196 0.017528536 0.06860776
000020 71 95 bd bd 95 71 86 3a 3b cd 64 bd 4e 23 26 3e
       -0.09257019 0.0010257239 -0.055859786 0.16224405
000030 9d 45 80 3c 8b 17 13 be aa f8 93 3d 7b d7 f8 bd
       0.015658194 -0.1436445 0.07225163 -0.12150475
000040 0b ed 94 bd a9 51 8b 3e 5d a2 00 be 9f 67 a3 3e
       -0.07271775 0.2721074 -0.12561937 0.31914994
000050 28 3b 6c bd d1 2a a6 bd 86 e9 fd bd 47 d7 4a 3e
       -0.057673603 -0.08113635 -0.12398057 0.19808684
000060 59 b4 4d 3b 1f 46 75 be 78 11 9f bc 34 2f 86 3e
       0.0031388013 -0.2395253 -0.01941751 0.26207888
000070 c5 ff 29 be 93 c2 02 bd ee 26 b7 bd 1a 3f cc 3d
       -0.16601475 -0.03192384 -0.08942972 0.09972973
000080 a8 41 6b 3d a2 51 7c 3e 8e 4e 54 bd 77 d5 7e 3d
       0.05743566 0.24640515 -0.051832728 0.062215295
000090 69 86 79 bc 42 5c 40 3e a3 2a d6 bc ab a7 17 3e
       -0.0152298 0.18785194 -0.026143378 0.14810054
0000a0 61 68 ac 3d f8 39 70 bd fe 6c 0c bc f5 a7 3f bb
       0.08418346 -0.058649033 -0.008570908 -0.0029244397
0000b0 11 9d 09 be 3f ac ff bd fd cf f6 3c c7 bc 3f be
       -0.13438822 -0.12484025 0.030128473 -0.18724357
0000c0 d2 82 94 bc 05 77 26 3d 03 8d d8 bd 7f 11 61 3d
       -0.018128786 0.04064085 -0.10573771 0.054948326
0000d0 aa 0b 3f be 1f bd 3f 3c 4f 57 56 3e 1f 0b 87 bc
       -0.18656793 0.011702805 0.20931743 -0.016484795
0000e0 4e 83 95 be 36 7f 47 3d c0 e4 7c bd ec 86 e6 3d
       -0.2920174 0.048705302 -0.06174159 0.11256203
0000f0 60 c7 2a be 64 c7 25 3e 2f bb c1 bd 45 4b 69 3e
       -0.16677618 0.16189343 -0.094595306 0.2278262
000100 36 78 97 be 17 f7 8d bd 54 46 12 bd 19 f3 34 3d
       -0.295839 -0.06931894 -0.0357116 0.04417715
000110 73 84 93 3c c5 1a ec 3b f4 0e 66 3d a2 79 1b 3c
       0.018007493 0.0072053396 0.056166604 0.009489449
000120 b9 85 aa bd f1 c3 13 bd 1d 84 dc bc f9 21 84 3d
       -0.08326287 -0.036075536 -0.026918465 0.06451792
000130 aa 48 d6 3d fd d9 f6 bc 0c 92 b0 3d 16 80 89 3d
       0.10463078 -0.030133242 0.08621606 0.067138836
000140 35 fb c3 bc a7 f3 a1 bd 28 1d 83 bd f5 57 4e 3d
       -0.023923496 -0.07907801 -0.064020455 0.05037685
000150 05 4e 1d 3e c6 4f 8e bc 4a ac 9b 3d c5 4f 80 bd
       0.15361793 -0.017372023 0.07601221 -0.06265215
000160 07 ca a8 3d 39 62 9d ba 35 a5 8e bd f5 d1 31 3d
       0.08241659 -0.0012007422 -0.069651045 0.04341312
000170 72 31 85 bd 5d 3f 94 3d 41 25 25 3c 79 b4 ab 3d
       -0.065035716 0.07238648 0.010079683 0.08384032
000180 9e bb 8f bd 8d fc 81 3d fd be b4 3c 21 ed 9a be
       -0.07018207 0.06346998 0.022063727 -0.3025904
000190 53 dd c1 bd 2f 52 1e 3e ac be e2 bc fc e1 44 bc
       -0.09466042 0.15461038 -0.02767881 -0.0120167695
0001a0 a7 4c 1d bc 37 0c d9 bc 5c 50 20 3d 92 32 a9 3d
       -0.009600795 -0.026495082 0.039139137 0.08261599
0001b0 7e ff 93 3c 9d 72 38 3e 9f 59 09 3e ad a2 a1 3c
       0.018066164 0.18012471 0.13413094 0.01973089
0001c0 a8 3c 8f bd d1 43 e0 bd 86 a4 04 be 1e 9f e6 3d
       -0.06993991 -0.10950435 -0.12953386 0.11260818
0001d0 bb 4a 68 be 55 86 d5 3d be 97 26 3e e3 83 9b 3c
       -0.22684757 0.104260124 0.16268823 0.018983787
0001e0 4d dd 21 3d 69 11 bc 3d c4 82 dc bd 15 9b b3 bd
       0.03951769 0.09183008 -0.10767129 -0.08769814
0001f0 d7 d8 18 3e c9 e5 89 3d 36 c2 47 bd cf fa dd bb
       0.14926468 0.06733281 -0.0487692 -0.0067742835
000200 aa 54 12 bd 83 5a e5 3d 6b 8b 93 39 09 ba 83 3e
       -0.035725273 0.11198904 0.000281419 0.2572787
000210 a2 36 ca 3c fa fa e3 bd b8 da 48 be 28 32 6f bd
       0.024684254 -0.11131854 -0.19614685 -0.058397442
000220 f9 1c 05 be 86 de 7e 3d 7f 03 f9 bd 67 0e b0 bd
       -0.12999333 0.062223934 -0.1215887 -0.08596497
000230 af a4 ca 3c ee 4b d0 bc 5f 74 a5 bd 24 b8 a1 bb
       0.02473673 -0.025426831 -0.08078837 -0.0049352814
000240 dd f9 35 3b 51 07 de bd d4 98 a9 bd 07 da 73 3e
       0.0027767338 -0.10841239 -0.08281103 0.2381364
000250 26 c2 8f 3d ed 84 81 be 20 8a c2 3d ff 96 a3 3d
       0.07019453 -0.25296727 0.094990015 0.079877846
000260 82 ed 48 3e cf 94 b7 bb a5 be 82 be e4 c7 ae bd
       0.19621852 -0.005602456 -0.25536075 -0.0853422
000270 9c 91 62 3e 7c 27 bc bd 80 d8 dd 3c 15 f6 29 be
       0.22125858 -0.091872185 0.027080774 -0.16597779
000280 1a 10 50 3d 18 4c 92 be ee 77 41 3d a5 f3 03 be
       0.050796606 -0.2857368 0.047233514 -0.12885912
000290 0b c6 ad bc 24 9c c1 3d 8d db f7 bd 40 21 fb bc
       -0.021212598 0.094536096 -0.12102423 -0.030655503
0002a0 09 41 82 3e c7 d4 67 3c 14 81 50 be bc e4 79 3d
       0.25440243 0.014149851 -0.2036174 0.061009154
0002b0 a1 7b 27 3e e4 49 86 bd e4 99 1d 3e a3 db a1 3e
       0.16355754 -0.06557062 0.15390736 0.31612882
0002c0 eb 8a 2e be 3e a7 62 bd af bb 2a 3c 6b 14 07 3e
       -0.1704518 -0.055335276 0.010420724 0.13191383
0002d0 7d 99 ad bd c3 5d e9 3d 4c 4b 0b bd c0 78 02 be
       -0.08476541 0.11394837 -0.034007356 -0.12741375
0002e0 ad f5 b9 3d d1 a5 df 3c 3e 05 1e be e7 63 81 be
       0.09080062 0.027300747 -0.15431687 -0.25271532
0002f0 77 dc 96 3e 08 6d 13 3d 64 82 da bd 5f 88 d9 3d
       0.29465076 0.035992652 -0.10669401 0.10621714
000300 a7 a3 18 3e 57 11 f1 3d c6 d8 11 be 6c 0f 4f 3e
       0.14906178 0.117708854 -0.14242849 0.20220727
000310 82 98 d0 bd 34 fc b2 3d b2 14 93 bd 22 84 38 3e
       -0.101853386 0.0873951 -0.07181682 0.18019155
000320 9d 13 b3 bd d0 4f af 3d 5f 27 b2 3e 38 36 d9 3d
       -0.08743975 0.08560145 0.34795663 0.106060445
000330 5b e9 e5 3c 30 4b e5 bd 3f ca 26 3e 9d 5d 84 bd
       0.028065374 -0.111959815 0.16288088 -0.06463168
000340 78 3a 4a be 36 e9 f8 3d 21 fa 1a 3d 72 9f 61 3e
       -0.19748867 0.121538565 0.037836198 0.2203348
000350 e8 86 f4 3b ea 87 e1 bd 4a 74 96 bc 6b 57 bb 3d
       0.007462371 -0.11012252 -0.018365998 0.09147533
000360 3d d0 aa bd 53 7d 13 3d 34 f2 64 3e 20 91 66 3d
       -0.083404996 0.03600819 0.22358018 0.056290746
000370 ff 2c d1 bd ae 30 80 3c 44 88 1a 3e a0 db 32 3d
       -0.102136604 0.015648212 0.15091044 0.043666482
000380 24 23 7a 3d 03 75 9f bc 7c 4e fe 3c 6d c5 3c 3e
       0.06106867 -0.019464975 0.031043284 0.18434687
000390 c1 dc 0c be 9a 5a 46 3c 9f c7 5c be 3b 5f 76 3d
       -0.13756086 0.012106562 -0.21560524 0.060149413
0003a0 ef 18 f3 3d 94 5b 83 bd 44 26 5d 3e 65 aa 4a be
       0.1186999 -0.064139515 0.21596628 -0.19791563
0003b0 0a ee 63 be da 46 90 be 92 49 33 be 9d d8 9a 3c
       -0.22258773 -0.28179055 -0.17508534 0.018902117
0003c0 77 8a 36 bd b1 a1 5f 3d b7 ff 0f be 43 be 5c 3c
       -0.044565644 0.05459756 -0.14062391 0.013473096
0003d0 9b 7d 15 3d 02 69 94 be e7 71 bd bc e3 31 1e 3d
       0.03649674 -0.28986365 -0.023125602 0.038621794
0003e0 7a b9 cc be 89 a0 28 3d d5 d6 38 be 92 5b 79 bd
       -0.39985257 0.041168723 -0.18050702 -0.060878344
0003f0 ad 29 f6 bd 0e b8 7a 3e 31 ac 9e bd f2 69 67 3e
       -0.12019668 0.24484274 -0.07747687 0.22599009

graph_rnn.bias_ih_l0 f4 [192]
000000 ca 31 fe bd 81 3e 42 3e 23 b7 0c 3d 82 9b 3f be
       -0.1241184 0.18969156 0.03435434 -0.18711665
000010 6f e0 f0 3c e5 e7 b5 bd fc 25 5e 3d f9 ed 53 bc
       0.029403893 -0.08882121 0.054235443 -0.012935155
000020 b1 80 25 3e be a1 12 bb 62 73 04 be f1 42 c1 3d
       0.16162373 -0.0022374238 -0.1293464 0.09436596
000030 da a1 79 3d 85 3c 13 3e 19 7b e4 bc cb f5 8e bd
       0.06094537 0.14378555 -0.027890729 -0.06980475
000040 59 29 12 bc 99 07 23 3d 11 a4 0a 3e 99 4f fb 3c
       -0.008920991 0.039802168 0.13539149 0.030677604
000050 ec ab 78 be 48 a4 99 bc 8b d1 cb bd f5 84 a8 bc
       -0.24284333 -0.018755093 -0.099520765 -0.020571211
000060 72 44 29 3e 34 89 3a be 2d 28 73 3d 2f c3 d1 bc
       0.16530016 -0.18216401 0.059364486 -0.025605766
000070 8e f6 b3 bd d3 9e a4 3c 04 54 8d bd 82 68 a1 ba
       -0.08787261 0.020095265 -0.0690079 -0.0012314471
000080 9c 2e ab bd 8e 34 ae ba 77 2c 51 3c 78 cc 9a bd
       -0.083584994 -0.0013290809 0.012766949 -0.075585306
000090 c7 a7 88 bd e3 da 66 bd 30 30 d7 bc 57 c7 30 be
       -0.06672626 -0.05636109 -0.026268095 -0.17263542
0000a0 bd 45 82 bd 90 3f fd bd f9 53 64 be 58 de 6a bd
       -0.06360958 -0.12365639 -0.22297658 -0.05734095
0000b0 77 55 fb bb 9b 85 64 3d 86 b5 9a bd 51 ee 7f 3c
       -0.0076701003 0.05579148 -0.07554154 0.015620784
0000c0 fd 99 55 bd 81 5f 42 ba fd 56 90 be 79 cb 88 bd
       -0.052148808 -0.0007414744 -0.28191367 -0.06679434
0000d0 58 e7 8c 3d a4 bc f8 bd 4b f1 00 3e 2a 34 9c 3d
       0.06880063 -0.12145355 0.12592046 0.07627137
0000e0 42 37 4f 3b 0e ab fc bd 52 23 4b 3d 36 a4 6a bd
       0.003161863 -0.123373136 0.04959423 -0.05728551
0000f0 ce ed e3 3d f6 2c 94 3d 69 32 ee bd a5 58 00 be
       0.11129342 0.07235138 -0.11630709 -0.12533815
000100 14 2b e6 3c 0b 00 ab bd c4 c8 a9 3d c1 df 99 be
       0.028096713 -0.083496176 0.08290246 -0.30053523
000110 c8 24 64 bd 95 e1 99 be dc c7 b8 bd c4 d1 e0 3c
       -0.05569914 -0.30054918 -0.09022495 0.027443774
000120 b3 f6 94 bc 21 7a a2 be 7b c9 43 be 60 92 88 bd
       -0.018184042 -0.31733802 -0.19119827 -0.06668544
000130 b6 04 60 be 27 ed 9f be 5f 65 12 be 50 3d ff bc
       -0.21876797 -0.3123562 -0.14296483 -0.031157166
000140 de 46 82 be da 2a dc bd ca 71 4f be ce 4c 03 3e
       -0.25444692 -0.10750361 -0.20258251 0.12822267
000150 97 89 dd bd 3e 30 cf be 76 5c bc be 97 c1 4a bd
       -0.10817259 -0.40466493 -0.36789292 -0.049501028
000160 37 3d 71 be 19 93 c9 3c 0c c4 1a be 8b 2c 71 3e
       -0.23558508 0.024606274 -0.15113848 0.23552148
000170 a2 04 69 be 7f 27 3c be 86 4d 8a bd 26 9c 61 be
       -0.22755674 -0.18374442 -0.06753068 -0.22032222
000180 36 b4 8c 3d ac 48 f9 bd 09 8c c0 bd 0a fc a8 bd
       0.0687031 -0.12172064 -0.094017096 -0.08251198
000190 ca 7f 87 be f8 44 cd 3d 61 99 0a be d2 8c 80 bd
       -0.26464683 0.1002292 -0.13535072 -0.06276859
0001a0 0b 9d 38 be 3c 63 6c be ca 61 f0 be 5f 20 70 be
       -0.18028657 -0.2308473 -0.46949607 -0.23449849
0001b0 61 30 cd bd 0a 96 fe bd c2 a0 be be 91 29 a2 be
       -0.10018993 -0.124309614 -0.37232023 -0.31672338
0001c0 c3 12 62 bd 18 41 23 be e9 8d 36 be 75 6e f5 bd
       -0.055193674 -0.159428 -0.17827572 -0.11983959
0001d0 b6 0d 1a be 81 c2 be bd 1f d8 75 bc 92 56 25 3e
       -0.15044293 -0.093144424 -0.015005141 0.16146305
0001e0 da 77 ef bc 7d 78 e9 3c 4e e0 6c 3d a3 21 ef bd
       -0.029231954 0.028499836 0.0578311 -0.116763376
0001f0 c5 0b 40 be c5 86 ab bd b2 b4 10 be db ce 03 3d
       -0.1875449 -0.083753146 -0.1413143 0.032179695
000200 59 2f 85 3d be 98 ee bc bb 2d 84 3d fe 2a 85 bc
       0.065031715 -0.029125568 0.06454035 -0.016255852
000210 ea 8d 85 3d e2 5a ab bd 6b 75 dd bb 2a d3 73 bd
       0.065212086 -0.08366944 -0.006758382 -0.059527554
000220 58 2f fb bd d6 82 fe bd a9 6c 88 3c 77 d7 03 be
       -0.122648895 -0.12427299 0.016653376 -0.12875162
000230 9f da f2 bd 1a f0 94 bd ad f4 e1 bd 54 dc a9 3d
       -0.11858105 -0.07272358 -0.11032996 0.082939774
000240 ed b1 3d bd 74 a7 da 3d 96 06 51 3a a0 9e 88 bd
       -0.04631226 0.106764704 0.00079736987 -0.0667088
000250 82 3b a6 3d bd e8 4d 3c d7 7c 98 bd 54 01 70 bd
       0.08116819 0.012567696 -0.07445686 -0.058595017
000260 bc 66 9b bd 33 2f 3d 3d 7f 43 0c bd c3 bf cb 3d
       -0.075879544 0.04618759 -0.034244057 0.09948685
000270 3c b8 c6 bd 0b 2b ab 3d 8b 2e 5b 3d 8b ea 21 3e
       -0.09703109 0.08357819 0.053511184 0.15812127
000280 c4 f5 49 be eb af af bc 79 60 b1 3d 53 4f d7 bd
       -0.19722658 -0.021446189 0.08660979 -0.10513177
000290 3c dd 22 3d 53 07 5b 3d 7c b8 80 bd fc 5e 0b bd
       0.039761767 0.05347378 -0.062851876 -0.03402613
0002a0 85 a4 7a 3d e2 2b fa 3d 02 6f c9 3d bc 44 b3 bd
       0.061192054 0.12215401 0.09835626 -0.087533444
0002b0 0a 40 03 be 54 96 6f bd 55 c5 2d bd 67 39 48 bc
       -0.12817398 -0.058492973 -0.04242452 -0.012220717
0002c0 84 dd c8 3c e9 b9 d6 3b 6f c3 37 3d 19 d7 0a bd
       0.02451969 0.006552924 0.044864114 -0.03389654
0002d0 61 12 71 bd 2f a1 27 bd 0b 3e b4 3d f0 e0 f6 bd
       -0.058855418 -0.0409252 0.08800896 -0.12054622
0002e0 e2 05 19 be ea a6 f5 3d 07 24 1e bd b8 f2 03 3e
       -0.1494365 0.11994727 -0.038608577 0.12885559
0002f0 fe cc d8 bd fd 2c 33 3c 1f 61 17 bd a5 dc 03 3e
       -0.10585974 0.010936019 -0.036957856 0.12877138

graph_rnn.bias_hh_l0 f4 [192]
000000 1b c9 b2 3c 3c 2d 08 bd 07 64 e8 3d 9b 16 21 be
       0.02182441 -0.033246264 0.11347204 -0.1573128
000010 8d 25 1f 3d f2 94 a0 bc 3f a0 a7 3d ab ff dc 3c
       0.03885417 -0.019602273 0.081848614 0.02697738
000020 53 2c 5b 3e e3 21 e9 bd e4 5d 43 bb 80 02 64 3e
       0.21403627 -0.113834165 -0.0029810602 0.22266579
000030 d2 cb 80 bd 15 19 b7 3c 48 84 71 bd 00 5a 81 bc
       -0.06288876 0.022350827 -0.058964044 -0.015789986
000040 3d bf cc bd 80 83 79 bd cc f9 d0 3d 63 72 5f bd
       -0.09997413 -0.060916424 0.10203895 -0.054552447
000050 a5 59 fe bc bb c6 34 3d b6 ab 4f be be f0 32 3c
       -0.031048605 0.044134837 -0.20280346 0.010921655
000060 72 62 82 3d b8 9d 05 be fa ad ea bd a1 7e 1f be
       0.06366433 -0.13048446 -0.11458965 -0.15575649
000070 38 51 d1 bc b3 13 15 be ce 11 91 3c d4 5a fa bc
       -0.025551423 -0.14558296 0.017708685 -0.030560888
000080 b1 be 96 3d fe b5 1a be ea 6b 9f bb e5 cf 00 be
       0.0736059 -0.15108487 -0.0048651593 -0.12579305
000090 00 14 a4 bd a4 10 1f 3d a6 ee d0 bd c2 3b e4 bd
       -0.08011627 0.03883423 -0.102017686 -0.111442104
0000a0 e0 e1 56 bd 36 b3 67 bd 29 dd 7d bd 4c 16 29 be
       -0.052461505 -0.056567393 -0.061978493 -0.16512412
0000b0 0d 38 6c bd 74 7f 07 3c f3 26 f7 3c 4e ff 20 3e
       -0.05767064 0.008270133 0.03016994 0.15722391
0000c0 67 3f dd bd eb 43 2c bd 0e 59 a3 be fc 6d 51 be
       -0.10803109 -0.04205696 -0.3190388 -0.20452112
0000d0 61 8c 08 be dd 2c 1a be 4d a5 1c 3e b0 cc 16 3e
       -0.133348 -0.15056176 0.15297432 0.1472652
0000e0 3f c5 1b 3e 30 fb 92 3d 77 87 1b bd d3 6d c3 bd
       0.15211962 0.071768165 -0.037970986 -0.09542432
0000f0 b1 02 cb 3d 52 ff f7 bd 51 2a 01 be 5d 8e 4b be
       0.09912623 -0.12109245 -0.12613799 -0.19878526
000100 53 aa fb bd 5b a0 ec bd e0 a1 36 bd 67 51 c3 be
       -0.12288346 -0.11554023 -0.04458797 -0.38148043
000110 b3 94 a6 bd d6 de 3d be 61 51 69 be 61 4a 01 be
       -0.08133831 -0.18542036 -0.2278495 -0.1262603
000120 76 38 4d 3d a8 fb 8e be ac 8c a2 be c8 cd 5d 3d
       0.050102673 -0.27926373 -0.3174795 0.054151326
000130 21 c3 1e be 70 68 a3 be 0b 78 26 bd 33 ad 48 be
       -0.15504123 -0.31915617 -0.040641826 -0.1959732
000140 c6 cb a1 bd 95 ef 5b 3a b9 64 88 bb 97 ed f0 3b
       -0.07900195 0.00083898875 -0.0041623977 0.0073525417
000150 2d 77 87 bd ed c5 c1 be 84 cd 9e be ba 83 10 be
       -0.06614528 -0.37846318 -0.3101617 -0.1411275
000160 45 63 9a bd 8b ee fc bc fc 1d 62 be c5 ea 29 3e
       -0.075384654 -0.030875465 -0.2208175 0.16593464
000170 c6 47 38 be bd 01 3a be 06 3c e8 bd eb bf 4b be
       -0.1799613 -0.18164726 -0.113395736 -0.1989743
000180 3f be 5a 3e 74 39 82 be d6 ab 2f bd 8c 86 2b bd
       0.21361636 -0.25434458 -0.042888485 -0.04187636
000190 88 8b 3b be 50 3b 30 3c 1b 22 6b bc df 2e 38 be
       -0.18314946 0.010756329 -0.014351393 -0.1798663
0001a0 e7 55 18 be 5a 9e 18 be ee f4 b3 be fe d7 81 be
       -0.14876519 -0.14904156 -0.35147804 -0.253601
0001b0 31 a1 19 bd 81 49 d4 bd 3c 2b 8c be 4f a7 ac be
       -0.03750724 -0.10365582 -0.27376735 -0.33721396
0001c0 58 4f 5e be 47 77 95 3b d4 1e 95 be 39 b8 56 bd
       -0.21709955 0.004561338 -0.29125082 -0.052421782
0001d0 cc 94 5b 3d 38 e5 4f be ee b5 48 bc d3 5d e5 3d
       0.0536087 -0.20302284 -0.012250407 0.11199536
0001e0 55 a9 ac bd e2 d7 d4 bc dc f3 ba 3d e9 ea cd 3d
       -0.08430735 -0.025981847 0.09128544 0.10054571
0001f0 f2 eb b0 be 4d 26 f0 bd a5 4c 23 be e9 63 28 be
       -0.34555012 -0.11726055 -0.15947206 -0.16444363
000200 04 61 91 bd fb 09 2a 3d b4 f4 1f 3d a6 a9 36 3c
       -0.070985824 0.041513424 0.039051726 0.011148846
000210 e0 a2 f7 3d 55 fa 8e 3c 19 86 70 3d 18 cc 84 bd
       0.12091613 0.017453352 0.058721635 -0.0648424
000220 c5 08 f0 bd 1a 42 00 be 49 8d e5 bb f6 91 de bd
       -0.11720423 -0.12525216 -0.007005368 -0.108676836
000230 82 7a b4 3d f8 5b 10 be e3 cf 9f bd 5b d9 bb 3c
       0.08812429 -0.14097583 -0.07803323 0.022930792
000240 98 e9 bf bd 16 d6 56 3d 6d 67 49 3d df 69 0a be
       -0.09370726 0.052450262 0.0491709 -0.13516949
000250 4c 45 4c 3e 86 e6 af bd 2c aa 80 3b ca d8 d5 3c
       0.1994831 -0.08588891 0.003926536 0.02610435
000260 87 ef 33 be 8f 9a b7 3d 21 b8 95 bc 5a 60 c6 3c
       -0.17571841 0.089650266 -0.018276276 0.024215866
000270 8e af 49 3d 90 fe 44 3d 13 11 25 3d f2 17 22 3e
       0.049239688 0.048094332 0.040299486 0.15829447
000280 e4 45 c4 3c 25 1c 86 3d 26 b8 d3 bd ec d7 93 3d
       0.023959108 0.06548337 -0.10337858 0.07218918
000290 ec fc 7a bd 90 80 51 3c 2e 4f 78 3c d8 dc 83 bd
       -0.06127636 0.012786999 0.015155597 -0.06438607
0002a0 7b 6c cf bc 25 15 b7 3d 94 2b 8e 3d 62 39 ed bd
       -0.025320282 0.0893958 0.069419056 -0.115832105
0002b0 4b f8 80 3d c4 bc 9e 3d 83 14 f7 bc e9 a8 0b be
       0.06297358 0.07750848 -0.030161148 -0.13638653
0002c0 19 2d 40 bd 25 d9 9b bd 5e 3f ce 3d ab 53 9a 3c
       -0.04691801 -0.076097764 0.1007068 0.018838724
0002d0 39 cd b3 bd 11 01 11 3e b8 2d 33 bd cb 6c 1d be
       -0.087793775 0.14160563 -0.043744773 -0.15373532
0002e0 dd eb 03 bd 80 bc 0a 3e 22 60 6b 3d ae 27 13 3e
       -0.03220736 0.1354847 0.057464726 0.14370605
0002f0 f3 a4 e7 bd cb 0a ac 3d d8 d8 b2 3d 6c 11 22 be
       -0.113107584 0.08400496 0.08732766 -0.15826958

graph_rnn.weight_ih_l1 f4 [192, 64]
000000 17 70 19 3d cf 66 20 be b3 55 ee bd e9 ca 7d be
       0.037460413 -0.15664218 -0.116374396 -0.24784435
000010 6a dc de 3d c0 75 ad bd dd 84 1e bd f7 b6 c4 3d
       0.108818844 -0.08469725 -0.038700927 0.0960521
000020 e7 9b 58 be e3 60 b0 bd fd ef bb 3c b6 37 90 3b
       -0.21153222 -0.0861223 0.022941584 0.0044011725
000030 b8 31 c8 be 9b a7 8d bd 09 eb 90 3e 6b 62 97 3d
       -0.39100432 -0.06916734 0.28304318 0.073918186
000040 b7 f8 1c 3f 7c 5b 0e bf 68 4b 8e 3e e9 58 95 bd
       0.6131701 -0.55608344 0.27791905 -0.07292349
000050 ba cf 67 3d a9 ae 9c 3d 13 fb a4 be ca 32 3a bb
       0.056594588 0.07650501 -0.32222804 -0.002841162
000060 f4 06 2c 3e dc cc d8 bd f4 08 07 be cc ed e9 be
       0.16799527 -0.10585949 -0.13187009 -0.45689237
000070 b4 6e 94 bd 8b 87 7b be d0 fe f7 3d 8c 09 8d 3d
       -0.072476774 -0.24563424 0.121091485 0.068865865
000080 8c b5 51 3d 5c e5 41 3c 99 71 fc bc 4a 6f 1a be
       0.051198527 0.011834469 -0.030815886 -0.15081516
000090 46 4f 1a 3f f6 58 29 3c 0a 50 a2 3d ca 18 20 bf
       0.6027721 0.010336151 0.079254225 -0.62537825
0000a0 49 0f 9b bd 06 6e b6 bd 5f 06 aa 3d c7 e0 eb 3e
       -0.07571275 -0.08907704 0.083019964 0.4606993
0000b0 cb 94 99 3e f7 e4 84 3d 6a a9 08 bd f0 be ed bc
       0.29996333 0.06488984 -0.03336469 -0.02902171
0000c0 5d e6 60 3a e8 16 84 3e ea a3 69 3e 65 87 c4 3e
       0.00085792487 0.25798726 0.22816435 0.38384548
0000d0 60 42 c1 3d aa 4c 2d 3e 39 c6 47 3d af 09 10 3e
       0.09436488 0.16923776 0.048773024 0.14066194
0000e0 67 8f fa bd f7 75 f2 bd b4 87 d7 3c c0 9a 6b be
       -0.12234383 -0.11838906 0.026309825 -0.23008251
0000f0 39 07 68 3c f3 ce 84 3e f2 03 a4 bd 36 48 c3 bc
       0.014161878 0.2593914 -0.08008565 -0.023838144
000100 ac d8 d5 3d db dc 97 bd 1d d5 2b 3d ad 42 88 bd
       0.104417175 -0.07415172 0.041951288 -0.066533424
000110 37 83 44 be e6 26 ea bb c9 4b 93 3c 3e 5e 6a be
       -0.1919068 -0.0071457503 0.017980473 -0.22887513
000120 2f c5 c6 3d d9 47 70 be 8d 2d b9 bd a5 44 3f be
       0.097055785 -0.23464908 -0.09041891 -0.1867853
000130 b1 a9 b9 be 32 d9 3f 3d 5d 96 67 3e 41 f7 db 3d
       -0.36262277 0.046837993 0.22615953 0.10740519
000140 04 fc dd 3e 4c 62 13 bf 0a 93 9e 3e b9 d7 aa bc
       0.43356335 -0.57571864 0.30971557 -0.020854818
000150 83 7b 6c 3e 69 fe 32 3e b5 fe f2 bd 77 f9 24 3e
       0.23093991 0.17479862 -0.11864988 0.16110788
000160 85 cb d6 3d 6b f5 bd bb 62 41 eb bb 50 56 c6 be
       0.10488037 -0.0057970784 -0.007179425 -0.38737726
000170 fd f7 48 3b e8 49 ff 3d dd d5 05 bc b7 0a 9b 3c
       0.003066539 0.124652684 -0.008168665 0.018926008
000180 d6 e7 5f 3e 7b 32 f8 3d 4b d0 d5 be a7 5d e7 3d
       0.21865782 0.121190034 -0.41760477 0.1129716
000190 4e 59 ca 3e 00 d6 4c 3e 95 f8 b2 3d f8 ec 2e bf
       0.3952126 0.2000351 0.087388195 -0.68330336
0001a0 5a 94 e6 3d b4 8b d5 3d 06 e4 cb 3d c5 5d 26 ba
       0.112587646 0.10427037 0.099556014 -0.000634637
0001b0 d4 08 b5 3e c7 dc 71 be ad f0 65 bc 87 2d 6b be
       0.35358298 -0.23619376 -0.014034432 -0.22966586
0001c0 51 b5 67 3e ad 06 86 3e 9d 31 10 3e 89 03 95 3d
       0.2262776 0.26176968 0.14081426 0.07276065
0001d0 7f f1 ba 3d 67 84 1a 3e d0 e8 c1 be 19 9b 0b be
       0.09128093 0.1508957 -0.37872934 -0.13633384
0001e0 4f cd ca bd 18 3c 12 bc 9e c4 bb 3e f1 ec 46 3e
       -0.09902441 -0.00892546 0.36673445 0.19426323
0001f0 1c 22 26 be 07 fc 15 3e d0 c8 08 3e af d6 05 be
       -0.16223949 0.14646922 0.13357854 -0.13070177
000200 8b e5 82 3b a4 c4 13 be 1b fd 00 be 4b 90 3b 3d
       0.003994649 -0.14430481 -0.12596552 0.045791905
000210 61 35 5a 3d 78 08 f0 3d de 8a 59 3d bf 07 4b bc
       0.053273562 0.11720365 0.05311095 -0.0123919835
000220 be 2f 58 be ac 87 da 3d 1c 47 7c bd 98 bd a8 3e
       -0.21111962 0.106704086 -0.061591253 0.3295715
000230 db 9e 45 3e 30 8a e1 bd 38 a4 b3 bd 09 2b d7 bd
       0.1929888 -0.11012685 -0.087715566 -0.10506255
000240 0d 67 29 bd e3 8d 40 3e d0 01 81 be c9 97 3f 3e
       -0.041358043 0.18804125 -0.25196695 0.18710245
000250 90 cf 2c 3e 9c 8d 1c be 76 50 1a 3d 0f 5a 49 3e
       0.16876054 -0.15288395 0.03767439 0.19663261
000260 fd f5 92 bd b7 dd 6c 3e 1a 75 06 be 67 13 92 3c
       -0.07175825 0.23131453 -0.13130608 0.017831517
000270 06 fd e9 be 7f a4 05 3e 1f a2 a2 be ef da eb bd
       -0.45700854 0.13051032 -0.31764314 -0.11516368
000280 d2 61 31 3d c2 14 97 3d 55 63 67 bd 41 c6 c7 bd
       0.04330618 0.07377006 -0.056491215 -0.09754611
000290 36 62 3c be 45 11 e8 bc 49 1b 16 be 2b 61 95 3d
       -0.1839684 -0.028328547 -0.14658846 0.07293924
0002a0 4b fe 9e 3d fb 25 af bd bb 50 62 bc 1c c3 72 be
       0.07763346 -0.08552166 -0.013813193 -0.23707241
0002b0 6a 1a 22 be c4 53 62 3e 0e 35 03 be 4f e0 bc 3d
       -0.15830389 0.22102267 -0.12813208 0.09222471
0002c0 78 17 13 be 68 9d b1 3d ad b3 3a be 21 ab 95 be
       -0.14364421 0.08672601 -0.18232603 -0.29232123
0002d0 e2 3f 00 3c 40 fd c6 3b c0 e1 fe 3b 9a 17 69 be
       0.007827731 0.00607267 0.0077783763 -0.2276291
0002e0 84 4e c8 be 1b 79 92 be d2 5f 3c 3d 27 a0 af 3e
       -0.39122403 -0.2860802 0.04598982 0.34301874
0002f0 d4 c4 95 be ba d7 10 be b8 0a 6d be 86 6e 3b 3d
       -0.2925173 -0.14144793 -0.2314862 0.0457597
000300 de 70 73 3d 5f 74 dd bd 54 63 72 be 05 19 ab bd
       0.05943381 -0.10813212 -0.23670703 -0.083543815
000310 0a 83 4f be c0 5d 1d 3e e1 4f 3c 39 94 e5 1d be
       -0.20264831 0.15367794 0.00017958834 -0.15419608
000320 9f ae 09 bd 43 5c 2a 3d d5 e9 be 3e 34 33 fc 3d
       -0.033613797 0.041591894 0.37287775 0.12314454
000330 99 41 d2 39 df 23 d5 be 9c 26 3d be 44 6e f9 3c
       0.00040103195 -0.4162893 -0.1847176 0.030448087
000340 70 b3 36 3c fc 95 05 3d 3e ec c6 3d ad 60 e6 bc
       0.01115118 0.03261374 0.09713028 -0.02812227
000350 89 10 8d be 86 20 30 be 36 a3 c3 bd 43 fb 04 bf
       -0.27551678 -0.17199907 -0.095526144 -0.51945895
000360 93 37 95 3c 15 8c 1e bf 9d 69 63 3e 41 d2 05 3d
       0.018214976 -0.619325 0.22208257 0.032671217
000370 5d de 08 bf 24 df 83 bd 46 67 82 bd a8 42 1c be
       -0.534643 -0.06439045 -0.06367354 -0.15259802
000380 fc 4b 30 be 80 82 b7 3e be c8 51 3e c6 ef 2d 3e
       -0.17216486 0.3584175 0.20486733 0.16985998
000390 66 0f 0b bd 48 78 4e be 3f 38 ec bc f3 7a e8 3d
       -0.033950232 -0.20163071 -0.028835414 0.11351576
0003a0 91 dc 5e be a2 a3 2f be 48 6a 71 3e ed 1d 80 3d
       -0.21763827 -0.17152265 0.235757 0.06255708
0003b0 29 f6 19 3e 61 24 a6 be 98 77 d4 be 1f 72 24 be
       0.15035309 -0.3244963 -0.41497493 -0.16059159
0003c0 2a dc 23 be f8 4f 2d be 86 b6 0b bd da 4b 00 3e
       -0.16001955 -0.16925037 -0.034109615 0.12528935
0003d0 a0 d9 62 3e 7d 62 16 bf 3d c1 a7 3d d5 8b 28 3e
       0.2215333 -0.5874403 0.08191154 0.16459592
0003e0 78 6c 7c 3e bd 6f 48 be a1 a0 dd 3d 10 ca 0f bf
       0.24650753 -0.19573875 0.10821653 -0.561677
0003f0 dd 57 24 be be 19 30 3c e6 bb 6d bd 74 38 b5 3c
       -0.16049142 0.010748325 -0.058040522 0.022121646

graph_rnn.weight_hh_l1 f4 [192, 64]
000000 1a 67 1f 3c 08 a3 47 be 4e 5e a5 3d 0e 42 f5 bb
       0.009729171 -0.19495785 0.08074628 -0.007484681
000010 f6 90 eb 3b cb e7 05 bd d9 f7 b5 bd 8d 4b e5 bd
       0.0071889115 -0.032691758 -0.08885164 -0.11196051
000020 62 84 ba bd db 75 c3 3c 16 db 0b be df c5 aa bd
       -0.09107281 0.023859909 -0.13657793 -0.08338522
000030 26 f2 0b be f8 80 9b bc 32 3e 2c 3d 17 b7 9d 3d
       -0.13666591 -0.018982396 0.0420515 0.07700937
000040 1d d5 48 3e 09 8e ed bc 55 b7 3a bb 69 90 86 3e
       0.19612546 -0.028998392 -0.0028490622 0.2628205
000050 1e 0c 08 be 79 89 12 be 4b db 6e bd 52 53 5e 3d
       -0.13285872 -0.14310254 -0.058314603 0.05427868
000060 8e 80 e5 3d a1 5d 03 be 9d 12 ac 3c b1 94 19 be
       0.112061605 -0.12828685 0.02100497 -0.14998128
000070 41 40 35 be b5 7b b9 3d d0 e4 9b 3d d8 ec 35 ba
       -0.17700292 0.09056798 0.07612002 -0.00069398945
000080 dc 79 01 be 68 bf df 3d f3 60 b7 bd 1b a4 83 bd
       -0.12644142 0.1092518 -0.089540385 -0.06427785
000090 7b 36 15 3e 79 fe d7 3b 63 57 f4 3c 2a 49 4d bd
       0.14571564 0.006591615 0.029826825 -0.050118603
0000a0 92 dc 8e bd fc b4 b7 bd e4 4f f9 3d c9 7b aa bc
       -0.06975664 -0.08970067 0.12173441 -0.020810978
0000b0 49 db d3 bd e0 51 07 3e b4 1b 4c be 06 32 92 3d
       -0.1034456 0.13214827 -0.19932443 0.071384475
0000c0 37 35 0c ba 3a 33 8d 3d 5d 29 36 be f9 72 48 3c
       -0.0005348506 0.06894536 -0.17789216 0.012234443
0000d0 87 45 1c 3c 7e 58 2d 3d 56 62 b0 bd 69 1d e9 3c
       0.009538061 0.04232072 -0.08612506 0.028456407
0000e0 80 dd 3d 3d 7a 13 5d 3e 78 69 49 be cc 74 1c bd
       0.046353817 0.21589461 -0.1966914 -0.038197324
0000f0 da 05 6a bd bc 34 a1 3c b7 0a 18 bd f3 29 2d be
       -0.057134487 0.019678466 -0.037119593 -0.16910534
000100 eb 01 41 3e 71 5f a0 bd d2 c3 27 3e 08 29 53 3e
       0.18848388 -0.07830704 0.16383293 0.20621121
000110 16 40 5d be 63 0f f4 bd 14 a2 a6 3d 98 a5 2e 3d
       -0.21606478 -0.11916997 0.08136383 0.04263839
000120 b7 b1 d3 3d e8 2b 8f be 56 95 8e 3d d6 e7 91 3e
       0.10336631 -0.27963185 0.06962077 0.2849719
000130 bf 2f 56 3c d8 cf 51 bb 11 1d 2c bd bf 7f de 3d
       0.013072907 -0.0032014754 -0.042019907 0.108642094
000140 9e 65 51 bd 8e 7b 2c be b9 f3 68 bd b6 f0 01 3e
       -0.0511223 -0.16844007 -0.056873057 0.1268948
000150 d5 2b 81 bd 56 3c 9a be fb 68 18 3d f7 01 ba bd
       -0.063071884 -0.30124158 0.037209492 -0.09082406
000160 b5 82 68 bd 1b 59 e6 bd 26 ed 89 be 2d c7 09 be
       -0.056765277 -0.11247464 -0.26938742 -0.13454886
000170 85 12 30 be 24 37 59 bc f2 bf 71 bd 60 e6 0d 3e
       -0.17194565 -0.013257775 -0.059020944 0.13857412
000180 bf 56 a0 3d 2f 0a 45 be c5 7f 96 3d ca 8a a8 bc
       0.078290455 -0.19242166 0.07348589 -0.020573992
000190 ff a0 09 3c e6 c7 44 3d 4f 2a ad bc 80 91 db 3c
       0.008400201 0.0480422 -0.021138338 0.026802778
0001a0 b1 ee 8d 3c 85 7b e3 bc a7 bf 89 3e c9 d2 64 be
       0.017325731 -0.02776886 0.26904032 -0.22346033
0001b0 39 15 c5 3d 83 01 4d 3e 37 41 e5 bd 80 6b 23 be
       0.096231885 0.20020108 -0.11194079 -0.15958977
0001c0 c7 d5 a5 3d 03 b9 c9 3c d1 8f d0 3d 49 d0 cd bd
       0.080974154 0.024624353 0.10183681 -0.10049493
0001d0 15 88 dd 3b 34 3d 84 bb 23 a1 55 bd ff 5a 30 bd
       0.006760607 -0.0040356163 -0.052155625 -0.04305553
0001e0 6b c9 5b bd 01 bb d2 bd 27 5d d3 3d 26 90 ea bd
       -0.053658884 -0.102895744 0.10320502 -0.114532754
0001f0 7e ae 31 3e 36 fb b3 bd e3 29 eb bb 79 08 28 3c
       0.1735172 -0.08788149 -0.007176624 0.010255926
000200 b7 d3 d7 3d 15 82 d9 bd b2 3f 97 3d cb ba e9 3d
       0.10538428 -0.10620514 0.07385196 0.11412581
000210 b3 e0 a0 3d 05 dd 61 3d 51 f1 82 bc 80 a4 2e be
       0.07855358 0.05514242 -0.01598421 -0.1705494
000220 e5 f1 16 be 72 d7 70 3e f7 a2 81 3e 2e a0 cc 3d
       -0.14740713 0.23519686 0.25319645 0.09991489
000230 bb 96 b3 bc 68 1c b3 bd 7a 64 06 be ef d4 e1 3d
       -0.02192246 -0.087456524 -0.13124266 0.11026942
000240 fb b5 30 bd aa 70 ad bd 3d ca d5 bd e0 23 11 3e
       -0.0431423 -0.084687546 -0.104389645 0.14173841
000250 68 42 49 be 70 cd e6 bd 29 03 32 3e 3b 59 26 3e
       -0.19654238 -0.11269653 0.17384018 0.16244976
000260 89 17 5d 3e d6 81 95 bb 8d 5d 0c bd 03 30 21 3b
       0.21591009 -0.004562597 -0.034268904 0.0024595268
000270 bd 03 de 3d f9 ad a7 3e d8 28 b7 bd 8a 32 7d bd
       0.10840557 0.32749918 -0.08943337 -0.061815776
000280 4b 1d ab 3e 7b a1 7b bd a2 1b ed be 65 c6 26 3d
       0.33420786 -0.061433297 -0.46310145 0.040716548
000290 a6 aa 76 3c 64 ef 2f be 14 14 e7 3d 89 ac af bd
       0.015055334 -0.17181164 0.112831265 -0.0857783
0002a0 55 e2 80 bd 2b 04 08 3e 99 10 86 bc 63 63 fd bd
       -0.062931694 0.1328284 -0.016365336 -0.12372472
0002b0 92 75 0e be 8b 85 04 be 30 e3 fb bd f2 ad 12 3d
       -0.13912037 -0.12941568 -0.12299192 0.03581042
0002c0 fc ec 12 3e 0a e1 9a bc 37 c0 34 3e b9 64 1d ba
       0.14348215 -0.018906135 0.17651449 -0.00060040836
0002d0 ab 4a f3 3d 32 fc ff 3d bb 5c 13 3e f4 3e 8e 3d
       0.11879476 0.12499274 0.14390843 0.06945601
0002e0 3a 30 6f be fa 20 01 be db bd 18 be ad c8 69 3e
       -0.2335824 -0.12610236 -0.14916174 0.22830458
0002f0 59 16 8e 3d 6e 69 13 be 49 c3 2c 3e 1b 79 86 3d
       0.06937856 -0.14395687 0.1687137 0.06566068
000300 c2 37 3e bd af 7f b4 3e 6f d9 a0 bd d4 3b 8f be
       -0.046439894 0.35253665 -0.07853972 -0.27975333
000310 54 e8 c3 be ef 06 cb bd 98 58 ad 3d 12 72 89 be
       -0.3826319 -0.09913432 0.084641635 -0.2684484
000320 93 a7 4b be 24 ce a2 3e bf 19 fd bc 81 35 f5 bc
       -0.19888143 0.31797898 -0.030896066 -0.02993274
000330 09 87 57 3d 64 d6 23 bd 60 d2 15 bd e9 75 80 bd
       0.052619014 -0.03999938 -0.036577582 -0.062724896
000340 5b 6b dd 3c 7c 5c 97 3e 42 80 91 3d 6c d6 0f 3e
       0.02702873 0.29562747 0.07104541 0.14046639
000350 38 5a 1b 3e 51 45 5b 3d 10 90 53 3d 36 d2 5b bc
       0.15171134 0.053532902 0.05165106 -0.013416817
000360 db 1a 47 3e bc 1f 6d 3d b0 f4 11 be 27 36 a8 bc
       0.19443838 0.057891592 -0.14253497 -0.020533634
000370 28 a0 6e bd ea c8 8f bd fa d2 e2 3c 74 47 01 bd
       -0.058258206 -0.07020743 0.027688492 -0.031562284
000380 25 58 85 be 8f 43 67 3e 0d 42 c4 be 7f a8 dd 3d
       -0.2604381 0.22584365 -0.38331643 0.10823154
000390 d2 25 ee bd bb 5e 93 3c 6c 4b 3d bd f8 c6 0c 3e
       -0.116283074 0.017989507 -0.046214506 0.13747776
0003a0 00 09 86 be 71 8b 4a be 5d 93 ed bd 19 6f 3f be
       -0.2617874 -0.19779755 -0.11600373 -0.18694724
0003b0 73 64 07 be ce 8e 04 be 01 cc 9b 3e 08 d2 d9 bd
       -0.13221912 -0.129451 0.3042908 -0.106357634
0003c0 62 44 67 3e 64 9e 12 be ed c8 1e 3d 95 59 b2 bd
       0.2258468 -0.14318234 0.038765837 -0.08708493
0003d0 e8 38 03 bd 33 91 95 bd 54 48 d9 bd 4b db d1 3e
       -0.032036692 -0.07303085 -0.106094986 0.4098762
0003e0 62 f3 9b be e3 b5 cb 3c 16 ee 74 be b9 0d e6 3b
       -0.30459124 0.024867004 -0.23918948 0.007020679
0003f0 64 8b 18 be ab b7 bb bd b3 74 e1 3c a9 12 49 3e
       -0.14896923 -0.09165891 0.027521467 0.19636025
