graphrnn_v2/experiments/seeds/seed_experiment_seed_0/model_at_200.pt (torch, 420155 bytes, 43 tensors)

adj_embedding.0.weight f4 [32, 15]
0	0x3e944e6c	0.2896608
1	0xbeac6cbe	-0.33676714
2	0xbf17890e	-0.59193504
3	0x3f0e2c72	0.5553657
4	0xbf0ee97a	-0.55825007
5	0xbefc8bef	-0.4932551
6	0x3ef11891	0.47089055
7	0xbe8179fd	-0.25288382
8	0xbe32c75a	-0.17458859
9	0x3e0aaae7	0.13541757
10	0x3e13c39d	0.1443009
11	0xbe70a654	-0.23500949
12	0xbe0f9974	-0.14023381
13	0x3df46aef	0.119344585
14	0xbdcd003b	-0.100098096
15	0xbe958ee2	-0.29210573
16	0xbf162ebd	-0.58665067
17	0x3dd39478	0.103310525
18	0x3e94bd2a	0.2905057
19	0xbe0fc382	-0.14039424
20	0x3eeaf8d3	0.45892963
21	0x3da6a1a1	0.08136297
22	0xbd8db07c	-0.06918427
23	0xbd2a8ffc	-0.04164122
24	0x3cfdc0ab	0.03097566
25	0x3d7b1c0b	0.06130604
26	0x3e183c73	0.1486681
27	0xbe582944	-0.21109492
28	0x3ce39d5d	0.027784998
29	0xbea35613	-0.31901607
30	0x3ef724b7	0.482702
31	0x3b8bd23d	0.0042670057
32	0xbe0d2276	-0.13782677
33	0x3ef983af	0.4873328
34	0xbe1afe89	-0.1513616
35	0xbecf4962	-0.40485674
36	0xbecbdb4f	-0.39815757
37	0xbd05a17b	-0.032624703
38	0x3d1888b9	0.037239764
39	0x3e922ee7	0.2855141
40	0xbdc7f770	-0.09763992
41	0x3c945e52	0.018111382
42	0xbd956060	-0.07293773
43	0x3e2bf8b2	0.16794088
44	0x3d4cab5c	0.04996811
45	0x3e30f56f	0.17281125
46	0xbeb91aee	-0.36153358
47	0x3ccbb415	0.024866143
48	0x3e880efa	0.26573926
49	0x3ea31ce7	0.31857988
50	0x3d0b0f28	0.03395
51	0xbe8cc768	-0.27495885
52	0x3e750214	0.23926574
53	0x3e96c07d	0.29443732
54	0xbdb81651	-0.089886315
55	0x3e988f8b	0.29797015
56	0x3e55729c	0.20844501
57	0x3e1c00bb	0.15234654
58	0xbc9fd733	-0.019511795
59	0x3d482d3a	0.048871256
60	0x3ef56852	0.47931153
61	0x3e87fcad	0.26559964
62	0x3e98775f	0.29778573
63	0x3d0ffa70	0.035150945
64	0xbe037336	-0.12836918
65	0xbd9aac8b	-0.07552441
66	0xbe903b95	-0.28170457
67	0x3ea9cfb2	0.3316627
68	0x3ec3d3d0	0.38247538
69	0x3ec6a36c	0.38796556
70	0xbdaa0fa1	-0.08303762
71	0x3ed4aa30	0.41536093
72	0x3ecea940	0.40363503
73	0x3eb19eed	0.34691563
74	0x3ec02fb5	0.37536398
75	0x3dd0b398	0.10190505
76	0x3e3344e8	0.17506754
77	0x3ea62567	0.3245041
78	0x3e6cc580	0.23122215
79	0x3e103b16	0.1408504
80	0xbe66f3d9	-0.22553958
81	0xbdc8e404	-0.098091155
82	0x3e8f88a7	0.28033945
83	0x3e88590d	0.2663044
84	0xbcc5d3ec	-0.024148904
85	0x3eaf0e10	0.34190416
86	0x3e5a5ac0	0.21323681
87	0xbdb8236b	-0.089911304
88	0x3e8c7c68	0.27438664
89	0xba478edc	-0.0007612535
90	0x3e6c130c	0.23054141
91	0xbf0e2025	-0.555178
92	0xbe3c4439	-0.183854
93	0xbb115a70	-0.002217915
94	0x3e5f7f5a	0.21825925
95	0x3dee5d81	0.11638928
96	0xbe6f1a35	-0.23349841
97	0x3e35ccd7	0.17753921
98	0x3debb00c	0.11508188
99	0xbe87292c	-0.263986
100	0x3e5f0e46	0.21782789
101	0xbdb1161d	-0.08646796
102	0xbe354456	-0.1770185
103	0xbe048ad9	-0.12943591
104	0x3e05ad45	0.13054378
105	0x3da2d940	0.079515934
106	0x3f003208	0.5007634
107	0xbd02303d	-0.031784285
108	0xbd8b90fc	-0.06814763
109	0xbeb1c625	-0.34721485
110	0xbe1641a0	-0.14673471
111	0xbc9788dd	-0.018497879
112	0xbdb5376f	-0.08848464
113	0x3dcca3ed	0.09992204
114	0x3e2f3637	0.17110525
115	0xbe2c0633	-0.1679924
116	0xbe24ae37	-0.16082083
117	0xbe2db988	-0.16965306
118	0xbe36cdb3	-0.17851906
119	0xbd3fde88	-0.04684308
120	0xbee8fa9f	-0.4550371
121	0xbf146f5a	-0.5798241
122	0x3e17beb6	0.14818844
123	0xbe8d9598	-0.27653193
124	0x3d75f9c8	0.060052663
125	0x3f1bfa61	0.6092892
126	0x3f07787a	0.5291821
127	0xbe188e5d	-0.14898057
128	0xbe1f852a	-0.15578142
129	0xbdd4beaa	-0.10387929
130	0xbd93a09f	-0.072083704
131	0xbe10caab	-0.14139812
132	0x3dc1b768	0.0945881
133	0xbdf0cc2d	-0.117576934
134	0x3d0eb21c	0.034837827
135	0x3da62cf2	0.081140414
136	0xbe789f35	-0.24279483
137	0xbd8228be	-0.06355427
138	0x3eaf4030	0.3422866
139	0xbe8e5ff7	-0.2780759
140	0xbe42699f	-0.18985604
141	0x3cd1107c	0.025520556
142	0x3e5a72f7	0.21332918
143	0x3dd2c5e8	0.10291654
144	0xbdbe48a5	-0.092911996
145	0x3b1c07c6	0.0023808344
146	0x3d15f477	0.036610093
147	0x3e724952	0.23660782
148	0x3e7b2c8f	0.24528717
149	0x3d408e1e	0.047010534
150	0xbe3d396d	-0.18478937
151	0xbd94768b	-0.07249173
152	0xbe3809a6	-0.1797243
153	0x3e6bb458	0.23018014
154	0x3e14e3f5	0.14540084
155	0x3eb5044f	0.3535485
156	0x3e70570c	0.23470706
157	0xbe93c2b4	-0.28859484
158	0xbd84e215	-0.06488434
159	0xb6d3dca0	-6.313974e-06
160	0xbea5dc2a	-0.32394534
161	0x3db8371d	0.08994887
162	0xbdbb61be	-0.09149502
163	0xbca56b34	-0.02019272
164	0xbde7fa2f	-0.113270156
165	0xbe27271e	-0.16323516
166	0xbe16f149	-0.1474048
167	0xbe094f81	-0.13409235
168	0xbe36b977	-0.17844187
169	0xbbc56186	-0.0060235886
170	0xbdae75f8	-0.085185945
171	0xbe266f41	-0.16253377
172	0x3d914621	0.07093454
173	0x3e2b7f02	0.16747668
174	0x3e46f2b5	0.19428523
175	0x3cd9307c	0.026512377
176	0xbdb837b8	-0.089950025
177	0xbe76dec5	-0.24108417
178	0xbc82223e	-0.015885469
179	0xbe120232	-0.1425865
180	0x3ed56c33	0.41684112
181	0xbe6e39c0	-0.23264217
182	0x3d6a614d	0.0572217
183	0x3dbee2e7	0.09320622
184	0xbdc2e444	-0.095161945
185	0xbe347e16	-0.17626223
186	0xbc23daf5	-0.010000934
187	0xbda99651	-0.08280624
188	0xbcf3f407	-0.029779447
189	0x3e2a9a87	0.1666051
190	0xbdc6711a	-0.09689541
191	0xbe5dc19e	-0.2165589
192	0x3d56d1a7	0.052446034
193	0x3e09938f	0.13435195
194	0x3d8775a6	0.066142365
195	0x3f295e44	0.6615946
196	0x3e2f22c8	0.17103112
197	0xbda1bd3c	-0.07897422
198	0xbdd487d8	-0.10377473
199	0xbe3256bc	-0.17415899
200	0xbdfd8fb9	-0.123809285
201	0x3c4ca87f	0.0124913445
202	0x3e46a575	0.19399054
203	0x3de06def	0.10958468
204	0x3da4a5e3	0.08039453
205	0x3d17c7a1	0.037055615
206	0x3e9292c6	0.28627604
207	0x3e60d05d	0.21954484
208	0x3e5cf6e6	0.2157856
209	0x3d05e77d	0.032691468
210	0xbe3b5d58	-0.18297327
211	0x3dd85ab6	0.10564177
212	0x3e6685d7	0.22511993
213	0x3eb4e641	0.3533192
214	0x3e4308e1	0.19046356
215	0x3e195967	0.1497551
216	0xbe704194	-0.23462516
217	0x3d25dea7	0.04049554
218	0x3d13936b	0.03602926
219	0x3e9cd25e	0.30629247
220	0x3e894b07	0.26815054
221	0x3e8d62f3	0.27614555
222	0x3e8b0a1c	0.2715615
223	0x3e50bcc8	0.20384514
224	0xbe0fbedf	-0.14037655
225	0x3d357f46	0.04431083
226	0xbd842dac	-0.06454024
227	0x3e9caeb9	0.30602053
228	0x3e01a050	0.1265881
229	0x3e7bb2db	0.24579947
230	0xbe4c13da	-0.19929448
231	0xbe8ea02c	-0.27856576
232	0x3e0c884d	0.1372387
233	0x3e5bb18a	0.21454445
234	0xbe1fc417	-0.15602146
235	0x3d26fb4d	0.040767003
236	0xbe61d8a7	-0.22055303
237	0x3e6a5617	0.22884403
238	0x3e5d11f9	0.21588887
239	0xbe294147	-0.16528808
240	0x3f045fc2	0.51708615
241	0xbb4b606c	-0.0031032814
242	0x3eb7662e	0.35820144
243	0xbce860a0	-0.028366387
244	0xbdb48be6	-0.08815746
245	0xbec37d14	-0.38181365
246	0xbbfed7c1	-0.0077771847
247	0x3e62638f	0.22108291
248	0x3dfc9f37	0.12335055
249	0xbe348c8b	-0.17631738
250	0x3e81bb47	0.25338194
251	0x3defbac5	0.11705545
252	0x3d57cbef	0.05268472
253	0xbe1b9deb	-0.1519696
254	0x3e963e7f	0.29344556
255	0xbe8bf12b	-0.27332434

adj_embedding.0.bias f4 [32]
0	0x3c82bec9	0.015960114
1	0x3ee35d31	0.44407037
2	0x3e02ac5e	0.12761065
3	0x3d06b9a1	0.032891873
4	0x3e5590f5	0.20856078
5	0xbdcdc457	-0.100472145
6	0x3e955d51	0.29172757
7	0x3c51c147	0.012802429
8	0x3edc62e2	0.43044192
9	0x3e6dd6d6	0.23226485
10	0x3e190f01	0.1494713
11	0xbe36a985	-0.17838104
12	0x3e23a5bc	0.15981191
13	0xbcc85801	-0.024456026
14	0xbe1e437b	-0.1545543
15	0x3e360af8	0.17777622
16	0x3cfbf0ec	0.030754529
17	0x3c913982	0.017727617
18	0x3d87ba88	0.06627375
19	0x3dafd828	0.085861504
20	0xbd23de23	-0.040006768
21	0xbe2d467c	-0.16921419
22	0x3e3aad80	0.18230247
23	0x3e63a5fe	0.2223129
24	0x3e3ac409	0.18238844
25	0xbd80e944	-0.06294492
26	0x3eb908a7	0.36139414
27	0xbd84b131	-0.06479109
28	0xbe0403fc	-0.12892145
29	0x3dcf9c4f	0.101372354
30	0xbc4cae29	-0.012492695
31	0xbd2748e2	-0.04084099

graph_rnn.weight_ih_l0 f4 [192, 32]
0	0x3ec6d80c	0.38836706
1	0xbd43c7d9	-0.04779801
2	0xbdd7ca95	-0.10536686
3	0x3dbff376	0.09372608
4	0xbe49bae4	-0.197002
5	0x3d35ed67	0.044415858
6	0x3e04911d	0.12945981
7	0xbca40f50	-0.020026833
8	0xbdb7bd16	-0.08971612
9	0x3d63edef	0.055646833
10	0x3e9e5603	0.30924997
11	0xbc72dba0	-0.0148228705
12	0xbe8fd63b	-0.28093132
13	0xbeb8360c	-0.35978734
14	0x3c6a312d	0.014293951
15	0xbd22e8a9	-0.039772663
16	0xbe9099fd	-0.28242484
17	0x3eaae5c1	0.33378413
18	0xbe883ac4	-0.26607335
19	0xbe4aae43	-0.19793038
20	0xbe133e71	-0.14379288
21	0x3eb35a67	0.3502991
22	0x3e4b1d3c	0.19835371
23	0xbc2dfac2	-0.010618867
24	0xbe1d0ee7	-0.15337716
25	0xbcf048b6	-0.029331546
26	0x3ce62db7	0.02809797
27	0xbecf099e	-0.40437025
28	0xbeb240fe	-0.3481521
29	0x3ec1dc5f	0.37863442
30	0xbec7cc27	-0.39022943
31	0xbd5c5ef7	-0.053801503
32	0xbe6927bd	-0.22769065
33	0xbdeb2649	-0.11481912
34	0xbd5a33b5	-0.053271968
35	0x3c41a6b7	0.011819533
36	0x3e6dc1ed	0.23218508
37	0x3e011ef6	0.12609467
38	0x3dbe92e4	0.09305361
39	0x3c973637	0.018458469
40	0x3e87a924	0.26496232
41	0x3c1f6e49	0.009730884
42	0x3d77ab7f	0.060466286
43	0x3c666a70	0.014063463
44	0x3d89e936	0.067339346
45	0x3e830146	0.2558691
46	0x3defa129	0.11700661
47	0x3e3b771d	0.18307157
48	0x3d57758b	0.052602332
49	0xbe0eb2bc	-0.13935369
50	0x3db2e50d	0.08735094
51	0x3e1aa34b	0.15101354
52	0x3d29b798	0.041434854
53	0x3d8dd785	0.06925873
54	0x3ae41c35	0.0017403426
55	0x3e3ea2fb	0.1861686
56	0x3e16de24	0.14733177
57	0x3c688c41	0.014193595
58	0x3de65328	0.112463295
59	0x3e58d42c	0.21174687
60	0x3e29daf6	0.16587433
61	0x3d2ea9e0	0.042642474
62	0x3e97f200	0.2967682
63	0x3d299dd1	0.04141027
64	0x3ee47128	0.4461758
65	0xbc7b9528	-0.015355386
66	0x3da1a978	0.07893652
67	0xbda72745	-0.08161787
68	0xbc666ad8	-0.0140635595
69	0x3ce76542	0.028246526
70	0x3e70f1c2	0.23529723
71	0xbbaed1d6	-0.005335073
72	0xbd4086bd	-0.047003496
73	0xb931a6d5	-0.00016942185
74	0xbce56751	-0.028003367
75	0xbd81cb3c	-0.06337592
76	0x3e29822a	0.1655356
77	0x3ea0f10f	0.31433913
78	0xbe26752e	-0.16255638
79	0x3d12b468	0.03581658
80	0xbdcfc608	-0.10145193
81	0x3da9b207	0.08285909
82	0x3e7f3d52	0.24925736
83	0x3dd5f47b	0.104470216
84	0x3cc58a2f	0.024113743
85	0xbe9b2985	-0.30305114
86	0xbc3d64d3	-0.011559683
87	0x3e82bafd	0.25533286
88	0xbddb1e7a	-0.10699172
89	0x3d8129ec	0.06306824
90	0xbe346d5d	-0.17619844
91	0xbd861abf	-0.0654807
92	0xbd15f273	-0.03660817
93	0x3e48380f	0.19552635
94	0xbccbe327	-0.024888588
95	0xbe690bec	-0.22758454
96	0x3e299958	0.16562402
97	0x3dc5ad70	0.09652221
98	0xbd139773	-0.036033105
99	0x3e0e89d8	0.1391977
100	0xbd58b6c1	-0.052908663
101	0xbe6719ab	-0.22568385
102	0x3dc3ce02	0.09560777
103	0xbd3f3f27	-0.046691086
104	0xbdb9afa1	-0.09066702
105	0x3e33f4ac	0.17573804
106	0x3dd8e083	0.10589697
107	0x3d7629e8	0.06009856
108	0x3db6b976	0.089220926
109	0xbd30cd3a	-0.04316447
110	0xbe1776f9	-0.14791478
111	0xbe27c823	-0.1638494
112	0xbe0fb793	-0.14034872
113	0x3e6ddef7	0.23229586
114	0xbe6cb880	-0.23117256
115	0xbe61223c	-0.21985716
116	0x3c86fc2d	0.016477669
117	0x3dcf6caf	0.101281516
118	0x3d21040e	0.039310507
119	0x3ca4323e	0.020043489
120	0xbd873c48	-0.066032946
121	0x3e19f9c1	0.1503668
122	0xbc8dd63c	-0.017314069
123	0xbe07160c	-0.13192004
124	0x3b0b86a3	0.0021289967
125	0x3d16dc9e	0.03683149
126	0xbe3664fd	-0.17811961
127	0xbea9ce6c	-0.331653
128	0x3ebc808c	0.36816823
129	0xbd738460	-0.059452415
130	0x3a7e3ecc	0.00096986885
131	0x3d3acbec	0.04560463
132	0xbc934d90	-0.01798132
133	0x3ab2f0d8	0.0013652099
134	0x3e7cdc23	0.2469335
135	0x3e41a220	0.18909502
136	0xbe27feb1	-0.16405751
137	0x3de41fe9	0.11138899
138	0x3d2256fd	0.03963374
139	0x3c8c0fb8	0.017097339
140	0x3e1aeffa	0.15130606
141	0x3e10d027	0.14141904
142	0xbe6b1031	-0.22955395
143	0x3d0a3ab4	0.03374739
144	0x3d1a3993	0.037652563
145	0xba93fda3	-0.00112908
146	0x3e59213d	0.21204086
147	0x3e03c50b	0.12868135
148	0x3bb5625a	0.005535406
149	0xbe32565f	-0.1741576
150	0x3e075d78	0.13219249
151	0x3daa5030	0.08316076
152	0x3d220a9a	0.03956089
153	0x3e206a94	0.15665656
154	0xbe264d5e	-0.1624045
155	0x3dae9957	0.08525341
156	0xbc19e944	-0.009393994
157	0x3e93d209	0.28871182
158	0x3e1a7fa6	0.15087757
159	0xbc790fa6	-0.015201485
160	0x3e5b1dc9	0.21398081
161	0xbe8d8d73	-0.2764698
162	0xbd5df656	-0.054190002
163	0xbdc17890	-0.094468236
164	0xbd93971d	-0.07206557
165	0xbe64cc59	-0.22343577
166	0xbc9138d0	-0.017727286
167	0x3e53414f	0.20630382
168	0xbe1c5b6f	-0.15269254
169	0x3d8afac9	0.06786115
170	0xbe0b8d0b	-0.13628022
171	0x3dc48b6e	0.095969066
172	0xbe41994b	-0.18906133
173	0x3bc1df59	0.0059165177
174	0xbe9d8c30	-0.30771017
175	0xbe1e26df	-0.15444516
176	0xbf046845	-0.517216
177	0xbd1cae99	-0.038252447
178	0xbbdadbf9	-0.006679055
179	0xbe82498e	-0.25446743
180	0x3d3cbe68	0.046080023
181	0xbe0747d5	-0.13210995
182	0xbd97e0a7	-0.07415896
183	0x3e0d12ee	0.13776752
184	0x3bceff1e	0.0063170334
185	0xbb300683	-0.002685935
186	0xbec63f7f	-0.3872032
187	0xbe1a6561	-0.15077735
188	0x3d253d26	0.04034152
189	0x3d97356a	0.07383235
190	0xbeb89da8	-0.36057782
191	0xbead8a35	-0.33894506
192	0x3e6cf80f	0.23141502
193	0xbda24f8a	-0.07925327
194	0xbbb6694b	-0.005566751
195	0xbd866666	-0.065625
196	0x3da818d8	0.082078636
197	0xbe08c286	-0.13355455
198	0x3d97c18b	0.07409962
199	0x3e6652fe	0.22492597
200	0x3e08d559	0.13362636
201	0x3e22c576	0.15895638
202	0x3d4e01a5	0.050294537
203	0xbde4c2a8	-0.1116994
204	0x3d9b573e	0.075849995
205	0x3e7ba857	0.24575935
206	0xbd1ab3b3	-0.03776903
207	0xbd270e1c	-0.04078494
208	0xbe01e1a5	-0.12683733
209	0x3e0e09f1	0.1387098
210	0x3e1a8a4e	0.15091822
211	0x3e0a9adc	0.13535637
212	0x3a07c121	0.000517862
213	0xbe19bd69	-0.1501366
214	0x3e6827ee	0.22671482
215	0x3dbe2b7a	0.09285636
216	0xbdf6e159	-0.120547004
217	0x3d9879da	0.07445116
218	0x3d61e887	0.055153396
219	0xbd5c9a53	-0.053858113
220	0x3dcde1ac	0.10052809
221	0x3e4505d4	0.19240505
222	0xbc1bb9dd	-0.0095047625
223	0xbe016e77	-0.12639795
224	0x3ed6bcdd	0.41940966
225	0xbe506600	-0.2035141
226	0x3e0b5c98	0.1360954
227	0xbda14117	-0.07873743
228	0x3df8de89	0.1215182
229	0xbe7c8dcc	-0.24663466
230	0x3de59dc1	0.1121173
231	0x3d261c11	0.04055411
232	0xbd9da5e9	-0.076976605
233	0x3ce718e1	0.028210105
234	0xbc8ace31	-0.016944023
235	0xbcbb4ee0	-0.022864759
236	0xbc9fcd0b	-0.019506952
237	0x3e8fcfcd	0.28088227
238	0xbe9a6044	-0.3015157
239	0xbde32917	-0.11091822
240	0xbd918cba	-0.071069196
241	0x3d4c3194	0.04985197
242	0x3e8f5c71	0.28000215
243	0x3d37f79f	0.044913884
244	0x3e1de53d	0.15419479
245	0xbd9a50ea	-0.075349644
246	0xbababaf2	-0.0014246388
247	0x3e1afbf6	0.15135178
248	0x3d58da6a	0.05294267
249	0x3e6fa47a	0.23402587
250	0xbe483a7b	-0.19553559
251	0x3dbea42a	0.093086556
252	0x3e357fc1	0.17724515
253	0x3eab88e5	0.3350288
254	0x3e0b5f2c	0.13610524
255	0xbe18ba04	-0.1491471

graph_rnn.weight_hh_l0 f4 [192, 64]
0	0xbd063a03	-0.032770168
1	0xbc802a91	-0.015645297
2	0x3ddc6ad4	0.10762563
3	0xbdbc9b33	-0.092092894
4	0x3e324fb8	0.17413223
5	0xbd2b6144	-0.041840807
6	0x3ce8efcf	0.028434662
7	0x3cd6728b	0.026177665
8	0xbdbfc0e0	-0.0936296
9	0xbc06f4d5	-0.008237083
10	0xbd525f68	-0.051360518
11	0x3dc076d6	0.09397666
12	0x3c97a3dd	0.018510753
13	0xbdea9c24	-0.11455563
14	0x3d29733a	0.041369654
15	0xbda05ef3	-0.0783061
16	0xbd271ff9	-0.040801976
17	0x3e5dce79	0.21660794
18	0xbd2a4f1c	-0.04157935
19	0x3e7c9b54	0.24668628
20	0xbdbb91e7	-0.09158688
21	0xbcd730b0	-0.026268333
22	0xbde462f2	-0.11151685
23	0x3e1ec8ea	0.1550633
24	0xbc97d76e	-0.018535342
25	0xbe7d0425	-0.24708612
26	0x3cdf4fa0	0.027259648
27	0x3e4fe357	0.20301567
28	0xbe02d91b	-0.12778132
29	0xbbde0cc5	-0.0067764246
30	0xbd83c2e7	-0.06433659
31	0x3dd8fdda	0.10595293
32	0x3db0027b	0.08594223
33	0x3e483ae5	0.19553716
34	0xbc03b5df	-0.008038967
35	0x3d9559df	0.07292532
36	0x3d14bb67	0.036311533
37	0x3e1dde36	0.15416798
38	0xbd8a3c98	-0.067498386
39	0x3da68c6e	0.081322536
40	0x3d399c5e	0.04531514
41	0xbd6083d9	-0.05481324
42	0xbd29f8d0	-0.04149705
43	0x3cdb28db	0.02675288
44	0xbde573e4	-0.11203745
45	0xbdc997a1	-0.09843374
46	0x3d1c33ee	0.03813546
47	0xbe33701e	-0.17523238
48	0x3c2b5038	0.010456137
49	0x3d5619a6	0.052270554
50	0xbdff94ac	-0.12479529
51	0x3d0c3d20	0.03423798
52	0xbe1c898f	-0.1528685
53	0x3d35617c	0.04428242
54	0x3e0df086	0.13861284
55	0x3d1f64e3	0.038914572
56	0xbe75e172	-0.24011782
57	0x3daca0c8	0.08429104
58	0xbd8ee126	-0.069765374
59	0x3d5e8a3f	0.05433106
60	0xbe1f321a	-0.15546456
61	0x3df23ee3	0.11828401
62	0xbda1ce74	-0.07900706
63	0x3e19137c	0.14948839
64	0xbe6ae0c2	-0.22937301
65	0xbd559461	-0.05214346
66	0x3cb3f4e8	0.021967366
67	0x3cdc053e	0.026857968
68	0x3d99af14	0.075040966
69	0x3c054b8e	0.008135689
70	0x3deed123	0.116609834
71	0xbcb89b35	-0.022534946
72	0xbc9f61f5	-0.01945589
73	0xbd87ec6f	-0.06636893
74	0xbccf3fb4	-0.02529893
75	0x3ca025bc	0.019549243
76	0x3da9c4c8	0.08289486
77	0x3c337b22	0.01095465
78	0x3df097e5	0.117477216
79	0x3dcabeb7	0.09899657
80	0xbaa68942	-0.0012705701
81	0xbdc6c09f	-0.09704708
82	0x3cb83f51	0.02249113
83	0x3c81f119	0.015862035
84	0x3e0c84a4	0.13722473
85	0x3cb3f2a8	0.021966293
86	0x3da23e5f	0.079220526
87	0xbda8bbf5	-0.08238975
88	0x3da00513	0.07813468
89	0xbd117c6d	-0.035519052
90	0xbd267636	-0.04064008
91	0x3cdc6a59	0.02690618
92	0xbd2b8b92	-0.04188115
93	0x3d8842d3	0.06653371
94	0x3cb0ec9b	0.021597197
95	0x3e0989b6	0.13431439
96	0xbc9fa8da	-0.019489694
97	0x3d9eadf1	0.077480204
98	0xbc81ea9a	-0.015858937
99	0xbe606b29	-0.21915878
100	0xbdb23784	-0.08701995
101	0x3db7479a	0.08949204
102	0xbce8c5ab	-0.028414568
103	0xbd16fee6	-0.036864184
104	0xbc8c9526	-0.017160963
105	0xbba4711d	-0.005018367
106	0x3cddee99	0.027091311
107	0x3dbd6037	0.09246867
108	0x3d04b748	0.032401353
109	0x3e1d63cd	0.15370102
110	0x3e26b6de	0.16280696
111	0x3ab624fa	0.0013896518
112	0x3bd1c5a1	0.006401733
113	0xbd9c2fd8	-0.07626313
114	0xbe028ea4	-0.12749726
115	0x3dede5f0	0.11616123
116	0xbe1bf2ff	-0.15229414
117	0x3dee06ad	0.11622367
118	0x3dd38757	0.103285484
119	0x3d156427	0.036472466
120	0x3d7c3a9e	0.06157934
121	0x3e0570bd	0.13031287
122	0xbd601f64	-0.054717436
123	0xbda57cfc	-0.080804795
124	0x3e15b24a	0.14618793
125	0x3d9cb5c5	0.07651857
126	0xbd25be2f	-0.040464576
127	0xbb9443d5	-0.004524688
128	0x3a016ec2	0.00049374637
129	0x3e21eed1	0.15813757
130	0xbca04c33	-0.019567585
131	0x3e2a42e7	0.16627084
132	0xbcd585ae	-0.02606472
133	0xbcc7beab	-0.02438291
134	0xbe42d4eb	-0.19026534
135	0xbdb23e00	-0.08703232
136	0xbde2139d	-0.11038897
137	0x3cf1ed8a	0.029532213
138	0xbe23c118	-0.15991628
139	0xbd99f8fc	-0.07518193
140	0x3d320b5f	0.043467876
141	0xbc433528	-0.011914529
142	0xbd069789	-0.03285936
143	0xbca539c5	-0.020169148
144	0xbc83cbd6	-0.016088407
145	0xbdb63969	-0.08897669
146	0xbdc924a5	-0.098214425
147	0x3e4a77a8	0.19772208
148	0x3db8bb9b	0.09020158
149	0xbe50948a	-0.20369163
150	0x3d2de6e6	0.04245653
151	0x3d81e024	0.063415796
152	0x3e0feba9	0.14054741
153	0x3d388f55	0.045058567
154	0xbe464b4f	-0.19364665
155	0xbda9c9cd	-0.082904436
156	0x3e38acfe	0.18034741
157	0xbd975af7	-0.07390397
158	0x3d2f3c82	0.042782314
159	0xbe05ace8	-0.1305424
160	0x3cfc120b	0.030770322
161	0xbe027981	-0.12741663
162	0x3cf063f2	0.029344533
163	0xbe17a31f	-0.1480832
164	0xbcf04b52	-0.02933279
165	0x3e0b85db	0.1362528
166	0xbd7e2310	-0.062045157
167	0xbbc6db0a	-0.006068592
168	0x3e4f8c65	0.202684
169	0xbd608e11	-0.054822985
170	0xbe12b0f0	-0.14325309
171	0x3d895ce7	0.06707173
172	0x3e2818bf	0.1641569
173	0xbcf1b55d	-0.029505426
174	0x3db2af32	0.08724822
175	0x3e8b89be	0.27253526
176	0xbdf1f47a	-0.11814208
177	0xbd72b4a5	-0.059254307
178	0x3d5aa1bc	0.0533769
179	0x3e1d0511	0.15333964
180	0xbd5ba448	-0.053623468
181	0x3df54cb6	0.11977522
182	0xbd37ecc8	-0.044903547
183	0xbdf337c2	-0.11875869
184	0x3da2389d	0.079209544
185	0xbce04293	-0.027375495
186	0xbe2babad	-0.16764708
187	0xbe447f2a	-0.19189134
188	0x3e529c24	0.20567375
189	0x3c886930	0.01665172
190	0xbda3d535	-0.079996504
191	0x3e00279d	0.12515111
192	0x3dffa1ba	0.12482019
193	0x3dba1081	0.09085179
194	0xbe0e02d8	-0.13868272
195	0x3e51eb4c	0.20499915
196	0xbda4f1f4	-0.080539614
197	0x3dbcb246	0.092136905
198	0xbdbeb8fb	-0.09312626
199	0x3e190e1e	0.14946792
200	0xbd9b2722	-0.07575823
201	0x3d9286b3	0.07154598
202	0x3e8aea64	0.2713195
203	0x3d82cbd9	0.06386537
204	0xbc50fbbf	-0.012755333
205	0xbdce8e90	-0.100857854
206	0x3e00e055	0.12585576
207	0xbd27f9c4	-0.04100968
208	0xbe26383c	-0.16232389
209	0x3d9bcc54	0.07607332
210	0x3d660c06	0.05616381
211	0x3e471685	0.19442184
212	0xbb7f68ff	-0.0038972495
213	0xbdceb570	-0.100932
214	0xbcf4e57b	-0.029894581
215	0x3d06ea77	0.032938447
216	0xbde701fe	-0.11279677
217	0xbd36fdf0	-0.044675767
218	0x3e2ad04a	0.16681018
219	0xbae79048	-0.00176669
220	0xbd8af607	-0.06785207
221	0x3d422f4c	0.047408387
222	0x3e0e665a	0.13906232
223	0x3cb361cc	0.02189722
224	0x3d0479ab	0.032342594
225	0xbd852c1c	-0.06502554
226	0xbcc69ed4	-0.024245657
227	0x3e224097	0.15844952
228	0xbdd1e828	-0.102493584
229	0x3b01b1bf	0.0019789783
230	0xbe24bca8	-0.16087592
231	0x3cbed97d	0.023297066
232	0x3e2fc37d	0.17164417
233	0xbd830eb8	-0.06399292
234	0x3e275deb	0.1634442
235	0xbe2db5ec	-0.16963929
236	0xbe0358d3	-0.12826853
237	0xbe825a1e	-0.2545938
238	0xbe1aa607	-0.15102397
239	0x3d183d4b	0.03716783
240	0x3c6844c9	0.014176556
241	0x3d14dab9	0.036341403
242	0xbdf300f1	-0.11865414
243	0x3d50fb3f	0.051020857
244	0x3c74deb6	0.014945677
245	0xbe87fd6e	-0.2656054
246	0xbd2472bb	-0.040148478
247	0xbbf2611e	-0.007396831
248	0xbe863ca0	-0.26218128
249	0x3d190040	0.037353754
250	0xbe29f4d6	-0.16597304
251	0xbddd1f83	-0.10797026
252	0xbdad087c	-0.08448884
253	0x3e33c7b3	0.17556648
254	0xbda943dc	-0.08264896
255	0x3e22b263	0.15888362

graph_rnn.bias_ih_l0 f4 [192]
0	0xbda7d71d	-0.081953265
1	0x3e6f0a13	0.23343687
2	0x3c977fb6	0.018493515
3	0xbe0952fd	-0.13410564
4	0x3da9f91f	0.08299469
5	0xbdab4e34	-0.083645254
6	0x3d431da7	0.0476357
7	0x3d354ee8	0.044264704
8	0x3e0395de	0.12850139
9	0x3c66897a	0.014070863
10	0xbe112931	-0.1417587
11	0x3d6a2eff	0.057173725
12	0x3dab55d1	0.083659776
13	0x3e0f4967	0.13992845
14	0xbcb30c7e	-0.021856543
15	0x3bea3678	0.0071476065
16	0x3c4ed0e0	0.012623042
17	0x3d9770ef	0.07394587
18	0x3e004ae4	0.12528569
19	0x3cd859a9	0.02640994
20	0xbe501b55	-0.20322926
21	0xbc760e92	-0.015018122
22	0xbd65336a	-0.055957235
23	0x3d1705b5	0.036870677
24	0x3e10afcb	0.1412956
25	0xbe31601d	-0.1732182
26	0x3d544495	0.051823217
27	0xbc1b5db4	-0.00948279
28	0xbdb5bb01	-0.08873559
29	0x3d4e4400	0.05035782
30	0xbd21c231	-0.039491836
31	0x3cbbcaad	0.022923792
32	0xbcae9f69	-0.021316247
33	0x3b4390f7	0.0029841044
34	0x3c221ff1	0.009895311
35	0xbd2d6f9b	-0.042342763
36	0xbd4077f6	-0.046989404
37	0xbd40f118	-0.047104925
38	0xbb9be948	-0.004758034
39	0xbe1303a4	-0.14356858
40	0xbd9c9614	-0.07645813
41	0xbde4d478	-0.11173338
42	0xbe330986	-0.17484102
43	0xbcf6be37	-0.030119998
44	0xbc8d60d2	-0.017258082
45	0x3d29cfa0	0.041457772
46	0xbd8657c2	-0.06559707
47	0xbbc0b4d2	-0.0058809305
48	0xbd0d5a11	-0.034509722
49	0x3cf84f98	0.03031139
50	0xbe6bfd37	-0.23045813
51	0xbab4a1b2	-0.0013781099
52	0x3df57ec9	0.11987073
53	0xbdcdff13	-0.10058417
54	0x3dd6cce7	0.10488301
55	0x3d4087ab	0.047004383
56	0xbc864bcd	-0.016393567
57	0xbdabe4b3	-0.0839323
58	0x3cf26f28	0.029594019
59	0xbc6e9bd6	-0.014563521
60	0x3dd31262	0.103062406
61	0x3d73db4c	0.05953531
62	0xbd853d83	-0.06505873
63	0xbd8b7753	-0.06809869
64	0x3d088d89	0.033338103
65	0xbd9d7a20	-0.07689309
66	0x3dcdb132	0.10043563
67	0xbe599926	-0.21249828
68	0xbcd85ac9	-0.026410477
69	0xbe767212	-0.24066952
70	0xbda6928c	-0.0813342
71	0x3d865821	0.06559778
72	0xbcfa9b29	-0.030591564
73	0xbe593174	-0.21210271
74	0xbe2b3bb3	-0.16721992
75	0xba88c9a5	-0.0010436071
76	0xbe2ce79c	-0.16885227
77	0xbea99c09	-0.33126858
78	0xbe0d41ca	-0.13794628
79	0xbc9af22c	-0.018914305
80	0xbe7f49bc	-0.24930471
81	0xbdafc10f	-0.08581745
82	0xbe38835b	-0.18018858
83	0x3d8b5069	0.068024464
84	0xbde50a26	-0.11183576
85	0xbeb0afc4	-0.345091
86	0xbe8919c3	-0.26777467
87	0xbd2c4563	-0.04205836
88	0xbe3a6511	-0.18202616
89	0x3c6ebad6	0.014570912
90	0xbe12e588	-0.14345372
91	0x3e39e621	0.18154193
92	0xbe5a46ea	-0.21316114
93	0xbe55ffa5	-0.20898302
94	0xbdadd05a	-0.084870055
95	0xbe4c6931	-0.19962002
96	0x3d2adebd	0.041716326
97	0xbdaf1b75	-0.08550159
98	0x3bbdc230	0.005790971
99	0xbda4ed87	-0.08053117
100	0xbe683e34	-0.22679979
101	0x3dc68b4f	0.0969454
102	0xbe0db006	-0.13836679
103	0xbce865b5	-0.02836881
104	0xbe1188b1	-0.142123
105	0xbe21e03e	-0.15808198
106	0xbeb7a605	-0.3586885
107	0xbe59553e	-0.21223924
108	0xbdcc1a36	-0.09965937
109	0xbda9b38d	-0.082862
110	0xbeac662f	-0.3367171
111	0xbe919203	-0.2843171
112	0x3c4c7d61	0.012481065
113	0xbe0da3ae	-0.1383197
114	0xbdfa2934	-0.1221489
115	0xbdbb2a69	-0.091389485
116	0xbe0f100e	-0.13970968
117	0xbd8b8bf7	-0.068138056
118	0x3c12220f	0.008919253
119	0x3e218710	0.15774179
120	0xbd1c4cd8	-0.03815922
121	0x3d49c413	0.049259257
122	0x3d7bd965	0.06148662
123	0xbe1ca6c4	-0.15297991
124	0xbdde40c1	-0.108521946
125	0xbd6abe1d	-0.057310212
126	0xbdf67f5b	-0.1203601
127	0x3d872105	0.06598095
128	0x3d73f05c	0.059555396
129	0xbd02a393	-0.031894278
130	0x3de01a61	0.109425314
131	0x3c3beac6	0.011469549
132	0x3d89635f	0.06708407
133	0xbddd9a12	-0.10820402
134	0x3c2f5941	0.010702432
135	0xbb3de4e8	-0.002897555
136	0xbe045821	-0.12924244
137	0xbe07df0c	-0.1326868
138	0xbd04d18d	-0.032426406
139	0xbdf843ba	-0.12122293
140	0xbdcb8872	-0.09938134
141	0xbc33a66a	-0.010964969
142	0xbddb203d	-0.10699508
143	0x3e0391b9	0.12848558
144	0xbd349cbf	-0.044094797
145	0x3dd71abc	0.10503146
146	0xbc135b24	-0.008993898
147	0xbd346af6	-0.04404732
148	0x3d8dc951	0.06923164
149	0x3cf783d9	0.030214237
150	0xbd63ffa6	-0.055663727
151	0xbd49561d	-0.04915439
152	0xbd81cd04	-0.06337932
153	0x3d077b97	0.03307685
154	0xbd70e36d	-0.05881064
155	0x3d8c3305	0.06845669
156	0xbd979709	-0.074018545
157	0x3d9c3b42	0.0762849
158	0x3d6483de	0.05578982
159	0x3e246daa	0.16057459
160	0xbe4d9714	-0.20077163
161	0xbd5c6cc2	-0.053814657
162	0x3db3965d	0.08768914
163	0xbde754c3	-0.11295464
164	0x3cfe4b53	0.031041777
165	0x3daf3f30	0.08556974
166	0xbd82824d	-0.06372509
167	0xbd0c204f	-0.0342105
168	0x3d8ad69b	0.06779214
169	0x3e035944	0.12827021
170	0x3d6ce0dc	0.05783163
171	0xbdb62b92	-0.08895029
172	0xbdee19e9	-0.11626036
173	0xbd248a9b	-0.040171247
174	0xbb5cc0af	-0.0033684184
175	0x3bba92d4	0.005693773
176	0x3ceb3a2f	0.028714268
177	0xbaf9377c	-0.0019013728
178	0x3bf115a2	0.007357315
179	0xbd450e4c	-0.048109338
180	0xbd788338	-0.060672015
181	0xba14aed3	-0.0005671803
182	0x3db13c67	0.08654099
183	0xbdb12a3d	-0.086506344
184	0xbe198f65	-0.14996107
185	0x3e1f59b0	0.15561557
186	0xbd6e9815	-0.058250505
187	0x3de345e0	0.11097312
188	0xbd802840	-0.06257677
189	0xbbb5d388	-0.005548898
190	0xbd8272f5	-0.063695826
191	0x3dcfcf84	0.10147002

graph_rnn.bias_hh_l0 f4 [192]
0	0x3d830d0c	0.06398973
1	0x3c2bfc4f	0.010497167
2	0x3dc7e833	0.09761085
3	0xbdd59c06	-0.1043015
4	0x3dbd53d4	0.092445046
5	0xbc6c5de8	-0.014426686
6	0x3d9a1c56	0.07524936
7	0x3dac6521	0.08417726
8	0x3e394180	0.18091393
9	0xbdc7bb5f	-0.09752535
10	0xbc7c358a	-0.015393624
11	0x3e3deca1	0.18547298
12	0xbd248d98	-0.040174097
13	0x3c977d61	0.018492403
14	0xbd58ccd3	-0.05292971
15	0x3d7a8595	0.06116255
16	0xbda0a030	-0.07843053
17	0xbcdb529a	-0.026772786
18	0x3dbc46e4	0.09193209
19	0xbd70ed64	-0.058820143
20	0x3c0c521f	0.008564501
21	0x3d44152f	0.047871765
22	0xbe230fc0	-0.15923977
23	0x3d8c022a	0.0683635
24	0x3d227233	0.03965969
25	0xbdf8e9b7	-0.121539526
26	0xbdfa1f96	-0.12213056
27	0xbe0efba4	-0.13963181
28	0xbcd86250	-0.026414067
29	0xbdec2d16	-0.11532037
30	0x3d416e75	0.04722448
31	0xbbd1e5b6	-0.0064055575
32	0x3e0b22c8	0.13587487
33	0xbe164bb7	-0.1467732
34	0xbbfd84ec	-0.007736793
35	0xbdbd8b7a	-0.09255119
36	0xbd77500d	-0.060379077
37	0x3d44fa79	0.04809043
38	0xbda4e12a	-0.08050759
39	0xbda8b48f	-0.08237564
40	0xbd85c176	-0.0653104
41	0xbd36dd44	-0.04464461
42	0xbc62cc3c	-0.013842639
43	0xbe0d36a9	-0.13790382
44	0xbd89beb9	-0.067258306
45	0xbbc6b098	-0.006063532
46	0x3d244f6b	0.0401148
47	0x3e0afab2	0.13572195
48	0xbdb91f16	-0.09039132
49	0xbc344952	-0.011003809
50	0xbe8900b2	-0.26758343
51	0xbe0e7100	-0.13910294
52	0xbda881a8	-0.08227855
53	0xbe04ce5c	-0.12969345
54	0x3e071ad7	0.13193832
55	0x3df1a924	0.11799839
56	0x3e07beec	0.13256425
57	0x3de3c15f	0.11120867
58	0xbd6d734b	-0.05797128
59	0xbd57debb	-0.052702647
60	0x3dba274e	0.09089528
61	0xbe091f00	-0.13390732
62	0xbd996018	-0.074890316
63	0xbe10f193	-0.14154653
64	0xbdf0ee72	-0.1176423
65	0xbddf1a75	-0.10893718
66	0xbcdda1d2	-0.027054701
67	0xbe963e35	-0.29344335
68	0xbd55323f	-0.05204987
69	0xbe008d1c	-0.12553829
70	0xbe603687	-0.218958
71	0xbdb470ff	-0.08810615
72	0x3d1a6682	0.037695415
73	0xbe3234ac	-0.17402905
74	0xbe96457f	-0.29349896
75	0x3df55639	0.11979336
76	0xbdd74c22	-0.10512568
77	0xbead1752	-0.33806854
78	0xbd11e96f	-0.03562301
79	0xbe3c23c2	-0.18373016
80	0xbd974434	-0.073860556
81	0x3cb886a7	0.022525145
82	0x3c955708	0.018229976
83	0xbd587515	-0.052846033
84	0xbd8ef7a5	-0.06980828
85	0xbea34573	-0.31888923
86	0xbe5715d6	-0.21004423
87	0xbe08e46d	-0.13368388
88	0xbcb2cbca	-0.02182569
89	0xbd279243	-0.04091097
90	0xbe5a3f78	-0.21313274
91	0x3de548b5	0.111955084
92	0xbe298a0e	-0.1655657
93	0xbe53d9e3	-0.20688586
94	0xbe05df63	-0.13073497
95	0xbe368cf6	-0.1782721
96	0x3e3f1bf6	0.1866301
97	0xbe5f5bef	-0.21812414
98	0x3d6924a4	0.05691971
99	0xbd236949	-0.03989533
100	0xbe14ca13	-0.1453021
101	0x3bf4db62	0.0074724415
102	0xbc8e4812	-0.01736835
103	0xbe14f556	-0.14546713
104	0xbde28319	-0.11060161
105	0xbd9c36cc	-0.07627639
106	0xbe76725d	-0.24067064
107	0xbe6ce523	-0.23134284
108	0xbd1774a4	-0.03697647
109	0xbd7ece10	-0.062208235
110	0xbe73e133	-0.23816375
111	0xbe9c0fc1	-0.3048077
112	0xbe1902d9	-0.14942493
113	0x3cd24bd1	0.025670918
114	0xbe70c3b3	-0.23512153
115	0xbcc46192	-0.023972306
116	0x3d83c4e6	0.0643404
117	0xbe364a77	-0.17801844
118	0x3c3f443b	0.011673982
119	0x3dddbf2d	0.108274795
120	0xbdbef1e3	-0.0932348
121	0xbbab235e	-0.005222722
122	0x3dc270a9	0.094941445
123	0x3d83bfa2	0.064330354
124	0xbe887684	-0.2665292
125	0xbdb9fea4	-0.09081772
126	0xbe0dd7a0	-0.13851786
127	0xbe05c7b6	-0.13064465
128	0xbd7462c8	-0.059664518
129	0x3cee2b51	0.02907339
130	0x3d906dc4	0.07052186
131	0x3d499cbb	0.049221735
132	0x3e02df25	0.12780435
133	0xbbf47026	-0.007459658
134	0x3d8daa94	0.06917301
135	0xbd2d2db3	-0.04227991
136	0xbdff5d44	-0.12468961
137	0xbe12f44b	-0.14351003
138	0xbd47052b	-0.048588913
139	0xbddef0e8	-0.10885793
140	0x3dcb288d	0.09919844
141	0xbdf1eed3	-0.1181313
142	0xbd65c214	-0.05609329
143	0x3d8d029e	0.06885265
144	0xbd992566	-0.07477836
145	0x3d6a59bc	0.057214484
146	0x3d0a636c	0.033786222
147	0xbde1738b	-0.11008366
148	0x3e3918b4	0.1807583
149	0xbd833430	-0.06406438
150	0x3c85519d	0.016274268
151	0x3c876e37	0.016532047
152	0xbe2b1805	-0.16708381
153	0x3dda897b	0.106707536
154	0xbd2c4ded	-0.042066503
155	0x3ce3a857	0.027790232
156	0x3d92785c	0.07151863
157	0x3d54361e	0.051809423
158	0x3d23e3a5	0.04001202
159	0x3e2b0354	0.16700488
160	0x3c8fe8bf	0.017567037
161	0x3c379b61	0.011206479
162	0xbdc77803	-0.09739687
163	0x3d9809c1	0.074237354
164	0xbd5876dc	-0.052847728
165	0xbb4c311d	-0.0031157203
166	0x3c255888	0.010091908
167	0xbd836f8a	-0.06417759
168	0x3c5ee5dc	0.013604607
169	0x3d9714de	0.07377027
170	0x3ca82fa0	0.020530522
171	0xbdce8ff9	-0.10086054
172	0x3d8e341c	0.06943533
173	0x3dbf117f	0.09329509
174	0x3b5e8a88	0.0033957083
175	0xbdc60ccb	-0.09670409
176	0xbd2f1aca	-0.042750157
177	0xbdaa33e5	-0.08310679
178	0x3d5cb321	0.053881768
179	0x3cf52133	0.029923057
180	0xbdc2af1a	-0.09506054
181	0x3df9b6c5	0.12193064
182	0xbd19c139	-0.037537787
183	0xbdecc3d0	-0.11560786
184	0xbd18b2c2	-0.03727985
185	0x3e1ebf21	0.15502597
186	0x3d0bb37d	0.03410672
187	0x3e15f4a6	0.14644107
188	0xbd7be993	-0.06150205
189	0x3d803f3f	0.06262063
190	0x3d83c774	0.06434527
191	0xbe23042a	-0.15919557

graph_rnn.weight_ih_l1 f4 [192, 64]
0	0x3da0432e	0.078253135
1	0xbe5a37db	-0.2131037
2	0xbc0bf5c1	-0.008542479
3	0xbe8967fa	-0.2683714
4	0x3df804a0	0.12110257
5	0xbd17ddef	-0.037076887
6	0xbd145baf	-0.03622025
7	0x3daf3575	0.08555118
8	0xbe374f7e	-0.17901418
9	0xbd6c93b6	-0.057758056
10	0x3dc699c2	0.09697296
11	0x3d2dbb4e	0.042414956
12	0xbe8ef7ce	-0.27923435
13	0xbd054e16	-0.03254517
14	0x3e403523	0.1877027
15	0x3d1bd8da	0.038048603
16	0x3f0c5316	0.5481428
17	0xbeecf3ab	-0.46279654
18	0x3e9a50f7	0.30139896
19	0xbe10b2d5	-0.14130719
20	0x3db1b571	0.08677185
21	0x3e1b7b8e	0.15183851
22	0xbeafc5da	-0.34330636
23	0xbc8c416f	-0.017121045
24	0x3e2e1671	0.17000748
25	0xbe37ea55	-0.17960484
26	0xbd67c942	-0.05658842
27	0xbebc04d8	-0.36722445
28	0xbd76056f	-0.060063776
29	0xbe5234ce	-0.20527956
30	0x3d042a35	0.032266814
31	0xbab457b5	-0.0013759049
32	0x3dfd74c4	0.12375787
33	0x3db5eb89	0.088828154
34	0xbbed837e	-0.007248341
35	0xbe143857	-0.14474617
36	0x3f113ec7	0.56736416
37	0x3c891973	0.016735768
38	0x3e0326aa	0.12807718
39	0xbf076924	-0.52894807
40	0xbdeb3674	-0.114849955
41	0xbe18e04d	-0.14929314
42	0x3e04e084	0.12976271
43	0x3ed33eac	0.41258752
44	0x3e98ab8a	0.29818374
45	0x3cf8676e	0.030322757
46	0xbd845230	-0.064609885
47	0xbe0b5912	-0.13608196
48	0xbd841b19	-0.06450481
49	0x3ea632fd	0.32460776
50	0x3e5cab15	0.21549638
51	0x3ec58710	0.38579607
52	0x3dec81da	0.11548205
53	0x3dc8b405	0.09799961
54	0x3cb669de	0.022267278
55	0x3d9c697c	0.07637307
56	0xbdfd6115	-0.123720326
57	0xbe2eba76	-0.17063317
58	0x3d61d3e0	0.0551337
59	0xbe2ad8f0	-0.16684318
60	0xbd1bcc35	-0.038036544
61	0x3e98a699	0.29814604
62	0xbe0586a6	-0.13039646
63	0xbc3d5d2b	-0.0115578575
64	0x3d1f8a99	0.038950536
65	0xbce2fb9a	-0.027707864
66	0x3c69756b	0.014249186
67	0x3d03f66d	0.03221743
68	0xbdbb1e53	-0.09136643
69	0xbd1b2a09	-0.037881885
70	0x3dddab0c	0.1082364
71	0xbdc85d2c	-0.09783396
72	0xbc420def	-0.011844142
73	0xbe471a31	-0.19443585
74	0xbd9d80f2	-0.0769061
75	0xbe576b5b	-0.21037047
76	0xbe7b27bd	-0.24526878
77	0x3c8e1105	0.0173421
78	0x3e2973fe	0.16548154
79	0x3dedeaa2	0.11617018
80	0x3e9ff96e	0.31244987
81	0xbeb9634d	-0.36208573
82	0x3e8199b4	0.2531258
83	0x3d6b2a25	0.05741324
84	0x3e9e302e	0.30896133
85	0x3debf952	0.115221635
86	0xbd9543f2	-0.0728835
87	0x3e6a8f91	0.22906329
88	0x3dc6be51	0.09704269
89	0xbc8dbe71	-0.017302724
90	0xbd9c80c3	-0.07641747
91	0xbe8e896a	-0.27839214
92	0xbd37b92c	-0.044854328
93	0x3e2918db	0.16513388
94	0x3d9a43a5	0.075324334
95	0x3cc54da9	0.024084883
96	0x3e0e64c2	0.13905624
97	0x3d802a32	0.06258048
98	0xbe86bbd3	-0.26315174
99	0x3d90a6e3	0.07063081
100	0x3e777daf	0.24169038
101	0x3e71bf0c	0.23608035
102	0x3d0f9766	0.035056494
103	0xbede0f68	-0.4337113
104	0x3debf68a	0.11521633
105	0x3e239112	0.15973309
106	0x3ce2d49c	0.02768927
107	0xbd2603d1	-0.040530983
108	0x3e80228e	0.25026363
109	0xbe187194	-0.14887077
110	0x3cc93c49	0.024564879
111	0xbe0d49ca	-0.1379768
112	0x3e1b9c8f	0.15196441
113	0x3e29f90c	0.1659891
114	0x3de14803	0.11000063
115	0x3c47277a	0.012155408
116	0xbc9f1c93	-0.019422805
117	0x3df809bf	0.12111234
118	0xbe25fc35	-0.1620949
119	0xbd8fc19e	-0.070193514
120	0xbe8e3036	-0.27771157
121	0x3d3a4c32	0.04548282
122	0x3eb22c6f	0.34799525
123	0x3db77d90	0.08959496
124	0xbe0d4ae5	-0.13798101
125	0x3dce9bfd	0.10088346
126	0x3c5b7b99	0.013396167
127	0xbdf2dcce	-0.118585214
128	0x3d014345	0.031558294
129	0xbdb57f87	-0.088622145
130	0xbe097a07	-0.13425456
131	0x3d87c957	0.066301994
132	0x3d8725ca	0.065990046
133	0x3db91f9a	0.09039231
134	0xbda6c58b	-0.08143147
135	0xbd664d2e	-0.056225948
136	0xbe25c4ad	-0.16188307
137	0x3ded34d2	0.1158234
138	0xbb1c9cae	-0.00238971
139	0x3e86212e	0.2619719
140	0x3e597221	0.21234943
141	0xbe22f7d1	-0.15914847
142	0xbdc481a6	-0.09595041
143	0xbdb0516c	-0.0860928
144	0xbcf683a4	-0.030092068
145	0x3e2821cd	0.16419144
146	0xbe3e7df5	-0.18602736
147	0x3e523313	0.20527296
148	0x3da5361d	0.08066962
149	0xbe338759	-0.175321
150	0x3d87241f	0.065986864
151	0x3e2eb574	0.17061406
152	0xbdb6b91d	-0.08922026
153	0x3e6102fb	0.21973793
154	0xbdfe67af	-0.1242212
155	0x3ccfb5ea	0.025355298
156	0xbe8a1a2a	-0.26973087
157	0x3e134bc1	0.14384367
158	0xbe6add1b	-0.22935908
159	0xbcb32a1d	-0.021870667
160	0x3dc6b810	0.09703076
161	0x3db0b99a	0.08629151
162	0xbde9a54a	-0.114084795
163	0xbd9cbcd5	-0.07653204
164	0xbe374ae1	-0.17899658
165	0xbd1ffaf4	-0.039057687
166	0xbd313614	-0.043264464
167	0x3d5d9c6f	0.054104265
168	0x3e0b88f5	0.13626464
169	0xbd54600a	-0.051849402
170	0xbcf9866b	-0.030459603
171	0xbe4f01cf	-0.20215534
172	0xbe05170d	-0.12997074
173	0x3e15aefe	0.14617535
174	0xbdfcced3	-0.12344136
175	0x3d99ff30	0.07519376
176	0xbe00be38	-0.12572563
177	0xbd337484	-0.04381229
178	0xbd9ae93a	-0.07564016
179	0xbe5e6339	-0.21717538
180	0x3d147b6b	0.036250513
181	0x3d8e0850	0.06935179
182	0xbd97b0b0	-0.07406747
183	0xbe2efbb6	-0.17088208
184	0xbecaa436	-0.39578408
185	0xbe58c3d4	-0.21168453
186	0x3da9bbda	0.08287783
187	0x3e83cc7d	0.2574195
188	0xbe95406d	-0.29150715
189	0xbe689047	-0.22711287
190	0xbe309430	-0.17244029
191	0x3da73689	0.08164699
192	0x3da5d1b7	0.080966406
193	0xbd173336	-0.036914073
194	0xbe5c9601	-0.21541597
195	0xbcdd0616	-0.026980441
196	0xbe181e32	-0.14855269
197	0x3e0bb0e7	0.13641702
198	0x3c4f19c3	0.012640419
199	0xbe1bc46f	-0.15211652
200	0xbc85ea05	-0.01634694
201	0x3d01dc4e	0.03170424
202	0x3ea3f6c6	0.3202421
203	0x3e3c02a8	0.18360388
204	0x3da814ee	0.08207117
205	0xbeaa59a3	-0.33271512
206	0xbe3ec323	-0.18629126
207	0x3d220a27	0.039560463
208	0xbd417231	-0.047228042
209	0x3d769b15	0.06020649
210	0x3dd9af18	0.106290996
211	0x3cbd2c4a	0.023092408
212	0xbe4ba4e7	-0.19887124
213	0xbe5d0c73	-0.2158678
214	0xbd0bb3b8	-0.03410694
215	0xbeae982d	-0.34100476
216	0xbc926413	-0.017869985
217	0xbf0da17f	-0.5532455
218	0x3e8c9c52	0.27463013
219	0x3dad8b9c	0.08473894
220	0xbec5da79	-0.38643244
221	0xbd438f2d	-0.047743965
222	0xbbfae42a	-0.007656594
223	0xbe1193fe	-0.14216611
224	0xbe42c6c9	-0.19021143
225	0x3e86c5d3	0.26322803
226	0x3e356380	0.17713737
227	0x3e0f9c95	0.14024575
228	0xbd073992	-0.033013888
229	0xbd988fec	-0.07449326
230	0xbd4dde1a	-0.05026064
231	0x3e0bc929	0.13650955
232	0xbe55f5b0	-0.20894504
233	0xbe0bfc73	-0.1367052
234	0x3e0b697c	0.13614458
235	0xbbc4750b	-0.005995398
236	0x3ddb142d	0.106972076
237	0xbe81ae4d	-0.25328293
238	0xbe964419	-0.2934883
239	0xbe16f847	-0.14743148
240	0xbe18dbf5	-0.14927657
241	0xbe3e0e2a	-0.1856009
242	0xbd83f6c5	-0.06443552
243	0x3db999d8	0.090625465
244	0x3e72eab4	0.23722345
245	0xbf0a5035	-0.54028636
246	0x3dc22552	0.094797745
247	0x3e7cb5e5	0.24678762
248	0x3e63569b	0.22201006
249	0xbe35ad7b	-0.17741959
250	0x3de34b93	0.11098399
251	0xbea5d0cf	-0.3238587
252	0xbdd94532	-0.10608901
253	0x3c9f9d25	0.019484112
254	0xbd8e188d	-0.069382764
255	0x3d9562a7	0.07294207

graph_rnn.weight_hh_l1 f4 [192, 64]
0	0x3bcb998a	0.0062133716
1	0xbe2a26e0	-0.16616392
2	0x3c24e527	0.0100644
3	0xbcbe7867	-0.023250772
4	0x3d1fe442	0.039036043
5	0x3c809c4c	0.015699528
6	0xbe16f9df	-0.14743756
7	0xbde46fdb	-0.11154147
8	0xbd9800b7	-0.07422011
9	0x3d8af625	0.067852296
10	0xbd6c8215	-0.057741243
11	0xbdf7db13	-0.12102332
12	0xbdd0438a	-0.10169132
13	0x3bfc49f0	0.0076992437
14	0x3c085f2d	0.008323473
15	0x3d24009c	0.040039644
16	0x3d9f5402	0.07779695
17	0xbca2eff0	-0.019889802
18	0xbd733600	-0.05937767
19	0x3e7cf789	0.24703802
20	0xbe0a3111	-0.1349528
21	0xbdd8187b	-0.10551544
22	0x3d763dec	0.060117647
23	0x3d44771a	0.047965147
24	0x3ace6344	0.0015746136
25	0xbd9495e4	-0.07255152
26	0x3d41944f	0.04726058
27	0xbdef5f08	-0.11688048
28	0xbe4118ef	-0.18857168
29	0x3e1bfdff	0.1523361
30	0xbcfa8520	-0.030581057
31	0xbb639051	-0.003472347
32	0xbe0813b4	-0.13288766
33	0x3d8c74f4	0.068582445
34	0xbd14c107	-0.036316898
35	0xbbfe4698	-0.0077598803
36	0x3e6b2bcd	0.22965927
37	0xbd955fcf	-0.07293665
38	0x3d9129b4	0.07088032
39	0xbe000903	-0.12503438
40	0xbc9598dd	-0.018261367
41	0xbcef778a	-0.029231805
42	0x3db4ddea	0.08831389
43	0x3ccf6d40	0.02532065
44	0xbdfb0d31	-0.122583754
45	0x3df98e62	0.121853605
46	0xbe2fea8c	-0.17179316
47	0xbc890419	-0.016725587
48	0xbc9d2a2a	-0.019185144
49	0x3ce91de9	0.028456645
50	0xbdbc8d02	-0.092065826
51	0x3daee415	0.08539597
52	0x3d413655	0.047170956
53	0x3cf6e4ae	0.03013834
54	0xbcfd1895	-0.03089551
55	0x3c1a7935	0.009428312
56	0x3de61152	0.11233772
57	0x3e7b3058	0.2453016
58	0xbe5b46be	-0.21413705
59	0x3ca86c06	0.020559322
60	0xbdd9524d	-0.10611401
61	0xbd874279	-0.066044755
62	0xbdc3b8ec	-0.095567554
63	0xbdfab468	-0.12241441
64	0x3e48af85	0.19598205
65	0xbdaee6b1	-0.08540095
66	0x3d3fe618	0.046850294
67	0x3de7a320	0.113104105
68	0xbe439da8	-0.1910311
69	0xbe03ff10	-0.12890267
70	0x3e421c0f	0.18956016
71	0xbd8089e5	-0.06276301
72	0x3e0886e5	0.13332708
73	0xbe818daf	-0.25303409
74	0x3de08d5e	0.10964464
75	0x3e1867ce	0.14883348
76	0xbce571b4	-0.02800832
77	0xbc352492	-0.011056082
78	0x3d2c096a	0.042001165
79	0x3e0c20d1	0.13684393
80	0x3d8222ef	0.06354319
81	0xbdb2e1e1	-0.08734489
82	0xbcf9fb76	-0.030515414
83	0x3e307609	0.17232527
84	0x3c679841	0.014135421
85	0xbe832bed	-0.2561945
86	0xbce9281e	-0.028461512
87	0xbc482628	-0.012216128
88	0x3c6bde05	0.014396195
89	0xbde3c8c9	-0.11122281
90	0xbe76533f	-0.24055193
91	0xbdf16d3d	-0.11788414
92	0xbd4ea4d7	-0.050450172
93	0xbccde2d5	-0.025132576
94	0x3d5d9db5	0.05410548
95	0x3df8c3c2	0.12146713
96	0x3da8e416	0.08246629
97	0xbe2f4c36	-0.17118916
98	0x3d019571	0.03163666
99	0x3c0932e1	0.008373947
100	0x3d888bfb	0.06667324
101	0x3d456397	0.04819068
102	0xbd62d83c	-0.055382
103	0x3b06d2b4	0.0020572366
104	0x3c65ae57	0.014018617
105	0xbc239686	-0.009984618
106	0x3e6d0e53	0.23149996
107	0xbe44f3c0	-0.19233608
108	0x3df791df	0.120883696
109	0x3e60d19d	0.21954961
110	0xbe27b507	-0.1637765
111	0xbe680ec0	-0.22661877
112	0x3db681e9	0.08911497
113	0x3df2869c	0.11842081
114	0x3cc55475	0.024088124
115	0xbdefb3f7	-0.117042474
116	0x3b4d735e	0.0031349282
117	0x3c8900e7	0.016724063
118	0xbd6b2525	-0.05740847
119	0xbcf8f472	-0.030389998
120	0x3c15fcbd	0.009154496
121	0xbdee08cc	-0.116227716
122	0x3d30b559	0.043141697
123	0xbe39ea69	-0.18155827
124	0x3e4bef41	0.19915487
125	0x3b718ef6	0.0036858893
126	0xbd978ea6	-0.07400255
127	0xbd77f78c	-0.060538813
128	0x3e006e0d	0.12541981
129	0xbe38c0bc	-0.18042272
130	0x3d2470a6	0.040146492
131	0x3e22921d	0.1587605
132	0x3d0b91e2	0.03407467
133	0x3d8d794a	0.069079
134	0xbd964b25	-0.073385514
135	0xbd56f1c6	-0.052476667
136	0xbdefc7a3	-0.117079996
137	0x3e98af07	0.29821035
138	0x3e11524b	0.14191549
139	0x3daec93f	0.085344784
140	0x3dbca906	0.09211926
141	0xbd949d3d	-0.07256553
142	0xbe71ac09	-0.23600782
143	0x3dc45649	0.0958677
144	0xbd94dac2	-0.07268287
145	0xbdcc2e2a	-0.099697426
146	0xbddb8b0a	-0.10719879
147	0x3e07113e	0.13190171
148	0xbded5c58	-0.11589879
149	0xbd9c87e7	-0.07643109
150	0x3e2151c4	0.15753847
151	0x3d3dd00f	0.046341
152	0x3db44483	0.0880213
153	0xbc9d0011	-0.01916507
154	0xbd4b4c5a	-0.04963336
155	0xbc8999ff	-0.016797064
156	0x3d447d5e	0.047971122
157	0x3e852c25	0.26010242
158	0xbdba879a	-0.09107895
159	0xbd3e0cb0	-0.04639882
160	0x3e815379	0.25258997
161	0xbc97ac61	-0.018514814
162	0xbe953df7	-0.29148838
163	0x3d659558	0.05605063
164	0x3daad44d	0.083412744
165	0xbe0e1339	-0.1387452
166	0x3d8efb4a	0.06981523
167	0xbdf10a86	-0.11769585
168	0x3cff06ba	0.031131137
169	0x3dab8d3e	0.08376549
170	0xbc7b9310	-0.015354887
171	0xbe11062e	-0.14162514
172	0xbe249b5c	-0.1607489
173	0xbdc54be1	-0.096336134
174	0xbe2e40f2	-0.17016962
175	0x3e324dd6	0.17412505
176	0x3e1fd565	0.15608747
177	0x3d4bf6a1	0.04979575
178	0x3e38b503	0.180378
179	0x3c862b7c	0.016378157
180	0x3dc4392c	0.09581217
181	0x3da31348	0.07962662
182	0x3dd2c1a2	0.10290839
183	0xbbf5daaa	-0.0075028734
184	0xbe1ebc06	-0.15501413
185	0xbe24b8c9	-0.16086115
186	0xbddd40db	-0.10803386
187	0x3e4a8ec9	0.1978103
188	0x3d4990a0	0.04921019
189	0xbdd5b1cf	-0.10434305
190	0x3e327d44	0.17430598
191	0x3e149f90	0.14513993
192	0xbdb5c61f	-0.08875679
193	0x3ea0ee2b	0.31431708
194	0xbc9a5c52	-0.01884285
195	0xbe3bc0ec	-0.18335313
196	0xbe904b5e	-0.281825
197	0xbaff6a10	-0.0019486565
198	0x3ae58cf7	0.0017513324
199	0xbe6d0ad4	-0.23148662
200	0xbde14aed	-0.11000619
201	0x3e9b0d72	0.30283695
202	0xbd0c9b29	-0.03432766
203	0xbdbf10f4	-0.093294054
204	0x3bc0978b	0.0058774403
205	0xbd461493	-0.048359465
206	0xbd5261a4	-0.05136265
207	0xbd94afc7	-0.07260089
208	0xbc958a1d	-0.018254334
209	0x3e7dbb41	0.24778463
210	0x3c9bcad7	0.01901762
211	0x3b6e689a	0.0036378265
212	0x3e07420b	0.13208787
213	0x3deee63a	0.11665006
214	0xbae27b17	-0.0017279115
215	0xbcb3097f	-0.021855114
216	0x3cb55670	0.022135943
217	0x3dd20058	0.10253972
218	0xbd10468c	-0.03522353
219	0x3d0eea9a	0.034891702
220	0xbca4b334	-0.020104982
221	0x3c1b898f	0.009493246
222	0xbca16752	-0.019702587
223	0xbda620ed	-0.08111749
224	0xbe20efb3	-0.15716438
225	0x3e2b36ec	0.1672017
226	0xbe7bb120	-0.24579287
227	0x3e0f06b8	0.13967407
228	0xbe2eda16	-0.1707538
229	0xbd7d5be4	-0.06185521
230	0xbba99af2	-0.0051759416
231	0x3d17559d	0.03694688
232	0xbe59c2e3	-0.2126575
233	0xbd231679	-0.039816353
234	0xbe1406ea	-0.14455763
235	0xbdb3c085	-0.087769546
236	0xbe073d02	-0.13206866
237	0xbe1e5120	-0.15460634
238	0x3e8f0b88	0.27938485
239	0xbd9d40bf	-0.07678365
240	0x3df5e961	0.12007404
241	0xbda66029	-0.0812381
242	0x3d8beb54	0.06831995
243	0xbd378d63	-0.04481257
244	0x3d348779	0.04407451
245	0xbe01d1d0	-0.12677693
246	0xbc484ef1	-0.012225852
247	0x3ebb9eee	0.3664469
248	0xbeb3aaac	-0.3509115
249	0x3d826ad4	0.06368032
250	0xbe0be58a	-0.13661781
251	0x3d0c4405	0.034244556
252	0xbe7de954	-0.24796039
253	0xbdd60220	-0.10449624
254	0xbbe3936b	-0.006945064
255	0x3e530ffb	0.20611565

graph_rnn.bias_ih_l1 f4 [192]
0	0xbdb8e772	-0.0902852
1	0x3e8ba709	0.27275875
2	0xbaae7930	-0.0013311263
3	0xbe378323	-0.17921118
4	0x3e03830d	0.1284296
5	0x3d05acc0	0.03263545
6	0xbde758c1	-0.11296225
7	0x3dffe5c4	0.12494996
8	0x3e441985	0.1915036
9	0x3e5bd305	0.21467216
10	0x3d81ed9a	0.06344147
11	0x3c4e0269	0.012573817
12	0x3d361869	0.044456873
13	0x3d9bcd46	0.07607512
14	0x3cb25853	0.021770632
15	0xbd5fd732	-0.054648586
16	0x3c650055	0.01397713
17	0x3dcea52d	0.100900985
18	0x3e2ebc99	0.17064132
19	0x3e1805c7	0.14845954
20	0xbc6e30a7	-0.014537967
21	0x3e043ce3	0.12913851
22	0x3ded6d96	0.115931675
23	0x3dd568fc	0.10420415
24	0x3d9d76ac	0.076886505
25	0x3da1fa2d	0.07909045
26	0xbaa7a8bc	-0.0012791376
27	0x3da1bfba	0.07897897
28	0xbdf4c4db	-0.1195161
29	0x3db96c19	0.09053821
30	0x3b94d602	0.0045421133
31	0x3cc05f2a	0.023482878
32	0xbdf6acf3	-0.12044706
33	0xbd1b6a6b	-0.037943285
34	0x3ca8761e	0.020564135
35	0x3d817586	0.06321244
36	0xbdd8e820	-0.10591149
37	0xbbf65d7c	-0.0075184684
38	0x3de14a5b	0.1100051
39	0xbd851b00	-0.064992905
40	0x3d904d13	0.07045951
41	0x3e08a7e7	0.133453
42	0xbc43f4e2	-0.01196024
43	0xbd970a5e	-0.07375024
44	0x3e0e916b	0.1392266
45	0x3bacb3e5	0.0052704685
46	0x3bba1ef6	0.0056799604
47	0xbc71e08a	-0.014763007
48	0x3c62d0f7	0.013843766
49	0x3d276b8c	0.04087405
50	0x3e3d7e8f	0.1850531
51	0x3daa583a	0.08317609
52	0x3dd3dc7b	0.10344788
53	0xbe6b2f83	-0.22967343
54	0xbce9da16	-0.028546374
55	0x3d6b8c6b	0.05750696
56	0x3dddfe13	0.108394764
57	0xbd4607d4	-0.04834731
58	0x3e2d94b3	0.16951256
59	0xbd1c773f	-0.03819966
60	0x3e088064	0.13330227
61	0x3d46f330	0.048571765
62	0xbdc1b8e9	-0.09459097
63	0x3dc91cb9	0.098199315
64	0xbdb058ec	-0.086107105
65	0xbe8ebf6f	-0.27880427
66	0xbe4c0504	-0.19923788
67	0xbc7df1d8	-0.015499555
68	0xbe2a4ee1	-0.16631652
69	0xbe885641	-0.26628307
70	0xbea11a4e	-0.3146538
71	0xbd9bf998	-0.076159656
72	0xbeb744d9	-0.35794714
73	0xbd46873e	-0.04846882
74	0xbe17ce78	-0.14824855
75	0xbdc9cac4	-0.098531276
76	0xbe1f119c	-0.15534061
77	0xbda14ef6	-0.07876389
78	0x3b79a448	0.0038092304
79	0xbe94ddc1	-0.29075435
80	0xbdb246f6	-0.08704941
81	0xbe891aa7	-0.26778147
82	0xbd17ce3e	-0.037061922
83	0x3e44c951	0.19217421
84	0xbe880c04	-0.26571667
85	0xbd02b3bf	-0.0319097
86	0xbcf7e7fb	-0.030261984
87	0x3d3aa37f	0.04556608
88	0xbe8f673f	-0.28008458
89	0xbe79d590	-0.24397874
90	0x3dbc6d9a	0.09200592
91	0xbe188785	-0.14895447
92	0xbe303396	-0.17207178
93	0xbe3a61bf	-0.1820135
94	0xbea9f0d4	-0.3319155
95	0x3dfc7e19	0.12328739
96	0xbd30848b	-0.043095153
97	0xbdbeb9f6	-0.09312813
98	0x3dab5f53	0.08367791
99	0xbeae3c20	-0.34030247
100	0x3d3b04ee	0.045659
101	0xbdd701b2	-0.1049837
102	0xbed5fc14	-0.41793883
103	0xbe2ce193	-0.16882925
104	0xbd906185	-0.070498504
105	0xbdd981bb	-0.10620447
106	0x3da0be6a	0.078488186
107	0xbe705aeb	-0.23472182
108	0xbea8e305	-0.32985702
109	0xbce74a03	-0.028233534
110	0xbea7968c	-0.32732046
111	0xbdb30c2f	-0.08742558
112	0xbe9346af	-0.28764865
113	0xbe509e7a	-0.20372954
114	0xbe98019d	-0.2968873
115	0xbdbe0cb2	-0.09279765
116	0xbe4f5954	-0.2024892
117	0xbd93979b	-0.07206651
118	0xbe949977	-0.29023334
119	0x3d538f90	0.051650584
120	0xbc8783f3	-0.01654241
121	0xbe386948	-0.18008912
122	0xbe8f2d40	-0.2796421
123	0xbe367f71	-0.17822053
124	0xbeaa6fed	-0.33288518
125	0xb947e7bd	-0.00019064448
126	0x3d9ef674	0.07761851
127	0xbd6c7067	-0.057724383
128	0x3c8fb2b1	0.017541261
129	0x3d67f773	0.05663247
130	0x3d82e49a	0.063912585
131	0x3da1566f	0.07877814
132	0xbe177968	-0.14792407
133	0x3e443205	0.19159706
134	0x3dc5dc33	0.0966114
135	0xbd1467e6	-0.036231898
136	0xbd2d18cb	-0.042259973
137	0xbcf3b139	-0.029747592
138	0x3e36ebbe	0.17863366
139	0xbdad57c5	-0.08464006
140	0x3cd4b22e	0.025963869
141	0xbe2df2b5	-0.16987117
142	0x3e026cb6	0.12736782
143	0x3e2688fb	0.16263191
144	0x3e30e45e	0.17274615
145	0x3d847f7d	0.06469629
146	0x3d3043a6	0.043033265
147	0x3dad9b2b	0.084768616
148	0x3e5b2805	0.21401985
149	0xbe7aa6fb	-0.2447776
150	0xbe030f00	-0.12798691
151	0x3dcde0bf	0.100526325
152	0x3db3d751	0.08781303
153	0xbde53547	-0.111918025
154	0xbdacb36d	-0.0843266
155	0xbe2cbfac	-0.16869992
156	0xbd67af33	-0.056563567
157	0x3cf81105	0.030281553
158	0x3e3445d0	0.17604756
159	0xbc39fb1e	-0.011351375
160	0xbd6a4308	-0.057192832
161	0xbdcd0e8d	-0.10012541
162	0xbe568989	-0.20950903
163	0xbdf65fcd	-0.12029991
164	0x3dececfd	0.115686394
165	0x3d893c34	0.06700936
166	0xbe35e0ee	-0.17761585
167	0x3e28cb9c	0.16483921
168	0xbdbb62f9	-0.09149737
169	0xbdbb95a1	-0.09159399
170	0x3e8d255d	0.27567568
171	0xbddb5e21	-0.10711313
172	0x3e60f549	0.21968569
173	0x3e3730ec	0.17889756
174	0xbd2f3fef	-0.04278558
175	0xbdeb9715	-0.11503426
176	0xbdd8f970	-0.105944514
177	0x3e4e9773	0.20174961
178	0x3caa26ab	0.020770391
179	0xbd8e7889	-0.06956584
180	0xbdb3345d	-0.08750222
181	0x3db97000	0.090545654
182	0xbd6c4620	-0.057684064
183	0xbdac7c54	-0.08422151
184	0x3cb7724c	0.022393368
185	0x3e128b83	0.14311032
186	0xbe0e6c01	-0.13908388
187	0xbe0e4119	-0.1389202
188	0xbd3816bc	-0.044943556
189	0x3e02f431	0.12788464
190	0xbe100633	-0.14064865
191	0xbcb07fc8	-0.021545306
