graphrnn_v2/experiments/seeds/seed_experiment_seed_0/model_at_400.pt (torch, 420155 bytes, 43 tensors)

adj_embedding.0.weight f4 [32, 15]
0	0x3e8a4879	0.27008417
1	0xbeae56b3	-0.3405052
2	0xbf146d5b	-0.57979363
3	0x3f0ff6e3	0.56236094
4	0xbf244b78	-0.64177656
5	0xbef73e4d	-0.4828972
6	0x3f05781d	0.52136403
7	0xbe8179fd	-0.25288382
8	0xbe32c75a	-0.17458859
9	0x3e0aaae7	0.13541757
10	0x3e13c39d	0.1443009
11	0xbe70a654	-0.23500949
12	0xbe0f9974	-0.14023381
13	0x3df46aef	0.119344585
14	0xbdcd003b	-0.100098096
15	0xbe944c03	-0.28964242
16	0xbf1d0348	-0.6133313
17	0x3dcc03bf	0.09961652
18	0x3e901ae4	0.28145516
19	0xbe3bb0dc	-0.18329185
20	0x3ef0ab7a	0.47005826
21	0x3dc9ff5a	0.098631576
22	0xbd959cec	-0.07305321
23	0xbd3a68ec	-0.045510218
24	0x3cde0edb	0.027106693
25	0x3d6b431b	0.057437044
26	0x3e14463e	0.1447992
27	0xbe5c1f79	-0.21496381
28	0x3cc3eb8d	0.02391603
29	0xbea5512d	-0.32288495
30	0x3f0d003b	0.55078477
31	0x3c6afc4c	0.014342379
32	0xbe19a798	-0.15005338
33	0x3f0be57f	0.5464706
34	0xbe185d7c	-0.14879411
35	0xbed5c533	-0.41752014
36	0xbf05a0b8	-0.5219836
37	0xbd6c268b	-0.057653945
38	0x3c480db5	0.012210299
39	0x3e855e60	0.26048565
40	0xbdfb3a0f	-0.12266933
41	0xbbe2b047	-0.0069179866
42	0xbdc8a2fe	-0.09796713
43	0x3e125729	0.14291061
44	0x3ccc4c39	0.02493869
45	0x3e416bc7	0.1888877
46	0xbeb10b98	-0.34579158
47	0x3cf4723d	0.02983963
48	0x3e97bc5b	0.2963589
49	0x3eafb5aa	0.34318286
50	0x3c79b756	0.015241465
51	0xbe9d0ded	-0.30674687
52	0x3e7f58cc	0.24936217
53	0x3e9bebe8	0.3045342
54	0xbda36904	-0.079790145
55	0x3e9dbaf6	0.30806702
56	0x3e5fc927	0.21854077
57	0x3e265746	0.1624423
58	0xbc1a441f	-0.009415655
59	0x3d7187c5	0.05896737
60	0x3efecc68	0.49765325
61	0x3e878368	0.26467443
62	0x3e9c2e72	0.30504185
63	0x3d1c87f9	0.03821561
64	0xbe2c9104	-0.16852194
65	0xbdf57bdf	-0.11986517
66	0xbe85bd98	-0.2612121
67	0x3eb953f1	0.36196855
68	0x3ed3580f	0.4127812
69	0x3ed627ab	0.4182714
70	0xbd57fd31	-0.052731697
71	0x3ee42e6f	0.44566676
72	0x3ede2d7f	0.43394086
73	0x3ec1232c	0.37722147
74	0x3ecfb3f4	0.4056698
75	0x3db61e14	0.08892456
76	0x3e25ef63	0.162046
77	0x3ebc0302	0.36721045
78	0x3e7e9bb2	0.2486408
79	0x3e004498	0.12526166
80	0xbe8cb3bb	-0.27480873
81	0xbe0ecc53	-0.13945131
82	0x3e9a30db	0.301154
83	0x3e930141	0.28711894
84	0xbb5a8980	-0.0033346117
85	0x3eb9b644	0.3627187
86	0x3e6fab04	0.23405081
87	0xbd8d82b0	-0.06909692
88	0x3e97249c	0.29520118
89	0x3ca4463f	0.020053027
90	0x3e73999d	0.23789068
91	0xbf0279bb	-0.50966996
92	0xbe4e12d8	-0.20124376
93	0xbd165395	-0.036700804
94	0x3e88aeba	0.26695806
95	0x3d5e5c01	0.05428696
96	0xbe852e07	-0.2601168
97	0x3e35ccd7	0.17753921
98	0x3debb00c	0.11508188
99	0xbe87292c	-0.263986
100	0x3e5f0e46	0.21782789
101	0xbdb1161d	-0.08646796
102	0xbe354456	-0.1770185
103	0xbe048ad9	-0.12943591
104	0x3e05ad45	0.13054378
105	0x3dba2db6	0.0909075
106	0x3f0d99e6	0.55312955
107	0xbd62ec9f	-0.05540144
108	0xbd3fe85a	-0.046852447
109	0xbeb438e6	-0.3519966
110	0xbe1641a0	-0.14673471
111	0x3d64c317	0.055850115
112	0xbdb5376f	-0.08848464
113	0x3dcca3ed	0.09992204
114	0x3e2f3637	0.17110525
115	0xbe2c0633	-0.1679924
116	0xbe24ae37	-0.16082083
117	0xbe2db988	-0.16965306
118	0xbe36cdb3	-0.17851906
119	0xbd3fde88	-0.04684308
120	0xbed82c4b	-0.42221293
121	0xbf16e99a	-0.589502
122	0x3e2ada74	0.16684896
123	0xbea8e9a6	-0.3299076
124	0x3d94bc47	0.072624736
125	0x3f1f3f6b	0.62206143
126	0x3f10d240	0.56570816
127	0xbe188e5d	-0.14898057
128	0xbe1f852a	-0.15578142
129	0xbdd4beaa	-0.10387929
130	0xbd93a09f	-0.072083704
131	0xbe10caab	-0.14139812
132	0x3dc1b768	0.0945881
133	0xbdf0cc2d	-0.117576934
134	0x3d0eb21c	0.034837827
135	0x3de99bfd	0.114067055
136	0xbe6454f2	-0.22298029
137	0xbd96010d	-0.07324419
138	0x3ecd4c38	0.40097213
139	0xbe973ca3	-0.2953845
140	0xbe38f809	-0.18063368
141	0xbc986eb8	-0.018607482
142	0x3e22b365	0.15888746
143	0x3d468d93	0.04847486
144	0xbe16e3d4	-0.14735347
145	0xbd553dab	-0.052060764
146	0xbc921384	-0.017831571
147	0x3e3a89c0	0.1821661
148	0x3e436cff	0.19084547
149	0xbbf380bd	-0.0074311183
150	0xbe85578b	-0.26043352
151	0xbd9d7341	-0.076879986
152	0xbe5f8a89	-0.2183019
153	0x3e4e4879	0.20144834
154	0x3e192897	0.1495689
155	0x3ea6372c	0.32463968
156	0x3e7e955c	0.24861664
157	0xbe93c2b4	-0.28859484
158	0xbd84e215	-0.06488434
159	0xb6d3dca0	-6.313974e-06
160	0xbea5dc2a	-0.32394534
161	0x3db8371d	0.08994887
162	0xbdbb61be	-0.09149502
163	0xbca56b34	-0.02019272
164	0xbde7fa2f	-0.113270156
165	0xbe27271e	-0.16323516
166	0xbe16f149	-0.1474048
167	0xbe094f81	-0.13409235
168	0xbe36b977	-0.17844187
169	0xbbc56186	-0.0060235886
170	0xbdae75f8	-0.085185945
171	0xbe266f41	-0.16253377
172	0x3d914621	0.07093454
173	0x3e2b7f02	0.16747668
174	0x3e46f2b5	0.19428523
175	0x3cd9307c	0.026512377
176	0xbdb837b8	-0.089950025
177	0xbe76dec5	-0.24108417
178	0xbc82223e	-0.015885469
179	0xbe120232	-0.1425865
180	0x3efafa27	0.49018976
181	0xbe5c7f02	-0.21532825
182	0xbaf4c87d	-0.0018675473
183	0x3de3346f	0.11093985
184	0xbe0d7b8a	-0.13816658
185	0xbe6526ae	-0.22378036
186	0xbe094df9	-0.1340865
187	0xbdd0aed9	-0.101895995
188	0xbd482b1c	-0.048869237
189	0x3e170e52	0.14751557
190	0xbded89a2	-0.11598517
191	0xbe714dd3	-0.23564844
192	0x3d08a092	0.033356257
193	0x3dec0eab	0.11526235
194	0x3d40ba31	0.047052566
195	0x3f3fe328	0.7495599
196	0x3e41b088	0.18914998
197	0xbdd96baf	-0.10616242
198	0xbd70cbc6	-0.058788083
199	0xbe0bbd94	-0.13646537
200	0xbdd71940	-0.10502863
201	0xbd37ec19	-0.044902895
202	0x3e5a7cbf	0.2133665
203	0x3e040e5f	0.12896107
204	0x3dcc54a0	0.099770784
205	0x3d6724fd	0.05643176
206	0x3e9c7e8c	0.30565298
207	0x3e74a7a7	0.2389208
208	0x3e70ce30	0.23516154
209	0x3d5544d0	0.052067578
210	0xbe76c4f9	-0.24098577
211	0x3dd2e424	0.102974206
212	0x3e778a4b	0.24173848
213	0x3ec5b4dd	0.3861455
214	0x3e467bd0	0.19383168
215	0x3e28122d	0.16413184
216	0xbe740a0d	-0.23831959
217	0x3d0c0a83	0.034189712
218	0x3cf37e80	0.029723406
219	0x3e9997ce	0.2999863
220	0x3e861077	0.26184437
221	0x3e8a2863	0.26983938
222	0x3e87cf8c	0.26525533
223	0x3e4a47b2	0.19753912
224	0xbe1633f5	-0.14668258
225	0x3cfa9b96	0.030591767
226	0xbdc1871f	-0.094496004
227	0x3ea6e82c	0.32599008
228	0x3e02a040	0.12756443
229	0x3e83c319	0.25734785
230	0xbe3a012f	-0.18164514
231	0xbe92e664	-0.286914
232	0x3e0be502	0.13661578
233	0x3e5b0e41	0.21392156
234	0xbe206760	-0.15664434
235	0x3d246dd1	0.04014379
236	0xbe627bf0	-0.22117591
237	0x3e69b2ce	0.22822115
238	0x3e5c6eb0	0.21526599
239	0xbe29e490	-0.16591096
240	0x3f0f71b8	0.56032896
241	0xbbf1eb44	-0.007382782
242	0x3ecd625b	0.40114102
243	0xbd0634b7	-0.032765117
244	0xbd5a37bb	-0.053275805
245	0xbedf425d	-0.4360532
246	0xbd2e2512	-0.04251582
247	0x3e762cf7	0.2404059
248	0x3e121904	0.14267355
249	0xbe20c320	-0.15699434
250	0x3e8b9ff5	0.27270475
251	0x3e0ba6c9	0.13637842
252	0x3d937915	0.07200829
253	0xbe07d484	-0.13264662
254	0x3ea0232e	0.3127684
255	0xbea0c66e	-0.3140139

adj_embedding.0.bias f4 [32]
0	0x3cd3f5a3	0.025873965
1	0x3ee37045	0.44421592
2	0x3e0a4c16	0.13505587
3	0x3c171747	0.009221858
4	0x3e2b4da7	0.16728841
5	0xbe021016	-0.12701449
6	0x3e92bbb3	0.28658828
7	0x3ca19969	0.019726472
8	0x3eede0e6	0.46460646
9	0x3e85e5ca	0.26151878
10	0x3df7ed3a	0.12105794
11	0xbe36a985	-0.17838104
12	0x3dea03fa	0.1142654
13	0xbb43a8fa	-0.0029855357
14	0xbe2d74dc	-0.1693911
15	0x3e1fbca4	0.15599304
16	0x3d04c6dc	0.03241621
17	0x3cfaee70	0.030631274
18	0x3d874ae0	0.06606078
19	0x3d8c1dd5	0.068416275
20	0xbd387cc3	-0.045040857
21	0xbe3eabb3	-0.18620186
22	0x3e16effb	0.14739983
23	0x3e645c4c	0.22300833
24	0x3e06107e	0.13092229
25	0xbda37887	-0.07981973
26	0x3eb0d72d	0.34539166
27	0xbdaf9948	-0.08574158
28	0xbdeeec3b	-0.11666151
29	0x3e01c19d	0.12671514
30	0x3b0d7856	0.0021586618
31	0xbd4df4d6	-0.050282322

graph_rnn.weight_ih_l0 f4 [192, 32]
0	0x3eb5aaac	0.35481775
1	0xbd986b74	-0.0744237
2	0xbe0b50ef	-0.13605092
3	0x3d994470	0.074837565
4	0xbe63b3b5	-0.22236522
5	0x3cd4234b	0.025895735
6	0x3dd627b5	0.10456792
7	0xbd1591c1	-0.036515955
8	0xbde55144	-0.11197141
9	0x3cb22aa1	0.021748843
10	0x3e959e7c	0.29222476
11	0xbc72dba0	-0.0148228705
12	0xbe9d0cde	-0.3067388
13	0xbecde688	-0.40214944
14	0xbc31eebe	-0.010860143
15	0xbd6ec105	-0.058289547
16	0xbe9ab084	-0.30212796
17	0x3ea73c93	0.32663402
18	0xbe942a6d	-0.28938618
19	0xbe6630ad	-0.22479506
20	0xbe3762f8	-0.17908847
21	0x3ebc2b20	0.36751652
22	0x3e361d88	0.17784703
23	0xbcba222a	-0.022721369
24	0xbe2bd8cd	-0.16781922
25	0xbd84e0fa	-0.064882234
26	0x3bc7d4dc	0.006098373
27	0xbedddbe8	-0.43331838
28	0xbed030e6	-0.40662307
29	0x3eba6ade	0.36409658
30	0xbed8d31b	-0.4234856
31	0xbd8835f9	-0.066509195
32	0xbe662805	-0.22476204
33	0xbdb75760	-0.08952212
34	0xbd125a3f	-0.035730597
35	0x3d08043c	0.033207163
36	0x3e4e0e77	0.20122705
37	0x3dde1d6c	0.108454555
38	0x3de7e095	0.113221325
39	0xbd0f7576	-0.03502413
40	0x3e8eccc0	0.27890587
41	0x3d0794f9	0.033101056
42	0x3dacd1df	0.08438467
43	0x3c666a70	0.014063463
44	0x3d9f1bed	0.07768998
45	0x3e14cc9d	0.14531179
46	0x3df78a7b	0.1208696
47	0x3e39165f	0.1807494
48	0x3d4efe03	0.050535213
49	0xbdf3c24f	-0.11902296
50	0x3d28fd67	0.04125729
51	0x3e11d8b9	0.1424283
52	0x3c6271ac	0.013821047
53	0x3e27573b	0.1634187
54	0x3cf495e3	0.029856628
55	0x3e0339b7	0.12814985
56	0x3e04a74e	0.12954447
57	0x3cb88c60	0.022527874
58	0x3e0cbf29	0.13744797
59	0x3e3f5da0	0.18688059
60	0x3dc23907	0.09483533
61	0x3d611edd	0.054961074
62	0x3e96195f	0.29316232
63	0x3d35a7a0	0.044349313
64	0x3f0f1be6	0.55901945
65	0xbb82f496	-0.003996442
66	0x3dc59449	0.09647424
67	0xbdade211	-0.08490384
68	0xbd042adf	-0.032267448
69	0xba8118bb	-0.0009849289
70	0x3e75a6a8	0.23989356
71	0x3cb7c6ab	0.0224336
72	0xbd1ceebc	-0.038313612
73	0x3bf39efd	0.0074347244
74	0xbbb7da7d	-0.0056107626
75	0xbd81cb3c	-0.06337592
76	0x3e2c04b9	0.16798677
77	0x3eb63363	0.3558608
78	0xbe33d546	-0.17561826
79	0x3c375d52	0.011191683
80	0xbe0bd07b	-0.13653748
81	0x3dc24de2	0.09487511
82	0x3e763d20	0.24046755
83	0x3db0b2df	0.08627867
84	0x3cbbde75	0.022933224
85	0xbe9bb7a9	-0.3041356
86	0x3c6cc915	0.014452239
87	0x3e8eef9e	0.27917188
88	0xbe05fb2a	-0.13084093
89	0x3da11003	0.07864382
90	0xbe36b78b	-0.17843454
91	0xbdbc3dcb	-0.091914736
92	0xbccf141d	-0.025278145
93	0x3e5cd2f7	0.21564852
94	0xbd55a590	-0.052159846
95	0xbe8c5682	-0.2740975
96	0x3e133356	0.14375052
97	0x3d995bb9	0.07488198
98	0xbd8df335	-0.06931154
99	0x3e0c2505	0.13685997
100	0xbde3f1a9	-0.111300774
101	0xbe90039a	-0.28127748
102	0x3db10919	0.08644313
103	0xbde34553	-0.11097207
104	0xbe06a2dd	-0.13148065
105	0x3e1f5e85	0.155634
106	0x3d9cb3b3	0.076514624
107	0x3d7629e8	0.06009856
108	0x3db256b5	0.08707944
109	0xbda4422b	-0.08020433
110	0xbe401cf1	-0.1876104
111	0xbe458592	-0.19289234
112	0xbe3f773b	-0.18697827
113	0x3e519156	0.20465598
114	0xbe98a4c2	-0.298132
115	0xbe862eff	-0.2620773
116	0xbd0175f7	-0.03160664
117	0x3de9dccc	0.11419067
118	0x3d1f2415	0.03885277
119	0xbd4855e4	-0.048910037
120	0xbde6dd0f	-0.11272632
121	0x3df3a47e	0.11896609
122	0xbd2fbc2f	-0.042904075
123	0xbe46b740	-0.19405842
124	0xbcd9d176	-0.026589137
125	0x3a84e7b3	0.0010139853
126	0xbe48eb3b	-0.19620983
127	0xbebd57c1	-0.36981013
128	0x3ee48ad7	0.44637176
129	0xbda2ce8f	-0.07949554
130	0x3a8b2d07	0.0010618278
131	0x3be93dd0	0.0071179643
132	0xbc8b33fc	-0.016992562
133	0xbcb5d916	-0.022198241
134	0x3e561360	0.20905828
135	0x3e40a0ed	0.18811388
136	0xbe547990	-0.20749497
137	0x3df58f1f	0.11990189
138	0xbbb8c160	-0.0056382865
139	0x3c8c0fb8	0.017097339
140	0x3e2a22e4	0.16614872
141	0x3e2f2029	0.17102112
142	0xbe8a38e0	-0.26996517
143	0xbbfd206f	-0.0077248137
144	0x3d2ffb75	0.042964417
145	0xbd747635	-0.059683044
146	0x3e69dc2f	0.228379
147	0x3df6518b	0.12027272
148	0xb9e3d6ff	-0.00043456999
149	0xbe6a7f30	-0.2290008
150	0x3de93e9a	0.113888934
151	0x3da1a440	0.07892656
152	0x3d0fb019	0.03508005
153	0x3e0845b0	0.13307834
154	0xbe536355	-0.20643361
155	0x3d96d155	0.07364146
156	0x3abf2fbf	0.0014586373
157	0x3e7b5e34	0.24547654
158	0x3e2d08d3	0.16897897
159	0xbd5d4ff7	-0.05403134
160	0x3e5e5448	0.21711838
161	0xbe84f9ac	-0.25971735
162	0xbd225bae	-0.039638214
163	0xbd889e14	-0.06670776
164	0xbdbad66c	-0.09122929
165	0xbe778879	-0.24173154
166	0xbab4f2a1	-0.0013805219
167	0x3e1f1272	0.1553438
168	0xbe3988d7	-0.18118607
169	0x3dc11bb3	0.09429111
170	0xbdfaf188	-0.122531
171	0x3dc48b6e	0.095969066
172	0xbe14a6d8	-0.14516771
173	0xbc6080b2	-0.013702558
174	0xbe9efcb1	-0.31052163
175	0xbe20b264	-0.1569305
176	0xbf0b0f78	-0.5432048
177	0xbd27f365	-0.041003603
178	0xbd3af115	-0.04564007
179	0xbe873efb	-0.26415238
180	0x3d47c052	0.048767395
181	0xbdc58297	-0.09644049
182	0xbd08e3bc	-0.03342031
183	0x3da0c8a5	0.0785077
184	0xbc2f81d4	-0.010712106
185	0x3bab72c8	0.005232189
186	0xbec26bff	-0.3797302
187	0xbe301f77	-0.17199503
188	0x3db97541	0.090555675
189	0x3d5c7e85	0.053831596
190	0xbe99854c	-0.2998451
191	0xbeb9edbc	-0.3631419
192	0x3e6674ee	0.22505543
193	0xbd8d93f4	-0.069129854
194	0xbc1a0539	-0.009400659
195	0xbda31dc1	-0.079646595
196	0x3daa3526	0.083109185
197	0xbe2301b6	-0.15918621
198	0x3db8cbac	0.09023222
199	0x3e8b8ddb	0.27256665
200	0x3e17977a	0.14803877
201	0x3e141973	0.14462833
202	0x3d774997	0.060372915
203	0xbde4c2a8	-0.1116994
204	0x3d646a0d	0.0557652
205	0x3e7e7779	0.24850263
206	0xbd5d465a	-0.05402217
207	0xbd756b2f	-0.05991667
208	0xbe2ff44e	-0.17183039
209	0x3e150766	0.14553604
210	0x3e23701e	0.15960738
211	0x3df5c6fc	0.12000844
212	0xbac836d5	-0.001527513
213	0xbe13076b	-0.14358298
214	0x3e7d117e	0.24713704
215	0x3e05b79e	0.13058326
216	0xbe0aa58f	-0.13539718
217	0x3d9943db	0.074836455
218	0x3d4d0924	0.050057545
219	0xbdb2eea4	-0.08736923
220	0x3dde5380	0.1085577
221	0x3e4d5da7	0.20055257
222	0xbd16f61e	-0.03685581
223	0xbe3264b8	-0.17421234
224	0x3f019007	0.50610393
225	0xbe803459	-0.25039938
226	0x3e2dcc52	0.16972473
227	0xbdb35ac7	-0.08757549
228	0x3db864da	0.09003611
229	0xbe9ffe34	-0.3124863
230	0x3df3a6e6	0.11897068
231	0x3c10a2d9	0.008827888
232	0xbe2d0f7c	-0.16900438
233	0x3cf283c6	0.02960385
234	0xbd56c5e7	-0.052434828
235	0xbcbb4ee0	-0.022864759
236	0x3c8590a5	0.016304323
237	0x3ee0387a	0.43793088
238	0xbebcda1e	-0.3688516
239	0xbe2dc79b	-0.16970675
240	0xbdd402c2	-0.103520885
241	0x3ab1dd6f	0.0013570021
242	0x3e9bd4b0	0.30435705
243	0x3b0da0d1	0.0021610747
244	0x3e24ca0f	0.16092704
245	0xbe115ae3	-0.14194827
246	0x3c29bb55	0.010359605
247	0x3e2449c5	0.16043766
248	0xbb912ec7	-0.004430625
249	0x3e8bc46e	0.272983
250	0xbe80cd62	-0.25156695
251	0x3d766508	0.060154945
252	0x3ec46883	0.38360986
253	0x3ea1236d	0.3147234
254	0x3e259d8e	0.16173384
255	0xbe74c634	-0.23903733

graph_rnn.weight_hh_l0 f4 [192, 64]
0	0xbd406937	-0.04697534
1	0xbcb35efd	-0.02189588
2	0x3ddfe29b	0.109318934
3	0xbde5cc65	-0.11220626
4	0x3e37a4d9	0.17933978
5	0x3d093a59	0.03350291
6	0x3d16baf2	0.03679938
7	0x3d96f926	0.0737174
8	0xbdbe54c9	-0.09293515
9	0xbc14680b	-0.009058009
10	0xbd3d24df	-0.04617774
11	0x3e14161d	0.1446156
12	0x3cd4e3b2	0.02598748
13	0xbe057842	-0.13034156
14	0x3d9d1f2c	0.07671961
15	0xbddd450a	-0.10804184
16	0xbd9ce873	-0.07661524
17	0x3e8a1243	0.26967058
18	0xbdfabe53	-0.12243333
19	0x3e9d12cb	0.306784
20	0xbd4ff3a5	-0.050769467
21	0xbd89f49d	-0.067361094
22	0xbdff7a8f	-0.12474548
23	0x3e3f0663	0.1865478
24	0xbc953444	-0.018213399
25	0xbe7af052	-0.24505737
26	0xba93472a	-0.0011236419
27	0x3e85146a	0.25992137
28	0xbe334ec2	-0.17510512
29	0xbc8c22a6	-0.017106365
30	0xbd97c768	-0.074110806
31	0x3dd3b94c	0.10338077
32	0x3d496df6	0.049177133
33	0x3e7f09b6	0.24906048
34	0xbd2e0d3b	-0.042493086
35	0x3d53c17c	0.051698193
36	0xbc0e1c21	-0.008673699
37	0x3e3bd722	0.18343785
38	0xbd45a831	-0.048256103
39	0x3e145069	0.14483799
40	0x3d3a0cc8	0.045422345
41	0xbd5a6081	-0.05331469
42	0xbc07eae0	-0.008295745
43	0xb9b42470	-0.00034359423
44	0xbe0a9609	-0.13533796
45	0xbdf2c7fc	-0.1185455
46	0x3cc0dc86	0.023542654
47	0xbe326535	-0.1742142
48	0xbb93803c	-0.0045013707
49	0x3d1a88eb	0.03772823
50	0xbdde6b1d	-0.10860274
51	0x3d4b693b	0.049660902
52	0xbe370a40	-0.17875004
53	0x3c334d55	0.01094373
54	0x3e4a758c	0.19771403
55	0x3c5b9b6d	0.013403756
56	0xbe81f9e3	-0.2538596
57	0x3d7ca467	0.061680224
58	0xbd9a4dc7	-0.07534366
59	0x3dbc9925	0.092088975
60	0xbe1a853c	-0.15089887
61	0x3e1ce642	0.15322211
62	0xbdeab394	-0.11460033
63	0x3e59e2c3	0.21277909
64	0xbe858fa3	-0.2608615
65	0xbd1f66a6	-0.038916253
66	0x3c06bc8a	0.008223662
67	0x3d370a04	0.044687286
68	0x3d091bf8	0.03347394
69	0x3b0cc079	0.0021477027
70	0x3d2e40f4	0.042542413
71	0xbcba9b68	-0.022779182
72	0xbd3a7aac	-0.045527145
73	0xbdbb6b9e	-0.09151386
74	0xbc5d80b6	-0.013519457
75	0x3c7d77f5	0.0154704945
76	0x3dd41156	0.10354869
77	0xbcbd8c68	-0.02313824
78	0x3db44097	0.08801382
79	0x3dde4468	0.10852891
80	0xbccaa476	-0.024736624
81	0xbdaaf3c8	-0.08347279
82	0xbcd3b103	-0.025841242
83	0x3c5df320	0.013546735
84	0x3e125152	0.14288834
85	0x3ce3d0f0	0.02780959
86	0x3db3e6b6	0.08784239
87	0xbdae06d7	-0.08497398
88	0x3d811b40	0.06304026
89	0xbc4fdc7f	-0.012686848
90	0xbd46454b	-0.048405927
91	0x3d19d739	0.037558768
92	0xbd42db63	-0.047572505
93	0x3db6f212	0.0893289
94	0x3d3ac2f5	0.04559608
95	0x3df43fe0	0.11926246
96	0xbd3ab836	-0.045585833
97	0x3da3e122	0.08001925
98	0x3c12e5fa	0.0089659635
99	0xbe8799d6	-0.26484555
100	0xbdbfd192	-0.09366144
101	0x3de4fd85	0.111811675
102	0xbd26099a	-0.0405365
103	0xbc97b0fa	-0.018517006
104	0xbcc2a02d	-0.023758018
105	0xbb38c6aa	-0.0028194585
106	0x3cc644f9	0.02420281
107	0x3d94afce	0.072600946
108	0x3cce78ae	0.025204029
109	0x3e2b76fa	0.16744605
110	0x3e16ad1b	0.14714472
111	0xbc77f085	-0.015133028
112	0xbca14e0a	-0.019690532
113	0xbdc8d3db	-0.09806033
114	0xbe1e4a51	-0.15458037
115	0x3dc9f063	0.09860303
116	0xbe405537	-0.18782507
117	0x3db6f2a3	0.08932998
118	0x3e02d2c0	0.12775707
119	0x3d82dd5d	0.06389878
120	0x3dafb3cb	0.08579215
121	0x3e0abf3d	0.13549514
122	0xbd92073d	-0.07130287
123	0xbda7ce2b	-0.0819362
124	0x3e01c3e3	0.12672381
125	0x3d71bcf7	0.0590181
126	0xbcd87673	-0.026423668
127	0xbcef9b0d	-0.029248739
128	0x3c76b701	0.01505828
129	0x3e1acc66	0.15117034
130	0x3c6a51f1	0.014301763
131	0x3e71d1fd	0.2361526
132	0x3b0cc08a	0.0021477067
133	0xbdd3a3ec	-0.10334
134	0xbe4de039	-0.20105065
135	0xbdb48651	-0.08814681
136	0xbddf51ff	-0.109043114
137	0x3d6d13f0	0.057880342
138	0xbe010145	-0.1259814
139	0xbd9b2202	-0.07574846
140	0x3d37421d	0.044740785
141	0xbcdd9347	-0.027047766
142	0xbd9c64c3	-0.07636406
143	0xbc5b6db9	-0.013392859
144	0xbc2d4ce2	-0.010577412
145	0xbdc69f1d	-0.09698317
146	0xbd930e5d	-0.07180474
147	0x3e52e115	0.20593674
148	0x3dc49707	0.09599119
149	0xbe7051ad	-0.23468657
150	0x3dba21c1	0.09088469
151	0x3d9c0e6d	0.07619939
152	0x3e2c0bf6	0.16801438
153	0x3bcb1a39	0.0061981943
154	0xbe44d927	-0.19223462
155	0xbda7fe02	-0.08202745
156	0x3e5cb8e0	0.21554899
157	0xbd75da23	-0.060022485
158	0x3d6fa100	0.05850315
159	0xbdf556ce	-0.11979447
160	0x3d34dee8	0.044157892
161	0xbe5c18c9	-0.2149383
162	0x3c986e01	0.018607141
163	0xbdf51080	-0.11966038
164	0xbcc134a1	-0.023584666
165	0x3e0f17d7	0.13973938
166	0xbdcb929c	-0.09940073
167	0xbc9adc3e	-0.018903848
168	0x3e82c0fe	0.25537866
169	0x3cbf85d8	0.023379251
170	0xbe344975	-0.17606147
171	0x3d6ab08f	0.057297286
172	0x3e232801	0.15933229
173	0xbda8ffa7	-0.08251887
174	0x3dff4711	0.12464727
175	0x3e93149e	0.28726667
176	0xbe253049	-0.161317
177	0xbda09d8f	-0.07842552
178	0x3d118f37	0.03553697
179	0x3e06fd91	0.13182665
180	0xbd696ea4	-0.05699028
181	0x3e075610	0.13216424
182	0xbd17f8d8	-0.03710255
183	0xbdec96ba	-0.11552186
184	0x3d826d5c	0.06368515
185	0x3cba8721	0.022769513
186	0xbe1573ec	-0.14595002
187	0xbe519235	-0.2046593
188	0x3e7da2cc	0.24769133
189	0x3bc00bcf	0.0058607827
190	0xbdb29bb8	-0.08721107
191	0x3e023246	0.1271449
192	0x3e110b82	0.14164546
193	0x3dd4a684	0.10383323
194	0xbe147a7b	-0.14499848
195	0x3e5ac942	0.21365836
196	0xbdc06757	-0.093947105
197	0x3db88ea9	0.09011585
198	0xbdad29f3	-0.08455267
199	0x3e2dfba2	0.16990522
200	0xbd9a37b9	-0.075301595
201	0x3d8c0f9a	0.06838913
202	0x3eaf0172	0.3418079
203	0x3de7d7e8	0.11320478
204	0x3c998c74	0.018743731
205	0xbde60cfe	-0.11232947
206	0x3e207430	0.15669322
207	0xbd712a22	-0.05887807
208	0xbe44368c	-0.19161433
209	0x3de98393	0.11402049
210	0x3d15e0eb	0.03659145
211	0x3e55cc52	0.20878723
212	0xbcb4dd33	-0.022078132
213	0xbe02ae23	-0.1276174
214	0xbc06c08d	-0.008224619
215	0x3d1dddad	0.038541485
216	0xbdd70568	-0.10499078
217	0x3cd77741	0.026301982
218	0x3e6453b1	0.2229755
219	0x3d1830c4	0.03715588
220	0xbdb027db	-0.08601352
221	0x3c954556	0.018221539
222	0x3e0aae8a	0.13543144
223	0x3cdac4bf	0.026705144
224	0x3d4f470a	0.050604858
225	0xbd1ee146	-0.038789056
226	0x3d0a5758	0.033774704
227	0x3e368e56	0.17827734
228	0xbe05e01d	-0.13073774
229	0x3b9af8f7	0.004729386
230	0xbe5739e6	-0.2101818
231	0x3d51d144	0.051224962
232	0x3e17cff2	0.14825419
233	0xbd8db727	-0.06919699
234	0x3e5adb64	0.21372753
235	0xbe543108	-0.20721829
236	0xbe51bad0	-0.2048142
237	0xbe9029d1	-0.28156903
238	0xbe377d5a	-0.17918912
239	0x3d131726	0.035910748
240	0xbc99b95e	-0.018765148
241	0x3cb28cc5	0.02179564
242	0xbe0f3363	-0.13984446
243	0x3c9d4947	0.01919998
244	0x3d16fd7f	0.036862846
245	0xbe936ba3	-0.28793058
246	0xbd3e0638	-0.04639265
247	0x3d4d6861	0.05014837
248	0xbea2bfe8	-0.31787038
249	0x3ce135d5	0.02749149
250	0xbe491d92	-0.19640186
251	0xbdc739fd	-0.09727857
252	0xbdc1b7b7	-0.09458869
253	0x3e56f4a6	0.20991763
254	0xbd83f992	-0.06444086
255	0x3e6294a7	0.22127019

graph_rnn.bias_ih_l0 f4 [192]
0	0xbddcb8e0	-0.107774496
1	0x3e724c77	0.23661982
2	0x3cb4dd36	0.022078138
3	0xbe344383	-0.17603879
4	0x3d3f24f6	0.046666108
5	0xbdadfbec	-0.08495316
6	0x3d8012df	0.062535994
7	0xbbfd7adc	-0.0077355932
8	0x3e20de9d	0.1570992
9	0xbc2546df	-0.010087698
10	0xbe14bbbb	-0.14524738
11	0x3da8dec9	0.08245618
12	0x3d9bbfc5	0.076049365
13	0x3e10c6b9	0.14138307
14	0xbd26d153	-0.04072697
15	0xbd34e0ae	-0.044159584
16	0x3a1da4bd	0.00060136226
17	0x3d99bb2e	0.07506405
18	0x3e0d3fac	0.1379382
19	0x3d252d01	0.040326122
20	0xbe64967a	-0.22323027
21	0xbc39bf79	-0.011337155
22	0xbda52329	-0.08063347
23	0x3bb5797f	0.005538165
24	0x3e0f8ae6	0.1401783
25	0xbe258f30	-0.16167903
26	0x3d3ad82b	0.04561631
27	0xbc7377b9	-0.014860087
28	0xbdb04b74	-0.086081415
29	0x3cb068dd	0.021534378
30	0xbd508e0c	-0.050916716
31	0x3bba3965	0.0056831115
32	0xbe01d2da	-0.1267809
33	0x3aaff64d	0.0013424844
34	0x3c3a3492	0.011365073
35	0xbd831e79	-0.064022966
36	0xbd745a19	-0.059656236
37	0xbd6eb5c1	-0.058278803
38	0xbd3aed60	-0.045636535
39	0xbe138447	-0.14405929
40	0xbd9757cd	-0.073897935
41	0xbdee2aa5	-0.116292275
42	0xbe61e931	-0.22061612
43	0xbd30ac04	-0.043132797
44	0xbc89e4c3	-0.016832715
45	0x3d2bc930	0.041939914
46	0xbda3616f	-0.07977568
47	0xbbd211d7	-0.006410818
48	0xbd5c3f87	-0.053771522
49	0xbb9c0c94	-0.0047622416
50	0xbe941657	-0.28923294
51	0xbd44a2d3	-0.048006844
52	0x3da0e969	0.078570195
53	0xbde7ffff	-0.11328124
54	0x3dea8c67	0.11452561
55	0x3d9293c0	0.07157087
56	0xbc254ba2	-0.010088833
57	0xbe005a59	-0.12534465
58	0x3d252165	0.04031505
59	0xbd34617e	-0.04403829
60	0x3df16a02	0.117877975
61	0x3d734572	0.0593924
62	0xbdd41f90	-0.103575826
63	0xbdfd2cbd	-0.12362049
64	0x3cbc7243	0.023003703
65	0xbd9ae6a0	-0.075635195
66	0x3d9f4b3a	0.0777802
67	0xbe931d17	-0.2873313
68	0xbd6f48a9	-0.058418903
69	0xbe95043a	-0.29104787
70	0xbdb80ef9	-0.08987231
71	0x3d352803	0.04422761
72	0xbc5f5cc8	-0.013632961
73	0xbe9f1e6b	-0.31077895
74	0xbe2fa62a	-0.1715323
75	0xbd158781	-0.03650618
76	0xbe476c0e	-0.19474813
77	0xbe999c69	-0.30002144
78	0xbe1d7bc2	-0.15379241
79	0xbd313972	-0.043267675
80	0xbe643f06	-0.22289667
81	0xbdb55ca9	-0.08855564
82	0xbe4a5032	-0.19757155
83	0x3df531db	0.119724
84	0xbdfb5d80	-0.12273693
85	0xbec2c80e	-0.38043255
86	0xbea7364e	-0.3265862
87	0xbd36fb0d	-0.044673014
88	0xbe406bce	-0.18791124
89	0x3cf81cb2	0.03028712
90	0xbe1d7b8c	-0.1537916
91	0x3e5bfd4f	0.21483348
92	0xbe5dbdea	-0.21654478
93	0xbe4deaf5	-0.2010916
94	0xbd96e7ab	-0.07368406
95	0xbe4acbca	-0.19804302
96	0x3d9c2fb0	0.07626283
97	0xbde84f1d	-0.11343215
98	0xbd5a0c46	-0.05323436
99	0xbd9b3df9	-0.0758018
100	0xbe871358	-0.26381946
101	0x3dace8f9	0.084428735
102	0xbe0c8e01	-0.13726045
103	0xbd1a8217	-0.03772172
104	0xbe3b3bc4	-0.18284518
105	0xbe36f47b	-0.178667
106	0xbed67651	-0.41887143
107	0xbe6e1ccb	-0.23253171
108	0xbdd186fa	-0.10230823
109	0xbddadd65	-0.10686759
110	0xbeaaee63	-0.33385
111	0xbe9d15af	-0.30680606
112	0xbd1d409c	-0.038391694
113	0xbe363fdf	-0.17797802
114	0xbe22d1dc	-0.15900367
115	0xbdc771ea	-0.09738524
116	0xbe16bd44	-0.14720637
117	0xbd68cea6	-0.0568377
118	0xbbcff220	-0.006346002
119	0x3e27b235	0.16376574
120	0xbcc2745e	-0.023737129
121	0x3d017076	0.03160139
122	0x3d67b108	0.056565315
123	0xbe03a48c	-0.12855738
124	0xbe261550	-0.16219068
125	0xbd9eebc5	-0.07759813
126	0xbe1581e8	-0.14600337
127	0x3d16cd59	0.03681693
128	0x3d901eee	0.07037149
129	0xbccc012b	-0.0249029
130	0x3d990a8d	0.074727155
131	0x3a8be9a0	0.0010674484
132	0x3d83c559	0.064341255
133	0xbdbc9888	-0.092087805
134	0xbb8b573f	-0.004252344
135	0xbd44678d	-0.047950316
136	0xbdf82e3a	-0.12118192
137	0xbdfc7c5c	-0.12328407
138	0x39fa6e5a	0.00047765934
139	0xbdf758ad	-0.120774604
140	0xbde20e1a	-0.11037846
141	0xbd6a9904	-0.057274833
142	0xbded0bd5	-0.115745224
143	0x3dc129ae	0.09431778
144	0xbd0b6ee4	-0.0340413
145	0x3dbf6f38	0.09347385
146	0xba9fe49e	-0.001219887
147	0xbd77778b	-0.06041674
148	0x3d7f7bce	0.06237393
149	0x3c03336b	0.0080078645
150	0xbd70db14	-0.05880268
151	0xbd752f1e	-0.059859388
152	0xbd9acf12	-0.07559027
153	0x3d46852f	0.048466858
154	0xbd0e3667	-0.03471985
155	0x3daddc9c	0.084893435
156	0xbdc88799	-0.09791488
157	0x3da740c5	0.08166651
158	0x3d52774c	0.0513833
159	0x3e218e59	0.15776958
160	0xbe602d19	-0.21892203
161	0xbcd73b7d	-0.026273483
162	0x3dc6b7c1	0.09703017
163	0xbdc4ccec	-0.09609398
164	0x3d2a7ebf	0.04162478
165	0x3d899545	0.06717924
166	0xbd83d7c2	-0.06437637
167	0xbd329ba4	-0.04360546
168	0x3d7479e8	0.05968657
169	0x3dfcf9a2	0.12352301
170	0x3da6a3a7	0.08136683
171	0xbdbee24f	-0.09320509
172	0xbdf4c32d	-0.11951289
173	0xbd4b8486	-0.04968693
174	0xbce0077a	-0.027347315
175	0xbc6dcd94	-0.014514346
176	0x3cb7e208	0.022446647
177	0x3c854c30	0.01627168
178	0x3cdcaa78	0.026936755
179	0xbd24b4ac	-0.040211365
180	0xbd781ff9	-0.060577367
181	0xbc962aac	-0.018330894
182	0x3da6ba97	0.08141058
183	0xbddc6c09	-0.107627936
184	0xbe14af29	-0.14519943
185	0x3e0a7182	0.13519862
186	0xbd498ea4	-0.0492083
187	0x3e01dbc8	0.12681496
188	0xbde6a077	-0.11261075
189	0x3c091265	0.008366202
190	0xbd2962ef	-0.041354116
191	0x3e07109f	0.13189934

graph_rnn.bias_hh_l0 f4 [192]
0	0x3d1c56a6	0.038168572
1	0x3c602469	0.013680556
2	0x3dcf3fb0	0.10119569
3	0xbe15be9c	-0.14623493
4	0x3d65da65	0.05611648
5	0xbc80e5f3	-0.015734648
6	0x3db8a05a	0.0901496
7	0x3d03cbf4	0.032176927
8	0x3e568a3f	0.20951174
9	0xbdf935a2	-0.12168433
10	0xbc9aaef1	-0.018882247
11	0x3e57d061	0.21075584
12	0xbd43b9d8	-0.047784656
13	0x3ca36900	0.019947529
14	0xbd930bea	-0.07180007
15	0x3c217881	0.0098553905
16	0xbdb93f00	-0.090452194
17	0xbcd228b4	-0.025654174
18	0x3dd6309a	0.10458489
19	0xbd37ed1b	-0.044903856
20	0xbc3b5e85	-0.011436109
21	0x3d5328e2	0.05155266
22	0xbe3c5470	-0.18391585
23	0x3d17add4	0.03703101
24	0x3d1ddeba	0.038542487
25	0xbde147ff	-0.1100006
26	0xbe036ae5	-0.12833746
27	0xbe147d89	-0.14501013
28	0xbcc2a3a2	-0.023759667
29	0xbe139a74	-0.14414388
30	0x3d12a2a3	0.035799634
31	0xbcc1b5bd	-0.02364623
32	0x3cf91ef1	0.030410262
33	0xbe17f9f5	-0.14841445
34	0xbbcd5b6e	-0.006267003
35	0xbde9f1f8	-0.11423105
36	0xbd95993f	-0.0730462
37	0x3d1735cc	0.03691654
38	0xbdf8995d	-0.12138627
39	0xbda9b5f5	-0.08286659
40	0xbd8082ff	-0.062749855
41	0xbd4989c4	-0.04920365
42	0xbd74319b	-0.05961762
43	0xbe1a89e7	-0.15091668
44	0xbd88dfb1	-0.06683291
45	0xbbb6e436	-0.005581404
46	0x3cd47813	0.025936162
47	0x3e0a6fcf	0.13519214
48	0xbde091d1	-0.10965312
49	0xbd3cbbd6	-0.04607757
50	0xbea71868	-0.32635808
51	0xbe3e3077	-0.18573175
52	0xbdfd1709	-0.12357909
53	0xbe11cebf	-0.14239024
54	0x3e10fa96	0.14158091
55	0x3e11fc7b	0.1425647
56	0x3e0e33c8	0.1388694
57	0x3d8ef160	0.069796324
58	0xbd418964	-0.047250167
59	0xbda84cbf	-0.08217763
60	0x3dd87eee	0.10571085
61	0xbe094464	-0.13404995
62	0xbde84229	-0.11340744
63	0xbe49cc54	-0.19706851
64	0xbe030c4d	-0.12797661
65	0xbddc86f2	-0.10767926
66	0xbd4b9d01	-0.049710277
67	0xbebc8ebd	-0.3682765
68	0xbdac26a9	-0.08405811
69	0xbe342343	-0.17591576
70	0xbe68f4ba	-0.22749606
71	0xbde03501	-0.1094761
72	0x3d5fdcbd	0.05465387
73	0xbe8b9ff2	-0.27270466
74	0xbe987a8f	-0.29781005
75	0x3dacb5bc	0.084331006
76	0xbe062a79	-0.1310214
77	0xbe9d17b2	-0.3068214
78	0xbd52d195	-0.051469404
79	0xbe5513ee	-0.20808384
80	0xbd425e21	-0.04745305
81	0x3ca21857	0.019786997
82	0x3a5e0d05	0.0008470568
83	0xba964555	-0.0011464754
84	0xbda54b14	-0.08070961
85	0xbeb55dbd	-0.3542308
86	0xbe89a75c	-0.26885498
87	0xbe0b91c7	-0.13629828
88	0xbce300d9	-0.027710365
89	0xbcce64ea	-0.025194604
90	0xbe64d57c	-0.22347063
91	0x3e14bb89	0.14524664
92	0xbe2d010e	-0.16894934
93	0xbe4bc533	-0.19899444
94	0xbdf4d630	-0.119549155
95	0xbe34ef8f	-0.1766951
96	0x3e627c1e	0.2211766
97	0xbe7bf5e3	-0.24605517
98	0xbb09fd83	-0.0021055646
99	0xbd100a5b	-0.035166126
100	0xbe3ab2a2	-0.18232206
101	0xbba54d22	-0.0050445953
102	0xbc85379a	-0.016261864
103	0xbe1e88fc	-0.15481943
104	0xbe1af4a0	-0.1513238
105	0xbdc65f79	-0.09686179
106	0xbe9a0975	-0.3008534
107	0xbe80d657	-0.25163528
108	0xbd224e20	-0.039625287
109	0xbdb090e0	-0.08621383
110	0xbe70f1e5	-0.23529775
111	0xbea7936d	-0.32729664
112	0xbe4d1ac8	-0.20029747
113	0xbc652cb1	-0.013987706
114	0xbe8b408c	-0.27197683
115	0xbcf57f52	-0.029967938
116	0x3d68d517	0.056843843
117	0xbe2ab856	-0.16671881
118	0xbb6b5bbd	-0.0035912835
119	0x3dea153c	0.114298314
120	0xbda16889	-0.078812666
121	0xbcbb6fe7	-0.022880508
122	0x3db85c49	0.09001977
123	0x3db5c37e	0.08875178
124	0xbea3f0db	-0.32019696
125	0xbde38b4d	-0.11110554
126	0xbe2819db	-0.16416113
127	0xbe23a4ac	-0.15980786
128	0xbd8ef217	-0.06979769
129	0x3d274bf7	0.04084393
130	0x3d573cfa	0.052548386
131	0x3cd43990	0.025906354
132	0x3dfdd80b	0.123947226
133	0x3892ebe7	7.005763e-05
134	0x3d73bbb4	0.05950518
135	0xbd638524	-0.055546895
136	0xbdee8925	-0.11647252
137	0xbe005eaa	-0.12536111
138	0xbcbf83a5	-0.023378203
139	0xbdd15560	-0.10221362
140	0x3db248ae	0.08705269
141	0xbe087a3e	-0.13327882
142	0xbd8e4df5	-0.06948463
143	0x3d3971e7	0.04527464
144	0xbd9de062	-0.07708813
145	0x3d0f3bd6	0.034969173
146	0x3d42eaa4	0.047587052
147	0xbe0036c8	-0.12520897
148	0x3e33f7e3	0.1757503
149	0xbda5f421	-0.081032045
150	0x39902a08	0.00027497136
151	0x3c899d16	0.016798537
152	0xbe35f0a4	-0.17767578
153	0x3de8522a	0.113437966
154	0xbc701b03	-0.014654878
155	0x3cb0b527	0.021570755
156	0x3d878866	0.06617813
157	0x3d8e05e0	0.06934714
158	0x3d2f17ef	0.042747434
159	0x3e28438c	0.16432017
160	0x3bc3c93f	0.005974918
161	0x3d1cc781	0.0382762
162	0xbdc2892b	-0.09498819
163	0x3da71a02	0.081592575
164	0xbd55463e	-0.05206894
165	0x3c79f8be	0.015257059
166	0x3c4bd6eb	0.012441377
167	0xbd9d8ddd	-0.07693074
168	0xbcb5a58d	-0.022173667
169	0x3dca97e6	0.098922536
170	0x3d30272a	0.0430061
171	0xbdf1bd5c	-0.118036956
172	0x3d842d55	0.06453959
173	0x3dae4302	0.085088745
174	0xbc2f4257	-0.010696969
175	0xbdedf4e9	-0.116189785
176	0xbd759f45	-0.059966344
177	0xbd937679	-0.07200331
178	0x3da21821	0.079147585
179	0x3c615942	0.013754191
180	0xbdb1ce45	-0.08681921
181	0x3e05aa9f	0.13053368
182	0xbd827057	-0.063690834
183	0xbe0df9cf	-0.13864826
184	0xbcf133f2	-0.029443715
185	0x3e0f7545	0.14009579
186	0x3d4c99b2	0.049951263
187	0x3e1f6f3e	0.1556978
188	0xbdf5e7f5	-0.12007133
189	0x3d9aa158	0.07550305
190	0x3d96b823	0.0735934
191	0xbe1e1693	-0.15438299

graph_rnn.weight_ih_l1 f4 [192, 64]
0	0x3da158d3	0.0787827
1	0xbe4e02e6	-0.20118293
2	0xbc9e72d2	-0.01934186
3	0xbe8864b8	-0.26639342
4	0x3ddab013	0.10678115
5	0xbd15c4c7	-0.036564615
6	0xbd43c130	-0.04779166
7	0x3dcd4932	0.100237265
8	0xbe352a1d	-0.17691846
9	0xbd955d90	-0.07293236
10	0x3d7b9ae9	0.06142703
11	0x3d03a93d	0.03214382
12	0xbe9a4868	-0.30133367
13	0xbc9c5955	-0.019085566
14	0x3e736a78	0.23771083
15	0x3d4ded40	0.050275087
16	0x3f0da11a	0.55323946
17	0xbf01450d	-0.5049599
18	0x3e9ffbbd	0.3124675
19	0xbe0dc6da	-0.13845387
20	0x3d929955	0.07158152
21	0x3e1d5b6f	0.1536691
22	0xbeb60496	-0.35550374
23	0xbc9d6544	-0.019213326
24	0x3e2ded6f	0.16985105
25	0xbe184496	-0.14869913
26	0xbdc005a1	-0.09376074
27	0xbed1b8ab	-0.40961203
28	0xbd24429a	-0.04010258
29	0xbe819663	-0.25310048
30	0x3d91fad4	0.0712792
31	0x3d146a35	0.0362341
32	0x3dc7c1cc	0.09753761
33	0x3d751e23	0.059843194
34	0x3d822860	0.06355357
35	0xbe2d25cb	-0.16908948
36	0x3f1d52ce	0.61454475
37	0x3d0a7621	0.033804063
38	0x3deb035e	0.114752516
39	0xbf1230a4	-0.5710547
40	0xbdb8189b	-0.08989068
41	0xbe0e818a	-0.13916603
42	0x3df7a8c3	0.120927356
43	0x3ef2022e	0.47267288
44	0x3e937136	0.2879731
45	0x3d55c34e	0.05218821
46	0xbd8849d4	-0.066547066
47	0xbdec0155	-0.115236916
48	0xbd1b662f	-0.037939247
49	0x3e9a9c78	0.301975
50	0x3e648c84	0.22319227
51	0x3ec93c84	0.39303982
52	0x3df4d1f3	0.11954107
53	0x3df3a351	0.118963845
54	0x3d2f9dce	0.042875104
55	0x3dd983b0	0.106208205
56	0xbe1dc595	-0.15407403
57	0xbe1dd84f	-0.15414546
58	0x3d7b4ca3	0.061352383
59	0xbe38e81c	-0.18057293
60	0xbc9acb59	-0.018895792
61	0x3e9171a7	0.28407022
62	0xbdc0becd	-0.09411392
63	0xbc9e6cd5	-0.019339005
64	0x3dbfb2d5	0.093602814
65	0xbdd438e4	-0.103624135
66	0x3c56fdf5	0.0131220715
67	0xbd2dc5f5	-0.042425115
68	0xbe183d17	-0.14867054
69	0x3bfb28a6	0.007664758
70	0x3d9165d2	0.07099499
71	0xbe264a17	-0.162392
72	0x3d3fe022	0.04684461
73	0xbe5e27c3	-0.21694855
74	0xbd5b4ea2	-0.053541787
75	0xbe343f7a	-0.1760234
76	0xbeb85c96	-0.36008137
77	0x3c78b332	0.015179442
78	0x3e51138e	0.20417616
79	0x3debea37	0.11519282
80	0x3ecc393d	0.3988742
81	0xbf04fa49	-0.51944405
82	0x3e9c302b	0.305055
83	0x3ccfba21	0.025357308
84	0x3ea341ab	0.31886038
85	0x3e16f3b1	0.14741398
86	0xbdff7c15	-0.12474839
87	0x3e39f4de	0.18159816
88	0x3dd07c3b	0.10179945
89	0xbd3840b8	-0.044983596
90	0xbd3c4c66	-0.045971297
91	0xbec1b619	-0.37834242
92	0xbd8be964	-0.06831625
93	0x3e1647a3	0.14675765
94	0x3b51882c	0.0031972034
95	0xbceebc80	-0.029142618
96	0x3e6419b7	0.22275434
97	0x3e01a510	0.12660623
98	0xbeb3d86a	-0.35126048
99	0x3ddc9263	0.107701086
100	0x3ebfb5b2	0.3744331
101	0x3e85f179	0.26160792
102	0x3d8c40e0	0.068483114
103	0xbf215431	-0.6301909
104	0x3e0b710f	0.13617347
105	0x3de224f3	0.11042204
106	0x3daed02d	0.085358
107	0xbc009c6c	-0.007849794
108	0x3e9772b3	0.29579696
109	0xbe68f76a	-0.22750631
110	0xbbfb871f	-0.00767602
111	0xbe573fbe	-0.2102041
112	0x3e25a936	0.1617783
113	0x3e789c97	0.24278484
114	0x3e00a080	0.12561226
115	0x3d5ac7f0	0.05341333
116	0x3d488a46	0.048959993
117	0x3dd78c5e	0.1052482
118	0xbe96d5ec	-0.29460084
119	0xbe1ff39a	-0.1562027
120	0xbe1d0882	-0.15335277
121	0xba84360f	-0.0010086911
122	0x3eb7469a	0.35796052
123	0x3e3cabbf	0.18424891
124	0xbe3abd06	-0.18236169
125	0x3e0939c4	0.13400942
126	0x3d74bb46	0.05974891
127	0xbe0c321a	-0.13690987
128	0x3cf16d7c	0.029471152
129	0xbe0ae3b4	-0.13563424
130	0xbe0c0398	-0.13673246
131	0x3cc2db83	0.023786312
132	0x3d81b3f1	0.06333149
133	0x3e0fa641	0.14028265
134	0x3cc4de7f	0.024031876
135	0xbd79e2dc	-0.061007366
136	0xbe4f8b08	-0.2026788
137	0x3d8706b4	0.065930754
138	0xbd2771c0	-0.040879965
139	0x3ead1b2e	0.338098
140	0x3e4cebb0	0.20011783
141	0xbe04d897	-0.12973247
142	0xbd6cebda	-0.057842113
143	0xbdcbd877	-0.09953397
144	0xbd25c133	-0.040467452
145	0x3e3c2188	0.18372166
146	0xbe843da8	-0.2582829
147	0x3e5c67c8	0.21523964
148	0x3e12f5e9	0.1435162
149	0xbe1a4005	-0.15063484
150	0x3ccb7088	0.024833933
151	0x3e4d4b44	0.20048243
152	0xbdfa882f	-0.12233006
153	0x3e3cab12	0.18424633
154	0xbe01782d	-0.126435
155	0x3cdbc361	0.026826562
156	0xbee82366	-0.45339507
157	0x3de3b76f	0.111189716
158	0xbe8f699b	-0.28010258
159	0xbddd82ce	-0.10815965
160	0x3d963ef7	0.07336228
161	0x3ddcdcf1	0.10784329
162	0xbdec29ff	-0.115314476
163	0xbd8b65f0	-0.068065524
164	0xbe4275d7	-0.18990265
165	0xbc072e8a	-0.008250842
166	0xbdd088f7	-0.10182374
167	0x3d92826d	0.07153783
168	0x3d3492b4	0.04408522
169	0xbdc056d2	-0.0939156
170	0xbc6578a5	-0.014005815
171	0xbe7434bf	-0.23848246
172	0xbe1dd299	-0.15412368
173	0x3e3d7f53	0.18505602
174	0xbe09a38c	-0.13441294
175	0x3ddeb74c	0.10874805
176	0xbe04cd6b	-0.12968986
177	0x3d782dd3	0.060590576
178	0xbe08d453	-0.13362245
179	0xbe7c1589	-0.2461759
180	0x3c5287db	0.012849773
181	0x3d213595	0.03935774
182	0x3b112927	0.0022149773
183	0xbe6d7c3c	-0.23191923
184	0xbefb7679	-0.49113825
185	0xbe8e7108	-0.2782061
186	0x3d1df527	0.038563874
187	0x3eacb393	0.33730754
188	0xbe9e644a	-0.3093589
189	0xbe3bacb5	-0.18327601
190	0xbe5d2e82	-0.21599773
191	0x3d7f8368	0.06238118
192	0x3d7dd118	0.061966985
193	0xbda54a3f	-0.08070802
194	0xbe6700f4	-0.22558957
195	0xbd73c984	-0.059518352
196	0xbe38e332	-0.18055418
197	0x3e1c01f3	0.15235119
198	0x3c217c6c	0.009856325
199	0xbe334daf	-0.17510103
200	0xbd189296	-0.03724917
201	0x3d0b34cf	0.03398591
202	0x3eb07c67	0.3446991
203	0x3e1b4a24	0.15165001
204	0x3c70f9ec	0.0147080235
205	0xbed6bd62	-0.41941363
206	0xbe456288	-0.19275868
207	0x3d3b8862	0.04578436
208	0x3c19387c	0.009351846
209	0x3d16177b	0.036643486
210	0x3dd60846	0.10450797
211	0xbc554048	-0.013015814
212	0xbe530247	-0.20606337
213	0xbe4773c6	-0.19477758
214	0xbd6f2f2b	-0.058394592
215	0xbee5a103	-0.44849405
216	0xbccf9b43	-0.02534259
217	0xbf1f1732	-0.6214477
218	0x3e87be71	0.26512483
219	0x3d625180	0.055253506
220	0xbef937b7	-0.4867532
221	0xbd5a30a4	-0.053269044
222	0xbd2ff56e	-0.04295867
223	0xbe171169	-0.14752735
224	0xbe41143d	-0.18855377
225	0x3eab5336	0.33461922
226	0x3e0498c3	0.12948899
227	0x3e105c15	0.14097627
228	0xbd0402e1	-0.032229308
229	0xbe1145dd	-0.14186807
230	0xbd00fb57	-0.031489696
231	0x3ddc8c77	0.10768979
232	0xbe51d8c8	-0.20492852
233	0xbe1d5ce7	-0.1536747
234	0x3e4e82f0	0.20167136
235	0x3c3a5d30	0.011374757
236	0x3e11deb8	0.14245117
237	0xbe8eb238	-0.27870345
238	0xbebf6b75	-0.3738667
239	0xbe295195	-0.16535027
240	0xbe2bc9f2	-0.16776255
241	0xbe3a643b	-0.18202297
242	0xbd8e69b2	-0.069537535
243	0x3dfdd4c1	0.12394095
244	0x3e6aa887	0.2291585
245	0xbf11a851	-0.56897455
246	0x3d810721	0.06300188
247	0x3e14a992	0.14517811
248	0x3e61b37d	0.22041126
249	0xbe422da7	-0.18962727
250	0x3df3a6c4	0.118970424
251	0xbef63b64	-0.48092186
252	0xbe25b600	-0.16182709
253	0xbbe52e39	-0.0069940356
254	0xbd8713d3	-0.06595578
255	0x3ca1c69f	0.01974803

graph_rnn.weight_hh_l1 f4 [192, 64]
0	0x3c27ecf1	0.010249362
1	0xbe297eee	-0.16552326
2	0x3d288db9	0.041150782
3	0xbcacaa17	-0.021077199
4	0x3cbfa87f	0.023395775
5	0xbc6e3c85	-0.014540796
6	0xbe125b25	-0.14292581
7	0xbde661f0	-0.11249149
8	0xbdd91143	-0.105989955
9	0x3dab25d1	0.08356822
10	0xbde58bf7	-0.11208337
11	0xbdc78ec3	-0.097440265
12	0xbde369d5	-0.1110417
13	0x3a042fc5	0.00050425186
14	0x3c7781fb	0.015106673
15	0x3d2e0ac8	0.04249075
16	0x3d98a2ef	0.07452952
17	0xbc8bf610	-0.017085105
18	0xbdbe34ce	-0.092874154
19	0x3e8c85ba	0.27445775
20	0xbe3087b3	-0.17239265
21	0xbdd1eb5f	-0.102499716
22	0x3d9a452d	0.075327255
23	0x3d7964f7	0.060887303
24	0x3cdb16e5	0.026744315
25	0xbda2e4a3	-0.07953765
26	0x3d0b2672	0.03397221
27	0xbe07f499	-0.132769
28	0xbe5f1480	-0.21785164
29	0x3e16de09	0.14733137
30	0xbc4f82df	-0.012665479
31	0xbb03e3c5	-0.0020124775
32	0xbdcab644	-0.09898046
33	0x3d6b848a	0.057499446
34	0xbc6251c1	-0.013813437
35	0xbd10ca72	-0.035349317
36	0x3e6d3abe	0.2316694
37	0xbd1a7c8e	-0.03771644
38	0x3d9246ee	0.07142435
39	0xbe012965	-0.12613447
40	0x3bb83e61	0.0056226705
41	0xbd4a4936	-0.049386226
42	0x3dd739ab	0.10509046
43	0xbaee268b	-0.0018169446
44	0xbe0bd5c1	-0.1365576
45	0x3e0183c0	0.12647915
46	0xbe31d104	-0.1736489
47	0x3d89b5ed	0.06724153
48	0xbc81c5c6	-0.015841376
49	0x3cebb0cf	0.028770832
50	0xbde9733b	-0.113989316
51	0x3db0dc69	0.0863579
52	0x3cf34046	0.029693734
53	0x3d371f04	0.044707313
54	0xbd25f0ca	-0.040512837
55	0x3d0a0d7b	0.033704262
56	0x3e01de03	0.12682347
57	0x3e7286bb	0.23684208
58	0xbe42db52	-0.19028977
59	0x3b0747f0	0.0020642243
60	0xbd90931b	-0.07059308
61	0xbd1765ae	-0.036962204
62	0xbdce3745	-0.100691356
63	0xbe0aa93d	-0.13541122
64	0x3e4c9151	0.19977309
65	0xbddb21dc	-0.106998175
66	0x3def603a	0.11688276
67	0x3e48b11a	0.19598809
68	0xbe62c3fb	-0.22145073
69	0xbe0d9b7a	-0.13828841
70	0x3df12eb7	0.11776488
71	0xbb3b7127	-0.002860138
72	0x3dfe5fae	0.12420593
73	0xbe88a3e6	-0.26687545
74	0x3dbcf219	0.09225864
75	0x3e65ba92	0.22434452
76	0x3bbb76f6	0.0057209684
77	0xbc0dfa3b	-0.008665617
78	0xbba7f32a	-0.005125423
79	0x3df3bb82	0.11900999
80	0xbb786b1c	-0.003790564
81	0xbe1f9ae5	-0.15586431
82	0xbd1882d4	-0.037234142
83	0x3e393af6	0.18088898
84	0xbd7bb3c5	-0.06145074
85	0xbe9099ca	-0.28242332
86	0x3a5e2afa	0.0008475032
87	0xbcb33f42	-0.02188075
88	0xbd4edb30	-0.050502002
89	0xbde9e6db	-0.11420985
90	0xbe837765	-0.25677028
91	0xbe119bca	-0.14219585
92	0xbe15c301	-0.1462517
93	0x3ca23d7d	0.01980471
94	0xbd063e3e	-0.032774203
95	0x3e11eddf	0.14250897
96	0x3d7afdfc	0.061277375
97	0xbe539e04	-0.20665747
98	0x3c394c9d	0.01130977
99	0xbce929a3	-0.028462237
100	0x3c882bff	0.016622541
101	0x3d7b11b9	0.0612962
102	0xbd18369a	-0.037161447
103	0x3ce67d31	0.028135868
104	0x3b83740f	0.004011638
105	0x3c9bdf42	0.019027356
106	0x3e8a13e5	0.26968303
107	0xbe6a66ba	-0.2289075
108	0x3dc305e2	0.095226064
109	0x3e5805e3	0.21095996
110	0xbdffa5d2	-0.124827996
111	0xbe2be516	-0.16786608
112	0x3db28073	0.08715906
113	0x3d569bfe	0.05239486
114	0x3d553370	0.052051008
115	0xbded00ba	-0.11572404
116	0xbb5c8271	-0.0033647085
117	0x3c185bc6	0.009299224
118	0xbd588b39	-0.052867148
119	0xbd440cc5	-0.04786374
120	0xbd2829b9	-0.041055415
121	0xbd9a875e	-0.075453505
122	0x3d4e4f5b	0.050368648
123	0xbe0f435e	-0.13990542
124	0x3e4530f7	0.1925696
125	0xbd7b1509	-0.061299358
126	0xbcbf542f	-0.023355572
127	0xbc932eca	-0.017966647
128	0x3de171c6	0.11008029
129	0xbe37f628	-0.17964995
130	0x3d8002d4	0.062505394
131	0x3e16f208	0.14740765
132	0x3d81d33d	0.06339119
133	0x3d9fc34a	0.0780092
134	0xbd3829cb	-0.044961732
135	0xbe0ffa5e	-0.14060351
136	0xbdc0d421	-0.094154604
137	0x3e95df8c	0.29272115
138	0x3e65cc67	0.22441255
139	0x3d99c4fb	0.07508274
140	0x3c99ded2	0.018783007
141	0xbdaafbb3	-0.08348789
142	0xbde9927b	-0.11404892
143	0x3e02f4e3	0.1278873
144	0xbd07274b	-0.032996457
145	0xbdc2461b	-0.09486028
146	0xbdc2a93e	-0.09504937
147	0x3e096fee	0.13421604
148	0xbe2e2772	-0.17007235
149	0xbdb5f814	-0.08885208
150	0x3e2c68f5	0.16836913
151	0x3e20d8ab	0.15707652
152	0x3e187297	0.14887463
153	0xbcbc7f9e	-0.023010071
154	0xbd34aa73	-0.044107866
155	0xbc74de49	-0.014945575
156	0x3db530eb	0.08847221
157	0x3eae0700	0.33989716
158	0xbde6124a	-0.11233957
159	0xbd607b52	-0.054805107
160	0x3eab5d31	0.33469537
161	0xbd86431c	-0.06555769
162	0xbed0f6c9	-0.40813282
163	0x3d771fc0	0.060333014
164	0x3cae5c82	0.021284346
165	0xbe3a20d4	-0.18176585
166	0x3dd756ce	0.105146036
167	0xbddba12e	-0.10724102
168	0xbd7b2bf2	-0.061321206
169	0x3e14961f	0.14510392
170	0xbc1cf0ff	-0.009578942
171	0xbe02332e	-0.12714836
172	0xbe0b71a0	-0.13617563
173	0xbdd92ff3	-0.10604849
174	0xbe2d20b5	-0.16907008
175	0x3d002896	0.031288706
176	0x3e164946	0.14676389
177	0x3c62278e	0.013803376
178	0x3e36e594	0.17861015
179	0xbd10b488	-0.035328418
180	0x3de64c26	0.11244993
181	0x3dd9b1e2	0.106296316
182	0x3e1772b6	0.14789852
183	0x3d7db647	0.06194141
184	0xbe74641a	-0.2386631
185	0xbe0b4af9	-0.13602819
186	0xbe15a5d9	-0.14614047
187	0x3e6e23be	0.23255822
188	0x3d8a4daa	0.067530945
189	0xbe141a1c	-0.14463085
190	0x3e2283eb	0.15870635
191	0x3dc24ab5	0.094869055
192	0xbd094a6d	-0.033518244
193	0x3ea8e2ef	0.32985637
194	0xbdba85e1	-0.091075666
195	0xbe601aab	-0.21885173
196	0xbec8cde5	-0.39219585
197	0xbd5c6962	-0.05381144
198	0x3d501353	0.05079968
199	0xbe8177dc	-0.25286758
200	0xbe00c215	-0.12574036
201	0x3eacea5d	0.33772555
202	0xbc6e0a64	-0.0145288445
203	0xbd366b20	-0.044535756
204	0x3d15aeda	0.036543705
205	0xbd72e18b	-0.059297126
206	0xbd9ed142	-0.077547565
207	0xbd62f51d	-0.05540954
208	0xbc0ec0d4	-0.008712966
209	0x3e784f62	0.24249032
210	0x3d84f232	0.064915076
211	0x3dff3a8c	0.12462339
212	0x3e148cbb	0.1450681
213	0x3d511b7a	0.051051594
214	0x3d8f3c15	0.069938816
215	0x3c0efca3	0.0087272255
216	0x3e1b19fd	0.15146632
217	0x3d7d2afa	0.061808564
218	0xbe182b05	-0.1486016
219	0xbc7f98e0	-0.015600413
220	0xbd663e73	-0.0562119
221	0x3b92ba63	0.0044777854
222	0x3ca32f78	0.019920096
223	0xbc9db454	-0.019251026
224	0xbe76d8a2	-0.24106076
225	0x3e54b65d	0.20772691
226	0xbeb52440	-0.3537922
227	0x3dd398b7	0.103318624
228	0xbe02da4b	-0.12778585
229	0xbd3af2bd	-0.04564165
230	0xbd39dc9d	-0.04537641
231	0x3dd98458	0.10620946
232	0xbe89d342	-0.2691899
233	0xbdf327b1	-0.11872805
234	0xbdccb67d	-0.099957444
235	0xbe2a0d3c	-0.16606611
236	0xbe285771	-0.16439606
237	0xbdcca46a	-0.09992297
238	0x3e8b40e2	0.2719794
239	0xbe129fac	-0.14318722
240	0x3e4152ca	0.18879238
241	0xbdf487b5	-0.119399466
242	0x3d35fe4f	0.04443198
243	0xbdb55472	-0.08853997
244	0xbabf63b3	-0.0014601856
245	0xbdacc82b	-0.084366165
246	0xbd7f1ebf	-0.06228518
247	0x3ec9deb4	0.39427722
248	0xbea44de9	-0.3209069
249	0x3cec0f47	0.028815879
250	0xbe784a4f	-0.24247096
251	0x3cfe6e52	0.031058464
252	0xbe5c5f55	-0.21520741
253	0xbda16ca3	-0.07882049
254	0x3c224383	0.009903791
255	0x3e64a8a5	0.22329958

graph_rnn.bias_ih_l1 f4 [192]
0	0xbd958a33	-0.0730175
1	0x3e9fe189	0.31226757
2	0xbbfab25c	-0.0076506566
3	0xbe0f3539	-0.13985147
4	0x3e0e39fe	0.1388931
5	0x3d27aa97	0.04093417
6	0xbde54533	-0.11194839
7	0x3e09c461	0.13453819
8	0x3e48919b	0.19586794
9	0x3e4519ff	0.19248198
10	0x3d97253b	0.07380148
11	0x3b83ac75	0.004018361
12	0x3d051131	0.032487098
13	0x3dc02872	0.09382714
14	0x3cada79e	0.02119809
15	0xbc50a2f2	-0.012734162
16	0x3cb3c437	0.021944148
17	0x3df30a63	0.118672155
18	0x3e1db0cc	0.15399474
19	0x3e294acb	0.16532438
20	0xbb0510ab	-0.0020304124
21	0x3de90450	0.11377776
22	0x3e26d176	0.1629084
23	0x3d888fd7	0.0666806
24	0x3df9b113	0.12191977
25	0x3cee250e	0.029070403
26	0x3acf1ffa	0.0015802376
27	0x3d9d973b	0.076948605
28	0xbdf1a2d2	-0.11798634
29	0x3dc5da5e	0.09660791
30	0x3d811997	0.06303709
31	0x3d5115bb	0.051046114
32	0xbdfb0c19	-0.12258167
33	0x3c595c80	0.013266683
34	0x3cbed174	0.023293234
35	0x3d0bfc6a	0.034176268
36	0xbdb5705f	-0.08859324
37	0xbc0eed80	-0.008723617
38	0x3e05b28f	0.13056396
39	0xbc0f0428	-0.008729018
40	0x3d5e4f37	0.054274764
41	0x3de99bbd	0.11406658
42	0x38d1f470	0.00010011427
43	0xbda0ad79	-0.07845587
44	0x3e22078d	0.15823193
45	0x3c8e6449	0.017381804
46	0x3c77623d	0.015099105
47	0x3d40cbea	0.047069468
48	0x3cb1806e	0.021667685
49	0x3d671a58	0.056421608
50	0x3e69fd7e	0.22850606
51	0x3e00f4ba	0.12593356
52	0x3e0cdb78	0.13755596
53	0xbe81d708	-0.25359368
54	0xbd981248	-0.07425362
55	0x3d8083ff	0.06275176
56	0x3df2ac75	0.118493
57	0xbceea0b6	-0.029129367
58	0x3e4e9ab7	0.20176207
59	0xbd299e2f	-0.04141062
60	0x3e4ad9d0	0.19809651
61	0x3da46915	0.08027855
62	0xbdbc6a6b	-0.09199985
63	0x3dbdd6d5	0.092694916
64	0xbdc5f2db	-0.09665462
65	0xbe95037a	-0.29104215
66	0xbe552ccd	-0.20817871
67	0xbd1f075d	-0.03882538
68	0xbe3755ac	-0.17903775
69	0xbec2acee	-0.3802256
70	0xbeb19bbd	-0.3468913
71	0xbdb72aee	-0.08943735
72	0xbebecbcf	-0.3726487
73	0xbdb08d34	-0.08620682
74	0xbe1f8eb7	-0.15581785
75	0xbe167251	-0.14692046
76	0xbe1d7570	-0.1537683
77	0xbde311f0	-0.11087406
78	0xbc399f07	-0.011329419
79	0xbec1059e	-0.37699598
80	0xbdab8ad3	-0.08376088
81	0xbe9a7019	-0.3016365
82	0xbd211615	-0.0393277
83	0x3e515c14	0.20445281
84	0xbe8d9036	-0.27649087
85	0xbd8705cd	-0.06592903
86	0xbd69f709	-0.057120357
87	0x3cb96c11	0.022634538
88	0xbe8c5c4e	-0.27414173
89	0xbe917e70	-0.28416777
90	0x3e149612	0.14510372
91	0xbde8042e	-0.11328922
92	0xbe646150	-0.22302747
93	0xbe605499	-0.21907271
94	0xbec254a2	-0.37955195
95	0x3dea9ece	0.11456071
96	0xbcdb1f0e	-0.026748206
97	0xbdcaf9d4	-0.09910932
98	0x3d653f2c	0.05596845
99	0xbebb6fe3	-0.366088
100	0x3d6e9e89	0.05825666
101	0xbdbca2f5	-0.09210769
102	0xbefa320c	-0.48866308
103	0xbe46cfaf	-0.19415163
104	0xbe0c09dc	-0.13675636
105	0xbe14a152	-0.14514664
106	0x3d81e704	0.06342891
107	0xbe691c7e	-0.22764775
108	0xbed27785	-0.4110681
109	0xbc462893	-0.012094635
110	0xbe941c24	-0.2892772
111	0xbdacd117	-0.08438318
112	0xbea343ee	-0.31887764
113	0xbe853dd5	-0.26023737
114	0xbea75dc3	-0.32688722
115	0xbdc6c91c	-0.09706327
116	0xbe9ce659	-0.3064449
117	0xbe04a3d3	-0.12953119
118	0xbe9309c9	-0.28718403
119	0x3dc4bca6	0.09606294
120	0x3c9bb208	0.01900579
121	0xbe210913	-0.15726118
122	0xbeb8b217	-0.36073372
123	0xbe592ac7	-0.21207725
124	0xbedccbb6	-0.4312417
125	0xbcb4dbe5	-0.02207751
126	0x3d888b49	0.066671915
127	0xbd0b6606	-0.034032844
128	0x3cf72a4b	0.030171534
129	0x3d1ddacc	0.03853874
130	0x3d7011e1	0.0586108
131	0x3dc3845b	0.09546729
132	0xbe2fcc6e	-0.17167827
133	0x3e378127	0.17920361
134	0x3dab2edc	0.08358547
135	0xbd551811	-0.052024905
136	0xbd03afbc	-0.032150015
137	0xbd050037	-0.032470908
138	0x3e36489f	0.1780114
139	0xbd9cdae3	-0.07658937
140	0x3d38721c	0.0450307
141	0xbe39b41f	-0.18135117
142	0x3dead043	0.11465504
143	0x3e1fd23d	0.15607543
144	0x3e72a8f5	0.23697264
145	0x3d83e6cf	0.064405076
146	0x3d69e16a	0.057099737
147	0x3ddd1544	0.10795072
148	0x3e69ddcc	0.22838515
149	0xbe8b6756	-0.27227277
150	0xbdcb66d0	-0.09931719
151	0x3d900610	0.07032406
152	0x3d9df553	0.077128075
153	0xbdd61d9b	-0.104548655
154	0xbdbd891f	-0.092546694
155	0xbe3c9387	-0.18415652
156	0xbd3675ed	-0.044546057
157	0x3d0eb726	0.034842633
158	0x3e2e4bc3	0.17021088
159	0x3c29e87d	0.010370371
160	0xbd915706	-0.070966765
161	0xbdab4929	-0.083635636
162	0xbe793f4a	-0.24340549
163	0xbe13f40a	-0.14448562
164	0x3e07490a	0.13211456
165	0x3d58e5c7	0.052953508
166	0xbe450ace	-0.19242403
167	0x3e6524bd	0.22377296
168	0xbda48d71	-0.0803479
169	0xbd91c640	-0.07117891
170	0x3e897af1	0.2685161
171	0xbdf036a6	-0.11729173
172	0x3e5e6667	0.21718751
173	0x3e51abbd	0.20475669
174	0xbda0806b	-0.07836994
175	0xbe035674	-0.12825948
176	0xbdbdd197	-0.09268492
177	0x3e666639	0.22499932
178	0x3be8e2f6	0.007107134
179	0xbd6221c7	-0.055207994
180	0xbe0e8d0a	-0.1392099
181	0x3de1b93e	0.1102166
182	0xbd763660	-0.06011045
183	0xbdbf3083	-0.09335425
184	0x3d028780	0.031867504
185	0x3df593bf	0.11991071
186	0xbdd8e2cc	-0.10590133
187	0xbe0fea00	-0.14054108
188	0xbd38fdbd	-0.04516386
189	0x3e1101e3	0.14160876
190	0xbdf7d0ae	-0.12100349
191	0xbb3359ef	-0.0027366837
