graphrnn_v2/experiments/structures/k_regulars/vary_m/3_regular_vary_m_32_graphrnn_s/model_at_1400.pt (torch, 407571 bytes, 22 tensors)

embedding.0.weight f4 [32, 32]
00000000: cb75 dcbe af02 94be f6fa b7be 04d2 64be
00000010: f5d2 54be 2259 093a 8f9b 803b 77b4 d33d
00000020: 596a 023d 6b97 843d 4860 093e a95e 813e
00000030: b25f 85ba 3e20 7cbd fa25 953d 1e2b 9d3d
00000040: c702 10bc fc1e 8e3c 3dcd f43c cab8 fabc
00000050: fa19 3bbd a180 e5bd 5260 e33c 56be 143e
00000060: b393 01be becf 85bd a2ca 303e fa5b 333d
00000070: eda5 1ebe 5585 19be 2430 43bd 5a84 373d
00000080: 966b 54bb 5cf1 dabc c2fd 8a3d b1bc 8e3e
00000090: ada6 473d e144 763d 2170 3b3d 0042 53bd
000000a0: 5ddd 62bd 43e0 643e 537e 0c3f 0897 193f
000000b0: dcff 5f3f c96e 2a3d 1b8a 75bb 2eae 83be
000000c0: 4880 0fbe 5300 56bc d84b 91be b747 1abe
000000d0: 42a6 3a3b 2424 87bd 4347 a8bc 3746 8cbe
000000e0: b5b2 0abe c779 84be fd28 1bbd 1b89 90be
000000f0: fbbc 67bd 96f1 52be c89e 6ebe 0fcb 60be
00000100: c475 f7be 5b02 413e 8a80 d53e 0f66 b73d
00000110: 954b d9be 44fc f6be 0ace 19bf 339f 1abf
00000120: e1ba 1abf d6b2 e1be c53f f0be deeb c7be
00000130: e8f9 73be e693 b0bc eba3 153e ba19 1d3e
00000140: a018 2abd 044c aebd d379 b93d eccd 5abd
00000150: 56fc 6dbd b96e 823d bd73 23be a42a 88bd
00000160: 2d2c 0bbe 9701 a4bd 70dd 023e d1ad 11be
00000170: 3a5f 19bd 0ce0 843d 46db 1c3d e50b 203e
00000180: 81b4 213e 906d ad3d 71a8 d93d f2de b73e
00000190: 7679 af3e 8097 0cbb 9add 94bb c927 0abe
000001a0: 4746 2a3e 9293 76bc 5328 103e b094 a43d
000001b0: 0634 b4bd 4ef9 1d3e 8766 843e 58a7 073d
000001c0: f453 acbd d219 703e c35d 263e da1e 293e
000001d0: fa44 363d 1ee9 f53d 7c26 97bd d9b7 603e
000001e0: f3c8 9cbd f5aa db3b 76a5 063d 9516 b13d
000001f0: 8ea0 373e 90a3 d1ba 7d8d 773e 3ff9 7bbd
00000200: 5c7c c23c 7bd6 c23c d6d6 553e cbe7 a43e
00000210: 66a7 a03e a777 a53d be30 0f3e cfc2 bd3d
00000220: 54cf 023d 3950 56bd 051f b53c bc45 313c
00000230: 5b38 483c 1449 893e 349c 833e 3b42 983d
00000240: f75b 993e c5ee d33d 38d5 ff3d 4926 333e
00000250: 7c03 523e d57f 0a3e 1a3f a43e 18fa e03c
00000260: 610a ba3d 95a8 14bc ca49 d63d 19fd 843e
00000270: 462d 333e 62bd a23e 7620 eb3d 5c86 81bc
00000280: cd98 f93e d6bf 823e 9f09 643e 8155 043e
00000290: 3436 fd3d 111a be3d 4ef7 e73d da14 8a3e
000002a0: 4dd7 913e 5ee3 c63d a381 ff3d e32d 253e
000002b0: 398b 50bc 577b 993e ad65 0abe 7246 52be
000002c0: 1235 f2bd 9567 7dbe a462 3cbe e661 20be
000002d0: d698 13be 9b2b 45be bbfc 75be afa9 b1bd
000002e0: d8a4 73be 4781 cb3c a44c eb3c 084f b3bd
000002f0: 773a 2cbe ffdc d7bd c4fe 3bbd f9c4 68be
00000300: 7693 393e 6c4a 923e c084 4cbc 4fb6 d13c
00000310: 4855 aebe 2eff 8abe 7ab1 8fbc 74cb fabd
00000320: 8e35 e4be 6a6b 1dbe 2d21 743e 7f50 ec3d
00000330: 3f68 933e b4be 94be e728 16bc 1ffd 733b
00000340: 4b82 a83c 558f 37be 9d4b 9f3d c53c 9abc
00000350: 5ed2 03be 1a94 b43d 08f0 dcbd 0d86 3f3c
00000360: d95d efbd eafc 24be 1b83 f5bd fd82 8ebd
00000370: 4abe 0c3e 4d75 41be 9a32 42be 0dfb 0f3e
00000380: efaf e83a a0f3 0dbc a6e1 383d 25f7 893d
00000390: 23ce 1bbe 54a1 223d 31ad 4b3e 9331 c23e
000003a0: cc78 b13e 077f 8b3e a310 bc3d caf0 023e
000003b0: 05e3 2b3e 5886 0f3d 4c81 60bc 7b56 a9bd
000003c0: 00d1 323e 06bc 0c3e 14d0 7d3d 38a7 1fbd
000003d0: 1bcf b43b e4ce f03c dad8 e13d 3552 583d
000003e0: 87b5 823e 5917 893e 4f6f a83d a699 79bd
000003f0: 14f0 583e 72ed 053e b3ab d83c 795a aa3c
-0.4305862 -0.28908297 -0.35933656 -0.2234574 -0.20783599 0.0005239417 0.003924794 0.10337155
0.031839702 0.06474193 0.13415635 0.25267532 -0.0010175614 -0.061554186 0.07282634 0.076742396
-0.008789725 0.017348759 0.029883021 -0.030605692 -0.04567907 -0.11206175 0.02775589 0.14525732
-0.12653999 -0.06533764 0.17264798 0.043788888 -0.15492983 -0.14992268 -0.047653332 0.044803955
-0.003241276 -0.026726417 0.06786682 0.27878335 0.04874294 0.06012428 0.04576123 -0.051576614
-0.05538689 0.22351174 0.54880255 0.5999608 0.87499785 0.04160956 -0.003746635 -0.25718826
-0.14013779 -0.013061601 -0.28378177 -0.1506642 0.0028480445 -0.0659869 -0.020541793 -0.2739732
-0.13544734 -0.2587416 -0.037880886 -0.28229603 -0.05657671 -0.2059997 -0.23302758 -0.2195246
-0.48332036 0.18848555 0.4169963 0.08955013 -0.42440477 -0.48239338 -0.60080016 -0.6039917
-0.60441405 -0.44081753 -0.46923652 -0.3904714 -0.238258 -0.021554898 0.14613311 0.15341845
-0.04152739 -0.085105926 0.09056439 -0.05341904 -0.058101974 0.06368775 -0.1596212 -0.06648758
-0.1359107 -0.08008116 0.12779784 -0.14226462 -0.03744433 0.06488046 0.038295053 0.15629537
0.15791513 0.08468163 0.10627831 0.3591228 0.34272355 -0.0021452606 -0.0045430185 -0.1349174
0.16628371 -0.015049832 0.14077882 0.080361724 -0.08798985 0.15427133 0.25859472 0.033118576
-0.0841445 0.2344735 0.16246705 0.16515675 0.044499375 0.12007354 -0.07380387 0.21945132
-0.076555155 0.0067037293 0.03287264 0.08646885 0.1793234 -0.001599418 0.24175067 -0.061516996
0.02374094 0.023783913 0.20882735 0.32208094 0.31377715 0.080794625 0.13983437 0.092656724
0.031936005 -0.0523226 0.022109518 0.010819849 0.012220467 0.26813567 0.2570511 0.074345075
0.29952976 0.10348276 0.1249184 0.17495073 0.20509142 0.13525327 0.32079393 0.027463004
0.09084011 -0.009073396 0.10463293 0.25974348 0.17497739 0.31785113 0.11480801 -0.015811138
0.4874939 0.25536984 0.22269295 0.12923242 0.12363854 0.092823155 0.113264665 0.26969033
0.28484574 0.097113356 0.12475898 0.16130786 -0.012728506 0.29976913 -0.13515349 -0.20534685
-0.118265286 -0.24746545 -0.18397003 -0.15662345 -0.14413771 -0.19254915 -0.2402219 -0.08674943
-0.23793352 0.024841918 0.028723069 -0.087553084 -0.16819178 -0.105401985 -0.04589726 -0.22731389
0.18122658 0.28572404 -0.012482822 0.025599627 -0.3404944 -0.27147812 -0.017540682 -0.12245837
-0.4457211 -0.15373006 0.2384078 0.11538791 0.2879047 -0.29051745 -0.009165025 0.003722973
0.020569941 -0.1792577 0.07778094 -0.018827805 -0.12873217 0.08817311 -0.1078797 0.011689675
-0.11687822 -0.16112104 -0.11987897 -0.06958578 0.13744465 -0.18892403 -0.18964615 0.14060612
0.0017752628 -0.008664042 0.04513707 0.06736592 -0.15215354 0.039704636 0.19890286 0.37928447
0.34662473 0.27245352 0.09182861 0.12787166 0.1678582 0.03504023 -0.013702702 -0.08268448
0.1746254 0.137436 0.061966017 -0.03897783 0.005517853 0.029395528 0.11027689 0.052812774
0.2552912 0.26775625 0.082243554 -0.060937546 0.21185333 0.1307886 0.02644906 0.020795094

embedding.0.bias f4 [32]
00000000: c6f0 5f3e 8d4e 40bd d8e7 22bc 3593 e93d
00000010: ac25 0ebd bab5 ffbd 7f3a 1a3d a18f 29bd
00000020: c4da d33d afa1 05be 15aa 133d 7c5a 19be
00000030: ef26 c83d 0179 0dbe 0887 3b3e 2572 1bbe
00000040: b8d1 30be c223 393e ceb4 dfbd 00a4 4d3e
00000050: f0e7 e5bd 7d4e 923e 75be 14be 2940 943c
00000060: a8e1 89bd 3b84 c53d e6a9 ba3c 96ca 7d3e
00000070: f28c b3bd bb76 3f3e 6169 c3bd 03f8 a93d
0.21869192 -0.04694991 -0.009942971 0.11405031 -0.034703895 -0.124858335 0.037653442 -0.04139674
0.103444606 -0.13049959 0.036050875 -0.14975923 0.09773051 -0.1381569 0.18313229 -0.15180261
-0.17267501 0.18080047 -0.10923158 0.20082092 -0.11225879 0.28575507 -0.14525779 0.018097
-0.06732494 0.096443616 0.022786092 0.24784312 -0.087671176 0.18697636 -0.09541584 0.082992576

rnn.weight_ih_l0 f4 [192, 32]
00000000: 8702 a43e 79cb 883e ac0f dcbc 9e57 bfbe
00000010: f6bf bbbe edbd 8fbe 5296 4b3d afa8 b7bd
00000020: 4517 ca3d 77a1 9abe 34a9 55be 7b61 e5be
00000030: 4700 c7bd 99e1 d1be 5c9b be3d e801 91be
00000040: 1f56 bebd c8f7 6a3e 6f6e ca3b c4b7 87be
00000050: 64aa 9b3d 94c6 c33c b876 c23c 3259 96be
00000060: e816 7bbd c6ca f6bd d4d6 05be 2dc5 95be
00000070: c577 0dbe 1396 ad3e bbc7 13be aace b2bc
00000080: 769a a8bd 21f0 88bd 3349 0c3d 0557 46be
00000090: 61e5 903d d8f5 ebbe 9a5c 6abd 752b d5be
000000a0: 02ff 9ebe 9d7c 70bf 314c dc3c 6b48 38be
000000b0: 5dfd 0abe 439f 93be 528e a93e eaf1 d4be
000000c0: 76bc c8be 3b1c 1fbe 3d45 e9be 0e3f 7abc
000000d0: c620 ebbe 0bd8 6e3e bde7 113e 5973 fdbd
000000e0: 17df 13bd d716 5abe 9dcf aabe d706 d0be
000000f0: 31cd b3be b91b e0be d164 89be 80a0 b5be
00000100: 6855 09be 277d 8ebe cf02 f1bd dd0a 0abe
00000110: 21b3 e7bd c117 3ebd 9f59 6b3d 3812 52bd
00000120: e2ec b7be 936f fd3a d1ce e0bd f230 6abe
00000130: 6ad0 a5bd 3ff7 15be e068 66be 3911 32bd
00000140: 717d c9bc 975b d03c 1769 45be d8b5 91bd
00000150: 01ae 12be 01d4 7e3c 5126 fcbc 3394 aebd
00000160: 270e 483c 1060 e33c 13cc 3fbe 8261 d3bd
00000170: b059 35bd 1e54 43be 2d5f b9bd f697 38be
00000180: 5979 233f f855 b63d b150 343e cc09 8fbe
00000190: b9a7 f03c 2ede 06bf 06d5 2fbe 174c 8a3d
000001a0: 6452 ff3e 513a 4fbe 6370 ae3e d078 b33d
000001b0: 2e1f 893e fae9 a23e 9f32 6d3e 5eb6 c1bd
000001c0: 644c 1abf a34c 1e3e 882d 3dbe 709e f5bc
000001d0: 1b19 7d3d f7d9 293e 94c4 9ebe 858c 82bd
000001e0: e6cf adbe e5fd 8a3d aa57 d6be d6d0 903e
000001f0: 4187 babe 17e0 a83e 64b1 373d 9466 813e
00000200: 4996 6b3d 3f21 64be 89dc cbbc df97 febd
00000210: 9a06 e7bd a371 9ebe 4971 3dbe 9c85 22be
00000220: cc17 d1bc c24b 18be ec8d 1abe c217 a3be
00000230: 00db a3bd b542 76be 74a8 0dbe 9478 94be
00000240: 431f 8fbe d832 853d 4c81 59be 0740 66bd
00000250: 83dd 5f3d c0a3 f2bc b717 4ebe 2bf1 76be
00000260: 738c 65be c22f 70bd 995f 09be 33b0 03bd
00000270: 50aa 7dbe eaf1 973d d6d1 2cbe f0e4 c03c
00000280: 4b5c 7c3e a383 c4be b614 84be 127b bcbe
00000290: 8982 66bd 0e19 62be 4692 663d 26a6 c43d
000002a0: 104e 0bbe c3ec a63e b744 ee3c b8aa 1ebe
000002b0: 6878 543d 3081 04be 1981 5a3f dd3a 34be
000002c0: f760 07bc 6d54 56be 0510 c6be d6a0 b53d
000002d0: d47c 183e 6f08 bf3e bf0d f53d bb19 163e
000002e0: 19e2 323c ebb8 f03e 1185 193f f95b 8ebd
000002f0: 8f28 393c 692a 26bf 05a8 083f ed37 94be
00000300: ed7c 483e 6d69 153d 1394 8f3f 8341 9f3d
00000310: 4457 e43e f984 d7be d65b e13d 6619 6d3e
00000320: 8528 b3bd 8499 06be 671a 983e 5321 6e3d
00000330: 11ee b43e 0dd9 113e e140 f93e 9b58 783e
00000340: 5346 0ebe d765 f73d f97f dcbd 4f57 af3d
00000350: 227a 013f c04f da3a b02f 0fbe caff 12bd
00000360: 533c 04be 16a4 d0bd 5be5 10be 44b8 37be
00000370: 6aef 44be ab2b af3e 1c59 be3d e824 053d
00000380: 3a5a f1bd 3ae8 993e 29db 90bd fe4b 5cbd
00000390: 243b 353e d667 f93e 2ab9 78be 9ef4 9b3f
000003a0: 3e2f 9a3c c1b4 0d3c 0cf6 a13e 279e ed3d
000003b0: 5ac5 133e 8151 43be 12f9 6e3f 9c5d 513d
000003c0: 2c55 81bc 3a7e 3e3f e845 7c3d 4f1c 8dbe
000003d0: 70cd 353e 4e9a 0fbe 0a83 5f3d b1c2 8c3e
000003e0: 5d71 2a3d 87b4 a5bd 3df0 053d ca3f 93be
000003f0: 05a3 e33d b406 f43d fbf9 1a3f b41f c83c
0.32033178 0.26717737 -0.026862942 -0.37371534 -0.36669892 -0.2807459 0.049703903 -0.08967721
0.098677196 -0.30201313 -0.20865327 -0.44800934 -0.0971685 -0.4099243 0.09306976 -0.28321767
-0.0929377 0.22946084 0.0061777155 -0.2650739 0.07600859 0.0238984 0.02373825 -0.29364926
-0.061301142 -0.12050395 -0.13070232 -0.29251996 -0.1381522 0.3390356 -0.1443166 -0.02182706
-0.08232586 -0.06686426 0.034249496 -0.19369133 0.070750006 -0.46086 -0.057217218 -0.41634718
-0.3105393 -0.93940145 0.0268918 -0.17996375 -0.13573213 -0.28832445 0.33116394 -0.41590816
-0.39206284 -0.15538113 -0.45560637 -0.0152738225 -0.45923442 0.23324601 0.14248557 -0.123755164
-0.036101427 -0.21297775 -0.3336152 -0.40630218 -0.35117486 -0.4377115 -0.2683473 -0.35474014
-0.13411486 -0.2782986 -0.11768114 -0.13480707 -0.11313463 -0.046409372 0.057458516 -0.051286906
-0.35922915 0.001933562 -0.10976947 -0.22870234 -0.080963925 -0.14645098 -0.22500944 -0.043473456
-0.024595948 0.025434298 -0.1927837 -0.07114762 -0.1432419 0.015553475 -0.03077999 -0.085243605
0.012210405 0.027755767 -0.18730192 -0.103213325 -0.044274986 -0.19075057 -0.090513565 -0.18026718
0.63857037 0.08903116 0.17608906 -0.27937162 0.029376851 -0.5268277 -0.17171106 0.06752794
0.49867547 -0.2023709 0.3407012 0.087632775 0.267816 0.31819135 0.23163842 -0.09458612
-0.6027281 0.15458922 -0.184744 -0.029982775 0.06179152 0.16587053 -0.31009352 -0.06374458
-0.33947676 0.06786708 -0.41863757 0.2828433 -0.36431316 0.32983467 0.044846907 0.25273573
0.05751637 -0.22278307 -0.024885433 -0.12431311 -0.11280556 -0.30946073 -0.18500246 -0.1587128
-0.025524043 -0.1487265 -0.15093201 -0.31854063 -0.08000755 -0.24048884 -0.13833791 -0.28998244
-0.27953538 0.06503838 -0.21240729 -0.056213405 0.05465461 -0.029619098 -0.20126234 -0.24115436
-0.22416858 -0.058639295 -0.13415374 -0.03215046 -0.24772 0.07419188 -0.16876921 0.023546666
0.24644582 -0.3838168 -0.2579705 -0.36812645 -0.05627683 -0.2207987 0.05629184 0.09602003
-0.13603997 0.3260251 0.0290855 -0.15494812 0.05187264 -0.12939906 0.8535324 -0.1760058
-0.008262864 -0.20930643 -0.38684097 0.08868568 0.14891368 0.37311122 0.119655125 0.14658253
0.010918164 0.4701608 0.5996867 -0.06951136 0.011301174 -0.6490846 0.5338138 -0.28948918
0.19578905 0.036477495 1.1217064 0.07776167 0.44597828 -0.42093638 0.110038444 0.2315422
-0.08747963 -0.13144499 0.29707643 0.05813725 0.3533788 0.14242955 0.4868231 0.2425255
-0.13894014 0.12079971 -0.10766596 0.08561575 0.50576985 0.0016655847 -0.13983035 -0.03588847
-0.12913637 -0.10187547 -0.14149992 -0.17941386 -0.19231954 0.34213004 0.0929434 0.0325059
-0.117847875 0.30059987 -0.070730515 -0.05378341 0.17698342 0.48712033 -0.24289384 1.2184026
0.018821355 0.008649052 0.3163303 0.11602431 0.14430752 -0.1907406 0.933488 0.051114663
-0.015787683 0.74411356 0.061590105 -0.2756066 0.1775415 -0.14023706 0.054568328 0.27492288
0.041612018 -0.080910735 0.032699812 -0.28759605 0.11115078 0.11915341 0.6053769 0.02442918

rnn.weight_hh_l0 f4 [192, 64]
00000000: bd2e 023d e218 0e3d 497b 833e 2bbb 923d
00000010: e5e6 2fbf 44cd cdbe d5ff ccbd 1380 ab3d
00000020: 0d78 2dbe d04e 253e 8f95 8fbe 603d a4bd
00000030: 3663 043e 2268 bebd e361 96bd 773a d83b
00000040: d3bd 073e e2b0 af3d b85f dfbb c161 73be
00000050: 77bf 7bbd 8e0d debd 3372 f2bd 3531 98bd
00000060: 5290 203e 2e9a efbb 9c2a ba3c 3fa3 893c
00000070: 89bb ab3e b349 733e 1092 a5be 5a4d 83bd
00000080: a9e8 bebe 8621 8fbd 359b 2d3e eb19 03bd
00000090: a17b 13be cd0e 97bd fc55 823d 0ba0 56be
000000a0: 91ae 3ebd f2e4 453e 45a7 703e db24 0cbd
000000b0: b822 083e b0da efbd 6017 0d3e 04e1 67be
000000c0: 6287 87bd 6d31 003e c34a ce3e 35d1 743e
000000d0: 4884 073e 9d97 3bbe 5707 023e c245 84bc
000000e0: b54b 21bd 0ab4 233d 0415 68be a34f 173e
000000f0: 12bf 273e 76c7 0bbe 5842 43ba 1c9e a4bd
00000100: 44ab 71bd 6a76 da3d 3946 543e 5ceb adbd
00000110: 0b04 c6bd ec76 063e d1bc 8e3c c377 063e
00000120: 3ba2 30be 146a 4ebd 7daa 413e 5f49 103d
00000130: 3452 0c3c 7a7d 4abd 5a0d fcbc 0ac1 a5bc
00000140: 3439 503e 2c8b 433c 0a94 093e 62e1 2dbe
00000150: a776 a4bd 66db 9cbd 1f15 7a3e b2d7 0abe
00000160: 9438 2fbe 9b53 e23d bf1a 233d fe1c cf3d
00000170: d6d0 9b3b 612b 2ebc f16d d5bd 7271 153e
00000180: 3564 a33d 7415 f73d e275 b3bd 8dfb 5e3e
00000190: ee8f fd3d f0ad 0cbf 96da 053e 38a3 10be
000001a0: 0642 b7be 8433 5abe f6e3 a33b 0c26 1bbe
000001b0: edb5 ac3e fce6 4fbd 085e 24be 1544 413c
000001c0: 207b 12bd 3593 943d 993e 1a3e c594 d3bc
000001d0: 7897 e63c 330e bdbd d9b0 01be fdfa a9be
000001e0: dd9f 07bf d5a3 bbbc 2194 583e cf29 da3d
000001f0: 4744 a9bc a825 fc3d f2d3 0cbd 0c0c 64bc
00000200: 573b 943d 9744 34be df1c 6bbc 6ada c03d
00000210: 9cce 033d a1f5 95bd dca9 5b3e 3657 913e
00000220: d969 feba d0d4 e9bc 9ae7 2e3e c9cc 543e
00000230: ef82 873c 21a8 ffbd ab7e 09be c2ab 49be
00000240: 8308 1c3e 955c 2f3e 0948 663e ab01 f0bd
00000250: 0458 693c 9951 b83d 3138 adbd 93de 5abe
00000260: 8fb4 1f3d 6962 6f3c 669c 86be 1dab 8b3e
00000270: 085d 71be 25cb 62bd 17aa b6bd 04ff df3d
00000280: ae27 df3d 020a f23d 025f 62bd 3d13 2a3e
00000290: 85f8 223e a2e2 5bbe 87bf 25bd 430d 18be
000002a0: aa63 49be 5fd4 12bd f0af 7c3e 018b 82be
000002b0: 3592 2d3e a8a2 f1bd 8200 0fbe 9057 713d
000002c0: d566 6b3e 7cf8 bb3d 6046 bd3c f18e 253e
000002d0: 966f 833d 59d8 4fbe 802e 9bbd f7e1 a03d
000002e0: a54a b6bd 84f4 90bd ddc4 aa3d 841b 483d
000002f0: ee36 adbe 6a9e d93c 1234 813c 9a2e 7f3e
00000300: bab9 fb3d ef89 afbc 2b27 88bd 2885 97bd
00000310: 962c 5cbe 9de7 c0bd ede8 24be a2f2 38bb
00000320: f237 15be fe37 b3bd 93e1 e7be 9505 d0bd
00000330: c74f 223d fcba de3c 7d09 c0bc 8ebc 1f3e
00000340: 52fa 72bd a032 8c3d 3852 d5bc 72bb cfbd
00000350: 8745 54bd c97d d93d 68ac babd e9ed 673c
00000360: 565a b93d cc4b 5a3e db81 c0bd 5fe8 87bd
00000370: 24ed 183e 11ec 333e bf2a f03d de6d 59bd
00000380: 3f79 443d 01f4 443d 8ead b83c ab45 503e
00000390: fd49 95bd e767 b3bd e764 10be 6a09 093d
000003a0: bb5f b83d 4730 3a3c eb68 513d 0504 76bc
000003b0: de14 113e f4a9 01bd 64ca 493e 83b4 093c
000003c0: 00c0 113d 9c4a 16bd 1825 a53d 8ede 393e
000003d0: f428 89bc a959 96bd 2535 a1bd b91b 10bd
000003e0: b1df b4be 14f6 703c 6b8d c4bd dd4d 1b3e
000003f0: 3c66 5bbd 2d81 463d d602 843d 2e1f 4ebc
0.031782854 0.0346917 0.25679997 0.07164606 -0.6871169 -0.40195668 -0.100097336 0.083740376
-0.16940327 0.16143346 -0.28043792 -0.08019519 0.12928471 -0.092972055 -0.07342889 0.0065987664
0.13256006 0.085786596 -0.0068168305 -0.23767759 -0.061461892 -0.10842429 -0.11838188 -0.074312605
0.15680054 -0.007312081 0.022725396 0.016801475 0.33541515 0.23758583 -0.32338 -0.06411238
-0.3728688 -0.06988816 0.16953738 -0.03200714 -0.1440263 -0.0737587 0.063640565 -0.20959489
-0.0465532 0.19325617 0.23501308 -0.034214836 0.13294494 -0.11711633 0.13778448 -0.2264443
-0.06617619 0.12518854 0.40291414 0.23907931 0.13234055 -0.18319555 0.12698112 -0.016146544
-0.03937884 0.03996662 -0.22664267 0.14776473 0.16381481 -0.13650307 -0.00074485457 -0.080379695
-0.059001222 0.10667117 0.20729913 -0.08492157 -0.0966874 0.13131303 0.017424019 0.13131623
-0.17249386 -0.050394133 0.18912692 0.035226222 0.008564521 -0.04943607 -0.030768085 -0.02023365
0.20334321 0.011935037 0.13435379 -0.16980508 -0.08030444 -0.076590344 0.2442212 -0.13558844
-0.17111427 0.11051103 0.03982043 0.10112952 0.00475512 -0.0106304595 -0.1042136 0.14594057
0.07978097 0.12064639 -0.08762719 0.21775647 0.12380968 -0.5495291 0.13071665 -0.14124763
-0.3579256 -0.21308714 0.0050015403 -0.15151232 0.33732548 -0.050757393 -0.16051495 0.011796017
-0.035761952 0.0725464 0.15062942 -0.025827775 0.028148398 -0.09231224 -0.12665118 -0.331993
-0.52978307 -0.02290527 0.21150257 0.106525056 -0.02066244 0.1231187 -0.034381814 -0.013918888
0.07237881 -0.1760429 -0.014350145 0.09416659 0.03217946 -0.073222406 0.21451515 0.2838685
-0.0019410207 -0.02854386 0.17080536 0.20781244 0.016541926 -0.1248324 -0.13427226 -0.19694427
0.15237622 0.17125161 0.22488417 -0.11719068 0.014242176 0.089999385 -0.08457983 -0.21373968
0.038990553 0.014610865 -0.26291198 0.27278987 -0.23570645 -0.055369515 -0.08919161 0.10937312
0.1089624 0.11818315 -0.055266388 0.16608901 0.15915115 -0.21473172 -0.040465858 -0.14848809
-0.19666925 -0.035847064 0.2467649 -0.25496677 0.16950305 -0.11798602 -0.13965037 0.058921397
0.22988446 0.09178254 0.023104846 0.16167809 0.06417768 -0.20297374 -0.075772285 0.078555994
-0.08900956 -0.07077888 0.0833833 0.048854366 -0.3383097 0.026564796 0.0157719 0.24920121
0.12291284 -0.021428077 -0.06648096 -0.073984444 -0.21501383 -0.09419177 -0.16104479 -0.0028220792
-0.14572123 -0.08750914 -0.45289287 -0.10157315 0.039626863 0.02718877 -0.023442024 0.15599272
-0.059320755 0.068455935 -0.026040182 -0.10143174 -0.05182412 0.10619695 -0.09114915 0.014155843
0.09050433 0.21317977 -0.09399768 -0.06636118 0.14934212 0.17570521 0.11726903 -0.053083293
0.04796719 0.048084263 0.022543695 0.20339076 -0.07289503 -0.08760052 -0.14100991 0.033456244
0.09002634 0.011364049 0.05112545 -0.015015607 0.14168116 -0.03165622 0.19706112 0.008404854
0.035583496 -0.036692247 0.08063716 0.18151304 -0.01674316 -0.0734132 -0.07871465 -0.03518269
-0.35326913 0.014707107 -0.09597286 0.15166421 -0.053564295 0.048463035 0.064458534 -0.012580676

rnn.bias_ih_l0 f4 [192]
00000000: 4100 c7bd 4234 01be f6cd 1cbe 04f2 6f3d
00000010: 7fc2 f6bd da2e 463d ee10 ed3d 3545 b43d
00000020: c2a9 5ebe d629 853d 3a7b aa3d e616 05bc
00000030: 6ae5 e0bd f43c 283d 8bb0 053d d8c5 c63d
00000040: acac 2a3e dc3e 043e 2c53 aabd 8775 05be
00000050: 99c8 74bc 922d 323e 5137 cfba 3215 dfbd
00000060: 1cae 56bd a435 f83d 6678 103d 5211 ae3d
00000070: f532 9dbd 5983 cabc f9ef 85bd bf4f 92bc
00000080: 3647 9ebd 1c29 833d a238 11bc da75 b03a
00000090: a2a4 33bd 53cc 903e 53bf 1d3d 96f0 443d
000000a0: 7570 153c 3c2e af3d 2e79 343e cd2a 163e
000000b0: ee2a 24bd 2615 143e 3ff7 d73c f013 ef3d
000000c0: 82bf a3bd 826c 813d a77d 56bb 33cd 01bd
000000d0: acfc d43d 4187 55bb 90c7 793d d85f 9fbd
000000e0: 0230 0c3d 6f46 ed3d 30a7 563c cdec 6b3c
000000f0: ab94 973d 7ff3 893d 7c49 943b cdc6 773c
00000100: df02 73bd 2ecf 42bd bd37 e53a 9df0 62bc
00000110: 68d6 f13c ba43 f0bd 6af7 acbc 0c04 50be
00000120: 42e6 07bd 704e 01be 81f7 1fbe e2c3 7b3c
00000130: a668 60bd bb48 003e 15de 90be 0b4e 553d
00000140: d858 79bd a3a5 efbd 9d03 e53b fff8 0e3d
00000150: 7d4c 28be ca1a 45bd d55b c2bd abc2 da3c
00000160: 8408 193d 7c4f a8bb 9597 d0bd b45c d73d
00000170: fead 04bc a6e1 4f3b 4ae2 a9bd ea00 7a3d
00000180: f240 19bd 4d76 71bd 24a8 f2bd 3a29 be3d
00000190: f1cc 85be 4122 1a3e 6cae 01be 7f11 a8b9
000001a0: 1c6c 463d 8554 f13d 80c0 b6bd 80c3 ed3d
000001b0: eedb f33d 41ea 003d 32f1 dd3d c66e d33c
000001c0: d774 2abe c3e2 aebd 5518 d8bd de81 023e
000001d0: 8106 a33b 76ff 48bd a98c 6dbe 2bd3 003d
000001e0: 9c5d 743d 8ba9 99be 9971 01be 6328 403e
000001f0: 68ac 1cbe 7826 23be c92b a33e 3209 683d
00000200: 9473 2dbe f734 ae3b 0c75 fa3c 95e3 2ebd
00000210: 6cdb 25be 053e 18be 8ac8 babd 1555 46be
00000220: 1ec0 ae3d 6a91 a63d 7898 22bc 36d9 0bbe
00000230: 4245 9e3d 4c49 be3d 25b5 f93c 6a9c a03d
00000240: 55b0 16be 548b 80bd 0f71 38bd edff 02bc
00000250: 9463 dfbc df8e ae3d 2e87 d13d c834 cebc
00000260: 1c7c 95bd f5e4 2bbe 3e48 b5bc 8e4f 36be
00000270: fa26 713d 1f27 d93d aa7a 163c 4ae2 4f3c
00000280: 04ba 5c3d 6fa4 113d 01ec 043d 65b8 d1bc
00000290: 4106 84bd 4b0f d43d 3ecc 99bd 5433 e13d
000002a0: 5d94 ab3b de79 04bd a2be 05bd 946b 7e3e
000002b0: 4f6e 4bbd 7e0c 443e 950b 013e 25bd a1bd
000002c0: e019 e9bd e485 4abc 5cca c03a 8734 a33d
000002d0: 5834 eb3d 95f1 903d dc8e 8a3d 84e6 cd3c
000002e0: 3f09 0dbe f46f a33d 17be 5e3d 9c96 933d
000002f0: eaa2 193e 5aac 12be 3341 91be 6bad ebbd
-0.09716845 -0.12617591 -0.15312943 0.058580413 -0.12048816 0.048384525 0.11575495 0.08802263
-0.21744445 0.0650212 0.08324285 -0.008123135 -0.10981257 0.041073754 0.032639068 0.097057045
0.16667432 0.12914604 -0.08316645 -0.13033114 -0.014940404 0.17400196 -0.0015809332 -0.108927146
-0.052412137 0.12119606 0.03527107 0.08499397 -0.07675735 -0.024720835 -0.06539912 -0.017860292
-0.07728426 0.06404325 -0.0088636 0.0013462857 -0.043858178 0.28280887 0.03851254 0.048081003
0.00912105 0.085537404 0.17624351 0.14664765 -0.040080003 0.14461192 0.026363013 0.11673725
-0.079955116 0.06319524 -0.0032728703 -0.031689834 0.10399756 -0.0032581838 0.060981333 -0.077819526
0.03422547 0.115857 0.013101384 0.014399719 0.07401403 0.06735896 0.0045253616 0.015123081
-0.05932891 -0.047560863 0.0017487925 -0.013851312 0.029521182 -0.11731668 -0.02111407 -0.20314044
-0.033178575 -0.12627578 -0.15621759 0.015366526 -0.0547873 0.12527744 -0.28294435 0.05207638
-0.060875744 -0.117015146 0.006988956 0.03490543 -0.16435428 -0.04812125 -0.09490172 0.026704153
0.037361637 -0.0051364284 -0.10185162 0.105157286 -0.008098124 0.003172019 -0.08295114 0.061036028
-0.037415452 -0.05895071 -0.118484765 0.09285207 -0.2613292 0.1505213 -0.12664193 -0.00032056493
0.048442945 0.11783699 -0.08923435 0.11609554 0.11907183 0.031473402 0.1083702 0.025809657
-0.16646133 -0.08539345 -0.10551516 0.12744853 0.0049751406 -0.04907175 -0.23198189 0.031451385
0.059659585 -0.30012164 -0.1264099 0.18765406 -0.15300143 -0.15932643 0.31869343 0.056649394
-0.16938621 0.0053163725 0.03057339 -0.042697508 -0.16196984 -0.14867409 -0.09120281 -0.19368394
0.08532737 0.08133204 -0.009924047 -0.13657078 0.07728054 0.09291324 0.030481884 0.078423336
-0.14715703 -0.06276575 -0.045029696 -0.007995588 -0.027269162 0.08523344 0.102308616 -0.025171652
-0.072990626 -0.16786559 -0.022129174 -0.17803785 0.05887506 0.10603165 0.009184519 0.012688229
0.053888336 0.035557207 0.032451633 -0.025600621 -0.06446505 0.103544794 -0.07509659 0.10996118
0.005236192 -0.032342784 -0.032652505 0.24845725 -0.049665745 0.1914539 0.12602074 -0.078974046
-0.113818884 -0.012361024 0.0014708745 0.07969003 0.11484593 0.07077328 0.067655295 0.025134332
-0.13773058 0.07980338 0.054380503 0.07206461 0.15003553 -0.1432356 -0.28370056 -0.11507686

rnn.bias_hh_l0 f4 [192]
00000000: 0266 f13c 9c4e 953d 1552 23be acfc 5b3d
00000010: c410 a6bd 56d8 08bd 237f 25bd 1bea d9bd
00000020: 0c0a e9bd 016b 2dbc 60aa 5abd c94b 06bd
00000030: eeca c7bd 2151 0f3e 3415 323d 7d80 823d
00000040: ed3d 013e 6a29 403e 1367 ecbd c5da 14be
00000050: f33a c23a 51e7 bc3d eae1 1abd 5084 1ebe
00000060: 0f8f ecba 6260 4e3d caf1 5cbd dd27 6bbd
00000070: ef15 2fbd afcf 033e 0a5d 03bd ca99 393d
00000080: 1e32 99bd 002f 013c 6a26 c13d 4fa4 433e
00000090: 92b4 c4bd 2895 9a3d ef5a 153e 8943 8cbd
000000a0: 9471 933d 9839 fd3d bf68 173e 29ae 1d3e
000000b0: 4c63 bf3c 1506 893d 1f76 0c3e 6ea2 a23d
000000c0: 5693 84bd 2aa0 02be 49f6 9cbd 9ace 893b
000000d0: f5ad d1bd 2f61 24be fd0a ffbc 9fac b0bd
000000e0: 1fe3 0a3e c419 ea3d a13d 4cbd 1a07 b63d
000000f0: ef81 3d3e 9ed5 ffbd fede 0e3e 34d0 0a3d
00000100: 0bb8 7abd 685c 8e3c 1707 de3d 1fac 71bd
00000110: 6826 363e bb3f 8fbd cba1 803d cfd7 1fbe
00000120: 7951 3d3d 722f 81be 80d3 5cbe 244b 40bd
00000130: ef9d 583a 03f3 063e 5c01 abbe 0a62 783e
00000140: 39ec b0bd 6a58 b9bd e28a 1ebe bc6e 1fbe
00000150: 7d5f 02be 59db c9bd 45bf cb3d 02eb 973d
00000160: 4812 063e 31d2 49bd 2ac1 d4bb 6697 8abd
00000170: 7f67 d3bd a721 72bc f160 1ebe 7d94 933d
00000180: 3b18 23be 6482 1fbe 8882 1fbe 74d9 c23d
00000190: c354 7dbd 3360 1c3e 8e9d 8fbc 31cb af3a
000001a0: a35e b23c 0182 3d3d fb87 7bbe 10c9 9fbd
000001b0: fd8a b83d b461 483d a002 b93d 7895 d1bd
000001c0: 7295 4cbe b2c9 f63d 07b4 7cbd 428c a53c
000001d0: 4bf3 3e3d 13f6 183c 24b1 eabd c086 f93d
000001e0: a393 e93d 94f4 03be 5d04 67bc 0b10 fa3d
000001f0: 0ad1 63be 0f5d 37be c686 b33e 5986 32bd
00000200: f6f2 3cbd 3332 e53d 0505 7fbd f711 d2bd
00000210: 14e3 acbd 0339 1ebd aab1 15be 0199 b6bd
00000220: 0b87 d8bc fa21 d03d 5e31 01be e828 d5bd
00000230: cf40 303d 9f4e 633e aa0c cf3d e1be 283e
00000240: d7b8 cbbd 0c6f 29be 27fb b53d 7cd9 583d
00000250: 832c 0dbe d6eb 4d3d 5f87 0f3e 598d 183e
00000260: 8bda 87bd 202c 79be bebd d63d 229b bebd
00000270: 2c59 debb 7deb 0f3d e7c7 b3bd b6a9 3fbd
00000280: 3c38 06be 8853 03be 6624 933d a32c 54bd
00000290: 0f18 263e c908 b83d 25dc 27bd adee d73d
000002a0: c371 633c f80d f23b 4f91 1cbe 890d 643e
000002b0: b26a b2bd 5e11 483e 427b fb3d ddd0 91bd
000002c0: 9e46 5cbd 1fa4 dfbd 5a6a 37bd e449 b2bd
000002d0: 2946 363c c11c 3fbe 311a 3a3d 3412 cd3d
000002e0: 6432 09be 2f13 e9bd bfd6 cabd 3675 9cbd
000002f0: 5643 1b3e f0d7 cdbb 3a2c 94bd 1bed 1c3d
0.029467586 0.07290384 -0.1594928 0.053707764 -0.081086665 -0.03340944 -0.04040445 -0.10640355
-0.113788694 -0.010584594 -0.05338514 -0.032787118 -0.09755503 0.13995792 0.043477252 0.063721634
0.12621279 0.18765798 -0.11543097 -0.14536579 0.0014818594 0.092238076 -0.037813105 -0.1548016
-0.0018048006 0.050384887 -0.053941526 -0.057411063 -0.042745527 0.12872194 -0.03207115 0.04531268
-0.07480262 0.007884741 0.09431155 0.19105648 -0.096047536 0.075479805 0.1458547 -0.06848819
0.07199398 0.12364501 0.14786051 0.15398468 0.023362778 0.06690613 0.13716935 0.07941137
-0.064734146 -0.1275641 -0.07664163 0.004205537 -0.10238258 -0.16052698 -0.03113317 -0.08626675
0.13563202 0.11430696 -0.04986346 0.08888073 0.18506597 -0.12491916 0.13952252 0.033889964
-0.061210673 0.017378047 0.10841196 -0.059002038 0.17788088 -0.069945775 0.062808596 -0.15609668
0.046220277 -0.2523151 -0.21565056 -0.04694666 0.000826328 0.13178639 -0.33399475 0.24256149
-0.08638806 -0.09050067 -0.15482667 -0.15569586 -0.12731738 -0.0985629 0.09948591 0.07417871
0.13092911 -0.04927272 -0.0064927535 -0.06767158 -0.10322475 -0.014778531 -0.15466668 0.07206056
-0.15927212 -0.15577084 -0.15577137 0.09514132 -0.061848413 0.15271072 -0.017531183 0.0013411996
0.021773642 0.04626656 -0.24563591 -0.078020215 0.09010885 0.048921302 0.09033704 -0.10233587
-0.19978884 0.12050189 -0.061695125 0.020208482 0.04661874 0.009336012 -0.11459568 0.12183905
0.114051126 -0.12886268 -0.014100161 0.12210091 -0.22247711 -0.17906593 0.3506376 -0.043585155
-0.046130143 0.11191215 -0.062260646 -0.10257333 -0.08441749 -0.03862859 -0.14618555 -0.08915902
-0.026431581 0.101627305 -0.12616488 -0.10408193 0.043030556 0.2219796 0.10109837 0.16479065
-0.09947365 -0.16546267 0.08885794 0.052941784 -0.13786511 0.05027374 0.14016484 0.1489767
-0.06633481 -0.24333239 0.10485409 -0.09306933 -0.0067855325 0.03513669 -0.08778363 -0.04679271
-0.13107389 -0.12824833 0.07184677 -0.05180038 0.16220115 0.08986051 -0.04098143 0.10543571
0.013882103 0.007386919 -0.15289806 0.22270788 -0.08711757 0.19537875 0.12279369 -0.07119916
-0.053778283 -0.109199755 -0.04477916 -0.087055 0.011125126 -0.18663312 0.045435134 0.100132376
-0.13398129 -0.11380612 -0.09904241 -0.07639544 0.15162405 -0.0062818453 -0.07234998 0.03831206

rnn.weight_ih_l1 f4 [192, 64]
00000000: 2f97 4fbe 16fd 03bf c114 7ebd c576 d03e
00000010: 0b26 823e d921 dabe 7036 adbc e2f3 d93d
00000020: 8f22 9f3d 6720 bbbe 7575 893d 112f ec3d
00000030: db68 2ebe 07bb 41be 1b9b 2b3d 926e 5cbe
00000040: 1c91 ae3e 7c05 1a3e e00d 33bd 73bf 9a3d
00000050: 0a35 863e d0c4 c9be 4a95 edbd 5a12 03bf
00000060: 3ab7 b2bd f027 a8be a872 3abe 7b50 eebd
00000070: 3014 18be a2e3 12be d07e 98ba db19 163e
00000080: a149 ca3e 8482 323e edcd 49be 735a 123e
00000090: 3fdf a23d 1c84 9fbe 48dc 283b b85a 30be
000000a0: ecc4 adbe 6e0c cebd 2b2f ec3e c8f2 09bc
000000b0: 86aa e23d c151 f2bc 3a5d b1bd 0209 8d3e
000000c0: c79f 12be d54c 1d3c f6dc ff3d 4668 853c
000000d0: b004 b3be 0836 15be 0314 d3be d201 99be
000000e0: b26c 3fbe b85c ccbe 551b c2be ef4c 08be
000000f0: 9e90 263e b8f3 4f3d 1db3 f43c 3128 463e
00000100: bd2a b4be 7652 843e 3abf 2bbd b524 24bf
00000110: 8b2d 11bc daa2 413e 3259 43be ba8a d53e
00000120: a3e2 e2bc 0720 513d 8683 37bd c9c8 90bc
00000130: 6a3e c53d 3bfd 8ebb c4de e4be f87f 3e3d
00000140: 9b69 97be f8c8 02be a8b5 ef3d ecf8 5dbe
00000150: b688 bfbd 7aaa 003f cbb4 6dbd ccfb c13e
00000160: 0794 3a3d c6d5 04bd d776 b63c b2e7 a7bd
00000170: c380 a23e b0d0 a3be a1bf 3abe 35d5 eb3c
00000180: 6e29 6e3e a2cc 3d3e 2228 8dbe 2cce cb3c
00000190: f464 213e c88d 73bd 0b83 08bf e44f 5f3d
000001a0: 247a 05be d756 4bbd 7713 263d d552 03bc
000001b0: 01ed a0bc e798 fe3d 19d2 3bbe 15b6 08bf
000001c0: 10db 5ebe 3b5e a3bd 7cf4 a83d 9a40 f73d
000001d0: 6cac 35be f70e 6b3c ec94 313f a2e0 e13c
000001e0: 4833 a5bd e9ab 653e 840a c5bd a218 443e
000001f0: 8224 03be 51eb a9be a9c4 1cbe 060d 1bbf
00000200: 0498 96be f694 8abc bd09 b53d 1443 813e
00000210: 4dfc 46bc c80c 363f cebf 00bf 9e63 19bf
00000220: 455d 013d 8b24 133f b568 c43e 72d3 d93d
00000230: 717d eb3e b36d 613c 5d37 4e3f dadf d93c
00000240: 3890 96be c845 39be b520 9dbc bf57 1abe
00000250: dcd0 55bd 1add 3bbe 51d4 67bc 99a7 f9bd
00000260: e3da 2d3e 4a9a 31be ed31 033e dd75 02be
00000270: b6bb a5be 13c0 c43d 2e20 f4bb 46d1 b43d
00000280: 0bd1 dcbe 8d7f 1fbe 41a4 373e fe25 f3bd
00000290: c24e 5f3b 2092 e03b 8936 4f3d d693 bbbc
000002a0: 7cd8 203e 4dae 953d 2ab9 3abf cc15 8bbd
000002b0: 04a9 5abe def2 32be bc68 2cbd 4dc2 d53e
000002c0: b909 f73b 6126 8c3e 391c 3fbe c602 f4bb
000002d0: 1bc5 0c3f f1fa acbd bb12 edbe c25d 193e
000002e0: a6b2 0bbe 7466 d3bd b732 a33e 060b 90be
000002f0: 0515 023e 6cb1 68bb 6501 42bd a7a2 e53b
00000300: 0f81 7c3e 335b 4b3d b9b9 0abb 470d 73be
00000310: 2148 803d ab9e 47bd 5c87 85be 439e 963e
00000320: 57fe 223e eeea 70be 9424 e13e ac6c debd
00000330: 0596 58bc 5d9e 453e ad63 883e e3a7 b53d
00000340: 08e6 42be e7ea 20be d31c 0abe fc14 013d
00000350: 751f 0cbc 10b5 033e 9fba b0bc b05f e53e
00000360: 510a dc3d 3dda 19bd 32d9 a3bd 4ab3 11bd
00000370: a748 bfbd e009 f73d 4e39 943e eb0b 5bbd
00000380: 6cf8 81bd ba90 e0bd 163a 9d3d 95c9 d3bd
00000390: 720f f53d 9bf4 893d ac09 f6bd b49f 733e
000003a0: 42f9 fabb 82c3 04be 9282 313c d751 3d3e
000003b0: ca96 91bd 5472 243e 6c73 a4bc 717f d3bc
000003c0: a805 a1bd 3056 8ebc 6ef4 aebe f580 7fbd
000003d0: ec93 9d3e e693 a33e a148 14be 1e24 a4bd
000003e0: 7883 88bd 6c7f 0c3f bdc9 403c a347 58be
000003f0: 0d30 003e 9183 753d 954d 2bbe 2f45 2abe
-0.20272516 -0.51558053 -0.06203151 0.40715614 0.2541965 -0.4260395 -0.021144122 0.1064222
0.077702634 -0.3654816 0.06711856 0.11532415 -0.17032187 -0.18919002 0.041895967 -0.21526554
0.34095085 0.15041155 -0.043714404 0.07556047 0.2621234 -0.3940797 -0.1160074 -0.5119988
-0.08726354 -0.3284297 -0.182078 -0.11636444 -0.14851451 -0.14344648 -0.0011634473 0.146583
0.395093 0.174326 -0.1970746 0.14292316 0.07952737 -0.3115548 0.0025766063 -0.17222106
-0.33939302 -0.100609645 0.46129736 -0.0084197 0.11067681 -0.029579999 -0.0866036 0.27545935
-0.14318763 0.009600838 0.12493317 0.016285073 -0.34964514 -0.14571393 -0.41226205 -0.298842
-0.18693808 -0.3991449 -0.37911478 -0.13310598 0.16266105 0.050769538 0.029870564 0.1935127
-0.35188857 0.25844163 -0.041930415 -0.6411851 -0.008860956 0.18909779 -0.19076994 0.41707402
-0.02769596 0.051055934 -0.044803165 -0.017673867 0.09631045 -0.0043636835 -0.44701207 0.04650876
-0.29572758 -0.12771976 0.1170457 -0.21676987 -0.093522474 0.50260127 -0.058033746 0.37887418
0.045551326 -0.032430433 0.022273464 -0.08198489 0.31738862 -0.31995153 -0.18237163 0.028788188
0.23257992 0.18535092 -0.2756968 0.024878584 0.15761167 -0.059461385 -0.53324956 0.05451955
-0.13034874 -0.049643364 0.040545907 -0.008015354 -0.019644262 0.124315076 -0.18341865 -0.53402835
-0.21763253 -0.079769574 0.08249757 0.12072869 -0.17741555 0.01434683 0.6936786 0.027572934
-0.08066422 0.2242886 -0.09621146 0.19150022 -0.12806895 -0.33187345 -0.15309395 -0.6056675
-0.29412854 -0.016916733 0.08839748 0.2524649 -0.012145114 0.7111325 -0.5029267 -0.5991763
0.03158309 0.57477635 0.38361135 0.10636033 0.45994142 0.0137590645 0.8055323 0.026595999
-0.29406905 -0.18093026 -0.019180635 -0.15072535 -0.052201137 -0.18346062 -0.014149741 -0.1219017
0.1697803 -0.17344013 0.12812014 -0.12740274 -0.32369775 0.09606948 -0.007450125 0.08828978
-0.43128237 -0.15576 0.17933752 -0.11872481 0.0034074043 0.006853357 0.05058912 -0.022897642
0.15707582 0.07308636 -0.7293879 -0.06791267 -0.21353537 -0.17475459 -0.04209207 0.41749802
0.007539001 0.2737303 -0.1866311 -0.0074466197 0.5498826 -0.08446301 -0.46303353 0.14977172
-0.13642368 -0.10322276 0.3187463 -0.2813341 0.12703331 -0.0035506142 -0.04736461 0.007007915
0.24658607 0.04964752 -0.0021167828 -0.23735534 0.062637575 -0.048735302 -0.26079834 0.2941762
0.15917335 -0.23527119 0.4397322 -0.10860571 -0.013219361 0.19298692 0.26638547 0.088699125
-0.19033062 -0.15714608 -0.13487558 0.031514153 -0.008552422 0.12862039 -0.021573363 0.44799566
0.10744155 -0.037561644 -0.08000411 -0.035571374 -0.09340029 0.120624304 0.2894997 -0.053478163
-0.06346211 -0.109651044 0.07677095 -0.10341183 0.119658366 0.06736108 -0.120135635 0.2379139
-0.0076591084 -0.12965205 0.010834353 0.1848825 -0.07108839 0.16059238 -0.020074569 -0.025817605
-0.07862407 -0.017375082 -0.3417086 -0.062378842 0.30776918 0.31948775 -0.1448083 -0.08014701
-0.06665701 0.5488193 0.011766848 -0.21121077 0.1251833 0.059939925 -0.16728814 -0.16627954

rnn.weight_hh_l1 f4 [192, 64]
00000000: 90a8 573e 4532 9cbb 0fa8 e1be 256c 8a3e
00000010: eeba c53e 9947 fe3d 6e9c ae3e fe45 5e3e
00000020: 9c23 9e3e 456c a4be b9f7 1dbe 7b03 83be
00000030: 34b1 11be 419b d63d c043 15be 42d4 703e
00000040: e733 2a3d baee 123f 8018 2bbd 6d8c df3c
00000050: 26f6 e53e 8dd6 023e a887 f9bc e9ee f0bd
00000060: 1e12 8c3d 5f40 893c e408 6c3e 1ba8 cf3e
00000070: 5889 0fbf 6c86 5abd 3817 a03e d502 d73e
00000080: fd34 343e a8f7 e73e ad65 593e 477c 583e
00000090: c822 c23e d4c3 dabd 2f75 89be 9f75 873c
000000a0: 9deb 01be 80e0 b3be e91d 95be 7e9e c33e
000000b0: 8178 533e c366 8d3d 6a5c 863e 02f9 f43d
000000c0: 43eb 3d3e e18a 36bc e5f4 00be 800d 82be
000000d0: a00c 5fbd db94 c7bc ce18 cabc e930 1d3e
000000e0: 2b6f bcbd 487f b5bc 998c ebbc f661 0fbf
000000f0: 5ada e5be 92d6 5d3d b28b 63bd 0a86 953d
00000100: db3e 8e3d 74fc 47be 13b9 07bb e820 403c
00000110: cf2a d13d 321a 83bd 790b a13d b502 d33d
00000120: f948 b03d b3b1 9bbd f80f 9b3d 1c13 c1be
00000130: fa79 4abd 3b5e 163e 8fac dbbe 1241 c63e
00000140: c626 ea3c 0def 8cbd 9bb2 843e b544 b8bb
00000150: 1358 883d 5649 693d 63f9 5e3e 3267 a93c
00000160: ddea bebd 4c4d a93e c9fe 2a3e 0ced c4bd
00000170: 84b1 ac3d 7a73 07bd 192a 82bd ff91 113e
00000180: 8261 653c e701 4ebc 8c92 8bbd c3ff 9dbd
00000190: 43f1 9e3b d639 82be 9946 653e 8d35 f13d
000001a0: 2470 593c 9f35 cdbe c7f7 5bbd 877a a4be
000001b0: a4af 8f3d 6d27 0f3d 2b7b f43e 9a4a 26be
000001c0: 530e 37bd eb54 34be 1f29 46be 8947 20be
000001d0: 3fd8 043e 8a9c 52be d819 fb3d 78fa b3bd
000001e0: c1d7 393d f688 a7be 76cf 5cbd e6c8 bdba
000001f0: f5e7 e2bc fd15 a23d 939e 273e 198d 18bc
00000200: 355a 553d 1835 80be 8396 f4be 65fb 883d
00000210: 87ad 433d 6d5a 6a3c e8e9 903c 0571 fdbd
00000220: 8356 84bd a3e8 17bf 184d d8bd dc9f b53d
00000230: 2ba1 373e 7a78 1c3e 138a 343d a8e5 a9bd
00000240: e1ad 04bf 70f2 743e d00d dfbe 5486 193e
00000250: 7c05 ae3e 4a8e a73d 3012 1a3d 789b 9a3e
00000260: 08d8 f43d 6fbe b33d c3a3 40be f5ec 5cbd
00000270: 8b75 003f cb65 a23d ff7e 69be 6c72 87bc
00000280: 1fd8 28be 9095 333e ab34 5dbe 8f72 053b
00000290: 134d 863e b511 133e 17d1 c2bd 59bd 2cbd
000002a0: 9180 833e 4c92 723e e921 633d f4ef ba3c
000002b0: 7268 4f3e 77a2 71bd 9246 12be 80ca cb3d
000002c0: eb6d 6c3e e56b 623d d906 e8be 61fe c13d
000002d0: 8e5c 70be 9a08 8abe ccd1 9d3d 8497 9a3d
000002e0: 589e 30bc b010 ef3e 6bcd 6d3d e590 26be
000002f0: 0e91 0a3d 784e 56bd a8b7 ebbd 71c4 433d
00000300: a96c 703d f3db f5bd e092 633d 19cb 38be
00000310: 540b 36be 857b 3ebe c2cc 93bd 5f3d f8bd
00000320: 62d7 35bd 09e3 ed3d 5717 0f3c a072 093e
00000330: 6fc9 6c3d cf6c 9b3e 4a05 27be ddbb eabc
00000340: 1032 eb3d 633d 7dbe 1473 063e fa8e ec3e
00000350: d112 7b3d 5aad c8be 464d ac3e d378 9fbe
00000360: 2178 c9be 502a fb3d ff34 aebd c2fb 20bf
00000370: 96bf 813e 1ee5 12bf 22c6 bfbd 6312 453c
00000380: 182a 8d3d ba02 c53e 5191 c1bd 0eee 6abc
00000390: f905 0dbf cbe2 6abd 05ab 8fbe 32eb b9bd
000003a0: a258 9cbe c33e 9f3c bdab e93d 7232 6ebe
000003b0: d8bb d0be 4758 bbbd ce87 a1bd 9b67 84bd
000003c0: a120 383b 3ea8 bcbd f658 26bd 4cd9 b63e
000003d0: 26dd 8abe ef3d 4dbe 6de8 e53d 9376 c1bd
000003e0: 45ae 973d 0f07 b0bd 86c8 b73d b7cd a43d
000003f0: af1e 4b3e 45d0 18bd df0c adbe 6b44 30be
0.21060395 -0.004766735 -0.4407353 0.27035633 0.3861918 0.12416 0.3410372 0.21706387
0.30886543 -0.32113853 -0.1542653 -0.25588593 -0.14227754 0.10478831 -0.14576626 0.2351847
0.041553404 0.5739552 -0.041771412 0.02728864 0.4491436 0.12777157 -0.030460194 -0.117643185
0.06839393 0.016754327 0.23050267 0.40557942 -0.56068945 -0.05335085 0.31267715 0.41994348
0.17598338 0.45306134 0.21230192 0.21141158 0.3791716 -0.106818825 -0.26847216 0.016535578
-0.12687536 -0.35132217 -0.29124382 0.38206857 0.20651437 0.06904366 0.2624238 0.11961557
0.18546776 -0.01114151 -0.1259342 -0.25400925 -0.0544554 -0.024362972 -0.02467003 0.15350689
-0.09200891 -0.022155419 -0.028753566 -0.5600885 -0.44893152 0.05415971 -0.055553146 0.073009565
0.069455825 -0.19529897 -0.0020709678 0.011726595 0.10213243 -0.06401481 0.07863516 0.10303251
0.086076684 -0.07602253 0.07571405 -0.37709892 -0.049432732 0.14684384 -0.4290509 0.3872152
0.028582942 -0.06881533 0.25917515 -0.005623425 0.06657424 0.056954704 0.21774821 0.02067909
-0.0932214 0.33066785 0.16698755 -0.096155256 0.08432296 -0.03306911 -0.06355686 0.1421585
0.014000298 -0.012573696 -0.06815061 -0.07714798 0.004850538 -0.2543475 0.22390212 0.11777792
0.013271365 -0.40079972 -0.053703096 -0.3212473 0.07015923 0.03494971 0.4775022 -0.16239396
-0.044691395 -0.17610519 -0.19351624 -0.15652288 0.12973116 -0.20567527 0.12260789 -0.087880075
0.045371775 -0.3272168 -0.053908788 -0.0014479428 -0.027698496 0.0791435 0.16369085 -0.009310984
0.05208798 -0.25040507 -0.4777108 0.06688575 0.04777291 0.014303786 0.01768966 -0.123750724
-0.06461813 -0.5933935 -0.105615795 0.088683814 0.17932574 0.15280333 0.04407699 -0.082957566
-0.5182782 0.23920608 -0.43565226 0.14992648 0.3398856 0.08181436 0.037615 0.30196738
0.11955267 0.08776557 -0.1881247 -0.053936917 0.50179356 0.07929572 -0.22802351 -0.016534053
-0.16488694 0.17537522 -0.21602122 0.0020362472 0.26230678 0.14362223 -0.09512537 -0.042172763
0.25684026 0.2368862 0.05545226 0.022819497 0.20254686 -0.05899283 -0.14284733 0.09950733
0.23088805 0.055278677 -0.45317724 0.09472347 -0.23472807 -0.26959687 0.07706031 0.075484306
-0.01077994 0.4669242 0.05805723 -0.1626621 0.03382974 -0.052320927 -0.11509639 0.047794763
0.058697376 -0.120048426 0.055559993 -0.18046226 -0.17777759 -0.18601806 -0.07216789 -0.121210806
-0.04439486 0.11615569 0.008733592 0.13422632 0.05780929 0.30356452 -0.16310611 -0.028654033
0.11484158 -0.24730448 0.13129836 0.46202832 0.06129724 -0.39194757 0.33652705 -0.3114687
-0.39349464 0.1226393 -0.08506202 -0.6288415 0.2534148 -0.57380855 -0.09363963 0.0120283095
0.06892794 0.38478643 -0.09451545 -0.014338983 -0.5508724 -0.057345193 -0.28060165 -0.09078063
-0.3053637 0.019439107 0.114097096 -0.23261431 -0.40768313 -0.09147697 -0.07887231 -0.06465074
0.002809562 -0.09211777 -0.040612184 0.3571266 -0.27121848 -0.20043157 0.11225972 -0.09446444
0.07406286 -0.08595096 0.08973794 0.080470495 0.19835924 -0.037307996 -0.33798882 -0.172136

rnn.bias_ih_l1 f4 [192]
00000000: faed 27be 4ece 22bd 065d 0b3e 843b 213d
00000010: 4334 52bc fbf8 813d 4804 063e 059d 433e
00000020: 3d59 7ebd 68a7 453d fb6c 153e da73 5d3e
00000030: c202 513e 4cc8 18be 8495 1abe b8ae 6cbd
00000040: 6eef 973d 4b20 d73d 4411 d83b 94f5 e83d
00000050: 2587 1abd 8dc2 433d 4e7b 7cba d6ac f2bd
00000060: ed78 b9bd 2daf 863d 9475 873c cc06 323d
00000070: 0097 dd3d d8d8 edbd 8376 513e 5c49 1e3e
00000080: f23e 2e3d c191 8bbd 3712 10bc e824 aa3c
00000090: 8713 f33c 3b5f df3d 986b 283d 09f8 b73c
000000a0: e324 e73d cd16 25bd f439 e5bc f5e2 b0bd
000000b0: 807e b83c 05c7 54bd 519f b7bd 8f26 963c
000000c0: a155 15be 5367 193d b2be c4bd ea61 853d
000000d0: bea4 dfbd b35c 613e f770 25bd 7401 ed3a
000000e0: a6d0 8a3d ddf1 68bd 99a4 503c 525a 4cbc
000000f0: 86b3 ae3d ba14 d13c 66f6 babc ad53 16bd
00000100: bfa4 a1bd d231 6dbd 69f6 e8bd 0134 d0bd
00000110: 3e37 863b 749e 643b f9cf 05be a45e 433d
00000120: 1309 d0bd 6d07 42be be43 cebd 0625 093c
00000130: fe27 53bd 37f0 e33c 2e76 8e3c d0a0 2ebd
00000140: ccb2 f0bc 710c 1abe bdf2 aebd b145 ef3c
00000150: a86b 343d d166 1e3d ffc2 3f3d f031 eebd
00000160: 5bd3 0ebe 471c 1dbc 3e3b adbd d616 43bd
00000170: 59ac 94be bf00 80bd e79e 03be 888d 9bbd
00000180: 4c92 e2bc 6631 47bd a5d3 9e3d 5cb4 ac3d
00000190: 6b0a ffbd 5e48 dabc 4827 bfbd 43b5 fabc
000001a0: 9d6b 1fbe d8ad dbbd 39cd 17bd 7eef f6bd
000001b0: bcc3 9039 da4e 53bd 09b7 bdbd 3d5f 0ebd
000001c0: 0c2e e2bd f8a7 143c ad2e f83c 6020 3bbe
000001d0: f701 44be 44dd 07bd c7c3 cebd 5807 223d
000001e0: 9cb4 ccbd d6de b0bc 4474 ddbd bb27 73bd
000001f0: c4c2 12be 3ca8 41bd 1ce0 cfbd 710a 873d
00000200: bbe6 953d fd68 a83d 80d1 933d 17f9 143d
00000210: 30ad 97bd 9161 0abe 612d dabd b63a 83be
00000220: 88e0 b63d e2a8 ab3d ee1f 01be 78a2 113d
00000230: b957 463e c166 f73d 6975 05be da24 f2bd
00000240: 74d0 f33d 4849 6cbd a144 83be 8081 4a3e
00000250: 5c92 65bc 0af1 a93d 6b0e af3d 1704 69bd
00000260: f3dc 643d 43c6 623b 1066 09be 6317 703a
00000270: 0fb0 f33d aee5 833d 3d94 92bd 6473 15be
00000280: 9ee6 df3d be9b c93d 380e 41be 1f9b 89bd
00000290: a485 f7bd d21c d13d 8a9f a2b9 e5d2 12be
000002a0: 37bb 48bd 4854 75bc ec6b 53bd a202 c4bd
000002b0: e1db 39be 1703 f2bd 3f05 bbbd 1951 163d
000002c0: fabf b7bd 40bf 20be 0f48 6bbc 78cc ed3d
000002d0: 2f16 323d ca25 9f3c d41e 1b3e 6186 0ebe
000002e0: 695c d2bd ef20 61bd 4cb3 1a3e 2c26 673d
000002f0: da7f b6bd e747 f8bd 87b2 933a 840c 89bd
-0.16399375 -0.03974753 0.13609704 0.0393634 -0.012829843 0.063463174 0.1308757 0.19102867
-0.062096823 0.048255354 0.14592354 0.21626225 0.20411208 -0.14920157 -0.15096098 -0.057783812
0.074187145 0.10504206 0.006593855 0.11374965 -0.03772654 0.04779296 -0.0009631411 -0.11849372
-0.09056268 0.06576381 0.016535558 0.043463513 0.108198166 -0.11613625 0.20455365 0.15457672
0.042540498 -0.0681491 -0.008793405 0.020769551 0.029672397 0.10906836 0.041118234 0.02245714
0.112863325 -0.040304948 -0.027981736 -0.086370386 0.022521257 -0.051947612 -0.08965934 0.018328933
-0.14583446 0.037452053 -0.09606685 0.06512816 -0.10920094 0.22008018 -0.040390935 0.0018082098
0.06778078 -0.056871284 0.012734556 -0.012472706 0.08530335 0.025522579 -0.02282257 -0.036700893
-0.07892751 -0.05790884 -0.11375124 -0.10166169 0.004095941 0.0034884484 -0.13067617 0.04769768
-0.10157981 -0.18948145 -0.100715145 0.0083706435 -0.05155181 0.027824504 0.017390337 -0.04263383
-0.029382132 -0.15043809 -0.085423924 0.029208036 0.04404798 0.038672272 0.046816822 -0.116306186
-0.13947813 -0.009589261 -0.08458565 -0.0476292 -0.2903774 -0.06250142 -0.12853585 -0.07595354
-0.02765765 -0.048631094 0.07755212 0.08432838 -0.12453159 -0.026645835 -0.09333664 -0.03060401
-0.15568395 -0.107265174 -0.03706095 -0.12057398 0.00027611654 -0.05158887 -0.09263427 -0.034758795
-0.11043939 0.00907325 0.030295694 -0.18274069 -0.19141375 -0.03317 -0.10095935 0.039557785
-0.09995386 -0.021590631 -0.108131915 -0.05936406 -0.1433211 -0.04727958 -0.10150167 0.065937884
0.07319399 0.0822315 0.07217693 0.036370363 -0.0740608 -0.13513781 -0.106531866 -0.2563073
0.08929545 0.08381821 -0.12609836 0.035555333 0.19369401 0.120801456 -0.1303307 -0.11823435
0.11904994 -0.057687074 -0.25638297 0.19775963 -0.014011946 0.08297928 0.08547672 -0.056888666
0.055874776 0.0034603036 -0.1341784 0.00091587583 0.11898815 0.06440292 -0.071571805 -0.145948
0.109326586 0.098441586 -0.1885308 -0.0671904 -0.12086037 0.10210575 -0.00031017914 -0.14338262
-0.049006667 -0.0149737075 -0.051616594 -0.09570815 -0.18150283 -0.118169956 -0.0913186 0.036698435
-0.089721635 -0.15697956 -0.014360442 0.11611265 0.043478187 0.019427199 0.15148479 -0.13918449
-0.10271532 -0.05496305 0.15107459 0.056432888 -0.089111045 -0.12123089 0.0011268415 -0.0669184
