graphrnn_v2/experiments/structures/k_regulars/vary_m/3_regular_vary_m_32_graphrnn_s/model_at_1600.pt (torch, 407571 bytes, 22 tensors)

embedding.0.weight f4 [32, 32]
000000 55 37 de be f2 e4 94 be df 9a b4 be 2d 2d 67 be
       -0.4340159 -0.2908092 -0.35274407 -0.22575827
000010 d6 58 56 be 21 45 89 3a ab 09 9a 3b eb 8b d8 3d
       -0.20932326 0.0010472873 0.0047008595 0.10573562
000020 db b6 fa 3c 48 09 89 3d 72 02 07 3e 17 b9 80 3e
       0.03060477 0.066912234 0.13184527 0.25141212
000030 f6 26 d4 3b 1c 6d 67 bd fa 25 95 3d 1e 2b 9d 3d
       0.006474371 -0.05650054 0.07282634 0.076742396
000040 c7 02 10 bc fc 1e 8e 3c 3d cd f4 3c ca b8 fa bc
       -0.008789725 0.017348759 0.029883021 -0.030605692
000050 fa 19 3b bd a1 80 e5 bd 52 60 e3 3c 56 be 14 3e
       -0.04567907 -0.11206175 0.02775589 0.14525732
000060 b3 93 01 be be cf 85 bd a2 ca 30 3e fa 5b 33 3d
       -0.12653999 -0.06533764 0.17264798 0.043788888
000070 ed a5 1e be 55 85 19 be 24 30 43 bd 5a 84 37 3d
       -0.15492983 -0.14992268 -0.047653332 0.044803955
000080 b0 2b fa bb 56 98 cb bc 19 68 8f 3d 07 8e 8f 3e
       -0.0076346025 -0.024852913 0.07002277 0.28038046
000090 04 a5 37 3d 16 b3 7b 3d af 41 3a 3d 6c 7b 54 bd
       0.044835106 0.061450087 0.045472797 -0.051875517
0000a0 2b 69 5a bd bf 0d 62 3e ae e1 0c 3f 9a 44 1a 3f
       -0.053322952 0.22075556 0.5503186 0.6026093
0000b0 61 c9 61 3f 91 bb 6b 3d a2 36 eb bb f3 6f 85 be
       0.88197905 0.057551924 -0.0071781436 -0.26061973
0000c0 d2 03 13 be 87 1c 87 bc 9d 0d 93 be 41 cb 1d be
       -0.14356926 -0.016493095 -0.28721324 -0.15409566
0000d0 c5 f3 18 ba 3a 2b 8e bd a1 63 c4 bc fc 07 8e be
       -0.00058346643 -0.069418386 -0.023973288 -0.27740467
0000e0 3f 36 0e be 8c 3b 86 be 2e 37 29 bd e0 4a 92 be
       -0.1388788 -0.26217306 -0.04131239 -0.2857275
0000f0 2c cb 75 bd 20 75 56 be 52 22 72 be 99 4e 64 be
       -0.060008213 -0.20943117 -0.23645905 -0.22295608
000100 81 20 04 bf 29 f3 43 3e 9c 8c d5 3e 8d 36 b7 3d
       -0.516121 0.19135727 0.4170884 0.089459516
000110 2f 21 d8 be 4c 40 f9 be 0a ce 19 bf 33 9f 1a bf
       -0.42212817 -0.48681867 -0.60080016 -0.6039917
000120 e1 ba 1a bf 71 e6 e5 be 04 06 f2 be 05 39 ca be
       -0.60441405 -0.44902375 -0.47270215 -0.39496627
000130 5f f8 65 be e6 93 b0 bc eb a3 15 3e ba 19 1d 3e
       -0.22458027 -0.021554898 0.14613311 0.15341845
000140 a0 18 2a bd 04 4c ae bd d3 79 b9 3d ec cd 5a bd
       -0.04152739 -0.085105926 0.09056439 -0.05341904
000150 56 fc 6d bd b9 6e 82 3d bd 73 23 be a4 2a 88 bd
       -0.058101974 0.06368775 -0.1596212 -0.06648758
000160 2d 2c 0b be 97 01 a4 bd 70 dd 02 3e d1 ad 11 be
       -0.1359107 -0.08008116 0.12779784 -0.14226462
000170 3a 5f 19 bd 0c e0 84 3d 46 db 1c 3d e5 0b 20 3e
       -0.03744433 0.06488046 0.038295053 0.15629537
000180 da 92 21 3e 4f 02 ac 3d 93 dc da 3d ff 44 b8 3e
       0.15778676 0.08398878 0.106866024 0.3599014
000190 aa 80 b0 3e 24 90 42 bb b4 5c a4 bb be 59 0d be
       0.34473163 -0.0029687965 -0.005015934 -0.13803765
0001a0 7a e6 2b 3e 2e 32 8b bc 73 ad 12 3e e8 35 a9 3d
       0.16787139 -0.016991701 0.14323978 0.08262235
0001b0 ac 05 b6 bd e3 9d 1d 3e 33 16 84 3e 9c 24 05 3d
       -0.088878006 0.1539226 0.25798187 0.032505617
0001c0 0b 95 ad bd 1b 79 6f 3e 0c bd 25 3e 23 7e 28 3e
       -0.08475693 0.23386042 0.16185397 0.16454367
0001d0 3e c2 33 3d 07 a8 f4 3d 93 67 98 bd 22 17 60 3e
       0.043886416 0.11946111 -0.0744163 0.21883824
0001e0 0a 0a 9e bd 98 96 c7 3b ba 22 04 3d 7e d5 af 3d
       -0.077167585 0.00609095 0.03225968 0.08585642
0001f0 d7 ff 36 3e b2 fa 10 bb c6 ec 76 3e bf 7b 7e bd
       0.17871033 -0.0022122082 0.2411376 -0.062129732
000200 4d 19 c8 3c 76 5b ca 3c 63 98 57 3e 53 f4 a4 3e
       0.024426127 0.024701815 0.21054225 0.32217655
000210 6a ab a1 3e 13 a6 a5 3d 22 ba 0f 3e 18 9c bf 3d
       0.3157609 0.08088317 0.14035848 0.093559444
000220 97 aa 07 3d cd 23 53 bd c3 50 99 3c 93 2a fc 3b
       0.03312167 -0.051547814 0.018715268 0.007695505
000230 31 0e 87 3c 19 39 8b 3e 59 78 85 3e bd b3 9f 3d
       0.01648626 0.27192 0.2606838 0.07797954
000240 1c 38 9b 3e 47 60 db 3d 3d a3 03 3e e9 de 36 3e
       0.30316246 0.10711723 0.12855239 0.17858471
000250 1c bc 55 3e 75 38 0e 3e 3f 1b a6 3e a7 bf fe 3c
       0.2087254 0.13888724 0.32442662 0.031097246
000260 e3 7b c1 3d 6f 3b b2 bb 4c bb dd 3d 3e d9 86 3e
       0.09447458 -0.005439214 0.1082674 0.26337618
000270 e6 e5 36 3e 87 99 a4 3e f8 91 f2 3d d6 81 47 bc
       0.17861137 0.32148382 0.118442476 -0.012176951
000280 00 f8 fa 3e cf e5 82 3e a6 4f 64 3e f8 9d 03 3e
       0.49017334 0.25565955 0.22296008 0.12853229
000290 89 47 fd 3d 23 e3 bc 3d 12 c4 e5 3d ce b7 8a 3e
       0.1236716 0.092230104 0.11219038 0.27093357
0002a0 4e 6e 92 3e a7 82 c6 3d d0 14 01 3e 7b 1c 24 3e
       0.2859978 0.09692889 0.12605596 0.1602649
0002b0 b0 44 59 bc cc 06 96 3e ad 65 0a be 72 46 52 be
       -0.013261005 0.2930206 -0.13515349 -0.20534685
0002c0 12 35 f2 bd 95 67 7d be a4 62 3c be e6 61 20 be
       -0.118265286 -0.24746545 -0.18397003 -0.15662345
0002d0 d6 98 13 be 9b 2b 45 be bb fc 75 be af a9 b1 bd
       -0.14413771 -0.19254915 -0.2402219 -0.08674943
0002e0 d8 a4 73 be 47 81 cb 3c a4 4c eb 3c 08 4f b3 bd
       -0.23793352 0.024841918 0.028723069 -0.087553084
0002f0 77 3a 2c be ff dc d7 bd c4 fe 3b bd f9 c4 68 be
       -0.16819178 -0.105401985 -0.04589726 -0.22731389
000300 85 6f 38 3e 2b 01 94 3e 08 9f 22 bc d0 c2 d5 3c
       0.18011291 0.2890714 -0.009925611 0.02609387
000310 d8 35 ad be dd a2 8d be d2 53 99 bc 4c 3e f2 bd
       -0.33830142 -0.27663317 -0.018716726 -0.118282884
000320 ab b5 e2 be fb eb 23 be 53 31 74 3e 02 58 f9 3d
       -0.44279227 -0.16007988 0.2384694 0.12174989
000330 09 e4 96 3e 42 d4 93 be e7 28 16 bc 1f fd 73 3b
       0.29470852 -0.28872877 -0.009165025 0.003722973
000340 4b 82 a8 3c 55 8f 37 be 9d 4b 9f 3d c5 3c 9a bc
       0.020569941 -0.1792577 0.07778094 -0.018827805
000350 5e d2 03 be 1a 94 b4 3d 08 f0 dc bd 0d 86 3f 3c
       -0.12873217 0.08817311 -0.1078797 0.011689675
000360 d9 5d ef bd ea fc 24 be 1b 83 f5 bd fd 82 8e bd
       -0.11687822 -0.16112104 -0.11987897 -0.06958578
000370 4a be 0c 3e 4d 75 41 be 9a 32 42 be 0d fb 0f 3e
       0.13744465 -0.18892403 -0.18964615 0.14060612
000380 4d 95 4e 3b 30 d1 f2 bb 37 2f 35 3d 3d c7 8a 3d
       0.0031522096 -0.007410191 0.04423448 0.06776283
000390 96 69 1a be 4c 7c 22 3d 9b c1 4d 3e 9e 54 c3 3e
       -0.1507934 0.03966932 0.20093386 0.38150495
0003a0 86 e8 b0 3e 4e bc 8b 3e 20 29 c5 3d 8c 66 00 3e
       0.345524 0.27292103 0.096269846 0.12539119
0003b0 d5 75 2d 3e 06 17 09 3d 27 c4 74 bc f0 de ab bd
       0.1693948 0.033469222 -0.0149393445 -0.08392131
0003c0 e8 8c 31 3e ee 77 0b 3e 62 bf 78 3d ea b7 24 bd
       0.17338908 0.13619968 0.060729392 -0.040214457
0003d0 03 49 8c 3b 47 ad e6 3c 65 50 df 3d 83 41 53 3d
       0.0042811646 0.028158797 0.10904006 0.05157615
0003e0 54 13 82 3e 26 75 88 3e da e6 a5 3d 62 aa 7e bd
       0.2540537 0.26651877 0.08100672 -0.06217421
0003f0 fc ab 57 3e 5a a9 04 3e 16 8a ce 3c dc 38 a0 3c
       0.210617 0.12955227 0.025212329 0.019558363

embedding.0.bias f4 [32]
000000 dd 31 61 3e 1c f6 3c bd 69 c4 16 bc 79 4d e7 3d
       0.21991678 -0.046133146 -0.009202101 0.112940736
000010 a3 35 0b bd b4 5d 00 be 55 15 17 3d 67 4e 2a bd
       -0.0339867 -0.12535745 0.03688558 -0.041578677
000020 50 c5 d4 3d 91 48 06 be f6 ba 16 3d 24 c8 19 be
       0.10389197 -0.1311362 0.036799394 -0.15017754
000030 a6 81 cc 3d 27 ea 0e be be f2 3c 3e ee e1 1b be
       0.09985666 -0.1395651 0.18451974 -0.15222904
000040 09 a5 30 be eb 15 3a 3e 7f 19 e0 bd c7 ec 4f 3e
       -0.17250456 0.18172424 -0.10942363 0.20305167
000050 f8 77 e6 bd 8f ef 93 3e a7 f2 15 be 23 80 90 3c
       -0.11253351 0.28893706 -0.14643346 0.017639225
000060 2d 51 8a bd a3 8b c4 3d 40 3f c5 3c 97 90 7f 3e
       -0.06753764 0.09596946 0.024078012 0.249575
000070 88 33 b4 bd 5d dc 42 3e cf fd c3 bd 59 c0 a7 3d
       -0.08798891 0.19029374 -0.095698945 0.08190984

rnn.weight_ih_l0 f4 [192, 32]
000000 62 89 a9 3e b1 50 8a 3e a3 66 f2 bc 90 f7 c2 be
       0.33112627 0.27014688 -0.029589957 -0.380795
000010 ee 98 be be 18 94 8c be 62 eb 36 3d 8b 01 a4 bd
       -0.3722605 -0.27456737 0.044658072 -0.08008107
000020 30 e0 c6 3d 92 45 9b be db d4 54 be 48 9d e8 be
       0.09710729 -0.30326515 -0.20784323 -0.45432496
000030 1a 33 c8 bd 51 57 d7 be f3 54 cb 3d d1 f8 90 be
       -0.09775372 -0.42058805 0.09928312 -0.28314832
000040 7e c7 be bd ba 3c 6a 3e 8a 88 04 3c 5a 13 8a be
       -0.09315394 0.22874728 0.008089194 -0.2696789
000050 8c fc bc 3d 0c 7a d5 3c 92 d9 b1 3c d1 6a 96 be
       0.09227857 0.026059173 0.02171019 -0.2937837
000060 2f 76 4a bd 77 7d ee bd 2c f7 f6 bd 38 2c 9b be
       -0.049429115 -0.11645024 -0.12058863 -0.30307174
000070 a1 0e 07 be 50 ab a5 3e c2 34 12 be 11 48 b4 bc
       -0.13189174 0.32357264 -0.14277938 -0.02200702
000080 e1 47 b1 bd e2 1c 7f bd a3 6a 28 3d 17 f8 46 be
       -0.08656288 -0.062283404 0.04111732 -0.19430576
000090 cb d8 8d 3d 29 ea ec be e4 d7 5f bd 42 96 d3 be
       0.069261156 -0.462724 -0.05464925 -0.41325575
0000a0 43 d3 9e be 3c 60 71 bf a7 e3 b3 3c 4f c1 3d be
       -0.31020555 -0.94287467 0.021959139 -0.18530773
0000b0 5b 01 0c be 1e 30 9a be 92 4a ad 3e c5 e0 d4 be
       -0.13672392 -0.30114836 0.33845955 -0.41577736
0000c0 bd a1 cb be 1d 8f 16 be a5 95 e6 be ee 70 81 bc
       -0.39771834 -0.14703031 -0.45036045 -0.01580092
0000d0 cc ed f1 be 73 f9 6d 3e 1f d7 11 3e e1 44 01 be
       -0.47251737 0.23239689 0.14242218 -0.12623931
0000e0 89 82 04 bd 02 37 5a be 85 bc ae be 10 e5 d3 be
       -0.03235105 -0.21310046 -0.34128204 -0.41385698
0000f0 47 7a b4 be 35 ca dd be 46 48 89 be be 5d b8 be
       -0.3524954 -0.43318334 -0.26812953 -0.3600902
000100 69 a3 08 be 61 73 8d be 8e 51 e9 bd 64 e9 0a be
       -0.13343586 -0.2762709 -0.113925084 -0.13565594
000110 cd 0a e8 bd 6c 2a 4c bd 66 58 7c 3d 98 4c 6a bd
       -0.11330185 -0.049845144 0.06160774 -0.05720195
000120 65 7f ba be 45 cb 12 3b 1b 4b df bd 27 7e 6a be
       -0.3642532 0.002239899 -0.10902997 -0.22899686
000130 fd 75 9d bd 4d 56 19 be 0e c2 67 be 96 b1 1e bd
       -0.0768852 -0.14974327 -0.2263262 -0.038743578
000140 d1 f7 ce bc c4 e6 c7 3c b0 74 47 be 67 cf 8e bd
       -0.025264652 0.02440203 -0.19478106 -0.069731526
000150 cd 69 12 be 85 4b 93 3c 80 ef f8 bc 39 f5 b3 bd
       -0.14298172 0.017980346 -0.03038764 -0.08787007
000160 df 2b 74 3c 26 64 f8 3c 8f df 40 be f9 72 e2 bd
       0.014903038 0.030321192 -0.18835281 -0.110570855
000170 4a a1 3d bd 97 9b 42 be b3 42 be bd f2 f4 38 be
       -0.046296395 -0.19004665 -0.092900656 -0.18062189
000180 b9 28 24 3f 32 70 a9 3d 84 a6 33 3e 1f 1d 91 be
       0.6412464 0.08273353 0.1754399 -0.2834253
000190 fc 55 c1 3c f6 2f 07 bf b7 74 29 be 77 f2 8a 3d
       0.02360057 -0.5280756 -0.1654843 0.06784528
0001a0 57 2b 00 3f 2e 78 4d be 32 78 ac 3e 25 e4 a5 3d
       0.5006613 -0.20065376 0.33685452 0.08100156
0001b0 ac 0e 8a 3e 51 23 a1 3e 2f c6 69 3e 48 5e cc bd
       0.2696432 0.31472257 0.22829507 -0.0997892
0001c0 bb 60 1b bf 38 fa 20 3e 97 81 39 be f7 1f fe bc
       -0.60694474 0.15720451 -0.18115841 -0.031021101
0001d0 51 b1 70 3d 84 ac 29 3e 26 9a 9e be 73 54 85 bd
       0.058762852 0.16569716 -0.3097698 -0.06510248
0001e0 41 17 af be ce 04 89 3d 91 58 d6 be dd ad 90 3e
       -0.3419743 0.066903695 -0.41864446 0.28257647
0001f0 f6 50 bb be 74 b6 a8 3e 92 79 35 3d 34 a3 83 3e
       -0.36585206 0.329517 0.04430539 0.25710452
000200 69 4e 6f 3d f2 77 64 be 17 55 d7 bc 26 84 00 be
       0.058424387 -0.2231138 -0.026285691 -0.1255041
000210 e5 c8 e9 bd 75 b3 9f be ec 5e 44 be a0 36 22 be
       -0.11415271 -0.31191602 -0.19176835 -0.1584115
000220 30 02 d8 bc 33 f3 16 be 2d 70 19 be fc 55 a3 be
       -0.02636823 -0.1474121 -0.14984198 -0.31901538
000230 38 ec a3 bd 54 73 76 be 2e 68 0d be 38 b0 94 be
       -0.080040395 -0.24067432 -0.13809273 -0.29040694
000240 ec 6c 8f be 1e 44 85 3d d4 f6 59 be 66 0e 69 bd
       -0.28012788 0.06507133 -0.21285564 -0.056898497
000250 9d df 66 3d 22 4c ed bc 87 8f 4f be a5 09 77 be
       0.056365598 -0.028966967 -0.20269595 -0.24124773
000260 03 c9 66 be 5d 69 6c bd 78 44 07 be bc 25 01 bd
       -0.22537617 -0.05771767 -0.13209713 -0.031530127
000270 80 80 7d be a2 75 9c 3d 6e 7f 2b be 39 00 d6 3c
       -0.2475605 0.07639624 -0.1674783 0.026123153
000280 01 19 7c 3e 56 3e c5 be 97 d6 85 be 02 67 bd be
       0.24618913 -0.3852412 -0.26140282 -0.3699265
000290 68 d2 61 bd 50 5b 64 be 4c f5 5b 3d c7 20 c2 3d
       -0.0551323 -0.22300458 0.05370073 0.09478908
0002a0 1a cc 06 be 00 ad a6 3e e6 2a f8 3c 88 b3 1a be
       -0.13163796 0.32553864 0.030293893 -0.15107548
0002b0 c6 0d 60 3d e1 51 04 be c0 83 5a 3f 1c 85 34 be
       0.054700635 -0.1292186 0.85357285 -0.17628902
0002c0 36 c2 e3 bb df 5c 57 be 84 e0 c3 be 4a 68 b8 3d
       -0.006950642 -0.21031521 -0.3825723 0.090042666
0002d0 be 50 19 3e c0 7f bf 3e 00 5e e7 3d ca a5 19 3e
       0.14972207 0.37402153 0.11297226 0.1500465
0002e0 2e 7f 0a 3c d3 3e f1 3e 83 01 1a 3f 05 b8 8a bd
       0.008453174 0.47118244 0.60158557 -0.0677338
0002f0 ae d3 33 3c f5 33 26 bf be 5f 08 3f e0 1a 92 be
       0.010975761 -0.6492303 0.5327109 -0.2853613
000300 09 f4 52 3e 7a a7 15 3d d1 a9 90 3f 8a 96 99 3d
       0.20600905 0.03653667 1.1301824 0.07499416
000310 18 4f e6 3e ae 7e d9 be 50 cb fa 3d 14 83 72 3e
       0.4498222 -0.4247946 0.1224581 0.23682815
000320 33 24 af bd 3c 72 09 be 20 2a 95 3e b1 2f 72 3d
       -0.08551826 -0.13422483 0.291337 0.059127513
000330 e1 08 b9 3e 66 40 0f 3e 45 09 00 3f c4 0e 7a 3e
       0.36139587 0.1398941 0.50014144 0.24419695
000340 96 3d 0c be e9 6f f4 3d 47 c6 ed bd d7 af bc 3d
       -0.13695368 0.11935408 -0.11610084 0.09213226
000350 b8 19 fe 3e df b8 be bb 9e df 0b be 5a cb 14 bd
       0.49628997 -0.005820378 -0.13659522 -0.036326744
000360 2e 6f 03 be 55 8c cc bd d0 dc 11 be 87 f0 3c be
       -0.1283538 -0.09987704 -0.1424439 -0.18451129
000370 35 fc 46 be 83 4a ac 3e 1e 28 c6 3d 27 c0 f5 3c
       -0.19432147 0.33650598 0.096756205 0.029998852
000380 36 64 eb bd 60 5f 98 3e de 96 98 bd 42 7c 68 bd
       -0.11493723 0.29760265 -0.07450651 -0.056759126
000390 76 36 35 3e 4c c0 f8 3e e6 ab 7d be d9 d8 9c 3f
       0.17696556 0.4858421 -0.24772605 1.2253677
0003a0 b9 3c ac 3c 95 8a c0 3b 32 77 a1 3e d1 18 eb 3d
       0.021025049 0.0058758953 0.3153625 0.11479343
0003b0 78 73 14 3e 04 85 44 be fa bb 6f 3f 78 5b 3c 3d
       0.14497173 -0.19191366 0.93646204 0.04598567
0003c0 4a 9a a3 bc 98 f9 3d 3f ae 26 74 3d 43 0d 8d be
       -0.019971032 0.74208975 0.0596072 -0.2754918
0003d0 86 08 31 3e b2 f9 11 be 9a 14 49 3d 7c de 8c 3e
       0.17288408 -0.14255407 0.049091913 0.27513492
0003e0 97 53 21 3d f1 61 a0 bd 73 03 17 3d eb bc 92 be
       0.039386358 -0.07831181 0.036868524 -0.28659758
0003f0 c7 e1 df 3d 58 03 e4 3d 39 4e 1b 3f 24 00 d2 3c
       0.109317355 0.1113345 0.60666233 0.025634833

rnn.weight_hh_l0 f4 [192, 64]
000000 38 cf 23 3d b4 d8 10 3d 43 54 83 3e 90 a4 87 3d
       0.03999254 0.035362914 0.25650224 0.06623185
000010 78 e5 2f bf 2b ef cc be 7f c6 c5 bd 65 34 ab 3d
       -0.68709517 -0.4002622 -0.09657001 0.08359603
000020 06 46 2c be 97 08 2b 3e 98 6c 90 be e3 a9 9a bd
       -0.16823587 0.16702496 -0.2820785 -0.075519346
000030 b6 66 02 3e 65 69 ba bd 6f 92 ae bd 48 64 07 3c
       0.12734494 -0.09102134 -0.08524024 0.008263655
000040 fc 62 07 3e 07 91 a8 3d 99 f1 06 bc ea 91 7d be
       0.13221353 0.08230787 -0.008236312 -0.24762693
000050 df 58 5f bd 03 fb df bd 5c 87 ea bd 70 79 a4 bd
       -0.054528113 -0.109365486 -0.11451599 -0.08030975
000060 4f 72 1f 3e ec f7 f6 bb d8 86 a7 3c e2 49 92 3c
       0.15570949 -0.007536879 0.02045004 0.017857496
000070 09 a3 ab 3e b7 24 76 3e 6f 04 a8 be af 0a 92 bd
       0.33522823 0.24037443 -0.32815883 -0.07130944
000080 e4 7d bf be 15 c0 89 bd f8 88 2f 3e 39 ea 10 bd
       -0.37400734 -0.0672609 0.17142093 -0.035379622
000090 7b d9 24 be b3 92 90 bd b3 6a 7d 3d d5 28 5b be
       -0.16098587 -0.07059231 0.061869334 -0.21402295
0000a0 cd 7e 49 bd fc 90 44 3e 97 e6 6a 3e 97 f4 04 bd
       -0.049193192 0.19195932 0.22939526 -0.03245982
0000b0 95 a8 0b 3e 4f bb eb bd 11 83 0c 3e b8 bf 64 be
       0.13638528 -0.11510336 0.13721873 -0.2233876
0000c0 d7 bd 90 bd 37 0a 02 3e ca f4 ce 3e 0e aa 73 3e
       -0.07067459 0.12699209 0.40421134 0.2379534
0000d0 cc eb 02 3e 1b 97 3a be 64 55 07 3e e8 2a 97 bc
       0.12785262 -0.18221705 0.13216168 -0.018453076
0000e0 ae 0f 1c bd 0b 85 2b 3d 64 d3 71 be 97 30 14 3e
       -0.03810089 0.041874927 -0.23615795 0.1447166
0000f0 49 ad 30 3e 5a 70 13 be 64 6a 33 bb 2a 45 ac bd
       0.17253603 -0.14398327 -0.0027376646 -0.084116295
000100 df 3f 82 bd 64 07 d8 3d 3d d1 52 3e 79 ee ab bd
       -0.06359839 0.10548285 0.2058763 -0.083950944
000110 29 01 c2 bd 38 60 07 3e 91 22 93 3c 5a 34 03 3e
       -0.094728775 0.13220298 0.017960818 0.1281294
000120 60 5b 31 be 72 47 57 bd 16 4c 41 3e a1 c5 13 3d
       -0.17320013 -0.05255837 0.1887668 0.036077145
000130 8b d7 0a 3c 75 0d 48 bd e5 97 f1 bc 84 e5 a5 bc
       0.008474241 -0.04884096 -0.029491374 -0.020251043
000140 ee b7 51 3e fa 20 54 3c 97 07 0a 3e 50 23 2e be
       0.2048032 0.012947315 0.13479458 -0.17005658
000150 4a 61 a3 bd cd 9c aa bd e5 d6 77 3e e4 77 0f be
       -0.07977541 -0.083306886 0.2420307 -0.14010578
000160 16 0d 2f be 6b 54 dd 3d e3 a1 1d 3d d0 3c d2 3d
       -0.17094836 0.10807117 0.038484465 0.10265505
000170 e2 63 95 3b 65 98 16 bc 43 7a da bd 1c de 14 3e
       0.004559026 -0.009191607 -0.10667851 0.14537853
000180 b5 0b a3 3d 02 aa eb 3d 11 51 b4 bd 16 3a 60 3e
       0.07961217 0.11507036 -0.08804525 0.21897158
000190 3c d9 02 3e f2 22 0d bf c9 9c 07 3e 97 1b 10 be
       0.12778181 -0.5513145 0.13243403 -0.14073025
0001a0 7d bb b6 be 4d 34 59 be e6 af 0e 3c 9b 0f 1b be
       -0.35689917 -0.21211357 0.00870893 -0.15142672
0001b0 aa 86 ae 3e 71 20 52 bd de d5 1e be 4d e0 57 3c
       0.34087116 -0.05130047 -0.15511271 0.013176036
0001c0 3e 66 13 bd 00 90 94 3d 3a 85 1c 3e 5e ed c5 bc
       -0.035986178 0.07254028 0.15285197 -0.024161037
0001d0 b2 2d bc 3c 62 fd be bd ab bc 03 be c2 79 a9 be
       0.022971008 -0.09325673 -0.1286494 -0.33100706
0001e0 5c cc 07 bf 6d 6e d9 bc b8 42 5f 3e 13 fe d4 3d
       -0.530462 -0.026541913 0.21802795 0.10400023
0001f0 e8 38 c9 bc 7d 5e f2 3d 69 4c 0e bd 93 f1 35 bc
       -0.024563268 0.118344285 -0.03474084 -0.011104959
000200 93 2d 9c 3d a4 8b 33 be 32 76 6c bc 65 45 c0 3d
       0.0762588 -0.17533737 -0.014432477 0.09388236
000210 0b db 09 3d bf 10 98 bd ce 8e 5b 3e 1c 73 91 3e
       0.03365616 -0.07425069 0.21441194 0.28408134
000220 8d 32 a7 ba cd 6b 02 bd 4e 67 32 3e 1f da 55 3e
       -0.0012756154 -0.031841088 0.1742222 0.20883988
000230 2e bf 8b 3c 8c 39 fe bd 07 0a 07 be 88 d6 48 be
       0.017058935 -0.1241332 -0.13187419 -0.19613087
000240 39 47 1a 3e 55 66 2b 3e 4d bc 66 3e 00 68 f1 bd
       0.15066232 0.16738255 0.22532769 -0.117874146
000250 32 0b 65 3c 28 1d bb 3d eb 3d a5 bd e4 f5 5d be
       0.01397972 0.091364205 -0.080684505 -0.21675831
000260 b9 b6 1f 3d f2 ae 80 3c 18 d5 85 be 30 dd 89 3e
       0.038992617 0.01570842 -0.2613914 0.26926565
000270 ae d0 73 be 73 12 6b bd 06 02 b4 bd d4 32 e8 3d
       -0.23810074 -0.05739064 -0.087894484 0.1133782
000280 21 55 df 3d 46 ac f5 3d 9b 2f 68 bd 96 65 29 3e
       0.10904909 0.11995749 -0.056686025 0.16542658
000290 31 18 21 3e fb 79 5c be 6e 79 34 bd 88 48 18 be
       0.15731885 -0.21530907 -0.044061117 -0.14871418
0002a0 2e 05 4a be 06 19 14 bd bf 2d 79 3e d1 1a 82 be
       -0.19728538 -0.036156677 0.24333857 -0.25411084
0002b0 83 5d 2d 3e 71 8d ef bd 65 c5 11 be 85 a2 76 3d
       0.16930203 -0.116969 -0.14235456 0.060213584
0002c0 fd c9 6b 3e 8b e0 ba 3d a4 a0 a8 3c 92 27 24 3e
       0.23026271 0.091248594 0.020584412 0.1603072
0002d0 64 5c 8a 3d de da 4e be 68 f1 9b bd bc f7 a0 3d
       0.06755903 -0.20200679 -0.07614404 0.078597516
0002e0 88 91 b6 bd d9 bb 88 bd 47 76 b1 3d 3a 36 54 3d
       -0.08914477 -0.06676454 0.08665138 0.051809527
0002f0 8d 85 ad be 64 d9 db 3c b0 36 75 3c 87 28 80 3e
       -0.33890954 0.026837058 0.014966652 0.2503092
000300 4e 0d fe 3d c7 4b b4 bc 68 b9 88 bd d9 fd 95 bd
       0.124048814 -0.02200879 -0.066759884 -0.07323808
000310 e1 96 5d be 4e 15 cc bd ab df 26 be 1f 8d bc bb
       -0.21639587 -0.09965001 -0.1629626 -0.0057541276
000320 ed e6 16 be 21 af b2 bd 21 a4 ec be f3 a8 c8 bd
       -0.14736529 -0.087248094 -0.4621897 -0.097978495
000330 3d ff 2d 3d 79 21 df 3c 89 f6 c4 bc f6 d1 1f 3e
       0.042479742 0.02723764 -0.024043338 0.15607437
000340 e6 06 7b bd 84 cf 80 3d 89 83 b7 bc a2 72 e3 bd
       -0.061285876 0.062895805 -0.022401588 -0.11105849
000350 cb ad 5b bd dd 40 d8 3d 1b 6a bd bd a5 07 a0 3c
       -0.05363254 0.10559247 -0.09248754 0.019534895
000360 5c ab bd 3d 4f b2 5e 3e 91 6c bd bd 42 0a 89 bd
       0.092612 0.21747707 -0.09249223 -0.0669141
000370 29 ef 1a 3e 47 44 37 3e 5f 15 ee 3d 0f cf 57 bd
       0.15130295 0.1789714 0.1162517 -0.0526877
000380 d9 68 59 3d b8 a3 3f 3d 8d f2 b2 3c e1 2c 51 3e
       0.053078506 0.046786994 0.021844173 0.20427276
000390 ca c4 9a bd 2c c7 b6 bd 8f 51 10 be c0 b2 06 3d
       -0.07557066 -0.08924708 -0.14093612 0.032885313
0003a0 cc 99 bc 3d 7f 8f 64 3c dc 99 3d 3d 7e 22 79 bc
       0.09209022 0.013950228 0.04628931 -0.0152059775
0003b0 b1 4a 0f 3e c4 d9 08 bd 6b e6 4a 3e 62 10 a7 3b
       0.13993336 -0.033410802 0.1981446 0.0050983885
0003c0 c3 31 10 3d 48 3c 11 bd 9b c0 a7 3d 2f dd 3a 3e
       0.035203706 -0.03545788 0.081910335 0.18248437
0003d0 c4 45 b4 bc 88 b2 92 bd 28 8a a5 bd 94 9c 06 bd
       -0.022005923 -0.071629584 -0.08082992 -0.03286417
0003e0 e9 3c b4 be a3 8b 8c 3c 1b bc c4 bd b5 dd 17 3e
       -0.3520272 0.017156428 -0.09606191 0.14830668
0003f0 eb 38 4e bd 5c 6d 78 3d bd 01 84 3d b7 5a 36 bc
       -0.05034725 0.06065117 0.06445644 -0.011130027

rnn.bias_ih_l0 f4 [192]
000000 07 fb c2 bd a6 d1 00 be b4 f8 1b be f3 c9 6f 3d
       -0.09520536 -0.12579975 -0.15231591 0.058542203
000010 1f b3 f5 bd 9c 0b 45 3d a5 46 ed 3d 53 3f b5 3d
       -0.11997055 0.048106775 0.1158574 0.08849969
000020 f7 39 56 be 91 25 87 3d 78 d0 aa 3d 35 71 07 bc
       -0.2092055 0.06598962 0.083405435 -0.008266737
000030 01 16 e1 bd a4 22 25 3d 37 fe 05 3d 9b f4 c8 3d
       -0.10990525 0.04031624 0.03271314 0.0981228
000040 2a 4e 29 3e 7f 52 03 3e 9b 31 a1 bd 6a 01 06 be
       0.16533723 0.12824439 -0.078707896 -0.13086477
000050 e4 8c 8e bc 9e df 31 3e ce ef d7 ba 35 98 db bd
       -0.017401166 0.1737046 -0.0016474666 -0.107223906
000060 e5 36 55 bd e9 fd f8 3d a9 c1 0b 3d 47 e9 b1 3d
       -0.052054305 0.121578045 0.034120236 0.08687072
000070 86 03 9a bd 99 51 b7 bc 68 4b 82 bd 9c 77 84 bc
       -0.07520203 -0.022377776 -0.06362039 -0.016170315
000080 44 b2 9c bd 9e 04 85 3d 9c 90 01 bc 45 0a 51 3b
       -0.07651189 0.06495021 -0.007908013 0.003189699
000090 c1 c4 32 bd 25 23 91 3e 43 11 25 3d 0b 97 44 3d
       -0.04364467 0.28347126 0.040299665 0.04799561
0000a0 2a a5 0b 3c d2 80 ae 3d 64 97 36 3e 43 e9 16 3e
       0.008523265 0.08520664 0.17831188 0.1473742
0000b0 f7 0e 23 bd 1e 04 18 3e 12 71 e8 3c eb 84 ef 3d
       -0.039809193 0.1484532 0.028374229 0.11695274
0000c0 77 e4 9f bd d5 7b 83 3d 4f ba 60 bb fc 66 ff bc
       -0.07807248 0.064201035 -0.0034290736 -0.031177036
0000d0 93 1e d7 3d 2e 44 75 3a 8c 35 79 3d a1 61 9e bd
       0.105038784 0.0009356168 0.060842082 -0.07733465
0000e0 1b 22 0b 3d d9 ad ef 3d 8a cc 42 3c cb 3f 57 3c
       0.033968072 0.11703081 0.011889586 0.013137768
0000f0 1b 0c 9a 3d 4b a7 8c 3d 86 2b b9 3b 81 b2 84 3c
       0.0752184 0.06867846 0.0056509404 0.016198399
000100 1f f4 79 bd 18 23 47 bd d6 48 47 3b 1d c2 72 bc
       -0.061023828 -0.048617452 0.0030408404 -0.014816788
000110 36 d8 f2 3c e2 28 f2 bd a0 10 b9 bc 5e 5a 4f be
       0.029644113 -0.11824204 -0.022590935 -0.20249316
000120 02 f4 08 bd 21 4c 02 be 1e 25 1f be 52 e8 86 3c
       -0.03343583 -0.12724353 -0.15541503 0.0164682
000130 56 e3 60 bd ce 02 01 3e 95 5e 90 be 73 06 56 3d
       -0.054904304 0.12598726 -0.2819716 0.052252244
000140 48 6f 80 bd 32 1a f1 bd 80 84 d6 3b d9 87 16 3d
       -0.06271225 -0.117725745 0.006546557 0.03675065
000150 3f 7d 28 be 34 f8 4a bd 90 75 c2 bd 64 f2 ed 3c
       -0.16454028 -0.04955311 -0.094950795 0.029046245
000160 29 fa 19 3d f6 5a c6 bb 99 78 d1 bd 89 f5 d3 3d
       0.037592087 -0.006053324 -0.1022808 0.103495665
000170 cd 2e 17 bc 33 cf 25 3b 85 58 aa bd 22 74 76 3d
       -0.009227467 0.0025300502 -0.08317665 0.060169347
000180 35 22 17 bd 8f 02 72 bd 9d d5 f4 bd e2 ba c0 3d
       -0.036897857 -0.05908447 -0.11954806 0.09410645
000190 84 2c 86 be fc d8 19 3e a1 a7 00 be d8 33 00 bb
       -0.26205838 0.15024179 -0.12563945 -0.0019562151
0001a0 6b 0f 46 3d c8 ff f0 3d 9b 5c b7 bd d9 ac ea 3d
       0.048354547 0.117675364 -0.0895321 0.11458749
0001b0 9e 0f f3 3d ac 0e ef 3c 05 0a df 3d 38 de d0 3c
       0.11868213 0.0291818 0.10890583 0.025496587
0001c0 5f e1 29 be 74 67 ac bd 45 4b d6 bd 98 ad 01 3e
       -0.16589878 -0.084181696 -0.10463575 0.12663877
0001d0 c5 70 9f 3b f2 90 4b bd 46 a3 6d be c8 fb f8 3c
       0.004865738 -0.049698777 -0.23206815 0.030393496
0001e0 34 80 74 3d ed ae 99 be 17 30 03 be a4 a2 41 3e
       0.059692577 -0.3001627 -0.12811314 0.18909699
0001f0 96 56 1c be 25 4e 25 be c4 9d a2 3e cd 84 62 3d
       -0.15267405 -0.16143091 0.3176099 0.05530243
000200 c3 bf 2c be b1 4c ba 3b 1c d9 02 3d 32 6c 2e bd
       -0.16870026 0.005685412 0.031945333 -0.04258365
000210 a9 55 26 be be 07 18 be b9 0b bc bd 80 47 46 be
       -0.16243614 -0.14846703 -0.091819234 -0.19363213
000220 32 39 ae 3d d6 d5 a3 3d 0d 37 19 bc 22 f0 0a be
       0.08507003 0.0799977 -0.009351504 -0.13568166
000230 6b 61 9f 3d a4 42 bb 3d 23 e0 fe 3c 0d d7 a3 3d
       0.07782253 0.0914357 0.031112736 0.08000002
000240 b3 29 17 be d4 3e 78 bd b4 79 33 bd 20 dd 0c bc
       -0.14762 -0.060606793 -0.043817237 -0.008597642
000250 14 15 dc bc d6 ac ad 3d 2d e3 d1 3d 4c 44 cf bc
       -0.02686552 0.084802315 0.102484085 -0.025301121
000260 04 9b 96 bd c8 20 2c be 16 6e b3 bc 6d 2d 36 be
       -0.07353786 -0.1680938 -0.021903079 -0.17790766
000270 c8 ed 6c 3d b4 53 d8 3d 0a 34 18 3c 00 0b 67 3c
       0.057843953 0.1056284 0.009289751 0.014101744
000280 1b fc 5b 3d 77 e9 0e 3d 5a 76 08 3d 04 d7 d3 bc
       0.053707223 0.03489062 0.033315994 -0.025859363
000290 c2 5e 83 bd d9 20 d5 3d 20 04 97 bd b7 94 e0 3d
       -0.06414558 0.10406656 -0.07373834 0.10965865
0002a0 5e 2d a6 3b 54 98 04 bd ee f5 05 bd 8f 7e 7e 3e
       0.005071326 -0.032371834 -0.03270524 0.24852966
0002b0 6e ae 4e bd d1 22 43 3e 73 6e 00 3e f8 63 a1 bd
       -0.050459318 0.1905625 0.12542133 -0.07880396
0002c0 d5 a5 e8 bd 25 6d 50 bc 71 2a 96 3a c0 60 a5 3d
       -0.11359755 -0.012721335 0.001145674 0.08075094
0002d0 ed cd f0 3d 13 f6 8e 3d 95 a4 8c 3d 35 b4 d0 3c
       0.11758027 0.06980529 0.06867329 0.025476554
0002e0 68 4c 0d be 88 af a7 3d 2c 6d 60 3d da ae 94 3d
       -0.13798678 0.08187777 0.054791614 0.07259913
0002f0 ac d7 19 3e d2 e8 12 be d3 74 91 be f5 88 ed bd
       0.15023679 -0.14346626 -0.28409442 -0.11598388

rnn.bias_hh_l0 f4 [192]
000000 93 bd 00 3d 53 14 96 3d d3 7c 22 be 9b d4 5b 3d
       0.031430792 0.07328095 -0.15867929 0.053669553
000010 64 01 a5 bd 94 fb 09 bd f2 13 25 bd fd ef d8 bd
       -0.08056906 -0.03368719 -0.040302224 -0.10592649
000020 41 2a d8 bd 83 8c 1d bc d8 ff 59 bd 7b e2 06 bd
       -0.10554934 -0.00961602 -0.053222507 -0.032930832
000030 85 fb c7 bd b1 8a 0e 3e e0 62 32 3d 40 af 84 3d
       -0.097647704 0.13920094 0.043551326 0.06478739
000040 d0 be ff 3d 0d 3d 3f 3e 82 45 e3 bd a8 66 15 be
       0.124875665 0.18675633 -0.11097242 -0.14589942
000050 51 4e 80 ba 52 4b bc 3d 97 27 1b bd cc c5 1c be
       -0.0009788965 0.09194054 -0.037879553 -0.15309829
000060 17 a7 bd ba 15 f1 4f 3d 87 a8 61 bd 20 78 63 bd
       -0.0014469352 0.050767023 -0.05509236 -0.055534482
000070 69 b7 28 bd f6 35 06 3e 8e 27 f8 bc d3 85 40 3d
       -0.04119054 0.13106522 -0.030292299 0.047002625
000080 2c 9d 97 bd b2 0a 10 3c 7c 1b c3 3d 85 87 45 3e
       -0.07403025 0.008791612 0.095267266 0.19289978
000090 ab 44 c4 bd 32 f0 9b 3d 86 2f 17 3e 53 70 8c bd
       -0.0958341 0.07614173 0.14764223 -0.06857362
0000a0 1f 38 92 3d 2e 8c fc 3d f5 86 19 3e 9f 6c 1e 3e
       0.071396105 0.12331425 0.14992888 0.15471123
0000b0 6b 9b c1 3c ec e3 90 3d 53 85 0e 3e 69 13 a3 3d
       0.02363368 0.07074723 0.13918047 0.079626866
0000c0 4d b8 80 bd b1 98 01 be 50 48 9d bd 36 9c 9a 3b
       -0.062851526 -0.12655903 -0.07679808 0.004718329
0000d0 0e 8c cf bd b3 15 20 be 61 17 00 bd 68 ae af bd
       -0.10134135 -0.15633278 -0.031272296 -0.08578187
0000e0 94 9f 0a 3e 2e 81 ec 3d 23 34 51 bd 69 71 b3 3d
       0.13537437 0.115480766 -0.051075112 0.08761866
0000f0 c1 bd 3e 3e bb 21 fd bd 33 06 10 3e 88 37 0f 3d
       0.18627073 -0.12359949 0.14064865 0.034965068
000100 ae d4 80 bd 8c b4 85 3c ad ac e0 3d a0 a0 75 bd
       -0.062905654 0.016321443 0.10970435 -0.059967637
000110 97 46 36 3e e3 24 91 bd f8 36 7b 3d 21 2e 1f be
       0.17800365 -0.07087114 0.06133172 -0.1554494
000120 b9 43 3c 3d 5b ae 81 be 1d 01 5c be fe c7 3b bd
       0.045963023 -0.25328335 -0.214848 -0.045845024
000130 b8 f0 39 3a 21 ad 07 3e dc 81 aa be 10 90 78 3e
       0.000709306 0.13249637 -0.333022 0.24273705
000140 26 af b4 bd f9 cc ba bd d5 fe 1e be 33 8b 1d be
       -0.088224694 -0.09121127 -0.15526898 -0.15385132
000150 3f 90 02 be be c9 cc bd 8a a5 cb 3d 00 b7 9c 3d
       -0.12750338 -0.09999417 0.099436834 0.07652092
000160 9d 4e 06 3e 9b 93 4d bd b0 d1 e2 bb 91 fe 8d bd
       0.13115926 -0.050189596 -0.0069219694 -0.0693332
000170 81 b7 d5 bd 45 a6 7c bc 07 9c 1e be fe cd 91 3d
       -0.10435391 -0.015420501 -0.15489207 0.07119368
000180 91 90 22 be 75 a5 1f be 71 99 20 be 1c 6b c5 3d
       -0.1587546 -0.1559046 -0.15683533 0.0963957
000190 7b 28 80 bd ee 16 1c 3e 62 66 87 bc e5 5f 9a b9
       -0.06257721 0.15243122 -0.016528312 -0.00029444616
0001a0 7e a5 b1 3c 84 d8 3c 3d 17 d6 7b be b7 df a2 bd
       0.021685358 0.046104923 -0.24593388 -0.079528265
0001b0 ad be b7 3d a4 fe 3e 3d 73 1b ba 3d 8c 39 d2 bd
       0.089719154 0.046629563 0.09087267 -0.102648824
0001c0 fa 01 4c be 01 45 f9 3d b0 19 79 bd af e9 9e 3c
       -0.19922629 0.121713646 -0.060815513 0.019398538
0001d0 88 80 3e 3d b6 b0 0e 3c 3d de ea bd 38 5c f7 3d
       0.046509296 0.008709123 -0.1146817 0.12078136
0001e0 ee a4 e9 3d 5d ff 03 be 8d 75 81 bc 72 04 fd 3d
       0.11408411 -0.12890382 -0.015803123 0.123543635
0001f0 38 7b 63 be bc 84 39 be c1 f8 b2 3e be 0a 38 bd
       -0.22214973 -0.1811704 0.3495541 -0.04493212
000200 f6 24 3f bd d7 fe e8 3d f4 36 79 bd 5c 27 d3 bd
       -0.046666108 0.11376732 -0.060843423 -0.103102416
000210 7e b6 ae bd 3d fb 22 bd a7 db 15 be 53 d9 b5 bd
       -0.08530901 -0.03979038 -0.14634572 -0.08879342
000220 27 c8 d5 bc d4 7c d1 3d 8e 6a 01 be 73 f8 d4 bd
       -0.026096417 0.10228887 -0.12638304 -0.103989504
000230 14 f2 31 3d 94 b3 62 3e b9 bf cf 3d c1 01 2a 3e
       0.043443754 0.22138816 0.1014399 0.16602232
000240 07 d7 cc bd ed 6a 27 be 14 5c b7 3d cd b6 58 3d
       -0.10001951 -0.16349383 0.089531094 0.052908707
000250 c8 bf 0e be 42 95 4c 3d 76 9b 0f 3e f1 31 19 3e
       -0.13940346 0.04994703 0.14024147 0.14960457
000260 f3 4f 88 bd b0 5f 7a be 3f dd d6 3d 2c 45 bf bd
       -0.06655874 -0.24450564 0.10491418 -0.09339365
000270 d7 e0 ce bb 6d fd 0a 3d 19 aa b6 bd 40 d0 33 bd
       -0.006313424 0.033933092 -0.08919162 -0.043899775
000280 bd 14 06 be 0b 33 04 be b8 bc 94 3d 70 4b 57 bd
       -0.13093849 -0.12910096 0.07262558 -0.052562177
000290 9a c8 27 3e 61 04 b9 3d 9f a6 1f bd c7 ba d7 3d
       0.16385117 0.09034038 -0.03897726 0.10533672
0002a0 c4 eb 62 3c 74 37 ea 3b 35 7b 1c be 06 36 64 3e
       0.013850156 0.007147724 -0.15281375 0.22286233
0002b0 39 bf b4 bd 78 ba 48 3e a3 e9 fa 3d fd 6e 91 bd
       -0.08825535 0.19602382 0.12251594 -0.071012475
0002c0 f3 cc 61 bd 45 eb e1 bd 23 1b 3b bd b7 22 b3 bd
       -0.055127095 -0.11031202 -0.045680176 -0.08746856
0002d0 b6 b4 42 3c 4e 35 44 be 58 71 3c 3d 0f f4 cd 3d
       0.011883905 -0.19160959 0.04600653 0.10056316
0002e0 fa 67 09 be 98 0f ec bd 47 93 cc bd 8b c3 9c bd
       -0.1341857 -0.11526412 -0.099890284 -0.07654484
0002f0 0d 65 1c 3e 2f 95 02 bc 6b 7f 96 bd bb 54 1b 3d
       0.15272923 -0.007970138 -0.07348522 0.037922602

rnn.weight_ih_l1 f4 [192, 64]
000000 cf 4a 4e be 17 74 08 bf 20 d6 7c bd 40 89 d3 3e
       -0.20145725 -0.5330214 -0.061727643 0.4131565
000010 ef 7e 82 3e cf 4f d7 be ad d9 8d bc e8 b1 f3 3d
       0.25487468 -0.42053077 -0.01731571 0.11899167
000020 86 89 a0 3d 7b 1a bb be ef b7 83 3d 72 ff ef 3d
       0.078387305 -0.3654364 0.06431567 0.11718644
000030 3f 97 37 be 9c c1 42 be a3 a0 2c 3d ba 6f 5c be
       -0.1792879 -0.19019169 0.042145383 -0.21526995
000040 eb 00 b2 3e f0 f0 18 3e 97 f5 34 bd ff 33 8a 3d
       0.34766325 0.1493566 -0.044179525 0.06748199
000050 a6 79 88 3e a6 00 c9 be 3d 82 ee bd 18 44 04 bf
       0.2665531 -0.39258307 -0.11645935 -0.516664
000060 9c 55 b0 bd 19 31 a5 be 21 30 3b be 58 50 f1 bd
       -0.08610079 -0.3226402 -0.18280078 -0.117829025
000070 08 07 1d be fc 2f 1b be 63 de 25 bb fe 04 17 3e
       -0.15334713 -0.15155023 -0.0025309555 0.14747998
000080 aa 91 cb 3e 6f b8 32 3e c4 0b 4f be 4d af 08 3e
       0.3975957 0.17453168 -0.20219332 0.13348122
000090 2d de aa 3d 40 9a a0 be b9 1d 02 bc 05 39 2a be
       0.08343158 -0.31367683 -0.007941657 -0.16623314
0000a0 af 15 ab be 77 06 c5 bd 77 e1 ee 3e 32 24 08 bc
       -0.3341498 -0.09620374 0.4665639 -0.008309411
0000b0 1a 29 dc 3d 8f 40 e3 bc 29 66 b3 bd 70 ff 86 3e
       0.10750027 -0.027740745 -0.0875972 0.26366758
0000c0 48 16 15 be a9 61 42 3c ac 54 03 3e 25 1c 8f 3c
       -0.14559281 0.011864104 0.12825269 0.017469475
0000d0 92 aa b9 be 7d b1 1d be 38 36 db be 95 d2 96 be
       -0.36262947 -0.15399738 -0.42814803 -0.29457536
0000e0 15 4c 38 be 0a f2 cc be 96 0a c9 be a4 4b 10 be
       -0.17997773 -0.4002841 -0.3926589 -0.14091355
0000f0 38 e4 2e 3e 84 75 37 3d b4 86 fc 3c 9b 83 46 3e
       0.17079246 0.044789806 0.03082595 0.19386141
000100 9a a6 b0 be 02 19 85 3e 8d e7 24 bd e2 47 23 bf
       -0.34502107 0.25995642 -0.040259887 -0.6378156
000110 b6 cf cc bb c5 3d 41 3e ca b9 39 be f6 f2 d3 3e
       -0.006250347 0.1887122 -0.18137279 0.41396302
000120 bb 2c ca bc a0 5f 61 3d f8 fc 5e bd d9 53 6c bc
       -0.024679532 0.055022836 -0.05444047 -0.014424288
000130 ee f8 c5 3d 52 da 8b bb 83 05 f1 be 41 00 3e 3d
       0.0966662 -0.004267969 -0.47074518 0.04638696
000140 6f 4e 99 be 49 44 f7 bd 83 7f e1 3d ba 05 64 be
       -0.29942653 -0.12073571 0.11010649 -0.2226781
000150 ae a7 bf bd 68 27 00 3f df 34 69 bd 83 4b bf 3e
       -0.09358154 0.5006013 -0.056935187 0.37362298
000160 94 b7 39 3d 90 09 dd bc 08 de bd 3c 46 db a7 bd
       0.04534109 -0.026982099 0.023177162 -0.0819612
000170 ee 38 a4 3e a7 06 a4 be 2b 4a 3e be e8 0d e8 3c
       0.32074684 -0.32036325 -0.1858298 0.028326944
000180 31 fc 64 3e 97 3b 3e 3e 95 7b 8f be 65 22 ca 3c
       0.22361828 0.18577419 -0.28023973 0.024674604
000190 8f 7a 24 3e ed 0c 72 bd f0 42 07 bf 1e 5b 55 3d
       0.16062377 -0.05909436 -0.52836514 0.05208885
0001a0 4e 1b 02 be 83 14 4e bd ff 86 2a 3d 3c 6d 00 bc
       -0.12705728 -0.05031253 0.04163265 -0.0078385435
0001b0 3f 71 a3 bc 4d 91 fd 3d 78 c2 3a be bf 4f 0a bf
       -0.01995146 0.123812295 -0.18238246 -0.5402793
0001c0 2c dd 65 be e5 fe 96 bd 73 9d b2 3d da cc f6 3d
       -0.22447652 -0.07372836 0.08721437 0.12050791
0001d0 01 92 3a be 39 52 61 3c 0b f8 30 3f 56 e6 03 3d
       -0.18219759 0.013752514 0.69128484 0.032202087
0001e0 2f 46 a1 bd 7d dc 71 3e ac 6f ad bd d7 c0 4c 3e
       -0.078747146 0.23619266 -0.08468565 0.19995438
0001f0 d6 69 0e be 2b 9a a6 be a1 9a 1c be 27 16 1a bf
       -0.1390756 -0.32539496 -0.15293361 -0.6019005
000200 c2 1a 96 be 2e a1 c0 bc f1 d8 b9 3d 8e 6b 81 3e
       -0.2931729 -0.023514356 0.090745814 0.2527737
000210 39 e8 90 bc 43 fd 34 3f 60 23 03 bf 2f 51 18 bf
       -0.017688857 0.70698947 -0.5122585 -0.59498876
000220 75 2e fa 3c 77 36 14 3f 94 39 c4 3e 35 e9 d1 3d
       0.03053973 0.57895607 0.3832518 0.10249559
000230 29 ae ea 3e bc 83 57 3c 38 01 50 3f 48 ae d7 3c
       0.45836 0.0131539665 0.8125186 0.026328221
000240 e5 66 94 be cf 8c 38 be 62 bf 05 bd cc 11 1e be
       -0.28984752 -0.18022464 -0.03265322 -0.15436476
000250 4d ff 52 bd 8d 58 39 be 22 fb 3f bc 95 1b f7 bd
       -0.051513005 -0.18100186 -0.01171759 -0.12065808
000260 49 f5 31 3e 5f fd 2f be 42 98 02 3e 67 71 0c be
       0.17378725 -0.17186497 0.12753394 -0.13715135
000270 80 bf a5 be a0 68 c5 3d f8 18 26 bc cd 35 bb 3d
       -0.32372665 0.09639096 -0.010137789 0.09141121
000280 49 c5 df be 35 67 1f be 9b fd 32 3e 1e 42 00 be
       -0.43705204 -0.15566714 0.17479555 -0.12525222
000290 50 ab 61 3b 39 ce 5a 3c 35 17 4d 3d 0a f9 99 bc
       0.0034434386 0.013354831 0.05007096 -0.018795509
0002a0 ff 1e 1d 3e 47 47 96 3d fe e8 39 bf c3 68 89 bd
       0.15343855 0.07337814 -0.7262114 -0.06709435
0002b0 72 02 5c be 1e 57 32 be f5 4d 3b bd 02 8f d7 3e
       -0.21485308 -0.17416045 -0.045728642 0.42101294
0002c0 a5 b1 42 3c 53 72 8a 3e 7b 75 40 be 4a 91 c3 bb
       0.011883174 0.27040347 -0.18794815 -0.0059682475
0002d0 67 a5 0b 3f b5 b6 a6 bd dc 7e ed be b2 eb 1b 3e
       0.5454926 -0.08140317 -0.4638585 0.1522663
0002e0 2f 3c 08 be 8f 83 c5 bd 83 6e a4 3e 0e 63 8a be
       -0.13304208 -0.096442334 0.32115564 -0.27028698
0002f0 2e ca 00 3e 44 b1 21 bb 52 69 44 bd d9 ba 08 3c
       0.12577125 -0.002467231 -0.047952004 0.008345329
000300 0c a4 7d 3e 4b 57 48 3d 77 b3 25 ba 2d cc 72 be
       0.2476961 0.048911374 -0.0006320993 -0.237107
000310 7f 81 55 3d 7d c5 e4 bc c6 cc 89 be 1c d4 9c 3e
       0.05212545 -0.027926201 -0.26914042 0.30630577
000320 0e f8 23 3e 28 30 7a be 54 35 e9 3e 04 c1 ee bd
       0.16012594 -0.24432433 0.455485 -0.116579086
000330 16 7f ed bc 6e 5d 45 3e f3 86 8f 3e 3f 21 b4 3d
       -0.028991263 0.19273922 0.28032646 0.08795404
000340 41 50 4f be 25 43 1c be c3 51 09 be a4 5b 90 3c
       -0.20245458 -0.15259989 -0.13410096 0.017621823
000350 e6 98 25 bc 51 41 04 3e 97 d5 a0 bc 3a 7d eb 3e
       -0.010107255 0.12915541 -0.019633098 0.45993978
000360 36 a8 e6 3d bf f4 21 bd d6 df bf bd 7e 4d 1b bd
       0.112625524 -0.03954005 -0.09368865 -0.0379157
000370 4e a0 c5 bd 31 7c f2 3d 47 56 95 3e 7a dd 57 bd
       -0.09649716 0.11840094 0.29167387 -0.05270145
000380 ce e8 74 bd 4e c2 e2 bd 39 81 a4 3d 52 2f c9 bd
       -0.059792332 -0.11072217 0.0803246 -0.09823479
000390 7f c0 19 3e 2a f5 85 3d fa 18 ee bd 39 22 7a 3e
       0.15014838 0.06540902 -0.11625858 0.24427117
0003a0 2a cd 4b bc 1f 91 08 be 45 85 52 3c f7 cf 3c 3e
       -0.012439052 -0.1333661 0.012849157 0.18438707
0003b0 8a 06 96 bd d7 e5 29 3e 61 b5 84 bc 5d 05 74 bc
       -0.07325466 0.16591583 -0.01619977 -0.014893857
0003c0 b9 17 9e bd 2e f0 e4 bc 51 44 b0 be e8 23 87 bd
       -0.077193685 -0.027946558 -0.3442712 -0.065986454
0003d0 b8 48 9f 3e 6a ae a5 3e 5e cb 0d be d8 49 9d bd
       0.31110168 0.3235963 -0.1384711 -0.076801
0003e0 92 d8 8e bd 32 30 10 3f 86 61 ec 3c 14 20 5b be
       -0.06974901 0.5632354 0.028855097 -0.21398956
0003f0 d5 11 e4 3d e9 37 79 3d 4b 80 2b be e8 49 28 be
       0.11136214 0.060844336 -0.16748159 -0.16434443

rnn.weight_hh_l1 f4 [192, 64]
000000 23 84 52 3e 3a 33 c8 b8 04 ff de be 8b f4 8b 3e
       0.20558219 -9.546285e-05 -0.43553936 0.2733501
000010 7f b8 c7 3e a0 67 0a 3e 1f 4c ac 3e d9 2e 5f 3e
       0.39007947 0.13516092 0.33651826 0.21795215
000020 aa b1 a1 3e e3 f8 a9 be 46 3e 23 be 2d a7 85 be
       0.3158086 -0.33197698 -0.15941724 -0.26104107
000030 14 9a 12 be e7 0e e6 3d e1 61 12 be ae ac 76 3e
       -0.14316589 0.11233311 -0.1429515 0.2408931
000040 a3 60 3d 3d 49 9a 15 3f 95 62 50 bd b7 7a ad 3c
       0.046234738 0.58438545 -0.050875265 0.021176679
000050 e7 56 e7 3e ca f0 13 3e c0 4f a8 bc a4 a7 e7 bd
       0.4518349 0.14447322 -0.02054584 -0.11311272
000060 2c b0 a2 3d 97 f4 98 3c c7 67 6f 3e bf 54 d2 3e
       0.07943758 0.018671317 0.23379432 0.4108028
000070 1d 40 10 bf 0e 51 3f bd 49 7c 9b 3e c0 a8 dc 3e
       -0.5634783 -0.04670816 0.3036826 0.43097496
000080 c8 7a 37 3e 17 89 e6 3e 3f 24 5d 3e 96 c3 55 3e
       0.17917931 0.45026466 0.21595858 0.20875391
000090 cf fd ca 3e 1e 4d ca bd 53 bf 8a be 88 1a 94 3c
       0.39646766 -0.0987799 -0.27099094 0.018079057
0000a0 b6 cf ee bd f6 45 b7 be 23 bc 95 be 26 69 c7 3e
       -0.116607115 -0.35795563 -0.292451 0.3894741
0000b0 8d fa 4e 3e ec cd 92 3d 3b c9 81 3e 7b 39 04 3e
       0.20212765 0.07168183 0.2534884 0.12912552
0000c0 8f 03 38 3e 01 2b a5 bc c7 24 fb bd 7d ce 82 be
       0.17970107 -0.020162107 -0.12262874 -0.25548163
0000d0 8f 5c 78 bd e3 61 e3 bc 22 f2 b8 bc 9c 9e 1b 3e
       -0.060635146 -0.027756637 -0.022576395 0.15197223
0000e0 07 a0 bc bd 4a cc f8 bc 5a b1 e2 bc d5 19 15 bf
       -0.0921021 -0.03037085 -0.027672458 -0.5824254
0000f0 48 85 e7 be 81 42 7c 3d ee e9 62 bd 2b 1e 94 3d
       -0.45218873 0.06158686 -0.055398874 0.072323166
000100 fc c6 88 3d b3 04 4e be 9b cb 97 ba db b1 3e 3c
       0.06678578 -0.2011898 -0.0011581065 0.011639084
000110 77 1a d1 3d 64 dc 88 bd c0 ac a6 3d 2e 62 d3 3d
       0.10210126 -0.06682661 0.08138418 0.10321461
000120 69 59 a9 3d 55 db 94 bd 8f 96 9a 3d 41 58 c3 be
       0.08269007 -0.07268397 0.07548248 -0.3815327
000130 13 39 4b bd fd e0 08 3e 68 28 d9 be 43 6a c6 3e
       -0.049614977 0.13367076 -0.4241364 0.38752946
000140 0e 60 10 3d b8 be 8d bd 93 49 8a 3e d4 19 23 bc
       0.035247855 -0.06921142 0.27009258 -0.009954888
000150 fb 96 90 3d 3e ba 81 3d 9e d1 5c 3e b0 72 e9 3c
       0.07060047 0.06334351 0.21564338 0.02849707
000160 f8 13 c5 bd 72 07 aa 3e 30 44 2b 3e 8e 79 bc bd
       -0.09622949 0.33208805 0.1672523 -0.09202872
000170 b9 48 ab 3d 07 ca 1b bd 92 30 85 bd 84 31 11 3e
       0.0836348 -0.038034465 -0.06503405 0.14179045
000180 77 f8 34 3c 49 0b 89 bc 8b 6a 98 bd 89 e7 a3 bd
       0.011045567 -0.016729014 -0.074421965 -0.08003146
000190 df ad cf 3a 37 86 83 be 78 ad 68 3e 61 3b f1 3d
       0.0015844664 -0.25688335 0.22722423 0.11778904
0001a0 65 8f 6f 3c 2c 62 cc be d9 53 67 bd 28 e4 ac be
       0.01462159 -0.3991865 -0.056476448 -0.3376782
0001b0 d9 d0 8b 3d b6 b2 0c 3d ed 99 f8 3e 81 33 24 be
       0.06826944 0.03435012 0.48554936 -0.16035272
0001c0 fa 3c 3b bd 14 e2 29 be 74 85 4c be 30 7e 21 be
       -0.04571245 -0.16590148 -0.19972783 -0.15770793
0001d0 55 80 04 3e a2 0b 55 be c7 a0 f9 3d 22 e0 b8 bd
       0.1293958 -0.20805219 0.12188869 -0.09027125
0001e0 55 0a 57 3d d8 f5 a4 be e6 77 4b bd 67 2c 27 3a
       0.052500088 -0.32218814 -0.04967489 0.0006377161
0001f0 c2 4a d2 bc c0 ec a2 3d 95 a3 25 3e de a6 d5 bb
       -0.025670413 0.07955313 0.16175683 -0.0065201363
000200 1b ed 6e 3d fd ae 80 be 85 cc f7 be 89 28 90 3d
       0.05833159 -0.25133505 -0.48398224 0.070389815
000210 13 fa 3d 3d 6b be d4 3b c1 87 15 3c 88 a5 fe bd
       0.046381067 0.006492426 0.009126605 -0.12433916
000220 69 79 83 bd 36 ef 18 bf 19 40 d8 bd 85 03 a4 3d
       -0.064196415 -0.59740007 -0.10559101 0.08008484
000230 80 3b 38 3e a8 52 1c 3e 84 a6 43 3d 60 4f af bd
       0.17991447 0.15265906 0.047766224 -0.085600615
000240 a6 36 05 bf 3a 0a 80 3e 5c 30 e4 be 3f 7f 22 3e
       -0.5203651 0.25007802 -0.44568145 0.15868853
000250 8f 3d ac 3e 20 27 aa 3d fb 82 02 3d 4f ea 99 3e
       0.33640715 0.08308244 0.031863194 0.30061576
000260 bc 37 eb 3d 06 2d b1 3d de 0a 42 be 34 32 76 bd
       0.1148524 0.08651166 -0.18949458 -0.06010647
000270 cc f6 01 3f af 36 99 3d 2f d1 6e be 1d 7b 24 bc
       0.5076721 0.07481133 -0.23321985 -0.010039118
000280 7e 0e 22 be 48 34 34 3e a3 8e 63 be c7 8a 94 3b
       -0.15825841 0.17598069 -0.2222238 0.004533145
000290 c2 f9 85 3e df ee 0b 3e b7 46 b1 bd c9 48 2e bd
       0.26167113 0.13665341 -0.08656066 -0.042549882
0002a0 4f 13 85 3e 5e de 73 3e 37 f7 4b 3d 8b 0b 83 3c
       0.25991294 0.23815295 0.04979631 0.015996715
0002b0 b2 2b 53 3e 87 7e 75 bd d3 ca 13 be 31 d3 d4 3d
       0.20622137 -0.05993512 -0.1443284 0.10391844
0002c0 61 6b 69 3e 07 f0 63 3d c3 2b e7 be 7c ad cb 3d
       0.22794868 0.05564883 -0.45150575 0.09945199
0002d0 dc 84 6f be 48 29 89 be 68 80 a0 3d 77 88 9d 3d
       -0.23390526 -0.26789308 0.078369915 0.07692044
0002e0 f4 be 20 bc 4d e1 ed 3e 34 ee 6d 3d d8 c8 1e be
       -0.009811152 0.46460953 0.058088496 -0.15506303
0002f0 00 b4 28 3d fa db 4a bd 7a 39 f8 bd ca a3 77 3d
       0.041187286 -0.049526192 -0.12120338 0.060458936
000300 e7 c4 7c 3d 92 aa f9 bd 23 cc 55 3d 6b b5 46 be
       0.06171122 -0.12190737 0.052196633 -0.19405143
000310 28 75 36 be ea a3 40 be d4 08 11 bd b8 ac f8 bd
       -0.17818129 -0.18812528 -0.03540881 -0.121423185
000320 78 c8 2a bd 92 b1 09 3e 6b e8 e0 3b ce 32 0e 3e
       -0.04169509 0.13446644 0.006863644 0.13886568
000330 69 a8 6d 3d 7b ab 9d 3e 65 86 28 be 32 c9 e8 bc
       0.058021937 0.30794892 -0.16457517 -0.02841625
000340 b9 67 d5 3d 5f b7 73 be 1f 8d 05 3e e1 59 f1 3e
       0.10420174 -0.2380042 0.13042115 0.47138885
000350 14 ac aa 3d 38 3f cf be c0 26 af 3e 2b a3 a5 be
       0.083336025 -0.4047792 0.3420925 -0.3235105
000360 0d 98 c4 be 8f a2 fa 3d fc e8 aa bd d5 cd 24 bf
       -0.38397256 0.12238037 -0.083452195 -0.64376575
000370 42 02 82 3e 07 84 1a bf b9 40 bc bd 20 f1 71 3c
       0.25392348 -0.6035771 -0.09192032 0.014766961
000380 25 8c 98 3d dd 10 c6 3e ae d1 b7 bd 88 fe f2 ba
       0.074486054 0.3868474 -0.0897554 -0.0018538991
000390 a1 6d 10 bf 83 33 b3 bd f7 4e 91 be 36 6e ba bd
       -0.5641728 -0.087500595 -0.28380558 -0.09103052
0003a0 fe e8 a2 be b1 92 98 3c d6 c7 f5 3d 05 1b 7a be
       -0.31818384 0.018624635 0.12001006 -0.2442437
0003b0 dd cc d8 be 51 11 bc bd d2 4a ba bd 5b a6 6d bd
       -0.42343798 -0.0918299 -0.09096302 -0.058019977
0003c0 4a 55 f4 3b a1 88 ba bd 9c 08 32 bd 2e 9a bd 3e
       0.0074564563 -0.09108091 -0.04346524 0.37031692
0003d0 0b 86 84 be 9a a1 52 be e1 5f e6 3d 06 55 bb bd
       -0.25883517 -0.20569459 0.11248756 -0.09147076
0003e0 41 70 9e 3d 51 cb 9e bd 55 40 bd 3d 62 d9 86 3d
       0.077362545 -0.07753623 0.09240786 0.06584431
0003f0 f3 79 43 3e 79 63 18 bd e4 c3 af be ef 79 26 be
       0.19089489 -0.03720424 -0.3432914 -0.16257451
