graphrnn_v2/experiments/structures/k_regulars/vary_m/3_regular_vary_m_32_graphrnn_s/model_at_500.pt (torch, 407571 bytes, 22 tensors)

embedding.0.weight f4 [32, 32]
0	0xbebe2424	-0.37136948
1	0xbe7ea479	-0.24867429
2	0xbe9fd843	-0.31219682
3	0xbe56faea	-0.20994154
4	0xbe415183	-0.1887875
5	0xbc72266d	-0.014779669
6	0x3c8243c6	0.015901458
7	0x3db81b86	0.08989625
8	0x3d2fa02e	0.04287737
9	0x3d1bba70	0.038019598
10	0x3e07538e	0.13215467
11	0x3e8693cb	0.26284632
12	0xbd892061	-0.06695629
13	0xbe194154	-0.14966327
14	0x3d9525fa	0.07282634
15	0x3d9d2b1e	0.076742396
16	0xbc1002c7	-0.008789725
17	0x3c8e1efc	0.017348759
18	0x3cf4cd3d	0.029883021
19	0xbcfab8ca	-0.030605692
20	0xbd3b19fa	-0.04567907
21	0xbde580a1	-0.11206175
22	0x3ce36052	0.02775589
23	0x3e14be56	0.14525732
24	0xbe0193b3	-0.12653999
25	0xbd85cfbe	-0.06533764
26	0x3e30caa2	0.17264798
27	0x3d335bfa	0.043788888
28	0xbe1ea5ed	-0.15492983
29	0xbe198555	-0.14992268
30	0xbd433024	-0.047653332
31	0x3d37845a	0.044803955
32	0x3a459954	0.0007537801
33	0xbcb5e480	-0.022203684
34	0x3d90459f	0.07044529
35	0x3e826c1f	0.25473115
36	0x3d419ef2	0.047270723
37	0x3d2fe44e	0.042942338
38	0x3d289ae6	0.041163348
39	0xbda93d87	-0.082636885
40	0xbd4028d7	-0.046913948
41	0x3e5cbf99	0.21557464
42	0x3f0601a8	0.5234628
43	0x3f10fdb1	0.566371
44	0x3f53f3a5	0.8279365
45	0xbdb8cc54	-0.090233475
46	0x3c537870	0.0129071325
47	0xbe764ec7	-0.24053489
48	0xbdfce538	-0.123484075
49	0x3b6b6a80	0.0035921633
50	0xbe88c515	-0.26712862
51	0xbe093a0a	-0.13401046
52	0x3c9fc23e	0.019501802
53	0xbd4a1193	-0.049333166
54	0xbb7ece9b	-0.003888047
55	0xbe83bf74	-0.25732005
56	0xbdf34a0a	-0.11879356
57	0xbe77e5fb	-0.24208824
58	0xbcade494	-0.021227159
59	0xbe880258	-0.26564288
60	0xbd23864c	-0.039922997
61	0xbe41e3e9	-0.18934597
62	0xbe5d911b	-0.21637385
63	0xbe4fbd62	-0.20287088
64	0xbef318ed	-0.47479954
65	0x3e3532f6	0.17695221
66	0x3ecb787d	0.39740363
67	0x3d9f318b	0.077731214
68	0xbecc56d9	-0.3991001
69	0xbed3fc55	-0.41403452
70	0xbf19ce0a	-0.60080016
71	0xbf183324	-0.59453034
72	0xbf1856ae	-0.5950726
73	0xbeccd7d2	-0.40008408
74	0xbed18188	-0.40919137
75	0xbeb50c73	-0.3536106
76	0xbe92c53e	-0.2866611
77	0xbcae77fb	-0.021297446
78	0x3e15a3eb	0.14613311
79	0x3e1d19ba	0.15341845
80	0xbd2a18a0	-0.04152739
81	0xbdae4c04	-0.085105926
82	0x3db979d3	0.09056439
83	0xbd5acdec	-0.05341904
84	0xbd6dfc56	-0.058101974
85	0x3d826eb9	0.06368775
86	0xbe2373bd	-0.1596212
87	0xbd882aa4	-0.06648758
88	0xbe0b2c2d	-0.1359107
89	0xbda40197	-0.08008116
90	0x3e02dd70	0.12779784
91	0xbe11add1	-0.14226462
92	0xbd195f3a	-0.03744433
93	0x3d84e00c	0.06488046
94	0x3d1cdb46	0.038295053
95	0x3e200be5	0.15629537
96	0x3e282628	0.16420805
97	0x3dc7ca9a	0.0975544
98	0x3e0274d4	0.12739879
99	0x3ea94077	0.33056995
100	0x3e9fa3ea	0.31179744
101	0x3c651674	0.013982404
102	0xbc80367e	-0.015650984
103	0xbde08997	-0.10963743
104	0x3e15c700	0.14626694
105	0xbb7b782a	-0.0038371184
106	0x3e183b75	0.14866431
107	0x3da10413	0.07862105
108	0xbcb8a414	-0.022539176
109	0x3e1801ea	0.1484448
110	0x3e79d58e	0.24397871
111	0x3c9792b9	0.01850258
112	0xbdca4311	-0.09876073
113	0x3e612208	0.21985638
114	0x3e1765f9	0.14784993
115	0x3e1a2710	0.15053964
116	0x3cf4ce15	0.029883424
117	0x3dd7fa01	0.10545731
118	0xbdb51599	-0.0884201
119	0x3e51c00f	0.20483421
120	0xbdbab810	-0.091171384
121	0xbc01a36c	-0.007912498
122	0x3c958ed0	0.018256575
123	0x3d932778	0.071852624
124	0x3e28a8c4	0.16470629
125	0xbc84d6a0	-0.016215622
126	0x3e6895b3	0.22713356
127	0xbd9beba2	-0.07613303
128	0x3c092eae	0.008372946
129	0x3d24bf6a	0.04022161
130	0x3e4237d0	0.18966603
131	0x3e9db96c	0.30805528
132	0x3e93aaef	0.2884135
133	0x3db6750a	0.08909042
134	0x3e0bf966	0.13669357
135	0x3db54570	0.08851135
136	0x3cf56083	0.029953247
137	0xbd68b694	-0.056814745
138	0x3d010135	0.03149529
139	0x3c998d36	0.018744092
140	0xbbbb2549	-0.005711232
141	0x3e764d19	0.24052848
142	0x3e652366	0.22376785
143	0x3d282f76	0.041060887
144	0x3e885176	0.2662465
145	0x3d8fc451	0.07019866
146	0x3dbbaad6	0.09163444
147	0x3e111132	0.14166716
148	0x3e2fee65	0.17180784
149	0x3dd0d5b7	0.10197013
150	0x3e933499	0.28751066
151	0xbbbec06b	-0.005821278
152	0x3d6bbf96	0.057555757
153	0xbd2d7f3a	-0.04235766
154	0x3d921f56	0.07134883
155	0x3e67e536	0.22646031
156	0x3e11182f	0.14169382
157	0x3e91b2e1	0.28456786
158	0x3da6f602	0.08152391
159	0xbd49181f	-0.04909527
160	0x3ee70696	0.45122212
161	0x3e7ceef2	0.24700525
162	0x3e56fbd7	0.20994507
163	0x3e0688a0	0.13138056
164	0x3df0b75c	0.11753723
165	0x3dd443b1	0.103644736
166	0x3df44493	0.11927142
167	0x3e81d889	0.25360516
168	0x3e8e4216	0.27784795
169	0x3dcbf233	0.09958305
170	0x3df22a42	0.11824466
171	0x3e163020	0.14666796
172	0xbce3ce5d	-0.027808363
173	0x3e9cb0ec	0.3060373
174	0xbdf4e759	-0.119581886
175	0xbe42545f	-0.18977498
176	0xbdd250df	-0.10269331
177	0xbe6d7582	-0.23189357
178	0xbe2c7091	-0.16839816
179	0xbe106fd3	-0.14105158
180	0xbe03a6c3	-0.12856583
181	0xbe353988	-0.17697728
182	0xbe660aa8	-0.22465003
183	0xbd91c57c	-0.07117745
184	0xbe63b2c5	-0.22236164
185	0x3d258945	0.040414114
186	0x3d356ee3	0.044295203
187	0xbd936ad5	-0.07198111
188	0xbe1c4864	-0.1526199
189	0xbdb7f8cc	-0.08983001
190	0xbcf86c11	-0.030324968
191	0xbe58d2e6	-0.21174201
192	0x3e208fd3	0.15679865
193	0x3e6a14fd	0.22859569
194	0xbd1c7d17	-0.038205232
195	0x3d20369e	0.039114587
196	0xbeb91804	-0.36151135
197	0xbe5913eb	-0.21199004
198	0xbd247dd1	-0.04015905
199	0xbde39da2	-0.111140504
200	0xbe92c38d	-0.28664818
201	0xbdf682ae	-0.12036644
202	0x3e3a34ed	0.18184252
203	0x3d2887fe	0.041145317
204	0x3e97bb84	0.2963525
205	0xbe9ac1c9	-0.3022597
206	0xbc1628e7	-0.009165025
207	0x3b73fd1f	0.003722973
208	0x3ca8824b	0.020569941
209	0xbe378f55	-0.1792577
210	0x3d9f4b9d	0.07778094
211	0xbc9a3cc5	-0.018827805
212	0xbe03d25e	-0.12873217
213	0x3db4941a	0.08817311
214	0xbddcf008	-0.1078797
215	0x3c3f860d	0.011689675
216	0xbdef5dd9	-0.11687822
217	0xbe24fcea	-0.16112104
218	0xbdf5831b	-0.11987897
219	0xbd8e82fd	-0.06958578
220	0x3e0cbe4a	0.13744465
221	0xbe41754d	-0.18892403
222	0xbe42329a	-0.18964615
223	0x3e0ffb0d	0.14060612
224	0x3bf00b95	0.0073255994
225	0x3ba6234e	0.0050701266
226	0x3d7d87a1	0.061896924
227	0x3d1d1944	0.038354173
228	0xbe25763d	-0.16158386
229	0x3d10b562	0.03532923
230	0x3e2643fc	0.16236871
231	0x3eae8f3c	0.34093654
232	0x3eb6af36	0.3568055
233	0x3e8d6831	0.27618554
234	0x3dcf5b1a	0.10124798
235	0x3e19f3ef	0.1503446
236	0x3e3ea8f2	0.18619135
237	0x3a1d7e31	0.00060078787
238	0xbcc7eef7	-0.02440594
239	0xbdbf420b	-0.093387686
240	0x3e27db45	0.16392238
241	0x3e01c64b	0.12673299
242	0x3d51f903	0.051262867
243	0xbd4b7e49	-0.04968098
244	0xbba9ea30	-0.005185388
245	0x3c9920ac	0.018692337
246	0x3dcbed4a	0.09957369
247	0x3d2c7b24	0.042109624
248	0x3e7a74b4	0.24458581
249	0x3e839c2d	0.2570509
250	0x3d9283bf	0.07154035
251	0xbd92b868	-0.07164079
252	0x3e4dfa59	0.20115031
253	0x3df5ef61	0.120085485
254	0x3c80fd7a	0.015745867
255	0x3c25588a	0.01009191

embedding.0.bias f4 [32]
0	0x3e50dd56	0.20396933
1	0xbd505e57	-0.05087122
2	0x3ab75904	0.0013988321
3	0x3dfe49eb	0.124164425
4	0xbd06f96c	-0.03295271
5	0xbdf272c5	-0.11838297
6	0x3d50fc8b	0.051022094
7	0xbd2636bc	-0.040579543
8	0x3db95162	0.09048726
9	0xbe010f47	-0.12603484
10	0x3d117ead	0.035521198
11	0xbe10e119	-0.14148368
12	0x3dcf0c40	0.101097584
13	0xbe0300c7	-0.12793265
14	0x3e38525f	0.18000172
15	0xbe15a95c	-0.14615387
16	0xbe29273d	-0.16518874
17	0x3e2b499d	0.167273
18	0xbde8095f	-0.113299124
19	0x3e43fee4	0.19140202
20	0xbe108769	-0.14114155
21	0x3e84b14c	0.25916517
22	0xbe0dc9f8	-0.13846576
23	0x3cfb5944	0.030682214
24	0xbd936677	-0.07197278
25	0x3ddfc03d	0.109253384
26	0x3c260010	0.010131851
27	0x3e6c968b	0.23104303
28	0xbdac768b	-0.08421048
29	0x3e2b6ed7	0.16741501
30	0xbda21f30	-0.07916105
31	0x3da0e1e5	0.07855586

rnn.weight_ih_l0 f4 [192, 32]
0	0x3e90b93b	0.2826632
1	0x3e75ebf3	0.24015789
2	0xbc3d7184	-0.011562709
3	0xbeb09fba	-0.34496862
4	0xbea8622d	-0.32887402
5	0xbed232fb	-0.4105452
6	0x3d77b8ce	0.060478978
7	0xbe58f6b9	-0.21187867
8	0x3d15ce62	0.036573775
9	0xbe8e30eb	-0.27771696
10	0xbe59c0a0	-0.21264887
11	0xbeb44079	-0.3520544
12	0xbd366a24	-0.044534817
13	0xbe7cdb18	-0.24692953
14	0xbd7022e3	-0.05862702
15	0xbe6aedf3	-0.22942333
16	0xbe546973	-0.2074335
17	0x3e30d1df	0.1726756
18	0xbd8aa756	-0.06770198
19	0xbe313af8	-0.17307651
20	0xbad20588	-0.0016023377
21	0x3d19a118	0.037507147
22	0xbd1d002d	-0.038330246
23	0xbe90cbc9	-0.28280476
24	0xbe357e29	-0.17723908
25	0xbdca9b56	-0.09892909
26	0xbe642338	-0.2227906
27	0xbe74dbad	-0.23911925
28	0xbe829cef	-0.25510356
29	0x3ed45c5a	0.4147671
30	0xbe2eafb4	-0.17059213
31	0x3d112171	0.035432283
32	0xbdc7525c	-0.09732506
33	0xbddd5ef5	-0.10809127
34	0xbcc2804b	-0.023742815
35	0xbe30d5cd	-0.17269059
36	0x3defab0a	0.11702545
37	0xbedcf7c1	-0.4315777
38	0xbe180e7c	-0.14849275
39	0xbea07553	-0.3133951
40	0xbe8c1d2c	-0.27366006
41	0xbf6c566c	-0.9231937
42	0x3e001058	0.12506235
43	0xbd623cc0	-0.055233717
44	0xbdb91f57	-0.09039181
45	0xbde53196	-0.111910984
46	0x3e7d0bbc	0.24711508
47	0xbeb47ef1	-0.352531
48	0xbebd45df	-0.3696737
49	0xbe4a249e	-0.19740531
50	0xbef3455c	-0.47513855
51	0xbbf4c841	-0.007470161
52	0xbef6d75f	-0.4821119
53	0x3e687f47	0.22704802
54	0x3e073403	0.13203435
55	0xbd9e2bb0	-0.077231765
56	0xbd74287c	-0.05960892
57	0xbe7229f6	-0.2364882
58	0xbea86cbc	-0.32895458
59	0xbeb7aff6	-0.35876435
60	0xbeb1d21a	-0.34730607
61	0xbedc3a4a	-0.4301322
62	0xbe874288	-0.26417947
63	0xbe9bdfe3	-0.3044425
64	0xbdee3c33	-0.11632576
65	0xbe79cccb	-0.24394529
66	0xbe0524f4	-0.13002378
67	0xbdf17e85	-0.1179171
68	0xbdcab36d	-0.09897504
69	0xbc6a82ea	-0.014313439
70	0x3d4be00c	0.049774215
71	0xbda17bcd	-0.07884941
72	0xbeae3b03	-0.34029397
73	0x3b338207	0.0027390735
74	0xbdd698e0	-0.10478377
75	0xbe58368f	-0.21114562
76	0xbd96f067	-0.07370072
77	0xbde6de8f	-0.112729184
78	0xbe589a28	-0.21152556
79	0xbd7d25aa	-0.061803497
80	0x3b287dbe	0.0025709714
81	0x3c9d5548	0.019205704
82	0xbe1fde38	-0.15612113
83	0xbd8cebfa	-0.068809465
84	0xbdcf382c	-0.10118136
85	0x3cdd442f	0.027010052
86	0xbca84b69	-0.02054377
87	0xbd92e860	-0.07173228
88	0x3bfcc216	0.0077135665
89	0x3cc968b4	0.02458606
90	0xbe1298ac	-0.14316052
91	0xbd521ed4	-0.05129893
92	0xbc30adf9	-0.010783666
93	0xbe40d604	-0.1883164
94	0xbdc52823	-0.09626796
95	0xbe064dba	-0.13115588
96	0x3f1c45d4	0.6104405
97	0x3e25d31f	0.16193818
98	0x3e219f44	0.15783411
99	0xbe608e25	-0.21929224
100	0x3dcfc511	0.10145009
101	0xbf049c1a	-0.5180069
102	0xbe481959	-0.1954092
103	0x3d51fba6	0.05126538
104	0x3ef7440c	0.48294103
105	0xbe59a607	-0.2125474
106	0x3eabd125	0.33558002
107	0x3e11396a	0.14182058
108	0x3e93d2a6	0.2887165
109	0x3eb96838	0.36212325
110	0x3e779114	0.24176437
111	0xbd253a5c	-0.04033886
112	0xbf01c2d7	-0.50687927
113	0x3e199984	0.14999968
114	0xbe602816	-0.21890292
115	0x3c4a1692	0.012334483
116	0x3d66bfeb	0.05633537
117	0x3e35a6a6	0.17739353
118	0xbe9a1af5	-0.30098692
119	0xbd8303a2	-0.06397177
120	0xbe9ddddf	-0.30833337
121	0x3d91203c	0.07086226
122	0xbed3ee5b	-0.41392788
123	0x3e8c3585	0.27384582
124	0xbeb2cede	-0.34923452
125	0x3eb5d2fe	0.35512537
126	0x3d19a500	0.037510872
127	0x3e4b9210	0.19879937
128	0x3d57b8cd	0.052666474
129	0xbe4a0a30	-0.19730449
130	0xbc2cbd50	-0.0105431825
131	0xbde60bfa	-0.11232753
132	0xbdc7f5bd	-0.09763668
133	0xbe8b5bcd	-0.27218476
134	0xbdf0199e	-0.11723636
135	0xbe1de80d	-0.15420552
136	0xbc94b53e	-0.01815283
137	0xbe14fbdd	-0.14549203
138	0xbe288af3	-0.16459255
139	0xbe9f375c	-0.31096923
140	0xbd857119	-0.06515712
141	0xbe6dcde5	-0.23223074
142	0xbe0cace6	-0.1373783
143	0xbe8e5972	-0.27802616
144	0xbe856331	-0.2605224
145	0x3d8cae08	0.06869131
146	0xbe4a0f44	-0.19732386
147	0xbd3b9b4f	-0.04580241
148	0x3d821aa7	0.0635274
149	0xbd138855	-0.03601869
150	0xbe36361b	-0.17794077
151	0xbe7f3b56	-0.24924979
152	0xbe503fde	-0.20336863
153	0xbd7d948b	-0.06190924
154	0xbe19216f	-0.1495416
155	0xbd2a33ee	-0.04155343
156	0xbe722c21	-0.23649646
157	0x3d4d754d	0.050160695
158	0xbe2dc9eb	-0.16971557
159	0xbbb93b78	-0.005652841
160	0x3e755f00	0.23962021
161	0xbecc9371	-0.3995624
162	0xbe4ba7cd	-0.1988823
163	0xbec3a0cb	-0.38208613
164	0xbdc3f462	-0.09568097
165	0xbe832992	-0.25617653
166	0x3d4d49fc	0.050119385
167	0x3db0f7a3	0.08640983
168	0xbe43dab1	-0.19126393
169	0x3eb0652e	0.34452194
170	0x3c7cb883	0.01542485
171	0xbe3f6ba5	-0.18693407
172	0xbc4c0214	-0.012451667
173	0xbe0fbcc2	-0.14036849
174	0x3f5c5096	0.86060464
175	0xbe1e12a3	-0.15436797
176	0xbd9b15ae	-0.075724944
177	0xbe62b9b7	-0.22141157
178	0xbecb9132	-0.39759213
179	0x3dc015e5	0.09379176
180	0x3e2764d0	0.1634705
181	0x3eadaa69	0.33919075
182	0x3da55334	0.0807251
183	0x3e2b4e52	0.16729096
184	0x3cd88a1f	0.026433049
185	0x3ef7078d	0.48247948
186	0x3f0d8cc9	0.55292946
187	0xbda62e9d	-0.081143595
188	0xbcc2e211	-0.023789437
189	0xbf221716	-0.63316476
190	0x3f0e62d9	0.5561958
191	0xbe9818c4	-0.29706395
192	0x3dfdf9c5	0.124011554
193	0x3dc30c1f	0.09523796
194	0x3f6bab6c	0.92058444
195	0x3e09d8ab	0.13461559
196	0x3ed4844e	0.4150719
197	0xbeb2e9e1	-0.3494406
198	0x3d8c1ca5	0.06841401
199	0x3e07e4c4	0.13270861
200	0xbd72a028	-0.05923477
201	0xbda5fd49	-0.08104951
202	0x3e93bb34	0.28853762
203	0x3d26f88a	0.04076437
204	0x3e812ca8	0.25229383
205	0x3e29fb3d	0.16599746
206	0x3ea8c5bd	0.32963362
207	0x3e512d74	0.20427495
208	0xbe0f732e	-0.14008781
209	0x3e000706	0.12502679
210	0x3d122aae	0.035685234
211	0x3d475862	0.048668273
212	0x3ed4eef6	0.41588563
213	0x3d9397a4	0.072066575
214	0xbe102044	-0.14074808
215	0x3be14308	0.006874446
216	0xbe0220cb	-0.12707822
217	0xbd4154a3	-0.047199856
218	0xbdac0bb3	-0.08400669
219	0xbd9a852c	-0.07544932
220	0xbe065797	-0.1311935
221	0x3e9f660a	0.31132537
222	0x3d117be1	0.03551853
223	0x3de16165	0.11004905
224	0xbdedbee3	-0.116086744
225	0x3e888625	0.26664844
226	0xbd24d031	-0.04023761
227	0xbc310cd7	-0.010806284
228	0x3e2bc3d2	0.16773918
229	0x3f06a8c8	0.5260129
230	0xbe571da2	-0.21007398
231	0x3f91a3b0	1.1378078
232	0x3c556c8f	0.013026371
233	0x3c113046	0.008861607
234	0x3ea89154	0.32923377
235	0x3dfaddd5	0.12249342
236	0x3e191fbd	0.14953513
237	0xbe3eccbb	-0.18632786
238	0x3f536a77	0.8258433
239	0x3dcd3437	0.10019725
240	0x3d7e675b	0.062110286
241	0x3f4579f8	0.77139235
242	0x3db145d8	0.086559
243	0xbe8cc62e	-0.2749495
244	0x3df90b96	0.12160413
245	0xbdc64dd5	-0.09682814
246	0x3dac4904	0.08412364
247	0x3e89664c	0.2683586
248	0x3dab38e8	0.083604634
249	0xbdc01b7e	-0.09380244
250	0x3bc61147	0.00604454
251	0xbe917d0c	-0.28415716
252	0x3deaf07b	0.11471649
253	0x3e52c1b7	0.20581709
254	0x3f0ccaad	0.5499676
255	0x3d8177f9	0.06321711

rnn.weight_hh_l0 f4 [192, 64]
0	0xbd27b0e9	-0.0409402
1	0x3cf8ca25	0.030369828
2	0x3e85520e	0.26039165
3	0x3de5d246	0.11221747
4	0xbf2c45cc	-0.67294
5	0xbecbbef3	-0.3979412
6	0xbd9cf349	-0.076635905
7	0x3da1aee0	0.07894683
8	0xbe4996c4	-0.19686419
9	0x3e197ad6	0.14988264
10	0xbe79ff23	-0.24413733
11	0xbd9d7dbd	-0.07689998
12	0x3dd4d96a	0.10393031
13	0xbe03eee2	-0.12884095
14	0xbd40d659	-0.047079418
15	0xbcd345e4	-0.025790162
16	0x3dfff9fd	0.12498853
17	0x3dc19425	0.094520845
18	0x3b4ca49d	0.0031226047
19	0xbe4a7fd4	-0.19775325
20	0xbda55063	-0.08071973
21	0xbdc9aa66	-0.09846954
22	0xbdca9702	-0.09892084
23	0xbbab716f	-0.005232028
24	0x3e13098d	0.14359112
25	0x3cc3bb8d	0.023893142
26	0x3a0ea602	0.0005441607
27	0x3d7ea6c2	0.06217075
28	0x3e9de22b	0.30836615
29	0x3e6a0059	0.22851695
30	0xbe91357e	-0.28361124
31	0xbca705a2	-0.020388428
32	0xbe9ae8c4	-0.3025571
33	0xbd8932c7	-0.06699138
34	0x3e33af3a	0.17547312
35	0xbc30deab	-0.010795276
36	0xbd565596	-0.052327715
37	0xbddfa4f6	-0.10920136
38	0x3dbff1e6	0.0937231
39	0xbe4eae68	-0.20183718
40	0xbd40fd81	-0.04711676
41	0x3e3f75f3	0.18697338
42	0x3e831a0d	0.25605813
43	0xbd929002	-0.071563736
44	0x3e055d2a	0.1302382
45	0xbe200b66	-0.15629348
46	0x3df4cb76	0.119528696
47	0xbe8ab798	-0.27093196
48	0xbcb63d51	-0.022246035
49	0x3df29b78	0.118460596
50	0x3ed64b56	0.41854352
51	0x3e85fe47	0.2617056
52	0x3dd68393	0.104743145
53	0xbe610574	-0.21974736
54	0x3de24383	0.11048033
55	0x3a23695c	0.00062336563
56	0xbd4a6fee	-0.04942315
57	0x3d843a69	0.06456453
58	0xbe14610d	-0.14490147
59	0x3de893c2	0.113563076
60	0x3e10a6a7	0.14126073
61	0xbdcb053f	-0.0991311
62	0x3d0f90c5	0.035050172
63	0xbd70fc33	-0.058834266
64	0x3d13a9b8	0.03605053
65	0x3db8cdf1	0.09023655
66	0x3e49f159	0.19720973
67	0xbdc93749	-0.09824998
68	0xbdf8a43f	-0.121407025
69	0x3dbac527	0.09119635
70	0x3c6c20eb	0.014412145
71	0x3dfe4a55	0.124165215
72	0xbe305333	-0.17219238
73	0xbba50e7a	-0.005037126
74	0x3e25b024	0.16180474
75	0x3cd6172f	0.026134102
76	0xbc5a322e	-0.013317628
77	0xbd6cef20	-0.057845235
78	0xbd800b24	-0.06252125
79	0xbce938a4	-0.028469391
80	0x3e42b7f2	0.19015482
81	0xbc0fa56e	-0.008767469
82	0x3de41954	0.111376435
83	0xbe091198	-0.13385618
84	0xbd7d3420	-0.06181729
85	0xbb8c1a1a	-0.0042755725
86	0x3e603937	0.21896826
87	0xbdd9767d	-0.10618303
88	0xbe1f03e1	-0.15528823
89	0x3e21e6df	0.15810727
90	0x3d30d862	0.04317511
91	0x3da30717	0.07960337
92	0x3caf9ffb	0.02143859
93	0x3cb7455b	0.022371938
94	0xbd4ff0b8	-0.050766677
95	0x3e04e98c	0.12979716
96	0x3d91a489	0.07111461
97	0x3e3f1fb9	0.18664445
98	0xbd4e27b7	-0.050330844
99	0x3e45e488	0.19325459
100	0x3d3a524b	0.045488637
101	0xbf06fc95	-0.5272916
102	0x3dd1ed03	0.102502845
103	0xbe19c248	-0.15015519
104	0xbeb517b7	-0.35369655
105	0xbe4e034c	-0.20118445
106	0xbc70e057	-0.014701924
107	0xbe226254	-0.15857822
108	0x3e883003	0.2659913
109	0xbd6ea799	-0.058265302
110	0xbe3b7e01	-0.18309785
111	0xbc9fcc0d	-0.019506479
112	0xbc082b2a	-0.008311072
113	0x3da397cb	0.079879366
114	0x3de8df21	0.113706835
115	0xbce97b29	-0.02850111
116	0x3d66c9d1	0.05634481
117	0xbda4d4b6	-0.08048384
118	0xbdc9b76b	-0.09849437
119	0xbea533ee	-0.32266182
120	0xbef4b2b7	-0.477926
121	0xbceb076a	-0.028690059
122	0x3e0d3870	0.1379106
123	0x3d9af423	0.07566097
124	0x3c89eece	0.016837504
125	0x3e330630	0.17482829
126	0xbcdba1b5	-0.026810506
127	0xbcf7d34e	-0.030252125
128	0x3d2acd9d	0.041699994
129	0xbe3e8ecf	-0.18609165
130	0xbc8d0eb9	-0.017218934
131	0x3db689bd	0.0891299
132	0x3d4656a3	0.048422467
133	0xba308a02	-0.0006734432
134	0x3e488160	0.19580603
135	0x3e822887	0.25421545
136	0x3c18b793	0.009321111
137	0x3d04d61c	0.032430753
138	0x3e19c617	0.15016972
139	0x3e461f69	0.1934792
140	0xbbd26b62	-0.0064214924
141	0xbdeaf0a4	-0.1147168
142	0xbe2469c1	-0.16055967
143	0xbe3e633c	-0.18592542
144	0x3e2186a6	0.1577402
145	0x3e3c8ec1	0.18413831
146	0x3e5f8c20	0.21830797
147	0xbdd6e85f	-0.1049354
148	0x3b95f328	0.0045761056
149	0x3dbaa158	0.09112805
150	0xbda41dca	-0.08013494
151	0xbe42387a	-0.18966857
152	0x3cd6ee98	0.026236817
153	0xbb387f87	-0.0028152184
154	0xbe821ed1	-0.25414136
155	0x3e8e5402	0.27798468
156	0xbe6af76f	-0.22945951
157	0xbd1d8b0a	-0.038462676
158	0xbda7d0e8	-0.081941426
159	0x3d8705c3	0.06592896
160	0x3dcb2c88	0.09920603
161	0x3ddfad81	0.10921765
162	0xbc83e1e9	-0.016098933
163	0x3e19c9e0	0.15018415
164	0x3e30ec45	0.1727763
165	0xbe50707d	-0.20355411
166	0xbc10e340	-0.008843243
167	0xbe0f8949	-0.14017214
168	0xbe502e29	-0.20330109
169	0xbd32f15c	-0.04368721
170	0x3e8af974	0.27143443
171	0xbe7af46e	-0.24507305
172	0x3e3a7dae	0.18212005
173	0xbde29f37	-0.11065524
174	0xbddfe6d5	-0.109326996
175	0x3cfee64a	0.03111567
176	0x3e5f6eab	0.2181956
177	0x3dae9449	0.08524377
178	0x3cc9fab1	0.024655672
179	0x3e1ac2d8	0.1511339
180	0x3cab47c2	0.02090824
181	0xbe436b6c	-0.19083947
182	0xbd918fab	-0.071074806
183	0x3d8de175	0.06927768
184	0xbdc57f95	-0.09643475
185	0xbe13c5ef	-0.14430974
186	0x3d60b6b1	0.054861728
187	0x3cd36c9f	0.02580863
188	0xbe89649d	-0.26834574
189	0x3befca96	0.0073178513
190	0x3bc9f270	0.006162934
191	0x3e7523dc	0.2393946
192	0x3e19adc9	0.150077
193	0x3b88873d	0.0041665123
194	0xbd896cb2	-0.06710185
195	0xbdaff1a4	-0.08591011
196	0xbe2bfbd6	-0.16795287
197	0xbd358e89	-0.044325385
198	0xbe083943	-0.13303094
199	0x3c2286cf	0.009919836
200	0xbde69140	-0.11258173
201	0xbd01265c	-0.031530723
202	0xbeaf0393	-0.34182414
203	0xbde806e1	-0.11329437
204	0xbd2508d8	-0.040291637
205	0x3d0e8987	0.034799125
206	0xbd1853d1	-0.03718931
207	0x3e28eafa	0.16495886
208	0xbd329e7f	-0.043608185
209	0x3dbb54f9	0.091470666
210	0xbd719e5e	-0.05898892
211	0xbd52344f	-0.051319417
212	0xbd7bf7fb	-0.06151579
213	0x3de02d4c	0.1094614
214	0xbcd52efe	-0.026023384
215	0xbcdbf886	-0.026851904
216	0x3d8817b0	0.06645143
217	0x3e51d3d8	0.20490968
218	0xbdb20a25	-0.08693341
219	0xbd850bb1	-0.064963706
220	0x3e08b2a7	0.133494
221	0x3dea0889	0.11427409
222	0x3dfc1ed6	0.12310569
223	0xbd8265d4	-0.063670784
224	0xbca70850	-0.020389706
225	0x3d9766a0	0.07392621
226	0x3d6095e2	0.05483044
227	0x3e30e7f2	0.1727598
228	0xbdaafdc3	-0.083491825
229	0xbd8873ac	-0.06662688
230	0xbe1bde4d	-0.1522152
231	0x3d3ab959	0.045586918
232	0x3d7f24a1	0.06229079
233	0x3b8dc715	0.004326711
234	0x3d756e57	0.05991968
235	0xbb78cc0b	-0.0037963416
236	0x3e0a426c	0.135019
237	0xbc57a846	-0.013162678
238	0x3e30cd24	0.17265755
239	0x3c98d519	0.0186563
240	0x3d0fec4d	0.035137463
241	0xbd754099	-0.05987606
242	0x3d693fe9	0.056945715
243	0x3e2b23c8	0.16712868
244	0xbbf4e2d0	-0.007473327
245	0xbd3fc316	-0.046816908
246	0xbd483028	-0.04887405
247	0xbd633083	-0.055466186
248	0xbeaff7b8	-0.34368682
249	0xbac15823	-0.0014750998
250	0xbd201eb1	-0.03909177
251	0x3e396f7b	0.18108933
252	0xbd8f3c1a	-0.06993885
253	0xbb9915ae	-0.004671774
254	0x3d6b2578	0.05740878
255	0xbc5dfcd9	-0.013549053

rnn.bias_ih_l0 f4 [192]
0	0xbe085ffa	-0.13317862
1	0xbe08e552	-0.13368729
2	0xbe132a00	-0.1437149
3	0x3d85bd77	0.06530278
4	0xbdfaf0e2	-0.12252976
5	0x3d0a7d57	0.03381094
6	0x3dfff2c1	0.124974735
7	0x3da3be23	0.0799525
8	0xbe7ee93d	-0.24893661
9	0x3d8336e7	0.06406956
10	0x3da44423	0.080208085
11	0x3b22681b	0.002478129
12	0xbe010849	-0.12600817
13	0x3d630c57	0.05543169
14	0x3d0b35ba	0.033986785
15	0x3da1e415	0.07904831
16	0x3e369c2f	0.17833017
17	0x3dcac2b0	0.09900415
18	0xbdf4c3dc	-0.1195142
19	0xbe02b8b3	-0.1276577
20	0x3ace5e77	0.0015744705
21	0x3e288cf4	0.1646002
22	0xbae5cb14	-0.0017531835
23	0xbde20394	-0.11035839
24	0xbd5a3a15	-0.053278048
25	0x3deeb84b	0.11656245
26	0x3d3c0299	0.045900915
27	0x3db4d20c	0.08829126
28	0xbda12c3e	-0.07869767
29	0xbd827a07	-0.06370931
30	0xbd9f2c4e	-0.07772122
31	0xbcf8258b	-0.03029134
32	0xbdb028e9	-0.08601553
33	0x3d683302	0.05668927
34	0xbc1afc0d	-0.009459508
35	0xbcc2964c	-0.023753308
36	0xbd692197	-0.0569168
37	0x3e8fb832	0.28070217
38	0x3cfc603b	0.030807605
39	0x3d0c9d5a	0.03432975
40	0x3c3fb4a9	0.011700788
41	0x3db28d90	0.08718407
42	0x3e2cd09f	0.16876458
43	0x3e054ae2	0.13016847
44	0xbd1f7996	-0.038934313
45	0x3e09878e	0.13430616
46	0x3c86fb59	0.016477274
47	0x3dda6ff2	0.10665883
48	0xbdc86b88	-0.09786135
49	0x3d979991	0.07402337
50	0xbac4342d	-0.0014969163
51	0xbd00e89c	-0.031471834
52	0x3dc89617	0.09794252
53	0xbcad343d	-0.021143073
54	0x3d9ee935	0.077593245
55	0xbdaae54c	-0.08344516
56	0x3cc768a0	0.024341881
57	0x3dba0d7c	0.09084603
58	0x3cb9da7d	0.022687191
59	0x3d1004b9	0.035160754
60	0x3d9d826c	0.076908916
61	0x3d8654fe	0.0655918
62	0xbc249509	-0.010045298
63	0x3c38183d	0.011236248
64	0xbd6442fc	-0.055727944
65	0xbd4369e0	-0.047708392
66	0xbc8bb6bb	-0.017054906
67	0xbbc5474c	-0.006020462
68	0x3c186130	0.009300515
69	0xbdd96550	-0.10615027
70	0xbcd27e09	-0.025694864
71	0xbe42d758	-0.1902746
72	0xbd0423fc	-0.03226088
73	0xbdd31834	-0.10307351
74	0xbe0d76a1	-0.13814785
75	0xbb782164	-0.00378617
76	0xbd81cf7f	-0.06338405
77	0x3e02c92f	0.12772058
78	0xbe95ebec	-0.29281557
79	0x3d10e4ca	0.03537444
80	0xbd520f82	-0.05128432
81	0xbe0b0d49	-0.13579287
82	0x3cc90824	0.024540015
83	0x3ca89b41	0.020581843
84	0xbe36910e	-0.17828771
85	0xbcf31eb6	-0.02967773
86	0xbdc946df	-0.09827971
87	0x3b90ff0e	0.004424936
88	0x3d24a9cc	0.040200993
89	0x3c5da869	0.013528922
90	0xbdd20ac6	-0.10255961
91	0x3dcf3927	0.10118323
92	0x3a9847ba	0.0011618056
93	0x3c1a501d	0.009418515
94	0xbdb75e94	-0.08953586
95	0x3d28e625	0.041235108
96	0xbd467591	-0.048451964
97	0xbd8a0826	-0.067398354
98	0xbde7d5f7	-0.113201074
99	0x3da2bafe	0.07945822
100	0xbe86cf1e	-0.26329893
101	0x3e198c8e	0.14995024
102	0xbdf9c51e	-0.121958
103	0xbc5f020d	-0.013611329
104	0x3d302ac4	0.043009534
105	0x3de89462	0.11356427
106	0xbda799be	-0.08183621
107	0x3de19202	0.11014177
108	0x3dedffd6	0.116210625
109	0x3d02b18c	0.031907603
110	0x3dca3b12	0.09874548
111	0x3c729f0b	0.014808427
112	0xbe1bb563	-0.15205912
113	0xbdc5bc88	-0.096551
114	0xbdf1cddd	-0.118068434
115	0x3ded0339	0.1157288
116	0x3bf2b2f7	0.007406588
117	0xbd248258	-0.040163368
118	0xbe76a753	-0.24087267
119	0x3cf6f81b	0.030147603
120	0x3d71f96a	0.05907575
121	0xbe92cc41	-0.28671458
122	0xbdf17f0f	-0.11791813
123	0x3e245d19	0.16051139
124	0xbe03ecac	-0.12883252
125	0xbe23eb89	-0.16007818
126	0x3e9cd5e7	0.30631945
127	0x3d862c60	0.065514326
128	0xbe2f2ce1	-0.17106964
129	0x3ba18757	0.004929464
130	0x3c596fed	0.013271314
131	0xbd17c265	-0.037050623
132	0xbe1d6a2e	-0.15372536
133	0xbe1db8bd	-0.15402503
134	0xbdc96f63	-0.098356985
135	0xbe3bdc5c	-0.18345779
136	0x3dcf33f7	0.101173334
137	0x3daeefd3	0.085418366
138	0xbcacde61	-0.021102132
139	0xbe13076f	-0.14358304
140	0x3d8ecfc3	0.06973221
141	0x3dd80579	0.10547919
142	0x3d08debb	0.033415537
143	0x3d9870d0	0.07443392
144	0xbe20b1a5	-0.15692766
145	0xbd8aa2aa	-0.06769307
146	0xbd917a62	-0.07103421
147	0x3c2238e6	0.009901261
148	0xbd0b933d	-0.034075964
149	0x3dc82675	0.0977296
150	0x3dd3c5a0	0.10340428
151	0xbca4d600	-0.020121574
152	0xbd95943e	-0.073036656
153	0xbe28b4a3	-0.16475157
154	0xbcaebfa7	-0.021331621
155	0xbe3cc988	-0.18436253
156	0x3d67a118	0.056550115
157	0x3dd36346	0.10321669
158	0x3c7f7896	0.015592715
159	0xbc5b7630	-0.013394877
160	0x3d4ce094	0.050018862
161	0x3d2a909b	0.041641813
162	0x3cd79119	0.026314305
163	0xbcc63c60	-0.02419871
164	0xbd9b5f26	-0.075865075
165	0x3dc3dc9c	0.09563562
166	0xbda032a1	-0.07822157
167	0x3de2bc6a	0.110710934
168	0x3b68fb8a	0.003555032
169	0xbd13c673	-0.036077928
170	0xbd1cc445	-0.038273115
171	0x3e788c1b	0.24272196
172	0xbd3cc155	-0.046082813
173	0x3e4a3635	0.19747241
174	0x3df1c2ce	0.11804734
175	0xbdb75c49	-0.08953149
176	0xbe08ea64	-0.13370663
177	0xbc580727	-0.013185299
178	0xbb7ea7a6	-0.003885725
179	0x3d8d7e32	0.069088355
180	0x3db609d9	0.08888597
181	0x3dcc556d	0.09977231
182	0x3d8f5bee	0.06999956
183	0x3c95453f	0.018221496
184	0xbe0c85ab	-0.13722865
185	0x3da8862f	0.082287185
186	0x3d2d69fc	0.042337403
187	0x3d76023f	0.060060736
188	0x3e2a554e	0.16634104
189	0xbe060e9f	-0.13091515
190	0xbe89e069	-0.26929024
191	0xbde82d55	-0.113367714

rnn.bias_hh_l0 f4 [192]
0	0xbbd663e7	-0.006542671
1	0x3d85ebcd	0.06539116
2	0xbe19ae1f	-0.15007828
3	0x3d778526	0.060429715
4	0xbdaa3f27	-0.083128266
5	0xbd4489d9	-0.047983024
6	0xbcff789a	-0.031185437
7	0xbdea712d	-0.11447368
8	0xbe14c4ae	-0.14528152
9	0xbc3d01da	-0.011536086
10	0xbd67187e	-0.056419842
11	0xbcb5beee	-0.022185769
12	0xbde8f612	-0.11375059
13	0x3e1e0531	0.15431668
14	0x3d379a6e	0.04482501
15	0x3d3b3df5	0.045713384
16	0x3e0d2d70	0.13786864
17	0x3e214c05	0.15751655
18	0xbe1b6c0f	-0.1517794
19	0xbe121df1	-0.14269234
20	0x3c936dc4	0.017996676
21	0x3da9a605	0.08283619
22	0xbd1b96c7	-0.03798559
23	0xbe1ffb43	-0.15623192
24	0xbb2f080e	-0.0026707682
25	0x3d3b6537	0.045750823
26	0xbd316797	-0.04331168
27	0xbd5da69c	-0.05411397
28	0xbd3708e3	-0.04468621
29	0x3db7c62a	0.08973344
30	0xbd35d526	-0.044392727
31	0x3d06af09	0.03288177
32	0xbdab13d1	-0.08353389
33	0x3a0b1d6f	0.0005306815
34	0x3dbfee2f	0.09371602
35	0x3e29f063	0.16595607
36	0xbddf72e7	-0.10910588
37	0x3d964410	0.07337201
38	0x3e0d76f4	0.13814908
39	0xbda86d0e	-0.082239255
40	0x3d98ba07	0.07457357
41	0x3e004c7b	0.12529175
42	0x3e0fc030	0.14038157
43	0x3e0cce3e	0.1375055
44	0x3cc8c739	0.02450906
45	0x3d67d5e9	0.056600485
46	0x3e025685	0.12728317
47	0x3d8dfe70	0.06933296
48	0xbda93f5c	-0.08264038
49	0xbdef13c5	-0.116736926
50	0xbd995370	-0.074866176
51	0x3b90f37c	0.004423557
52	0xbdde148a	-0.10843761
53	0xbe36b1cf	-0.17841266
54	0xbc6dec03	-0.014521602
55	0xbdbc3213	-0.091892384
56	0x3e00c440	0.12574863
57	0x3db6e0d1	0.08929599
58	0xbd24f9e8	-0.04027739
59	0x3de08bc3	0.109641574
60	0x3e407902	0.18796161
61	0xbe01b9f1	-0.12668587
62	0x3dffe6de	0.12495206
63	0x3cf5c8e0	0.030003011
64	0xbd6bf842	-0.057609804
65	0x3c8d265c	0.017230205
66	0x3db784b1	0.08960856
67	0xbd5198f7	-0.05117127
68	0x3e2171a8	0.15766013
69	0xbd70c2a0	-0.05877936
70	0x3d6e7fe4	0.058227435
71	0xbe12ab1b	-0.14323084
72	0x3d4113bf	0.047137972
73	0xbe6a9c4f	-0.2291119
74	0xbe4a52a0	-0.19758081
75	0xbd875f1b	-0.06609937
76	0xbbfe9e4b	-0.007770335
77	0x3e09738d	0.13422985
78	0xbeb00f33	-0.34386596
79	0x3e6747b1	0.22585942
80	0xbd9d4707	-0.07679563
81	0xbddfccf9	-0.10927767
82	0xbe0c91c1	-0.13727476
83	0xbe2e198b	-0.17001931
84	0xbe10a40e	-0.14125082
85	0xbda415c6	-0.080119655
86	0x3dc4d43b	0.09610792
87	0x3d5494a4	0.051899567
88	0x3e08fab6	0.13376889
89	0xbcfabcbf	-0.03060758
90	0xbbebf486	-0.0072007803
91	0xbd92baf3	-0.07164564
92	0xbdc070ba	-0.09396501
93	0xbc0bc9f0	-0.008532032
94	0xbe251f30	-0.16125178
95	0x3d560f09	0.052260432
96	0xbe2e65ac	-0.17030972
97	0xbe282905	-0.16421898
98	0xbe1a1962	-0.15048745
99	0x3da76b38	0.08174747
100	0xbd82b465	-0.06382064
101	0x3e1bca80	0.15213966
102	0xbc5279c4	-0.012846414
103	0xbc43c818	-0.011949562
104	0x3c85dcba	0.016340602
105	0x3d2c0106	0.041993164
106	0xbe73f438	-0.23823631
107	0xbdabfa8e	-0.08397399
108	0x3db2aee5	0.08724765
109	0x3d4a28f8	0.049355477
110	0x3da54c80	0.08071232
111	0xbde81d60	-0.11333728
112	0xbe3dd5fe	-0.18538663
113	0x3ddfefed	0.10934434
114	0xbd980f70	-0.074248195
115	0x3c0b173a	0.008489424
116	0x3d48e8b2	0.04905004
117	0x3c9574df	0.018244205
118	0xbdfce63a	-0.123486
119	0x3df6db14	0.120535046
120	0x3de861a3	0.11346748
121	0xbdec7333	-0.1154541
122	0xbbb7c533	-0.005608225
123	0x3dc27932	0.094957724
124	0xbe4b114e	-0.1983082
125	0xbe382220	-0.17981768
126	0x3ead30e4	0.33826363
127	0xbd0e3670	-0.034719884
128	0xbd0c0720	-0.034186482
129	0x3db19476	0.08670895
130	0xbd999383	-0.07498839
131	0xbdc84981	-0.09779645
132	0xbd9e0af9	-0.077169366
133	0xbd2aee05	-0.0417309
134	0xbe17ee7f	-0.14837073
135	0xbdbdabf8	-0.09261316
136	0xbca1aead	-0.019736612
137	0x3db87599	0.09006805
138	0xbe067925	-0.1313215
139	0xbddb7d7c	-0.107172936
140	0x3d4283f0	0.047489107
141	0x3e6aee9b	0.22942583
142	0x3dbf824f	0.09351026
143	0x3e223227	0.15839444
144	0xbdd15cf8	-0.102228105
145	0xbe2b1e0c	-0.1671068
146	0x3d97bb1c	0.07408735
147	0x3d7bfb93	0.061519217
148	0xbdf69138	-0.12039417
149	0x3d7a16a2	0.06105674
150	0x3e12b109	0.14325346
151	0x3e1068aa	0.14102426
152	0xbd87653f	-0.06611108
153	0xbe6a7ca0	-0.22899103
154	0x3dd8c159	0.10583753
155	0xbdc86bd7	-0.09786194
156	0xbca13731	-0.019679638
157	0x3d1262eb	0.035738867
158	0xbd98fcc9	-0.0747009
159	0xbd91922d	-0.07107959
160	0xbe0c439e	-0.13697669
161	0xbdf641c7	-0.12024265
162	0x3d8d70e5	0.069062985
163	0xbd362bcb	-0.044475358
164	0x3e16729f	0.14692162
165	0x3da9739a	0.082740024
166	0xbd5b842d	-0.05359285
167	0x3dcb211a	0.09918423
168	0x3c30a431	0.010781334
169	0x3ba5c0a3	0.0050583645
170	0xbe268a62	-0.16263726
171	0x3e638d23	0.22221808
172	0xbda2d33c	-0.07950446
173	0x3e3f4c38	0.18681419
174	0x3de71157	0.11282604
175	0xbd9a8f00	-0.07546806
176	0xbd393b26	-0.045222424
177	0xbdd2eee3	-0.1029947
178	0xbd4da50d	-0.050206233
179	0xbdb70104	-0.089357406
180	0x3bc3921d	0.005968346
181	0xbe13a042	-0.14416602
182	0x3d43764a	0.04772023
183	0x3dbf40ed	0.093385555
184	0xbe0aef82	-0.13567927
185	0xbdcba693	-0.09943881
186	0xbd97dd53	-0.07415261
187	0xbda0f101	-0.07858468
188	0x3e17ab38	0.14811409
189	0x3c79ca82	0.0152460355
190	0xbd721897	-0.059105482
191	0x3d317fa4	0.04333462

rnn.weight_ih_l1 f4 [192, 64]
0	0xbe11c490	-0.14235139
1	0xbebb35eb	-0.36564574
2	0xbd7e00cd	-0.062012482
3	0x3ede73d8	0.43447757
4	0x3e5bbf01	0.21459581
5	0xbf0ecd19	-0.55781704
6	0x3c11524e	0.008869721
7	0xbd453a7e	-0.048151486
8	0x3d95f831	0.073227294
9	0xbeab1b01	-0.3341904
10	0x3d249bd0	0.040187657
11	0x3dc5c2e2	0.096563116
12	0xbe1a12c0	-0.15046215
13	0xbe52169e	-0.2051644
14	0xbd130954	-0.035897568
15	0xbe7106a4	-0.2353769
16	0x3e9e8a6f	0.3096499
17	0x3e2abaa1	0.16672756
18	0xbd63bd9b	-0.055600744
19	0x3dd7e9f3	0.10542669
20	0x3e7b9e5c	0.24572128
21	0xbe9347d4	-0.28765738
22	0xbe0c362d	-0.13692541
23	0xbeaf400e	-0.34228557
24	0xbd69f347	-0.057116773
25	0xbd837303	-0.06418421
26	0xbe459b9a	-0.19297639
27	0xbd9f8d33	-0.077906035
28	0xbe254cae	-0.16142532
29	0xbdc012d4	-0.09378591
30	0x3d6c0cdb	0.057629447
31	0x3deb0dc8	0.11477238
32	0x3e77864e	0.24172327
33	0x3e266432	0.16249159
34	0xbe124cce	-0.14287111
35	0x3e78446d	0.24244852
36	0x3d73f016	0.059555136
37	0xbe992e82	-0.29918295
38	0x3d932729	0.071852036
39	0xbe81c8bc	-0.2534846
40	0xbec75885	-0.38934723
41	0xbd998e5f	-0.07497858
42	0x3eaf9706	0.3429491
43	0xbd128d77	-0.035779443
44	0x3e0b327e	0.1359348
45	0xbdb00d06	-0.08596234
46	0xbd85acad	-0.06527076
47	0x3e94e8d5	0.29083887
48	0xbda6766c	-0.08128056
49	0x3d8754d8	0.066079795
50	0x3d115db5	0.035489757
51	0x3bc134b2	0.0058961743
52	0xbe42e637	-0.19033132
53	0x3d4449e0	0.047922015
54	0xbeb7c3c0	-0.35891533
55	0xbeacce15	-0.33750978
56	0xbe406215	-0.18787415
57	0xbe8ff0d5	-0.28113428
58	0xbe66b857	-0.22531258
59	0xbcd1f216	-0.02562813
60	0x3d41edca	0.047345914
61	0x3e6760a5	0.2259546
62	0x3d3c4584	0.045964733
63	0x3e53928c	0.20661372
64	0xbe97ab63	-0.29622945
65	0x3e866b71	0.26253846
66	0xbd86bf66	-0.06579475
67	0xbf0fe1ca	-0.562039
68	0xbd3169f5	-0.04331394
69	0x3e9deb76	0.30843705
70	0xbe80fda6	-0.25193518
71	0x3ec75b36	0.38936776
72	0xbd23a588	-0.039952785
73	0x3d9da80c	0.07698068
74	0x3db5fc55	0.08886019
75	0x3c24b607	0.010053164
76	0x3da4bcec	0.080438465
77	0xbc886fcf	-0.016654877
78	0xbe442163	-0.19153361
79	0x3d0b7fb3	0.03405733
80	0xbe4dde12	-0.20104244
81	0xbe01ef5a	-0.12688962
82	0x3e261683	0.16219525
83	0xbe547d1e	-0.20750853
84	0xbdc2a79f	-0.095046274
85	0x3f0a5ba8	0.54046106
86	0xbd38a17f	-0.04507589
87	0x3eb54693	0.35405406
88	0x3d24df27	0.040251877
89	0xbd5546dd	-0.052069534
90	0x3bcb3966	0.006201911
91	0xbd6d0d79	-0.057874177
92	0x3ea0ead4	0.3142916
93	0xbeb1e7d8	-0.34747195
94	0xbe12cc14	-0.14335662
95	0x3cd9a63d	0.026568526
96	0x3e5257f7	0.20541368
97	0x3e3fb99d	0.1872315
98	0xbdc9fc58	-0.09862584
99	0x3d00dc42	0.031460054
100	0x3e0591a7	0.13043843
101	0xbd8e4275	-0.069462694
102	0xbf06fbbb	-0.5272786
103	0x3d1fb8bd	0.03899454
104	0xbe29ab1e	-0.16569182
105	0xbd760bae	-0.060069732
106	0xbca57882	-0.020199064
107	0xbcb1f715	-0.021724263
108	0x3c3af91f	0.011411934
109	0x3dd1a491	0.10236467
110	0xbe3a223d	-0.18177123
111	0xbeddbb1b	-0.43306813
112	0xbdffc298	-0.12488288
113	0xbd871e71	-0.06597603
114	0x3d43453e	0.047673456
115	0x3dfd9de2	0.123836294
116	0xbdaa4f78	-0.08315939
117	0x3c799ac6	0.015234655
118	0x3f4225c8	0.758389
119	0xbd52bf33	-0.051451873
120	0xbdc8cf54	-0.0980517
121	0x3d41058f	0.04712444
122	0xbe0a7a07	-0.13523112
123	0x3d897e25	0.06713513
124	0x3b1365d2	0.002249111
125	0xbec391e9	-0.38197258
126	0xbe11d537	-0.14241491
127	0xbf0011bf	-0.5002708
128	0xbea660ea	-0.32495815
129	0x3c123885	0.008924608
130	0x3daffb09	0.08592803
131	0x3e749b5e	0.23887393
132	0xbc75a8f1	-0.014993892
133	0x3f270b61	0.6525174
134	0xbed63bac	-0.418424
135	0xbf2f5adf	-0.68498033
136	0x3d00adff	0.031415936
137	0x3f04ad34	0.51826787
138	0x3eb63e74	0.35594523
139	0x3d8dbbb6	0.06920569
140	0x3eda2442	0.42605788
141	0x3b8daf66	0.0043238876
142	0x3f423fb9	0.75878483
143	0x3c69863d	0.014253196
144	0xbeb00163	-0.34376058
145	0xbe869437	-0.26284954
146	0xbc1733c1	-0.009228648
147	0xbdfc0068	-0.12304765
148	0x3c807b11	0.015683683
149	0xbe33c641	-0.17556097
150	0xbd78c661	-0.060736064
151	0xbe0e058f	-0.13869308
152	0x3e2716c1	0.16317274
153	0xbe4c1cd5	-0.19932874
154	0x3dcde983	0.100543045
155	0xbdbd80c6	-0.09253077
156	0xbec15906	-0.37763232
157	0x3dd3fac1	0.10350562
158	0xbbda4beb	-0.006661882
159	0x3dbc70f5	0.09201232
160	0xbe8bb429	-0.2728589
161	0xbdec1d9d	-0.11529086
162	0x3e1d8d8c	0.15386027
163	0xbd6e07b6	-0.058112822
164	0xbda8a314	-0.0823423
165	0xbcc836ff	-0.024440287
166	0x3d5a2135	0.053254325
167	0xbd479e80	-0.04873514
168	0x3e046dd7	0.12932526
169	0x3dab4b7f	0.08364009
170	0xbf43981a	-0.76403964
171	0xbdaf6896	-0.0856487
172	0xbe32249d	-0.1739678
173	0xbe2fbe61	-0.17162468
174	0xbca18053	-0.01971451
175	0x3edb76cc	0.42864072
176	0xbc5e4bf9	-0.013567918
177	0x3e8540e7	0.2602608
178	0xbdef764c	-0.11692485
179	0xbca79cb6	-0.020460468
180	0x3f1d0c96	0.6134733
181	0xbdd9bbfc	-0.10631558
182	0xbee11a59	-0.43965414
183	0x3dd8f2b7	0.10593169
184	0xbe4900c4	-0.19629198
185	0xbdefd7ee	-0.11711107
186	0x3ea8bc83	0.32956323
187	0xbe585fa8	-0.2113024
188	0x3e47e57a	0.19521132
189	0xbd8a6bfd	-0.067588784
190	0xbd0913c5	-0.03346612
191	0xbbaa0ef2	-0.00518977
192	0x3d7d466c	0.061834738
193	0x3d98f9a1	0.07469488
194	0xbcd0cb6e	-0.025487628
195	0xbe57af61	-0.21062995
196	0x3dad5a02	0.08464433
197	0x3ce7f27a	0.028313864
198	0xbe498a44	-0.1968165
199	0x3d96f443	0.07370808
200	0x3e51e29b	0.204966
201	0xbdd46aa0	-0.103718996
202	0x3e0f5e68	0.14000857
203	0xbd41ae0c	-0.047285125
204	0x3df0bc14	0.11754623
205	0x3e756337	0.23963629
206	0x3e2aba6f	0.16672681
207	0x3e08c6a9	0.13357033
208	0xbc7056cc	-0.0146691315
209	0xbe375a4c	-0.1790554
210	0xbe530c93	-0.20610265
211	0x3da21b64	0.079153806
212	0xbd85b3e8	-0.06528455
213	0x3dbe31ad	0.09286819
214	0x3d9cb38f	0.076514356
215	0x3df94128	0.12170631
216	0x3d12efe3	0.035873305
217	0xbe37caf9	-0.17948522
218	0x3d42751c	0.047474965
219	0xbd850330	-0.064947486
220	0xbd31c29e	-0.043398492
221	0x3e460298	0.19336927
222	0x3e4ddff6	0.20104966
223	0xbda04e80	-0.07827473
224	0xbcc0c5c7	-0.023531808
225	0xbdd0b2f3	-0.10190382
226	0x3d08b064	0.033371344
227	0xbe061e76	-0.13097557
228	0xbd81c066	-0.06335525
229	0x3de2e8dd	0.110795714
230	0xbca717b4	-0.020397045
231	0x3d726cae	0.059185676
232	0x3d6994aa	0.057026543
233	0xbdd746e2	-0.10511567
234	0x3a131c70	0.00056118425
235	0x3e71058c	0.23537272
236	0xbc4c0e34	-0.012454558
237	0x3e273dc7	0.1633216
238	0xbc810910	-0.015751392
239	0xbdb23ae4	-0.08702639
240	0xbe00a1ee	-0.12561771
241	0x3d693c7b	0.056942444
242	0xbe1b8491	-0.15187289
243	0xbce855e8	-0.028361276
244	0x3e4e1ea5	0.20128877
245	0x3e354218	0.17700994
246	0x3c26d4c6	0.010182565
247	0xbdc6dc82	-0.09710027
248	0xbd97118c	-0.07376394
249	0x3e8106ec	0.25200593
250	0xbe422615	-0.1895984
251	0x3d4ae2b8	0.049532622
252	0x3e4917b3	0.19637947
253	0xbe0adc47	-0.13560592
254	0xbe5aa2d3	-0.21351175
255	0xbe0f5c20	-0.13999987

rnn.weight_hh_l1 f4 [192, 64]
0	0x3e444fce	0.19171068
1	0xbd60adfd	-0.05485343
2	0xbee4dd67	-0.44700167
3	0x3e2abc1e	0.16673324
4	0x3ec49fba	0.38403112
5	0x3d92bfbd	0.071654774
6	0x3ebc0622	0.3672343
7	0x3e6f36c8	0.23360741
8	0x3e837f83	0.2568322
9	0xbe002c19	-0.12516822
10	0xbdac356b	-0.08408626
11	0xbe44ed8d	-0.19231243
12	0xbe22a269	-0.15882267
13	0x3d92aa71	0.07161415
14	0xbde7a1fc	-0.11310193
15	0x3e54c626	0.20778713
16	0x3e2d5f80	0.16930962
17	0x3f20af58	0.62767553
18	0xbd80e601	-0.0629387
19	0x3c098f01	0.008395911
20	0x3ed4ed21	0.41587165
21	0x3d76aa6e	0.06022113
22	0xbdf28b41	-0.11842967
23	0xbdaaaa66	-0.08333282
24	0xb9ccac9b	-0.00039038513
25	0x3c8a142e	0.016855326
26	0x3e7338c0	0.23752117
27	0x3ea85246	0.3287527
28	0xbed4c983	-0.4155999
29	0xbdef271e	-0.11677383
30	0x3ec1c1d6	0.37843198
31	0x3ea1575b	0.3151196
32	0x3e0caed3	0.13738565
33	0x3e766be2	0.24064592
34	0x3e2a3be9	0.16624416
35	0x3e797658	0.24361551
36	0x3eb03cb5	0.34421316
37	0xbe44f1a6	-0.19232807
38	0xbe21994c	-0.15781134
39	0x3cd879b3	0.026425218
40	0xbe6ba5a0	-0.230124
41	0xbe9141d7	-0.28370544
42	0xbe81a94c	-0.25324476
43	0x3e3960d1	0.18103339
44	0x3e7b6422	0.24549916
45	0x3d8ec2e7	0.069707684
46	0x3e411909	0.18857206
47	0x3df17505	0.11789898
48	0x3e5f623b	0.21814816
49	0x3c52658e	0.012841595
50	0x3d999cd2	0.07500614
51	0xbe57b3ba	-0.21064654
52	0xbd33dd4f	-0.04391223
53	0xbbfbd1aa	-0.007684906
54	0xbdd18775	-0.102309145
55	0x3e70a42b	0.23500125
56	0x3c336f70	0.010951862
57	0x3dcd9edf	0.10040068
58	0xbd347aae	-0.04406231
59	0xbe87bb17	-0.26509926
60	0xbeb73349	-0.35781315
61	0x3dd16b06	0.10225491
62	0x3d929ed5	0.07159201
63	0x3df89499	0.12137718
64	0x3d95ca92	0.07314028
65	0xbe25be90	-0.16185975
66	0xbc3a254f	-0.011361434
67	0x3d85a214	0.065250546
68	0x3d9908b8	0.07472366
69	0xbccdc0f5	-0.025116423
70	0x3da4a855	0.08039919
71	0x3de79d5a	0.11309309
72	0x3e080a6d	0.13285227
73	0xbd7c81f9	-0.06164739
74	0x3d897d3e	0.06713341
75	0xbe97a68c	-0.29619253
76	0xbd73af1f	-0.05949318
77	0x3ea28ce8	0.31748128
78	0xbeda4f2d	-0.4263853
79	0x3ec735ee	0.38908333
80	0xbd0a5942	-0.03377653
81	0x3c9614d3	0.018320477
82	0x3dc97714	0.098371655
83	0xbd1b5614	-0.037923887
84	0x3d77fdea	0.060544886
85	0xbd406fb6	-0.046981536
86	0x3e64bcad	0.22337599
87	0x3c107eb8	0.008819275
88	0xbd8dce77	-0.06924146
89	0x3eb2838e	0.34865993
90	0x3e352ade	0.17692134
91	0xbdddbba0	-0.10826802
92	0x3da5fcd5	0.081048645
93	0xbda460be	-0.080262646
94	0xbd6b9bc7	-0.057521608
95	0x3dece5a5	0.11567239
96	0x3dc2dbd6	0.09514587
97	0x3a0efcdc	0.0005454549
98	0xbb568896	-0.003273522
99	0xbcb1d3b8	-0.0217074
100	0x3d6e1317	0.058123674
101	0xbe388736	-0.18020329
102	0x3e18ac09	0.14909376
103	0x3e032fe8	0.12811244
104	0x3d440103	0.047852527
105	0xbec95b43	-0.3932744
106	0xbca10711	-0.01965669
107	0xbdf68445	-0.12036947
108	0x3dc1fdcc	0.09472236
109	0x3d02df5c	0.031951293
110	0x3eb488a1	0.3526049
111	0xbddab4ab	-0.10678991
112	0xbde230b8	-0.110444486
113	0xbe81692b	-0.2527555
114	0xbe05a15b	-0.13049833
115	0xbe11eca0	-0.14250422
116	0x3db51fd9	0.08843965
117	0xbe0a7a48	-0.13523209
118	0x3de2aeb3	0.110684775
119	0xbd87a0d6	-0.06622474
120	0x3de1ac23	0.110191606
121	0xbe9d75dd	-0.30753985
122	0xbd4c9548	-0.049947053
123	0x3d8d88ce	0.06910859
124	0xbaf80a99	-0.0018924057
125	0x3db644df	0.08899855
126	0x3e055d3e	0.1302385
127	0xbd59059c	-0.052983865
128	0x3c4a700d	0.012355817
129	0xbe5da807	-0.21646129
130	0xbeda726b	-0.4266542
131	0x3c86db71	0.01646206
132	0x3d25b8b3	0.040459346
133	0x3d9c9dd8	0.07647294
134	0x3e048d25	0.12944467
135	0xbde24cb1	-0.11049784
136	0x3bddd9cd	0.0067703486
137	0xbf087aea	-0.5331255
138	0xbdaf2268	-0.08551484
139	0x3de2f90d	0.11082659
140	0x3e2a0f07	0.16607295
141	0x3e171f34	0.14757997
142	0x3bceb5fb	0.006308315
143	0xbd5c00bf	-0.05371165
144	0xbf00b34b	-0.5027358
145	0x3e22b1c0	0.15888119
146	0xbe9c6428	-0.30545163
147	0x3dee80e1	0.116456755
148	0x3ebc076d	0.36724415
149	0x3e25b390	0.16181779
150	0x3db46ac0	0.088094234
151	0x3e959495	0.29214922
152	0x3e1d152c	0.15340108
153	0x3dd40587	0.10352617
154	0xbe31c391	-0.17359759
155	0xbd8383e0	-0.064216375
156	0x3ec55eb3	0.38548812
157	0x3e1069ee	0.14102909
158	0xbe3e0b23	-0.18558936
159	0xbdb25804	-0.08708194
160	0xbe4754b9	-0.19465913
161	0x3e161bb2	0.14659002
162	0xbe1cd665	-0.1531616
163	0x3d5562cc	0.052096173
164	0x3e877861	0.2645903
165	0x3e691c92	0.22764805
166	0xbdd3dc79	-0.10344786
167	0xbd1e8b5f	-0.038707133
168	0x3e44e295	0.19227059
169	0x3e3a5109	0.18194975
170	0x3e1a5189	0.15070166
171	0x3dd11c36	0.10210459
172	0x3e2cb5ce	0.16866228
173	0xbd4eaef1	-0.050459806
174	0xbda465b4	-0.08027211
175	0x39a4884c	0.00031382067
176	0x3e47f014	0.19525176
177	0x3d88d575	0.06681339
178	0xbecf989b	-0.40546116
179	0x3d993c7d	0.0748224
180	0xbe57d1c4	-0.21076113
181	0xbe832520	-0.25614262
182	0x3c6c1386	0.014408952
183	0x3dd8515f	0.10562395
184	0x3caf1eb8	0.021376953
185	0x3f0a6b52	0.5407001
186	0x3d739a48	0.059473306
187	0xbdd0dcd5	-0.1019837
188	0xbda54fa6	-0.08071832
189	0xbdde5b1b	-0.10857221
190	0xbde0b19e	-0.10971378
191	0xbadb61eb	-0.0016737556
192	0x3dc85531	0.09781874
193	0xbd82c0ce	-0.06384431
194	0x3dcbca1a	0.09950657
195	0xbe44d030	-0.19220042
196	0xbe60f5d9	-0.21968783
197	0xbd968a5d	-0.073506095
198	0xbe2df9c4	-0.1698981
199	0xbe2b2fce	-0.16717455
200	0xbdce2b22	-0.10066821
201	0x3d799f07	0.060942676
202	0x3da3d661	0.07999874
203	0x3e25ecba	0.16203585
204	0x3dd48790	0.10377419
205	0x3dfb7cda	0.12279673
206	0xbde35eea	-0.11102088
207	0xbd94e3cc	-0.07270011
208	0x3d9db203	0.07699969
209	0xbeb09974	-0.34492075
210	0x3e1b5733	0.15169983
211	0x3e6abfb1	0.22924687
212	0xbe5d17b5	-0.21591075
213	0xbe2f7322	-0.17133763
214	0x3e4e0f74	0.20123082
215	0xbd4020a3	-0.046906125
216	0xbe9e966c	-0.30974138
217	0x3da0655f	0.07831835
218	0xbe0e40fb	-0.13891976
219	0xbe5da005	-0.21643074
220	0x3e28d533	0.16487579
221	0xbe269d15	-0.1627086
222	0xbe2bb398	-0.16767728
223	0xbd920d90	-0.07131493
224	0xbc3ac1a3	-0.011398706
225	0xbd61e8f3	-0.0551538
226	0xbe72cc6c	-0.23710793
227	0xbd7b7933	-0.06139488
228	0xbe30c605	-0.17263038
229	0xbd359375	-0.04433008
230	0xbd4ba106	-0.04971411
231	0xbe0bf2b1	-0.13666798
232	0xbd804932	-0.06263961
233	0x3d866385	0.065619506
234	0x3d804898	0.06263846
235	0xbe317e07	-0.17333232
236	0xbe2fd630	-0.1717155
237	0xbdef46e0	-0.1168344
238	0xbd363e21	-0.044492844
239	0xbe39aed7	-0.18133102
240	0x3c7ee9aa	0.01555864
241	0xbccf134e	-0.02527776
242	0x3cc3067d	0.023806805
243	0x3d9517ce	0.07279931
244	0xbe01181d	-0.12606855
245	0xbd733ab3	-0.05938215
246	0x3e1f0391	0.15528704
247	0xbe88918a	-0.26673537
248	0xbaee1571	-0.0018164349
249	0xbd9973c4	-0.07492784
250	0x3e04716b	0.1293389
251	0x3e4d922c	0.20075291
252	0x3e6b42a5	0.22974642
253	0xbd569519	-0.052388284
254	0xbdf8e0ad	-0.121522285
255	0xbe92c3a7	-0.28664896

rnn.bias_ih_l1 f4 [192]
0	0xbe38df66	-0.1805397
1	0xbd4c014f	-0.049805935
2	0x3dfc0d99	0.12307281
3	0x3daebbe5	0.08531932
4	0xbd123f22	-0.03570474
5	0x3da597d1	0.08085597
6	0x3dfce29b	0.12347909
7	0x3e347a50	0.17624784
8	0xbd905864	-0.07048109
9	0x3d477cdd	0.048703063
10	0x3e0cd72e	0.1375396
11	0x3e4fd2c0	0.20295238
12	0x3e445494	0.19172889
13	0xbe13527a	-0.14386931
14	0xbe28bf65	-0.16479261
15	0xbd87b920	-0.06627107
16	0x3d8e0da4	0.069361955
17	0x3dac19c0	0.08403349
18	0x3b56d2d2	0.0032779467
19	0x3def28a2	0.11677672
20	0xbd6eeb2c	-0.058329746
21	0x3d019d67	0.03164425
22	0xbc24a815	-0.0100498395
23	0xbe0b3683	-0.13595013
24	0xbdd0b6f4	-0.101911455
25	0x3d46c35e	0.04852616
26	0x3d6339af	0.055474933
27	0x3c85421f	0.01626688
28	0x3df7c61a	0.12098332
29	0xbdf90499	-0.1215908
30	0x3e2d8560	0.1694541
31	0x3e1a1043	0.15045266
32	0x3d29ee2f	0.041486915
33	0xbd87ee34	-0.066372305
34	0x3d988789	0.07447726
35	0x3cde57e3	0.027141517
36	0x3d3317b3	0.043723773
37	0x3dc97a49	0.09837777
38	0x3d01021a	0.031496145
39	0xbb0460ac	-0.0020199222
40	0x3dd46584	0.10370925
41	0xbd700c1e	-0.058605306
42	0xbcd846fb	-0.026401034
43	0xbde47c3f	-0.111565106
44	0xba47543f	-0.0007603801
45	0xbcfb3a74	-0.030667521
46	0xbdb22466	-0.08698349
47	0x3c4c89db	0.012484039
48	0xbe0c0e14	-0.13677245
49	0x3cf7fd76	0.030272227
50	0xbdc2f021	-0.09518457
51	0x3d4587a4	0.04822506
52	0xbde74fae	-0.112944946
53	0x3e40a9f2	0.18814829
54	0xbd1d63b0	-0.038425148
55	0x3c6f2860	0.0145970285
56	0x3d825083	0.06363013
57	0xbd736001	-0.05941773
58	0x3d7d5d3b	0.06185649
59	0xbcdd9a3d	-0.027051086
60	0x3d8c8f6b	0.06863292
61	0x3c2974a9	0.010342755
62	0xbcb3e4f1	-0.021959754
63	0xbcf01200	-0.029305458
64	0xbd96b6a7	-0.07359057
65	0xbd3d8cd3	-0.04627688
66	0xbe0ff9bd	-0.14060111
67	0xbdd7d5e2	-0.10538842
68	0xbb492367	-0.0030691267
69	0x3c0190b0	0.007908031
70	0xbe08b1b6	-0.13349041
71	0x3d3efc03	0.046627056
72	0xbdcf0fc0	-0.10110426
73	0xbe347199	-0.17621459
74	0xbdd45708	-0.103681624
75	0xbdd1c273	-0.10242166
76	0xbd321fa4	-0.043487206
77	0x3d2a209e	0.041535012
78	0x3c079e23	0.008277449
79	0xbd4c594c	-0.049889848
80	0xbc901516	-0.01758818
81	0xbe00eb40	-0.12589741
82	0xbd9e6e88	-0.07735926
83	0x3d0a440f	0.033756312
84	0x3d51c738	0.05121538
85	0x3d85fcb1	0.06542338
86	0x3d34e12b	0.04416005
87	0xbe02dbd1	-0.12779166
88	0xbe123c8c	-0.1428091
89	0xb7d0307e	-2.4818113e-05
90	0xbd74a289	-0.059725318
91	0xbce2a8fc	-0.027668469
92	0xbe7b2bfb	-0.24528496
93	0xbd51dfbd	-0.051238764
94	0xbe01f13c	-0.1268968
95	0xbd404c10	-0.04694754
96	0xbd0ad9b6	-0.03389903
97	0xbd2ed27b	-0.0426812
98	0x3d02b1c9	0.03190783
99	0x3d8652a7	0.065587334
100	0xbdf8c1bc	-0.12146327
101	0xbca48972	-0.02008507
102	0xbdb56887	-0.08857828
103	0xbd3c0f8f	-0.045913275
104	0xbe140eca	-0.14458767
105	0xbdeac3b4	-0.11463109
106	0xbbbb76f8	-0.0057209693
107	0xbdf1a9a6	-0.11799936
108	0x3cd66a86	0.026173841
109	0xbd0ca026	-0.034332417
110	0xbd9be718	-0.07612437
111	0xbc878d78	-0.01654695
112	0xbdc02c6a	-0.09383471
113	0x3cc384af	0.02386698
114	0x3c8da6aa	0.017291386
115	0xbe30c125	-0.17261179
116	0xbe266d22	-0.16252568
117	0xbc2c7cb1	-0.010527776
118	0xbd96f79f	-0.07371449
119	0x3cee3d91	0.029082092
120	0xbda9f9ff	-0.08299636
121	0xbc916d72	-0.017752383
122	0xbdd97d57	-0.1061961
123	0xbd641ec8	-0.055693418
124	0xbe0386bb	-0.12844364
125	0xbd13bea2	-0.036070473
126	0xbdc9e46c	-0.09858021
127	0x3d441083	0.04786731
128	0x3d8293e2	0.06375863
129	0x3d82e3bb	0.063910924
130	0x3dc990da	0.09842081
131	0x3ae16624	0.0017196578
132	0xbd9773e4	-0.07395151
133	0xbdff34c4	-0.12461236
134	0xbdc68913	-0.096941136
135	0xbe37d7a8	-0.1795336
136	0x3d7e08e4	0.062020198
137	0x3db833dc	0.089942664
138	0xbd5813df	-0.052753326
139	0x3d3f5a83	0.046717178
140	0x3e001461	0.12507774
141	0x3de82601	0.11335374
142	0xbdefab94	-0.11702648
143	0xbdb8d4bc	-0.09024951
144	0x3ddeff68	0.108885586
145	0xbd439964	-0.047753707
146	0xbe6500c0	-0.22363567
147	0x3e421c24	0.18956047
148	0xbcf024bb	-0.02931439
149	0x3d977ce5	0.073968686
150	0x3dbc16cf	0.09184038
151	0xbd69d22f	-0.057085212
152	0x3d866e9b	0.06564065
153	0x3ca1226a	0.01966973
154	0xbe3a3e92	-0.18187931
155	0x3b8c4959	0.0042812047
156	0x3df9032b	0.12158807
157	0x3d79fa05	0.061029453
158	0xbd7cff36	-0.061766826
159	0xbe176007	-0.14782725
160	0x3de8e03c	0.11370894
161	0x3d94602c	0.07244906
162	0xbe2e5f2f	-0.17028497
163	0xbddf535b	-0.10904571
164	0xbdd9ba1a	-0.10631199
165	0x3db7b2a7	0.08969622
166	0x3c99fe06	0.018797886
167	0xbe04202c	-0.12902898
168	0xbd42c97d	-0.047555435
169	0xbd0bb16b	-0.034104746
170	0xbd29ad70	-0.04142517
171	0xbdda7822	-0.10667445
172	0xbe26f73f	-0.16305254
173	0xbe3e4e02	-0.18584445
174	0xbdc3c931	-0.095598586
175	0x3b3cc086	0.0028801276
176	0xbdac2566	-0.08405571
177	0xbe17bd2a	-0.14818254
178	0xbc9b7246	-0.018975388
179	0x3e08925d	0.13337083
180	0x3d1ff2c6	0.039049886
181	0xbbd0b180	-0.006368816
182	0x3e140b4e	0.14457437
183	0xbde7fc9d	-0.11327479
184	0xbdd78208	-0.10522848
185	0xbd305fe7	-0.04306021
186	0x3e2e2d9d	0.17009588
187	0x3cac2c52	0.021017227
188	0xbd430bf3	-0.047618818
189	0xbe0f5829	-0.13998474
190	0xbc3abadd	-0.011397091
191	0xbd7637b4	-0.060111716
