graphrnn_v2/experiments/structures/k_regulars/vary_m/3_regular_vary_m_32_graphrnn_s/model_at_900.pt (torch, 407571 bytes, 22 tensors)

embedding.0.weight f4 [32, 32]
0	0xbec925eb	-0.39286742
1	0xbe8d3fc7	-0.2758772
2	0xbeae50a7	-0.34045908
3	0xbe5f019a	-0.21777955
4	0xbe4fa280	-0.20276833
5	0xbbc459a1	-0.00599213
6	0x3ad2d111	0.0016084035
7	0x3dc96f06	0.09835629
8	0x3d1b3b1a	0.03789816
9	0x3d75cc7a	0.060009457
10	0x3e033a97	0.12815319
11	0x3e82eea8	0.25572705
12	0xbcb76e89	-0.022391574
13	0xbdbf6ae5	-0.093465604
14	0x3d9525fa	0.07282634
15	0x3d9d2b1e	0.076742396
16	0xbc1002c7	-0.008789725
17	0x3c8e1efc	0.017348759
18	0x3cf4cd3d	0.029883021
19	0xbcfab8ca	-0.030605692
20	0xbd3b19fa	-0.04567907
21	0xbde580a1	-0.11206175
22	0x3ce36052	0.02775589
23	0x3e14be56	0.14525732
24	0xbe0193b3	-0.12653999
25	0xbd85cfbe	-0.06533764
26	0x3e30caa2	0.17264798
27	0x3d335bfa	0.043788888
28	0xbe1ea5ed	-0.15492983
29	0xbe198555	-0.14992268
30	0xbd433024	-0.047653332
31	0x3d37845a	0.044803955
32	0xbb8375c8	-0.0040118434
33	0xbcbc30d5	-0.022972504
34	0x3d8a4429	0.06751282
35	0x3e8bcc0f	0.27304122
36	0x3d456e4a	0.048200883
37	0x3d656f6d	0.056014467
38	0x3d37f396	0.044910036
39	0xbd761743	-0.060080778
40	0xbd59c4c1	-0.053166155
41	0x3e668636	0.22512135
42	0x3f0ac22a	0.5420252
43	0x3f168dd2	0.5881015
44	0x3f5a9cff	0.8539581
45	0xbc08da52	-0.008352833
46	0xba2f8855	-0.0006696035
47	0xbe821ae1	-0.25411132
48	0xbe0c59aa	-0.13706079
49	0xbc239654	-0.0099845715
50	0xbe8fb88b	-0.28070483
51	0xbe172119	-0.1475872
52	0x3bc22726	0.005925077
53	0xbd80d6e5	-0.06290988
54	0xbc8f1242	-0.01746476
55	0xbe8ab2ea	-0.27089626
56	0xbe078c17	-0.13237034
57	0xbe82e67a	-0.25566465
58	0xbd0e8e84	-0.034803882
59	0xbe8ef5ce	-0.2792191
60	0xbd5b2282	-0.053499706
61	0xbe4fcaf8	-0.2029227
62	0xbe6b782a	-0.22995058
63	0xbe5da471	-0.2164476
64	0xbef346ae	-0.47514862
65	0x3e3bd9d7	0.18344818
66	0x3ed45949	0.4147437
67	0x3daf0171	0.08545197
68	0xbed0ab6a	-0.4075578
69	0xbeed7833	-0.46380767
70	0xbf19ce0a	-0.60080016
71	0xbf1a9f33	-0.6039917
72	0xbf1856ae	-0.5950726
73	0xbed9efff	-0.42565915
74	0xbedccfb7	-0.43127224
75	0xbec565f5	-0.3855435
76	0xbe745dea	-0.2386395
77	0xbc9f8e8b	-0.01947715
78	0x3e15a3eb	0.14613311
79	0x3e1d19ba	0.15341845
80	0xbd2a18a0	-0.04152739
81	0xbdae4c04	-0.085105926
82	0x3db979d3	0.09056439
83	0xbd5acdec	-0.05341904
84	0xbd6dfc56	-0.058101974
85	0x3d826eb9	0.06368775
86	0xbe2373bd	-0.1596212
87	0xbd882aa4	-0.06648758
88	0xbe0b2c2d	-0.1359107
89	0xbda40197	-0.08008116
90	0x3e02dd70	0.12779784
91	0xbe11add1	-0.14226462
92	0xbd195f3a	-0.03744433
93	0x3d84e00c	0.06488046
94	0x3d1cdb46	0.038295053
95	0x3e200be5	0.15629537
96	0x3e21ec75	0.15812857
97	0x3db27e31	0.08715475
98	0x3dde607e	0.10858248
99	0x3eb5c5f5	0.35502592
100	0x3eaa7655	0.33293405
101	0x3b93ee4f	0.0045144926
102	0xbb9189fe	-0.004441499
103	0xbdf40185	-0.11914352
104	0x3e21801d	0.15771528
105	0xbc0a2673	-0.008432019
106	0x3e0f85d0	0.14015889
107	0x3da615f5	0.08109657
108	0xbda351a0	-0.07974553
109	0x3e17fd1d	0.14842649
110	0x3e821b36	0.25411385
111	0x3cea9cbe	0.028639194
112	0xbdb58063	-0.088623784
113	0x3e6b834e	0.22999308
114	0x3e21c73f	0.15798663
115	0x3e248856	0.16067633
116	0x3d23ec14	0.040020064
117	0x3decbcaf	0.11559426
118	0xbda052eb	-0.07828315
119	0x3e5c2155	0.2149709
120	0xbda5f562	-0.08103444
121	0x3b11c373	0.002224174
122	0x3ce898d5	0.028393188
123	0x3da7ea26	0.08198957
124	0x3e330a0a	0.17484298
125	0xbbc731d3	-0.0060789376
126	0x3e72f6f9	0.23727025
127	0xbd8728f4	-0.06599608
128	0x3c8dfef1	0.01733348
129	0x3ce78a55	0.028264204
130	0x3e4f2372	0.20228365
131	0x3ea1d79c	0.3160981
132	0x3e9dc1c3	0.3081189
133	0x3daa8660	0.08326411
134	0x3e0ce019	0.13757361
135	0x3dbad2cc	0.091222376
136	0x3d0c40a1	0.034241322
137	0xbd2deea4	-0.042463914
138	0x3cefec8e	0.029287603
139	0x3bf01676	0.0073268963
140	0xbbf05226	-0.0073340116
141	0x3e829358	0.2550304
142	0x3e7a359a	0.2443451
143	0x3d7c7807	0.061637904
144	0x3e92da9a	0.28682405
145	0x3db9e887	0.09077554
146	0x3de5cf0c	0.11221132
147	0x3e262366	0.16224441
148	0x3e450099	0.19238509
149	0x3dfaf9ed	0.12254701
150	0x3e9dbdbd	0.3080882
151	0x3c71c2b8	0.014755897
152	0x3da00423	0.07813289
153	0xbcb26d0a	-0.02178051
154	0x3dbc438c	0.09192571
155	0x3e7cf76a	0.24703756
156	0x3e262a63	0.16227107
157	0x3e9c3c05	0.3051454
158	0x3dd11a38	0.10210079
159	0xbce99f13	-0.028518235
160	0x3ef4ff86	0.478512
161	0x3e82214b	0.25416026
162	0x3e5f9c3b	0.21836941
163	0x3e07fff4	0.13281232
164	0x3df73f85	0.12072662
165	0x3dc8a675	0.09797374
166	0x3debb6ad	0.11509452
167	0x3e87d1ea	0.2652734
168	0x3e90835e	0.28225225
169	0x3dc8d54f	0.098063104
170	0x3df783b8	0.1208567
171	0x3e2302b4	0.15919
172	0xbc168246	-0.009186333
173	0x3e9bbebe	0.30418962
174	0xbe06c45c	-0.13160843
175	0xbe4ea521	-0.20180179
176	0xbdeaf263	-0.11472013
177	0xbe79c644	-0.24392039
178	0xbe38c153	-0.18042497
179	0xbe1cc095	-0.15307839
180	0xbe0ff785	-0.14059265
181	0xbe418a4a	-0.1890041
182	0xbe725b6a	-0.23667684
183	0xbdaa6700	-0.08320427
184	0xbe700387	-0.23438846
185	0x3ce88c2a	0.028387148
186	0x3d042bae	0.03226822
187	0xbdac0c59	-0.08400793
188	0xbe289926	-0.16464671
189	0xbdd09a50	-0.10185683
190	0xbd2d7947	-0.042351987
191	0xbe6523a8	-0.22376883
192	0x3e3096a5	0.17244966
193	0x3e8c4660	0.27397442
194	0xbc9d4e0c	-0.019202255
195	0x3cdc804e	0.02691665
196	0xbea8c677	-0.32963917
197	0xbe72f390	-0.23725724
198	0xbcd7d3d9	-0.026346134
199	0xbdfc2219	-0.12311191
200	0xbee19ecf	-0.44066474
201	0xbe0ac84b	-0.13552968
202	0x3e65f6f9	0.22457494
203	0x3dbb3232	0.09140433
204	0x3e84adfd	0.25913993
205	0xbe9a5488	-0.30142617
206	0xbc1628e7	-0.009165025
207	0x3b73fd1f	0.003722973
208	0x3ca8824b	0.020569941
209	0xbe378f55	-0.1792577
210	0x3d9f4b9d	0.07778094
211	0xbc9a3cc5	-0.018827805
212	0xbe03d25e	-0.12873217
213	0x3db4941a	0.08817311
214	0xbddcf008	-0.1078797
215	0x3c3f860d	0.011689675
216	0xbdef5dd9	-0.11687822
217	0xbe24fcea	-0.16112104
218	0xbdf5831b	-0.11987897
219	0xbd8e82fd	-0.06958578
220	0x3e0cbe4a	0.13744465
221	0xbe41754d	-0.18892403
222	0xbe42329a	-0.18964615
223	0x3e0ffb0d	0.14060612
224	0x3a22b263	0.0006206391
225	0xbbabd121	-0.005243436
226	0x3d4be64e	0.049780183
227	0x3d8068e4	0.06270006
228	0xbe1ad7c7	-0.15121375
229	0x3d318b66	0.04334583
230	0x3e4030a8	0.18768561
231	0x3ebbed35	0.36704412
232	0x3eb38c3d	0.3506793
233	0x3e8cce82	0.27501303
234	0x3db7eb67	0.08980446
235	0x3e072b16	0.1320003
236	0x3e2c6724	0.1683622
237	0x3d09afaa	0.033614792
238	0xbc7ae7cb	-0.015314053
239	0xbdaca34b	-0.08429583
240	0x3e312a9f	0.17301415
241	0x3e0b15a5	0.13582475
242	0x3d7736a9	0.060354862
243	0xbd2640a3	-0.040588986
244	0x3b80024d	0.0039065243
245	0x3ce39bb0	0.027784199
246	0x3dde8c0a	0.10866554
247	0x3d51b8ca	0.05120162
248	0x3e81e219	0.2536781
249	0x3e8843eb	0.26614317
250	0x3da5227f	0.0806322
251	0xbd8019a1	-0.06254888
252	0x3e5749b3	0.21024208
253	0x3e044711	0.12917735
254	0x3ccb787f	0.02483773
255	0x3c9d2745	0.019183764

embedding.0.bias f4 [32]
0	0x3e59cd74	0.2126978
1	0xbd5cbf5f	-0.053893443
2	0xbc3ce7fb	-0.011529918
3	0x3df11d71	0.11773194
4	0xbd05d37c	-0.03267239
5	0xbdfbb542	-0.122904316
6	0x3d2ea0ed	0.04263394
7	0xbd23db5f	-0.04000413
8	0x3dcb9e9c	0.09942362
9	0xbe03430f	-0.1281855
10	0x3d1710d7	0.036881294
11	0xbe16e2e3	-0.14734988
12	0x3dc36ab4	0.095418364
13	0xbe09d73f	-0.13461016
14	0x3e3acd57	0.18242393
15	0xbe1a6f98	-0.15081632
16	0xbe2fb531	-0.17158963
17	0x3e36852b	0.17824237
18	0xbde62b79	-0.112387605
19	0x3e490b5c	0.1963324
20	0xbde89c47	-0.113579325
21	0x3e8cbc39	0.27487352
22	0xbe1308c1	-0.14358808
23	0x3cb70620	0.022341788
24	0xbd88e8d1	-0.06685031
25	0x3dd2cbd5	0.10292784
26	0x3c8110d8	0.015755102
27	0x3e7c7dca	0.2465736
28	0xbdb15b5b	-0.08660003
29	0x3e35de4a	0.17760578
30	0xbdbda976	-0.09260838
31	0x3d9fd7d2	0.07804836

rnn.weight_ih_l0 f4 [192, 32]
0	0x3e9b014f	0.30274436
1	0x3e85ef58	0.26159167
2	0xbc959daf	-0.018263666
3	0xbeb41f3e	-0.35180086
4	0xbeb5a4c7	-0.35477278
5	0xbe98789f	-0.29779527
6	0x3d8c4fb9	0.068511434
7	0xbdf29fbc	-0.11846873
8	0x3dde32b0	0.108495116
9	0xbe8fef5e	-0.2811231
10	0xbe4dbe72	-0.2009218
11	0xbed5c497	-0.4175155
12	0xbdbd878b	-0.092543684
13	0xbeb37f07	-0.35057852
14	0x3d68d7dd	0.05684649
15	0xbe8ab772	-0.27093083
16	0xbde4532b	-0.111486755
17	0x3e685327	0.2268797
18	0x3b72ad9e	0.0037029753
19	0xbe79ab7b	-0.24381821
20	0x3d8e11be	0.06936978
21	0x3ca4d516	0.020121139
22	0x3ca4b1ed	0.020104373
23	0xbe904cc2	-0.28183562
24	0xbddbccfc	-0.10732457
25	0xbdf4aab1	-0.11946619
26	0xbe172e52	-0.14763764
27	0xbe7f1745	-0.2491122
28	0xbe1f3efb	-0.15551369
29	0x3ec84a59	0.39119223
30	0xbe0f3908	-0.139866
31	0x3c152935	0.009104063
32	0xbd925be5	-0.07146434
33	0xbda43ec7	-0.08019786
34	0x3b13977b	0.002252071
35	0xbe42f383	-0.19038205
36	0x3da3cdea	0.07998259
37	0xbeea7350	-0.457911
38	0xbda1f981	-0.07908917
39	0xbed3f1f2	-0.41395527
40	0xbe98f032	-0.29870754
41	0xbf6d9031	-0.92798144
42	0x3d684ae6	0.056712054
43	0xbe18a23e	-0.1490564
44	0xbe0482c7	-0.12940513
45	0xbe7aa5f9	-0.24477376
46	0x3e9b2407	0.30300924
47	0xbece33cc	-0.40273893
48	0xbec36c3f	-0.38168523
49	0xbe361dd6	-0.17784819
50	0xbeee4470	-0.4653659
51	0xbc4cafad	-0.012493056
52	0xbed9510c	-0.42444646
53	0x3e6f7ac9	0.23386683
54	0x3e0ca91c	0.13736385
55	0xbdcb5d5b	-0.099299155
56	0xbd3feda0	-0.046857476
57	0xbe5a13c2	-0.212966
58	0xbea221b7	-0.31666347
59	0xbec74609	-0.3892062
60	0xbeb2af2c	-0.3489927
61	0xbedf3a76	-0.4359929
62	0xbe8b3d02	-0.27194983
63	0xbea9de64	-0.33177483
64	0xbe043f56	-0.12914786
65	0xbe8b3a26	-0.271928
66	0xbe05d8f8	-0.13071048
67	0xbe04a3c8	-0.12953103
68	0xbde362b2	-0.11102809
69	0xbd0bee26	-0.034162663
70	0x3d41a2e3	0.04727448
71	0xbd57433c	-0.052554354
72	0xbeb4eba0	-0.35336018
73	0x3c06b6ab	0.008222262
74	0xbde6b46e	-0.11264883
75	0xbe63e270	-0.22254348
76	0xbdacbaf6	-0.084340975
77	0xbe05eef0	-0.13079429
78	0xbe66620d	-0.22498341
79	0xbd4ee7cf	-0.05051404
80	0xbc8c25c1	-0.017107846
81	0x3caf226c	0.021378718
82	0xbe370beb	-0.1787564
83	0xbd90f2d2	-0.07077564
84	0xbe0c1d62	-0.13683084
85	0x3c810543	0.01574958
86	0xbcfafb9f	-0.03063756
87	0xbda4b64b	-0.08042582
88	0x3bcc569a	0.0062359096
89	0x3cca2493	0.024675643
90	0xbe3053e0	-0.17219496
91	0xbda5a920	-0.08088899
92	0xbd071cf3	-0.032986593
93	0xbe485ee6	-0.19567451
94	0xbdb5d68e	-0.08878814
95	0xbe300625	-0.17189844
96	0x3f21c002	0.63183606
97	0x3df9fbd2	0.12206234
98	0x3e35fceb	0.17772262
99	0xbe85b198	-0.26112056
100	0x3d457552	0.04820759
101	0xbf06e63e	-0.5269507
102	0xbe326b18	-0.17423666
103	0x3d72ed77	0.059308495
104	0x3efc4b96	0.49276417
105	0xbe4fd1e0	-0.20294905
106	0x3eb1717a	0.34656888
107	0x3dda0fd0	0.10647547
108	0x3e894674	0.26811564
109	0x3ea60509	0.32425717
110	0x3e724275	0.23658164
111	0xbd958da6	-0.07302408
112	0xbf15b8ee	-0.58485305
113	0x3e15c31f	0.14625214
114	0xbe44a770	-0.19204497
115	0xbcb94715	-0.022616902
116	0x3da2522a	0.07925828
117	0x3e2705c7	0.16310798
118	0xbea0497b	-0.3130606
119	0xbd63d3a3	-0.055621754
120	0xbea74f09	-0.32677487
121	0x3d96531b	0.0734007
122	0xbed2fa8e	-0.41206783
123	0x3e8f0ae8	0.27938008
124	0xbeb6baab	-0.3568929
125	0x3eaee451	0.34158567
126	0x3d28f172	0.041245885
127	0x3e748e86	0.23882493
128	0x3d622f7c	0.055221066
129	0xbe5b34be	-0.21406838
130	0xbc97f025	-0.018547127
131	0xbdf66d50	-0.120325685
132	0xbdddc050	-0.10827696
133	0xbe97c1ac	-0.29639947
134	0xbe219455	-0.1577924
135	0xbe224b7f	-0.15849112
136	0xbcd14fe2	-0.025550786
137	0xbe18937c	-0.14900011
138	0xbe1fcfc1	-0.15606596
139	0xbea27396	-0.3172881
140	0xbd9c0e6c	-0.07619938
141	0xbe754187	-0.23950778
142	0xbe0dc97c	-0.13846391
143	0xbe934dbb	-0.2877024
144	0xbe8b3f0e	-0.27196544
145	0x3d83d403	0.064369224
146	0xbe5a66b8	-0.21328247
147	0xbd5e6899	-0.05429897
148	0x3d5feb17	0.05466756
149	0xbd06bd83	-0.032895576
150	0xbe453311	-0.19257762
151	0xbe7a8a44	-0.24466807
152	0xbe5f5cc9	-0.21812738
153	0xbd7d3939	-0.06182215
154	0xbe0e7b55	-0.13914235
155	0xbd11d98b	-0.035607856
156	0xbe7a2835	-0.244294
157	0x3d853928	0.06505042
158	0xbe2f37ae	-0.17111084
159	0x3c472141	0.012153924
160	0x3e79a541	0.24379446
161	0xbec6485c	-0.3872708
162	0xbe6e56f1	-0.23275353
163	0xbebd7fcf	-0.37011573
164	0xbd83ad07	-0.06429487
165	0xbe65055f	-0.2236533
166	0x3d822c60	0.0635612
167	0x3dd05af0	0.10173595
168	0xbe207a51	-0.1567166
169	0x3eaa69f8	0.33283973
170	0x3cb3e92d	0.021961773
171	0xbe2b955f	-0.167562
172	0x3d132621	0.035925034
173	0xbdfda6ed	-0.12385354
174	0x3f5ae16a	0.85500205
175	0xbe2dc9a8	-0.16971457
176	0xbc6536ba	-0.013990099
177	0xbe54e152	-0.20789078
178	0xbecc8dd0	-0.39951944
179	0x3da777b7	0.08177131
180	0x3e091898	0.13388288
181	0x3ebe7ab7	0.37203
182	0x3e0a7bc5	0.13523777
183	0x3e05e54b	0.1307575
184	0x3c9ede7b	0.019393196
185	0x3eeec336	0.4663331
186	0x3f1902eb	0.5977008
187	0xbd92c2ce	-0.07166062
188	0x3bb5a8a8	0.005543787
189	0xbf251913	-0.64491385
190	0x3f0b35e3	0.543791
191	0xbe993940	-0.2992649
192	0x3e16ffe2	0.14746049
193	0x3d661ab4	0.05617781
194	0x3f8778c2	1.0583727
195	0x3ddc91be	0.107699856
196	0x3ee21ea7	0.4416401
197	0xbecc557a	-0.39908963
198	0x3db5aabe	0.08870457
199	0x3e47803d	0.19482513
200	0xbda15bbf	-0.07878827
201	0xbdf9df56	-0.12200801
202	0x3e9b839d	0.3037385
203	0x3d6832ae	0.056688957
204	0x3ea0d169	0.31409767
205	0x3e22c6b6	0.15896115
206	0x3edc2070	0.42993498
207	0x3e72cdfe	0.23711392
208	0xbe19be21	-0.15013935
209	0x3e01a9cf	0.12662433
210	0xbd8a95c6	-0.06766848
211	0x3d980799	0.07423324
212	0x3f012ea5	0.504618
213	0x3d0f49ea	0.0349826
214	0xbe16db25	-0.14732035
215	0xbce6ed8b	-0.028189441
216	0xbe03e78e	-0.128813
217	0xbdde7720	-0.10862565
218	0xbe10a301	-0.14124681
219	0xbe1de3ac	-0.15418881
220	0xbe35f3e4	-0.17768818
221	0x3eb34ed4	0.3502108
222	0x3d891972	0.066943064
223	0x3d2ddd5f	0.042447444
224	0xbdf68890	-0.12037766
225	0x3e9b801f	0.30371186
226	0xbd7d8083	-0.061890136
227	0xbd2f3b15	-0.042780954
228	0x3e2eb274	0.17060262
229	0x3f011969	0.504294
230	0xbe64a1f9	-0.22327413
231	0x3f97d343	1.1861347
232	0x3b8695a9	0.0041071963
233	0x3cb8f503	0.022577768
234	0x3ea795a7	0.32731363
235	0x3defa468	0.1170128
236	0x3e0eec49	0.13957323
237	0xbe400b72	-0.18754366
238	0x3f689b81	0.9086228
239	0x3d863ce4	0.06554583
240	0x3c626ec3	0.013820353
241	0x3f3dafa1	0.74096113
242	0x3d9ff2cc	0.07809982
243	0xbe93232a	-0.28737766
244	0x3e3cbf9c	0.18432468
245	0xbdfcb0d9	-0.123384185
246	0x3da0f360	0.0785892
247	0x3e8ada54	0.27119696
248	0x3d5f24ef	0.054478582
249	0xbdc27045	-0.0949407
250	0x3c9a3517	0.018824143
251	0xbe92ad7f	-0.28647992
252	0x3e01fa06	0.12693033
253	0x3e153379	0.14570417
254	0x3f179814	0.5921643
255	0x3d09b91d	0.033623803

rnn.weight_hh_l0 f4 [192, 64]
0	0xbc04ae28	-0.008098163
1	0x3cf7dda4	0.030257054
2	0x3e829403	0.2550355
3	0x3dc7081c	0.097183436
4	0xbf2e2f6e	-0.6804112
5	0xbecc8140	-0.3994236
6	0xbdd6d46d	-0.10489736
7	0x3da363f3	0.07978048
8	0xbe388493	-0.18019323
9	0x3e2159a2	0.15756848
10	0xbe8f3f91	-0.27978185
11	0xbdbf05eb	-0.09327301
12	0x3e0c74e4	0.13716465
13	0xbdc7611b	-0.09735318
14	0xbd5c5416	-0.053791128
15	0x3b286b0e	0.0025698575
16	0x3dfece18	0.12441653
17	0x3dc3605d	0.09539864
18	0xbb919bcc	-0.0044436213
19	0xbe5b3a15	-0.21408875
20	0xbd9caabd	-0.07649753
21	0xbde0631e	-0.10956405
22	0xbe09162b	-0.13387363
23	0xbd5596ec	-0.052145883
24	0x3e29fd9d	0.16600652
25	0x3bb3573f	0.005473047
26	0x3c9fa44a	0.019487519
27	0x3c9e8494	0.019350328
28	0x3ea99100	0.3311844
29	0x3e6e6358	0.23280084
30	0xbe98a499	-0.29813078
31	0xbd5e4a37	-0.054269996
32	0xbeb86668	-0.3601563
33	0xbdb5e803	-0.08882143
34	0x3e2932cb	0.16523282
35	0xbcdfe5ee	-0.027331319
36	0xbdd1be7c	-0.1024141
37	0xbda10017	-0.07861345
38	0x3d9b342d	0.07578311
39	0xbe4e2869	-0.20132603
40	0xbd05b645	-0.03264453
41	0x3e51fb3c	0.20505995
42	0x3e7e6bac	0.24845761
43	0xbd21ec0e	-0.03953176
44	0x3dfc4309	0.123174734
45	0xbe044934	-0.1291855
46	0x3e1996d4	0.14998943
47	0xbe6b67cf	-0.22988819
48	0xbd36e6b5	-0.044653613
49	0x3dff844a	0.12476404
50	0x3ecd8613	0.40141353
51	0x3e791f99	0.2432846
52	0x3e07b7c2	0.13253692
53	0xbe4658cb	-0.1936981
54	0x3de0c359	0.109747596
55	0xbb65e013	-0.0035076186
56	0xbd05dfb9	-0.03268406
57	0x3d462ae3	0.048380744
58	0xbe3f8ddd	-0.1870646
59	0x3e21cd69	0.15801014
60	0x3e14f63b	0.14547054
61	0xbdef6052	-0.116882935
62	0x3b6eb0ca	0.0036421292
63	0xbd7eb308	-0.062182456
64	0xbd05de7d	-0.032682884
65	0x3dd2b45a	0.102883056
66	0x3e53fb36	0.20701298
67	0xbdb48adc	-0.08815548
68	0xbdd15fb2	-0.102233306
69	0x3dfc7570	0.12327087
70	0x3c9b5980	0.018963575
71	0x3e0efac0	0.13962841
72	0xbe2d8e1a	-0.16948739
73	0xbd1bdd5b	-0.038052898
74	0x3e403169	0.18768848
75	0x3d15b436	0.036548816
76	0x3bba4a07	0.0056850943
77	0xbd4fbf34	-0.050719455
78	0xbd2e4f60	-0.042556167
79	0xbca7f0b3	-0.020500517
80	0x3e4f5767	0.20248185
81	0x3c18aac3	0.0093180565
82	0x3e06c9bd	0.13162895
83	0xbe247752	-0.16061142
84	0xbd9341be	-0.07190274
85	0xbd44f25f	-0.048082706
86	0x3e7b6e43	0.2455378
87	0xbe0828e7	-0.13296853
88	0xbe2c0c17	-0.16801487
89	0x3e02c926	0.12772045
90	0x3d3477f9	0.044059727
91	0x3dbc46a4	0.09193161
92	0x3b0a0ef2	0.0021066037
93	0xbbdbd290	-0.0067084506
94	0xbdb6b56f	-0.089213245
95	0x3e13b6a2	0.14425138
96	0x3da400a5	0.080079354
97	0x3e12f9b3	0.14353065
98	0xbd9fac92	-0.07796587
99	0x3e54acd2	0.2076905
100	0x3de06c0f	0.109581105
101	0xbf091d71	-0.5356055
102	0x3e00935f	0.12556218
103	0xbe198064	-0.14990383
104	0xbeb69049	-0.35656956
105	0xbe59714f	-0.2123463
106	0xbb7dbd2b	-0.003871749
107	0xbe1bd8de	-0.15219447
108	0x3ea05957	0.3131816
109	0xbd522719	-0.051306818
110	0xbe35cc29	-0.17753662
111	0xb98e3eb3	-0.00027131065
112	0xbd016e3b	-0.031599265
113	0x3d9ebcf2	0.07750882
114	0x3e09264c	0.13393515
115	0xbcfe880b	-0.03107073
116	0x3d3f2a27	0.04667106
117	0xbdb25746	-0.08708052
118	0xbdf9b60c	-0.12192926
119	0xbea960f3	-0.3308178
120	0xbf043942	-0.5164987
121	0xbcb2e811	-0.021839174
122	0x3e3c7e11	0.18407466
123	0x3de5c881	0.11219884
124	0x3b83d6f7	0.0040234285
125	0x3e06da02	0.13169101
126	0xbd0a2654	-0.03372796
127	0xbcb3ee86	-0.021964323
128	0x3d5c5fbd	0.05380224
129	0xbe385078	-0.17999446
130	0xbc0ec8ae	-0.008714838
131	0x3dc25e8b	0.09490689
132	0x3cec20d2	0.028824244
133	0xbd618c32	-0.05506534
134	0x3e50981e	0.20370528
135	0x3e8e1b9e	0.27755445
136	0xbb10fdcd	-0.0022123933
137	0xbc009312	-0.007847564
138	0x3e2642a4	0.16236359
139	0x3e4fb768	0.20284808
140	0x3c86bf24	0.016448565
141	0xbdffb51a	-0.12485714
142	0xbe08fbfc	-0.13377374
143	0xbe499396	-0.19685206
144	0x3e1a7f44	0.1508761
145	0x3e342fbf	0.17596339
146	0x3e64a102	0.22327045
147	0xbdf12c0d	-0.1177598
148	0x3c4c51b7	0.012470654
149	0x3dabf5d9	0.08396501
150	0xbdb98d3a	-0.0906014
151	0xbe4cc4ea	-0.19996992
152	0x3d1f3d02	0.03887654
153	0x3bca5c8e	0.006175584
154	0xbe871c82	-0.26388937
155	0x3e8f88f4	0.28034174
156	0xbe6a02bf	-0.2285261
157	0xbd42db26	-0.047572277
158	0xbdc58bba	-0.09645791
159	0x3dc5e477	0.09662717
160	0x3dcdc210	0.1004678
161	0x3de05df9	0.10955424
162	0xbd30c24a	-0.04315404
163	0x3e28d85f	0.16488789
164	0x3e2894b3	0.16462974
165	0xbe5722a0	-0.21009302
166	0xbccc3b10	-0.024930507
167	0xbe165b91	-0.14683367
168	0xbe47e639	-0.19521417
169	0xbd124926	-0.03571429
170	0x3e832ee5	0.25621715
171	0xbe82c140	-0.25538063
172	0x3e2e36a8	0.17013037
173	0xbdf44cb2	-0.11928691
174	0xbe0b0369	-0.1357552
175	0x3d5a15e8	0.053243548
176	0x3e69efb1	0.22845341
177	0x3dbd180c	0.09233102
178	0x3cf28111	0.02960256
179	0x3e28b2a6	0.16474399
180	0x3d4f960f	0.050680216
181	0xbe4f5564	-0.20247418
182	0xbd99139b	-0.074744426
183	0x3d9f9d3a	0.077936605
184	0xbdb86a18	-0.09004611
185	0xbdb951e6	-0.09048824
186	0x3d909832	0.07060279
187	0x3d1db154	0.03849919
188	0xbea1d31b	-0.31606373
189	0x3cc868cd	0.024464035
190	0x3c846061	0.016159238
191	0x3e7d7542	0.24751762
192	0x3df48810	0.11940014
193	0xbcc1efe2	-0.023673955
194	0xbd8c76e3	-0.06858613
195	0xbd9683d5	-0.07349364
196	0xbe4ddb06	-0.20103082
197	0xbdb4834b	-0.08814105
198	0xbe181c04	-0.14854437
199	0x3b4daf8b	0.003138515
200	0xbe07d90a	-0.13266388
201	0xbd9e4979	-0.077288575
202	0xbed5b423	-0.41738996
203	0xbdea004d	-0.114258386
204	0x3cca61f1	0.024704905
205	0x3cf50a85	0.029912243
206	0xbc936daf	-0.017996637
207	0x3e22629b	0.15857928
208	0xbd4a03d2	-0.04932005
209	0x3da5eb04	0.08101466
210	0xbd385b28	-0.04500881
211	0xbd79ca31	-0.06098384
212	0xbd475242	-0.04866243
213	0x3ddaeb24	0.10689381
214	0xbdaabd9c	-0.08336946
215	0xbbc6c362	-0.006065772
216	0x3daf3d2b	0.08556589
217	0x3e56c9ba	0.2097539
218	0xbdd13cd2	-0.10216679
219	0xbd836bc7	-0.06417041
220	0x3e077023	0.1322637
221	0x3e29239f	0.16517495
222	0x3e01f5b5	0.12691386
223	0xbd704317	-0.05865773
224	0x3cf0c5f3	0.029391265
225	0x3d613ef8	0.054991692
226	0x3d0ab186	0.033860706
227	0x3e491f0e	0.19640753
228	0xbd8c257b	-0.06843086
229	0xbda44271	-0.08020485
230	0xbe0ea4fb	-0.13930123
231	0x3d0c25fe	0.03421592
232	0x3daec8ad	0.085343696
233	0x3c021d2d	0.007941526
234	0x3d670d9e	0.05640947
235	0xbc4999f5	-0.012304773
236	0x3e16a807	0.14712535
237	0xbcd9cece	-0.02658787
238	0x3e47770e	0.1947901
239	0x3c97dedd	0.018538887
240	0x3d2a3546	0.04155471
241	0xbd228c0b	-0.039684337
242	0x3d8bdb8f	0.06828987
243	0x3e30f3e6	0.1728054
244	0xbb9bd81b	-0.0047559864
245	0xbd8a60d4	-0.0675675
246	0xbda8c33d	-0.08240364
247	0xbd2ca925	-0.042153496
248	0xbeb4dfc0	-0.35326958
249	0x3c9313e3	0.017953819
250	0xbd9d951f	-0.07694458
251	0x3e2a4989	0.16629614
252	0xbd688df7	-0.056776013
253	0x3ccb9fb7	0.024856431
254	0x3d7e1010	0.062027037
255	0xbc3bf8d9	-0.011472904

rnn.bias_ih_l0 f4 [192]
0	0xbdcfd72b	-0.10148462
1	0xbe01e219	-0.12683906
2	0xbe1d43ec	-0.15357941
3	0x3d7a0a6a	0.061045088
4	0xbdfa3c8d	-0.122185804
5	0x3d32cad5	0.043650467
6	0x3decc632	0.1156124
7	0x3dae3646	0.085064456
8	0xbe792d84	-0.24333769
9	0x3d86b507	0.06577497
10	0x3da9c5af	0.08289658
11	0xbb2fef85	-0.0026845646
12	0xbde6c33d	-0.112677075
13	0x3d3caefa	0.04606531
14	0x3d05150f	0.032490786
15	0x3db6a0f3	0.089174174
16	0x3e2cb528	0.1686598
17	0x3e0303bd	0.12794395
18	0xbdc26a70	-0.094929576
19	0xbe00b777	-0.12569986
20	0xbc29c160	-0.010361046
21	0x3e2f989c	0.1714806
22	0xbaabaf1a	-0.0013098449
23	0xbded9aa6	-0.116017625
24	0xbd592c0e	-0.05302053
25	0x3df53be9	0.119743176
26	0x3d2aabbf	0.041667696
27	0x3da89918	0.08232325
28	0xbdaa9a74	-0.08330241
29	0xbd07f177	-0.033189263
30	0xbd8f6c38	-0.07003063
31	0xbcbfb757	-0.023402853
32	0xbda6d508	-0.08146101
33	0x3d7d325f	0.061815616
34	0xbc0bac11	-0.008524911
35	0xbbe59cd8	-0.0070072226
36	0xbd43d11d	-0.047806848
37	0x3e8fd2d8	0.2809055
38	0x3d150d40	0.03638959
39	0x3d2fd2e3	0.042925727
40	0x3c16d131	0.009205149
41	0x3db2523f	0.087070934
42	0x3e324012	0.17407253
43	0x3e1173fe	0.14204404
44	0xbd22930a	-0.03969101
45	0x3e0c260b	0.13686387
46	0x3cc124b0	0.023577064
47	0x3dee935e	0.11649202
48	0xbdb2fdaf	-0.087397926
49	0x3d7f6b75	0.06235834
50	0xbb5cd1ee	-0.0033694464
51	0xbd062a25	-0.032755036
52	0x3dd3ea39	0.10347409
53	0xbc7cc2cb	-0.015427302
54	0x3d822d49	0.06356294
55	0xbda317d9	-0.07963533
56	0x3d0546d4	0.03253825
57	0x3de0444c	0.109505266
58	0x3c77fad3	0.015135485
59	0x3cafc7e6	0.021457624
60	0x3d935bf9	0.07195277
61	0x3d8169f9	0.06319041
62	0x3b674f6f	0.003529515
63	0x3c421c6f	0.011847599
64	0xbd72ba80	-0.05925989
65	0xbd599288	-0.05311826
66	0xbb93cb0d	-0.0045102895
67	0xbc24956f	-0.010045393
68	0x3cdb9d34	0.026808359
69	0xbdeaf474	-0.11472407
70	0xbc970996	-0.018437188
71	0xbe4d64c8	-0.20057976
72	0xbd209851	-0.03920776
73	0xbdecdd0c	-0.11565599
74	0xbe2240b9	-0.15845002
75	0x3c39cef0	0.011340842
76	0xbd660227	-0.056154396
77	0x3dfd1586	0.12357621
78	0xbe9106b5	-0.2832543
79	0x3d41d84d	0.04732542
80	0xbd629537	-0.055318084
81	0xbdf004dd	-0.117196776
82	0x3bd46323	0.0064815446
83	0x3d011a05	0.031518955
84	0xbe2cca73	-0.16874103
85	0xbd325ab7	-0.043543544
86	0xbdc2d4bb	-0.09513231
87	0x3c1ef1f0	0.009701237
88	0x3d118935	0.03553124
89	0xba6eab1b	-0.0009104476
90	0xbdcfa536	-0.10138933
91	0x3ddbf05b	0.107392035
92	0xbbb38934	-0.0054790024
93	0x3bb528fe	0.0055285683
94	0xbdb28e0a	-0.08718498
95	0x3d7040f4	0.058655694
96	0xbd22dd6f	-0.039761957
97	0xbd84816e	-0.06469999
98	0xbdf44509	-0.1192723
99	0x3dbacc64	0.09121016
100	0xbe845027	-0.258424
101	0x3e1a0f74	0.15044957
102	0xbe047d4e	-0.12938425
103	0xbba71cdb	-0.0050998754
104	0x3d40d9cf	0.04708272
105	0x3dee8a77	0.11647504
106	0xbdaf74a3	-0.085671686
107	0x3de77cf7	0.11303132
108	0x3df14f24	0.11782673
109	0x3d08296d	0.03324263
110	0x3ddfa689	0.10920436
111	0x3cc62946	0.024189603
112	0xbe20fdda	-0.15721837
113	0xbdb5e334	-0.08881226
114	0xbddfb015	-0.10922257
115	0x3dfd31c8	0.12363011
116	0x3b3e23c0	0.0029013008
117	0xbd36ef22	-0.04466165
118	0xbe6ef096	-0.23333964
119	0x3d07f605	0.033193607
120	0x3d6d89f0	0.057992876
121	0xbe97ea58	-0.29670978
122	0xbdfc0936	-0.12306444
123	0x3e3ca9d6	0.18424162
124	0xbe1bef44	-0.15227991
125	0xbe1b375b	-0.15157835
126	0x3ea56e44	0.32310688
127	0x3d7e466d	0.062078882
128	0xbe2e2555	-0.17006429
129	0x3b9c8435	0.0047765025
130	0x3cdd085f	0.02698153
131	0xbd353bec	-0.0442466
132	0xbe231d76	-0.15929207
133	0xbe18632b	-0.1488158
134	0xbdbd94ca	-0.09256895
135	0xbe4505ab	-0.19240443
136	0x3db5c9b9	0.08876366
137	0x3dae18ea	0.08500846
138	0xbc2a0320	-0.010376722
139	0xbe0f6ce9	-0.1400639
140	0x3d961bb9	0.073295064
141	0x3dc52938	0.096270025
142	0x3ce769bc	0.02824866
143	0x3d9638e5	0.073350705
144	0xbe17ad69	-0.14812244
145	0xbd871c7a	-0.06597228
146	0xbd50c11d	-0.050965417
147	0xbbb328a3	-0.0054674908
148	0xbcf8f456	-0.030389946
149	0x3db70818	0.08937091
150	0x3dd13c01	0.10216523
151	0xbcb4f5c0	-0.022089839
152	0xbd95b3bd	-0.07309673
153	0xbe2b7026	-0.16742
154	0xbca60dd7	-0.020270271
155	0xbe372ea1	-0.17888881
156	0x3d7d23a2	0.06180156
157	0x3dd3a1e9	0.10333616
158	0x3c220c1c	0.009890582
159	0x3bd16b92	0.006390997
160	0x3d621c1c	0.05520259
161	0x3d1fa854	0.03897889
162	0x3cfd6d4e	0.03093591
163	0xbcd37592	-0.025812898
164	0xbd87f35c	-0.06638214
165	0x3dcefaa0	0.10106397
166	0xbd9d668a	-0.076855734
167	0x3ddef84a	0.10887201
168	0x3b8cc765	0.0042962306
169	0xbd0b4d99	-0.03400955
170	0xbd11cf56	-0.03559812
171	0x3e7da966	0.24771652
172	0xbd409c24	-0.047023907
173	0x3e4858ad	0.19565077
174	0x3e01e2f9	0.1268424
175	0xbda8b0d3	-0.082368515
176	0xbdf67b84	-0.120352775
177	0xbc49e788	-0.012323268
178	0x3a0dcb0d	0.000540898
179	0x3d9ca97a	0.076495126
180	0x3dd156a4	0.102216035
181	0x3d9cfd0f	0.076654546
182	0x3d8aacab	0.06771215
183	0x3cb9c1ed	0.022675479
184	0xbe0cf353	-0.13764696
185	0x3d955450	0.07291472
186	0x3d52e092	0.0514837
187	0x3d932067	0.07183915
188	0x3e1e464a	0.154565
189	0xbe0f85f5	-0.14015944
190	0xbe91c2e8	-0.28469014
191	0xbdec43cf	-0.11536371

rnn.bias_hh_l0 f4 [192]
0	0x3cce0a36	0.025151353
1	0x3d93f2e2	0.072240606
2	0xbe23c80b	-0.15994279
3	0x3d661512	0.056172438
4	0xbda98ad2	-0.08278431
5	0xbd1c3c5b	-0.038143497
6	0xbd2614d5	-0.04054721
7	0xbddff90a	-0.10936172
8	0xbe0f08f5	-0.1396826
9	0xbc211065	-0.009830569
10	0xbd5c1560	-0.053731322
11	0xbce009f8	-0.027348503
12	0xbdcda8c1	-0.10041953
13	0x3e146dbf	0.1449499
14	0x3d3179ba	0.043328978
15	0x3d64b779	0.055839036
16	0x3e034669	0.12819828
17	0x3e3eee4b	0.18645589
18	0xbe023f33	-0.12719421
19	0xbe101cb5	-0.14073451
20	0x3bc69cca	0.006061171
21	0x3db7bd8c	0.089717
22	0xbd19c5c3	-0.037542116
23	0xbe25c6e3	-0.1618915
24	0xbb1e2647	-0.0024131702
25	0x3d486ce1	0.04893196
26	0xbd42be71	-0.0475449
27	0xbd7618af	-0.060082134
28	0xbd49e50e	-0.04929071
29	0x3df6479e	0.12025379
30	0xbd165533	-0.036702346
31	0x3d22e620	0.039770246
32	0xbda1bff0	-0.07897937
33	0x3bb95f1d	0.0056570903
34	0x3dc1d822	0.09465052
35	0x3e3b1646	0.18270215
36	0xbdccca94	-0.09999576
37	0x3d96ae89	0.07357509
38	0x3e132e5d	0.14373155
39	0xbd96d270	-0.073643565
40	0x3d939d88	0.07207781
41	0x3e002ecc	0.12517852
42	0x3e152fa3	0.14568953
43	0x3e18f75a	0.14938107
44	0x3cc29362	0.023751918
45	0x3d72501a	0.059158422
46	0x3e099bcc	0.13438338
47	0x3da221dc	0.079166144
48	0xbd93d183	-0.072176956
49	0xbe037bc0	-0.12840176
50	0xbd9d2937	-0.07673877
51	0x3b4dcbd8	0.0031402018
52	0xbdd2c068	-0.10290605
53	0xbe30d773	-0.17269687
54	0xbce9e4d9	-0.028551506
55	0xbdb464a0	-0.08808255
56	0x3e0928fc	0.1339454
57	0x3ddd17a1	0.107955225
58	0xbd43e8ba	-0.047829367
59	0x3dc47b60	0.095938444
60	0x3e3b65dd	0.18300577
61	0xbe042f76	-0.1290873
62	0x3e0dda19	0.13852729
63	0x3cfacaf1	0.030614348
64	0xbd7a6fbe	-0.061141722
65	0x3c41aa95	0.011820455
66	0x3dd135a7	0.102153115
67	0xbd621565	-0.055196185
68	0x3e335f38	0.17516792
69	0xbd89f075	-0.06735317
70	0x3d861d1e	0.065485224
71	0xbe1d388b	-0.153536
72	0x3d249f6a	0.04019109
73	0xbe777ede	-0.2416949
74	0xbe5f1cb8	-0.21788299
75	0xbd50c89b	-0.050972562
76	0xba0dc473	-0.00054079964
77	0x3e053518	0.13008535
78	0xbeab29fc	-0.3343047
79	0x3e738489	0.23781027
80	0xbda58a31	-0.080829985
81	0xbdb9b7a4	-0.0906823
82	0xbe1f0fb4	-0.15533334
83	0xbe22e641	-0.15908147
84	0xbe06dd73	-0.13170414
85	0xbdc07b3e	-0.093985066
86	0x3dcb465f	0.099255316
87	0x3d6a3138	0.057175845
88	0x3e043293	0.12909918
89	0xbd3882f3	-0.045046758
90	0xbbc59a4b	-0.006030356
91	0xbd8603bf	-0.06543683
92	0xbdce0a7d	-0.10060594
93	0xbc4b859d	-0.012421993
94	0xbe22b6d3	-0.15890054
95	0x3d8eb4b9	0.06968064
96	0xbe257fa3	-0.16161971
97	0xbe25658b	-0.16152017
98	0xbe205114	-0.15655929
99	0x3dbf7c9e	0.09349941
100	0xbd717118	-0.058945745
101	0x3e1c4d66	0.152639
102	0xbca6138f	-0.020272998
103	0xbb61520a	-0.0034381174
104	0x3ca73a77	0.02041362
105	0x3d37ed43	0.044904005
106	0xbe77e1f1	-0.24207284
107	0xbda60f99	-0.08108444
108	0x3db5fe33	0.08886375
109	0x3d4fa0d9	0.050690506
110	0x3dbab7f7	0.0911712
111	0xbdd4e6d9	-0.10395593
112	0xbe431e75	-0.19054587
113	0x3defc941	0.11708308
114	0xbd85f1aa	-0.065402344
115	0x3c8645f4	0.016390778
116	0x3d3674bb	0.044544917
117	0x3c613740	0.013746083
118	0xbded78b5	-0.11595289
119	0x3dfd1866	0.12358169
120	0x3de629ed	0.112384655
121	0xbe0075b7	-0.12544905
122	0xbc3033b9	-0.010754519
123	0x3df312dd	0.11868832
124	0xbe6313e6	-0.2217556
125	0xbe2f6df2	-0.17131785
126	0x3eb5c941	0.35505107
127	0xbd1c491e	-0.038155667
128	0xbd2d0dde	-0.042249553
129	0x3dd18807	0.10231023
130	0xbd859e93	-0.06524386
131	0xbdd22d26	-0.10262518
132	0xbda4fbe2	-0.08055855
133	0xbd16c483	-0.036808502
134	0xbe15806f	-0.14599775
135	0xbdb49b68	-0.08818704
136	0xbcb787fa	-0.022403706
137	0x3dc519f1	0.096240886
138	0xbdffc417	-0.12488573
139	0xbdd8ddb2	-0.1058916
140	0x3d2bed46	0.04197433
141	0x3e646dfe	0.22307584
142	0x3dcbbdc4	0.09948304
143	0x3e235a08	0.15952313
144	0xbdcc3acc	-0.09972152
145	0xbe2af34c	-0.16694373
146	0x3db2503b	0.08706709
147	0x3d51098d	0.0510345
148	0xbe08cd85	-0.1335965
149	0x3d5cc470	0.053898275
150	0x3e0ff6ce	0.14058992
151	0x3e13d1e8	0.14435542
152	0xbd89e661	-0.067333944
153	0xbe752d5d	-0.23943086
154	0x3ddc3c37	0.107536726
155	0xbdc13dbf	-0.09435605
156	0xbc16da21	-0.009207279
157	0x3d0e97ed	0.034812856
158	0xbdab5512	-0.08365835
159	0xbd61daa5	-0.055140156
160	0xbe0782ba	-0.13233462
161	0xbdff19d1	-0.12456096
162	0x3d90b4b0	0.070657134
163	0xbd4ec575	-0.05048128
164	0x3e1f3638	0.15548027
165	0x3db38088	0.0876475
166	0xbd3c7036	-0.04600545
167	0x3dd36479	0.10321898
168	0x3c474a64	0.012163732
169	0x3bd4b2e4	0.006491052
170	0xbe2142d8	-0.15748155
171	0x3e646ce9	0.22307171
172	0xbda99403	-0.08280184
173	0x3e462c1c	0.19352764
174	0x3dfb5d8a	0.122737005
175	0xbd926856	-0.07148807
176	0xbd5c3490	-0.053761065
177	0xbdd90ff8	-0.10598749
178	0xbd3a8f6d	-0.045546938
179	0xbdb1d274	-0.08682719
180	0x3be07ce0	0.0068508238
181	0xbe2efdd6	-0.17089018
182	0x3d3a93ef	0.045551237
183	0x3dc819c5	0.0977054
184	0xbe09af1e	-0.13445708
185	0xbde10a85	-0.109883346
186	0xbdb66e00	-0.089076996
187	0xbd9b4190	-0.075808644
188	0x3e1b2dd2	0.15154198
189	0x3b53122f	0.0032206883
190	0xbd94c5ba	-0.07264276
191	0x3d1eb482	0.038746364

rnn.weight_ih_l1 f4 [192, 64]
0	0xbe3e6d2c	-0.18596333
1	0xbee4f383	-0.44717035
2	0xbd9446e3	-0.07240083
3	0x3ecc7ee9	0.39940575
4	0x3e844dad	0.25840512
5	0xbefa4705	-0.4888231
6	0xbcbe5187	-0.023232235
7	0x3ceec6a8	0.029147461
8	0x3da2545a	0.07926245
9	0xbec11d19	-0.37717512
10	0x3daa935c	0.08328888
11	0x3de8ef1c	0.113737315
12	0xbe1f7074	-0.15570241
13	0xbe3f120a	-0.18659225
14	0x3ce5f32d	0.028070057
15	0xbe5b2e16	-0.21404299
16	0x3eaf6dc5	0.34263435
17	0x3e26bec3	0.16283707
18	0xbd10b34d	-0.035327245
19	0x3dd675f2	0.10471715
20	0x3e845c2b	0.2585157
21	0xbec0b46b	-0.37637648
22	0xbde0634d	-0.1095644
23	0xbef43892	-0.4769941
24	0xbdbd8202	-0.09253313
25	0xbe984b8c	-0.29745138
26	0xbe2cb31d	-0.16865201
27	0xbdfae045	-0.12249807
28	0xbe0f050c	-0.13966769
29	0xbdfbcbeb	-0.12294754
30	0x3cc0ba04	0.0235262
31	0x3e0948ed	0.13406725
32	0x3ec70a6e	0.38875145
33	0x3e3292a8	0.17438757
34	0xbe324a86	-0.17411241
35	0x3e36a5e9	0.17836727
36	0x3d694106	0.056946777
37	0xbe9b9486	-0.30386752
38	0x3d09eaa4	0.033671036
39	0xbe46d3bc	-0.19416708
40	0xbeb31d2a	-0.34983188
41	0xbdf00287	-0.11719232
42	0x3edf7f6f	0.43651912
43	0xbbfde73e	-0.0077485135
44	0x3df7c07c	0.1209726
45	0xbd1a3c12	-0.037654944
46	0xbda2f3eb	-0.0795668
47	0x3e9d2a51	0.30696347
48	0xbe0bff46	-0.13671598
49	0x3bb39b15	0.0054811337
50	0x3dd01bb5	0.10161535
51	0x3b96ea65	0.0046055787
52	0xbe9a520a	-0.30140716
53	0xbdc53c41	-0.09630633
54	0xbeb87605	-0.36027542
55	0xbea4599e	-0.32099622
56	0xbe4bbc1e	-0.1989598
57	0xbec72b0d	-0.38900033
58	0xbea5bdc0	-0.3237133
59	0xbddd28f5	-0.107988276
60	0x3dd3c680	0.10340595
61	0x3deab12f	0.11459576
62	0x3cdc5c76	0.026899558
63	0x3e43f9db	0.19138281
64	0xbeba6684	-0.36406338
65	0x3e88e772	0.2673908
66	0xbd4b81ed	-0.049684454
67	0xbf24471a	-0.6417099
68	0xbca94563	-0.020662969
69	0x3e5d17f8	0.21591175
70	0xbe5b645a	-0.21425
71	0x3ed48f9d	0.41515818
72	0xbd16609d	-0.03671323
73	0x3d83f384	0.06442931
74	0xbc81bfe8	-0.015838578
75	0xbcc488c2	-0.023990992
76	0x3dce7442	0.10080768
77	0xbba73546	-0.0051027862
78	0xbeb852cc	-0.3600067
79	0x3d3c99ff	0.0460453
80	0xbe9267ca	-0.2859481
81	0xbe2645ba	-0.16237536
82	0x3e1ba6d1	0.15200354
83	0xbe54e1cb	-0.20789258
84	0xbdc6a545	-0.096994914
85	0x3f012b53	0.5045673
86	0xbd8d556f	-0.06901061
87	0x3ec014a7	0.37515756
88	0x3d5b821b	0.053590875
89	0xbd5b1489	-0.05348638
90	0x3c9948ae	0.018711414
91	0xbda7e7ed	-0.08198533
92	0x3e9d3bed	0.30709782
93	0xbea694b2	-0.3253532
94	0xbe2cc5a8	-0.16872275
95	0x3cea8cb5	0.028631547
96	0x3e748c05	0.23881538
97	0x3e35875c	0.17727417
98	0xbe73dd0c	-0.23814791
99	0x3cdd4b45	0.02701343
100	0x3e26149a	0.16218796
101	0xbd7093a8	-0.058734566
102	0xbf0b2f37	-0.5436892
103	0x3d53cfc1	0.0517118
104	0xbe01cd0f	-0.1267588
105	0xbd2596ea	-0.040427126
106	0x3d222fc5	0.039596338
107	0xbc130754	-0.008973915
108	0xbcb60353	-0.022218382
109	0x3dfa486e	0.12220846
110	0xbe37dd3d	-0.1795549
111	0xbf019dd3	-0.50631446
112	0xbe3d90ab	-0.18512218
113	0xbdb3d1d3	-0.08780255
114	0x3d92175d	0.071333624
115	0x3dfa4ab2	0.12221278
116	0xbe2a111a	-0.16608086
117	0x3c411b63	0.011786315
118	0x3f32bf9c	0.6982362
119	0x3c83317f	0.016014813
120	0xbda0be37	-0.078487806
121	0x3e2b0b57	0.16703545
122	0xbde21286	-0.11038689
123	0x3e1c180d	0.1524355
124	0xbdb3cce9	-0.08779318
125	0xbeb8ef01	-0.36119846
126	0xbe1d3983	-0.1535397
127	0xbf19c8c2	-0.6007196
128	0xbe9d8b24	-0.30770218
129	0xbc3ac2f8	-0.011399023
130	0x3db202e0	0.086919546
131	0x3e8222ae	0.25417084
132	0xbbe06389	-0.006847803
133	0x3f31f57c	0.69515204
134	0xbef4cbbf	-0.47811696
135	0xbf21249b	-0.6294648
136	0x3cfa2a67	0.030537797
137	0x3f0c2a1f	0.5475177
138	0x3ebecf34	0.37267458
139	0x3dcee898	0.101029575
140	0x3eef4451	0.4673181
141	0x3c55053a	0.013001734
142	0x3f4a1ce6	0.78950346
143	0x3cd220db	0.025650432
144	0xbea16080	-0.31518936
145	0xbe3a7c4c	-0.18211478
146	0x3c7c55c1	0.015401305
147	0xbe0ec7c3	-0.1394339
148	0xbd0e6803	-0.034767162
149	0xbe45a07c	-0.19299501
150	0xbd136d7c	-0.035993084
151	0xbe099715	-0.1343654
152	0x3e28ed6c	0.1649682
153	0xbe3bc5ed	-0.18337221
154	0x3df8cdad	0.121486045
155	0xbdb91cff	-0.09038734
156	0xbea71fb1	-0.32641366
157	0x3de78d6f	0.11306273
158	0xbc152e5f	-0.009105294
159	0x3da507c9	0.080581255
160	0xbece5d87	-0.4030573
161	0xbe15942b	-0.14607303
162	0x3e34d671	0.17659928
163	0xbdc11be0	-0.09429145
164	0xb95f9e18	-0.00021325832
165	0xbc0a46b9	-0.008439713
166	0x3d8ab9e0	0.06773734
167	0xbd1a9f30	-0.03774947
168	0x3e18ac43	0.14909463
169	0x3dade974	0.08491793
170	0xbf3de5c3	-0.74178714
171	0xbd98b23e	-0.07455872
172	0xbe4dceff	-0.20098494
173	0xbe36ac7f	-0.1783924
174	0xbcfa2477	-0.030534966
175	0x3ed10ec4	0.40831578
176	0xbb13fb61	-0.0022580253
177	0x3e93995e	0.28827947
178	0xbe31caa3	-0.17362456
179	0xbbec7fd7	-0.007217388
180	0x3f106e0d	0.56417924
181	0xbdad0ded	-0.08449922
182	0xbee7e223	-0.45289716
183	0x3e0f5d90	0.14000535
184	0xbe1c93a4	-0.15290695
185	0xbdfd28e2	-0.123613134
186	0x3e9aca8f	0.30232665
187	0xbe8d6117	-0.27613136
188	0x3e1675ea	0.14693418
189	0xbcd31f41	-0.025771739
190	0xbd31bc05	-0.0433922
191	0x3bec7ae2	0.007216797
192	0x3e8b93a6	0.27261084
193	0x3c3c6d51	0.011500672
194	0xbc2f40aa	-0.010696569
195	0xbe8163c2	-0.25271422
196	0x3ddfa2f8	0.10919756
197	0xbd6589ac	-0.056039497
198	0xbe54d51b	-0.20784418
199	0x3e6b10d6	0.22955641
200	0x3e1cb01b	0.15301554
201	0xbe4ee935	-0.20206149
202	0x3ec90a17	0.3926551
203	0xbd2552fb	-0.04036234
204	0x3c9cf3ad	0.019159162
205	0x3e4190f7	0.18902956
206	0x3e59be96	0.21264109
207	0x3db0c6f7	0.086316995
208	0xbe08d738	-0.1336335
209	0xbe3ba11a	-0.18323174
210	0xbe232c5e	-0.15934893
211	0x3daa3988	0.083117545
212	0x3ce343f0	0.027742356
213	0x3e0e1cd1	0.1387818
214	0x3c84417b	0.016144505
215	0x3ec46cb7	0.38364193
216	0x3d95a515	0.073068775
217	0xbbbd6846	-0.0057802526
218	0xbd70aa13	-0.058755945
219	0xba78a17c	-0.0009484512
220	0xbdcd89e7	-0.100360684
221	0x3e15cafd	0.14628215
222	0x3e946b18	0.28987956
223	0xbd82131a	-0.063512996
224	0xbd36b78d	-0.04460864
225	0xbdc70655	-0.097180046
226	0x3dcef261	0.10104824
227	0xbdc6f7e3	-0.097152494
228	0xbd08921e	-0.033342473
229	0x3d76b695	0.060232718
230	0xbe14af21	-0.14519931
231	0x3e3cdef1	0.1844442
232	0xbc2bd2b8	-0.010487251
233	0xbe1edfbf	-0.1551504
234	0xbc21cca4	-0.00987545
235	0x3e39e956	0.18155417
236	0xbc86f438	-0.016473874
237	0x3e0f20e1	0.13977386
238	0xbd189bf5	-0.037258107
239	0xbd97a7e5	-0.0740507
240	0xbd9bd5c7	-0.07609134
241	0x3c24799d	0.0100387605
242	0xbeba5132	-0.36390072
243	0xbd810c56	-0.06301181
244	0x3e96b75b	0.29436764
245	0x3e91946c	0.2843355
246	0xbe0101a3	-0.1259828
247	0xbe05e425	-0.13075311
248	0xbda93df0	-0.08263767
249	0x3f00de53	0.5033924
250	0xbcd49934	-0.02595196
251	0xbe3e0454	-0.18556339
252	0x3e53f8eb	0.20700423
253	0x3d859e06	0.06524281
254	0xbe269465	-0.16267546
255	0xbe2f5d9e	-0.17125556

rnn.weight_hh_l1 f4 [192, 64]
0	0x3e685ee7	0.22692452
1	0xbcb3836d	-0.021913255
2	0xbee0f522	-0.43937021
3	0x3e7d5c81	0.24742319
4	0x3ec2e951	0.3806863
5	0x3d9636dc	0.07334682
6	0x3ebecd24	0.37265885
7	0x3e5b860f	0.21437858
8	0x3e91411b	0.28369984
9	0xbe89cecb	-0.26915583
10	0xbe03b65e	-0.12862536
11	0xbe7b15da	-0.24520054
12	0xbe0ef12f	-0.13959192
13	0x3da8cdf7	0.0824241
14	0xbe2887c5	-0.16458042
15	0x3e5ce04e	0.2156994
16	0x3d2d6d1e	0.04234039
17	0x3f0ddf48	0.55418825
18	0xbb4df245	-0.0031424921
19	0x3d2226a9	0.03958765
20	0x3eeca16f	0.46216914
21	0x3d9f4be0	0.07778144
22	0xbd3ecad1	-0.04658014
23	0xbdee4b1d	-0.116354205
24	0x3d1833f4	0.03715892
25	0x3c0f4144	0.008743588
26	0x3e61c03f	0.22045992
27	0x3ec42511	0.3830953
28	0xbefea82b	-0.49737677
29	0xbd9085f8	-0.070568025
30	0x3eaaee4c	0.3338493
31	0x3ebb5516	0.36588353
32	0x3e29927e	0.16559789
33	0x3ecde461	0.40213302
34	0x3e469c56	0.19395575
35	0x3e49be83	0.1970158
36	0x3eacfd74	0.3378712
37	0xbe010d93	-0.12602834
38	0xbe8120bd	-0.2522029
39	0x3c4819ea	0.01221321
40	0xbe2cdb98	-0.16880643
41	0xbea627f9	-0.32452372
42	0xbe8481a7	-0.25880167
43	0x3ea0a692	0.31377083
44	0x3e72c715	0.23708756
45	0x3d631406	0.055439018
46	0x3e850e01	0.25987247
47	0x3db55412	0.08853926
48	0x3e5b0363	0.2138801
49	0x3caadba4	0.020856686
50	0xbdbb36b0	-0.0914129
51	0xbe7f823c	-0.24952024
52	0xbc7ba57a	-0.015359277
53	0xbcbc317b	-0.022972813
54	0xbd041423	-0.032245766
55	0x3e2c2b9e	0.16813514
56	0xbd9c0cc7	-0.076196246
57	0x3d2f7d29	0.04284397
58	0xbcd42430	-0.025896162
59	0xbef3dcd0	-0.47629404
60	0xbed90fc9	-0.42394856
61	0x3d490491	0.04907662
62	0xbd3cf1f7	-0.046129193
63	0x3d918643	0.071056865
64	0x3d985480	0.07437992
65	0xbe380357	-0.17970024
66	0x3b8a5aec	0.0042222645
67	0x3cea30e5	0.028587768
68	0x3dceb88a	0.10093792
69	0xbd587418	-0.05284509
70	0x3da8a480	0.08234501
71	0x3dd1ba03	0.10240557
72	0x3dd52d78	0.10409063
73	0xbda2f671	-0.07957161
74	0x3d9db9c6	0.07701449
75	0xbeab76b4	-0.33489
76	0xbd47e837	-0.04880544
77	0x3e59160c	0.21199816
78	0xbedd0ae5	-0.43172374
79	0x3ec5f4ec	0.38663423
80	0xbb680cfd	-0.0035408132
81	0xbd786573	-0.060643625
82	0x3e595a5b	0.21225874
83	0x3c55ee83	0.013057354
84	0x3d4c470a	0.049872436
85	0x3d2f1cfe	0.04275226
86	0x3e62872e	0.2212188
87	0xbaf09c23	-0.0018357079
88	0xbd91a277	-0.07111066
89	0x3ea94fe4	0.33068764
90	0x3e2a59d2	0.16635826
91	0xbdd06895	-0.101761974
92	0x3dbf30f9	0.09335513
93	0xbcacabf8	-0.021078095
94	0xbd6ff07b	-0.05857895
95	0x3e12366c	0.14278573
96	0x3d34c645	0.044134397
97	0xbcd97fb6	-0.026550155
98	0xbd37aeb9	-0.044844363
99	0xbd74cfe6	-0.05976858
100	0x3c9b8196	0.01898269
101	0xbe72ee2a	-0.23723665
102	0x3e51115f	0.20416783
103	0x3df0eddb	0.11764117
104	0x3cab83a8	0.020936802
105	0xbece0312	-0.40236717
106	0xbd13e221	-0.036104325
107	0xbe8e5c9c	-0.2780503
108	0x3dab9987	0.083788924
109	0x3d293544	0.041310564
110	0x3ee7ba30	0.45259237
111	0xbe2e755e	-0.1703696
112	0xbd69593c	-0.056969866
113	0xbe508278	-0.2036227
114	0xbe39fdeb	-0.18163268
115	0xbe138e4b	-0.14409749
116	0x3e01fc27	0.12693845
117	0xbe49196a	-0.19638601
118	0x3dfcd6b3	0.12345638
119	0xbda66fc4	-0.08126786
120	0x3d6c2188	0.057649165
121	0xbea2288b	-0.31671557
122	0xbd80a30f	-0.06281101
123	0x3c2f7db1	0.0107111195
124	0xbc611293	-0.013737339
125	0x3da3649d	0.07978175
126	0x3e29fce0	0.1660037
127	0xbc9fa976	-0.019489985
128	0x3d029667	0.031881716
129	0xbe816a11	-0.25276235
130	0xbeeb814c	-0.45997083
131	0x3d820db8	0.06350273
132	0x3d61b07e	0.055099957
133	0x3d669d14	0.056302145
134	0x3d4d5630	0.050131023
135	0xbdf52bd4	-0.1197125
136	0xbd15df2f	-0.036589798
137	0xbf1507ce	-0.58215034
138	0xbde5c0b2	-0.11218394
139	0x3dd9e73a	0.10639806
140	0x3e337e36	0.17528614
141	0x3e26b697	0.1628059
142	0x3cb820d9	0.0224766
143	0xbd9b64a1	-0.07587553
144	0xbf0190fe	-0.50611866
145	0x3e4e4f70	0.2014749
146	0xbed629ea	-0.41828853
147	0x3de35f3d	0.1110215
148	0x3eb5aa29	0.35481384
149	0x3dec3bbf	0.11534833
150	0x3d4b8d37	0.04969522
151	0x3e9c480d	0.3052372
152	0x3e0b08c6	0.13577566
153	0x3dbf6405	0.09345249
154	0xbe3ba677	-0.1832522
155	0xbd396dd6	-0.045270763
156	0x3eecfa85	0.4628488
157	0x3db95d78	0.09051031
158	0xbe657f33	-0.22411804
159	0xbd3c2b24	-0.04593958
160	0xbe324adb	-0.17411368
161	0x3e327c55	0.17430241
162	0xbe4b0c5b	-0.19828932
163	0x3c759b52	0.0149906445
164	0x3e82747b	0.25479493
165	0x3e3b5ab3	0.18296318
166	0xbdf6a0c5	-0.12042383
167	0xbd2bb61d	-0.041921724
168	0x3e668dc0	0.22515011
169	0x3e674875	0.22586234
170	0x3db33080	0.08749485
171	0x3d8e6aac	0.0695394
172	0x3e43b060	0.1911025
173	0xbd53d5eb	-0.05171768
174	0xbe07a06e	-0.13244793
175	0x3d7d3797	0.061820593
176	0x3e7387dc	0.23782295
177	0x3d3f22bd	0.04666399
178	0xbedf5747	-0.43621275
179	0x3da93d16	0.08263604
180	0xbe5ada73	-0.21372394
181	0xbe8ccf45	-0.27501884
182	0x3d7acc1b	0.061229806
183	0x3d98e007	0.07464605
184	0x3a52641a	0.00080257806
185	0x3f0117b7	0.5042681
186	0x3d6559c3	0.055993807
187	0xbe2548cf	-0.16141056
188	0x3af5e285	0.0018759525
189	0xbd8c526a	-0.06851657
190	0xbdd20dfc	-0.102565736
191	0x3c3d71da	0.011562789
192	0x3d218b15	0.03943928
193	0xbdf16f41	-0.11788798
194	0x3d8d267d	0.06892107
195	0xbe0c9fe4	-0.13732868
196	0xbe318e91	-0.17339541
197	0xbe2504f5	-0.16115172
198	0xbe4ca9c2	-0.19986632
199	0xbdee8ce1	-0.11647964
200	0xbd33d63a	-0.043905474
201	0x3da6793e	0.08128594
202	0x3c3a45e2	0.0113692
203	0x3dcf913f	0.10135125
204	0x3d5968ed	0.05307858
205	0x3e8f4dc0	0.27989006
206	0xbe2c1532	-0.1680496
207	0xbcc63b08	-0.02419807
208	0x3e0e9014	0.13922149
209	0xbe827bc4	-0.2548505
210	0x3e0f2e51	0.13982512
211	0x3edbe02a	0.4294446
212	0xbc0bbeee	-0.008529408
213	0xbeb21245	-0.34779564
214	0x3ea3cd16	0.31992406
215	0xbe937072	-0.28796726
216	0xbed048b4	-0.40680468
217	0x3e02d972	0.12778261
218	0xbdaf92fc	-0.08572957
219	0xbf0b8114	-0.5449383
220	0x3e5fd7d7	0.2185968
221	0xbef0cb9d	-0.47030345
222	0xbddae83d	-0.10688827
223	0x3bdcef97	0.0067424285
224	0x3d742d14	0.059613302
225	0x3eaf1812	0.34198052
226	0xbde364bc	-0.11103198
227	0xbcccfd1c	-0.025023036
228	0xbef66bb9	-0.4812906
229	0x3c604026	0.013687169
230	0xbe845e86	-0.25853366
231	0xbdaf91c5	-0.08572725
232	0xbe8bbdcb	-0.27293238
233	0x3c83fd10	0.01611188
234	0x3d8df176	0.06930821
235	0xbe56b67e	-0.20968053
236	0xbea0322a	-0.31288272
237	0xbda459f5	-0.080249704
238	0xbca168ed	-0.019703353
239	0xbe0f75a4	-0.1400972
240	0xbc844de4	-0.016150422
241	0xbdccfbaa	-0.100089386
242	0xbd206b95	-0.0391651
243	0x3e991bdb	0.29904065
244	0xbe92b68d	-0.286549
245	0xbe237875	-0.1596392
246	0x3dc4fdb1	0.096187
247	0xbdf88694	-0.12135044
248	0x3d8c2881	0.06843663
249	0xbe1828cd	-0.14859314
250	0x3da4c24c	0.08044872
251	0x3df95fb8	0.1217646
252	0x3e45a6da	0.1930193
253	0xbcfc97b6	-0.03083406
254	0xbe944156	-0.28956097
255	0xbe4a281b	-0.19741862

rnn.bias_ih_l1 f4 [192]
0	0xbe252e09	-0.16130842
1	0xbd203c07	-0.039119747
2	0x3e074dd7	0.13213287
3	0x3d0dd5bd	0.034627665
4	0xbcaa8a1c	-0.020817809
5	0x3d886661	0.06660152
6	0x3e037ccd	0.12840576
7	0x3e422482	0.18959239
8	0xbd8319bf	-0.06401395
9	0x3d58404a	0.052795686
10	0x3e1152c7	0.14191733
11	0x3e562433	0.20912246
12	0x3e4f35b6	0.20235333
13	0xbe157eb3	-0.14599113
14	0xbe263fa2	-0.16235211
15	0xbd7ba7c5	-0.061439294
16	0x3d9594d1	0.07303775
17	0x3dcc37ec	0.09971604
18	0x3b8e5752	0.0043439055
19	0x3de55830	0.11198461
20	0xbd2a8dc1	-0.041639093
21	0x3d38c417	0.04510888
22	0xbb427582	-0.002967209
23	0xbdf9f81a	-0.12205525
24	0xbdbb269a	-0.09138222
25	0x3d7aed8f	0.06126171
26	0x3cf3e6ae	0.029773083
27	0x3d0f3871	0.034965936
28	0x3ddb0cd5	0.10695807
29	0xbdee6c92	-0.11641802
30	0x3e48494d	0.19559212
31	0x3e1e6c79	0.15471067
32	0x3d26691b	0.04062758
33	0xbd879c50	-0.06621611
34	0xba5fb051	-0.0008533048
35	0x3cc6259c	0.024187855
36	0x3d19baf0	0.037531793
37	0x3dd8c8e4	0.10585192
38	0x3d2e433a	0.04254458
39	0x3c01faf0	0.007933363
40	0x3de4e254	0.11175981
41	0xbd4e3e05	-0.050352115
42	0xbcd8dc60	-0.02647227
43	0xbdc1e0e9	-0.09466726
44	0x3c89dd39	0.01682912
45	0xbd701196	-0.05861052
46	0xbdba2602	-0.09089281
47	0x3c9d9060	0.019233882
48	0xbe14712b	-0.14496295
49	0x3d14fac6	0.03637197
50	0xbdc8280d	-0.09773264
51	0x3d809bfd	0.062797524
52	0xbde41769	-0.11137278
53	0x3e581b29	0.21104111
54	0xbd23c9a5	-0.039987225
55	0xbbcfc2f9	-0.006340381
56	0x3d66b566	0.05632534
57	0xbd6bce83	-0.05756999
58	0x3c0d1d31	0.008612917
59	0xbc84e5ed	-0.016222918
60	0x3da5a97f	0.080889694
61	0x3cbec575	0.023287514
62	0xbcb1f8d4	-0.021725096
63	0xbd1700d3	-0.03686602
64	0xbda18b64	-0.07887915
65	0xbd69e41f	-0.05710232
66	0xbdf7bac9	-0.12096173
67	0xbdc474a7	-0.09592562
68	0x39e8f9c2	0.00044436572
69	0x3bb4f17b	0.005521951
70	0xbe04e9fd	-0.12979884
71	0x3d586686	0.05283215
72	0xbdccc641	-0.099987514
73	0xbe410058	-0.18847787
74	0xbdcf63d5	-0.10126463
75	0xbbc884cc	-0.0061193462
76	0xbd3ce87d	-0.046120156
77	0x3ce8e641	0.028430106
78	0x3c5a398b	0.013319383
79	0xbd286647	-0.041113164
80	0xbccc90cb	-0.024971386
81	0xbe16e765	-0.14736708
82	0xbdab13ef	-0.083534114
83	0x3cf36e66	0.029715728
84	0x3d4d6017	0.050140467
85	0x3d2b2396	0.041781984
86	0x3d2f76a1	0.042837743
87	0xbdf789cb	-0.12086829
88	0xbe129692	-0.1431525
89	0xbbbf96ab	-0.0058468184
90	0xbda6e17f	-0.08148479
91	0xbd2941fb	-0.04132269
92	0xbe90b613	-0.28263912
93	0xbd7ddbf9	-0.06197736
94	0xbe043077	-0.12909113
95	0xbd93129a	-0.07181282
96	0xbd0a6eb4	-0.03379698
97	0xbd3e0917	-0.046395388
98	0x3d816856	0.063187286
99	0x3da57486	0.08078866
100	0xbe025f11	-0.12731577
101	0xbcc74d0a	-0.024328727
102	0xbdc17eeb	-0.09448036
103	0xbd0f155f	-0.03493249
104	0xbe1b48cd	-0.1516449
105	0xbde1d795	-0.11027447
106	0xbcd73c1e	-0.026273783
107	0xbdf98fa0	-0.121855974
108	0x3bcf0c84	0.0063186307
109	0xbd4f62ee	-0.050631456
110	0xbdb39a92	-0.08769716
111	0xbcf45b44	-0.029828675
112	0xbddb5cd0	-0.10711062
113	0x3c2697c4	0.01016802
114	0x3cebc618	0.028780982
115	0xbe37087c	-0.1787433
116	0xbe397844	-0.18112284
117	0xbd06cd0b	-0.032910388
118	0xbdb76fb4	-0.089568526
119	0x3d2e3801	0.04253388
120	0xbdc1089e	-0.09425472
121	0xbc998a9a	-0.018742848
122	0xbded967e	-0.1160097
123	0xbd686015	-0.056732256
124	0xbe10300b	-0.14080827
125	0xbd35331c	-0.044238195
126	0xbdce085b	-0.100601874
127	0x3d82dae1	0.06389404
128	0x3d920035	0.07128946
129	0x3d9c8919	0.07643337
130	0x3d9d1eb6	0.07671873
131	0x3cef50e3	0.029213374
132	0xbd94b866	-0.07261734
133	0xbe06047e	-0.13087651
134	0xbdd76bd6	-0.10518615
135	0xbe794299	-0.24341811
136	0x3da3f7ef	0.08006274
137	0x3daf7e74	0.08569041
138	0xbddd1032	-0.10794105
139	0x3d13f034	0.036117747
140	0x3e363b96	0.17796168
141	0x3df383e6	0.11890392
142	0xbe0022a7	-0.12513219
143	0xbde08085	-0.10962013
144	0x3df1b2f7	0.11801713
145	0xbd68f0c4	-0.056870237
146	0xbe7f45a0	-0.24928904
147	0x3e472701	0.19448473
148	0xbc9ac3d3	-0.018892204
149	0x3da7ecd8	0.08199471
150	0x3db2bcff	0.087274544
151	0xbd6767e9	-0.05649558
152	0x3d7d85cb	0.061895173
153	0x3c0a493f	0.008440315
154	0xbe117c97	-0.14207684
155	0x38adf020	8.2940096e-05
156	0x3df8905e	0.12136911
157	0x3d73ca34	0.059519008
158	0xbd815176	-0.063143656
159	0xbe13583d	-0.14389129
160	0x3de19973	0.11015596
161	0x3dba046d	0.090828754
162	0xbe3ca972	-0.18424013
163	0xbd9ac440	-0.07556963
164	0xbde7442f	-0.11292302
165	0x3dc56db3	0.09640064
166	0x3bab42d8	0.0052264743
167	0xbe11be98	-0.14232862
168	0xbd25736c	-0.040393278
169	0xbca70de4	-0.020392366
170	0xbd4d55ee	-0.050130777
171	0xbdcbdb0d	-0.0995389
172	0xbe3266ac	-0.17421979
173	0xbe034d8f	-0.12822555
174	0xbdc373ed	-0.095435955
175	0x3cd1290f	0.025532274
176	0xbdb49555	-0.08817545
177	0xbe1d82d9	-0.15381946
178	0xbc7c8e7e	-0.015414832
179	0x3df6d1e0	0.12051749
180	0x3d2c72c3	0.042101633
181	0x3c3f7617	0.01168587
182	0x3e1b37f5	0.15158065
183	0xbdfd78a5	-0.12376527
184	0xbdcd7a0d	-0.10033045
185	0xbd543881	-0.0518117
186	0x3e26bbdd	0.16282602
187	0x3d326dc1	0.0435617
188	0xbda169de	-0.07881521
189	0xbdfcc964	-0.123431
190	0xbba452b1	-0.0050147404
191	0xbd853289	-0.065037794
