graphrnn_v2/experiments/structures/k_regulars/vary_m/3_regular_vary_m_32_graphrnn_s/model_at_1100.pt (torch, 407571 bytes, 22 tensors)

embedding.0.weight f4 [32, 32]
0	0xbed25604	-0.4108125
1	0xbe90b192	-0.28260475
2	0xbeb70cab	-0.35751852
3	0xbe612831	-0.21987988
4	0xbe53ec20	-0.20695543
5	0xba960e41	-0.001144834
6	0x3b383b0d	0.002811137
7	0x3dce97fb	0.10087582
8	0x3d040c7d	0.032238472
9	0x3d84c5a5	0.0648301
10	0x3e06d34a	0.13166538
11	0x3e82f107	0.25574514
12	0xbc6946f7	-0.014238111
13	0xbd920289	-0.0712939
14	0x3d9525fa	0.07282634
15	0x3d9d2b1e	0.076742396
16	0xbc1002c7	-0.008789725
17	0x3c8e1efc	0.017348759
18	0x3cf4cd3d	0.029883021
19	0xbcfab8ca	-0.030605692
20	0xbd3b19fa	-0.04567907
21	0xbde580a1	-0.11206175
22	0x3ce36052	0.02775589
23	0x3e14be56	0.14525732
24	0xbe0193b3	-0.12653999
25	0xbd85cfbe	-0.06533764
26	0x3e30caa2	0.17264798
27	0x3d335bfa	0.043788888
28	0xbe1ea5ed	-0.15492983
29	0xbe198555	-0.14992268
30	0xbd433024	-0.047653332
31	0x3d37845a	0.044803955
32	0xbb0457cc	-0.0020193933
33	0xbcd8c4ff	-0.026461123
34	0x3d8d05a2	0.0688584
35	0x3e8d48ee	0.27594703
36	0x3d49da40	0.049280405
37	0x3d75d976	0.06002184
38	0x3d3f182a	0.046653904
39	0xbd59a90b	-0.053139728
40	0xbd6235ad	-0.05522697
41	0x3e64122a	0.22272554
42	0x3f0c28d8	0.5474982
43	0x3f1853bd	0.59502774
44	0x3f5d702f	0.86499304
45	0x3cb2418d	0.021759773
46	0xba2f8855	-0.0006696035
47	0xbe821ae1	-0.25411132
48	0xbe0c59aa	-0.13706079
49	0xbc239654	-0.0099845715
50	0xbe8fb88b	-0.28070483
51	0xbe172119	-0.1475872
52	0x3bc22726	0.005925077
53	0xbd80d6e5	-0.06290988
54	0xbc8f1242	-0.01746476
55	0xbe8ab2ea	-0.27089626
56	0xbe078c17	-0.13237034
57	0xbe82e67a	-0.25566465
58	0xbd0e8e84	-0.034803882
59	0xbe8ef5ce	-0.2792191
60	0xbd5b2282	-0.053499706
61	0xbe4fcaf8	-0.2029227
62	0xbe6b782a	-0.22995058
63	0xbe5da471	-0.2164476
64	0xbeee277a	-0.46514493
65	0x3e3ed602	0.18636325
66	0x3ed62b00	0.4182968
67	0x3db49d4c	0.088190645
68	0xbed6e662	-0.41972643
69	0xbef139cf	-0.47114417
70	0xbf19ce0a	-0.60080016
71	0xbf1a9f33	-0.6039917
72	0xbf1abae1	-0.60441405
73	0xbee0d1e3	-0.4391013
74	0xbee9e663	-0.45683584
75	0xbec6afd9	-0.38806036
76	0xbe7b6084	-0.24548537
77	0xbcb093e6	-0.021554898
78	0x3e15a3eb	0.14613311
79	0x3e1d19ba	0.15341845
80	0xbd2a18a0	-0.04152739
81	0xbdae4c04	-0.085105926
82	0x3db979d3	0.09056439
83	0xbd5acdec	-0.05341904
84	0xbd6dfc56	-0.058101974
85	0x3d826eb9	0.06368775
86	0xbe2373bd	-0.1596212
87	0xbd882aa4	-0.06648758
88	0xbe0b2c2d	-0.1359107
89	0xbda40197	-0.08008116
90	0x3e02dd70	0.12779784
91	0xbe11add1	-0.14226462
92	0xbd195f3a	-0.03744433
93	0x3d84e00c	0.06488046
94	0x3d1cdb46	0.038295053
95	0x3e200be5	0.15629537
96	0x3e205d67	0.1566063
97	0x3db3ee73	0.08785715
98	0x3dd9d9d1	0.10637248
99	0x3eb6ef88	0.35729623
100	0x3eadc05b	0.33935818
101	0xbaa43d62	-0.00125305
102	0xbbcace3c	-0.006189136
103	0xbe0196c8	-0.12655175
104	0x3e282245	0.16419323
105	0xbc431c65	-0.011908625
106	0x3e0d5f9b	0.13806002
107	0x3da73b62	0.08165623
108	0xbdaa642b	-0.08319887
109	0x3e1c9a06	0.1529313
110	0x3e83f5c9	0.25773457
111	0x3d0421e3	0.03225888
112	0xbdae16bc	-0.0850043
113	0x3e6f383d	0.23361297
114	0x3e257c2e	0.16160652
115	0x3e283d45	0.16429622
116	0x3d32bf85	0.04363968
117	0x3df42656	0.119213745
118	0xbd98e944	-0.07466367
119	0x3e5fd644	0.2185908
120	0xbd9e8bbb	-0.07741495
121	0x3bbf7d93	0.005843827
122	0x3d031fff	0.032012936
123	0x3daf53cd	0.085609056
124	0x3e36bef9	0.17846288
125	0xbb212c12	-0.0024592918
126	0x3e76abe8	0.24089015
127	0xbd7f7eaf	-0.062376674
128	0x3ca15bb6	0.019697051
129	0x3cd2bbfc	0.025724404
130	0x3e541ca9	0.20714058
131	0x3ea3cfa7	0.31994364
132	0x3e9f7acc	0.31148374
133	0x3da8bec0	0.08239508
134	0x3e0ebfbd	0.1394033
135	0x3dbc4189	0.09192187
136	0x3d063602	0.03276635
137	0xbd38dcb4	-0.045132354
138	0x3cdd1294	0.026986398
139	0x3bc0b785	0.0058812522
140	0x3bd59416	0.0065178974
141	0x3e86e274	0.26344645
142	0x3e816181	0.25269702
143	0x3d8f56dd	0.0699899
144	0x3e972144	0.29517567
145	0x3dcb0367	0.09912758
146	0x3df6e9ec	0.12056336
147	0x3e2eb0c3	0.17059617
148	0x3e4d8df6	0.20073685
149	0x3e060a4f	0.1308987
150	0x3ea20467	0.31643984
151	0x3cbd4d07	0.023108019
152	0x3db11f03	0.08648493
153	0xbc5c02b3	-0.013428378
154	0x3dcd5e6c	0.10027775
155	0x3e82c266	0.2553894
156	0x3e2eb7c0	0.17062283
157	0x3ea082af	0.31349704
158	0x3de23518	0.11045283
159	0xbca5336a	-0.020166118
160	0x3ef7eb89	0.48421887
161	0x3e82915a	0.2550152
162	0x3e62be8b	0.22142999
163	0x3e054717	0.130154
164	0x3dfa5fe5	0.12225322
165	0x3dc3414d	0.095339395
166	0x3de71fa2	0.1128533
167	0x3e88f3ca	0.26748496
168	0x3e917dfd	0.28416434
169	0x3dc2e8fd	0.09517095
170	0x3e007c85	0.125475
171	0x3e24d244	0.16095835
172	0xbc1b194a	-0.009466479
173	0x3e9ab9e6	0.30219954
174	0xbe08cc69	-0.13359226
175	0xbe50ad2e	-0.20378563
176	0xbdef02ab	-0.11670431
177	0xbe7bce51	-0.24590422
178	0xbe3ac960	-0.18240881
179	0xbe1ec8a2	-0.15506223
180	0xbe11ff92	-0.14257649
181	0xbe439257	-0.19098793
182	0xbe746377	-0.23866068
183	0xbdae7748	-0.08518845
184	0xbe720b94	-0.23637229
185	0x3cd84b49	0.026403086
186	0x3cf8169d	0.03028422
187	0xbdb01ca1	-0.085992105
188	0xbe2aa133	-0.16663055
189	0xbdd4aa98	-0.10384101
190	0xbd3599b4	-0.044336036
191	0xbe672bb5	-0.22575267
192	0x3e389bb0	0.1802814
193	0x3e91ef91	0.28503087
194	0xbc78fbee	-0.0151967835
195	0x3cd43383	0.025903469
196	0xbeaa6c05	-0.33285537
197	0xbe824691	-0.25444463
198	0xbcb71f80	-0.022353888
199	0xbe00777c	-0.1254558
200	0xbee17889	-0.44037274
201	0xbe100328	-0.14063704
202	0x3e70016f	0.23438047
203	0x3dd3f89f	0.10350155
204	0x3e885b98	0.2663238
205	0xbe990e7f	-0.29893872
206	0xbc1628e7	-0.009165025
207	0x3b73fd1f	0.003722973
208	0x3ca8824b	0.020569941
209	0xbe378f55	-0.1792577
210	0x3d9f4b9d	0.07778094
211	0xbc9a3cc5	-0.018827805
212	0xbe03d25e	-0.12873217
213	0x3db4941a	0.08817311
214	0xbddcf008	-0.1078797
215	0x3c3f860d	0.011689675
216	0xbdef5dd9	-0.11687822
217	0xbe24fcea	-0.16112104
218	0xbdf5831b	-0.11987897
219	0xbd8e82fd	-0.06958578
220	0x3e0cbe4a	0.13744465
221	0xbe41754d	-0.18892403
222	0xbe42329a	-0.18964615
223	0x3e0ffb0d	0.14060612
224	0xb996e52e	-0.00028780982
225	0xbbc732ef	-0.00607907
226	0x3d4683f0	0.04846567
227	0x3d84870d	0.064710714
228	0xbe1a6dfe	-0.15081021
229	0x3d2cad85	0.04215767
230	0x3e479b81	0.19492914
231	0x3ec00259	0.3750179
232	0x3eb1f84f	0.34759757
233	0x3e8c12c6	0.27358073
234	0x3db4c1a5	0.08825997
235	0x3e023b17	0.12717853
236	0x3e28e05d	0.16491838
237	0x3d0c8753	0.034308743
238	0xbc763858	-0.015028082
239	0xbdac0d65	-0.08400992
240	0x3e31758f	0.17330001
241	0x3e0b6095	0.13611062
242	0x3d78625d	0.06064068
243	0xbd2514ef	-0.040303167
244	0x3b896113	0.0041924804
245	0x3ce5f35a	0.02807014
246	0x3ddf21f0	0.10895145
247	0x3d52e47e	0.05148744
248	0x3e8207ad	0.2539648
249	0x3e88697f	0.26642987
250	0x3da5b865	0.08091811
251	0xbd7f0764	-0.062262908
252	0x3e5794a3	0.21052794
253	0x3e049201	0.12946321
254	0x3ccdd029	0.025123673
255	0x3c9f7eef	0.019469706

embedding.0.bias f4 [32]
0	0x3e5dfea4	0.21679169
1	0xbd49d789	-0.049277816
2	0xbc36f66c	-0.01116715
3	0x3dec4d87	0.11538225
4	0xbd0a139a	-0.0337101
5	0xbdfefa6f	-0.1245011
6	0x3d25464f	0.040350255
7	0xbd25cc78	-0.0404782
8	0x3dcfa91d	0.10139678
9	0xbe0474db	-0.12935202
10	0x3d13ce05	0.036085147
11	0xbe18490f	-0.1487162
12	0x3dc57567	0.09641533
13	0xbe0bc848	-0.1365062
14	0x3e3bf9a6	0.18356952
15	0xbe1af2ae	-0.15131637
16	0xbe306420	-0.17225695
17	0x3e3713d2	0.17878655
18	0xbde2fe2c	-0.11083636
19	0x3e4bc896	0.19900736
20	0xbde4b912	-0.11168112
21	0x3e90557e	0.28190225
22	0xbe13ccd7	-0.14433609
23	0x3c9bdd3d	0.019026393
24	0xbd8a3031	-0.06747473
25	0x3dcaf2b5	0.09909574
26	0x3c98acc9	0.018637078
27	0x3e7d3f98	0.2473129
28	0xbdb338cc	-0.087510675
29	0x3e3a9ee3	0.18224673
30	0xbdc1cfeb	-0.09463485
31	0x3da6bf1a	0.081419185

rnn.weight_ih_l0 f4 [192, 32]
0	0x3ea06d5b	0.31333432
1	0x3e852861	0.2600737
2	0xbcbd8816	-0.02313618
3	0xbebcebf6	-0.36898774
4	0xbeb9dcde	-0.3630132
5	0xbe94ec6b	-0.29086623
6	0x3d5dc088	0.05413869
7	0xbdcd1eec	-0.100156635
8	0x3dc854f4	0.097818285
9	0xbe971096	-0.29504842
10	0xbe52872c	-0.20559376
11	0xbedf8172	-0.43653446
12	0xbdc9dd68	-0.09856683
13	0xbec68433	-0.38772735
14	0x3daa3707	0.08311277
15	0xbe8fe3d9	-0.2810352
16	0xbdcde05a	-0.10052557
17	0x3e675aa4	0.2259317
18	0xb9ae7885	-0.0003327766
19	0xbe84c0fc	-0.25928485
20	0x3d99f4bf	0.07517385
21	0x3cb92798	0.022601888
22	0x3cb98b49	0.022649424
23	0xbe942d2d	-0.28940716
24	0xbda7cf95	-0.0819389
25	0xbdf701f7	-0.12060922
26	0xbe0a014a	-0.13477054
27	0xbe8c8f0a	-0.2745288
28	0xbe160836	-0.1465157
29	0x3eb5be7c	0.3549689
30	0xbe0f8649	-0.1401607
31	0xbc5daf2f	-0.013530537
32	0xbd9a11c5	-0.075229205
33	0xbd93d28f	-0.07217895
34	0x3c8fe888	0.017566934
35	0xbe458bd5	-0.19291623
36	0x3d951411	0.07279218
37	0xbeec1766	-0.46111602
38	0xbd826e05	-0.06368641
39	0xbed67ba1	-0.41891196
40	0xbe9de31d	-0.30837336
41	0xbf6fb6f7	-0.9363856
42	0x3d0abfea	0.03387443
43	0xbe2df4a3	-0.16987853
44	0xbe083ecf	-0.1330521
45	0xbe8a8245	-0.27052513
46	0x3ea16d12	0.31528527
47	0xbed3720b	-0.41297945
48	0xbec726b9	-0.3889673
49	0xbe28ec26	-0.16496333
50	0xbeec50b8	-0.46155334
51	0xbc571860	-0.01312837
52	0xbee121d7	-0.4397113
53	0x3e6f485f	0.23367451
54	0x3e0cf9ab	0.13767116
55	0xbdf0fad2	-0.1176659
56	0xbd3130a3	-0.043259274
57	0xbe5a2d2d	-0.21306296
58	0xbea6995a	-0.32538873
59	0xbecb85b3	-0.39750442
60	0xbeb43829	-0.35199097
61	0xbee29cee	-0.44260353
62	0xbe8a7fa7	-0.27050516
63	0xbeb03308	-0.34413934
64	0xbe0947cb	-0.13406293
65	0xbe8e0a62	-0.27742296
66	0xbdfeba7e	-0.12437914
67	0xbe07ed8c	-0.1327421
68	0xbde7bf10	-0.11315739
69	0xbd2b9e48	-0.041898996
70	0x3d59f7c3	0.0532148
71	0xbd4c23eb	-0.04983894
72	0xbeb68f66	-0.3565628
73	0x3b71b3cb	0.0036880847
74	0xbde6ab55	-0.11263148
75	0xbe68ff09	-0.22753538
76	0xbdad7fb4	-0.08471623
77	0xbe1214f3	-0.14265804
78	0xbe672ecd	-0.22576447
79	0xbd3d2517	-0.04617795
80	0xbcbabb77	-0.022794468
81	0x3cbf5399	0.023355292
82	0xbe3d535b	-0.18488829
83	0xbd91c2ac	-0.07117209
84	0xbe111aac	-0.14170331
85	0x3c6a335c	0.014294472
86	0xbd00858c	-0.03137736
87	0xbda7f25a	-0.08200522
88	0x3c1babde	0.009501426
89	0x3cd5bb17	0.026090188
90	0xbe3b8f6a	-0.18316427
91	0xbdc1c0fd	-0.09460638
92	0xbd24819e	-0.040162675
93	0xbe455a93	-0.19272833
94	0xbdb8f287	-0.090306334
95	0xbe352e46	-0.17693433
96	0x3f22e041	0.63623434
97	0x3dd12e3e	0.10213898
98	0x3e351277	0.17682825
99	0xbe8b17ca	-0.27166587
100	0x3d1bb5a8	0.038015038
101	0xbf06c05b	-0.5263726
102	0xbe2ef197	-0.17084347
103	0x3d84a205	0.06476215
104	0x3efed545	0.49772087
105	0xbe4d95ec	-0.20076722
106	0x3eaf6407	0.34256002
107	0x3dc5d136	0.096590444
108	0x3e88f048	0.2674582
109	0x3ea60280	0.32423782
110	0x3e7194b1	0.23591878
111	0xbdad3274	-0.08456889
112	0xbf18412c	-0.59474444
113	0x3e1a6c0f	0.15080284
114	0xbe40900a	-0.18804947
115	0xbcd0f09c	-0.025505356
116	0x3d8c9c37	0.06865733
117	0x3e285569	0.16438831
118	0xbe9f6981	-0.3113518
119	0xbd70fd3e	-0.05883526
120	0xbeaaecc5	-0.33383766
121	0x3d9403b7	0.07227271
122	0xbed4cf0d	-0.41564217
123	0x3e912984	0.28351986
124	0xbeb89061	-0.36047652
125	0x3eaae2cb	0.33376154
126	0x3d3b25e7	0.045690443
127	0x3e7bc12d	0.2458541
128	0x3d68de4c	0.056852624
129	0xbe63f1ab	-0.22260158
130	0xbcb851b1	-0.022499891
131	0xbdfbb879	-0.12291045
132	0xbde40ce7	-0.111352734
133	0xbe9b6dd1	-0.3035722
134	0xbe326f82	-0.1742535
135	0xbe22b128	-0.15887892
136	0xbcd4bc5e	-0.025968727
137	0xbe1a510f	-0.15069984
138	0xbe1db2bc	-0.15400213
139	0xbea3468c	-0.3188976
140	0xbda1c753	-0.07899346
141	0xbe7605f9	-0.24025716
142	0xbe0f140b	-0.1397249
143	0xbe94dc36	-0.29074258
144	0xbe8e0476	-0.27737778
145	0x3d832573	0.06403627
146	0xbe5c5d8e	-0.21520063
147	0xbd64d65a	-0.055868484
148	0x3d5c40dd	0.053772796
149	0xbd0259ea	-0.03182403
150	0xbe4af7e5	-0.19821127
151	0xbe78b3c7	-0.2428733
152	0xbe6455ea	-0.22298399
153	0xbd782832	-0.06058521
154	0xbe0bd15a	-0.1365408
155	0xbd08f079	-0.033432458
156	0xbe7d6a98	-0.24747694
157	0x3d8c14e9	0.06839926
158	0xbe2f2dfe	-0.17107388
159	0x3c921c83	0.017835861
160	0x3e7e3fab	0.24828975
161	0xbec32efd	-0.38121787
162	0xbe7e4943	-0.24832635
163	0xbebcd0b9	-0.36877993
164	0xbd72f8c5	-0.059319276
165	0xbe639b9f	-0.22227333
166	0x3d6ec001	0.058288578
167	0x3dcbe676	0.09956066
168	0xbe155455	-0.14582951
169	0x3ea7abe3	0.32748327
170	0x3ced2ac1	0.02895105
171	0xbe2183f0	-0.15772986
172	0x3d4b85c3	0.049688112
173	0xbdfc89e8	-0.12330991
174	0x3f5a5fbd	0.85302335
175	0xbe2fe981	-0.17178918
176	0xbc35205c	-0.011055078
177	0xbe550de1	-0.20806076
178	0xbec9cc01	-0.39413455
179	0x3db2ef91	0.087371
180	0x3e166340	0.14686298
181	0x3ebebd7d	0.37253943
182	0x3e038867	0.12845002
183	0x3e0c5c98	0.13707197
184	0x3c53023c	0.012878951
185	0x3ef06ee8	0.46959615
186	0x3f1868e5	0.59535056
187	0xbd953409	-0.072853155
188	0x3c0b43d1	0.008500055
189	0xbf267d42	-0.6503488
190	0x3f09db1b	0.53849953
191	0xbe96ae96	-0.29430073
192	0x3e3162c3	0.17322831
193	0x3d1f76d1	0.03893167
194	0x3f8db13d	1.1069714
195	0x3db6136c	0.08890423
196	0x3ee307e1	0.4434195
197	0xbed1a176	-0.40943497
198	0x3dc3a198	0.09552306
199	0x3e618206	0.22022256
200	0xbdaf9b83	-0.085745834
201	0xbdfd9d89	-0.12383563
202	0x3e9a054c	0.30082166
203	0x3d6d8849	0.0579913
204	0x3eac7877	0.33685657
205	0x3e1a9845	0.15097149
206	0x3eecb381	0.462307
207	0x3e77bea6	0.2419382
208	0xbe11ff37	-0.14257513
209	0x3dff48ac	0.12465033
210	0xbdbbd2dc	-0.091710776
211	0x3da3e49c	0.08002588
212	0x3f039a55	0.51407367
213	0x3c8bfac3	0.017087346
214	0xbe12f38c	-0.14350718
215	0xbd0776d4	-0.033072308
216	0xbe013691	-0.12618472
217	0xbdcf1560	-0.10111499
218	0xbe0da547	-0.1383258
219	0xbe2b1dfe	-0.1671066
220	0xbe3e97e1	-0.18612625
221	0x3eaeecf9	0.3416517
222	0x3db1b425	0.08676938
223	0x3d0963e5	0.033542532
224	0xbdefd70c	-0.11710939
225	0x3e9bb209	0.30409268
226	0xbd89012b	-0.06689676
227	0xbd4e563a	-0.0503752
228	0x3e32239b	0.17396395
229	0x3efbd9f8	0.49189734
230	0xbe6ee735	-0.23330386
231	0x3f9a5a5a	1.2058823
232	0x3c7cadda	0.015422309
233	0x3c526e4e	0.0128436815
234	0x3ea3d808	0.32000756
235	0x3dee199d	0.11625979
236	0x3e11b384	0.14228636
237	0xbe4271e9	-0.18988766
238	0x3f6cee2b	0.92550915
239	0x3d64258b	0.055699866
240	0xbbd3c2e2	-0.006462441
241	0x3f3ee658	0.74570227
242	0x3d860726	0.06544332
243	0xbe8f1ae7	-0.27950212
244	0x3e3b302c	0.18280095
245	0xbe0bbe68	-0.13646853
246	0x3d7e7c92	0.06213052
247	0x3e8be4b8	0.27322936
248	0x3d2fc506	0.042912506
249	0xbdafc449	-0.0858236
250	0x3cdcb39e	0.026941117
251	0xbe92739d	-0.2860383
252	0x3dec161d	0.11527655
253	0x3e0690ef	0.13141225
254	0x3f1a11b4	0.6018326
255	0x3ceb96ec	0.028758489

rnn.weight_hh_l0 f4 [192, 64]
0	0x3c8b0dcf	0.016974358
1	0x3d12f879	0.035881493
2	0x3e8303e1	0.25588897
3	0x3da586db	0.08082362
4	0xbf2fe7a0	-0.68712807
5	0xbed37b24	-0.41304886
6	0xbddb79cf	-0.107165925
7	0x3daae461	0.08344341
8	0xbe305dbb	-0.17223255
9	0x3e1fae5c	0.15593857
10	0xbe8f3501	-0.27970126
11	0xbdb2a799	-0.08723373
12	0x3e09505d	0.13409562
13	0xbdc465ab	-0.09589704
14	0xbd7c7c52	-0.061642
15	0x3b82e7aa	0.0039949017
16	0x3e053daf	0.13011812
17	0x3db68660	0.08912349
18	0xbb82d9f9	-0.0039932695
19	0xbe638934	-0.22220308
20	0xbd8e6696	-0.069531605
21	0xbdde8ea5	-0.10867051
22	0xbdfecfdc	-0.1244199
23	0xbd84db09	-0.0648709
24	0x3e23b1ba	0.15985766
25	0xbb3d245f	-0.002886079
26	0x3cc4b3fd	0.024011606
27	0x3c82a031	0.015945526
28	0x3eac03ed	0.33596745
29	0x3e6f3fee	0.23364231
30	0xbea07ddd	-0.31346026
31	0xbd6565df	-0.056005355
32	0xbebd4d5c	-0.36973083
33	0xbd9eaf19	-0.07748241
34	0x3e297d3f	0.16551684
35	0xbcde3de6	-0.027129125
36	0xbe052695	-0.13002999
37	0xbd9e0f58	-0.0771777
38	0x3d8642f4	0.06555739
39	0xbe50a62e	-0.20375893
40	0xbd289c9e	-0.041164987
41	0x3e4abda8	0.1979891
42	0x3e75fce4	0.24022251
43	0xbd17f4e3	-0.037098777
44	0x3e0218a9	0.1270472
45	0xbdf87513	-0.12131705
46	0x3e0f02f3	0.13965969
47	0xbe6b5d47	-0.22984801
48	0xbd6fb8fc	-0.058526024
49	0x3dfa2912	0.12214865
50	0x3ecd6ceb	0.4012216
51	0x3e75422b	0.23951022
52	0x3e09f853	0.13473634
53	0xbe3ea884	-0.18618971
54	0x3df88259	0.12134237
55	0xbc302800	-0.010751724
56	0xbd1d5023	-0.038406502
57	0x3d4213ed	0.047382284
58	0xbe5482e4	-0.20753056
59	0x3e194cd1	0.1497071
60	0x3e1a77a2	0.15084699
61	0xbe00dd5d	-0.12584443
62	0x3b11f150	0.0022269078
63	0xbd9925df	-0.074779265
64	0xbd3f6cfd	-0.0467348
65	0x3dd5decc	0.10442886
66	0x3e55868c	0.20852107
67	0xbdac3a49	-0.084095545
68	0xbdcad760	-0.09904361
69	0x3e021db9	0.12706651
70	0x3c92a269	0.017899709
71	0x3e0b91ac	0.13629788
72	0xbe30375f	-0.17208622
73	0xbd3ed373	-0.046588372
74	0x3e4251e5	0.18976553
75	0x3d1921d6	0.037385784
76	0x3bdb1301	0.006685615
77	0xbd5107a5	-0.05103268
78	0xbd0c5756	-0.034262978
79	0xbcac3233	-0.02102003
80	0x3e50f50e	0.20405981
81	0x3c5f6829	0.013635674
82	0x3e0b2ee6	0.13592109
83	0xbe2cc431	-0.16871716
84	0xbd9b9e6b	-0.07598575
85	0xbd8ab070	-0.06771934
86	0x3e7b9347	0.245679
87	0xbe0997b8	-0.13436782
88	0xbe2de087	-0.16980182
89	0x3df16db9	0.11788506
90	0x3d2a9bc0	0.04165244
91	0x3dc89751	0.09794486
92	0x3afad540	0.001913704
93	0xbc345f40	-0.0110090375
94	0xbdcc92ae	-0.099889144
95	0x3e14ee62	0.14544061
96	0x3da22c3e	0.07918595
97	0x3e03074d	0.12795754
98	0xbdae6090	-0.085145116
99	0x3e5b7d15	0.21434434
100	0x3dea5ad1	0.11443103
101	0xbf0ac28d	-0.5420311
102	0x3e050108	0.12988675
103	0xbe14b2ca	-0.14521328
104	0xbeb68968	-0.35651708
105	0xbe5946c8	-0.21218407
106	0x399557fa	0.00028485042
107	0xbe1c33c2	-0.15254119
108	0x3ea82086	0.32837313
109	0xbd537093	-0.05162103
110	0xbe2cd2f1	-0.16877343
111	0x3c099fa4	0.008399878
112	0xbd0c3187	-0.03422692
113	0x3d996ef8	0.07491869
114	0x3e152340	0.14564228
115	0xbce20147	-0.0275885
116	0x3d0c4eec	0.034254953
117	0xbdb8a6e9	-0.090162106
118	0xbe015fd9	-0.12634219
119	0xbea94303	-0.33058938
120	0xbf062e31	-0.5241423
121	0xbca80aae	-0.020512905
122	0x3e4dec9b	0.20109789
123	0x3dd8b3b7	0.10581153
124	0xbc346f0d	-0.011012805
125	0x3e03cf1c	0.12871975
126	0xbd078040	-0.033081293
127	0xbc7b88df	-0.015352457
128	0x3d878a01	0.06618119
129	0xbe3674be	-0.17817971
130	0xbc4a758b	-0.012357126
131	0x3dc1fa48	0.094715655
132	0x3cf18a56	0.029484909
133	0xbd90dfbd	-0.07073925
134	0x3e59e1fc	0.21277612
135	0x3e8f9f0b	0.28051028
136	0xbb37f676	-0.0028070486
137	0xbca4675b	-0.020068815
138	0x3e2a78f9	0.1664771
139	0x3e53cac9	0.20682825
140	0x3c844d80	0.016150236
141	0xbe00b972	-0.12570742
142	0xbe0ac497	-0.13551556
143	0xbe4a8f7d	-0.19781299
144	0x3e1c7a09	0.15280928
145	0x3e337a1b	0.17527048
146	0x3e650e8d	0.22368832
147	0xbdef06b1	-0.11671198
148	0x3c730442	0.014832558
149	0x3db4b81b	0.08824178
150	0xbdb7d7ca	-0.08976705
151	0xbe559da5	-0.20860918
152	0x3d20f0b2	0.039292045
153	0x3c444040	0.011978209
154	0xbe873cff	-0.26413724
155	0x3e8dade1	0.27671722
156	0xbe6dee87	-0.23235522
157	0xbd530921	-0.051522378
158	0xbdbb8859	-0.091568656
159	0x3dd3cd1b	0.10341855
160	0x3dd63a09	0.10460288
161	0x3df19e66	0.1179779
162	0xbd4f5468	-0.050617605
163	0x3e2a440f	0.16627525
164	0x3e24abb3	0.16081123
165	0xbe59e830	-0.21279979
166	0xbd0be2ae	-0.034151725
167	0xbe17e938	-0.1483506
168	0xbe4890e2	-0.19586518
169	0xbd106dd5	-0.035260994
170	0x3e804956	0.2505595
171	0xbe8322ee	-0.25612587
172	0x3e2c3c4a	0.16819873
173	0xbdf465da	-0.11933489
174	0xbe0d583c	-0.1380319
175	0x3d69f92b	0.05712239
176	0x3e6ad808	0.22933972
177	0x3dbdbd52	0.092646256
178	0x3cdabeb6	0.026702266
179	0x3e27aa93	0.16373663
180	0x3d7094f0	0.058735788
181	0xbe50506f	-0.20343183
182	0xbd99bdeb	-0.07506927
183	0x3da14247	0.078739695
184	0xbdb5686c	-0.088578075
185	0xbda30f5e	-0.079619154
186	0x3d9eafd3	0.077483796
187	0x3d30ed07	0.043194797
188	0xbeab4b4d	-0.33455887
189	0x3cd882dc	0.026429586
190	0x3c89e777	0.016834004
191	0x3e7e220b	0.24817674
192	0x3df9e644	0.12202123
193	0xbcbbb0e4	-0.022911496
194	0xbd8e57b2	-0.0695032
195	0xbd98aa21	-0.074543245
196	0xbe5311f7	-0.20612322
197	0xbdbd4b32	-0.09242858
198	0xbe1b439c	-0.1516251
199	0xbbb22fbd	-0.0054378198
200	0xbe0eee14	-0.13958007
201	0xbdad361c	-0.08457586
202	0xbee18bc7	-0.44051954
203	0xbddaef78	-0.10690206
204	0x3d0937e5	0.03350057
205	0x3ce94019	0.028472947
206	0xbcc3ec8a	-0.023916502
207	0x3e213184	0.15741545
208	0xbd590017	-0.0529786
209	0x3d9cb3d2	0.076514855
210	0xbd0d1e94	-0.03445299
211	0xbda3c030	-0.07995641
212	0xbd503882	-0.05083514
213	0x3ddc114c	0.107454866
214	0xbdb283e5	-0.08716563
215	0x3b955e49	0.004558359
216	0x3db077f1	0.08616627
217	0x3e5c56a6	0.21517429
218	0xbdc502c9	-0.09619672
219	0xbd850fc1	-0.064971454
220	0x3e1150ae	0.14190933
221	0x3e2f2c28	0.17106688
222	0x3dfd95e9	0.12382109
223	0xbd6df8a1	-0.05809844
224	0x3d19a341	0.037509207
225	0x3d50d9b1	0.050988857
226	0x3ced3aca	0.028958697
227	0x3e4d64cf	0.20057987
228	0xbd8edd41	-0.069757946
229	0xbdad550a	-0.084634855
230	0xbe0f6c07	-0.14006053
231	0x3d0972e4	0.033556834
232	0x3db1d47c	0.08683106
233	0x3bfaae79	0.0076501933
234	0x3d672974	0.056436017
235	0xbc60d36d	-0.013722283
236	0x3e143488	0.14473164
237	0xbced215e	-0.028946575
238	0x3e49a2f4	0.19691068
239	0x3c27da22	0.010244878
240	0x3d19913e	0.03749203
241	0xbd1be7d0	-0.03806287
242	0x3d920e10	0.071315885
243	0x3e340675	0.17580588
244	0xbbf023ee	-0.007328502
245	0xbd90f3de	-0.07077764
246	0xbda33fca	-0.07971151
247	0xbd274cf0	-0.040844858
248	0xbeb545dc	-0.3540486
249	0x3c85e534	0.016344644
250	0xbdb4d64d	-0.08829937
251	0x3e23c258	0.15992105
252	0xbd6bbafc	-0.05755137
253	0x3d333ef3	0.043761205
254	0x3d817dea	0.06322844
255	0xbc4b7700	-0.0124185085

rnn.bias_ih_l0 f4 [192]
0	0xbdcd09f6	-0.100116655
1	0xbe028fcc	-0.12750167
2	0xbe1dec98	-0.15422285
3	0x3d7518f5	0.059838254
4	0xbdf9736d	-0.12180219
5	0x3d3f68dd	0.046730865
6	0x3decf811	0.115707524
7	0x3db16d81	0.08663464
8	0xbe6ec6ee	-0.23318073
9	0x3d847175	0.06466953
10	0x3da9aded	0.08285127
11	0xbbaea42a	-0.0053296285
12	0xbde3e47b	-0.111275636
13	0x3d2d73bc	0.0423467
14	0x3d01833c	0.031619295
15	0x3dc072b7	0.0939688
16	0x3e2b6c0d	0.16740437
17	0x3e03516c	0.12824029
18	0xbdb7e1ae	-0.08978592
19	0xbe02f7aa	-0.12789789
20	0xbc4ba563	-0.012429568
21	0x3e308816	0.17239413
22	0xbb2571cd	-0.0025244833
23	0xbde260d6	-0.11053626
24	0xbd59102d	-0.052993942
25	0x3df60f0a	0.12014587
26	0x3d1c4a19	0.038156603
27	0x3da8a1dc	0.08233997
28	0xbda41e13	-0.08013549
29	0xbce573da	-0.028009344
30	0xbd89db3e	-0.0673127
31	0xbcadbd45	-0.021208415
32	0xbda1b8d3	-0.078965805
33	0x3d80d599	0.062907405
34	0xbc25ff0b	-0.010131608
35	0xbb370b5f	-0.0027930362
36	0xbd3a69ad	-0.045510937
37	0x3e903242	0.28163344
38	0x3d1c317f	0.03813314
39	0x3d3f5a9f	0.046717282
40	0x3c160d61	0.009158463
41	0x3dafa747	0.085768275
42	0x3e335ec8	0.17516625
43	0x3e139abc	0.14414495
44	0xbd22c0c1	-0.039734606
45	0x3e0e3036	0.13885579
46	0x3cd2f05d	0.02574938
47	0x3def968a	0.11698635
48	0xbdaaf7d4	-0.08348051
49	0x3d7d0edf	0.06178176
50	0xbb32f37b	-0.002730577
51	0xbd06d5fb	-0.03291891
52	0x3dd4920f	0.10379421
53	0xbc0ff8b7	-0.008787326
54	0x3d7d9afc	0.061915383
55	0xbda16b42	-0.07881786
56	0x3d052e59	0.032514904
57	0x3de95e15	0.11394898
58	0x3c634584	0.013871554
59	0x3c99a675	0.01875613
60	0x3d965ed2	0.07342304
61	0x3d85ac95	0.06527058
62	0x3bb4cec8	0.0055178143
63	0x3c581a8a	0.013189921
64	0xbd79263e	-0.060827486
65	0xbd4c19ed	-0.049829412
66	0xb99c5a74	-0.00029822032
67	0xbc478007	-0.01217652
68	0x3cf0070c	0.029300235
69	0xbdefdadc	-0.11711666
70	0xbca80998	-0.020512387
71	0xbe50bf36	-0.20385441
72	0xbd13006a	-0.035889067
73	0xbdfdd881	-0.123948105
74	0xbe20f2ce	-0.15717623
75	0x3c86a50c	0.016436122
76	0xbd646c20	-0.05576718
77	0x3e0032a4	0.12519318
78	0xbe910b9d	-0.28329173
79	0x3d545704	0.051840797
80	0xbd666e17	-0.056257334
81	0xbdef2114	-0.11676231
82	0x3bf4d652	0.007471838
83	0x3d087438	0.03331396
84	0xbe2a74ac	-0.1664607
85	0xbd40396c	-0.04692976
86	0xbdbf4bf6	-0.0934066
87	0x3ca4d1fa	0.020119656
88	0x3d15c7fb	0.03656767
89	0xbbaaef3e	-0.005216508
90	0xbdceb45b	-0.10092994
91	0x3ddd30b3	0.10800304
92	0xbc28f4a0	-0.010312229
93	0x3b8b5aa1	0.004252747
94	0xbdac229d	-0.084050395
95	0x3d77e573	0.060521554
96	0xbd1351a8	-0.035966545
97	0xbd7646f9	-0.06012628
98	0xbdf307b3	-0.11866703
99	0x3dbd411f	0.092409365
100	0xbe85740d	-0.26065102
101	0x3e1a7da8	0.15086997
102	0xbe027934	-0.12741548
103	0x37499938	1.2016208e-05
104	0x3d45bd88	0.048276454
105	0x3df1c117	0.11804407
106	0xbdb289b9	-0.08717675
107	0x3dea2be1	0.114341505
108	0x3df536db	0.119733535
109	0x3d042b1b	0.03226767
110	0x3ddfcca5	0.10927705
111	0x3cd27b20	0.025693476
112	0xbe26152c	-0.16219014
113	0xbdb12f2f	-0.08651578
114	0xbdd98d85	-0.10622696
115	0x3e027031	0.1273811
116	0x3b9c1679	0.004763421
117	0xbd461a80	-0.048365116
118	0xbe6d56de	-0.23177668
119	0x3d058a2c	0.032602474
120	0x3d73de66	0.059538268
121	0xbe99098a	-0.2989009
122	0xbe014be6	-0.12626609
123	0x3e4103ab	0.18849055
124	0xbe1be757	-0.15224968
125	0xbe1fdca8	-0.15611517
126	0x3ea5b7cb	0.32366785
127	0x3d7878b9	0.060662005
128	0xbe2db30f	-0.16962837
129	0x3bb10f0a	0.005403404
130	0x3cf7aa3f	0.030232547
131	0xbd33c2fa	-0.043887116
132	0xbe24ea2c	-0.16104954
133	0xbe184236	-0.14869007
134	0xbdbbd3d2	-0.09171261
135	0xbe460690	-0.19338441
136	0x3daf75b3	0.08567371
137	0x3da9cc36	0.08290903
138	0xbc1acbb1	-0.009447978
139	0xbe0d7791	-0.13815142
140	0x3d9b3f5f	0.075804465
141	0x3dc1e91a	0.09468289
142	0x3cf42da0	0.029806912
143	0x3d9e80f9	0.07739443
144	0xbe16e243	-0.1473475
145	0xbd8261fa	-0.06366344
146	0xbd3f30a5	-0.04667725
147	0xbc02ef86	-0.007991677
148	0xbceeac0e	-0.029134776
149	0x3db25fe3	0.08709695
150	0x3dd0ce75	0.101956286
151	0xbcbe02aa	-0.02319463
152	0xbd953ef1	-0.07287396
153	0xbe2bef1d	-0.16790433
154	0xbcb1b52a	-0.021692831
155	0xbe35ffb9	-0.17773332
156	0x3d783ec6	0.06060674
157	0x3dd78f65	0.10525397
158	0x3c0c13d9	0.008549654
159	0x3c2d0111	0.010559336
160	0x3d616e79	0.055036996
161	0x3d17935b	0.037005764
162	0x3d0121e3	0.031526458
163	0xbccfe5a9	-0.025378065
164	0xbd86067f	-0.06544208
165	0x3dd258a9	0.10270817
166	0xbd99b7d4	-0.075057656
167	0x3ddff9fb	0.10936352
168	0x3ba45e03	0.00501609
169	0xbd07b993	-0.03313596
170	0xbd08f56d	-0.03343718
171	0x3e7d9569	0.24764027
172	0xbd473920	-0.048638463
173	0x3e4556f4	0.19271451
174	0x3e015dc3	0.12633424
175	0xbda2b670	-0.079449534
176	0xbdeb3faf	-0.11486756
177	0xbc476bab	-0.012171666
178	0x3ad29a1c	0.0016067657
179	0x3da1dcc4	0.07903436
180	0x3ddeb0f1	0.10873593
181	0x3d93b233	0.07211723
182	0x3d89128e	0.06692992
183	0x3cc5db0a	0.024152298
184	0xbe0d1d2d	-0.13780661
185	0x3d9b31f9	0.07577891
186	0x3d5a751c	0.05333434
187	0x3d92e39f	0.071723215
188	0x3e1ac925	0.15115793
189	0xbe116e00	-0.14202118
190	0xbe92ea3c	-0.28694332
191	0xbdec2c68	-0.11531907

rnn.bias_hh_l0 f4 [192]
0	0x3cd93f25	0.026519367
1	0x3d929793	0.07157817
2	0xbe2470b7	-0.16058622
3	0x3d61239d	0.054965604
4	0xbda8c1b2	-0.082400694
5	0xbd0f9e53	-0.0350631
6	0xbd25b0e0	-0.040451884
7	0xbddcc1cf	-0.107791536
8	0xbe04a25f	-0.12952565
9	0xbc332de2	-0.010936232
10	0xbd5c44db	-0.053776603
11	0xbcf5b508	-0.029993549
12	0xbdcac9ff	-0.09901809
13	0x3e109ed6	0.14123091
14	0x3d2de7e6	0.042457484
15	0x3d785ac8	0.06063345
16	0x3e01fd4e	0.12694284
17	0x3e3f3bfa	0.18675223
18	0xbdf9f595	-0.12205044
19	0xbe125ce8	-0.14293253
20	0x3b82d503	0.003992678
21	0x3db99c85	0.09063057
22	0xbd1ebf56	-0.03875669
23	0xbe2029f2	-0.15641001
24	0xbb1c6867	-0.002386594
25	0x3d4a1357	0.04933485
26	0xbd512017	-0.051055994
27	0xbd76071f	-0.060065385
28	0xbd3cec0d	-0.046123553
29	0x3e0071b0	0.12543368
30	0xbd0b336a	-0.03398458
31	0x3d2be318	0.04196462
32	0xbd9ca3bb	-0.076484166
33	0x3bdd268b	0.0067489794
34	0x3dbe8db0	0.093043685
35	0x3e3f6708	0.18691647
36	0xbdc816f7	-0.09770005
37	0x3d982c54	0.0743033
38	0x3e14f756	0.14547476
39	0xbd8f0e6c	-0.06985173
40	0x3d93850b	0.0720311
41	0x3dfdb2a3	0.12387588
42	0x3e164e59	0.14678325
43	0x3e1b1e18	0.15148199
44	0x3cc2384e	0.023708489
45	0x3d7a783f	0.06114983
46	0x3e0bd565	0.13655622
47	0x3da32508	0.079660475
48	0xbd8bcba8	-0.06825954
49	0xbe0412db	-0.12897818
50	0xbd9bda3e	-0.07609986
51	0x3b431004	0.0029764185
52	0xbdd21892	-0.10258593
53	0xbe2a0ad2	-0.1660569
54	0xbcf76410	-0.03019908
55	0xbdb2b809	-0.08726508
56	0x3e0922d1	0.13392188
57	0x3de6316a	0.11239894
58	0xbd491626	-0.049093388
59	0x3dbef2fd	0.0932369
60	0x3e3ce72b	0.18447559
61	0xbe020e46	-0.12700757
62	0x3e0fe357	0.14051567
63	0x3d02e500	0.031956673
64	0xbd806dad	-0.06270919
65	0x3c778d53	0.015109378
66	0x3dd9d600	0.106365204
67	0xbd6acfff	-0.057327267
68	0x3e35ec62	0.17765954
69	0xbd8ed6dd	-0.06974576
70	0x3d81dd1c	0.063410014
71	0xbe2092f9	-0.15681066
72	0x3d323751	0.043509785
73	0xbe7ffc81	-0.24998666
74	0xbe5dcecd	-0.2166092
75	0xbd3be9cc	-0.045877263
76	0xb92107b2	-0.00015357023
77	0x3e06dce8	0.13170207
78	0xbeab2ee4	-0.33434212
79	0x3e78246c	0.24232644
80	0xbda7769f	-0.08176922
81	0xbdb8d3db	-0.09024783
82	0xbe1e0c16	-0.15434298
83	0xbe210fc4	-0.1572867
84	0xbe0487ac	-0.1294238
85	0xbdc76a9d	-0.09737132
86	0x3dcecf24	0.10098103
87	0x3d8a6eec	0.06759438
88	0x3e05422b	0.13013522
89	0xbd4a2630	-0.049352825
90	0xbbb68d48	-0.0055710413
91	0xbd84c367	-0.064825825
92	0xbdd7f05e	-0.10543893
93	0xbc606c9a	-0.013697768
94	0xbe1f8101	-0.15576555
95	0x3d9286ef	0.07154643
96	0xbe219cab	-0.1578242
97	0xbe20b68e	-0.15694639
98	0xbe1fb260	-0.15595388
99	0x3dc1f159	0.094698615
100	0xbd7a8e11	-0.06117064
101	0x3e1cbb9a	0.1530594
102	0xbc95f3a2	-0.01830465
103	0x3adb62eb	0.0016737854
104	0x3cb101cd	0.021607304
105	0x3d3e5b1d	0.04647361
106	0xbe796c96	-0.24357828
107	0xbda360af	-0.07977425
108	0x3db9e5ea	0.09077056
109	0x3d4ba287	0.049715545
110	0x3dbade13	0.091243885
111	0xbdd1d244	-0.10245183
112	0xbe4835c7	-0.19551764
113	0x3df47d46	0.119379565
114	0xbd7f9e53	-0.06240685
115	0x3ca4ffe0	0.020141542
116	0x3d3e1558	0.046407074
117	0x3c2489c1	0.010042609
118	0xbdea4552	-0.11439003
119	0x3dfbe258	0.12299031
120	0x3de95402	0.11392976
121	0xbe02b3fc	-0.12763971
122	0xbc64a736	-0.013955882
123	0x3dfbc659	0.12293691
124	0xbe630bf9	-0.22172536
125	0xbe34133f	-0.17585467
126	0x3eb612c8	0.35561204
127	0xbd2216d2	-0.039572544
128	0xbd36592a	-0.044518627
129	0x3ddbe629	0.10737259
130	0xbd7f4524	-0.062321797
131	0xbdd32889	-0.10310466
132	0xbda952d5	-0.08267752
133	0xbd199902	-0.037499435
134	0xbe1673cd	-0.14692612
135	0xbdb53fad	-0.08850036
136	0xbccbda4a	-0.024884362
137	0x3dcb0104	0.09912303
138	0xbdff2d79	-0.12459845
139	0xbdd69560	-0.1047771
140	0x3d2b1a99	0.041773412
141	0x3e6385e6	0.22219047
142	0x3dcce8ed	0.100053646
143	0x3e2764b6	0.16347012
144	0xbdcc8f63	-0.09988286
145	0xbe29aa47	-0.16568862
146	0x3db7e2ba	0.089787915
147	0x3d4ff793	0.050773215
148	0xbe0a6ecb	-0.13518827
149	0x3d54e276	0.051973782
150	0x3e0f6fbc	0.14007467
151	0x3e1495c9	0.14510264
152	0xbd88dfa3	-0.0668328
153	0xbe775333	-0.24152832
154	0x3dd89cb6	0.10576765
155	0xbdbe828d	-0.09302244
156	0xbbe225e5	-0.00690149
157	0x3d1138ca	0.03545455
158	0xbdb104aa	-0.08643468
159	0xbd4d085c	-0.0500568
160	0xbe06ab5b	-0.13151304
161	0xbe01d6aa	-0.12679544
162	0x3d91841e	0.071052775
163	0xbd5195fa	-0.05116842
164	0x3e2272d0	0.1586411
165	0x3db6a063	0.0891731
166	0xbd2e5413	-0.04256065
167	0x3dd628af	0.104569785
168	0x3c5a9006	0.013340002
169	0x3be05163	0.0068456396
170	0xbe1e5515	-0.15462144
171	0x3e637f83	0.2221661
172	0xbdae437b	-0.08508965
173	0x3e46cef2	0.19414881
174	0x3dfc12eb	0.12308296
175	0xbd90cea8	-0.070706666
176	0xbd542de2	-0.05180157
177	0xbddc2092	-0.107484
178	0xbd3245db	-0.04352365
179	0xbdaff2e3	-0.08591249
180	0x3c128067	0.008941746
181	0xbe3909d9	-0.18070163
182	0x3d3b649f	0.045750257
183	0x3dca911f	0.09890961
184	0xbe099613	-0.13436155
185	0xbde59ea0	-0.11211896
186	0xbdc3b428	-0.095558465
187	0xbd9dd8dd	-0.07707379
188	0x3e1abffb	0.15112297
189	0xbb2986e9	-0.0025867766
190	0xbd98cf49	-0.074614115
191	0x3d1a6d23	0.037701737

rnn.weight_ih_l1 f4 [192, 64]
0	0xbe496fd6	-0.19671568
1	0xbef0c05f	-0.47021767
2	0xbd84461c	-0.06458685
3	0x3ec8df03	0.39232644
4	0x3e823180	0.2542839
5	0xbee33181	-0.44373706
6	0xbcb565d2	-0.022143278
7	0x3db49765	0.08817939
8	0x3da10dcf	0.07863962
9	0xbeb98c5c	-0.36239898
10	0x3d9ef661	0.07761837
11	0x3de708b3	0.11280956
12	0xbe1e4fc8	-0.15460122
13	0xbe40ed00	-0.18840408
14	0x3d377380	0.044787884
15	0xbe5c932e	-0.2154052
16	0x3eab18c1	0.33417323
17	0x3e18416c	0.14868706
18	0xbd1df99f	-0.038568135
19	0x3da69908	0.08134657
20	0x3e815cf1	0.2526622
21	0xbec82058	-0.39087176
22	0xbddd64d9	-0.10810251
23	0xbefe038c	-0.4961208
24	0xbdbad03f	-0.09121751
25	0xbeaaf56d	-0.3339037
26	0xbe36bc62	-0.178453
27	0xbde19fd2	-0.110168114
28	0xbe0c5509	-0.13704313
29	0xbe09cd4d	-0.13457222
30	0x3bbfbc10	0.005851276
31	0x3e13b83e	0.14425752
32	0x3ec6b7cd	0.38812104
33	0x3e37f03d	0.17962737
34	0xbe3f9b30	-0.18711543
35	0x3e26fae9	0.16306652
36	0x3d7c89f0	0.061654985
37	0xbea01cbd	-0.31271926
38	0x3c66bce6	0.014083123
39	0xbe3b7d8f	-0.18309616
40	0xbeb2738a	-0.34853774
41	0xbde5d64c	-0.112225145
42	0x3ee5258a	0.44755203
43	0xbc0fdbbe	-0.008780418
44	0x3df127b3	0.1177515
45	0xbd068ff2	-0.03285212
46	0xbdacf944	-0.08445981
47	0x3e99fae3	0.30074224
48	0xbe0ed213	-0.13947324
49	0x3ba5c658	0.005059045
50	0x3de9a584	0.11408523
51	0x3c5752f2	0.013142334
52	0xbea5df0d	-0.32396737
53	0xbe00672c	-0.12539357
54	0xbec53ed6	-0.38524503
55	0xbe9e4f37	-0.3091981
56	0xbe4a4be1	-0.19755508
57	0xbec811fb	-0.39076218
58	0xbeb0fc37	-0.34567425
59	0xbdfb879b	-0.12281724
60	0x3e1115a5	0.14168413
61	0x3da0595d	0.07829545
62	0x3cece0f8	0.028915867
63	0x3e4471d7	0.19184051
64	0xbeb756e1	-0.3580847
65	0x3e85eecb	0.26158747
66	0xbd30e66a	-0.04318849
67	0xbf24cffb	-0.64379853
68	0xbc65faf4	-0.014036883
69	0x3e48b585	0.19600494
70	0xbe4e853b	-0.20168011
71	0x3ed5c7b2	0.41753918
72	0xbd07675b	-0.03305755
73	0x3d45952c	0.048237965
74	0xbd0dadc6	-0.03458955
75	0xbcba578a	-0.02274682
76	0x3dc64a1a	0.096821025
77	0xbbc021eb	-0.0058634183
78	0xbed2b861	-0.41156295
79	0x3d39f30c	0.045397803
80	0xbe96a34f	-0.2942147
81	0xbe11e20f	-0.14246391
82	0x3e09971d	0.13436551
83	0xbe58b9c0	-0.21164608
84	0xbdbae70a	-0.091260985
85	0x3f033aed	0.5126179
86	0xbd8c25d7	-0.06843155
87	0x3ec4df21	0.38451484
88	0x3d517315	0.05113514
89	0xbd15962e	-0.036520176
90	0x3caa78e2	0.020809595
91	0xbda896d7	-0.082318954
92	0x3e9fff21	0.31249335
93	0xbea47019	-0.32116774
94	0xbe3217f0	-0.17391944
95	0x3cf0e9c7	0.029408349
96	0x3e7359a9	0.23764671
97	0x3e3d3214	0.18476135
98	0xbe8683f6	-0.26272553
99	0x3cd93860	0.02651614
100	0x3e1ff494	0.15620643
101	0xbd762d39	-0.06010172
102	0xbf0bcf57	-0.5461325
103	0x3d60c81b	0.054878335
104	0xbe03afdf	-0.12860058
105	0xbd3be53a	-0.045872904
106	0x3d20057b	0.039067727
107	0xbc1cea67	-0.00957737
108	0xbcabf6ca	-0.020991702
109	0x3dfbcb3c	0.12294623
110	0xbe3b6204	-0.18299109
111	0xbf07428c	-0.5283592
112	0xbe4e9cad	-0.20176955
113	0xbdae4c1c	-0.085106105
114	0x3d99b1f8	0.07504648
115	0x3df680d9	0.120362945
116	0xbe2e198a	-0.1700193
117	0x3c617362	0.01376042
118	0x3f312b10	0.69206333
119	0x3cbd3d52	0.023100529
120	0xbda19db9	-0.07891411
121	0x3e4754dc	0.19465965
122	0xbde1df1e	-0.11028884
123	0x3e33e239	0.17566766
124	0xbdd7cf22	-0.10537554
125	0xbeaee9e6	-0.34162825
126	0xbe1bcf52	-0.15215805
127	0xbf1cb91f	-0.6121997
128	0xbe97ceba	-0.29649907
129	0xbc262c5e	-0.010142414
130	0x3db43f75	0.08801166
131	0x3e822b1d	0.25423518
132	0xbc055014	-0.008136768
133	0x3f35461f	0.7081012
134	0xbefb76e4	-0.49114144
135	0xbf1cdf6a	-0.612784
136	0x3d00036b	0.03125326
137	0x3f11a332	0.5688964
138	0x3ec2dd16	0.380593
139	0x3dda761d	0.106670596
140	0x3eeca4cf	0.4621949
141	0x3c5c7500	0.013455629
142	0x3f4bda93	0.7963039
143	0x3cdab338	0.026696786
144	0xbe9bd4bc	-0.3043574
145	0xbe3611d9	-0.17780246
146	0xba8ee547	-0.001090207
147	0xbe15f3a3	-0.14643721
148	0xbd5ed26f	-0.054399904
149	0xbe407880	-0.18795967
150	0xbcc5decd	-0.024154091
151	0xbe04e11b	-0.12976496
152	0x3e2b5e8b	0.16735284
153	0xbe332d42	-0.17497733
154	0x3e01d1d5	0.12677701
155	0xbddedb84	-0.10881713
156	0xbea709fd	-0.32624808
157	0x3dd0717e	0.10177897
158	0xbbce8813	-0.0063028424
159	0x3dad0b3c	0.084494084
160	0xbedb7da7	-0.42869303
161	0xbe1c68e1	-0.15274383
162	0x3e36242a	0.17787233
163	0xbddf8e56	-0.1091582
164	0xba86b486	-0.0010277189
165	0xbb0106fb	-0.0019687999
166	0x3d6a784a	0.057243623
167	0xbce3816e	-0.027771678
168	0x3e1d2d21	0.15349247
169	0x3da2fbce	0.07958184
170	0xbf3c69ba	-0.73598826
171	0xbd9169ed	-0.07100282
172	0xbe56d9d6	-0.20981535
173	0xbe3594ec	-0.1773259
174	0xbd1b152e	-0.037861995
175	0x3ed3a090	0.41333437
176	0x3bc8232a	0.0061077075
177	0x3e8f3915	0.27973238
178	0xbe3d4598	-0.18483579
179	0xbbcc6714	-0.006237874
180	0x3f0eaae3	0.557295
181	0xbdab6bb1	-0.0837015
182	0xbeeb58ec	-0.4596628
183	0x3e19633a	0.14979258
184	0xbe0c7fc9	-0.13720621
185	0xbdeb7e69	-0.1149872
186	0x3ea13181	0.3148308
187	0xbe9220c5	-0.28540626
188	0x3e042499	0.12904586
189	0xba4a7300	-0.0007722825
190	0xbd3a40f5	-0.045472104
191	0x3ba2374d	0.00495044
192	0x3e8730c2	0.26404387
193	0x3d3bda7e	0.045862667
194	0xbb8f5411	-0.004374035
195	0xbe7b0e78	-0.24517238
196	0x3da407e9	0.08009321
197	0xbd587279	-0.052843545
198	0xbe742123	-0.23840766
199	0x3e8d3b6b	0.27584395
200	0x3e1d1a98	0.15342176
201	0xbe6f21f9	-0.23352803
202	0x3ed85b3e	0.42257112
203	0xbda2c433	-0.07947578
204	0xb308878c	-3.1788247e-08
205	0x3e41ca9f	0.1892495
206	0x3e76e894	0.24112159
207	0x3dafdd0a	0.08587082
208	0xbe2d360d	-0.1691515
209	0xbe2cc3d3	-0.16871576
210	0xbe0d173d	-0.13778396
211	0x3d44c198	0.048036188
212	0x3bf26ce4	0.0073982347
213	0x3e0812f5	0.13288482
214	0xbc068b15	-0.008211871
215	0x3eda78ee	0.42670387
216	0x3dbdda8f	0.09270202
217	0xbcb131e3	-0.021630233
218	0xbd8d6a9d	-0.069051005
219	0xbc8fc6a0	-0.017550766
220	0xbdc07e12	-0.09399046
221	0x3e038f00	0.12847519
222	0x3e92afb7	0.28649685
223	0xbd65e267	-0.056124117
224	0xbd70f14e	-0.058823876
225	0xbdd60026	-0.10449247
226	0x3dac5e20	0.084163904
227	0xbdcb9974	-0.09941378
228	0x3d8997f2	0.067184344
229	0x3d80220b	0.06256493
230	0xbe09496f	-0.13406919
231	0x3e5f9da1	0.21837474
232	0xbc0ff573	-0.008786547
233	0xbe0fc8e1	-0.14041473
234	0x3b929644	0.0044734795
235	0x3e39da4f	0.18149684
236	0xbd495a4b	-0.049158376
237	0x3e1814d5	0.14851697
238	0xbcedd963	-0.029034322
239	0xbd3d402c	-0.046203777
240	0xbda849f5	-0.08217231
241	0xbb943fc6	-0.004524204
242	0xbeb1c7b0	-0.34722662
243	0xbd7d4c7d	-0.061840523
244	0x3e9b4f0d	0.30333748
245	0x3e9f0097	0.31055138
246	0xbe12a243	-0.1431971
247	0xbdd0ada1	-0.10189367
248	0xbd94d8de	-0.07267927
249	0x3f09fd73	0.5390236
250	0xbb8699c9	-0.004107688
251	0xbe4f9434	-0.20271379
252	0x3e1e92d6	0.15485701
253	0x3d858ddf	0.065212004
254	0xbe2719d6	-0.1631845
255	0xbe2eeffb	-0.17083733

rnn.weight_hh_l1 f4 [192, 64]
0	0x3e61d37f	0.22053336
1	0xbc26de2b	-0.010184805
2	0xbee5ff2f	-0.44921252
3	0x3e892ff4	0.26794398
4	0x3ec30f17	0.3809745
5	0x3dc4cdd4	0.09609571
6	0x3eb17679	0.346607
7	0x3e5d69fd	0.21622463
8	0x3e9aeb4b	0.3025764
9	0xbe9a8cf5	-0.30185667
10	0xbe135176	-0.14386544
11	0xbe8062ac	-0.2507528
12	0xbe10d525	-0.14143808
13	0x3db7c4ac	0.08973059
14	0xbe1a2ea7	-0.15056859
15	0x3e698505	0.22804649
16	0x3d1e05b0	0.038579643
17	0x3f0ec40d	0.557679
18	0xbc9eb323	-0.019372528
19	0x3d030fd9	0.031997535
20	0x3ee9ff4e	0.45702595
21	0x3dd730e9	0.10507376
22	0xbd185e1a	-0.037199117
23	0xbdf0e7b8	-0.11762947
24	0x3d814239	0.06311459
25	0x3c6a20e3	0.014290067
26	0x3e671ff7	0.22570787
27	0x3ec6cf22	0.38829905
28	0xbf0a487f	-0.5401687
29	0xbd7f8118	-0.062378973
30	0x3e9c4c05	0.30526748
31	0x3ec87127	0.39148828
32	0x3e2e60f9	0.1702918
33	0x3eddc071	0.43310884
34	0x3e533426	0.20625362
35	0x3e52c668	0.20583498
36	0x3ebc1e72	0.36741978
37	0xbdfc651a	-0.12323971
38	0xbe886436	-0.26638955
39	0x3c74adb5	0.014933993
40	0xbe0fefe5	-0.14056356
41	0xbeade168	-0.33961034
42	0xbe91b8dc	-0.2846135
43	0x3eb6d31d	0.35707942
44	0x3e5c5303	0.21516041
45	0x3d7f3969	0.06231061
46	0x3e87791b	0.26459584
47	0x3dde2053	0.10846009
48	0x3e498dc0	0.1968298
49	0x3b944ac5	0.004525515
50	0xbdf1ddb8	-0.118098676
51	0xbe8192c2	-0.2530728
52	0xbd48ac67	-0.04899254
53	0xbccf762c	-0.025324903
54	0xbcfe89e3	-0.031071609
55	0x3e1ec10c	0.15503329
56	0xbdb8b7da	-0.09019442
57	0x3bc17118	0.0059033744
58	0xbce637ad	-0.02810272
59	0xbf08fecb	-0.53513783
60	0xbee01484	-0.43765652
61	0x3d510607	0.05103114
62	0xbd373f61	-0.044738177
63	0x3d9729c8	0.07381016
64	0x3d92c4a9	0.07166416
65	0xbe3e31c6	-0.18573675
66	0xba3f841a	-0.00073057564
67	0x3c81319d	0.015770728
68	0x3dd521bb	0.10406824
69	0xbd6c37af	-0.05767029
70	0x3da62ff0	0.08114612
71	0x3dd4d3b1	0.103919394
72	0x3dca7ba3	0.09886863
73	0xbda23efb	-0.07922169
74	0x3d9ae365	0.07562903
75	0xbeb6e206	-0.35719317
76	0xbd4e1bb4	-0.05031939
77	0x3e364b89	0.17802252
78	0xbedd1890	-0.43182802
79	0x3ec69e45	0.38792625
80	0x3c8355a5	0.01603205
81	0xbd8a4871	-0.06752098
82	0x3e7a1094	0.24420387
83	0x3bebb57c	0.0071932655
84	0x3d63f612	0.055654593
85	0x3d33f039	0.043930266
86	0x3e627804	0.22116095
87	0x3c1f05de	0.009705989
88	0xbda44c28	-0.08022338
89	0x3ea96fe2	0.33093172
90	0x3e2c10f9	0.1680335
91	0xbdd05d3d	-0.10174034
92	0x3db305b9	0.08741326
93	0xbcc5ae32	-0.024130914
94	0xbd7447e3	-0.05963887
95	0x3e143f4f	0.14477275
96	0x3cdc0bbc	0.026861064
97	0xbc812d81	-0.015768768
98	0xbd6bc7db	-0.057563644
99	0xbd8fe4db	-0.070260726
100	0x3c2ec0bd	0.01066607
101	0xbe7ea179	-0.24866284
102	0x3e5ccf05	0.21563347
103	0x3df38a70	0.11891639
104	0x3c64cfbb	0.013965542
105	0xbece4957	-0.4029033
106	0xbd3dae08	-0.046308547
107	0xbe9e814e	-0.30958027
108	0x3d9d2818	0.07673663
109	0x3d1dbaab	0.0385081
110	0x3eeacdf8	0.45860267
111	0xbe2f3fac	-0.17114133
112	0xbd60c44a	-0.054874696
113	0xbe425261	-0.18976738
114	0xbe3d37c8	-0.1847831
115	0xbe1bacd1	-0.15202643
116	0x3df6c983	0.12050154
117	0xbe4ec9d2	-0.20194176
118	0x3dfa671d	0.122266985
119	0xbdabdfb2	-0.08392276
120	0x3d32827b	0.043581467
121	0xbea86ac1	-0.32893947
122	0xbd80a52f	-0.06281506
123	0xbb5c27cb	-0.0033593054
124	0xbce87df5	-0.028380373
125	0x3da432e1	0.08017517
126	0x3e2650ee	0.1624181
127	0xbc41e71a	-0.011834884
128	0x3d31895a	0.04334388
129	0xbe847856	-0.2587306
130	0xbef30a9c	-0.47469032
131	0x3d807417	0.062721424
132	0x3d56cfd6	0.0524443
133	0x3cdac04d	0.026703024
134	0x3cebc6f4	0.028781392
135	0xbdf96b7c	-0.12178704
136	0xbd5ea196	-0.05435332
137	0xbf159412	-0.5842906
138	0xbde66e9f	-0.11251568
139	0x3dcaccfe	0.099023804
140	0x3e359e07	0.17736064
141	0x3e22bff6	0.1589354
142	0x3d1021da	0.035188533
143	0xbda14b02	-0.07875635
144	0xbf03b42b	-0.5144679
145	0x3e677772	0.22604159
146	0xbed93717	-0.42424843
147	0x3e05ce7f	0.13067053
148	0x3eb2895d	0.34870425
149	0x3dbdbf02	0.092649475
150	0x3d2cb046	0.042160295
151	0x3e9ac1ec	0.30226076
152	0x3df605eb	0.120128475
153	0x3db8ec14	0.09029403
154	0xbe3df04e	-0.185487
155	0xbd5bc9ea	-0.053659357
156	0x3ef7d84a	0.48407203
157	0x3dba84f0	0.09107387
158	0xbe676dbb	-0.22600453
159	0xbd08a69a	-0.03336201
160	0xbe2d9183	-0.1695004
161	0x3e2e3ae0	0.17014647
162	0xbe57fca0	-0.21092463
163	0x3bf85417	0.0075783837
164	0x3e85e1e2	0.26148897
165	0x3e26f4e5	0.16304357
166	0xbdd4fd6d	-0.103999
167	0xbd275723	-0.040854584
168	0x3e77a748	0.24184906
169	0x3e6da6a5	0.23208101
170	0x3d861c2c	0.06548342
171	0x3d1a482f	0.037666496
172	0x3e497ace	0.19675753
173	0xbd5acc4b	-0.053417485
174	0xbe0c635f	-0.13709782
175	0x3db3d0a3	0.08780029
176	0x3e6ed968	0.23325121
177	0x3d5259a7	0.05135503
178	0xbee4ace4	-0.44663155
179	0x3dbcc814	0.092178494
180	0xbe6a7cfa	-0.22899237
181	0xbe8d8eec	-0.27648103
182	0x3d985e0c	0.07439813
183	0x3d9c3ff4	0.076293856
184	0xbbc6dd22	-0.0060688416
185	0x3ef84bbe	0.48495287
186	0x3d65fef1	0.056151334
187	0xbe267b5b	-0.16257994
188	0x3ca3b1b4	0.019982196
189	0xbd6511b8	-0.0559251
190	0xbdd28cd8	-0.1028077
191	0x3d0386ce	0.03211098
192	0x3d5311c8	0.05153063
193	0xbdf81f83	-0.121153854
194	0x3d5fa9ab	0.054605167
195	0xbe1bd392	-0.15217426
196	0xbe30efbe	-0.17278954
197	0xbe3b1317	-0.18269001
198	0xbdfd1fc9	-0.12359578
199	0xbdefb4fc	-0.11704442
200	0xbd385fad	-0.04501312
201	0x3dcb0708	0.099134505
202	0x3c045254	0.008076269
203	0x3df6283b	0.12019392
204	0x3d5bb8c7	0.053643014
205	0x3e979932	0.29609066
206	0xbe297d5d	-0.16551729
207	0xbcca94ae	-0.0247291
208	0x3e095f32	0.1341522
209	0xbe7db726	-0.24776897
210	0x3e09a258	0.13440835
211	0x3edfa213	0.4367834
212	0x3d33739b	0.04381142
213	0xbeba0391	-0.36330846
214	0x3eaad5c1	0.33366206
215	0xbea05649	-0.3131583
216	0xbec673c6	-0.38760203
217	0x3e0226f3	0.1271017
218	0xbdab996b	-0.083788715
219	0xbf1d5276	-0.6145395
220	0x3e7a5efd	0.24450298
221	0xbf094a16	-0.5362867
222	0xbdc13116	-0.094331905
223	0x3c0aa7aa	0.008462826
224	0x3d74ac93	0.059734892
225	0x3ebb9a20	0.36641026
226	0xbdcd1494	-0.100136906
227	0xbca57d05	-0.020201216
228	0xbf0697b3	-0.52575225
229	0xbcd112a7	-0.02552159
230	0xbe8b9ac9	-0.2726653
231	0xbdb0da72	-0.08635415
232	0xbe94ae65	-0.29039302
233	0x3c78f806	0.015195852
234	0x3dc282e4	0.09497622
235	0xbe667439	-0.22505273
236	0xbec30e6e	-0.38096946
237	0xbdb0d1e7	-0.08633786
238	0xbd7dcf3e	-0.06196522
239	0xbdc44813	-0.095840596
240	0xbbcb1cfa	-0.0061985226
241	0xbdc88282	-0.097905174
242	0xbcfd12c6	-0.030892741
243	0x3eade357	0.3396251
244	0xbe8ebaa0	-0.2787676
245	0xbe3db517	-0.18526112
246	0x3dd74bfa	0.10512538
247	0xbdd6872c	-0.10475001
248	0x3d8c74c6	0.0685821
249	0xbddf3e45	-0.10900549
250	0x3daaaadd	0.08333371
251	0x3dbebd3b	0.093134366
252	0x3e4e3d15	0.20140488
253	0xbd0b8507	-0.03406241
254	0xbea1eed8	-0.31627536
255	0xbe38de2f	-0.18053506

rnn.bias_ih_l1 f4 [192]
0	0xbe2711fe	-0.16315457
1	0xbd267002	-0.040634163
2	0x3e095fd4	0.13415462
3	0x3d102a0f	0.03519636
4	0xbc870bc1	-0.016485097
5	0x3d83e372	0.06439866
6	0x3e04a13e	0.12952134
7	0x3e431d09	0.19054045
8	0xbd80f181	-0.06296063
9	0x3d4f8c69	0.050671015
10	0x3e14530d	0.14484806
11	0x3e593f26	0.21215495
12	0x3e504e95	0.20342477
13	0xbe16ec2d	-0.14738531
14	0xbe1c8f91	-0.15289141
15	0xbd746936	-0.05967065
16	0x3d96aaa7	0.07356768
17	0x3dd20d1f	0.10256409
18	0x3bae31f8	0.0053160153
19	0x3dea0179	0.11426062
20	0xbd1e437e	-0.038638584
21	0x3d3b0fe8	0.045669466
22	0xbb0ba171	-0.0021305943
23	0xbdf4d0ca	-0.11953886
24	0xbdbaa2b2	-0.09113063
25	0x3d83825a	0.06421347
26	0x3ca8a7d2	0.020587835
27	0x3d223178	0.03959796
28	0x3ddca6eb	0.107740246
29	0xbded1007	-0.115753226
30	0x3e4da67e	0.20083043
31	0x3e1e6d24	0.15471321
32	0x3d24c8ed	0.04023068
33	0xbd8b6403	-0.06806185
34	0xbbfaff4f	-0.0076598297
35	0x3cbbfdec	0.022948228
36	0x3d02a76f	0.03189796
37	0x3ddcf187	0.10788255
38	0x3d29968f	0.04140335
39	0x3c91c3bb	0.017793527
40	0x3de41d38	0.111383855
41	0xbd37e1d8	-0.044893116
42	0xbce011a3	-0.02735216
43	0xbdb6e59a	-0.08930512
44	0x3c9fdf27	0.019515587
45	0xbd5ef55b	-0.054433208
46	0xbdb8a713	-0.09016242
47	0x3c970c03	0.018438345
48	0xbe150476	-0.14552483
49	0x3d163d0a	0.036679305
50	0xbdc733e1	-0.09726692
51	0x3d84e6ba	0.0648932
52	0xbde15524	-0.110025674
53	0x3e5e3c0c	0.21702594
54	0xbd247c38	-0.040157527
55	0x3b080acf	0.0020758396
56	0x3d7ecad0	0.062205136
57	0xbd6dcee4	-0.058058634
58	0x3c1f8d03	0.00973821
59	0xbc57895e	-0.0131553095
60	0x3daaeb5d	0.08345673
61	0x3cc4ecf7	0.024038775
62	0xbcb430eb	-0.021995982
63	0xbd1eb916	-0.03875073
64	0xbda6109f	-0.08108639
65	0xbd736d35	-0.05943032
66	0xbdecbe6f	-0.1155976
67	0xbdcb7ae6	-0.099355504
68	0x3b8b223f	0.004246026
69	0xb76a7baf	-1.3976284e-05
70	0xbe040a54	-0.12894565
71	0x3d45db5e	0.048304908
72	0xbdca4c7e	-0.09877871
73	0xbe42e54e	-0.19032785
74	0xbdcb8a90	-0.09938538
75	0x3b8ebb01	0.0043557887
76	0xbd504918	-0.050850958
77	0x3cef590f	0.029217271
78	0x3c819ef2	0.015822861
79	0xbd36d8a7	-0.04464021
80	0xbcea5ec7	-0.028609646
81	0xbe161865	-0.14657743
82	0xbdab91e2	-0.08377434
83	0x3ce5457c	0.027987234
84	0x3d47a3ee	0.04874032
85	0x3d249572	0.040181585
86	0x3d3bba7e	0.04583215
87	0xbdf284c5	-0.1184173
88	0xbe0f43f4	-0.13990766
89	0xbbdf4b60	-0.0068144053
90	0xbdac5a69	-0.08415682
91	0xbd3a1508	-0.045430213
92	0xbe935e6b	-0.28782973
93	0xbd751f92	-0.05984456
94	0xbe02a9da	-0.12760106
95	0xbd99d8b1	-0.07512034
96	0xbcf94c88	-0.030432
97	0xbd3eeeda	-0.046614505
98	0x3d9c1898	0.076218784
99	0x3da9abbd	0.082847096
100	0xbe03ae07	-0.12859355
101	0xbcc92e78	-0.02455829
102	0xbdc28e6f	-0.09499823
103	0xbd179bda	-0.037013866
104	0xbe1d5c91	-0.15367343
105	0xbddeb141	-0.10873652
106	0xbd0a8208	-0.033815414
107	0xbdf851e1	-0.12124992
108	0x3b0ceced	0.0021503523
109	0xbd5e844c	-0.054325387
110	0xbdb7295d	-0.08943436
111	0xbd08ec0c	-0.033428237
112	0xbde257c0	-0.11051893
113	0x3c10c8c7	0.008836932
114	0x3cf0d098	0.02939634
115	0xbe3aa0ad	-0.18225355
116	0xbe416245	-0.18885143
117	0xbd0ad902	-0.03389836
118	0xbdc661b3	-0.096866034
119	0x3d2c0cca	0.042004384
120	0xbdc80ca5	-0.09768037
121	0xbca3f7a3	-0.020015543
122	0xbde37f08	-0.11108214
123	0xbd6358d7	-0.055504646
124	0xbe12d1e3	-0.14337878
125	0xbd3b479f	-0.0457226
126	0xbdd232dd	-0.10263608
127	0x3d853184	0.06503585
128	0x3d95a253	0.073063515
129	0x3da3de12	0.08001341
130	0x3d997126	0.074922845
131	0x3d0d879a	0.034553148
132	0xbd964137	-0.073366575
133	0xbe0939a6	-0.13400897
134	0xbdda5b5d	-0.106619574
135	0xbe80cf87	-0.2515833
136	0x3daf7d60	0.08568835
137	0x3db05926	0.08610754
138	0xbdf42672	-0.11921395
139	0x3d13dfdb	0.036102157
140	0x3e3fc822	0.18728688
141	0x3df64361	0.1202457
142	0xbe03d1ed	-0.12873049
143	0xbdeb889d	-0.11500666
144	0x3df15169	0.11783106
145	0xbd714ba9	-0.058910046
146	0xbe81af6f	-0.25329158
147	0x3e498bcf	0.19682239
148	0xbc874b3d	-0.016515369
149	0x3da86c45	0.08223776
150	0x3dafa45a	0.085762694
151	0xbd679638	-0.056539744
152	0x3d72fe0c	0.05932431
153	0x3baa4be7	0.0051970365
154	0xbe0df1e4	-0.13861805
155	0xb9b40e1e	-0.00034342794
156	0x3df99cad	0.12188087
157	0x3d7c8122	0.06164659
158	0xbd8cfdaa	-0.0688432
159	0xbe14f004	-0.14544684
160	0x3de10db9	0.109889455
161	0x3dc4fd5b	0.09618636
162	0xbe3df70d	-0.18551274
163	0xbd932f11	-0.071867116
164	0xbdf277d8	-0.11839265
165	0x3dcd21af	0.1001619
166	0x3ad2ab78	0.001607283
167	0xbe144701	-0.14480211
168	0xbd3b15f8	-0.045675248
169	0xbc8b7d59	-0.017027544
170	0xbd52c921	-0.051461343
171	0xbdc81f6c	-0.09771618
172	0xbe37491d	-0.17898984
173	0xbdf95df9	-0.12176127
174	0xbdbee6e3	-0.09321382
175	0x3d06645e	0.03281056
176	0xbdb6616b	-0.089053
177	0xbe1f0c6d	-0.15532084
178	0xbc822bc5	-0.015890012
179	0x3df22c0e	0.11824809
180	0x3d2f4f9a	0.042800523
181	0x3c6cf3ec	0.014462452
182	0x3e1bb8d3	0.15207224
183	0xbe060ab3	-0.13090019
184	0xbdcfbda7	-0.10143595
185	0xbd5bc30c	-0.053652808
186	0x3e1ec8cc	0.15506285
187	0x3d52919d	0.0514084
188	0xbdac76ca	-0.08421095
189	0xbdfc73d8	-0.12326783
190	0xbb08987e	-0.0020842846
191	0xbd87ac12	-0.06624617
