graphrnn_v2/experiments/structures/trees/trees_graphrnn_s_small/model_at_300.pt (torch, 398995 bytes, 22 tensors)

embedding.0.weight f4 [32, 10]
0.6084126 -0.14860032 0.060099572 -0.013744652 -0.100403816 0.26045692 -0.0766914 0.04399312
0.053146757 0.44841063 0.032160927 0.3791564 0.004155496 -0.11471596 0.16615401 0.2864207
-0.20818552 0.3862997 0.012139095 -0.01846797 -0.20190124 -0.45918468 -0.039445102 -0.24679016
0.5860147 0.67660815 0.33676746 -0.49962556 -0.24296024 -0.093676865 0.23148543 -0.2080479
0.29666296 0.17781082 -0.18638878 -0.17976561 -0.18785532 -0.23290952 -0.27506447 -0.0020776107
-0.15107456 -0.2702265 0.46536586 -0.28081423 -0.2731987 -0.260415 -0.28348076 -0.2603269
-0.15955266 0.0123819 0.1952224 -0.24982163 -0.054262877 -0.18364175 -0.025602685 0.34451675
0.83077484 0.364195 0.21887125 -0.15990114 -0.29808825 -0.00030730828 -0.26948905 -0.23423228
-0.1756668 -0.19241758 -0.16734594 -0.31103912 -0.16802084 -0.14079416 -0.105805136 0.38192627
0.057866704 0.34921825 -0.3162373 -0.26871932 -0.30926025 -0.024776187 0.3147355 -0.1267138
0.7320464 0.14291546 0.21759048 -0.06281337 0.18273993 -0.048757903 0.23973705 0.12751952
0.31079563 0.45773664 0.34599063 0.18285805 0.19211775 -0.10886805 -0.09125085 0.28492534
-0.11178565 0.3894048 0.30666706 0.15373197 -0.27324352 -0.26889357 -0.048502408 -0.36164463
-0.04666796 -0.11975622 0.7180707 -0.19442187 0.2706004 0.19135305 0.5335488 0.3553557
-0.2483368 -0.20148923 0.06087063 0.03550456 -0.30041745 -0.022046035 0.36299857 -0.13950323
-0.026829127 0.39235583 0.27522868 0.48912898 -0.20856793 -0.23776804 -0.21059784 0.17693168
-0.107537374 0.08353522 0.0061312392 0.06289073 0.07412904 0.07764855 0.5031506 0.10286656
0.07442981 0.28441924 0.1647428 0.39571482 0.8142324 0.038886547 -0.3155185 -0.16000342
0.055493616 -0.2918538 -0.12380314 -0.15748952 0.055095397 -0.26342735 0.029223345 0.06903633
0.45192134 0.2846951 0.25326222 0.07897304 -0.062807254 0.14625172 0.030174404 0.3687683
-0.17571983 -0.21198545 0.43975896 -0.23100957 -0.18947233 -0.054237194 -0.14635569 0.051644024
-0.0379019 -0.14703883 0.56412834 -0.26155975 -0.29013634 0.109741345 -0.009400911 0.35865214
0.3979154 -0.23248863 0.3058703 0.12885453 0.5560984 0.1140005 0.029340073 -0.05325856
0.110269204 0.11243928 0.6396444 0.19793098 0.20244683 -0.040974814 -0.2387274 -0.10535243
0.00049010036 0.4257103 0.38412258 -0.035037536 -0.18382852 0.14575256 0.076044224 0.23362564
-0.17148063 -0.075088285 -0.14652084 -0.21636648 0.24673922 0.15064126 -0.20428763 0.2740425
-0.12228295 -0.07610076 0.8186412 -0.034646813 0.13952346 -0.18700008 -0.1766028 -0.09934196
-0.15117055 -0.2709849 -0.1077647 0.27697653 0.5918949 -0.037491195 -0.08698019 0.119784355
-0.16683988 0.15985985 0.15723749 0.09667382 0.37491462 0.43704134 0.05485474 0.0015943731
0.4881152 0.3577081 0.2736451 0.011910383 0.013562745 -0.047895957 -0.17768978 -0.14666404
-0.2866246 -0.25001422 -0.0017680705 1.0973037 -0.4490411 1.0710886 -0.28295562 -0.31473833
-0.32022414 0.038456067 -0.39887893 -0.37470508 -0.425774 0.87493384 -0.24428068 0.71174616
00000000: eec0 1b3f af2a 18be f82a 763d 4031 61bc
00000010: 84a0 cdbd 9c5a 853e 6110 9dbd 2132 343d
00000020: 6ab0 593d 1496 e53e 2dbb 033d ca20 c23e
00000030: d42a 883b 34f0 eabd 4724 2a3e bca5 923e
00000040: 962e 55be 13c9 c53e 0ee3 463c 244a 97bc
00000050: 33bf 4ebe 411a ebbe 3091 21bd 8fb6 7cbe
00000060: 0f05 163f 3136 2d3f c96c ac3e ecce ffbe
00000070: 92ca 78be a8d9 bfbd 840a 6d3e 820a 55be
00000080: 35e4 973e 0a14 363e b3dc 3ebe 7a14 38be
00000090: 255d 40be d57f 6ebe 40d5 8cbe 8628 08bb
000000a0: 4ab3 1abe 215b 8abe 6f44 ee3e e2c6 8fbe
000000b0: b3e0 8bbe 1d55 85be 6424 91be 9149 85be
000000c0: c661 23be 74dd 4a3c 61e8 473e 3ed1 7fbe
000000d0: c042 5ebd 950c 3cbe b9bc d1bc 8064 b03e
000000e0: a9ad 543f c477 ba3e c91f 603e 20bd 23be
000000f0: 069f 98be 381e a1b9 78fa 89be 96da 6fbe
00000100: ffe1 33be 1d09 45be bc5c 2bbe 8540 9fbe
00000110: a80d 2cbe 582c 10be 5db0 d8bd d78b c33e
00000120: a305 6d3d bccc b23e dbe9 a1be 9495 89be
00000130: 5c57 9ebe 6ef7 cabc 0325 a13e 43c1 01be
00000140: 6567 3b3f 6e58 123e 0ad0 5e3e 4ca4 80bd
00000150: 2d20 3b3e 5eb6 47bd a17d 753e 7a94 023e
00000160: 9b20 9f3e 755c ea3e af25 b13e 243f 3b3e
00000170: 84ba 443e 36f6 debd bae1 babd bce1 913e
00000180: e0ef e4bd 1160 c73e 7703 9d3e ea6b 1d3e
00000190: 93e6 8bbe 6bac 89be 76aa 46bd 7c29 b9be
000001a0: e726 3fbd c042 f5bd 7bd3 373f 8716 47be
000001b0: 238c 8a3e 0ef2 433e a796 083f 2ff1 b53e
000001c0: 014c 7ebe 3153 4ebe 7b53 793d 3b6d 113d
000001d0: 51d0 99be e399 b4bc f3da b93e efd9 0ebe
000001e0: c2c8 dbbc dde2 c83e c6ea 8c3e 1d6f fa3e
000001f0: d592 55be 7779 73be f6a6 57be 942d 353e
00000200: 8e3c dcbd 8314 ab3d 90e8 c83b dbcc 803d
00000210: f7d0 973d 3406 9f3d 7ace 003f b4ab d23d
00000220: a86e 983d 669f 913e 56b2 283e 229b ca3e
00000230: 8971 503f 8047 1f3d a48b a1be f0d7 23be
00000240: 464d 633d dc6d 95be 808c fdbd ef44 21be
00000250: b6ab 613d f3df 86be cc65 ef3c eb62 8d3d
00000260: 3c62 e73e 8ec3 913e 96ab 813e 9ebc a13d
00000270: 17a1 80bd 03c3 153e 5030 f73c 33cf bc3e
00000280: e6ef 33be b712 59be 1628 e13e c68d 6cbe
00000290: 0905 42be d227 5ebd 44de 15be af88 533d
000002a0: 063f 1bbd 5991 16be b76a 103f 29eb 85be
000002b0: c08c 94be 12c0 e03d 4706 1abc 41a1 b73e
000002c0: 91bb cb3e 8011 6ebe 089b 9c3e 71f2 033e
000002d0: 775c 0e3f 1879 e93d 985a f03c a625 5abd
000002e0: d2d4 e13d 9146 e63d bcbf 233f 6bae 4a3e
000002f0: 394e 4f3e 35d5 27bd f574 74be 04c3 d7bd
00000300: 147a 003a b3f6 d93e b7ab c43e 8583 0fbd
00000310: 8b3d 3cbe 2940 153e 13bd 9b3d 8f3b 6f3e
00000320: 9e98 2fbe e3c7 99bd 8f09 16be 2d8f 5dbe
00000330: 35a9 7c3e b441 1a3e c730 51be 4c4f 8c3e
00000340: 7c6f fabd b7da 9bbd 7892 513f d1e9 0dbd
00000350: 3ddf 0e3e f37c 3fbe 5dd7 34be cc73 cbbd
00000360: 74cc 1abe 88be 8abe bdb3 dcbd decf 8d3e
00000370: 6d86 173f 5e90 19bd ab22 b2bd 8051 f53d
00000380: 13d8 2abe 4db2 233e dd02 213e ecfc c53d
00000390: cff4 bf3e e2c3 df3e 5daf 603d 49fa d03a
000003a0: 3cea f93e 8425 b73e 361b 8c3e c423 433c
000003b0: 4736 5e3c 8d2e 44bd 4ff4 35be 192f 16be
000003c0: 76c0 92be dd01 80be 9abe e7ba 7374 8c3f
000003d0: b7e8 e5be 6e19 893f 8fdf 90be 6225 a1be
000003e0: 6bf4 a3be 1c84 1d3d dc39 ccbe 58d9 bfbe
000003f0: 0dff d9be aafb 5f3f b724 7abe ff34 363f

embedding.0.bias f4 [32]
0.07118149 0.20041488 0.16941872 0.17231183 0.2533672 0.23215969 -0.035612814 0.2945494
-0.1890763 0.0950263 0.041278165 0.28001508 0.20138042 -0.085612334 0.13359667 -0.036210805
0.03710852 0.28372893 -0.035971 0.2329301 -0.27417272 -0.09278316 0.006098775 -0.01813621
0.23290157 0.40338907 0.2539551 -0.014419678 -0.018714353 0.16765593 -0.11191698 0.22943313
00000000: 9ac7 913d 8f39 4d3e 1a7c 2d3e 8372 303e
00000010: 58b9 813e 45bb 6d3e bede 11bd 2ecf 963e
00000020: 389d 41be 269d c23d 4b13 293d 235e 8f3e
00000030: ab36 4e3e 8555 afbd 91cd 083e c851 14bd
00000040: 1aff 173d eb44 913e 5456 13bd 3a85 6e3e
00000050: 5e60 8cbe 1905 bebd 3cd8 c73b 6492 94bc
00000060: c07d 6e3e 0389 ce3e 6706 823e 8340 6cbc
00000070: d84e 99bc ffad 2b3e bb34 e5bd 85f0 6a3e

rnn.weight_ih_l0 f4 [192, 32]
0.15915695 0.020562194 -0.053808425 0.09431339 0.0039135874 -0.07212648 -0.11934605 -0.15992263
0.40179864 0.08227282 0.10482271 0.13760194 -0.34367338 -0.081263565 0.5177898 -0.26660973
-0.12192403 0.2733304 0.28147313 -0.354691 0.07496133 0.3273476 0.2661877 -0.0538279
-0.5823037 -0.5535429 0.14840713 -0.11097605 -0.14561863 0.3666899 0.00052975444 0.4525296
0.4622194 -0.02471982 -0.10824993 0.31727904 0.14135838 -0.081575274 -0.06504609 0.02216216
0.44502264 0.16711204 -0.44338822 0.009309926 0.030444581 0.08195174 0.42757347 0.2741905
0.051976133 0.24440235 0.04564443 0.07425233 0.018218037 0.6080309 0.3044227 0.16606812
0.09443601 0.09465821 0.07658448 0.09539698 0.10826327 0.09154206 0.28718626 0.55437607
0.08178877 0.07742339 -0.18630281 0.103922926 0.043097172 0.0598934 0.0073459893 0.21760711
-0.2755993 0.18096092 0.6508805 -0.14327793 0.22378165 -0.41541973 -0.22386494 -0.10232827
0.32189998 -0.046719436 -0.077403605 -0.060187373 -0.06271737 -0.17293604 -0.24374977 0.058480404
0.3089874 0.19225417 0.09751716 0.326826 0.06118883 -0.032694694 -0.14553714 -0.23504587
0.091043875 0.13627563 -0.167139 0.40401846 0.22685596 0.12284923 -0.035256058 0.09337756
0.12266262 0.12194231 -0.20444205 0.12864226 0.38951722 0.16873178 0.3062578 0.38472965
0.12561938 0.112222806 0.020630518 0.18835154 -0.1060276 0.31104344 0.20170666 0.38771525
0.05339531 0.025197264 0.012925529 0.013051287 0.063868865 0.018620953 0.15873694 0.2819806
0.15009628 0.16100185 0.5111918 -0.099533476 -0.050973 0.2003293 -0.08674371 -0.07359499
0.5921537 0.24608864 0.11136544 0.27788433 -0.13063757 0.35418737 0.3876204 0.09803303
0.1793051 0.11864708 0.42149845 0.10792883 -0.07791633 0.43500328 0.07302712 0.1027372
-0.36623207 -0.049095113 0.0099757 0.035528157 -0.033646315 0.0869877 0.04575947 0.467941
-0.26108587 0.009083957 0.48210844 -0.5546465 -0.41738904 0.23876975 -0.07422908 -0.44751516
0.1277781 -0.24172314 -0.026134318 0.15024763 -0.48088425 0.48318228 -0.02442106 -0.074220665
-0.60218316 0.26592198 0.4107081 0.14802541 -0.036973573 -0.14559631 0.10727457 -0.04684554
-1.0799704 -0.72116816 -0.2817927 -0.15940952 -0.30761936 -0.11663162 0.20496605 0.032823406
0.02790867 0.015739247 0.30952415 0.24845941 0.38537323 0.16118485 -0.0893677 0.21657334
0.15663289 0.068770476 0.27823114 0.0065502473 0.029153012 0.025874645 0.21575174 0.20961156
0.34121946 0.24761224 0.27326733 0.14083496 -0.013976643 0.32181734 0.08229867 0.09359081
-0.18639709 -0.14968103 0.056452498 0.08601758 -0.0963156 -0.15004726 -0.000971935 0.36228663
0.08626393 0.08899315 0.47984168 -0.119069956 -0.1766063 -0.024273805 -0.09747134 -0.40516442
0.25276795 -0.1543007 -0.24634662 0.04592079 -0.46999803 0.39163065 0.13326973 0.046065103
-0.18945152 0.018925553 0.17354785 0.17921735 0.002790103 0.16113533 -0.060974296 0.059961647
-0.39171445 -0.3563922 -0.4108843 -0.3664193 -0.22732365 -0.34376252 0.025673056 0.09859415
00000000: 0afa 223e 0c72 a83c 3966 5cbd 6127 c13d
00000010: 8d3d 803b 0cb7 93bd b46b f4bd c2c2 23be
00000020: 8db8 cd3e a77e a83d 4aad d63d 86e7 0c3e
00000030: f5f5 afbe 836d a6bd df8d 043f 1281 88be
00000040: 4eb3 f9bd f6f1 8b3e 3f1d 903e 0f9a b5be
00000050: 5385 993d 1b9a a73e c149 883e a57a 5cbd
00000060: db11 15bf fdb4 0dbf 0af8 173e 6947 e3bd
00000070: 0d1d 15be c7be bb3e 38df 0a3a f6b1 e73e
00000080: 05a8 ec3e 3881 cabc 24b2 ddbd 6672 a23e
00000090: 40c0 103e f010 a7bd e236 85bd 6b8d b53c
000000a0: 02da e33e 6b1f 2b3e c803 e3be a988 183c
000000b0: ea66 f93c 50d6 a73d e9ea da3e b262 8c3e
000000c0: ede4 543d 9c44 7a3e a7f5 3a3d 9b11 983d
000000d0: fe3d 953c eaa7 1b3f 4bdd 9b3e c30d 2a3e
000000e0: ab67 c13d 2adc c13d 53d8 9c3d 7e5f c33d
000000f0: 22b9 dd3d 677a bb3d 140a 933e 97eb 0d3f
00000100: df80 a73d 2790 9e3d 2ac6 3ebe 8bd5 d43d
00000110: a986 303d c852 753d a0b6 f03b 66d4 5e3e
00000120: 5a1b 8dbe d24d 393e 1ba0 263f 73b7 12be
00000130: 0427 653e e5b1 d4be da3c 65be 7c91 d1bd
00000140: 13d0 a43e e15c 3fbd c885 9ebd 0987 76bd
00000150: f771 80bd 2516 31be 8a99 79be 2689 6f3d
00000160: 9933 9e3e 47de 443e 14b7 c73d bd55 a73e
00000170: 23a1 7a3d dfea 05bd b007 15be ddaf 70be
00000180: 3675 ba3d d78b 0b3e 7c26 2bbe 82db ce3e
00000190: ee4c 683e 6198 fb3d a868 10bd bc3c bf3d
000001a0: 8a36 fb3d e4bc f93d 4259 51be ccba 033e
000001b0: cd6e c73e 06c8 2c3e d3cd 9c3e 49fb c43e
000001c0: 5ea2 003e 12d5 e53d 5501 a93c 3adf 403e
000001d0: 0025 d9bd 1641 9f3e 318c 4e3e 9d82 c63e
000001e0: 0ab5 5a3d 7e6a ce3c 99c5 533c 11d5 553c
000001f0: aecd 823d f88a 983c f08b 223e c35f 903e
00000200: d7b2 193e abdd 243e 77dd 023f 35d8 cbbd
00000210: 10c9 50bd 2023 4d3e b0a6 b1bd f8b8 96bd
00000220: 6397 173f a9fe 7b3e 9013 e43d db46 8e3e
00000230: dbc5 05be 0c58 b53e 2e76 c63e 8bc5 c83d
00000240: c29b 373e 3efd f23d a5ce d73e ca09 dd3d
00000250: 9992 9fbd c0b8 de3e 3e8f 953d e267 d23d
00000260: c582 bbbe f517 49bd 1e71 233c f985 113d
00000270: b8d0 09bd 9b26 b23d 486e 3b3d f695 ef3e
00000280: 0cad 85be e1d4 143c ebd6 f63e 50fd 0dbf
00000290: 04b4 d5be 0f80 743e 6a05 98bd b520 e5be
000002a0: 43d8 023e 4586 77be a317 d6bc 84da 193e
000002b0: 7636 f6be ab63 f73e ad0e c8bc 0101 98bd
000002c0: ad28 1abf ed26 883e 5548 d23e f993 173e
000002d0: 9a71 17bd 3317 15be c5b2 db3d 1ce1 3fbd
000002e0: 783c 8abf 7a9e 38bf 2247 90be 403c 23be
000002f0: 4980 9dbe 8fdc eebd 9fe2 513e d671 063d
00000300: b9a0 e43c 98ef 803c f379 9e3e 256c 7e3e
00000310: a44f c53e a40d 253e 6a06 b7bd 67c5 5d3e
00000320: 5f64 203e 89d7 8c3d 5074 8e3e 75a3 d63b
00000330: 4cd2 ee3c 10f7 d33c 06ee 5c3e 6aa4 563e
00000340: 51b4 ae3e 108e 7d3e b2e9 8b3e 0a37 103e
00000350: 4afe 64bc 3ec5 a43e 358c a83d 8aac bf3d
00000360: e1de 3ebe fc45 19be bc3a 673d fc29 b03d
00000370: 1d41 c5bd fda5 19be 74c9 7eba a27d b93e
00000380: 25ab b03d 0a42 b63d cfad f53e f3da f3bd
00000390: 48d8 34be dcd9 c6bc 0e9f c7bd b671 cfbe
000003a0: cd6a 813e 0101 1ebe 4a42 7cbe 7017 3c3d
000003b0: 95a3 f0be d083 c83e dc77 083e c3ae 3c3d
000003c0: 94ff 41be c309 9b3c 87b6 313e c184 373e
000003d0: 29da 363b a900 253e 2fc0 79bd 589a 753d
000003e0: cc8e c8be 0a79 b6be 6d5f d2be 4f9b bbbe
000003f0: 88c7 68be a401 b0be 4d50 d23c bbeb c93d

rnn.weight_hh_l0 f4 [192, 64]
-0.22014774 0.15387471 0.08905882 0.062626265 -0.1275069 0.07371495 0.06817644 0.006335345
0.13255417 -0.34208086 0.081680045 -0.020466952 0.25516927 0.21293417 0.06564346 -0.14128534
-0.110344976 0.14647841 -0.38666117 -0.139292 0.0058018356 -0.3653288 0.011799069 0.10183825
-0.018689223 -0.099622965 0.04768139 -0.0096430145 0.06413379 0.15478495 0.22502853 -0.051703006
-0.19289482 -0.036591597 0.087253585 0.1384806 -0.06908588 0.14351869 -0.020645337 0.07099552
-0.008672297 0.19582266 -0.0029196357 -0.23346046 -0.08431172 0.0020555966 0.25115502 0.0030850668
-0.11366102 0.10338193 -0.21401922 0.058557883 0.18393078 0.06675161 -0.21073373 -0.082775176
-0.12752125 -0.20203863 -0.076499194 -0.14302903 0.014409036 0.26018363 0.19611278 -0.07198921
-0.023765698 -0.028635215 0.12954 -0.09635568 0.017091712 0.13667583 0.16490544 0.10093956
-0.06600393 0.04806255 -0.03239841 -0.1408426 0.092903525 0.10824849 0.02472202 0.089783974
0.10787591 -0.12795483 0.09495624 -0.07833003 0.24993889 0.12731248 0.10595904 0.18239678
0.16006951 -0.090757035 -0.06782209 -0.06880499 0.35447806 -0.13458209 -0.04630658 -0.10395866
-0.05358198 0.044222828 -0.1188609 0.06101007 -0.019888273 0.09217578 0.30850452 0.07427274
-0.22180676 0.13707116 0.15555601 0.05621481 0.06514423 -0.15267394 -0.070268385 0.06338983
0.0100585995 0.07342518 0.1133213 -0.059985965 0.05332596 -0.038561527 0.12361253 0.32293725
0.15749192 0.25521827 -0.12907745 0.40299934 0.22005327 0.035117634 -0.14901203 -0.020051857
0.18204655 -0.10960495 -0.117564216 0.24780437 0.058040194 -0.16030654 0.3480757 -0.10529624
0.05643557 -0.053270467 0.016141271 -0.07564133 -0.11214579 -0.16586079 -0.145914 -0.007815795
-0.1683246 -0.18859759 0.19621801 0.019925496 0.22060412 -0.039475653 0.063971005 -0.023564775
0.13459264 0.20314534 -0.10420928 0.047426123 -0.07537041 0.062961414 0.10398049 -0.19392651
-0.08107276 0.07638253 -0.20765166 -0.12763536 -0.04141913 0.018452557 0.03785116 -0.06893014
-0.2104501 -0.18912141 -0.17334801 -0.07361511 -0.07297642 -0.051616468 0.1000934 -0.140525
-0.1264924 -0.04603138 0.21606301 0.014011575 0.36495876 -0.031597733 0.027220901 0.19060855
-0.05870999 0.23087664 0.17457849 0.12830923 -0.036755886 0.023856977 0.3109563 0.0074610645
-0.016052304 -0.16706602 -0.07184892 0.1115118 -0.27266863 0.10032484 0.1834686 -0.04689019
0.38049895 -0.01702606 0.050286517 -0.037975177 -0.032425556 0.058965128 -0.049439617 0.05288502
-0.07483083 -0.10364547 -0.22080384 -0.0714705 -0.18521658 -0.09969526 0.022312751 0.060139302
-0.016802346 0.0006417875 0.0038346173 0.071654834 0.11332487 -0.23704615 -0.06784826 -0.29919967
-0.085707486 -0.07673957 -0.15903631 -0.16118555 0.02084873 -0.022418126 -0.10218369 -0.13113368
0.40020928 -0.064334825 -0.17190008 -0.04829938 0.1788741 -0.03269224 0.3011854 0.03787897
-0.039414857 0.016789703 0.1474895 -0.05561483 0.0110245 0.15337737 0.025224065 -0.105188616
-0.054559585 0.12460641 0.0033424746 -0.11084656 0.06461658 0.131317 0.1358049 0.26555267
00000000: 696e 61be 5591 1d3e 7864 b63d 3342 803d
00000010: 2b91 02be ddf7 963d 17a0 8b3d ba98 cf3b
00000020: 48bc 073e 3925 afbe de47 a73d 4faa a7bc
00000030: 8ca5 823e 6a0b 5a3e 1470 863d 1bad 10be
00000040: 8cfc e1bd 70fe 153e 74f8 c5be 90a2 0ebe
00000050: 531d be3b 600c bbbe e250 413c 9390 d03d
00000060: 241a 99bc 2007 ccbd 904d 433d bcfd 1dbc
00000070: 9458 833d f27f 1e3e e16d 663e 88c6 53bd
00000080: 3886 45be 12e1 15bd 02b2 b23d dccd 0d3e
00000090: e67c 8dbd 90f6 123e 6920 a9bc 1966 913d
000000a0: 4016 0ebc bc85 483e 5c57 3fbb 4210 6fbe
000000b0: a0ab acbd 30b7 063b 6497 803e d52e 4a3b
000000c0: 1cc7 e8bd e8b9 d33d db27 5bbe 64da 6f3d
000000d0: 5a58 3c3e 11b5 883d 95ca 57be 0886 a9bd
000000e0: ee94 02be 37e3 4ebe 9cab 9cbd 3476 12be
000000f0: e113 6c3c ca36 853e cad1 483e 146f 93bd
00000100: 48b0 c2bc 6694 eabc 22a6 043e 2056 c5bd
00000110: eb03 8c3c c0f4 0b3e f9dc 283e 66b9 ce3d
00000120: 122d 87bd 3ddd 443d 32b4 04bd 0b39 10be
00000130: 3444 be3d 62b1 dd3d d585 ca3c a9e0 b73d
00000140: 0cee dc3d 9706 03be 6b78 c23d 7f6b a0bd
00000150: fbef 7f3e 345e 023e 0e01 d93d 39c6 3a3e
00000160: 43e9 233e d3de b9bd 4fe6 8abd a1e9 8cbd
00000170: 267e b53e e3cf 09be f8ab 3dbd 47e8 d4bd
00000180: c778 5bbd ff22 353d 586d f3bd b2e5 793d
00000190: bbec a2bc a8c6 bc3d 4ef4 9d3e 4e1c 983d
000001a0: 5021 63be 625c 0c3e 134a 1f3e 8041 663d
000001b0: 576a 853d 8f56 1cbe dfe8 8fbd 87d2 813d
000001c0: d3cc 243c f15f 963d ff14 e83d d8b3 75bd
000001d0: 526c 5a3d b1f2 1dbd 9128 fd3d 0858 a53e
000001e0: 9045 213e f8ab 823e e12c 04be ee55 ce3e
000001f0: a555 613e 82d7 0f3d 9c96 18be cb43 a4bc
00000200: 696a 3a3e 8f78 e0bd 82c5 f0bd 6ec0 7d3e
00000210: 8ebb 6d3d 6627 24be fa36 b23e 8ea5 d7bd
00000220: fc28 673d 2232 5abd b33a 843c d7e9 9abd
00000230: b1ac e5bd 69d7 29be 7b6a 15be d20d 00bc
00000240: 495d 2cbe ba1f 41be 60ed 483e cb3a a33c
00000250: 0ce6 613e 39b1 21bd 3b03 833d ea0a c1bc
00000260: a7d2 093e 5505 503e ad6b d5bd e541 423d
00000270: cd5b 9abd eaf1 803d b9f3 d43d ac94 46be
00000280: 7a09 a6bd 726e 9c3d a3a2 54be d8b2 02be
00000290: 1ba7 29bd d129 973c d109 1b3d 3f2b 8dbd
000002a0: 3b80 57be 0ba9 41be 2482 31be 85c3 96bd
000002b0: a974 95bd ca6b 53bd c5fd cc3d c9e5 0fbe
000002c0: 3987 01be 668b 3cbd 9f3f 5d3e ce90 653c
000002d0: e0db ba3e a06c 01bd 5efe de3c e32e 433e
000002e0: e379 70bd ed6a 6c3e b4c4 323e 7f63 033e
000002f0: 578d 16bd b56f c33c aa35 9f3e f27b f43b
00000300: 1f80 83bc 5b13 2bbe 8725 93bd 4c60 e43d
00000310: 399b 8bbe 1c77 cd3d 31df 3b3e ee0f 40bd
00000320: c2d0 c23e 3c7a 8bbc 3cf9 4d3d dc8b 1bbd
00000330: a9d0 04bd 6b85 713d 3281 4abd f69d 583d
00000340: e840 99bd 1444 d4bd 671a 62be 205f 92bd
00000350: 6aa9 3dbe 072d ccbd 3bc9 b63c a154 763d
00000360: 13a5 89bc a13d 283a 344e 7b3b c5bf 923d
00000370: df16 e83d 3abc 72be 07f4 8abd b330 99be
00000380: 6887 afbd a329 9dbd 6ada 22be d30d 25be
00000390: f5ca aa3c 38a6 b7bc af45 d1bd e847 06be
000003a0: 3be8 cc3e fac1 83bd 9306 30be 92d5 45bd
000003b0: c62a 373e 4ce8 05bd f934 9a3e fb26 1b3d
000003c0: 7971 21bd 8f8a 893c 7d07 173e 60cc 63bd
000003d0: 1ba0 343c f50e 1d3e b3a2 ce3c 216d d7bd
000003e0: df79 5fbd a531 ff3d 6b0d 5b3b 8503 e3bd
000003f0: b355 843d f777 063e 7110 0b3e 85f6 873e

rnn.bias_ih_l0 f4 [192]
-0.09350951 0.024268214 0.008425324 0.18501008 0.22108866 -0.13573508 0.19519487 -0.04854856
0.05433975 -0.2710722 0.058260012 -0.008264513 -0.22535706 -0.066978246 -0.11243478 -0.15635225
-0.3047399 -0.12022041 0.15204906 -0.07479504 0.14566337 -0.12602545 -0.14549975 -0.03391919
-0.16060588 0.12238691 -0.19255333 0.08289795 -0.08370294 0.048397098 0.12350031 0.16830674
-0.03744802 -0.08364939 -0.015575574 0.09432546 0.009269514 -0.10386133 -0.044857357 0.07783147
0.11619022 -0.12297942 -0.037064053 -0.14185579 -0.23077331 0.009842233 0.27541685 0.16201368
-0.022073874 -0.12449242 0.023827739 -0.14575566 0.060447276 0.10367385 0.0022329162 -0.1466689
0.05179619 0.1570051 -0.002184539 -0.07871365 0.1746571 -0.22002673 0.19357097 0.024059867
0.04547632 -0.031800088 -0.28841418 -0.061203387 -0.07380412 -0.034251004 -0.13575336 -0.20796555
-0.049661882 0.060596876 -0.038227674 0.003186793 -0.14690661 0.09681373 -0.2028095 -0.3252446
-0.058550566 -0.25874093 -0.22385071 -0.17704327 -0.10403129 -0.26844832 -0.33018285 -0.013354455
-0.28503174 0.06514213 -0.28562534 -0.33750156 -0.18445763 0.07463398 -0.01505238 0.079586804
-0.08459208 -0.041243613 -0.06207365 -0.07112664 0.063934356 0.1926158 -0.16656576 0.05030184
-0.07488341 -0.19099158 -0.0033398024 -0.015413717 -0.13055377 -0.189323 -0.17556834 -0.37221324
0.047357127 -0.14818291 -0.18087317 -0.104032695 -0.20304516 0.076734625 -0.28593126 -0.19919954
-0.06280771 -0.24354212 -0.008090222 -0.19378565 -0.097222075 -0.22101684 0.056205716 -0.025690785
0.07819825 -0.027663903 -0.1546701 0.15044652 -0.03981647 0.0014173046 0.15849976 -0.06953276
-0.015509102 -0.11921864 -0.044729345 0.11717142 -0.117684096 0.080468975 0.12507701 0.13270709
0.06574146 0.068269305 0.13619764 -0.09992025 0.15533745 -0.110606685 0.009703005 0.022819282
-0.0040163803 0.06954507 -0.0316857 -0.00921997 0.022701975 -0.10968409 0.0011052302 -0.07363736
0.058691636 -0.061413966 -0.056173623 -0.2380586 -0.0044965167 -0.08078901 0.08804109 -0.1912338
0.054428093 -0.02740963 0.04201813 -0.04574205 0.011389724 0.053066544 -0.0042118267 -0.04784167
-0.023700045 0.0958996 -0.0053981463 -0.024933375 0.13320485 -0.13576753 0.08325003 0.010653648
-0.09646832 0.085020304 0.026387988 0.0031960001 -0.010392008 -0.07094028 0.06320104 0.1275711
00000000: ea81 bfbd 22ce c63c 5f0a 0a3c 4873 3d3e
00000010: 1165 623e 23fe 0abe 2ae1 473e dbda 46bd
00000020: 5c93 5e3d fac9 8abe 0da2 6e3d e167 07bc
00000030: 00c4 66be e42b 89bd 3544 e6bd ce1a 20be
00000040: de06 9cbe 1e36 f6bd c0b2 1b3e 242e 99bd
00000050: c728 153e d10c 01be e3fd 14be d9ee 0abd
00000060: de75 24be fda5 fa3d b32c 45be 67c6 a93d
00000070: 726c abbd 093c 463d bbed fc3d 9a58 2c3e
00000080: 1863 19bd 5f50 abbd b130 7fbc b52d c13d
00000090: 29df 173c 40b5 d4bd 59bc 37bd 1b66 9f3d
000000a0: 23f5 ed3d a2dc fbbd 7ad0 17bd a542 11be
000000b0: d74f 6cbe 5141 213c 7003 8d3e eae6 253e
000000c0: 45d4 b4bc e2f5 febd 6432 c33c f940 15be
000000d0: 9097 773d f552 d43d 1e56 123b 5f30 16be
000000e0: 3e28 543d f2c5 203e 7c2a 0fbb 9f34 a1bd
000000f0: 50d9 323e b04e 61be 7837 463e 3319 c53c
00000100: 6145 3a3d cf40 02bd 06ab 93be 67b0 7abd
00000110: 9d26 97bd c84a 0cbd ee02 0bbe ecf4 54be
00000120: 426a 4bbd 6e34 783d 9f94 1cbd 84d9 503b
00000130: b06e 16be 4746 c63d 4bad 4fbe 7686 a6be
00000140: b8d2 6fbd b179 84be 1f39 65be d54a 35be
00000150: 5b0e d5bd 0f72 89be ba0d a9be a5cc 5abc
00000160: aeef 91be 3d69 853d 7c3d 92be 01cd acbe
00000170: 76e2 3cbe b3d9 983d 429e 76bc 68fe a23d
00000180: 9d3e adbd 10ef 28bd f140 7ebd d8aa 91bd
00000190: 04f0 823d 143d 453e 3790 2abe 4d09 4e3d
000001a0: 795c 99bd 4c93 43be 96e0 5abb d189 7cbc
000001b0: e3af 05be e3dd 41be 30c8 33be bc92 bebe
000001c0: 8cf9 413d 43bd 17be d136 39be 180f d5bd
000001d0: 12eb 4fbe 0b27 9d3d 9565 92be f7fa 4bbe
000001e0: 54a1 80bd 1b63 79be da8c 04bc bf6f 46be
000001f0: 5e1c c7bd 3d52 62be f737 663d 7b75 d2bc
00000200: 6726 a03d 699f e2bc d761 1ebe a70e 1a3e
00000210: 9816 23bd dac4 b93a c34d 223e 3167 8ebd
00000220: e319 7ebc e728 f4bd 1e36 37bd 92f7 ef3d
00000230: 5c04 f1bd ebcc a43d 3014 003e 5ee4 073e
00000240: 75a3 863d c7d0 8b3d 6577 0b3e fda2 ccbd
00000250: c810 1f3e c285 e2bd 5af9 1e3c 81ef ba3c
00000260: d79b 83bb a56d 8e3d ddc8 01bd 5b0f 17bc
00000270: 7ef9 b93c 0da2 e0bd 5fdd 903a 2fcf 96bd
00000280: a466 703d 368d 7bbd 5016 66bd a2c5 73be
00000290: 8457 93bb b574 a5bd e34e b43d cbd2 43be
000002a0: feef 5e3d 298a e0bc 341b 2c3d 045c 3bbd
000002b0: f79b 3a3c 4e5c 593d 5d03 8abb a1f5 43bd
000002c0: 9926 c2bc 0267 c43d efe2 b0bb 1441 ccbc
000002d0: da66 083e a506 0bbe fe7e aa3d a38c 2e3c
000002e0: 2f91 c5bd 201f ae3d 9f2b d83c fc73 513b
000002f0: 3e43 2abc 2349 91bd 8c6f 813d 00a2 023e

rnn.bias_hh_l0 f4 [192]
-0.0037194793 0.17576025 -0.006880568 -0.0123056695 0.065082476 0.106921755 0.17744857 -0.02473463
0.08314149 -0.21648903 -0.057579637 -0.13383068 -0.18631832 -0.10757402 -0.10438147 -0.123768136
-0.27094722 -0.11211842 0.14075533 -0.0071833506 0.11650621 0.072548375 -0.15695731 0.056673653
0.047889523 0.20409968 0.03361876 -0.08628539 -0.071870856 0.14762141 -0.022842795 0.15274118
-0.044676546 -0.25477222 0.17801037 0.23387673 -0.14002639 -0.094526365 -0.08028792 0.07900378
0.13174832 -0.15278418 0.054832567 -0.10456146 -0.22545101 0.0031850273 0.17974295 0.081046425
-0.0935381 -0.025536612 0.21570046 -0.13262433 0.15588033 -0.05769216 -0.03255646 -0.026291981
-0.0067198975 0.14325462 0.054451395 0.03907161 0.258211 -0.18948081 0.19984956 0.054831766
0.051102716 -0.2394753 -0.19074975 -0.1303022 -0.08546511 -0.15823387 -0.26601344 -0.23670271
-0.27140304 0.09993171 0.023642998 -0.18651246 -0.22173446 0.06251965 -0.13512209 -0.3914409
0.08366567 -0.21556666 -0.06274116 -0.1699011 -0.14277454 -0.2593264 -0.109249085 -0.15610018
-0.2877025 0.09637731 -0.259234 -0.31965935 -0.1580684 0.0042148107 -0.1115621 0.052681144
-0.0002683142 -0.107752495 -0.07682179 -0.07518331 -0.039522078 0.11743457 -0.011016026 0.16783465
-0.088277936 -0.23880817 0.07261529 -0.22157177 -0.20918036 -0.11552621 -0.13032342 -0.25124696
-0.1241178 -0.21992923 -0.23235668 -0.106345646 -0.0990625 -0.04160441 -0.26931712 -0.29476458
-0.08958087 -0.18400252 0.058729973 -0.010694956 -0.106003344 -0.062497836 -0.18480378 0.033982627
0.06449332 -0.12727045 -0.022391478 0.15182729 -0.072030105 -0.065774284 0.15633322 -0.14023049
0.051253844 -0.07437381 -0.065528445 -0.0005800214 -0.101599164 0.120932706 0.024344994 -0.097492054
-0.05935017 -0.12255861 0.14989753 -0.13790448 0.09697499 -0.14459714 0.026322756 -0.02283635
0.089738935 0.17060445 -0.044866133 0.037915844 -0.0038625298 -0.029303672 0.13664225 -0.19774894
-0.029034443 0.056736503 -0.14486283 -0.19308938 -0.00870697 -0.06457299 0.08125896 -0.1238152
-0.07263216 -0.0687744 -0.09222249 0.05789847 0.15600298 0.051180076 0.15294169 -0.057156805
-0.14204839 -0.13175264 0.1824177 -0.103710644 0.16615388 -0.119366966 0.06450685 0.05433441
-0.021163817 0.10477523 0.026562307 0.15489107 -0.15628108 -0.021790747 0.039169587 0.035541322
00000000: 82c2 73bb 7ffa 333e 6376 e1bb b89d 49bc
00000010: f649 853d cbf9 da3d 14b5 353e 47a0 cabc
00000020: 1646 aa3d 4daf 5dbe a0d8 6bbd e90a 09be
00000030: 3bca 3ebe c54f dcbd f4c5 d5bd 267a fdbd
00000040: 98b9 8abe 589e e5bd 2a22 103e 5062 ebbb
00000050: cf9a ee3d 3e94 943d 6bb9 20be a222 683d
00000060: ce27 443d 82ff 503e d3b3 093d 65b6 b0bd
00000070: 0731 93bd 112a 173e d020 bbbc 2f68 1c3e
00000080: c1fe 36bd 8171 82be 5a48 363e 627d 6f3e
00000090: 1463 0fbe 0a97 c1bd fe6d a4bd bccc a13d
000000a0: 08e9 063e 7573 1cbe 1d98 603d 5224 d6bd
000000b0: a1dc 66be e4bb 503b 890e 383e abfb a53d
000000c0: e790 bfbd 2832 d1bc 95e0 5c3e acce 07be
000000d0: 189f 1f3e 9d4e 6cbd ec59 05bd 4862 d7bc
000000e0: 9632 dcbb 57b1 123e 6d08 5f3d 8d09 203d
000000f0: 3b34 843e 4207 42be 5da5 4c3e 4697 603d
00000100: 1551 513d 0339 75be e753 43be f16d 05be
00000110: 5508 afbd 0f08 22be ea32 88be 3262 72be
00000120: 57f5 8abe ffa8 cc3d f6ae c13c 1ffd 3ebe
00000130: 5c0e 63be 4d0a 803d 725d 0abe f16a c8be
00000140: e858 ab3d 82bd 5cbe 707e 80bd 8efa 2dbe
00000150: 7d33 12be 6ec6 84be fcbd dfbd bad8 1fbe
00000160: be4d 93be 7861 c53d 52ba 84be 64aa a3be
00000170: afdc 21be 651c 8a3b ac7a e4bd 2fc8 573d
00000180: 86ac 8cb9 57ad dcbd be54 9dbd b5f9 99bd
00000190: e7e1 21bd 8981 f03d 907c 34bc d9dc 2b3e
000001a0: 10cb b4bd 218a 74be 53b7 943d b6e3 62be
000001b0: 6033 56be 0199 ecbd 8173 05be 71a3 80be
000001c0: 7931 febd 2135 61be e9ee 6dbe bfcb d9bd
000001d0: 48e1 cabd 6369 2abd efe3 89be 62eb 96be
000001e0: 2d76 b7bd 286b 3cbe d78e 703d e639 2fbc
000001f0: 4818 d9bd bbfd 7fbd 343d 3dbe 5e31 0b3d
00000200: 1315 843d 2f53 02be 556e b7bc 9d78 1b3e
00000210: 8584 93bd abb4 86bd d115 203e 9598 0fbe
00000220: 8def 513d 4c51 98bd c733 86bd 940c 18ba
00000230: 3913 d0bd 91ab f73d 276f c73c eaa9 c7bd
00000240: 2a19 73bd 0200 fbbd bd7e 193e d536 0dbe
00000250: d39a c63d 4611 14be d2a2 d73c 4c13 bbbc
00000260: 0cc9 b73d efb2 2e3e 8dc5 37bd a54d 1b3d
00000270: 7f22 7dbb 410e f0bc f2eb 0b3e b37e 4abe
00000280: a4d9 edbc 8964 683d ec56 14be 39b9 45be
00000290: aea7 0ebc d83e 84bd 196b a63d d392 fdbd
000002a0: 2bc0 94bd 98d9 8cbd 25df bcbd f226 6d3d
000002b0: 3fbf 1f3e 33a2 513d bf9c 1c3e 411d 6abd
000002c0: 2275 11be 2aea 06be b5cb 3a3e 3f66 d4bd
000002d0: 3e24 2a3e ab76 f4bd 2b1c 843d c28d 5e3d
000002e0: be5f adbc 6594 d63d 3299 d93c c49b 1e3e
000002f0: 2608 20be 8282 b2bc 4a70 203d c793 113d

rnn.weight_ih_l1 f4 [192, 64]
-0.008735279 0.13671862 0.14443882 0.03281738 0.035993226 0.09246372 0.07568848 0.27230856
-0.066569455 0.08463845 0.12989311 -0.010988089 0.1498888 -0.22245672 0.12022888 -0.04756778
0.049245343 0.06954471 0.07093129 -0.12270861 0.06830484 0.057796374 -0.26583818 0.22576782
-0.11456745 0.05905488 0.15091671 -0.1452073 0.21999687 0.10126727 -0.05370927 0.17498004
-0.14046113 -0.25230268 -0.24199666 -0.07243203 -0.10954157 0.058862105 0.16038264 0.18409896
0.15065423 0.09056785 0.164189 0.02018053 -0.30096725 -0.01536868 -0.08703888 0.23014545
0.19290584 0.21862204 0.1288041 -0.22203028 0.05960716 0.2569675 0.29259196 -0.21809073
0.15470293 0.0062596626 0.01591891 0.008277616 0.11477952 0.18144137 0.012386994 0.050800852
0.1289038 0.16566212 0.0035685215 -0.03338854 0.13238719 -0.11792888 0.06437244 0.24972034
0.023245675 0.0067262547 -0.024047956 -0.15474628 0.003597285 0.06855819 -0.011126979 0.041420072
0.027755246 0.40063664 -0.27242503 0.058729824 -0.24582526 0.17691754 0.08033274 0.1685963
-0.25456342 0.011748527 0.0035631133 -0.08906076 -0.3359982 0.020690158 -0.14731407 0.1844324
0.10418157 -0.29859453 0.14481442 0.21425691 0.172683 0.009670732 -0.15906584 0.18622343
-0.14954579 0.2138576 0.31898493 -0.03980976 -0.33447754 -0.19021 -0.1115136 0.1596448
0.20943029 0.038987283 -0.09710739 0.1472291 0.04734873 0.060447242 0.08271828 0.006922557
0.3493018 -0.17817967 -0.029175602 -0.13577811 0.0015544376 0.07451327 -0.14813095 -0.10536809
-0.0006154337 -0.09330564 0.006615281 0.258154 -0.14462733 0.011714905 -0.14510627 0.29072177
0.1370612 -0.25015256 -0.029913522 -0.13892114 0.22337739 -0.153271 0.071059406 -0.18232898
-0.114740804 0.07329977 -0.13221458 0.217929 -0.046088476 -0.009239994 -0.015800172 -0.79210865
0.010531376 0.11008072 0.048802514 -0.026643319 0.047726277 -0.21546781 0.03809156 -0.020603865
-0.03873129 -0.011638717 -0.3006431 0.09986493 -0.13785553 0.033037435 0.22529635 -0.13002998
0.21210966 0.03568166 -0.26119557 0.06556702 0.012659632 -0.010984634 0.21398798 -0.081888765
-0.13980874 0.19230422 -0.04924436 0.08989924 -0.03128349 0.10110225 -0.053373978 0.09152571
-0.20803021 0.0326958 -0.13604735 0.2541712 0.0015723398 -0.030126229 0.13434383 0.32338163
-0.0064943917 -0.02097444 0.13817374 -0.38580546 -0.040035997 -0.082342006 -0.18103075 -0.560097
-0.112109944 -0.059932712 -0.2324161 -0.015465998 -0.20609544 0.20065035 -0.10897094 0.14066783
0.068755634 -0.2078678 0.24840304 0.014345626 0.0042138887 0.09224343 0.30400237 0.072183475
0.34864765 -0.03063795 -0.17589512 -0.24759026 0.23527063 0.20672622 -0.2195822 0.28838995
-0.067505725 -0.034284115 0.052113872 0.23668642 0.14214113 -0.14740466 -0.029187776 0.24381427
-0.08549368 -0.14053215 0.14714505 0.030927852 0.20969051 0.051003024 -0.18874054 -0.113305934
0.071523905 -0.19680534 0.24505903 0.11570263 -0.24462438 0.022846257 0.22390582 0.40017655
0.050232105 -0.09726071 -0.043922268 -0.034503978 0.25658333 -0.117298655 -0.55761534 -0.044908114
00000000: 6a1e 0fbc f7ff 0b3e c5e7 133e 846b 063d
00000010: a26d 133d 9e5d bd3d 9002 9b3d 076c 8b3e
00000020: 9155 88bd ec56 ad3d b302 053e 6307 34bc
00000030: 737c 193e b2cb 63be 8f3a f63d 6fd6 42bd
00000040: 7cb5 493d 756d 8e3d 6d44 913d a74e fbbd
00000050: 68e3 8b3d e4bb 6c3d f11b 88be ae2f 673e
00000060: 57a2 eabd 88e3 713d e989 1a3e 39b1 14be
00000070: dc46 613e 3765 cf3d 40fe 5bbd f82d 333e
00000080: 0bd5 0fbe d12d 81be f9cd 77be 3f57 94bd
00000090: 5557 e0bd 6419 713d 593b 243e 7084 3c3e
000000a0: 1a45 1a3e a37b b93d 2921 283e a451 a53c
000000b0: 6118 9abe eacc 7bbc 7141 b2bd 40ab 6b3e
000000c0: 1c89 453e 75de 5f3e 39e5 033e e85b 63be
000000d0: a326 743d 3f91 833e 9dce 953e 2d53 5fbe
000000e0: 726a 1e3e db1d cd3b 6068 823c d79e 073c
000000f0: 8611 eb3d c4cb 393e d2f2 4a3c 8e14 503d
00000100: 5cff 033e 55a3 293e dbdd 693b 6cc2 08bd
00000110: 8290 073e b284 f1bd b3d5 833d b0b6 7f3e
00000120: b76d be3c ea67 dc3b 3800 c5bc cf75 1ebe
00000130: 6dc0 6b3b 3c68 8c3d ef4d 36bc 18a8 293d
00000140: f85e e33c 3f20 cd3e 4b7b 8bbe af8e 703d
00000150: 9eb9 7bbe df29 353e 7e85 a43d 82a4 2c3e
00000160: 2356 82be e57c 403c 1f83 693b 7d65 b6bd
00000170: f507 acbe 687e a93c 80d9 16be d9db 3c3e
00000180: 265d d53d 62e1 98be 3b4a 143e 2a66 5b3e
00000190: d0d3 303e fd71 1e3c 28e2 22be 5bb1 3e3e
000001a0: 8822 19be 7dfd 5a3e fe51 a33e 8f0f 23bd
000001b0: a440 abbe 69c6 42be 3e61 e4bd ed79 233e
000001c0: e574 563e 21b1 1f3d 3de0 c6bd 3ac3 163e
000001d0: bef0 413d 8797 773d 3468 a93d 9ed6 e23b
000001e0: afd7 b23e bb74 36be ac01 efbc 6b09 0bbe
000001f0: 45be cb3a 6a9a 983d a4af 17be 3acb d7bd
00000200: 0e55 21ba 0717 bfbd 00c5 d83b c32c 843e
00000210: 3019 14be dfef 3f3c bd96 14be 7cd9 943e
00000220: c559 0c3e ff13 80be 340d f5bc 5841 0ebe
00000230: 0bbd 643e 13f3 1cbe 9887 913d 73b4 3abe
00000240: 3afd eabd 311e 963d 4263 07be c828 5f3e
00000250: 45c7 3cbd 5863 17bc 5d6f 81bc a2c7 4abf
00000260: cb8b 2c3c 0072 e13d 25e5 473d 1743 dabc
00000270: a17c 433d 98a3 5cbe e505 1c3d 70c9 a8bc
00000280: b3a4 1ebd 51b0 3ebc e4ed 99be fc85 cc3d
00000290: 002a 0dbe 4352 073d 16b4 663e 9426 05be
000002a0: 4633 593e ef26 123d 6dbb 85be 0048 863d
000002b0: 586a 4f3c e5f8 33bc aa1f 5b3e 4cb5 a7bd
000002c0: 062a 0fbe 66eb 443e 74b4 49bd 181d b83d
000002d0: 1e23 00bd b20e cf3d ac9e 5abd d571 bb3d
000002e0: df05 55be 08ec 053d ff4f 0bbe ba22 823e
000002f0: f816 ce3a 48cb f6bc 6e91 093e 4792 a53e
00000300: e8ce d4bb 97d2 abbc 6b7d 0d3e 4b88 c5be
00000310: c9fc 23bd eda2 a8bd 2060 39be 8462 0fbf
00000320: e699 e5bd 017c 75bd 7cfe 6dbe 1965 7dbc
00000330: af0a 53be 4977 4d3e 282c dfbd 3a0b 103e
00000340: c1cf 8c3d 4cdb 54be 5e5d 7e3e eb09 6b3c
00000350: a914 8a3b 20ea bc3d 33a6 9b3e eed4 933d
00000360: f281 b23e 70fc fabc da1d 34be 4d88 7dbe
00000370: c9ea 703e 0ab0 533e 28da 60be d9a7 933e
00000380: 7140 8abd 806d 0cbd 5b75 553d ed5d 723e
00000390: 728d 113e 3ff1 16be 341b efbc 73aa 793e
000003a0: 4f17 afbd a9e7 0fbe 31ad 163e 685c fd3c
000003b0: 1cb9 563e 8ce8 503d 3345 41be f10c e8bd
000003c0: 207b 923d 5787 49be c1f0 7a3e 80f5 ec3d
000003d0: d07e 7abe 1328 bb3c 9147 653e f1e3 cc3e
000003e0: 2ec0 4d3d a030 c7bd d6e7 33bd 0b54 0dbd
000003f0: e45e 833e 473a f0bd e1bf 0ebf 92f1 37bd

rnn.weight_hh_l1 f4 [192, 64]
0.048518796 -0.1532221 0.024524359 -0.07559606 -0.16378649 -0.14293624 -0.054100573 0.15645021
-0.05534333 -0.15350656 0.29030675 -0.080758765 -0.1710986 0.123703234 -0.1644761 0.059545413
-0.12045502 0.0035436095 0.05631923 0.20750889 0.22170141 -0.029954202 0.10726348 0.40783423
0.08952309 0.1814365 0.083934896 -0.09004838 0.09319041 -0.027989123 0.03997057 0.11435928
-0.23075107 -0.050950218 -0.05941426 -0.028154861 0.043724947 -0.15519424 0.09627114 0.09346524
-0.028354503 0.12595908 -0.1958455 0.077615246 -0.05839094 -0.14472547 -0.060211435 -0.20968503
0.29822987 -0.017705977 -0.22791578 0.008230375 -0.12102629 0.0033360762 0.08109571 -0.008974511
-0.08941773 -0.18147835 0.14568752 -0.089591466 -0.16170564 -0.09781275 0.14774615 -0.0037669968
0.014358824 0.05741019 -0.18855904 0.15744175 -0.078840435 -0.016674256 0.0061996216 0.0687725
-0.03197362 0.007946857 -0.061938252 0.08337424 -0.06986335 0.20676734 0.0072255144 0.022274591
-0.16932032 -0.0041444534 0.12915134 0.021224335 -0.07182527 -0.12396622 -0.04024527 -0.08153983
0.06854649 0.020949904 -0.15871617 0.045376625 0.17007904 -0.16698208 0.022133237 -0.04057348
0.03820078 0.16367985 0.042044945 -0.0020807416 -0.29296193 -0.08697094 0.11999025 0.029123861
0.09283285 -0.051133703 0.13076626 -0.023814304 -0.03154135 0.1424959 -0.0002405939 -0.2573921
0.090701304 0.09580622 0.07840699 0.04146598 0.0408367 -0.024340775 0.04485778 0.1536525
0.09634308 0.029756596 0.0924192 0.102624305 -0.038825437 0.20524019 -0.01986831 -0.06343466
-0.11413567 -0.07041903 0.19475527 0.022275474 0.110954374 0.02535509 -0.13558988 0.019881288
-0.07651052 0.040031098 -0.42859417 0.10799012 -0.49726185 0.104603395 0.080518976 -0.03873517
0.11055371 0.27264827 0.0043193395 -0.095328666 0.028282968 0.2485451 0.055680677 0.06948862
-0.0063062734 -0.08262075 -0.09936056 0.14632735 -0.35731575 -0.037361484 0.066243984 -0.37310722
0.09011582 -0.20223461 0.056865796 -0.18201256 0.09456231 0.052508894 -0.15377359 0.11578179
-0.068127275 -0.40678307 0.16891566 -0.09354608 0.017041745 -0.10394039 0.04610928 0.1440049
-0.093503065 -0.11171662 0.058727812 0.15369213 -0.36835134 0.19159193 0.063015915 -0.07038632
-0.026286962 0.35080406 -0.068496026 0.009469681 0.09268147 0.18694943 0.028763708 0.037835542
-0.045951765 0.0026778567 -0.350153 -0.0023551793 -0.014930409 0.111009344 0.011915504 0.12949637
-0.04046249 -0.27011907 0.09911018 -0.2510838 -0.104519576 -0.10427109 -0.30684257 0.15957381
-0.030871855 -0.12195484 0.04796884 0.105543315 0.0028450305 -0.0808999 -0.18783462 0.28043184
0.11602734 0.04295434 -0.020716557 -0.12554501 0.08088845 -0.103746146 -0.06212592 0.011296339
0.010259985 0.13887891 0.00010614522 -0.007979578 -0.16087423 0.004152571 -0.021907639 0.019161873
0.2944588 0.1170007 0.06854303 -0.11736869 0.053119805 -0.043288298 0.09611868 -0.33443522
-0.082935825 0.01817776 0.0075433375 -0.3394769 0.0069421576 -0.1353174 0.111675836 0.07617873
0.075100765 -0.17105815 0.02006742 0.05069148 -0.048586696 0.18863516 0.24458173 -0.21447743
00000000: a5bb 463d 41e6 1cbe 4fe7 c83c 1bd2 9abd
00000010: a5b7 27be e15d 12be 9098 5dbd 7c34 203e
00000020: b0af 62bd d330 1dbe 16a3 943e da64 a5bd
00000030: 7934 2fbe 1f58 fd3d 6c6c 28be e4e5 733d
00000040: 1fb1 f6bd e73b 683b feae 663d 367d 543e
00000050: b205 633e 8462 f5bc f5ac db3d a6cf d03e
00000060: e257 b73d 7dca 393e 0fe6 ab3d 496b b8bd
00000070: 9dda be3d 7249 e5bc 2eb8 233d 3335 ea3d
00000080: 024a 6cbe 2db1 50bd 5e5c 73bd 06a5 e6bc
00000090: ee18 333d 3deb 1ebe ce29 c53d b46a bf3d
000000a0: b447 e8bc 6bfb 003e b98b 48be bef4 9e3d
000000b0: 572b 6fbd ea32 14be 44a0 76bd acb7 56be
000000c0: 96b1 983e 200c 91bc c162 69be b2d8 063c
000000d0: a2dc f7bd 12a2 5a3b 8215 a63d d409 13bc
000000e0: a520 b7bd 76d5 39be 1c2f 153e bb7b b7bd
000000f0: 2a96 25be 0d52 c8bd c44a 173e b8df 76bb
00000100: 4641 6b3c f326 6b3d 9f15 41be 6938 213e
00000110: 1877 a1bd 7398 88bc 3226 cb3b 99d8 8c3d
00000120: c5f6 02bd 8933 023c f7b2 7dbd 1dc0 aa3d
00000130: 8414 8fbd d1ba 533e 02c4 ec3b 3479 b63c
00000140: 4e62 2dbe 32ce 87bb 4040 043e a8de ad3c
00000150: 2119 93bd 00e2 fdbd 39d8 24bd 5bfe a6bd
00000160: 1a62 8c3d 229f ab3c 7e86 22be d7dc 393d
00000170: 3329 2e3e 5afd 2abe c350 b53c 6130 26bd
00000180: 6c78 1c3d b19b 273e 5237 2c3d 0d5d 08bb
00000190: 1bff 95be d21d b2bd 73bd f53d 2a95 ee3c
000001a0: 261f be3d 9371 51bd 97e7 053e 3716 c3bc
000001b0: 8131 01bd 72ea 113e ef47 7cb9 e6c8 83be
000001c0: 9bc1 b93d 0d36 c43d d893 a03d 3bd8 293d
000001d0: 6244 273d 4e66 c7bc cbbc 373d 1557 1d3e
000001e0: 854f c53d 1bc4 f33c 4746 bd3d b12c d23d
000001f0: 6c07 1fbd 7c2a 523e dec2 a2bc 08ea 81bd
00000200: f6bf e9bd da37 90bd ed6d 473e 0e7b b63c
00000210: 0c3c e33d 7ab5 cf3c 13d8 0abe 15de a23c
00000220: 8cb1 9cbd a6f7 233d b270 dbbe ed29 dd3d
00000230: 1b99 febe 4e3a d63d 22e7 a43d c5a8 1ebd
00000240: fc69 e23d 8e98 8b3e 3f89 8d3b ad3b c3bd
00000250: afb1 e73c 9b82 7e3e 6c11 643d 0d50 8e3d
00000260: dba4 cebb 1135 a9bd 8d7d cbbd d6d6 153e
00000270: 17f2 b6be 5b08 19bd edaa 873d e907 bfbe
00000280: a58e b83d 9716 4fbe 1cec 683d 8061 3abe
00000290: e2a9 c13d 9113 573d d376 1dbe 011f ed3d
000002a0: 5086 8bbd df45 d0be 3af8 2c3e 1695 bfbd
000002b0: 219b 8b3c b3de d4bd 16dd 3c3d 0576 133e
000002c0: 897e bfbd afcb e4bd 938c 703d 7861 1d3e
000002d0: 8c98 bcbe ad30 443e 7d0e 813d b426 90bd
000002e0: c157 d7bc 979c b33e a547 8cbd b926 1b3c
000002f0: c8cf bd3d ac6f 3f3e dea1 eb3c 71f9 1a3d
00000300: eb37 3cbd fb7e 2f3b 4147 b3be 5a59 1abb
00000310: ad9e 74bc de58 e33d 3f39 433c b29a 043e
00000320: ffbb 25bd 0c4d 8abe 47fa ca3d 0e8e 80be
00000330: 5c0e d6bd 158c d5bd 781a 9dbe 5167 233e
00000340: f9e6 fcbc 76c3 f9bd f97a 443d 1827 d83d
00000350: b173 3a3b d9ae a5bd b857 40be c394 8f3e
00000360: be9f ed3d e4f0 2f3d c5b5 a9bc df8e 00be
00000370: d8a8 a53d dc78 d4bd c077 7ebd 4814 393c
00000380: 7f19 283c 4636 0e3e 489a de38 c7bc 02bc
00000390: 37bc 24be 4a12 883b a677 b3bc 5cf9 9c3c
000003a0: 4ec3 963e 109e ef3d 4a60 8c3d ff5e f0bd
000003b0: 2794 593d 124f 31bd dfd9 c43d 183b abbe
000003c0: 42da a9bd 87e9 943c 1a2e f73b ebcf adbe
000003d0: 0a7b e33b a590 0abe 4db6 e43d 9803 9c3d
000003e0: 6ece 993d de29 2fbe 6e64 a43c dfa1 4f3d
000003f0: d802 47bd 9329 413e a273 7a3e f99f 5bbe

rnn.bias_ih_l1 f4 [192]
-0.06423002 -0.19187967 0.1343462 -0.065766096 0.069345236 0.020767637 0.057498127 0.2142798
-0.10323786 0.1422253 -0.05646744 -0.12639879 0.010622858 0.13676237 0.1418946 -0.012709501
0.063954376 -0.17414977 0.018913334 0.0073861754 -0.12773587 -0.09595635 0.1948507 0.045978896
0.1816303 -0.009145914 -0.05976992 0.04127412 -0.15285872 0.057425436 -0.10357519 0.14497085
-0.09764638 -0.03680634 0.07960332 -0.040667344 0.12599042 0.0748639 -0.14575824 -0.06958554
0.04455869 0.01968801 0.10832681 -0.10240189 -0.20943733 -0.016644165 0.032751743 0.049020592
-0.05846892 -0.03534362 -0.040140904 0.04700616 -0.086635806 -0.22042945 0.049083475 0.21800056
0.046367425 -0.0449191 0.11461677 -0.07634949 -0.0021387252 0.11303714 0.13463598 0.0031702442
-0.06837678 -0.1609465 0.032489087 -0.11395457 0.037291612 -0.06536364 -0.087453894 -0.10547052
-0.19707568 0.020066954 -0.1593554 -0.25346047 -0.18154171 0.07876756 -0.13502342 -0.17565355
-0.06563383 -0.11728922 -0.050100684 -0.044928886 -0.11995542 0.04077083 0.09147612 -0.04899668
-0.11432282 0.0083901435 -0.0052490635 -0.10700786 -0.13776 0.058172274 -0.06349088 -0.14222449
-0.2587811 -0.07425191 -0.13032597 -0.230077 -0.1233733 -0.084282525 -0.1302931 0.026767982
-0.07097961 0.080460556 -0.096244 -0.18428724 -0.013596689 -0.054284897 -0.21121334 0.056757864
-0.17819819 -0.014944082 -0.23501045 -0.06393306 -0.2285031 0.022686549 -0.21194103 -0.09072373
0.07622302 -0.00095128175 0.033893187 -0.09598642 -0.074004605 -0.08351092 0.04771038 -0.12279927
0.027633233 0.10721351 0.13548996 0.07720214 0.13966216 -0.2227748 0.15071732 -0.13032676
-0.076204106 0.023314787 -0.1725191 -0.012501243 0.020433107 0.017102692 0.15782338 -0.08402185
0.065626286 -0.03692396 -0.027285492 0.0052036317 -0.07652416 -0.009994794 0.10841637 -0.09201771
-0.19514056 -0.08201865 0.20166673 0.031891383 -0.013595544 -0.009228921 0.06584451 -0.030879611
0.07606138 0.08065366 0.14934897 0.09178759 0.12581174 0.040355626 -0.023344435 -0.12836622
-0.12585394 0.060119048 0.17391512 -0.12037983 -0.110013574 0.16061053 -0.08305726 0.0695673
0.050306447 -0.069041945 0.043937016 0.10038077 -0.07855022 0.1544925 -0.1959435 -0.15690406
0.13909225 -0.0033223317 -0.05494509 0.0022449484 0.14459604 -0.124938875 0.053909663 0.12237885
00000000: 078b 83bd 1b7c 44be 0d92 093e 60b0 86bd
00000010: e004 8e3d e420 aa3c 2883 6b3d 2a6c 5b3e
00000020: 5f6e d3bd 82a3 113e 674a 67bd af6e 01be
00000030: 7f0b 2e3c 6f0b 0c3e d14c 113e 833b 50bc
00000040: 83fa 823d 5154 32be 23f0 9a3c bb07 f23b
00000050: 31cd 02be c384 c4bd f186 473e 5e54 3c3d
00000060: 4bfd 393e bed8 15bc 4ed1 74bd 0d0f 293d
00000070: ff86 1cbe ef36 6b3d 3b1f d4bd 3d73 143e
00000080: d3fa c7bd 3fc2 16bd 1107 a33d cd92 26bd
00000090: a203 013e 3f52 993d a641 15be dd82 8ebd
000000a0: 2c83 363d c048 a13c 72da dd3d 15b8 d1bd
000000b0: bd76 56be 5859 88bc b126 063d d1c9 483d
000000c0: 1b7d 6fbd 79c4 10bd ca6a 24bd 8889 403d
000000d0: 1d6e b1bd 42b8 61be c10b 493d 8a3b 5f3e
000000e0: c5eb 3d3d 17fd 37bd 32bc ea3d 1f5d 9cbd
000000f0: db29 0cbb 0480 e73d 04de 093e dfc3 4f3b
00000100: 2009 8cbd 29cf 24be 4713 053d 0361 e9bd
00000110: 17bf 183d 5fdd 85bd 071b b3bd ee00 d8bd
00000120: 35ce 49be 7463 a43c 102e 23be 92c5 81be
00000130: 12e6 39be e350 a13d 9443 0abe 86de 33be
00000140: 086b 86bd 5535 f0bd 6036 4dbd 5a07 38bd
00000150: 30ab f5bd 50ff 263d d557 bb3d beb0 48bd
00000160: 1522 eabd d076 093c 5600 acbb f026 dbbd
00000170: f510 0dbe 0d46 6e3d 8207 82bd 4ca3 11be
00000180: f57e 84be 6311 98bd 2c74 05be 4e99 6bbe
00000190: 24ab fcbd 519c acbd 8e6b 05be 8748 db3c
000001a0: c25d 91bd 81c8 a43d 931b c5bd cbb5 3cbe
000001b0: a6c4 5ebc d759 5ebd 4f48 58be ef7a 683d
000001c0: 9679 36be 06d8 74bc 94a6 70be 56ef 82bd
000001d0: b7fc 69be 24d9 b93c 1207 59be 5dcd b9bd
000001e0: d11a 9c3d 705f 79ba 95d3 0a3d 8794 c4bd
000001f0: ba8f 97bd c607 abbd f66b 433d 2f7e fbbd
00000200: 175f e23c c292 db3d e1bd 0a3e 281c 9e3d
00000210: 9903 0f3e 141f 64be a455 1a3e 6174 05be
00000220: e610 9cbd a7fe be3c d9a8 30be 03d2 4cbc
00000230: 5563 a73c f21a 8c3c 749c 213e a613 acbd
00000240: 1367 863d 943d 17bd d385 dfbc 3a83 aa3b
00000250: b3b8 9cbd 34c1 23bc 6709 de3d c873 bcbd
00000260: edd2 47be 65f9 a7bd b981 4e3e 8aa0 023d
00000270: d8bf 5ebc e634 17bc 7dd9 863d 3df7 fcbc
00000280: 12c6 9b3d bf2d a53d f0ee 183e 22fb bb3d
00000290: cbd4 003e f14b 253d d43c bfbc 6f72 03be
000002a0: dbdf 00be 643f 763d ce16 323e b389 f6bd
000002b0: cc4e e1bd 1677 243e ed19 aabd 4d79 8e3d
000002c0: 220e 4e3d dd65 8dbd 4df7 333d 6f94 cd3d
000002d0: f0de a0bd 4833 1e3e 6aa5 48be 75ab 20be
000002e0: 336e 0e3e 7abb 59bb 1a0e 61bd fc1f 133b
000002f0: fc10 143e f4df ffbd 61d0 5c3d c3a1 fa3d
