graphrnn_v2/experiments/structures/trees/trees_graphrnn_s_small/model_at_800.pt (torch, 398995 bytes, 22 tensors)

embedding.0.weight f4 [32, 10]
0	0x3f2a0aef	0.66422933
1	0xbe2c9c13	-0.16856413
2	0x3d8267d4	0.0636746
3	0xbcd886fd	-0.026431555
4	0xbdf70f9a	-0.12063523
5	0x3e77776f	0.24166654
6	0xbdec3cd6	-0.11535041
7	0x3dad95e2	0.084758535
8	0x3d03a5a1	0.032140378
9	0x3edb5d4e	0.42844623
10	0xbb80a093	-0.003925392
11	0x3edc14e3	0.42984685
12	0xbd07bce1	-0.033139113
13	0xbe18c207	-0.14917766
14	0x3e2cd081	0.16876413
15	0x3e93cfc5	0.28869453
16	0xbe3b7319	-0.18305625
17	0x3ef6deb9	0.482168
18	0x3d710b4f	0.058848675
19	0x3cd9375e	0.026515659
20	0xbe5b238f	-0.21400283
21	0xbef1ad10	-0.4720235
22	0xbd6bef34	-0.05760117
23	0xbe84dd6d	-0.25950184
24	0x3f1cd9b6	0.612697
25	0x3f397fde	0.72460735
26	0x3ea85bb0	0.32882452
27	0xbf0330d6	-0.5124639
28	0xbe82f811	-0.25579885
29	0xbdda2501	-0.10651589
30	0x3e7760c2	0.24158004
31	0xbe550a82	-0.2080479
32	0x3eacab6e	0.3372454
33	0x3e3d258b	0.18471353
34	0xbe441f82	-0.19152644
35	0xbe5e7682	-0.21724895
36	0xbe3b2b25	-0.18278177
37	0xbe6e7fd5	-0.23290952
38	0xbe8cd540	-0.27506447
39	0xbb082886	-0.0020776107
40	0xbe15d0bf	-0.14630412
41	0xbe9e9872	-0.30975682
42	0x3f08145f	0.53156084
43	0xbe98e9da	-0.29865915
44	0xbe78ea79	-0.24308194
45	0xbe7b4497	-0.24537884
46	0xbe912464	-0.28348076
47	0xbe48f951	-0.19626357
48	0x3ea8fc49	0.33004978
49	0x3c4add74	0.0123819
50	0x3e53b8df	0.20675991
51	0xbe862bc6	-0.2620527
52	0xbd7e9643	-0.06215502
53	0xbe43b865	-0.1911331
54	0xbd01e467	-0.031711962
55	0x3ec6017e	0.38673013
56	0x3f608227	0.87698597
57	0x3eb64bcb	0.356047
58	0x3e465bec	0.19371003
59	0xbe3a1d66	-0.18175277
60	0xbe989f06	-0.29808825
61	0xb9a11e38	-0.00030730828
62	0xbe89fa78	-0.26948905
63	0xbe6fda96	-0.23423228
64	0xbe33e1ff	-0.1756668
65	0xbe45091d	-0.19241758
66	0xbe2b5cbc	-0.16734594
67	0xbe9f4085	-0.31103912
68	0xbe2c0da8	-0.16802084
69	0xbe102c58	-0.14079416
70	0xbde4a0e3	-0.11163499
71	0x3ed9b8f0	0.4252391
72	0x3d821129	0.06350929
73	0x3eb2b0b7	0.34900448
74	0xbeae9861	-0.3410063
75	0xbe9004f5	-0.28128782
76	0xbe900969	-0.2813218
77	0x3bb2a315	0.00545157
78	0x3ea58047	0.3232443
79	0xbdf92ae3	-0.12166383
80	0x3f543f5c	0.8290918
81	0x3e275b11	0.16343333
82	0x3e683fdc	0.2268061
83	0x3d4c7371	0.04991478
84	0x3e25cb6e	0.16190884
85	0x3d8302eb	0.06397041
86	0x3e969c03	0.29415902
87	0x3e7f8a00	0.24954987
88	0x3ed810be	0.42200273
89	0x3f1209f6	0.5704645
90	0x3eb72855	0.35772958
91	0x3e3b5350	0.182935
92	0x3e4b885c	0.19876236
93	0xbda43264	-0.08017424
94	0xbdd02f6b	-0.10165294
95	0x3e96e39d	0.2947053
96	0xbd9ecf84	-0.07754424
97	0x3f01f439	0.5076328
98	0x3ece04b7	0.40237972
99	0x3e7e2475	0.24818595
100	0xbe8be693	-0.27324352
101	0xbe89ac6b	-0.26889357
102	0xbdb875e1	-0.090068586
103	0xbeb9297c	-0.36164463
104	0xbdb0605a	-0.086121276
105	0xbdf542c0	-0.11975622
106	0x3f4976fd	0.78697187
107	0xbe471687	-0.19442187
108	0xbd926d90	-0.07149804
109	0x3e43f20e	0.19135305
110	0x3f138a55	0.5763295
111	0x3ec73b7b	0.38912567
112	0xbe905479	-0.28189448
113	0xbe74aae0	-0.23893309
114	0x3d89c80c	0.06727609
115	0xbd0301bd	-0.03198408
116	0xbe999a73	-0.30000648
117	0x3d0963a5	0.033542294
118	0x3ebc00d3	0.3671938
119	0xbe0c1372	-0.13679293
120	0xbd0c67a5	-0.03427853
121	0x3ed3d93f	0.41376683
122	0x3e950939	0.291086
123	0x3efb67bf	0.4910259
124	0xbe61bc6c	-0.22044533
125	0xbe6304c5	-0.22169788
126	0xbe4d02e5	-0.20020635
127	0x3e5aafc2	0.21356109
128	0xbd999ece	-0.07500993
129	0x3de7aa87	0.113118224
130	0x3d886b5c	0.06661102
131	0x3d995f23	0.07488849
132	0x3dde7246	0.1086164
133	0x3dbf969c	0.09354898
134	0x3f0cb05d	0.5495661
135	0x3dac5ddb	0.08416339
136	0x3daf548f	0.0856105
137	0x3eb4af8d	0.35290185
138	0x3e6804e6	0.22658119
139	0x3ee99278	0.4561956
140	0x3f6b766e	0.91977584
141	0x3d79ed79	0.061017487
142	0xbea5af3f	-0.32360265
143	0xbe33546b	-0.17512672
144	0x3d37868f	0.04480606
145	0xbe999177	-0.29993793
146	0xbdcb886c	-0.0993813
147	0xbe2d48cf	-0.16922306
148	0x3dad059c	0.084483355
149	0xbe8b038e	-0.2715115
150	0x3d83153c	0.064005345
151	0x3d858762	0.06519963
152	0x3eff2e17	0.4983985
153	0x3e91eea9	0.28502396
154	0x3e64cdb1	0.2234409
155	0x3d84b276	0.06479351
156	0x3cb1ee98	0.021720216
157	0x3e66af46	0.22527799
158	0x3deeb35f	0.11655306
159	0x3ee81671	0.4532962
160	0xbe33efe6	-0.17571983
161	0xbe5912b7	-0.21198545
162	0x3efd92cd	0.49526063
163	0xbe6c8dc6	-0.23100957
164	0xbe420509	-0.18947233
165	0xbd99a105	-0.07501415
166	0xbe15de44	-0.14635569
167	0x3dbfe244	0.093693286
168	0x3ed0a12e	0.4074797
169	0xbe169159	-0.14703883
170	0x3f171fcb	0.5903289
171	0xbe9d3632	-0.3070541
172	0xbeb3c958	-0.3511455
173	0x3de1d5e9	0.11027128
174	0xbcff0884	-0.03113199
175	0x3eb83df6	0.35984772
176	0x3ed17eac	0.40916955
177	0xbeccd15c	-0.4000348
178	0x3e1527df	0.14565991
179	0xbcd5d20c	-0.026101135
180	0x3f18a5bc	0.5962789
181	0x3dbc3207	0.091892295
182	0x3cd9cd1f	0.026587067
183	0x3c8a4dde	0.016882833
184	0x3dd29854	0.102829605
185	0x3e0d1a17	0.13779484
186	0x3f48a96b	0.7838351
187	0x3e8e070e	0.27739757
188	0x3e897ab1	0.2685142
189	0x3ceeeeaf	0.029166548
190	0xbe7b4097	-0.24536358
191	0xbdd31874	-0.103073984
192	0xbcc42cd1	-0.023947151
193	0x3ef036f9	0.4691694
194	0x3ecf98d1	0.40546277
195	0xbd761e55	-0.06008752
196	0xbe6c4640	-0.23073673
197	0x3e104e04	0.1409226
198	0x3db92ec0	0.0904212
199	0x3e7ad768	0.24496233
200	0xbe2f989e	-0.17148063
201	0xbd99c7e3	-0.075088285
202	0xbe16098f	-0.14652084
203	0xbe5d8f2d	-0.21636648
204	0x3e7ca935	0.24673922
205	0x3e1a41b4	0.15064126
206	0xbe5130c7	-0.20428763
207	0x3e8c4f4c	0.2740425
208	0xbdfa6f7c	-0.12228295
209	0xbd9bdab7	-0.07610076
210	0x3f6f080a	0.9337164
211	0xbd906237	-0.07049983
212	0x3e1021d5	0.14075406
213	0xbe643394	-0.222853
214	0xbe598dfe	-0.21245572
215	0xbe0a7081	-0.1351948
216	0xbe3f8315	-0.18702348
217	0xbe9d19de	-0.30683798
218	0xbe131087	-0.14361773
219	0x3e76e907	0.2411233
220	0x3f2d98f8	0.67811537
221	0xbd63721e	-0.055528753
222	0xbdd82575	-0.10554019
223	0x3ddb0c8f	0.10695755
224	0xbe3dd917	-0.18539844
225	0x3e0587fb	0.13040154
226	0x3e639785	0.22225769
227	0x3dda2622	0.106518045
228	0x3eb4e05a	0.35327417
229	0x3ed64333	0.41848144
230	0x3cea6933	0.028614616
231	0x3cddb412	0.027063403
232	0x3f11c393	0.5693905
233	0x3eae53f6	0.34048432
234	0x3e787149	0.24261965
235	0x3ccab3e1	0.024743976
236	0x3d407f60	0.046996474
237	0x3bd352e6	0.0064490912
238	0xbdfc9c4e	-0.123345
239	0xbdbd11ca	-0.092319086
240	0xbeaa69f7	-0.3328397
241	0xbe970a9d	-0.29500285
242	0xbacdc57f	-0.0015699117
243	0x3f948051	1.1601659
244	0xbefd9238	-0.4952562
245	0x3f93e6cd	1.155481
246	0xbea8893b	-0.329172
247	0xbeb8cee3	-0.36095342
248	0xbebb9dec	-0.36643922
249	0xbbfe44a1	-0.007759646
250	0xbedad134	-0.42737734
251	0xbecc64c1	-0.3992062
252	0xbef67f5d	-0.48144045
253	0x3f6deaf6	0.92936647
254	0xbe700877	-0.23440729
255	0x3f40f940	0.75380325

embedding.0.bias f4 [32]
0	0x3da680ad	0.08130012
1	0x3e3397ea	0.1753842
2	0x3e37500c	0.17901629
3	0x3e47e7a9	0.19521965
4	0x3e8cf609	0.2753146
5	0x3e76f634	0.24117357
6	0xbd11debe	-0.035612814
7	0x3e990d0d	0.2989277
8	0xbe2d160f	-0.16902946
9	0x3dbc07e7	0.09181195
10	0x3d878745	0.066175975
11	0x3e8a48fc	0.27008808
12	0x3e57e164	0.21082073
13	0xbdbda358	-0.09259671
14	0x3e2a2915	0.16617234
15	0xbd886a75	-0.0666093
16	0x3dac69a1	0.084185846
17	0x3e919263	0.28431997
18	0xbcfe0ede	-0.031012949
19	0x3e613bec	0.21995515
20	0xbe8c605e	-0.27417272
21	0xbd91455f	-0.070933096
22	0x3d03be60	0.032163978
23	0xbd0b2911	-0.03397471
24	0x3e818fc8	0.2530501
25	0x3ecdb489	0.401768
26	0x3e86614a	0.262461
27	0x3d1f560f	0.03890043
28	0x3bc3f098	0.0059796087
29	0x3e513521	0.20430423
30	0xbdef3b66	-0.11681251
31	0x3e9e9a6f	0.30977198

rnn.weight_ih_l0 f4 [192, 32]
0	0x3e58c480	0.21168709
1	0xbc529573	-0.012853014
2	0x3c84376a	0.016139705
3	0x3e2a209b	0.16614
4	0x3db63970	0.08897674
5	0xbc884e2e	-0.016638841
6	0xbdf46bb4	-0.11934605
7	0xbe44b571	-0.1920984
8	0x3ee616fc	0.4493941
9	0x3de215df	0.11039328
10	0x3dd8d8c9	0.105882235
11	0x3e0a9903	0.13534932
12	0xbeb943de	-0.3618459
13	0xbd8eb151	-0.06967414
14	0x3f0cdc6a	0.55023825
15	0xbe4d4005	-0.20043953
16	0xbd398983	-0.045297157
17	0x3e9fe37a	0.31228238
18	0x3ea18690	0.31547976
19	0xbebd4534	-0.3696686
20	0x3d998553	0.07496133
21	0x3ec07f50	0.37597132
22	0x3e9e75e0	0.30949306
23	0x3c82cbf9	0.015966402
24	0xbf126e24	-0.5719931
25	0xbf2f43ee	-0.6846303
26	0x3dd54d48	0.10415131
27	0xbe41543a	-0.18879786
28	0xbe64c673	-0.22341327
29	0x3ebc1f0d	0.3674244
30	0xbaf63555	-0.0018784205
31	0x3efe5371	0.49673036
32	0x3ef2022e	0.47267288
33	0xbc170fba	-0.009220058
34	0xbe06c954	-0.13162738
35	0x3e984d00	0.29746246
36	0x3e06dc0d	0.1316988
37	0xbd9743d7	-0.07385986
38	0xbd8536e2	-0.06504609
39	0x3ccedff6	0.025253277
40	0x3ef5e497	0.48025963
41	0x3e3c8213	0.18408994
42	0xbea65df7	-0.32493564
43	0x3ce17a05	0.027524004
44	0x3cf3147f	0.02967286
45	0x3d15dd42	0.03658796
46	0x3ee6a2d5	0.45046106
47	0x3e80438d	0.25051537
48	0x3d2ab953	0.041680645
49	0x3e6faca6	0.23405704
50	0x3dc53b34	0.09630433
51	0x3cccd328	0.02500303
52	0x3c953dfe	0.018218037
53	0x3f2295ce	0.63509834
54	0x3ea4fbda	0.32223397
55	0x3e0cd92c	0.1375472
56	0x3d4c890f	0.049935397
57	0x3d5e9bba	0.05434773
58	0x3db78505	0.08960918
59	0x3dd68ef7	0.10476487
60	0x3deead66	0.11654167
61	0x3deb9666	0.115032956
62	0x3e5e761d	0.21724744
63	0x3f18112a	0.5940119
64	0x3d6ad8b6	0.057335578
65	0x3dcf6387	0.10126405
66	0xbe564cb9	-0.20927705
67	0x3debe08c	0.11517438
68	0x3d1f3a34	0.038873866
69	0x3d0c35cf	0.034231003
70	0x3bf0b6a0	0.0073459893
71	0x3ea6c298	0.32570338
72	0xbe98eebe	-0.29869646
73	0x3e310bf7	0.1728972
74	0x3f369f31	0.71336657
75	0xbe16be98	-0.14721143
76	0x3ea5ec04	0.32406628
77	0xbeddf230	-0.43348837
78	0xbe79e370	-0.24403167
79	0xbd8aa5fe	-0.06769942
80	0x3eaaf076	0.33386582
81	0xbd6b8451	-0.057499234
82	0xbdc8668d	-0.09785185
83	0xbc24e31f	-0.0100639155
84	0xbd8071f7	-0.06271737
85	0xbe4953ce	-0.19660875
86	0xbe85f5d6	-0.2616412
87	0x3dc53a11	0.09630216
88	0x3eca9c6e	0.3957247
89	0x3e8e1715	0.27751985
90	0x3e499457	0.19685493
91	0x3ef885fb	0.4853972
92	0x3e5a6670	0.2132814
93	0xbd09d512	-0.033650465
94	0xbddbd9d5	-0.107349075
95	0xbe8465eb	-0.25859007
96	0x3e0ba7b7	0.13638197
97	0x3e060f79	0.1309184
98	0xbe3060cb	-0.17224424
99	0x3ee20e4c	0.44151533
100	0x3e6649ab	0.2248904
101	0x3e28baae	0.16477463
102	0xbd1068a8	-0.035256058
103	0x3dca7666	0.09885864
104	0x3e2e67a4	0.17031723
105	0x3e0aba9e	0.13547751
106	0xbe3a3d61	-0.18187477
107	0x3e10331f	0.14082001
108	0x3ecc0b3d	0.39852324
109	0x3e2cf37c	0.16889757
110	0x3eaff378	0.3436544
111	0x3ec9767b	0.39348206
112	0x3df46eee	0.11935221
113	0x3e3027a7	0.17202626
114	0x3d81a182	0.06329633
115	0x3e6b60c7	0.22986136
116	0xbdd92500	-0.1060276
117	0x3eb783a2	0.35842615
118	0x3e82ce02	0.25547796
119	0x3ecc5c97	0.3991439
120	0x3de97a08	0.11400229
121	0x3db9c4af	0.090707175
122	0x3c04e8f1	0.008112178
123	0x3c31776d	0.010831696
124	0x3d82edbd	0.06393001
125	0x3d07b7f5	0.03313442
126	0x3e638d54	0.22221881
127	0x3ea93852	0.3305078
128	0x3e0c1a7b	0.13681976
129	0x3e245bfb	0.16050713
130	0x3f18144d	0.59405977
131	0xbdb5f1d8	-0.08884019
132	0xbcf409e3	-0.02978987
133	0x3e746580	0.23866844
134	0xbdb1a6b0	-0.08674371
135	0xbdc6e716	-0.09712045
136	0x3f24e8ae	0.6441754
137	0x3e61d6b2	0.22054556
138	0x3e25064c	0.16115683
139	0x3e8bf56b	0.27335677
140	0xbe177a00	-0.14792633
141	0x3eeab6fe	0.45842737
142	0x3edca827	0.4309704
143	0x3e09f3be	0.13471887
144	0x3e4c173c	0.19930738
145	0x3de7ce60	0.1131866
146	0x3ef1fe9c	0.47264564
147	0x3dffe356	0.12494533
148	0xbd9f9299	-0.07791633
149	0x3ef6f8c9	0.48236683
150	0x3d307159	0.043076847
151	0x3e0b13a9	0.13581719
152	0xbec6d406	-0.38833636
153	0xbd8bea71	-0.068318255
154	0xbcbbd08c	-0.022926591
155	0x3b4745b8	0.0030406546
156	0xbd880886	-0.06642251
157	0x3d468224	0.048463956
158	0x3d7f4613	0.062322687
159	0x3f061b05	0.5238498
160	0xbe55aa38	-0.20865715
161	0xbde39133	-0.11111679
162	0x3efca608	0.49345422
163	0xbf06c76e	-0.52648056
164	0xbed19ebe	-0.40941423
165	0x3e8def8d	0.27721825
166	0xbd98056a	-0.07422908
167	0xbf119563	-0.5686857
168	0x3e3b61b0	0.18298984
169	0xbe8bce48	-0.27305818
170	0xbd96616b	-0.073428
171	0x3dc2fbd7	0.09520691
172	0xbf155cfe	-0.5834502
173	0x3f022e58	0.50851965
174	0x3b2bd66c	0.0026220335
175	0xbd9125ed	-0.07087312
176	0xbf19ee43	-0.60129184
177	0x3e9fc71e	0.31206602
178	0x3ee33ade	0.4438085
179	0x3df1f33f	0.11813974
180	0xbd17719a	-0.036973573
181	0xbdbaf1c3	-0.09128144
182	0x3e21a9e7	0.15787469
183	0xbd14ad86	-0.036298297
184	0xbf8a1253	-1.0786842
185	0xbf373746	-0.71568716
186	0xbed647a6	-0.41851538
187	0xbe998283	-0.29982385
188	0xbee49d92	-0.44651467
189	0xbe2d7a9f	-0.16941307
190	0x3e6f7a73	0.23386554
191	0x3dab7764	0.08372381
192	0x3db5e89e	0.08882259
193	0x3d999f31	0.075010665
194	0x3ebcd6f7	0.36882755
195	0x3e72a0e1	0.23694183
196	0x3ec0e71f	0.3767633
197	0x3e65fd02	0.22459796
198	0xbdb7066a	-0.0893677
199	0x3e4f932a	0.20270982
200	0x3e5cc3c9	0.21559061
201	0x3e050cd7	0.1299318
202	0x3e9de3dc	0.30837905
203	0x3d9cf1a6	0.07663278
204	0x3c6995f2	0.014256941
205	0x3d8e3649	0.06943948
206	0x3e9620a6	0.29321784
207	0x3e5752ef	0.2102773
208	0x3ea80d5e	0.32822698
209	0x3e8a6911	0.27033284
210	0x3eb0f473	0.345615
211	0x3e13feac	0.14452618
212	0xbc64fe4a	-0.013976643
213	0x3ec71a22	0.38887125
214	0x3dd88f11	0.10574163
215	0x3dbe4fe2	0.0929258
216	0xbe4f9710	-0.2027247
217	0xbe27ecb1	-0.16398884
218	0x3d6d2bb0	0.05790299
219	0x3d9413d5	0.07230345
220	0xbde6c6a6	-0.11268358
221	0xbda980ac	-0.08276495
222	0xbb6295bf	-0.003457412
223	0x3edd2391	0.43191198
224	0x3dc2ed6c	0.09517941
225	0x3d3a0a22	0.04541982
226	0x3efa67b2	0.48907238
227	0xbda6df08	-0.081480086
228	0xbe05ddd5	-0.13072903
229	0xbc6f4b3b	-0.014605339
230	0xbdc79f0e	-0.09747134
231	0xbedece43	-0.4351674
232	0x3e917877	0.2841222
233	0xbe2b20ab	-0.1671168
234	0xbe5ebd00	-0.21751785
235	0x3c9e5816	0.019329112
236	0xbef9964a	-0.48747474
237	0x3ed95116	0.42444676
238	0x3e17061a	0.14748421
239	0x3da45dfd	0.08025739
240	0xbe179a15	-0.14804871
241	0x3c5c8ff9	0.01346206
242	0x3e40e7f6	0.18838486
243	0x3e390f53	0.18072252
244	0x3b36da29	0.002790103
245	0x3e453155	0.192571
246	0xbd6bddbe	-0.057584517
247	0x3dc9f589	0.09861285
248	0xbeda9349	-0.42690495
249	0xbec65f86	-0.38744754
250	0xbee98a7c	-0.45613468
251	0xbed8c045	-0.4233419
252	0xbe91ac1c	-0.28451622
253	0xbebca31f	-0.36843202
254	0x3d1485ca	0.036260404
255	0x3df848ab	0.12123235

rnn.weight_hh_l0 f4 [192, 64]
0	0xbe0f7b77	-0.14011942
1	0x3e5dd34b	0.21662633
2	0x3d815739	0.063154645
3	0x3dcb8cf9	0.09938998
4	0xbe3a99ac	-0.18222684
5	0x3d880dfc	0.06643292
6	0x3e14ab9a	0.14518586
7	0xbde2d597	-0.11075895
8	0x3e7e3385	0.2482434
9	0xbec40baf	-0.38290164
10	0x3e3c38cb	0.1838104
11	0xba629d96	-0.0008644698
12	0x3e888e75	0.26671186
13	0x3ea31206	0.31849688
14	0x3db11738	0.08647007
15	0xbe057f80	-0.13036919
16	0xbe218dc9	-0.15776743
17	0x3e43fa2f	0.19138406
18	0xbee3a209	-0.4445956
19	0xbe1ecc04	-0.15507513
20	0xbdc54ca9	-0.096337624
21	0xbee7e685	-0.4529306
22	0x3bbd4cb5	0.0057769665
23	0x3c6d4a31	0.014483021
24	0xbb07bc41	-0.0020711573
25	0xbdd668f8	-0.1046924
26	0x3d55699c	0.05210267
27	0x3db0e8c5	0.08638147
28	0x3e0d2a7d	0.13785739
29	0x3e21f9d4	0.15817958
30	0x3eb30570	0.34965086
31	0x3dccbef9	0.09997363
32	0xbe1737f2	-0.14767435
33	0x3cb32a08	0.021870628
34	0x39c2ec9e	0.00037178857
35	0x3e016765	0.12637098
36	0xbcb5f7dd	-0.022212917
37	0x3e72fd62	0.2372947
38	0xbd0d77e7	-0.034538176
39	0x3d63b990	0.055596888
40	0x3da61086	0.0810862
41	0x3e544928	0.20731032
42	0x3d65e35c	0.05612503
43	0xbe86952f	-0.26285693
44	0x3c9ceea9	0.01915677
45	0x3dfbb7f3	0.12290945
46	0x3ecfdb98	0.40597224
47	0xbbc06717	-0.0058716643
48	0xbdc21a84	-0.09477714
49	0x3debee80	0.115201
50	0xbe7ac177	-0.24487863
51	0xbda44a64	-0.080220014
52	0x3e81212b	0.25220618
53	0x3e020a7d	0.12699313
54	0xbec0425a	-0.37550622
55	0xbdcbf28e	-0.09958373
56	0xbe18fbd5	-0.14939816
57	0xbe792e72	-0.24334124
58	0xbdd3a2b5	-0.10333768
59	0xbe178a63	-0.14798884
60	0xbd5f3f7d	-0.054503907
61	0x3e8c4a8f	0.27400634
62	0x3eabf2a6	0.33583564
63	0x3c8806cb	0.016604802
64	0xbdc74538	-0.09729999
65	0xbdb50d8c	-0.088404745
66	0x3e26b298	0.16279066
67	0xbe04c528	-0.12965834
68	0xbbd5e9df	-0.0065281237
69	0x3e0acb34	0.13554078
70	0x3e507353	0.20356493
71	0x3e15742e	0.145951
72	0xbe0ef89e	-0.13962027
73	0x3d4c75b5	0.04991694
74	0xbbf482e8	-0.0074618943
75	0xbe25c553	-0.16188554
76	0x3ddd6b4a	0.108114794
77	0x3e1f0467	0.15529023
78	0x3d0b257f	0.033971306
79	0x3de48398	0.11157912
80	0x3db91d42	0.090387836
81	0xbe1d7f92	-0.15380695
82	0x3dbf5b74	0.09343615
83	0xbdf8aa47	-0.12141853
84	0x3eb05b13	0.34444484
85	0x3e613f78	0.21996868
86	0x3dbf5448	0.09342247
87	0x3e9c927d	0.30580512
88	0x3e71185c	0.23544449
89	0xbe09f048	-0.13470566
90	0xbd52fde1	-0.05151165
91	0xbc3d131e	-0.011540202
92	0x3ec9238a	0.39284927
93	0xbde2d95b	-0.110766135
94	0xbd9e2aa2	-0.07722975
95	0xbe0d18eb	-0.13779037
96	0xbda9ff1a	-0.0830061
97	0x3d625bd2	0.055263348
98	0xbe383682	-0.17989543
99	0x3d84df6f	0.06487929
100	0xbc841e72	-0.016127799
101	0x3e19cf4e	0.15020487
102	0x3ea4c9b9	0.32185152
103	0x3da0204c	0.0781866
104	0xbead15d5	-0.3380572
105	0x3e20cb01	0.1570244
106	0x3e24fd4a	0.16112247
107	0x3d632623	0.055456292
108	0x3d878bfb	0.06618496
109	0xbe30a978	-0.17252147
110	0xbddfcd4c	-0.10927829
111	0x3da1c826	0.078995034
112	0x3c934432	0.017976854
113	0x3dc94781	0.098280914
114	0x3d8763c0	0.06610823
115	0xbd950275	-0.07275859
116	0x3d98aec8	0.07455212
117	0xbd77bf1f	-0.060485
118	0x3e347d02	0.17625812
119	0x3eb966c8	0.36211228
120	0x3e4b4ea1	0.19854213
121	0x3e9b634d	0.30349198
122	0xbdfe756e	-0.12424742
123	0x3f0004c7	0.5000729
124	0x3e85ff76	0.26171464
125	0x3d576e0b	0.05259518
126	0xbe850c89	-0.25986126
127	0x3c02205f	0.007942288
128	0x3dd4cacb	0.10390242
129	0xbe2c3aeb	-0.1681935
130	0xbd699125	-0.057023186
131	0x3ea32d3c	0.3187045
132	0x3c8c22c1	0.017106416
133	0xbe1352c0	-0.14387035
134	0x3ed9eaa1	0.4256182
135	0xbe1b2daf	-0.15154146
136	0x3cb66d91	0.022269042
137	0xbd0c6015	-0.03427132
138	0x3dd42480	0.10358524
139	0xbde04e44	-0.10952428
140	0xbdcad778	-0.09904379
141	0xbe602975	-0.21890815
142	0xbdef23dc	-0.116767615
143	0xbc5fb7a9	-0.013654628
144	0xbe3778d3	-0.17917185
145	0xbe38d855	-0.18051274
146	0x3e2caa61	0.1686187
147	0xbd27ffe6	-0.04101553
148	0x3eaa4a6e	0.3325991
149	0xbd4201b9	-0.047364924
150	0x3d42e95d	0.047585834
151	0xbd85a325	-0.06525258
152	0x3df88f68	0.121367276
153	0x3e7b2e7e	0.24529454
154	0xbdffc513	-0.12488761
155	0x3cebb03d	0.02877056
156	0xbcdba80d	-0.026813531
157	0x3d902b9f	0.0703957
158	0x3dc66d2b	0.09688791
159	0xbe8551d7	-0.26039
160	0xbde619fe	-0.11235426
161	0x3dccf881	0.10008336
162	0xbe6cc004	-0.23120123
163	0xbe1f596a	-0.15561453
164	0xbdc15cfb	-0.09441563
165	0xbcc8c0a9	-0.02450593
166	0x3d2499c1	0.040185694
167	0xbdc2701b	-0.09494039
168	0xbe116fd0	-0.1420281
169	0xbe33d841	-0.17562963
170	0xbe695b80	-0.2278881
171	0xbdd6defc	-0.1049175
172	0xbd9210f4	-0.0713214
173	0x3b809281	0.0039237146
174	0x3e34a533	0.17641144
175	0xbdcc8561	-0.099863775
176	0xbe0bfa6a	-0.13669744
177	0xbbcd0070	-0.0062561557
178	0x3e7f6fa9	0.24944939
179	0xbda192fd	-0.07889364
180	0x3ed3497f	0.4126701
181	0xbcc6d92c	-0.024273477
182	0x3d9b8872	0.07594384
183	0x3e159d74	0.14610845
184	0xbda55001	-0.080719
185	0x3e84eb91	0.25960973
186	0x3e55a72e	0.20864555
187	0x3e19da68	0.15024722
188	0x3d6f38f3	0.05840392
189	0x3d7e71f5	0.062120397
190	0x3eb97513	0.36222133
191	0x3cb8ed4b	0.022574088
192	0xbd3c5a48	-0.045984536
193	0xbe23a3da	-0.15980473
194	0xbe04a7fb	-0.12954704
195	0x3e148288	0.14502919
196	0xbea323f8	-0.3186338
197	0x3dd17134	0.1022667
198	0x3e364061	0.17797996
199	0xbcc840b4	-0.024444915
200	0x3f11111e	0.56666744
201	0xbd481b29	-0.048854027
202	0x3d1fd2bd	0.039019335
203	0xbd0dabb0	-0.034587562
204	0xbc123b5d	-0.008925286
205	0x3e091bff	0.13389586
206	0xbcb0d830	-0.021587461
207	0x3d4cee52	0.050031967
208	0xbda6e64f	-0.08149397
209	0xbe079dda	-0.1324381
210	0xbe5d6595	-0.21620782
211	0xbe1153cb	-0.1419212
212	0xbe5698c2	-0.2095671
213	0xbdccdb7d	-0.100028016
214	0x3cac9fa3	0.021072214
215	0x3d7574e2	0.05992592
216	0xbd7be72e	-0.061499767
217	0x3cbabecd	0.022796059
218	0x3b805cd6	0.003917317
219	0x3d762840	0.06009698
220	0x3ddb8624	0.10718945
221	0xbe849485	-0.2589456
222	0xbdaad1b2	-0.083407775
223	0xbed5d28c	-0.41762197
224	0xbd7ece9e	-0.062208764
225	0xbdc036e0	-0.093854666
226	0xbebe4631	-0.37162927
227	0xbe366602	-0.1781235
228	0x3d6a6721	0.057227258
229	0xbd56f273	-0.05247731
230	0xbe1cd70c	-0.15316409
231	0xbe1702b1	-0.1474712
232	0x3edc3eb1	0.4301658
233	0xbd406f0e	-0.04698091
234	0xbe3cf487	-0.18452655
235	0xbda72660	-0.08161616
236	0x3e647779	0.223112
237	0x3ac5f2c6	0.0015102259
238	0x3eaa20b3	0.33228073
239	0x3c835902	0.016033653
240	0xbd63c3e5	-0.05560674
241	0x3cd407ae	0.025882568
242	0x3e0c8b8b	0.13725106
243	0xbd3984c0	-0.045292616
244	0x3d1a866c	0.03772585
245	0x3e12c3bf	0.14332484
246	0x3d735de1	0.0594157
247	0xbd94e1ae	-0.072696075
248	0xbdaa0400	-0.08301544
249	0x3e4d46ea	0.20046583
250	0xbd9012cb	-0.070348345
251	0x3cc5e3dc	0.024156503
252	0xba9dd267	-0.0012040854
253	0x3e1f179d	0.15536352
254	0x3e186c0f	0.14884971
255	0x3eabf072	0.33581883

rnn.bias_ih_l0 f4 [192]
0	0xbda63b25	-0.0811675
1	0x3ca37c47	0.019956721
2	0x3d12045b	0.035648685
3	0x3e4ed6aa	0.20199075
4	0x3e6ac8c4	0.22928149
5	0xbe44c44c	-0.19215506
6	0x3e5f03a4	0.21778733
7	0xbd5e52be	-0.054278128
8	0x3daf0c67	0.085472874
9	0xbe88d400	-0.26724243
10	0x3dcad94a	0.09904726
11	0xbc5cb346	-0.0134704765
12	0xbe9a608b	-0.3015178
13	0xbe181d6f	-0.14854978
14	0xbe047247	-0.12934218
15	0xbe0dc6df	-0.13845395
16	0xbead721c	-0.3387612
17	0xbdfd23e4	-0.12360361
18	0x3e10fdaa	0.14159265
19	0xbc9d4d4b	-0.019201895
20	0x3e2d567e	0.16927525
21	0xbdeba9af	-0.11506974
22	0xbe1d399c	-0.15354007
23	0x3b476611	0.0030425827
24	0xbe1ebffa	-0.15502921
25	0x3e0c98fa	0.13730231
26	0xbe2cca64	-0.16874081
27	0x3db953f6	0.090492174
28	0xbdd48e0b	-0.10378655
29	0x3c72297f	0.014780401
30	0x3e00397b	0.12521927
31	0x3e53a9a7	0.20670186
32	0xbb6b933d	-0.0035945915
33	0xbd5c5da5	-0.053800244
34	0xbb0b8f87	-0.0021295266
35	0x3e11fa03	0.14255528
36	0xbc62a662	-0.013833614
37	0xbdc11c23	-0.09429195
38	0xbd041363	-0.03224505
39	0x3d9d3d9b	0.07677766
40	0x3dfbaebe	0.12289189
41	0xbe23718f	-0.15961288
42	0xbd4f0c4a	-0.05054883
43	0xbe0ffc40	-0.1406107
44	0xbe47b9eb	-0.19504516
45	0x3c47e693	0.012200969
46	0x3eaa64d4	0.3328005
47	0x3e391079	0.1807269
48	0xbd23c070	-0.039978445
49	0xbe22b746	-0.15890226
50	0x3d0d3254	0.034471825
51	0xbdac3e9a	-0.08410378
52	0x3d9ff846	0.07811026
53	0x3def06d8	0.11671227
54	0x3cb2e36c	0.021836959
55	0xbe39722e	-0.18109962
56	0x3c9fe9e2	0.019520704
57	0x3e3a3eaa	0.18187967
58	0x3d020816	0.031745993
59	0xbd83f8ff	-0.064439766
60	0x3e53c065	0.20678861
61	0xbe6f1cc7	-0.23350821
62	0x3e6a3089	0.22870077
63	0x3cd6841b	0.02618604
64	0x3dd763db	0.10517093
65	0xbcfbec00	-0.030752182
66	0xbea1887c	-0.31549442
67	0xbd49a4bf	-0.04922938
68	0xbdd57147	-0.104219966
69	0xbd9f9112	-0.07791342
70	0xbe2af8f0	-0.16696525
71	0xbe59f5b6	-0.21285138
72	0xbc9ac6e2	-0.018893663
73	0x3d65ebdc	0.056133136
74	0xbc766359	-0.015038335
75	0xbcbb8b94	-0.022893704
76	0xbe446949	-0.19180788
77	0x3d8f50cc	0.06997833
78	0xbe615627	-0.22005521
79	0xbeda0855	-0.42584482
80	0xbd6df000	-0.05809021
81	0xbe9f4c11	-0.31112722
82	0xbe81c89d	-0.25348368
83	0xbe51f86e	-0.20504925
84	0xbe175067	-0.14776765
85	0xbe9a3121	-0.30115607
86	0xbeb18c1c	-0.34677207
87	0xbcf1c154	-0.029511131
88	0xbe76953d	-0.24080367
89	0x3d63bccf	0.055599984
90	0xbeb547f6	-0.35406464
91	0xbedbbd00	-0.42917633
92	0xbe3a3ed2	-0.18188027
93	0x3db162a7	0.086613946
94	0xbd2189c6	-0.03943803
95	0x3db0d08c	0.08633527
96	0xbd566c5c	-0.052349433
97	0xbdc37f8f	-0.09545814
98	0xbd3a9afb	-0.045557957
99	0xbda6b06d	-0.08139119
100	0x3db84a49	0.08998544
101	0x3e84c587	0.2593195
102	0xbe276300	-0.16346359
103	0x3dc680b0	0.09692514
104	0xbdd9e849	-0.10640008
105	0xbe46343a	-0.1935586
106	0xbc1ae744	-0.009454552
107	0xbd22694a	-0.039651193
108	0xbe101ac8	-0.14072716
109	0xbe5c70cc	-0.21527404
110	0xbe4192db	-0.18903677
111	0xbec2d98b	-0.38056597
112	0x3c904a7b	0.01761364
113	0xbe4087ac	-0.18801755
114	0xbe524771	-0.20535065
115	0xbdffddb9	-0.12493462
116	0xbe665a83	-0.22495465
117	0x3d9b6665	0.075878896
118	0xbea5e9ab	-0.32404837
119	0xbe567d47	-0.20946227
120	0xbdcda2f3	-0.10040846
121	0xbe9a66bb	-0.30156502
122	0x3c974978	0.01846765
123	0xbe500f6f	-0.20318387
124	0xbd848816	-0.06471269
125	0xbe7a1eb8	-0.24425781
126	0x3d41eec3	0.04734684
127	0xbd150fe3	-0.036392104
128	0x3d5bf30c	0.053698584
129	0xbd5423aa	-0.051791824
130	0xbe0cd555	-0.13753255
131	0x3e0cd3ba	0.13752642
132	0xbcf66219	-0.030076073
133	0xbc2f3068	-0.010692693
134	0x3e4c90d7	0.19977127
135	0xbd90e481	-0.07074834
136	0x3c75327b	0.014965649
137	0xbe0f6050	-0.14001584
138	0xbd9418c7	-0.072312884
139	0x3dd295b9	0.102824636
140	0xbdf79492	-0.120888844
141	0x3d8825c6	0.0664783
142	0x3de13652	0.10996689
143	0x3e1691d1	0.14704062
144	0x3d99ea62	0.07515408
145	0x3d6fd256	0.0585502
146	0x3e097572	0.13423708
147	0xbdc85cd3	-0.0978333
148	0x3e2b049b	0.16700976
149	0xbddbe324	-0.10736683
150	0x3cc26726	0.023730826
151	0x3d3f59eb	0.04671661
152	0xbc3550a8	-0.011066593
153	0x3d9068a4	0.070512086
154	0xbd22c0e1	-0.039734725
155	0xbd268231	-0.040651504
156	0x3c279698	0.010228775
157	0xbde99eca	-0.1140724
158	0xbc7ba174	-0.015358318
159	0xbd9995e9	-0.07499296
160	0x3d6d7a9a	0.05797825
161	0xbdc1b1d7	-0.094577484
162	0xbd534ad4	-0.051585034
163	0xbe970e68	-0.2950318
164	0x3cfea6d6	0.031085413
165	0xbda4ef7a	-0.08053489
166	0x3de81bac	0.11333403
167	0xbe520f80	-0.20513725
168	0x3d948222	0.07251383
169	0xbc6980d2	-0.014251905
170	0x3d6f6f56	0.058455788
171	0xbd2131ff	-0.03935432
172	0xbcd358cf	-0.025799183
173	0x3d820488	0.063485205
174	0xbb21c172	-0.0024681953
175	0xbd70c4a9	-0.0587813
176	0xbd57c349	-0.052676473
177	0x3db4ef3e	0.08834694
178	0x3ce66f5e	0.028129276
179	0xbc3ab8ce	-0.0113966
180	0x3e1f0324	0.15528542
181	0xbddf9a36	-0.10918085
182	0x3dc537b4	0.09629765
183	0xbcae3b01	-0.02126837
184	0xbdc6774f	-0.09690725
185	0x3d9c6a88	0.07637507
186	0x3c920a44	0.01782716
187	0x3c8a615d	0.01689213
188	0xbccfd399	-0.025369452
189	0xbd9cf8d6	-0.07664649
190	0x3d478cb9	0.048718188
191	0x3e1d3383	0.15351681

rnn.bias_hh_l0 f4 [192]
0	0x3c0d45c7	0.008622593
1	0x3e2f900f	0.17144798
2	0x3ca6a633	0.020342922
3	0x3b993031	0.0046749343
4	0x3d96116d	0.073275425
5	0x3d4eda65	0.050501246
6	0x3e4cd78e	0.20004103
7	0xbcf98ff2	-0.030464146
8	0x3dea08e9	0.11427481
9	0xbe59c2f5	-0.21265776
10	0xbc898f22	-0.016791884
11	0xbe0e5fa4	-0.13903672
12	0xbe866343	-0.26247606
13	0xbe41af60	-0.18914557
14	0xbdf866b8	-0.12128967
15	0xbdd8d25c	-0.10586998
16	0xbe9c24d6	-0.30496854
17	0xbdec8ba4	-0.11550072
18	0x3e056d08	0.13029873
19	0x3d464920	0.04840958
20	0x3e0f7b1e	0.14011809
21	0x3dab0440	0.0835042
22	0xbe28f524	-0.16499764
23	0x3dbfc3f0	0.09363544
24	0x3d5afee9	0.053465758
25	0x3e60457e	0.21901509
26	0x3d6b3d7b	0.05743168
27	0xbda128dc	-0.078691214
28	0xbdbc52a0	-0.09195447
29	0x3de97b6d	0.11400495
30	0xbcad0bcb	-0.021123787
31	0x3e43b93c	0.1911363
32	0xbc3153de	-0.010823218
33	0xbe665229	-0.22492279
34	0x3e440d2d	0.19145651
35	0x3e90701f	0.28210542
36	0xbe270b7c	-0.16312975
37	0xbdadfded	-0.08495698
38	0xbd8a99a8	-0.06767589
39	0x3d9fa43c	0.07794997
40	0x3e0dc5ad	0.13844939
41	0xbe41f6b1	-0.18941762
42	0x3d295c4b	0.041347783
43	0xbdd3976d	-0.103316166
44	0xbe4246b5	-0.18972285
45	0x3bb5a843	0.00554374
46	0x3e72d18d	0.2371275
47	0x3dcc4f7d	0.09976099
48	0xbde43c27	-0.11144286
49	0xbd758a40	-0.0599463
50	0x3e67c6e4	0.22634465
51	0xbd915a03	-0.070972465
52	0x3e31b502	0.17354205
53	0xbd36e709	-0.044653926
54	0xbc5435bf	-0.012952267
55	0xbd78b912	-0.06072337
56	0xbd1fb967	-0.038995173
57	0x3e2c2a0f	0.16812919
58	0x3db501af	0.08838212
59	0x3d5a8120	0.0533458
60	0x3e94a799	0.29034117
61	0xbe4fd559	-0.2029623
62	0x3e709e6e	0.23497936
63	0x3d694c8b	0.056957763
64	0x3de2e9c1	0.11079741
65	0xbe742676	-0.23842797
66	0xbe5f0eab	-0.21782939
67	0xbdf25665	-0.11832885
68	0xbded52e0	-0.11588073
69	0xbe4ebdc2	-0.20189574
70	0xbe982df7	-0.29722568
71	0xbe77631e	-0.24158904
72	0xbe76687e	-0.24063298
73	0x3dc3849a	0.09546776
74	0x3d3fd360	0.046832442
75	0xbe59b221	-0.21259357
76	0xbe8884b0	-0.26663733
77	0x3d1229ca	0.035684384
78	0xbe1c064e	-0.1523678
79	0xbefbecd0	-0.4920411
80	0x3dac4a57	0.08412617
81	0xbe893130	-0.2679534
82	0xbdbd2f1b	-0.092375
83	0xbe4aa827	-0.19790708
84	0xbe3efcc1	-0.18651105
85	0xbe958580	-0.29203415
86	0xbe00dbe4	-0.12583882
87	0xbe306420	-0.17225695
88	0xbe7951a5	-0.24347551
89	0x3db1d67a	0.08683486
90	0xbea7c4cc	-0.32767332
91	0xbed29a63	-0.41133413
92	0xbe1f390b	-0.15549104
93	0x3c84ab1b	0.01619487
94	0xbe0b35a1	-0.13594677
95	0x3d736cac	0.05942981
96	0x3d02f765	0.031974215
97	0xbe25dab9	-0.16196717
98	0xbd7703d7	-0.060306396
99	0xbdaeff57	-0.08544796
100	0xbc5cb70e	-0.013471378
101	0x3e3c8ee5	0.18413885
102	0xbc01a7f4	-0.007913578
103	0x3e5b9ae6	0.21445808
104	0xbdf55693	-0.11979403
105	0xbe772b34	-0.24137574
106	0x3d883154	0.066500336
107	0xbe7bb523	-0.24580817
108	0xbe609e46	-0.21935377
109	0xbe10df70	-0.14147735
110	0xbe133e2c	-0.14379185
111	0xbe84ea4c	-0.25960004
112	0xbe1d8dbc	-0.15386099
113	0xbe84ffcb	-0.25976405
114	0xbe837faf	-0.25683352
115	0xbe024d2e	-0.12724754
116	0xbdf7c042	-0.12097217
117	0xbd2dead6	-0.042460285
118	0xbe9d6805	-0.30743423
119	0xbe9c2c44	-0.30502522
120	0xbe023bb9	-0.12718095
121	0xbe77d57f	-0.24202536
122	0x3daeab82	0.08528806
123	0xbca49a0b	-0.020092985
124	0xbd9683fb	-0.07349392
125	0xbdaf97b3	-0.08573856
126	0xbe464fc3	-0.19366364
127	0x3cbeb833	0.023281192
128	0x3bd1e5a7	0.0064055505
129	0xbe1a0698	-0.15041578
130	0xbd82fa7c	-0.06395432
131	0x3e15b0ec	0.14618272
132	0xbd89ea40	-0.06734133
133	0xbd8e1c59	-0.06939001
134	0x3e4dee30	0.20110393
135	0xbe00a0d0	-0.12561345
136	0x3da352b7	0.07974761
137	0xbe0201cc	-0.12695998
138	0xbd63fd12	-0.05566127
139	0xbc490453	-0.012269097
140	0xbdd5774c	-0.10423145
141	0x3e0ce33e	0.13758561
142	0x3b961d04	0.0045810957
143	0xbdc411ce	-0.095737085
144	0xbcc88338	-0.024476632
145	0xbe04a8d1	-0.12955023
146	0x3e4cd217	0.20002018
147	0xbe2d1839	-0.16903771
148	0x3dce4474	0.1007165
149	0xbe425179	-0.18976392
150	0x3d26cdaa	0.04072348
151	0xbce91a37	-0.028454883
152	0x3e0e2ff5	0.13885482
153	0x3e346102	0.1761513
154	0xbd4b5145	-0.04963805
155	0x3d00a383	0.031405937
156	0xbd1733ec	-0.03691475
157	0xbceb58a7	-0.028728796
158	0x3e32fe56	0.17479834
159	0xbe75d7e8	-0.24008143
160	0x3c1e9fe6	0.009681677
161	0x3d1a339b	0.03764687
162	0xbe1181fa	-0.14209738
163	0xbe7ae3ac	-0.24500912
164	0x3d0b566e	0.034017973
165	0xbdd2405b	-0.10266181
166	0x3daecc5e	0.08535074
167	0xbe1c4318	-0.15259969
168	0xbd2d4d54	-0.042310074
169	0xbd87e594	-0.066355854
170	0xbd96f636	-0.0737118
171	0x3d62ece8	0.055401713
172	0x3e32fbe6	0.17478904
173	0x3d732d06	0.05936911
174	0x3e22b816	0.15890536
175	0xbdc5c0c4	-0.09655908
176	0xbe206fb2	-0.15667608
177	0xbe0fdbc6	-0.1404868
178	0x3e542bad	0.20719786
179	0xbdb04130	-0.086061835
180	0x3e294385	0.16529663
181	0xbe1d9d59	-0.15392055
182	0x3dace6e3	0.08442476
183	0x3db0b8db	0.086290084
184	0xbca0abb3	-0.019613123
185	0x3dc7b03f	0.09750413
186	0x3b4f72fb	0.0031654227
187	0x3e189da8	0.14903891
188	0xbe2f2e4d	-0.17107506
189	0xbd5ac727	-0.053412583
190	0x3d27395b	0.040826183
191	0x3d2b6747	0.04184654

rnn.weight_ih_l1 f4 [192, 64]
0	0xbd557e8b	-0.052122634
1	0x3e0d06b8	0.13772094
2	0x3e0ec4b9	0.13942231
3	0x3d88985b	0.066696845
4	0x3d8b662d	0.06806598
5	0x3e1e780d	0.15475483
6	0x3d711458	0.058857292
7	0x3ec1d90a	0.378609
8	0xbbbc0a88	-0.00573856
9	0x3dfb14ea	0.122598484
10	0x3e1eb0cd	0.15497132
11	0xbdad247a	-0.08454223
12	0x3e85517f	0.2603874
13	0xbe46f5dc	-0.19429725
14	0x3e77c6cf	0.24196933
15	0xbdc3ab1c	-0.09554121
16	0x3d3c8a3b	0.046030264
17	0x3e20b431	0.15693738
18	0x3cdade2d	0.02671727
19	0xbe236642	-0.15956977
20	0x3d14a5fd	0.03629111
21	0x3d111a19	0.03542528
22	0xbe79e8ac	-0.24405164
23	0x3e58d2e4	0.21174198
24	0xbdb1e51d	-0.08686278
25	0x3d86de69	0.0658539
26	0x3de58a2e	0.11207996
27	0xbe48d601	-0.19612886
28	0x3e3977b0	0.18112063
29	0x3d88ba79	0.06676192
30	0xbd3de0c3	-0.046356928
31	0x3e19c15f	0.15015171
32	0xbdabcc7c	-0.08388612
33	0xbea3a917	-0.31964943
34	0xbe8c8c49	-0.2745078
35	0xbdaaa443	-0.08332112
36	0xbd936e2b	-0.07198747
37	0x3d6dacdb	0.058026176
38	0x3dc3b613	0.09556212
39	0x3e2e4b71	0.17020966
40	0x3e6b018d	0.2294981
41	0x3e6f7a96	0.23386607
42	0x3e75a1b9	0.23987474
43	0xbd29f36e	-0.04149192
44	0xbeb7f594	-0.3592955
45	0xbdc6ad1a	-0.09700985
46	0xbd9ac4cb	-0.075570665
47	0x3e3d0327	0.18458234
48	0x3e7c37c8	0.24630654
49	0x3ea51a53	0.32246646
50	0x3e3a4fba	0.18194476
51	0xbe9ea47a	-0.3098486
52	0x3d08a645	0.033361692
53	0x3e963d1a	0.29343492
54	0x3eb2fc5e	0.34958166
55	0xbe80cb28	-0.25154996
56	0x3e867086	0.26257724
57	0x3d0e3e21	0.03472722
58	0x3b8195f9	0.0039546457
59	0xbcb641e6	-0.02224822
60	0x3e015935	0.12631686
61	0x3e8587fc	0.2608031
62	0x3d63f3ce	0.055652432
63	0x3c183f74	0.009292472
64	0x3e2a319a	0.16620484
65	0x3d6c633c	0.057711825
66	0xbd2b9ad2	-0.041895695
67	0xbba3eee9	-0.0050028455
68	0x3e852605	0.2600557
69	0xbb88c2fb	-0.004173634
70	0x3daa40ee	0.083131656
71	0x3e57f371	0.2108896
72	0x3d5eaeec	0.054366037
73	0xbdbc2605	-0.09186939
74	0xbd658e3f	-0.05604386
75	0xbebcecdc	-0.3689946
76	0xbd0c6597	-0.03427657
77	0xbd193e7a	-0.037413098
78	0xbd75e38f	-0.06003147
79	0xbdae975f	-0.085249655
80	0x3d0d52fb	0.034502964
81	0x3f1e1d88	0.6176381
82	0xbe999f78	-0.30004478
83	0x3b99f25e	0.004698082
84	0xbe3c32a8	-0.18378699
85	0x3e3eb8eb	0.18625228
86	0x3e0d2b99	0.13786162
87	0x3e2607e3	0.16213946
88	0xbebce02d	-0.36889783
89	0x3d8ccdfb	0.06875225
90	0x3e0c7f41	0.13720419
91	0x3d1669c8	0.036721975
92	0xbe6527c7	-0.22378455
93	0xbd419967	-0.047265437
94	0xbdea86ee	-0.11451517
95	0x3e0de4da	0.13856831
96	0x3dc00c99	0.09377403
97	0xbeae113e	-0.3399753
98	0x3d8fe60d	0.070263006
99	0x3e530e4d	0.20610924
100	0x3e4dc5f4	0.20095044
101	0x3e09c7b1	0.13455082
102	0xbe7b5228	-0.24543059
103	0x3e4070d7	0.18793045
104	0xbda2fabe	-0.079579815
105	0x3e66892f	0.22513269
106	0x3ea0a83b	0.3137835
107	0xbe5230f7	-0.20526491
108	0xbf0a95e8	-0.5413499
109	0xbe5a2c62	-0.21305993
110	0xbd920cb6	-0.07131331
111	0x3e391929	0.18076004
112	0x3f0dd164	0.5539763
113	0x3b96ce1b	0.0046022064
114	0x3cc65118	0.02420859
115	0x3dc45826	0.095871255
116	0x3da49cd1	0.08037723
117	0x3d283989	0.041070495
118	0x3e0655e8	0.13118708
119	0x3912fec4	0.00014018553
120	0x3ea4a421	0.3215647
121	0xbdb6248e	-0.08893691
122	0xbe2f059e	-0.17091987
123	0xbe34c76a	-0.17654195
124	0x3e2c55bc	0.1682958
125	0x3d24a464	0.040195838
126	0xbdb75579	-0.089518495
127	0xbd9e1515	-0.07718865
128	0xbcfafa18	-0.030636832
129	0xbe59a770	-0.21255279
130	0x3cd3d954	0.025860466
131	0x3e8b2887	0.27179357
132	0xbdfe445a	-0.12415381
133	0x3ae98e4f	0.00178189
134	0xbe17c777	-0.14822184
135	0x3eee44bd	0.46536818
136	0x3e07c3c5	0.13258274
137	0xbe99f12b	-0.3006681
138	0xbd3c3541	-0.045949224
139	0xbe1eada9	-0.15495934
140	0x3e59a5ec	0.212547
141	0xbe970e08	-0.29502892
142	0x3d5017a2	0.050803788
143	0xbe8f50d5	-0.27991357
144	0xbda9e3a6	-0.082953736
145	0x3dee18ed	0.11625848
146	0xbe7d772b	-0.2475249
147	0x3e70c2a0	0.23511744
148	0xbc09ef1e	-0.008418826
149	0xbd1a5a1e	-0.0376836
150	0xbc501855	-0.012701114
151	0xbf6a6099	-0.91553646
152	0xbd8c3087	-0.06845193
153	0x3de03662	0.10947873
154	0x3ddba9c7	0.10725742
155	0xbe02e33a	-0.12781993
156	0x3d064afa	0.032786347
157	0xbe5d68ca	-0.21622005
158	0x3e015763	0.12630992
159	0x3cf1002b	0.029419025
160	0xbccd86c9	-0.025088685
161	0xbe07f155	-0.13275655
162	0xbeb336bc	-0.35002697
163	0x3deb4fe6	0.11489849
164	0xbe341cc0	-0.17589092
165	0x3cabf905	0.020992765
166	0x3e98e707	0.2986376
167	0xbdef358d	-0.11680136
168	0x3e4b430f	0.198498
169	0x3d1eafb2	0.038741775
170	0xbeb07dbc	-0.34470928
171	0x3d6fefa3	0.058578145
172	0xbd592a06	-0.053018592
173	0xbc53c8c9	-0.012926289
174	0x3e94e54c	0.2908119
175	0xbd3ebdca	-0.046567716
176	0xbdc32e81	-0.09530354
177	0x3e4443f7	0.19166552
178	0xbd873b5c	-0.06603119
179	0x3e157227	0.14594327
180	0x3c1e8af8	0.009676687
181	0x3dd3d50f	0.10343372
182	0xbd0d1557	-0.03444418
183	0x3e05fd2e	0.13084862
184	0xbe619223	-0.22028403
185	0x3d82b5b3	0.063823126
186	0xbe521053	-0.2051404
187	0x3e868e76	0.26280564
188	0x3c0111f1	0.007877813
189	0xbcfe8a4e	-0.031071808
190	0x3e5e0f72	0.2168558
191	0x3ead3624	0.3383037
192	0xbe07857c	-0.13234514
193	0x3d3d868c	0.046270892
194	0x3e10c8d3	0.14139108
195	0xbed36520	-0.4128809
196	0xbd8c5750	-0.06852591
197	0xbd87ea08	-0.06636435
198	0xbe03da15	-0.1287616
199	0xbf2b752a	-0.66975653
200	0xbddc106a	-0.10745318
201	0xbe1c8744	-0.15285975
202	0xbeb9a957	-0.3626201
203	0xbc83ebdb	-0.016103676
204	0xbe51503b	-0.20440762
205	0x3e8249e9	0.25447014
206	0xbda4c27d	-0.08044908
207	0x3e2579be	0.16159722
208	0x3ddabdd6	0.106807396
209	0xbe5e78fe	-0.21725842
210	0x3e896a12	0.26838738
211	0xbc2f98e3	-0.010717603
212	0xbcb2ee0d	-0.021842027
213	0x3ba69bbf	0.0050844843
214	0x3e9f719c	0.31141365
215	0x3deb931b	0.115026675
216	0x3ee1be6b	0.4409059
217	0xbd138820	-0.03601849
218	0xbe433e27	-0.19066678
219	0xbe52b6b7	-0.20577513
220	0x3ea1f2c7	0.31630537
221	0x3e84a2a0	0.25905323
222	0xbd8acfe2	-0.06777932
223	0x3eac8b9e	0.3370027
224	0xbd4fdf10	-0.05074984
225	0xbaa1f58c	-0.0012356504
226	0xbc11f276	-0.008907905
227	0x3e79a530	0.2437942
228	0x3e2bcb82	0.16776851
229	0x3bba8ec1	0.005693287
230	0xbc140ecb	-0.00903673
231	0x3e8062b9	0.2507532
232	0xbd806c47	-0.06270652
233	0xbe1c483e	-0.15261933
234	0x3dfddc58	0.12395543
235	0x3d6ec489	0.0582929
236	0x3e832e77	0.25621387
237	0x3e0f0859	0.13968028
238	0xbde7b6f1	-0.1131419
239	0xbe1e6c89	-0.1547109
240	0x3dd35316	0.10318582
241	0xbe5b742f	-0.2143104
242	0x3e8356d6	0.25652188
243	0x3ddd3170	0.10800445
244	0xbdfcc485	-0.123421706
245	0xbd3de27f	-0.04635858
246	0x3e5fb669	0.21846928
247	0x3ec7fbec	0.3905939
248	0x3d88fee4	0.066892415
249	0xbe019bcf	-0.12657093
250	0xbe0c526b	-0.13703315
251	0xbd418849	-0.047249112
252	0x3e9c647a	0.30545408
253	0xbe079fdd	-0.13244577
254	0xbf1b05b9	-0.6055561
255	0x3dd6ea8f	0.10493957

rnn.weight_hh_l1 f4 [192, 64]
0	0x3c8957a2	0.01676542
1	0xbe267996	-0.16257319
2	0x3e0add09	0.1356088
3	0xbe0ff713	-0.14059095
4	0xbe1cc6e8	-0.15310252
5	0xbe54e4cb	-0.20790403
6	0xbe076b75	-0.13224585
7	0x3dfb74cb	0.12278136
8	0xbd9fdfae	-0.078063354
9	0xbe0f83b8	-0.1401509
10	0x3e47b75f	0.19503544
11	0x3d00f2fa	0.03148172
12	0xbe5aa812	-0.21353176
13	0x3cc5aa21	0.024128975
14	0xbe168fdd	-0.14703317
15	0x3cc71617	0.024302525
16	0xbe02ba20	-0.12766314
17	0x3c82b2bf	0.015954373
18	0x3dc79bb0	0.09746492
19	0x3e1dfdba	0.1542882
20	0x3e677bd1	0.22605826
21	0x3c3d57b6	0.011556556
22	0x3e0c13fe	0.13679501
23	0x3eddce40	0.4332142
24	0x3da11c4b	0.078667246
25	0x3e5aca63	0.21366267
26	0x3db8cd00	0.09023476
27	0xbd8e0b60	-0.06935763
28	0x3d0f9035	0.035049636
29	0xbd0d04fc	-0.03442858
30	0x3c1deed3	0.00963946
31	0x3e2da582	0.16957667
32	0xbe585f2a	-0.21130052
33	0xbe05be4d	-0.13060875
34	0xbc156d65	-0.00912032
35	0x3be3f15d	0.006956263
36	0x3d33e4cd	0.043919373
37	0xbe641e56	-0.22277197
38	0x3d3cdcf5	0.04610916
39	0x3e009848	0.1255809
40	0xbd91e768	-0.07124215
41	0x3d94cfaa	0.07266171
42	0xbe6e3344	-0.23261744
43	0x3dd2da7f	0.10295581
44	0x3d363717	0.04448613
45	0xbe02c127	-0.12768994
46	0xbdf15443	-0.1178365
47	0xbe441ab6	-0.19150814
48	0x3e704a7e	0.23465917
49	0xbdcede77	-0.101010256
50	0xbe644551	-0.22292067
51	0xbb916bda	-0.0044379057
52	0xbe08f107	-0.13373195
53	0x3d4c84ef	0.049931463
54	0x3cb101fb	0.02160739
55	0x3c9212a1	0.017831149
56	0xbe173123	-0.14764838
57	0xbde5411e	-0.11194061
58	0x3e1813ea	0.14851347
59	0xbe460875	-0.19339164
60	0xbe662135	-0.22473605
61	0xbde56b7a	-0.1120214
62	0x3dc0ae5c	0.094082564
63	0x3c9f816b	0.019470891
64	0x3da34a7c	0.07973191
65	0x3c2745fc	0.010209557
66	0xbded8703	-0.11598017
67	0x3dd3d216	0.10342805
68	0xbd90e74f	-0.070753686
69	0xbdc9b8f5	-0.09849731
70	0x3d5264aa	0.051365532
71	0x3d550230	0.05200404
72	0xbd4ad430	-0.049518764
73	0x3d1a2288	0.037630588
74	0xbe0bda7b	-0.13657562
75	0x3e19c081	0.1501484
76	0xbd957506	-0.07297711
77	0x3e98a31c	0.29811943
78	0x3c93c549	0.018038409
79	0x3d89c3ba	0.06726785
80	0xbe7197b0	-0.2359302
81	0xbdc08d4f	-0.094019525
82	0x3e85a0cd	0.26099244
83	0x3b4b83d5	0.003105392
84	0xbe293c72	-0.16526964
85	0xbe300232	-0.17188337
86	0xbd3c8d1e	-0.046033017
87	0xbe2ce878	-0.16885555
88	0x3d792e1c	0.06083499
89	0xbd9969cb	-0.074908815
90	0xbe26d85b	-0.1629347
91	0x3d3d467f	0.04620981
92	0x3e60a03a	0.21936122
93	0xbe0a649d	-0.13514943
94	0x3dd9af78	0.10629171
95	0x3daca79a	0.08430405
96	0x3d8ec21f	0.069706194
97	0x3e69d5de	0.2283549
98	0x3d471912	0.048607893
99	0xbd1bf349	-0.03807381
100	0xbea7c279	-0.32765558
101	0xbe52fd3f	-0.20604418
102	0x3e396e77	0.18108545
103	0xbc4c8475	-0.012482752
104	0x3d97ef70	0.07418716
105	0xbdc2a947	-0.09504943
106	0x3e44f0b8	0.19232452
107	0xbc9411b4	-0.018074848
108	0xbdbcb9ee	-0.09215151
109	0x3e2ea293	0.17054205
110	0xbd409b24	-0.047022954
111	0xbe6a75e4	-0.22896534
112	0x3e1e205b	0.1544203
113	0x3d218589	0.03943399
114	0x3e1b3450	0.15156674
115	0x3ddfb223	0.10922649
116	0x3af7d81f	0.0018909014
117	0xbd44a6ef	-0.048010763
118	0x3e039d9a	0.12853089
119	0x3e1b86d3	0.1518815
120	0x3dcf97dd	0.101363875
121	0xbcf7fea3	-0.030272787
122	0x3e0c60f8	0.13708866
123	0x3e26dd82	0.16295436
124	0xbda55a0a	-0.08073814
125	0x3e848288	0.25880837
126	0x3c9a22d3	0.018815434
127	0xbd97ee53	-0.074185036
128	0xbda327c9	-0.07966573
129	0xbdc9cc5f	-0.09853434
130	0x3e9d61de	0.3073873
131	0xba8b5ec1	-0.0010633097
132	0x3dca5162	0.09878804
133	0xbd192c8d	-0.037396003
134	0xbe2e6656	-0.17031226
135	0x3d12c0df	0.035828467
136	0xbdbc919b	-0.092074595
137	0xba928770	-0.001117928
138	0xbf059251	-0.52176386
139	0x3e1f572d	0.15560599
140	0xbf013185	-0.50466186
141	0x3e38e677	0.18056665
142	0x3d8106cd	0.06300125
143	0xbda28ced	-0.07937036
144	0x3db76989	0.08955676
145	0x3e8f1355	0.27944437
146	0x3b12f95b	0.002242646
147	0xbdacdd52	-0.08440651
148	0x3dd18a68	0.10231477
149	0x3e6a79db	0.22898047
150	0x3d32e227	0.043672707
151	0x3cedbe58	0.029021427
152	0x3c1c021c	0.009521987
153	0xbdd1a622	-0.102367654
154	0xbe0fd523	-0.14046149
155	0x3e672be2	0.22575334
156	0xbead5c07	-0.33859274
157	0xbd8518f0	-0.06498897
158	0x3d5108cc	0.05103378
159	0xbecdeaa3	-0.40218076
160	0x3d9705ae	0.0737413
161	0xbe5f3cbe	-0.21800515
162	0x3d32776c	0.04357092
163	0xbe0d60fa	-0.13806525
164	0x3da314ef	0.07962977
165	0x3d1cf1e1	0.03831661
166	0xbe32675d	-0.17422242
167	0x3e05bd22	0.1306043
168	0xbd5f5958	-0.054528564
169	0xbeeb34fc	-0.4593886
170	0x3dd293f2	0.102821246
171	0xbdbcdbaa	-0.09221585
172	0x3cce2e41	0.02516854
173	0xbe0afdde	-0.13573405
174	0x3b9ba703	0.004750134
175	0x3de9806d	0.114014484
176	0xbd807ebd	-0.062741734
177	0xbc43bea3	-0.011947307
178	0x3c356224	0.011070762
179	0x3d9e3427	0.07724791
180	0xbee22aaa	-0.44173175
181	0x3e66abea	0.22526518
182	0x3db9592e	0.09050213
183	0xbd3e3083	-0.046432983
184	0xbd2aed18	-0.041730016
185	0x3ead2a5d	0.33821383
186	0xbddbc748	-0.10731369
187	0x3c886cb4	0.016653396
188	0x3ce08ceb	0.027410945
189	0x3e549cf8	0.20763004
190	0x3d3b6531	0.0457508
191	0x3ca7d75d	0.020488435
192	0x3d283e2a	0.04107491
193	0x3ad7d3f9	0.0016466371
194	0xbe9ebde8	-0.31004262
195	0xbcd535a1	-0.026026549
196	0xbcb25e06	-0.02177335
197	0x3cda4021	0.026641907
198	0x3db4b8f1	0.08824337
199	0x3dff046f	0.124520175
200	0xbd795e38	-0.06088087
201	0xbe386c81	-0.18010141
202	0x3e5e4cce	0.21708986
203	0xbebb2344	-0.36550343
204	0xbe63d531	-0.22249295
205	0xbe8126bb	-0.25224862
206	0xbe9d2a0e	-0.30696148
207	0x3e464569	0.19362415
208	0xbcfc23f7	-0.030778868
209	0xbe106112	-0.1409953
210	0x3de2cb0a	0.11073883
211	0x3de3cf42	0.11123516
212	0xbc93c745	-0.018039355
213	0xbdbe25fc	-0.09284589
214	0xbe135bc4	-0.14390475
215	0x3e741435	0.23835833
216	0x3df7a851	0.12092651
217	0x3cc749bc	0.024327151
218	0x3c9e9250	0.019356877
219	0xbdcbff91	-0.09960855
220	0x3db7a113	0.08966269
221	0xbda32777	-0.07966512
222	0xbd913a9f	-0.07091259
223	0xbd29f498	-0.04149303
224	0x3c42b629	0.011884251
225	0x3e1acd08	0.15117276
226	0x3ce29f4a	0.027663846
227	0x3d010cf2	0.031506486
228	0xbe257694	-0.16158515
229	0x3bf83c2f	0.007575534
230	0xbd0d7d75	-0.034543473
231	0xbd3a8110	-0.04553324
232	0x3e973569	0.29532936
233	0xbc6bbb98	-0.014387988
234	0x3e703c73	0.2346056
235	0xbe27c559	-0.16383876
236	0x3da87a0a	0.08226402
237	0xbce802f3	-0.028321719
238	0x3da939a8	0.0826295
239	0xbeac6d73	-0.33677253
240	0xbd81cbf8	-0.06337732
241	0x3d9e8b38	0.077413976
242	0x3d243d50	0.040097535
243	0xbeb8f2e3	-0.36122808
244	0xbd30a0c4	-0.043122068
245	0xbe071428	-0.13191283
246	0x3dbd2b2e	0.092367515
247	0x3dba3b97	0.09093397
248	0x3deb4055	0.1148688
249	0xbea18b5f	-0.31551644
250	0xbe02f1a8	-0.12787497
251	0x3d4f0614	0.050542906
252	0x3c1f550b	0.009724866
253	0x3e1fc33a	0.15601817
254	0x3e61db7e	0.22056386
255	0xbe312d71	-0.17302491

rnn.bias_ih_l1 f4 [192]
0	0xbd5a3e5b	-0.053282123
1	0xbe3be60c	-0.18349475
2	0x3df54452	0.11975922
3	0xbd94bed4	-0.0726296
4	0x3da510d4	0.0805985
5	0x3d3edad8	0.046595424
6	0x3db1e056	0.08685367
7	0x3e75f419	0.24018897
8	0xbdb3e00a	-0.087829664
9	0x3e14f34c	0.14545935
10	0xbd01cc42	-0.031688936
11	0xbe08d8c2	-0.13363937
12	0xbc9581e5	-0.018250415
13	0x3e0e32e1	0.13886596
14	0x3e1ba0e3	0.15198092
15	0xbd56834e	-0.052371316
16	0x3d26fcc3	0.040768396
17	0xbe05b86e	-0.13058636
18	0x3c991d48	0.01869072
19	0x3d265902	0.04061223
20	0xbe1ec0f0	-0.15503287
21	0xbdfcffbf	-0.12353467
22	0x3e6e5708	0.23275387
23	0x3d07e661	0.03317869
24	0x3e245cb7	0.16050993
25	0x3cc80177	0.024414761
26	0xbd81d021	-0.063385256
27	0x3d4f1b6a	0.050563253
28	0xbe2798cc	-0.16366881
29	0x3d28dbe4	0.04122533
30	0xbd8c0c60	-0.06838298
31	0x3e4f48c5	0.20242603
32	0xbdb41499	-0.08792991
33	0xbcea078b	-0.02856805
34	0x3d9717c3	0.07377579
35	0xbd1f06db	-0.038824897
36	0x3e0e5875	0.13900931
37	0x3e2ecce5	0.17070349
38	0xbe10d071	-0.14142014
39	0xbd5ceb3e	-0.053935282
40	0x3d94441f	0.072395556
41	0x3d3f8b35	0.046763618
42	0x3dc9f15b	0.09860488
43	0xbde65346	-0.11246352
44	0xbe72c2c2	-0.23707107
45	0xbd727f47	-0.059203412
46	0x3d68e084	0.05685474
47	0x3d750118	0.059815496
48	0xbd0d1ef5	-0.03445335
49	0xbd352a7a	-0.044229962
50	0x3bf2caa8	0.0074094124
51	0x3dd5bd3f	0.104364865
52	0xbdf52a1c	-0.11970922
53	0xbe4c7634	-0.19966966
54	0x3e073e3b	0.13207333
55	0x3e8b8610	0.2725072
56	0x3dbd2e04	0.092372924
57	0xbcfc9839	-0.030834304
58	0x3e18454d	0.14870186
59	0xbdabdc36	-0.08391611
60	0xbbae9033	-0.0053272485
61	0x3df1df1c	0.11810133
62	0x3e06ab8a	0.13151374
63	0x3d94bfcd	0.072631456
64	0xbce1be03	-0.027556425
65	0xbe5f1774	-0.2178629
66	0x3cef3acf	0.029202847
67	0xbdfe3d77	-0.12414067
68	0x3d82eb86	0.06392579
69	0xbdd723d0	-0.105048776
70	0xbde463f0	-0.11151874
71	0xbdcaeed3	-0.09908833
72	0xbe2f6b3a	-0.17130747
73	0x3c4ec4e1	0.012620182
74	0xbe06f4ab	-0.13179271
75	0xbe87ebcf	-0.26547095
76	0xbe3c8c8f	-0.18412994
77	0x3dc10856	0.09425418
78	0xbe56debb	-0.20983402
79	0xbe20ac96	-0.15690836
80	0xbd0456b9	-0.032309268
81	0xbe28910d	-0.16461582
82	0xbd82b219	-0.06381626
83	0xbd05476d	-0.03253882
84	0xbe18fd81	-0.14940454
85	0x3d3c4059	0.045959804
86	0x3d097693	0.033560347
87	0xbd7b1bd9	-0.061305854
88	0xbe327779	-0.17428388
89	0xbd1c2505	-0.038121242
90	0xbbfd493c	-0.0077296775
91	0xbe1d494d	-0.15359993
92	0xbdc88053	-0.09790101
93	0x3b298e99	0.0025872348
94	0xbde22ba4	-0.1104348
95	0xbe111c80	-0.14171028
96	0xbe6e90b5	-0.23297389
97	0xbdfcb712	-0.123396054
98	0xbe1f7f44	-0.15575892
99	0xbe7f3170	-0.24921203
100	0xbe0292a9	-0.12751259
101	0xbe06c456	-0.13160834
102	0xbe51e82b	-0.20498721
103	0xbb875103	-0.0041295304
104	0xbdbb416b	-0.09143337
105	0x3dc5d129	0.09659035
106	0xbdfa7fac	-0.12231383
107	0xbe3b5a51	-0.18296172
108	0xbd1f2133	-0.03885002
109	0xbd8e1cb1	-0.06939066
110	0xbe665b3f	-0.22495745
111	0x3d2b55f7	0.04183003
112	0xbe660cb4	-0.22465783
113	0xbcbaeca1	-0.022817912
114	0xbe967b09	-0.29390743
115	0xbdff258b	-0.12458333
116	0xbe65f36b	-0.22456138
117	0x3c8a0486	0.01684786
118	0xbe6b020c	-0.2295
119	0xbe09ae8e	-0.13445494
120	0x3d57db7f	0.052699562
121	0xbc1abf3b	-0.009445007
122	0x3c539579	0.012914055
123	0xbe0b9d36	-0.1363419
124	0xbe2cc406	-0.16871652
125	0xbdeda377	-0.11603444
126	0x3d3a0136	0.04541131
127	0xbe02aefe	-0.12762067
128	0xbb3cd420	-0.002881296
129	0x3e2b58ce	0.16733095
130	0x3e2f16a1	0.17098476
131	0x3d833433	0.064064406
132	0x3e0a0f02	0.13482288
133	0xbe817426	-0.25283927
134	0x3e1efc43	0.15525918
135	0xbe1340e1	-0.14380218
136	0xbd944381	-0.07239438
137	0xbca32d27	-0.019918991
138	0xbe18c3f7	-0.14918505
139	0x3ca50d95	0.020148078
140	0x3bc154ac	0.0058999863
141	0xbbd5cc6b	-0.0065246127
142	0x3e38e0da	0.18054524
143	0xbd434f1a	-0.04768286
144	0x3d0baf97	0.034103002
145	0xbd2cb27b	-0.0421624
146	0xbdddd233	-0.10831108
147	0x3d23aa8b	0.039957564
148	0xbd91468c	-0.07093534
149	0x3c30f8f6	0.010801544
150	0x3dd3bb1d	0.103384234
151	0xbda078a3	-0.0783551
152	0xbe5f5b68	-0.21812212
153	0xbdf55884	-0.11979774
154	0x3e6cce4d	0.23125573
155	0x3c4f470d	0.012651217
156	0xbd281789	-0.04103807
157	0xbca904fa	-0.020632256
158	0x3d5afe9b	0.053465467
159	0x3aaa02f4	0.0012970851
160	0x3db93353	0.090429924
161	0x3d3e2107	0.046418216
162	0x3e1cd2fb	0.15314858
163	0x3dc75a6c	0.097340435
164	0x3e0e1538	0.13875282
165	0x3d434284	0.047670856
166	0x3a87b658	0.0010354025
167	0xbdd822d0	-0.10553515
168	0xbdf8d078	-0.12149137
169	0x3d74b3f6	0.059741937
170	0x3e57e011	0.21081568
171	0xbe09fd82	-0.13475612
172	0xbdabaccf	-0.0838257
173	0x3e1e21fa	0.15442649
174	0xbd6e98a4	-0.05825104
175	0x3de58abc	0.11208102
176	0x3d2e702e	0.04258745
177	0xbd2a408c	-0.041565463
178	0x3cccb754	0.024989761
179	0x3dc46393	0.09589305
180	0xbda5c537	-0.08094256
181	0x3e30f22f	0.17279886
182	0xbe38f7e3	-0.18063311
183	0xbe1a150f	-0.15047096
184	0x3e013501	0.12617876
185	0x3c1d574b	0.009603332
186	0xbd49f1f8	-0.049303025
187	0xbc015c50	-0.007895544
188	0x3e202e74	0.1564272
189	0xbe07ddab	-0.13268153
190	0x3e024a7f	0.1272373
191	0x3e0f7de4	0.14012867
