graphrnn_v2/experiments/structures/trees/trees_graphrnn_s_small/model_at_0.pt (torch, 398995 bytes, 22 tensors)

embedding.0.weight f4 [32, 10]
0.22787836 -0.30999455 0.07124881 -0.097539596 -0.08842884 0.2459859 -0.18753944 -0.022354582
-0.1068604 0.28701645 -0.07960908 0.24276465 -0.0071841395 -0.12972663 0.15716667 0.24940126
-0.18329425 0.2692938 -0.15332223 -0.18458487 0.11973278 -0.2626888 0.0023418663 0.012512887
0.26165473 0.24747135 -0.05018137 -0.30312967 -0.04646291 0.10282065 0.109028056 -0.1764567
0.3077172 0.110566646 0.11134679 -0.006319426 -0.069143236 -0.23290952 -0.27506447 -0.0020776107
-0.0528799 -0.2702265 0.24183615 -0.2466877 0.026144162 -0.1632455 -0.14757451 0.027099524
0.009273344 0.0123819 -0.04421693 -0.29119718 0.038106326 -0.16159888 0.061841927 0.16851121
0.30268124 0.1665577 0.14682542 -0.23148295 -0.29808825 -0.00030730828 -0.26948905 -0.23423228
-0.1756668 -0.19241758 -0.16734594 -0.31103912 -0.16802084 -0.14079416 -0.21180524 0.058861528
-0.03980155 0.17028326 -0.29879335 -0.02065941 0.04213379 0.15181322 0.25072053 -0.19503035
0.24414498 -0.08570314 0.13344827 -0.2914324 0.2618204 -0.2773769 0.27485973 -0.10109935
0.08159192 0.22911838 0.08296419 0.025059322 0.18141012 -0.17891839 -0.25359422 0.29889426
-0.048795134 0.30199403 0.12631759 -0.028232431 -0.21071705 -0.20636712 0.06443225 -0.29911843
0.058060944 -0.05722957 0.03827187 -0.13189538 0.1930532 0.25387946 0.2718181 0.21043839
-0.3097659 -0.23417516 0.07644241 0.107010715 -0.25767243 -0.047149666 0.27180508 -0.23182027
-0.08451057 0.032311726 0.05444515 0.28871626 -0.26298 -0.07632366 -0.0046335543 0.27176476
-0.2536285 -0.063126296 -0.17899826 -0.058190607 -0.10114618 0.09940721 0.2798351 0.06684447
0.0064298185 0.12085926 -0.019650862 0.21058276 0.25139573 -0.049185496 -0.3155185 -0.10032349
0.19523682 -0.2918538 -0.06766931 -0.13932137 -0.02036185 -0.26342735 0.0578748 -0.055541713
0.20055294 0.17780703 0.23302452 -0.1319298 -0.2658549 0.034844883 -0.1728735 0.16572033
-0.17571983 -0.21198545 0.27613345 -0.23100957 -0.18947233 0.22744852 -0.14635569 0.036982432
0.023667186 -0.14703883 0.2820128 -0.31686422 -0.29552305 0.13649105 0.04090987 0.27655855
0.23958324 -0.28351998 0.27853277 0.09997352 0.22204447 0.041362274 0.056008875 -0.19876564
0.23099455 0.017320601 0.31483677 0.010812694 0.05780613 -0.18648182 -0.19172888 -0.13561743
-0.08924465 0.29013965 0.17824616 -0.03002584 -0.034432314 0.02298552 -0.06512499 0.09216144
-0.17148063 -0.075088285 -0.14652084 -0.21636648 0.24673922 0.15064126 -0.20428763 0.28450578
-0.12228295 -0.07610076 0.28602913 -0.047735736 0.2225866 -0.20008932 -0.18969204 -0.112430766
-0.16425975 -0.28407437 -0.120853506 0.26388735 0.24911262 -0.09973447 -0.21633615 0.06437993
-0.29619512 0.17429551 0.17801246 0.0030603008 0.24636891 0.3076848 0.20097904 -0.050925992
0.28235596 0.2665736 0.26854363 -0.0003787185 -0.08920657 -0.18097983 -0.31077358 -0.27974716
-0.14349374 0.12844287 0.0015179943 0.31186295 -0.30590984 0.14194156 -0.13964307 -0.17160729
-0.17709325 0.18158674 -0.2087448 -0.16685879 -0.28998336 0.25427938 -0.2529321 -0.089436434
00000000: f258 693e 9bb7 9ebe e5ea 913d d7c2 c7bd
00000010: 2e1a b5bd bae3 7b3e 570a 40be f520 b7bc
00000020: a0d9 dabd d2f3 923e 160a a3bd 4c97 783e
00000030: ee68 ebbb 0fd7 04be 4df0 203e 0b63 7f3e
00000040: 7db1 3bbe e1e0 893e 8100 1dbe d103 3dbe
00000050: 7636 f53d 257f 86be ff79 193b da02 4d3c
00000060: 9cf7 853e 2169 7d3e fb8a 4dbd d033 9bbe
00000070: e44f 3ebd a293 d23d 1a4a df3d 11b1 34be
00000080: 1c8d 9d3e c470 e23d c909 e43d 3013 cfbb
00000090: f89a 8dbd d57f 6ebe 40d5 8cbe 8628 08bb
000000a0: 9898 58bd 215b 8abe e5a3 773e b39b 7cbe
000000b0: 482c d63c d429 27be c61d 17be d2ff dd3c
000000c0: 39ef 173c 74dd 4a3c d01c 35bd cc17 95be
000000d0: 6115 1c3d 2d7a 25be f64d 7d3d 348e 2c3e
000000e0: 09f9 9a3e 1a8e 2a3e 6759 163e de09 6dbe
000000f0: 069f 98be 381e a1b9 78fa 89be 96da 6fbe
00000100: ffe1 33be 1d09 45be bc5c 2bbe 8540 9fbe
00000110: a80d 2cbe 582c 10be 79e3 58be c918 713d
00000120: f306 23bd bc5e 2e3e 71fb 98be ec3d a9bc
00000130: 7b94 2c3d ed74 1b3e 715e 803e 09b6 47be
00000140: 2401 7a3e 2185 afbd aaa6 083e a136 95be
00000150: 530d 863e 5804 8ebe 6aba 8c3e 2d0d cfbd
00000160: aa19 a73d 029e 6a3e 21e9 a93d 3549 cd3c
00000170: 93c3 393e 6236 37be 1ad7 81be ab08 993e
00000180: 68dd 47bd f69e 9a3e 6659 013e b347 e7bc
00000190: 36c6 57be e751 53be 0ef5 833d 0d26 99be
000001a0: 50d1 6d3d 8e69 6abd f7c2 1c3d 950f 07be
000001b0: bdaf 453e 7dfc 813e be2b 8b3e 297d 573e
000001c0: a399 9ebe 9dcb 6fbe d78d 9c3d 6f28 db3d
000001d0: a4ed 83be 0220 41bd 092a 8b3e 4b62 6dbe
000001e0: e113 adbd 4d59 043d e101 5f3d 9ed2 933e
000001f0: 51a5 86be 944f 9cbd 12d5 97bb c024 8b3e
00000200: 98db 81be 5c48 81bd 524b 37be 4659 6ebd
00000210: ba25 cfbd 0296 cb3d 8c46 8f3e c1e5 883d
00000220: 3ab1 d23b 0f85 f73d d8fa a0bc 02a3 573e
00000230: f1b6 803e bb76 49bd a48b a1be 6776 cdbd
00000240: 29ec 473e dc6d 95be 3596 8abd 43aa 0ebe
00000250: e5cd a6bc f3df 86be 200e 6d3d b57f 63bd
00000260: c05d 4d3e 0c13 363e fb9d 6e3e 9b18 07be
00000270: 221e 88be 82b9 0e3d c005 31be 97b2 293e
00000280: e6ef 33be b712 59be 5d61 8d3e c68d 6cbe
00000290: 0905 42be 44e8 683e 44de 15be e47a 173d
000002a0: b0e1 c13c 5991 16be fb63 903e 073c a2be
000002b0: cc4e 97be 4fc4 0b3e 1c91 273d 1599 8d3e
000002c0: 4f55 753e 8829 91be d99b 8e3e ebbe cc3d
000002d0: a05f 633e 7d6b 293d 9069 653d 3889 4bbe
000002e0: d689 6c3e efe3 8d3c 4932 a13e ba27 313c
000002f0: 1fc6 6c3d 17f5 3ebe 9354 44be 4cdf 0abe
00000300: e6c5 b6bd 2f8d 943e 2986 363e c0f8 f5bc
00000310: e608 0dbd 214c bc3c 4060 85bd 23bf bc3d
00000320: 9e98 2fbe e3c7 99bd 8f09 16be 2d8f 5dbe
00000330: 35a9 7c3e b441 1a3e c730 51be beaa 913e
00000340: 7c6f fabd b7da 9bbd 6972 923e 8c86 43bd
00000350: beed 633e 37e4 4cbe a13e 42be 1a42 e6bd
00000360: b533 28be 3272 91be 0b82 f7bd 3e1c 873e
00000370: 6117 7f3e 9641 ccbd 3987 5dbe a0d9 833d
00000380: e3a6 97be 867a 323e e648 363e 548f 483b
00000390: 2248 7c3e dd88 9d3e 73cd 4d3e c697 50bd
000003a0: f690 903e 567c 883e 8d7e 893e bd8e c6b9
000003b0: efb1 b6bd c752 39be b71d 9fbe 053b 8fbe
000003c0: 06f0 12be 8786 033e 70f7 c63a 80ac 9f3e
000003d0: 37a0 9cbe 2159 113e 98fe 0ebe d2b9 2fbe
000003e0: ef57 35be e0f1 393e 32c1 55be 08dd 2abe
000003f0: b378 94be e830 823e 5180 81be 732a b7bd

embedding.0.bias f4 [32]
0.07570063 0.23910677 0.048807662 0.04938494 0.13156882 0.24479967 -0.035612814 0.23855756
-0.24550512 0.04792066 -0.05536053 0.25835675 0.029561047 -0.07393408 -0.23823257 -0.114075415
-0.10150437 0.29361263 -0.067518726 0.20575808 -0.26370943 -0.20736988 -0.023915743 -0.06686108
-0.20562129 0.21355142 0.19895162 -0.0761025 -0.11538188 -0.07053935 -0.16431911 -0.17431498
00000000: ef08 9b3d 68d8 743e 8bea 473d dd47 4a3d
00000010: fab9 063e c4ac 7a3e bede 11bd 6f48 743e
00000020: b265 7bbe 7448 443d b9c1 62bd 5647 843e
00000030: 022a f23c c06a 97bd 3df3 73be 5fa0 e9bd
00000040: 86e1 cfbd 6554 963e 4247 8abd 3fb2 523e
00000050: ec04 87be c558 54be f3ea c3bc 76ee 88bd
00000060: 638e 52be 39ad 5a3e f9b9 4b3e a1db 9bbd
00000070: 564d ecbd ef76 90bd 4543 28be a07f 32be

rnn.weight_ih_l0 f4 [192, 32]
0.059965856 -0.005149472 -0.07081754 0.08500125 0.030062612 -0.04659214 -0.11934605 -0.01417367
-0.04434462 0.0047656163 0.07770486 -0.121417336 -0.09219216 0.018751575 0.06161267 -0.039652854
-0.022850163 0.12007989 0.018562848 -0.09407359 0.07497744 -0.05217616 -0.019245928 0.10754065
0.050433304 -0.033490524 0.08025884 -0.08040209 -0.060502537 -0.0076117497 0.054961346 -0.039636746
0.11466249 -0.040397022 -0.10498056 -0.0013285703 0.04136906 -0.057635333 -0.06504609 -0.08245633
-0.06511133 0.11895873 -0.1237831 -0.081802696 -0.10137327 -0.026121916 -0.0767887 0.09564214
0.062064555 -0.00550265 -0.09977507 -0.066434294 0.018073559 0.0607072 -0.042231966 -0.08886644
0.11477042 0.017185139 0.04401625 0.0029048058 -0.037195355 -0.039986253 -0.03834911 0.09404196
0.10929832 0.055325832 0.071390055 0.043900862 -0.123615615 -0.10589732 0.0073459893 -0.0022584621
-0.03894835 0.0938856 -0.09352914 -0.12002002 -0.006902116 -0.05103144 0.018693117 -0.054577198
0.09241513 0.038444143 -0.050065503 -0.04620955 -0.06271958 -0.035622515 -0.07282868 0.102500364
-0.0025511784 -0.06307721 -0.12560666 0.113513164 -0.09852486 -0.06985461 0.11869965 -0.053811017
-0.09733251 0.10288061 -0.06705379 0.060595836 -0.025917515 0.09908716 -0.035256058 -0.043207157
-0.101853326 0.10573792 -0.11445435 0.08073979 0.116882525 0.06830135 -0.007153665 0.07737902
-0.0020092723 0.015298416 -0.07531654 0.04281979 -0.10612792 0.002430545 0.08180405 0.07864739
-0.027635256 -0.033738017 -0.010974079 -0.12273531 -0.083628014 0.024602776 -0.033202972 0.09163515
-0.0064190184 -0.048387326 0.07217021 -0.113113254 -0.078082256 -0.07482619 -0.08674371 -0.07517297
0.08417108 0.114185885 -0.04508355 0.044418115 -0.0974808 0.0824538 0.034322403 -0.0077329553
0.11936273 -0.04632012 0.0074576377 -0.010543657 -0.07798222 0.102083445 -0.039752074 0.024545975
-0.10005507 0.030024787 0.042896904 0.05415257 -0.023523748 0.026160676 -0.060820628 -0.087554924
-0.10995402 -0.049986154 0.03738445 -0.123703085 0.0035060437 0.07199589 -0.07422908 -0.08533844
-0.08890542 -0.04175681 -0.041734718 0.004456227 0.040429734 0.095079035 0.021030527 0.030904358
-0.09053259 -0.018214468 0.06785166 0.05625933 -0.036971703 0.014385927 -0.06168489 0.10733639
0.006734322 -0.065531366 -0.04296321 0.047940116 -0.07000666 -0.008336699 -0.072933264 -0.07055567
-0.0728787 -0.0327986 0.076615825 0.046260063 0.093877 -0.0646922 -0.0893677 0.0962931
0.107070595 0.11713209 0.023088995 0.028741678 -0.07964481 -0.093162104 0.123385966 0.010087831
0.064630434 0.108067185 0.08714007 -0.037186325 -0.01399003 0.032659885 -0.009534822 -0.09380037
-0.03271588 -0.076337725 0.07793608 0.040083554 -0.12210799 0.05068708 -0.07971187 0.07984414
0.097299546 0.06966854 0.045000575 0.07524149 -0.009070996 -0.09953384 -0.09747134 -0.07855249
-0.08166623 -0.06575314 0.10374523 0.026013147 -0.093613215 0.12364883 -0.090155244 -0.05937412
0.06053849 -0.07026813 0.02326219 0.10551007 0.002809137 0.10525273 -0.08336573 -0.004932375
0.12213211 0.06357016 -0.046525355 0.029478809 0.10139079 -0.06043731 -0.09509757 -0.035067655
00000000: c29e 753d e7bc a8bb c908 91bd 2315 ae3d
00000010: de45 f63c 66d7 3ebd b46b f4bd ae38 68bc
00000020: b4a2 35bd e328 9c3b ba23 9f3d a7a9 f8bd
00000030: 3ecf bcbd e79c 993c 915d 7c3d 086b 22bd
00000040: 4430 bbbc 72ec f53d 1d11 983c a8a9 c0bd
00000050: c68d 993d abb6 55bd a3a9 9dbc 463e dc3d
00000060: 2793 4e3d 5c2d 09bd bf5e a43d daa9 a4bd
00000070: 82d1 77bd fc6b f9bb 261f 613d 245a 22bd
00000080: 2bd4 ea3d 5977 25bd 0c00 d7bd 6c23 aeba
00000090: 9a72 293d 0713 6cbd e236 85bd ddde a8bd
000000a0: 1759 85bd a2a0 f33d fe81 fdbd 2c88 a7bd
000000b0: ca9c cfbd a1fd d5bc 6543 9dbd 07e0 c33d
000000c0: 6737 7e3d 934f b4bb df56 ccbd b40e 88bd
000000d0: 000f 943c 1da8 783d 6dfb 2cbd 9cff b5bd
000000e0: c10c eb3d d9c7 8c3c 624a 343d 8e5e 3e3b
000000f0: 285a 18bd a0c8 23bd f513 1dbd 1299 c03d
00000100: ccd7 df3d 579d 623d f334 923d 64d1 333d
00000110: 2f2a fdbd b2e0 d8bd a0b6 f03b b502 14bb
00000120: 4e88 1fbd 1847 c03d 358c bfbd 0ecd f5bd
00000130: 252b e2bb 5806 51bd 4f22 993c 578c 5fbd
00000140: 2544 bd3d 9b77 1d3d 7c11 4dbd 3a46 3dbd
00000150: 2073 80bd eae8 11bd 3427 95bd b6eb d13d
00000160: ac31 27bb a02e 81bd 089f 00be 9779 e83d
00000170: 67c7 c9bd ef0f 8fbd cd18 f33d f168 5cbd
00000180: 4456 c7bd 12b3 d23d 7f53 89bd 5733 783d
00000190: f850 d4bc 35ee ca3d a868 10bd fdf9 30bd
000001a0: 7a98 d0bd 1f8d d83d 0b67 eabd e75a a53d
000001b0: 1b60 ef3d 94e1 8b3d 4b69 eabb e478 9e3d
000001c0: ffad 03bb 35a6 7a3c 8f3f 9abd ce63 2f3d
000001d0: 9859 d9bd c749 1f3b e288 a73d e211 a13d
000001e0: 5563 e2bc e030 0abd a0cc 33bc a65c fbbd
000001f0: 2a45 abbd c38b c93c d7ff 07bd 36ab bb3d
00000200: a156 d2bb ca31 46bd facd 933d eca7 e7bd
00000210: 97e9 9fbd 793e 99bd b0a6 b1bd 49f4 99bd
00000220: e361 ac3d 4ada e93d 87a9 38bd c5ef 353d
00000230: 03a4 c7bd 8add a83d a695 0c3d bb64 fdbb
00000240: 7274 f43d 2bba 3dbd 335f f43b 4dbf 2cbc
00000250: 24b5 9fbd 2011 d13d 12d3 22bd a414 c93c
00000260: ace9 ccbd 8bf6 f53c aab4 2f3d 16cf 5d3d
00000270: e0b4 c0bc ea4e d63c 0d1f 79bd ff4f b3bd
00000280: 932f e1bd 48be 4cbd 7020 193d 0b58 fdbd
00000290: a7c5 653b 9572 933d 6a05 98bd ecc5 aebd
000002a0: 0b14 b6bd 3009 2bbd 06f2 2abd 8b05 923b
000002b0: a699 253d ccb8 c23d 3648 ac3c 232b fd3c
000002c0: 2769 b9bd 8236 95bc d0f5 8a3d 2f70 663d
000002d0: a46f 17bd f3b2 6b3c 4ca9 7cbd 2ed3 db3d
000002e0: 96ab dc3b 4f35 86bd 31fa 2fbd db5c 443d
000002f0: a75f 8fbd a696 08bc 095e 95bd 7e7f 90bd
00000300: 6e41 95bd d357 06bd c2e8 9c3d 317b 3d3d
00000310: 9642 c03d 587d 84bd 6a06 b7bd 5135 c53d
00000320: d447 db3d f3e2 ef3d 2225 bd3c ab73 eb3c
00000330: d11c a3bd c6cb bebd c8b1 fc3d 6e47 253c
00000340: f65c 843d 5452 dd3d 7e76 b23d b050 18bd
00000350: 7036 65bc 5fc6 053d f137 1cbc 691a c0bd
00000360: 1601 06bd f456 9cbd f49c 9f3d a72e 243d
00000370: c113 fabd 419d 4f3d fa3f a3bd 5385 a33d
00000380: fc44 c73d 61ae 8e3d 8652 383d 3618 9a3d
00000390: 849e 14bc 66d8 cbbd 0e9f c7bd 21e0 a0bd
000003a0: a040 a7bd 95a9 86bd 6178 d43d 8619 d53c
000003b0: 49b8 bfbd 993b fd3d 50a3 b8bd 4732 73bd
000003c0: 35f7 773d bde8 8fbd 5990 be3c aa15 d83d
000003d0: 8019 383b be8e d73d a7bb aabd c39f a1bb
000003e0: 6620 fa3d 1231 823d 5f91 3ebd 8b7d f13c
000003f0: f9a5 cf3d 1d8d 77bd 84c2 c2bd 1aa3 0fbd

rnn.weight_hh_l0 f4 [192, 64]
-0.085277334 -0.06533973 0.033446427 0.07090919 0.033630442 -0.03772109 -0.020129994 0.036014903
0.05696883 -0.006880486 0.056947503 0.045606483 0.06685116 0.10075775 -0.09719935 -0.056086365
-0.028614182 -0.111877754 0.037757255 -0.09785671 0.024533719 -0.01016067 0.07963906 -0.0015234667
0.09401438 -0.08621582 -0.095328964 0.01390742 -0.110945515 0.11803202 -0.041736856 -0.09051702
-0.12012256 0.01979783 -0.039993018 0.06368905 -0.063312665 0.06789645 0.052332755 -0.01850572
-0.092591986 0.04117571 -0.1178878 -0.024113828 -0.063081905 -0.001136962 0.059369564 -0.0978715
-0.064447574 -0.051302284 0.07783022 -0.030259702 0.009637518 -0.029701471 0.07916611 -0.013222163
-0.08946544 0.05463434 -0.11732348 0.031195896 -0.11023744 0.033032734 -0.014243113 0.115054384
0.031296488 0.08320006 -0.013564493 -0.07192891 0.115267195 0.11764233 0.09180319 0.09076241
0.008834777 0.035622098 0.043409728 -0.04553141 0.062310856 0.05699501 0.02582134 -0.090671815
0.07081881 -0.059626583 -0.008101534 0.090979904 0.02571929 0.07284719 0.05511794 -0.090383396
0.0630632 -0.08440613 0.009572116 -0.059847854 0.01738057 -0.08342555 0.03669628 -0.10668806
0.009864983 0.090484016 -0.03805283 0.09071129 -0.07059086 0.005185735 0.08747334 0.08973902
0.07112212 0.114803456 -0.053693715 0.09056253 0.09403675 -0.09510582 -0.08208133 -0.031726416
-0.111901075 -0.02155444 0.080326155 0.020157624 -0.0012345786 -0.099770516 -0.037105903 0.04953274
0.08432854 0.068064936 -0.00030207296 0.118856244 -0.010288425 -0.069837034 -0.079168454 -0.002051472
0.08999913 -0.0066794935 -0.09529558 0.044830054 0.11464322 -0.09877432 0.043450177 -0.022495199
0.049094982 -0.08079472 -0.09834287 -0.12401372 0.01572384 0.010837728 -0.061633516 0.061280083
-0.1240708 -0.11529495 0.03964595 0.09500126 -0.0251027 0.0036100366 -0.073373854 0.118899316
0.010969353 0.08107496 0.022294631 -0.046840917 -0.082946874 0.121398956 0.03473199 -0.095920265
-0.07455836 0.036150735 -0.09106863 -0.04120177 -0.04439937 -0.030710269 -0.020212285 0.020238962
-0.07181135 -0.06148452 -0.013731398 -0.122308455 -0.09607808 -0.055457633 -0.108655944 -0.0067142453
-0.083793886 0.073106654 0.087705314 0.059276436 0.12402173 -0.053399265 -0.010936576 0.03175526
0.059493482 -0.03318782 0.0934601 -0.0215914 -0.033936523 0.07985531 0.12246782 -0.01540402
0.043171432 -0.0010461517 -0.0715088 -0.08615835 -0.005076554 0.059505664 0.033877525 0.035267346
0.10792205 0.063090034 0.025914256 -0.019060085 -0.098769456 -0.09513346 -0.12012548 0.08388362
-0.062102307 -0.09761353 0.035518374 0.07836761 -0.08724898 0.006563247 0.044022523 0.081816494
0.0249135 -0.12395076 -0.052155044 -0.02102265 -0.027152417 -0.10057511 -0.07613458 -0.096214294
-0.07210351 -0.1056307 -0.119853795 -0.07035465 0.034226898 0.020091526 -0.080101356 -0.04064807
0.0013225684 -0.092420675 0.016533295 -0.01109769 0.105644375 -0.08365766 -0.035850886 0.010259639
-0.09917083 -0.048374277 0.11253106 -0.032562416 -0.05922707 0.115682244 0.0042958595 -0.12349955
0.11561303 0.06722174 0.0014649536 -0.092435904 0.009266566 0.06360554 -0.021785544 -0.010157637
00000000: e2a5 aebd d6d0 85bd 1fff 083d d638 913d
00000010: 13c0 093d 6e81 1abd a8e7 a4bc 5d84 133d
00000020: 2658 693d b375 e1bb c941 693d ddcd 3a3d
00000030: 43e9 883d 145a ce3d 7410 c7bd d1ba 65bd
00000040: 4a68 eabc 2a20 e5bd 5aa7 1a3d 1969 c8bd
00000050: f0fa c83c f078 26bc ce19 a33d 0faf c7ba
00000060: 9c8a c03d eb91 b0bd d53b c3bd f3db 633c
00000070: 6737 e3bd c6ba f13d 44f4 2abd fd60 b9bd
00000080: d102 f6bd 0f2f a23c b8cf 23bd 686f 823d
00000090: 12aa 81bd 4b0d 8b3d df5a 563d 4f99 97bc
000000a0: dea0 bdbd dca7 283d 296f f1bd 5d8a c5bc
000000b0: 1631 81bd 1d06 95ba 802d 733d da70 c8bd
000000c0: 17fd 83bd 5822 52bd 7365 9f3d 32e3 f7bc
000000d0: aee6 1d3c 8050 f3bc d721 a23d c5a1 58bc
000000e0: a839 b7bd 42c8 5f3d 4b47 f0bd 898e ff3c
000000f0: 2bc4 e1bd 554d 073d f25b 69bc a2a1 eb3d
00000100: bf30 003d cb64 aa3d 9b3d 5ebc 774f 93bd
00000110: 3511 ec3d 76ee f03d 5003 bc3d a4e1 b93d
00000120: bebf 103c 7ae8 113d 66ce 313d 257f 3abd
00000130: ab39 7f3d 9973 693d 4687 d33c 25b2 b9bd
00000140: 7409 913d 013b 74bd 4cbc 04bc ac53 ba3d
00000150: 43b1 d23c e830 953d 59c3 613d ee1a b9bd
00000160: 4727 813d 1fdd acbd 5dd4 1c3c 0623 75bd
00000170: b261 8e3c 04db aabd d74e 163d 457f dabd
00000180: bda0 213c af4f b93d 49dd 1bbd d7c6 b93d
00000190: f191 90bd 19ed a93b 3925 b33d 17c9 b73d
000001a0: 79a8 913d 131e eb3d f1ed 5bbd d978 b93d
000001b0: 5796 c03d d7c6 c2bd 421a a8bd 8ff3 01bd
000001c0: 642c e5bd f092 b0bc 0a82 a43d 9a21 a53c
000001d0: 95d1 a1ba 7c54 ccbd 5cfc 17bd d8e2 4a3d
000001e0: 71b4 ac3d a165 8b3d 8c5f 9eb9 e76a f33d
000001f0: c890 28bc b806 8fbd 1223 a2bd fd71 06bb
00000200: 7751 b83d a7df dabb 542a c3bd b89f 373d
00000210: 11ca ea3d 314a cabd d0f8 313d da47 b8bc
00000220: d217 493d b477 a5bd fd67 c9bd e8fa fdbd
00000230: 48cf 803c ba90 313c 6d73 7cbd d300 7b3d
00000240: d518 febd c21f ecbd cb63 223d 0590 c23d
00000250: 2da4 cdbc 5d96 6c3b 0845 96bd 7c81 f33d
00000260: cdb8 333c a10a a63d 3ba3 b63c 43dc 3fbd
00000270: 0de0 a9bd 04a0 f83d 2243 0e3d d871 c4bd
00000280: 0eb2 98bd cb12 143d 3182 babd 30c3 28bd
00000290: 1ddc 35bd 1a94 fbbc 3c94 a5bc 2ecc a53c
000002a0: d411 93bd 31d7 7bbd a8f9 60bc db7c fabd
000002b0: 96c4 c4bd 8b27 63bd 0287 debd 2c03 dcbb
000002c0: 219c abbd f1b8 953d d89e b33d d9cb 723d
000002d0: 1bff fd3d 30b9 5abd 532f 33bc ce11 023d
000002e0: 70af 733d f4ef 07bd 0268 bf3d 73e0 b0bc
000002f0: 0601 0bbd 2e8b a33d 69d0 fa3d 2561 7cbc
00000300: 87d4 303d 071f 89ba 3573 92bd ca73 b0bd
00000310: 3959 a6bb 36bc 733d 29c3 0a3d 7e74 103d
00000320: 3c06 dd3d 5935 813d 224a d43c e523 9cbc
00000330: a447 cabd 55d5 c2bd 5904 f6bd 2dcb ab3d
00000340: fd5e 7ebd 9ae9 c7bd b77b 113d 337f a03d
00000350: 98af b2bd 8210 d73b f650 343d 688f a73d
00000360: 6517 cc3c e5d9 fdbd 87a0 55bd b137 acbc
00000370: bf6e debc 53fa cdbd 72ec 9bbd 000c c5bd
00000380: 01ab 93bd e954 d8bd e875 f5bd 1916 90bd
00000390: 8131 0c3d fc96 a43c 2e0c a4bd 977e 26bd
000003a0: 085a ad3a 0d47 bdbd d570 873c 16d3 35bc
000003b0: 145c d83d b554 abbd 61d8 12bd 0b18 283c
000003c0: 131a cbbd 1b24 46bd af76 e63d 2b60 05bd
000003d0: 1698 72bd d0ea ec3d 48c4 8c3b 55ed fcbd
000003e0: 86c6 ec3d 8dab 893d b003 c03a 094f bdbd
000003f0: cbd2 173c 9f43 823d 9977 b2bc 386c 26bc

rnn.bias_ih_l0 f4 [192]
-0.06997442 -0.0692781 -0.07121041 0.09310983 0.08761563 -0.12346238 0.033376545 -0.024612648
0.02045161 -0.0801345 0.089572184 0.06958445 -0.093122356 0.077047385 0.003473167 -0.09542016
-0.1015804 -0.099791 0.10932456 -0.08282806 0.04959657 -0.102627166 0.014869093 -0.06858254
-0.09870041 -0.037266243 -0.11756522 0.0576389 -0.10379875 -0.05788422 0.08288944 0.06789832
0.04833241 0.050516117 -0.10985538 -0.05983531 0.11875421 -0.07816714 -0.04122977 -0.050607804
0.105043694 0.046286087 -0.035137136 -0.07826097 -0.11214519 -0.024618693 0.026537253 0.11010406
0.04065068 -0.029392427 -0.092158884 -0.071603805 -0.04172799 0.08709247 -0.023450948 -0.045151826
-0.02756098 0.08140701 0.048231304 -0.033827092 -0.030681578 -0.08168364 0.08792823 0.0394877
0.005521774 0.09628923 -0.018755814 0.00613472 0.082164735 0.039162487 0.058383446 -0.05561922
0.10568822 0.077256836 -0.034550685 0.11059402 0.050835207 0.12342677 -0.0045125955 0.08339259
-0.030374784 -0.05712055 -0.08107901 0.04587309 0.10999115 0.09977286 -0.12572296 0.023538962
-0.046868734 0.0705942 0.027896028 -0.104994744 -0.06449374 0.071346976 -0.008389643 0.033702586
-0.10348323 0.1094243 -0.034760267 -0.05675699 0.04885116 0.041545432 -0.10584308 -0.03722006
0.06371216 0.08511868 0.003681949 0.09581272 -0.0059687137 0.009042589 -0.08329064 -0.11249433
0.06813862 0.023464931 -0.021999426 0.025925398 -0.04141723 0.1099365 0.0050589475 -0.023935841
0.069712915 -0.04642979 -0.006640438 -0.105614655 0.057252407 -0.09492802 0.118482836 0.045885477
0.09292464 0.009656041 -0.122528285 0.071114495 0.0027422006 -0.0040712543 0.068679474 -0.07955687
-0.03500785 -0.080375195 -0.02470863 0.113781095 -0.11391645 0.115320295 0.10153636 0.12019745
0.10110518 0.023695197 0.11536373 -0.06929917 0.09655778 -0.06958924 -0.0073759174 0.04366748
0.035730653 0.0677748 -0.019011492 0.021929303 0.056755085 -0.08744885 -0.012450045 -0.023437183
0.06869978 0.00038621968 -0.00682509 -0.1154592 -0.011386403 -0.088524655 0.03393883 -0.10392518
0.08870479 -0.061391264 0.019856874 -0.0064360537 0.0015813028 0.064694814 -0.03173632 0.006190902
-0.011408186 0.10665699 -0.02771665 -0.057624847 0.04444768 -0.12529308 0.12353874 0.0553968
-0.11642172 0.06152458 0.035205018 -0.059477184 0.0045314566 -0.0834004 0.021953974 0.070864685
00000000: c04e 8fbd ade1 8dbd c3d6 91bd 5eb0 be3d
00000010: d36f b33d d8d9 fcbd d8b5 083d 77a0 c9bc
00000020: 238a a73c 8f1d a4bd 9f71 b73d 4b82 8e3d
00000030: efb6 bebd 05cb 9d3d 139e 633b a56b c3bd
00000040: 6209 d0bd 395f ccbd 8ee5 df3d c2a1 a9bd
00000050: c625 4b3d 312e d2bd 7f9d 733c 0175 8cbd
00000060: 7123 cabd 7da4 18bd 09c6 f0bd c416 6c3d
00000070: 7094 d4bd 0118 6dbd f0c1 a93d 460e 8b3d
00000080: 35f8 453d fde9 4e3d dcfb e0bd df15 75bd
00000090: 6835 f33d 1816 a0bd 8ce0 28bd 214a 4fbd
000000a0: 2621 d73d 7b96 3d3d f5eb 0fbd 4a47 a0bd
000000b0: 61ac e5bd 24ad c9bc a764 d93c 3d7e e13d
000000c0: 5481 263d 63c8 f0bc ccbd bcbd 04a5 92bd
000000d0: f8ea 2abd 895d b23d 341c c0bc 1ff1 38bd
000000e0: 90c7 e1bc b8b8 a63d 308e 453d 478e 0abd
000000f0: ef57 fbbc c149 a7bd b713 b43d dbbd 213d
00000100: ffef b43b 4a33 c53d cba5 99bc c305 c93b
00000110: fc45 a83d d868 203d 7b23 6f3d fbd0 63bd
00000120: 1173 d83d d538 9e3d 0585 0dbd 1e7f e23d
00000130: 9438 503d 2dc7 fc3d 65de 93bb bcc9 aa3d
00000140: 8ad4 f8bc 3df7 69bd c10c a6bd 6ce5 3b3d
00000150: 0a43 e13d b755 cc3d 85bd 00be c8d4 c03c
00000160: 6ef9 3fbd b193 903d 3686 e43c 7c07 d7bd
00000170: 4b15 84bd 5d1e 923d b774 09bc b90b 0a3d
00000180: 04ef d3bd d919 e03d c860 0ebd 047a 68bd
00000190: 2718 483d 8b2b 2a3d 42c4 d8bd 1074 18bd
000001a0: 857b 823d b452 ae3d db4c 713b 7639 c43d
000001b0: 3395 c3bb 5e27 143c 4894 aabd 6d63 e6bd
000001c0: 438c 8b3d 8739 c03c 2438 b4bc 8061 d43c
000001d0: 1da5 29bd 6326 e13d 87c5 a53b 1915 c4bc
000001e0: a5c5 8e3d 2a2d 3ebd 0898 d9bb 7f4c d8bd
000001f0: 8081 6a3d 9f69 c2bd 21a7 f23d 69f2 3b3d
00000200: 464f be3d 5f34 1e3c 1cf0 fabd 7aa4 913d
00000210: 7eb6 333b 2868 85bb d3a7 8c3d b6ee a2bd
00000220: 6464 0fbd c09b a4bd c169 cabc 1006 e93d
00000230: 074d e9bd 0c2d ec3d 4cf2 cf3d 152a f63d
00000240: 3c10 cf3d 6e1c c23c d243 ec3d b9ec 8dbd
00000250: 16c0 c53d ce84 8ebd aeb1 f1bb acdc 323d
00000260: 4e5a 123d 84cd 8a3d fdbd 9bbc 15a5 b33c
00000270: 0578 683d 6218 b3bd 46fb 4bbc 56ff bfbc
00000280: 78b2 8c3d 877d ca39 01a5 dfbb e075 ecbd
00000290: 098e 3abc 6a4c b5bd 7103 0b3d bad6 d4bd
000002a0: dbaa b53d 6875 7bbd e2aa a23c 88e5 d2bb
000002b0: b843 cf3a b77e 843d f2fd 01bd 0ddd ca3b
000002c0: 66e9 3abc fb6e da3d 070e e3bc 0808 6cbd
000002d0: c50e 363d d44c 00be e101 fd3d c1e7 623d
000002e0: 836e eebd 3301 7c3d 2333 103d 599e 73bd
000002f0: 9d7c 943b d4cd aabd d2d8 b33c 8121 913d

rnn.bias_hh_l0 f4 [192]
0.019815203 0.082213305 -0.08651634 -0.10420568 -0.0683912 0.11919534 0.0156302 -0.0007986863
0.049253084 -0.025551518 -0.02626767 -0.055981956 -0.054083966 0.03645169 0.011526634 -0.06283582
-0.06778748 -0.09168903 0.098030806 -0.015216278 0.020439407 0.09594648 0.003411307 0.022010367
0.10979501 0.044445973 0.108607374 -0.111544445 -0.0919669 0.041339915 -0.06345348 0.052332416
0.041103903 -0.1206062 0.08373086 0.07971548 -0.030541299 -0.06883237 -0.076660395 -0.0494355
0.120601445 0.016481036 0.056759577 -0.04096627 -0.10682287 -0.031275846 -0.06913631 0.029137095
-0.030813603 0.06956314 0.09971383 -0.058472965 0.053705603 -0.07427359 -0.05824048 0.075224996
-0.08607726 0.06765655 0.104867175 0.08395833 0.052872658 -0.051137723 0.09420668 0.07025972
0.011148229 -0.11138567 0.078909494 -0.0629641 0.0705037 -0.08482006 -0.071876645 -0.08435668
-0.116052546 0.116591506 0.027320009 -0.07910545 -0.023993328 0.08913272 0.06317504 0.017196774
0.11184142 -0.0139469225 0.08003012 0.053015262 0.07124779 0.10889443 0.09520994 -0.11920634
-0.04953944 0.101829775 0.0542874 -0.08715239 -0.038104467 0.00092780177 -0.10489968 0.006797051
-0.019159544 0.042915262 -0.049508333 -0.060813665 -0.05460531 -0.033635337 0.04970652 0.080311775
0.050317656 0.037301883 0.07963727 -0.11034563 -0.08459621 0.08283931 -0.038045242 0.008472089
-0.10333622 -0.048281226 -0.07348209 0.0236125 0.06256593 -0.008402431 0.021673325 -0.11950071
0.042939764 0.013109974 0.060179826 0.07747627 0.048471227 0.0635921 -0.12252601 0.10555892
-0.0035904862 -0.08428289 0.070487835 0.071287304 -0.045333758 -0.04716009 0.08158943 -0.093469
-0.05834236 0.022532914 -0.04972208 -0.026553623 -0.07327894 -0.02089448 0.05572628 -0.08195535
-0.05146827 -0.04361895 0.05564595 -0.041412774 0.09865922 -0.01635938 -0.022707952 0.038207337
-0.08227158 0.106423914 -0.012221099 -0.030420585 0.05032829 0.0009982119 0.016118145 -0.078210905
-0.107870035 -0.025592022 -0.08754854 -0.057865676 -0.06999774 -0.036833666 0.037715882 -0.016121734
-0.04199292 0.011056747 -0.08850871 0.067182295 0.10483617 0.06061259 0.082417145 0.08865005
-0.10131368 -0.055533674 0.09448149 -0.045878846 0.122464016 0.0134611195 0.09900925 -0.082813986
0.033147488 0.0675701 0.07172319 0.09875649 -0.09325606 0.034962 -0.025383705 -0.0070142117
00000000: 7e53 a23c 735f a83d 7b2f b1bd ca69 d5bd
00000010: af10 8cbd b01c f43d e80a 803c ee5e 51ba
00000020: 9abd 493d 6b51 d1bc 4c2f d7bc 564d 65bd
00000030: 2687 5dbd 5e4e 153d 35da 3c3c 11b0 80bd
00000040: 2ad4 8abd 75c7 bbbd 60c4 c83d b24d 79bc
00000050: 8b70 a73c 977f c43d 3c90 5f3b 164f b43c
00000060: 35dc e03d fb0c 363d 8b6d de3d 6a71 e4bd
00000070: 2459 bcbd 0b54 293d e6f3 81bd 845a 563d
00000080: 915c 283d 6200 f7bd 167b ab3d df41 a33d
00000090: bf31 fabc fcf7 8cbd 2000 9dbd e17c 4abd
000000a0: e4fd f63d 3d03 873c bb7c 683d 3fcc 27bd
000000b0: f3c5 dabd 1a1b 00bd 5697 8dbd ebb0 ee3c
000000c0: cf6c fcbc 1f77 8e3d c436 cc3d 5981 6fbd
000000d0: 68fa 5b3d c11c 98bd 928d 6ebd 900f 9a3d
000000e0: 4649 b0bd 848f 8a3d 9ac4 d63d 58f2 ab3d
000000f0: 0091 583d ca75 51bd 6fef c03d 54e4 8f3d
00000100: 10a7 363c 2c1e e4bd 4d9b a13d 52f3 80bd
00000110: 3e64 903d 24b6 adbd 1034 93bd 32c3 acbd
00000120: f5ac edbd 87c7 ee3d 36ce df3c 0a02 a2bd
00000130: a88d c4bc 378b b63d ea61 813d 40e0 8c3c
00000140: 1d0d e53d a281 64bc d5e6 a33d 8826 593d
00000150: 5cea 913d 0b04 df3d 6efd c23d 7422 f4bd
00000160: dee9 4abd 218c d03d 775c 5e3d f47c b2bd
00000170: 6e13 1cbd b937 733a a5d5 d6bd ccb9 de3b
00000180: 7af4 9cbc eac7 2f3d 40c9 4abd c017 79bd
00000190: d1a9 5fbd 35c5 09bd 1099 4b3d 807a a43d
000001a0: e319 4e3d dcc9 183d dd18 a33d e4fc e1bd
000001b0: c740 adbd a8a7 a93d 54d5 1bbd 84ce 0a3c
000001c0: f1a1 d3bd 89c2 45bd c77d 96bd 006f c13c
000001d0: 9122 803d 5aaa 09bc 428c b13c cabc f4bd
000001e0: 9be1 2f3d 37cb 563c 1f7f 763d e1ab 9e3d
000001f0: c489 463d 933c 823d ebee fabd 462f d83d
00000200: 5d4e 6bbb 829c acbd ed5b 903d 14ff 913d
00000210: e4af 39bd f02a 41bd 5c18 a73d ad6c bfbd
00000220: 66f8 6ebd f296 b83c 61a9 4bbd fc86 d9bc
00000230: 4513 96bd e72a abbc 3d41 643d 35d8 a7bd
00000240: 65d0 52bd c9a9 32bd 02ed 633d 71a0 29bd
00000250: d80d ca3d 1b04 86bc 0706 babc 4c7f 1c3d
00000260: 017e a8bd c8f4 d93d 013b 48bc 9734 f9bc
00000270: 0925 4e3d 6fd6 823a 330a 843c 0a2d a0bd
00000280: f7ea dcbd 5ca6 d1bc a64c b3bd 8f04 6dbd
00000290: fa5a 8fbd e6de 16bd f87b 1a3d ba11 84bc
000002a0: c500 2cbd 5c27 353c 0e44 b5bd df96 893d
000002b0: 59b4 d63d e844 783d 52ca a83d 288e b53d
000002c0: 8c7d cfbd 4777 63bd 837f c13d 75eb 3bbd
000002d0: 6ace fa3d 078c 5c3c 5dc5 ca3d 619a a9bd
000002e0: a9c5 073d 3162 8a3d 9ce3 923d d840 ca3d
000002f0: 08fd bebd 5034 0f3d 7df1 cfbc 79d7 e5bb

rnn.weight_ih_l1 f4 [192, 64]
0.034165777 0.11450182 0.015722329 -0.010070941 0.0023373317 0.018889636 0.037369058 0.08567609
-0.08736617 -0.10556992 0.079270236 0.120758854 0.036911752 -0.068903185 0.0664569 -0.017083561
0.00351991 0.025445784 0.10788966 -0.090033256 0.0010508231 -0.0029383467 -0.05482793 0.12259803
0.06767863 0.10324143 0.08914462 -0.06440814 0.086687036 0.020226179 -0.024492817 0.09672265
-0.101300485 -0.0037832945 -0.054639652 -0.12505952 -0.04039838 0.059488792 -0.015879646 0.120295614
0.07299081 -0.045037456 -0.05942246 0.05059251 -0.086263806 0.10841165 -0.07169835 0.05826074
0.07759821 0.05957077 -0.07153925 -0.08925297 0.033383977 0.09909398 0.11692137 0.015800552
0.038980305 0.011056634 -0.09738259 -0.029194199 0.054982 0.115900315 -0.042079035 0.07266603
0.018116705 0.023405047 -0.09046517 0.120578855 -0.11083581 -0.094927564 0.10678666 -0.037828874
0.1145966 -0.023611901 0.046762202 0.10279692 0.0039185374 0.09249564 -0.012746849 0.088599384
-0.034099262 0.077184714 -0.092898495 -0.0831697 -0.024295699 0.04253164 0.089544885 0.09458845
-0.0018620011 0.125236 0.00045780378 0.0918669 -0.09107159 -0.03589017 0.0032175584 0.024886483
0.038675327 -0.019732652 -0.008952815 0.06721336 0.088029556 0.07666099 0.024149407 0.03380015
-0.03731876 -0.06069762 0.020770248 -0.05579759 -0.056515403 -0.048724517 0.04125417 0.06157158
0.0073010135 0.02123957 -0.028583633 0.063111 0.072083436 0.06479659 0.05306839 0.048616417
0.11536228 -0.02364669 0.052315842 -0.04630787 -0.101096675 0.07948372 -0.07928178 0.05982791
0.10447665 -0.10376198 0.031303763 -0.050815355 -0.074644856 -0.04342728 -0.040164094 0.063558236
0.036698643 0.05900208 -0.01919981 -0.11123865 0.09532662 0.10175749 -0.06995064 0.0790837
-0.06764622 0.09394695 -0.023362964 0.104546964 0.00211344 0.0020003202 0.06980024 -0.11449385
0.08303439 -0.12186818 -0.07844258 -0.03458775 -0.006608426 -0.048681084 -0.08252003 -0.053424757
-0.012849634 0.016041951 -0.07926237 0.11959689 -0.09536643 0.116610885 -0.052672908 -0.11260715
0.12020237 -0.049488205 -0.10312211 0.12339603 -0.029616518 -0.0028472096 0.01191557 -0.09213823
-0.12383613 0.10352796 -0.11226939 -0.040264767 -0.0025553207 0.021673908 -0.00839667 0.11692957
0.061789338 0.015942061 -0.11232875 -0.08788837 0.03181599 -0.11045529 -0.03776372 -0.076313555
0.036601234 -0.07708441 0.0578597 0.0372066 -0.0029806439 -0.0029156043 0.051080454 -0.11217126
-0.0700071 0.066757776 -0.11061453 -0.01216536 -0.09203459 -0.05142502 0.025530161 -0.07490654
-0.0039120615 0.027355345 0.00014874765 -0.0062497873 0.12075867 -0.08077225 0.04863771 -0.087682605
0.06915618 0.01805573 0.020952528 -0.122769915 -0.03996974 0.034111433 -0.080019474 0.080964796
-0.05948111 0.10553326 -0.004117729 0.10970704 0.07285802 -0.06907355 0.024573954 0.10061907
0.10586351 0.014071624 0.08611593 -0.06525425 0.034358162 0.048801746 0.015666736 0.12177141
0.06040659 -0.074390315 0.009618846 0.02798462 -0.08443922 0.10893418 0.028375927 0.05897673
-0.0039458955 0.012801506 0.007070934 -0.0059694694 0.073846154 -0.061149944 -0.083147064 -0.049566913
00000000: 6af1 0b3d ee7f ea3d 1dcc 803c 9700 25bc
00000010: eb2d 193b 70be 9a3c 4c10 193d f276 af3d
00000020: 09ed b2bd 0b35 d8bd 6f58 a23d 6b50 f73d
00000030: c730 173d 1d1d 8dbd 8e1a 883d d3f2 8bbc
00000040: 4aae 663b ad73 d03c 41f5 dc3d 5b63 b8bd
00000050: c6bb 893a 4791 40bb 4093 60bd ad14 fb3d
00000060: 189b 8a3d 3e70 d33d 7491 b63d 6ae8 83bd
00000070: f988 b13d 5fb1 a53c 29a5 c8bc 8616 c63d
00000080: a176 cfbd 26f1 77bb d4cd 5fbd 9a0f 00be
00000090: c678 25bd 85aa 733d 0816 82bc 8c5d f63d
000000a0: 357c 953d 3279 38bd f764 73bd 173a 4f3d
000000b0: 14ab b0bd ed06 de3d 96d6 92bd d0a2 6e3d
000000c0: cfeb 9e3d 7b00 743d 2c83 92bd 43ca b6bd
000000d0: a3bd 083d c9f1 ca3d 7974 ef3d 2970 813c
000000e0: d0a9 1f3d e226 353c 8670 c7bd ac28 efbc
000000f0: ce34 613d 255d ed3d 115b 2cbd edd1 943d
00000100: 7c69 943c f1bb bf3c ce45 b9bd 0cf2 f63d
00000110: e3fd e2bd 6269 c2bd f7b2 da3d 73f2 1abd
00000120: 9fb1 ea3d bf6d c1bc b989 3f3d 3187 d23d
00000130: 1367 803b 5b6e bd3d 29d8 50bc 9873 b53d
00000140: abab 0bbd 0513 9e3d 9141 bebd e054 aabd
00000150: c607 c7bc a835 2e3d 4f63 b73d 97b7 c13d
00000160: 640e f4ba de3d 003e 6205 f039 b724 bc3d
00000170: be83 babd 9201 13bd acdd 523b bdde cb3c
00000180: 056a 1e3d 5fa6 a1bc d4ae 12bc 28a7 893d
00000190: d748 b43d 7000 9d3d fad4 c53c 0772 0a3d
000001a0: 8edb 18bd 119e 78bd 5e26 aa3c 048c 64bd
000001b0: b27c 67bd 5c93 47bd 22fa 283d 7b32 7c3d
000001c0: 573d ef3b 9bfe ad3c 3928 eabc 5740 813d
000001d0: 7ba0 933d 13b4 843d 3d5e 593d 0222 473d
000001e0: 0f43 ec3d b4b6 c1bc 2349 563d 52ad 3dbd
000001f0: c60b cfbd 5cc8 a23d 7c5e a2bd 1c0e 753d
00000200: dbf7 d53d 2981 d4bd 6038 003d c323 50bd
00000210: 67df 98bd cee0 31bd 1b83 24bd d22a 823d
00000220: 5151 163d 2aac 713d ec48 9dbc 17d1 e3bd
00000230: 9a3a c33d 3b66 d03d 4842 8fbd a3f6 a13d
00000240: 1a8a 8abd 4267 c03d b063 bfbc b81c d63d
00000250: a481 0a3b ce17 033b 6ef3 8e3d c07b eabd
00000260: ef0d aa3d 0696 f9bd 81a6 a0bd e2ab 0dbd
00000270: 7f8b d8bb d165 47bd 4300 a9bd ebd3 5abd
00000280: 4587 52bc 696a 833c 4f54 a2bd 37ef f43d
00000290: 7a4f c3bd b0d1 ee3d 8cbf 57bd 949e e6bd
000002a0: a92c f63d 25b4 4abd af31 d3bd 0fb7 fc3d
000002b0: 579e f2bc 4098 3abb 8639 433c f8b2 bcbd
000002c0: cc9d fdbd 7806 d43d 7eed e5bd abec 24bd
000002d0: 2b77 27bb 7b8d b13c 3092 09bc c578 ef3d
000002e0: d116 7d3d ed98 823c 9e0c e6bd d1fe b3bd
000002f0: 7c51 023d 6236 e2bd 21ae 1abd 484a 9cbd
00000300: 2deb 153d 6ede 9dbd 4bfe 6c3d f365 183d
00000310: e856 43bb b913 3fbb bd39 513d 0cba e5bd
00000320: e25f 8fbd 4db8 883d df89 e2bd 3851 47bc
00000330: a27c bcbd 0ba3 52bd a124 d13c 9a68 99bd
00000340: c030 80bb 5118 e03c 25f9 1b39 04cb ccbb
00000350: 5250 f73d ec6b a5bd 5638 473d f092 b3bd
00000360: c1a1 8d3d 9ce9 933c a3a4 ab3c cb6e fbbd
00000370: 4fb7 23bd 6eb8 0b3d 40e1 a3bd dfd0 a53d
00000380: 77a2 73bd d221 d83d 04ee 86bb 16ae e03d
00000390: 9636 953d 6f76 8dbd 514f c93c 5f11 ce3d
000003a0: f8ce d83d ab8c 663c 8c5d b03d 05a4 85bd
000003b0: 25bb 0c3d 57e4 473d 8757 803c 4a63 f93d
000003c0: e76c 773d f359 98bd 5d98 1d3c 0040 e53c
000003d0: 78ee acbd e218 df3d a274 e83c 9591 713d
000003e0: 924c 81bb 68bd 513c 4bb3 e73b 8a9b c3bb
000003f0: a73c 973d 5d78 7abd 0249 aabd ad06 4bbd

rnn.weight_hh_l1 f4 [192, 64]
-0.058033545 0.010943554 0.025419407 -0.07332454 -0.08272118 -0.09302593 -0.06932898 0.019145025
0.08689438 -0.07950452 0.08016919 -0.047046717 -0.11524813 -0.060648043 -0.04013653 -0.0060470314
-0.040545795 0.055534765 -0.04161085 0.02594932 0.080874026 0.040372383 0.064238615 0.10886775
0.012949727 0.03037239 0.09644021 -0.10474984 0.033833947 0.058253158 0.053708572 0.0831464
-0.06471216 -0.011403473 0.041698433 -0.0015800907 0.10369027 -0.015968878 0.08337262 0.0064218473
-0.10846882 -0.07990627 -0.029580822 0.011473123 -0.10757771 -0.02979753 0.0813775 -0.1035889
0.12430411 -0.10130604 -0.05992317 0.10232442 -0.11823178 0.041887656 0.026856286 -0.12475469
-0.0574826 -0.11283633 -0.070776254 -0.08045837 -0.04494639 -0.12349857 0.090819255 0.050655175
-0.0780719 0.06486226 -0.053007722 -0.05861429 0.08461238 0.05177673 -0.07271624 0.014120427
-0.045278903 0.104229346 -0.11661048 0.030115787 -0.09764073 0.07326491 0.0995013 0.07495289
-0.015523262 0.07613797 -0.060559914 -0.039906334 -0.016564043 -0.027985469 -0.092616655 -0.011421
-0.09574722 0.028881645 -0.06460918 0.073903725 0.09493468 -0.0037707107 -0.03735586 0.11009046
-0.08242771 0.11591007 0.037690666 0.04770356 -0.053843755 0.09858128 0.032117244 0.0804207
0.04122497 -0.11344435 0.116296254 0.081434056 -0.008778625 0.08582286 -0.04419676 -0.10986766
0.078018084 -0.03497336 -0.026917847 0.08858002 0.0939339 0.038935874 -0.013844329 0.025283081
0.040022966 0.12094822 -0.028333494 0.064450376 -0.09322159 0.061675515 -0.09572335 -0.044800583
-0.031792402 -0.08117826 -0.08250748 -0.085795484 0.09035472 0.011641547 -0.071238525 0.032677896
-0.09248003 0.02655621 -0.09807766 0.061587203 -0.1116622 -0.08481102 0.068875566 0.003992756
0.048861373 0.053116012 0.06332301 0.0912903 -0.003380764 0.02273786 0.023503553 0.10662524
0.0056612515 -0.010478332 -0.016672216 0.024634756 -0.117554754 -0.04864213 0.103443734 -0.09018444
0.11472294 -0.025215045 0.07832383 -0.12332138 0.08490922 0.0344086 -0.060720585 0.09503205
-0.04901494 -0.08597507 0.033999283 -0.01362735 0.024836352 -0.10932955 -0.0008024663 0.11921028
0.07792021 -0.110865794 0.10508175 -0.08308536 -0.057910413 -0.08559783 0.08629513 -0.0013191103
0.065207176 0.113410436 -0.09217845 -0.0189394 0.11695076 0.10656476 0.035405613 0.013905062
-0.085862145 0.06324861 -0.07542621 0.086236216 0.102839544 0.10655952 -0.03480227 -0.08842243
0.072374806 -0.10064136 -0.102649584 4.2218935e-06 -0.06962805 -0.08475072 -0.12376577 0.01044289
0.09704279 -0.045749776 0.048842628 0.0017926627 -0.034641623 -0.0455308 -0.09876101 0.089184545
-0.005919176 -0.097763434 0.041346513 -0.05989156 0.043413244 0.020794611 -0.0901991 0.080188
0.0528972 0.09180292 0.07713003 -0.00027788346 -0.12499715 0.108246036 -0.07068137 0.043690212
0.10642798 0.03084288 0.11137927 -0.099584155 0.08768374 -0.027768422 0.054474186 -0.029814601
-0.09881756 -0.12337081 0.0373684 -0.09585541 -0.08810037 -0.074296646 0.011779525 -0.037096463
0.036013078 -0.06980141 0.006609368 0.012050484 -0.045642342 0.060170673 0.01368176 -0.11228138
00000000: 95b4 6dbd 984c 333c 5c3c d03c 2d2b 96bd
00000010: b969 a9bd 6184 bebd 5afc 8dbd 07d6 9c3c
00000020: aef5 b13d 44d3 a2bd bf2f a43d 0fb4 40bd
00000030: 3607 ecbd 156a 78bd 3466 24bd 2d26 c6bb
00000040: 5913 26bd 6c78 633d 2370 2abd ab93 d43c
00000050: 48a1 a53d 835d 253d 898f 833d 0ef6 de3d
00000060: 172b 543c 85cf f83c 7282 c53d 1687 d6bd
00000070: 7795 0a3d dd9a 6e3d 85fd 5b3d a948 aa3d
00000080: cf87 84bd a2d5 3abc facb 2a3d 0c1b cfba
00000090: 905b d43d 2ad1 82bc 44bf aa3d 5c6e d23b
000000a0: e724 debd e6a5 a3bd 7b53 f2bc c4f9 3b3c
000000b0: b451 dcbd f319 f4bc 3fa9 a63d 6b26 d4bd
000000c0: 2793 fe3d 8b79 cfbd ff71 75bd 778f d13d
000000d0: 8123 f2bd 6492 2b3d b701 dc3c 637f ffbd
000000e0: e072 6bbd bc16 e7bd 24f3 90bd 5cc7 a4bd
000000f0: b519 38bd d1ec fcbd 72ff b93d cd7b 4f3d
00000100: 29e4 9fbd 81d6 843d a01e 59bd 8a15 70bd
00000110: 4149 ad3d d613 543d 41ec 94bd 5d59 673c
00000120: 5f76 39bd 3276 d53d 7ad1 eebd 62b5 f63c
00000130: ddf7 c7bd ea0b 963d 56c7 cb3d e780 993d
00000140: 4855 7ebc 39ee 9b3d ac0d 78bd d374 23bd
00000150: 51b1 87bc c841 e5bc cdad bdbd 251f 3bbc
00000160: 1e17 c4bd 3399 ec3c d151 84bd d65a 973d
00000170: 1d6d c23d 071e 77bb 7502 19bd 1b77 e13d
00000180: dccf a8bd 4262 ed3d 8761 1a3d cf64 433d
00000190: 458b 5cbd fbe4 c93d 5f8d 033d 9cb3 a43d
000001a0: 84db 283d 8355 e8bd bb2c ee3d e6c6 a63d
000001b0: 39d4 0fbc e5c3 af3d a907 35bd 4c02 e1bd
000001c0: f2c7 9f3d 3a40 0fbd d182 dcbc 7169 b53d
000001d0: 6b60 c03d 397b 1f3d 53d3 62bc 771e cf3c
000001e0: 1fef 233d b3b3 f73d a51b e8bc 8ffe 833d
000001f0: f6ea bebd 779f 7c3d 9b0a c4bd d180 37bd
00000200: c038 02bd ca40 a6bd aff9 a8bd 8bb5 afbd
00000210: e50b b93d 30bc 3e3c 81e5 91bd 42d9 053d
00000220: 2c66 bdbd 698c d93c f1dc c8bd dd42 7c3d
00000230: 27af e4bd 66b1 adbd a20e 8d3d aad5 823b
00000240: dd22 483d 2d90 593d 7faf 813d 69f6 ba3d
00000250: cf8f 5dbb c044 ba3c 868a c03c 555e da3d
00000260: 0582 b93b 4fad 2bbc 2c94 88bc d4ce c93c
00000270: 8cc0 f0bd f83c 47bd 4fda d33d 9fb2 b8bd
00000280: dcf3 ea3d c88f cebc 3f68 a03d eb8f fcbd
00000290: e3e4 ad3d 08f0 0c3d 26b6 78bd 2aa0 c23d
000002a0: e4c3 48bd b313 b0bd d542 0b3d 4045 5fbc
000002b0: 9b75 cb3c 2ce8 dfbd 9a5c 52ba 8524 f43d
000002c0: a294 9f3d 9b0d e3bd 1a35 d73d a828 aabd
000002d0: 7833 6dbd ea4d afbd 80bb b03d ffe5 acba
000002e0: 578b 853d bb43 e83d 0ec8 bcbd cd26 9bbc
000002f0: e183 ef3d a03e da3d 7a05 113d 0fd2 633c
00000300: 7ed8 afbd 7d88 813d 0f79 9abd 9d9c b03d
00000310: 8a9d d23d e13b da3d d38c 0ebd d216 b5bd
00000320: 3e39 943d 0f1d cebd f239 d2bd caa9 8d36
00000330: 2799 8ebd c991 adbd e878 fdbd a818 2b3c
00000340: 5fbe c63d 1e64 3bbd 350f 483d c7f7 ea3a
00000350: 60e4 0dbd 817e 3abd 3643 cabd 63a6 b63d
00000360: a6f5 c1bb 3238 c8bd f65a 293d da50 75bd
00000370: 16d2 313d 7659 aa3c 4eba b8bd 9b39 a43d
00000380: bcaa 583d 2b03 bc3d 59f6 9d3d e3b0 91b9
00000390: 81fe ffbd 19b0 dd3d 65c1 90bd 82f4 323d
000003a0: eaf6 d93d 35aa fc3c d11a e43d c7f2 cbbd
000003b0: 8893 b33d 9a7a e3bc 5320 5f3d c03d f4bc
000003c0: dc60 cabd d6a9 fcbd 9b0f 193d d74f c4bd
000003d0: f76d b4bd d728 98bd e9fe 403c 76f2 17bd
000003e0: 7382 133d 0bf4 8ebd 6693 d83b 656f 453c
000003f0: 77f3 3abd 8675 763d 7629 603c c8f3 e5bd

rnn.bias_ih_l1 f4 [192]
-0.042579938 -0.050506156 0.098974 0.042767115 -0.05692256 -0.05441132 0.02326216 0.120785974
-0.060123805 0.09989305 -0.04815652 -0.107617676 0.056506317 0.10620615 0.0669347 0.051106945
0.0724567 -0.052293926 -0.015816992 0.0715739 -0.077020355 0.02807542 0.10742667 0.03150084
0.117951386 -0.1183297 0.009399156 0.040980514 -0.08948316 -0.05326914 -0.07601918 -0.06681791
-0.07503258 0.02197959 0.083683856 -0.035143316 0.07559664 -0.052546903 0.020472083 0.014381698
-0.105834424 -0.01797587 0.032933753 -0.07941493 -0.1123519 -0.037415795 -0.030859048 0.031609822
-0.032982133 -0.003713737 -0.014225201 -0.053003743 0.035659064 -0.07948755 0.033131745 0.031234274
0.10024956 -0.002783851 -0.015912408 0.003961982 0.05644581 -0.04718391 0.08158978 0.06319171
0.04113271 -0.027852938 0.10559539 0.024049709 -0.0070953392 0.034420162 -0.023607641 -0.036334008
-0.064143084 0.07315141 -0.11704943 -0.108443916 -0.03674761 0.06227556 -0.0016921266 -0.00038624706
-0.0013614745 -0.022337629 0.03149712 0.060950834 -0.06295684 0.093981646 0.09494464 0.009585673
-0.035657264 0.11853907 0.07483911 0.04704752 -0.01967061 0.009596495 0.11984566 -0.10778784
0.012604361 -0.008270397 -0.088452786 -0.10035244 -0.044397324 -0.031472106 -0.05646273 0.09867327
-0.0003577473 0.10658393 0.055179123 -0.074441426 0.09973441 0.019449623 -0.08565017 0.06546325
-0.017844215 0.07080899 -0.07223625 0.08996048 -0.083594866 0.057160024 -0.12396528 -0.106647156
0.10373951 0.04972313 0.101316944 -0.01733509 0.11544234 0.027001755 0.11884317 0.019864328
0.016133472 0.061563756 0.10052239 0.05565144 0.08987801 -0.10708351 0.100027315 -0.103534214
-0.09260901 0.027667783 -0.120668165 -0.052964214 0.06569765 -0.011975006 0.0744527 -0.04384847
0.056284074 -0.036920752 0.040298086 0.025272297 -0.021441007 -0.11414944 0.10851198 -0.06499395
-0.099259906 -0.032482073 0.09358213 0.014711433 0.060004264 -0.06575653 0.027828764 -0.06997535
0.018328685 0.12157848 0.100410104 0.06867294 0.07109007 -0.01713958 -0.023062116 -0.08184275
-0.070554264 0.057635527 0.064814754 -0.082811706 -0.098908655 0.10528722 -0.08836733 0.021665368
0.08094602 -0.007710233 -0.0021879445 0.07113714 -0.035536103 0.037372008 -0.11879534 -0.12071473
0.104387194 0.0072949603 -0.05305499 0.00799163 0.11445912 -0.114521585 0.10068158 0.04468258
00000000: 4d68 2ebd 8bdf 4ebd e1b2 ca3d 922c 2f3d
00000010: a127 69bd 67de 5ebd 4990 be3c a35e f73d
00000020: 6144 76bd ba94 cc3d c53f 45bd a866 dcbd
00000030: 2b73 673d 9c82 d93d 0f15 893d 8455 513d
00000040: 2e64 943d 2832 56bd a392 81bc 5695 923d
00000050: d9bc 9dbd 6cfe e53c 8402 dc3d 0607 013d
00000060: 7f90 f13d d756 f2bd ebfe 193c 2fdb 273d
00000070: f242 b7bd be30 5abd f2af 9bbd d4d7 88bd
00000080: aeaa 99bd 8b0e b43c 7162 ab3d 70f2 0fbd
00000090: 69d2 9a3d 6c3b 57bd 12b5 a73c 37a1 6b3c
000000a0: b8bf d8bd 2242 93bc 8be5 063d 4ba4 a2bd
000000b0: c118 e6bd 4e41 19bd 1dcc fcbc 4d79 013d
000000c0: 4618 07bd 2b62 73bb d110 69bc 741a 59bd
000000d0: 3d0f 123d 5eca a2bd 27b5 073d 05df ff3c
000000e0: a44f cd3d 4571 36bb bd5a 82bc 84d3 813b
000000f0: b933 673d ea43 41bd 8b18 a73d a86a 813d
00000100: c67a 283d d82b e4bc 6542 d83d e503 c53c
00000110: 0580 e8bb 28fc 0c3d d064 c1bc f8d2 14bd
00000120: 735d 83bd 68d0 953d 9db7 efbd d817 debd
00000130: a984 16bd a814 7f3d 59ca ddba 3481 cab9
00000140: 8173 b2ba 67fd b6bc 2003 013d 95a7 793d
00000150: 84ef 80bd 7379 c03d 5672 c23d 3a0d 1d3c
00000160: 5a0d 12bd 9dc4 f23d 3f45 993d e6b4 403d
00000170: 4224 a1bc 9e3a 1d3c a471 f53d dfbf dcbd
00000180: 8682 4e3c 8f80 07bc bc26 b5bd 9485 cdbd
00000190: f8d9 35bd e5e8 00bd 7745 67bd 3615 ca3d
000001a0: 0890 bbb9 ad48 da3d 8103 623d bf74 98bd
000001b0: 8e41 cc3d d154 9f3c 5b69 afbd 9911 863d
000001c0: 082e 92bc 4e04 913d 99f0 93bd 333d b83d
000001d0: c933 abbd a120 6a3d 82e1 fdbd d369 dabd
000001e0: 6175 d43d 7baa 4b3d 427f cf3d 5202 8ebc
000001f0: 096d ec3d c932 dd3c 0c64 f33d 84ba a23c
00000200: 582a 843c 472a 7c3d afde cd3d c4f2 633d
00000210: f611 b83d 994e dbbd 1fdb cc3d bf09 d4bd
00000220: cba9 bdbd 8ca7 e23c df20 f7bd 01f1 58bd
00000230: 7d8c 863d d132 44bc a87a 983d 749a 33bd
00000240: 218a 663d 373a 17bd 9b0f 253d d907 cf3c
00000250: 0da5 afbc 2ec7 e9bd 873b de3d 8c1b 85bd
00000260: c748 cbbd ec0b 05bd fda7 bf3d 3908 713c
00000270: 08c7 753d 5cab 86bd 26f9 e33c 3c4f 8fbd
00000280: 0a26 963c 23fe f83d d0a3 cd3d 66a4 8c3d
00000290: ac97 913d 4e68 8cbc c3ec bcbc 2c9d a7bd
000002a0: c17e 90bd 3b13 6c3d 99bd 843d 2f99 a9bd
000002b0: 9f90 cabd d3a0 d73d eef9 b4bd 927b b13c
000002c0: 07c7 a53d 1fa6 fcbb 9e63 0fbb 59b0 913d
000002d0: 4e8e 11bd 6413 193d f94a f3bd 4939 f7bd
000002e0: f4c8 d53d 900a ef3b 3050 59bd 53ef 023c
000002f0: 8b69 ea3d 4b8a eabd 2532 ce3d 1505 373d
