graphrnn_v2/experiments/structures/trees/trees_graphrnn_s_small/model_at_100.pt (torch, 398995 bytes, 22 tensors)

embedding.0.weight f4 [32, 10]
00000000: f50d e83e 48cb 69be aa42 ac3d dfb2 823c
00000010: a96f c0bd 9517 4b3e 45cc d8bd 2bd3 46bd
00000020: 47e5 e3bc c4c5 bc3e efef b43c eca7 ad3e
00000030: 979b 703c 49e2 72bd e49c 343e b02b 813e
00000040: c64e 6bbe cace 993e dae1 a2bd f52c e1bd
00000050: 4116 29be 1707 d4be 5c00 8ebc 6127 50be
00000060: 7f22 0d3f 3c7e 233f 9942 413e c2bb e8be
00000070: fba3 4abe 9f18 47bd fa28 6c3e 11b1 34be
00000080: 9c03 8c3e b087 1f3e 7c01 25be 1bfd 22be
00000090: 379f 25be d57f 6ebe 40d5 8cbe 8628 08bb
000000a0: b64a d0bd 215b 8abe 2587 cc3e e2c6 8fbe
000000b0: b3e0 8bbe d59a 82be 1eb3 84be 460a 69be
000000c0: bdb8 43be 74dd 4a3c 57af a03d 58b3 6fbe
000000d0: b6fb 703c 83a3 26be ff59 4bbc f7c3 8e3e
000000e0: 0e0a 0a3f 9f21 983e 11db 5b3e 9f1b 29be
000000f0: 069f 98be 381e a1b9 78fa 89be 96da 6fbe
00000100: ffe1 33be 1d09 45be bc5c 2bbe 8540 9fbe
00000110: a80d 2cbe 582c 10be b3ee 71bd 017b 983e
00000120: 9dee 193d 25e1 ac3e 7c46 aabe 7d67 7abe
00000130: eb4a 87be 9ea0 c13b b8f5 973e 6e76 13be
00000140: fb09 153f 7b49 823c 43d7 443e 7861 42be
00000150: 80ba 493e e6fc 33be 2fab 553e 7c2a 053a
00000160: a498 3b3e de54 a93e 1368 873e 87e2 143e
00000170: 71ef 4e3e 2238 debd df93 3bbe be5e 6b3e
00000180: ae5e d1bd e109 8b3e 5fdf 463e a8c5 2c3d
00000190: c4e2 5ebe 756e 5abe 03d6 113d 52b4 9cbe
000001a0: 8b99 4b3c e36d 83bd 2a8b b53e 1f2c 0ebe
000001b0: a355 a73e 77dc 7c3e 405a e53e 831f 9f3e
000001c0: bfea 97be 482a 12be b181 533d 3a43 a23d
000001d0: caaa 8bbe f635 40bd fbfd b23e 89b9 1bbe
000001e0: cdcd 6f3c 91b8 983e 29b6 783e 99fe f13e
000001f0: 0d69 64be 523a 55be a80e 56be f63f 2a3e
00000200: bd68 44be 3e29 bbb9 edba d6bd 50bc 823c
00000210: 3628 ddbc 3fb4 0f3e 07d8 c83e ab71 983d
00000220: e751 503d e4ed 4e3e 5f39 5f3d a3c8 913e
00000230: cd7c 263f 85ab c9bb a48b a1be 6776 cdbd
00000240: 5819 903d dc6d 95be 611a b3bd 43aa 0ebe
00000250: cbd3 acbd f3df 86be 1692 653d 6768 dd3b
00000260: a48a a53e a9e2 823e 18b6 8a3e dc9a 8ebd
00000270: 1f71 50be 7485 363d 2875 e2bd b67d 693e
00000280: e6ef 33be b712 59be d73c c53e c68d 6cbe
00000290: 0905 42be c45d ea3a 44de 15be e0e0 84bb
000002a0: e7b0 133b 5991 16be 07c6 dc3e 3df0 7cbe
000002b0: 9de1 88be f71a 2b3e 57b3 df3b a6e5 943e
000002c0: 00f4 853e 9a06 5dbe 3995 b43e 757b 323e
000002d0: 7edf db3e f024 e73d 7cc7 633d 9f15 0bbe
000002e0: 81d4 1f3e 0a36 733d 2851 a83e 1d77 933d
000002f0: 835a f63d 0803 fdbd 66c2 7ebe 18ef acbd
00000300: dfc6 dc3b fffc b43e ceae 963e 9598 83bd
00000310: 4ef0 3cbd e1cb e43d c9dd eebb 81e4 183e
00000320: 9e98 2fbe e3c7 99bd 8f09 16be 2d8f 5dbe
00000330: 35a9 7c3e b441 1a3e c730 51be 4c4f 8c3e
00000340: 7c6f fabd b7da 9bbd 037d 263f 8c86 43bd
00000350: e10d 1c3e 37e4 4cbe a13e 42be 1a42 e6bd
00000360: b533 28be 3272 91be 0b82 f7bd 3e1c 873e
00000370: 50dc e63e d09c 5ebd e56f 0abe 51bf 2b3e
00000380: 7236 5cbe 0946 093e b353 ba3d e387 a23c
00000390: d5d7 a63e 9214 c73e dc67 123e ed16 93bb
000003a0: 31d8 d33e fe38 b33e 5710 953e a4e7 ad3b
000003b0: 1113 23bd 95be 06be a3d3 85be 06e2 6bbe
000003c0: 77df 8cbe d501 77be eba1 77bc da71 863f
000003d0: b807 e0be da9c 743f a9fd 8abe 6344 9bbe
000003e0: 6c13 9ebe e68b 4c3d 01a0 bebe 0e44 bebe
000003f0: a4eb d4be 5b4d 593f c110 8bbe 7a9d 233f
0.45323148 -0.22831452 0.08411153 0.015954433 -0.093962975 0.19833215 -0.10585836 -0.04854123
-0.027819289 0.36869633 0.022087066 0.33917177 0.014685533 -0.059297834 0.17637974 0.25228643
-0.22979268 0.3004058 -0.07953234 -0.10994903 -0.16512395 -0.4141166 -0.017334156 -0.20327522
0.5513076 0.63864493 0.18873061 -0.45455748 -0.19789116 -0.048607465 0.23062506 -0.1764567
0.27346504 0.15579104 -0.16113847 -0.15916865 -0.16174017 -0.23290952 -0.27506447 -0.0020776107
-0.101705 -0.2702265 0.39946857 -0.28081423 -0.2731987 -0.25508752 -0.25917906 -0.22757825
-0.19113441 0.0123819 0.078459434 -0.23408258 0.01470845 -0.16273312 -0.012411593 0.27883884
0.5392159 0.2971315 0.21470286 -0.16514443 -0.29808825 -0.00030730828 -0.26948905 -0.23423228
-0.1756668 -0.19241758 -0.16734594 -0.31103912 -0.16802084 -0.14079416 -0.059065532 0.29781345
0.037581075 0.33765522 -0.332569 -0.2445354 -0.26424345 0.0059090396 0.29679656 -0.14400646
0.58218354 0.015904179 0.19222741 -0.18982494 0.1970005 -0.17576942 0.20866083 0.0005079878
0.18319947 0.3307256 0.2644659 0.14539538 0.20208527 -0.1085055 -0.18318127 0.2298536
-0.10223137 0.27155975 0.19421147 0.042180687 -0.21766192 -0.21331199 0.035604488 -0.30606323
0.012426744 -0.064174436 0.35457736 -0.13884018 0.32682523 0.24693476 0.44795418 0.3107873
-0.29671285 -0.14273942 0.051637355 0.07922979 -0.2727874 -0.04692646 0.34959397 -0.15207495
0.014636469 0.29828313 0.24288239 0.47264555 -0.22305699 -0.20823029 -0.20904028 0.16625962
-0.1918058 -0.00035698147 -0.10484872 0.015958935 -0.026996713 0.14033602 0.39227316 0.074435554
0.05085936 0.20207936 0.054498073 0.28473386 0.6503418 -0.00615448 -0.3155185 -0.10032349
0.07036084 -0.2918538 -0.08745266 -0.13932137 -0.08438834 -0.26342735 0.05604752 0.0067568305
0.32332337 0.25563553 0.27092052 -0.06963131 -0.20355652 0.044560865 -0.11057502 0.22801861
-0.17571983 -0.21198545 0.3852298 -0.23100957 -0.18947233 0.0017880728 -0.14635569 -0.0040551275
0.0022535862 -0.14703883 0.43119833 -0.24701019 -0.2673463 0.16709505 0.006826799 0.29081458
0.2616272 -0.2158455 0.35270098 0.17429908 0.42943949 0.11286342 0.055610165 -0.13582467
0.15608408 0.059377708 0.32874417 0.072004534 0.120289825 -0.12354094 -0.24878845 -0.08444041
0.0067375745 0.3534927 0.2943024 -0.06425587 -0.04612761 0.11171699 -0.0072896224 0.14930917
-0.17148063 -0.075088285 -0.14652084 -0.21636648 0.24673922 0.15064126 -0.20428763 0.2740425
-0.12228295 -0.07610076 0.650345 -0.047735736 0.1523967 -0.20008932 -0.18969204 -0.112430766
-0.16425975 -0.28407437 -0.120853506 0.26388735 0.4508996 -0.054348767 -0.13519247 0.167722
-0.21505144 0.13405623 0.090979956 0.019840186 0.32586542 0.3888288 0.14297432 -0.004488817
0.41375878 0.3500442 0.2911403 0.0053071547 -0.039813105 -0.13158639 -0.26138029 -0.2303544
-0.2751424 -0.24121793 -0.015114288 1.0503495 -0.4375589 0.95551836 -0.27146652 -0.30325612
-0.30874193 0.049938105 -0.37231448 -0.37161297 -0.4158603 0.8488366 -0.2716122 0.63912165

embedding.0.bias f4 [32]
00000000: d387 b23d 3340 6b3e 1f88 123e 38fa 183e
00000010: e9d9 5c3e dba3 703e bede 11bd 2b13 923e
00000020: 4018 5dbe 7172 ce3d 6356 d8bc 6480 893e
00000030: a6c7 523e a311 70bd 2fd9 a93d bbc5 1fbd
00000040: cbec 3dbc ab29 943e 897b 7bbd 30ee 833e
00000050: 5e60 8cbe 5d8b cbbd fe01 0a3b dbd1 123b
00000060: 9695 503e a40f bd3e 125f 723e 84c2 93bd
00000070: 4754 0fbd 2e39 043e 25ad e4bd 308e 7e3d
0.08717313 0.22973709 0.14309739 0.14939201 0.21567501 0.23500006 -0.035612814 0.2853025
-0.21591282 0.10080422 -0.02640838 0.26855767 0.20583972 -0.05861057 0.082933776 -0.03900693
-0.0115921 0.2893804 -0.06139711 0.2576766 -0.27417272 -0.09938691 0.0021058316 0.0022402916
0.20369563 0.36925995 0.23669079 -0.07214835 -0.034992483 0.12912437 -0.11165837 0.06214732

rnn.weight_ih_l0 f4 [192, 32]
00000000: e77b 2d3d 1118 e33c fc64 0ebe f0be a8bc
00000010: 80df c4bd c588 3ebe b46b f4bd 885c 33be
00000020: 8d22 993e b992 9b3c ad57 ae3d 2c30 2f3e
00000030: e0e2 c4be 2ded b3bd ace2 ed3e 826a bbbe
00000040: f5dd 60be c87f 3c3e 9e69 633e f4fb dbbe
00000050: 5385 993d cb46 663e 470c 353e 2306 23be
00000060: e787 37bf a0e9 27bf bb16 393e b09b 9fbc
00000070: 6190 68bd 1f4f ca3e 21e9 ccbd 382e bd3e
00000080: 4901 a23e 61ec a4bc 8bdc 02be 8741 6d3e
00000090: eb5e 143e 9e36 01be e236 85bd 06d5 e5bc
000000a0: 4f19 9c3e e51f 253e 644b 96be 6c62 933b
000000b0: 0598 debc dfc5 743d 1e8e bd3e bcc4 6b3e
000000c0: 15cb 7b3d 61e3 853d 1175 8bbc a100 c3bc
000000d0: fe3d 953c 285a ee3e 2e16 bf3d 5b09 cf3d
000000e0: 3a97 01be 2dae fabd 6f1e b43d 5934 6e3d
000000f0: 9db0 533d c03e d93d 7442 e23d f542 d83e
00000100: 546c 8f3d b9eb a63d 0c31 bbbd 3c50 c13d
00000110: f350 96bc b058 6dbd a0b6 f03b d041 b63d
00000120: d27f 7dbe c1cb b83d cbeb 173e 60bc 03be
00000130: 7e26 e73d 8931 6dbe 5d88 25be 94df b53b
00000140: aab7 793e f119 3bbd c736 ebbd ffcd bc3c
00000150: f771 80bd b4d1 1abe 4fa5 78be d897 263e
00000160: 4d81 853e 2b9b d13d 658c 5dbd 18a5 3e3e
00000170: 5e00 88bd ef6a 96bd 4175 143c 4f37 69be
00000180: 0888 11bd 24fa f43d 2ed2 4cbe ca66 c93e
00000190: 4128 8e3e 4b46 1b3d a868 10bd 5433 ca3d
000001a0: f315 e4bb 7a20 d23d 63b6 85be 6736 773d
000001b0: 7b12 cf3e 2f0d 293e 81d1 3a3e 83a9 d63e
000001c0: 5805 3b3e 1629 1b3b 8e72 02be 6f8a 253e
000001d0: 0025 d9bd 7210 3a3e 20d6 a23d b2a8 cd3e
000001e0: b793 90bc 5e48 56bd 8a20 d43c 92fc e13b
000001f0: 2b1a 543d 175a dcbc a346 e33d a621 133e
00000200: 7672 003e 7ce4 893d 562b bc3e 96fc cabd
00000210: 8871 94bd dc55 ed3d b0a6 b1bd aa34 3ebd
00000220: 389a 913e e04b 6e3e 7155 dabd fcc4 313e
00000230: 7b6e dfbd c235 5f3e 68f1 243e 635d 173d
00000240: 7386 293e fb4e c63d 9907 6c3e 4a6c 883d
00000250: 9992 9fbd 18ae 653e 88fb ab3d 102e 683d
00000260: bc4b a8be 0eac abbc bd5c 173d 7142 853d
00000270: e38f 54b9 0485 953d 854f d13b 893e 2c3e
00000280: bdd3 92be e057 1d3c f190 dc3e e512 fabe
00000290: 69c6 a9be e014 583e 6a05 98bd 1773 acbe
000002a0: 81e5 2b38 e6c8 36be 5a8e d1bc a5e5 c93d
000002b0: f5e6 babe 1989 d03e e4cc 20be 587f 45bd
000002c0: 3450 01bf a0ac 243e 35a3 983e 362b 093e
000002d0: 9a71 17bd 47e2 66be 1197 bf3c c041 d3bc
000002e0: 8ab8 72bf f6ff 30bf 2923 4abe b771 a7bd
000002f0: f345 6bbe 6ae3 f2bd b093 023e 11a4 86bd
00000300: 61c0 dd3b 4281 a23d b9ea 8f3e 79d2 243e
00000310: 34f0 a13e 2cd8 1c3e 6a06 b7bd cae8 773e
00000320: 00e2 f73d 24fc 583e b10b 413e a4e7 a53d
00000330: 9c66 093d 6a4a e3bc bdfa 2d3e 2e50 113e
00000340: 60bf 923e f212 583e d8f0 863e 1417 c33d
00000350: 4afe 64bc 90e7 173e fe53 513d da58 903c
00000360: 4804 51be cd72 32be 18e7 2f3e 2fe1 fb3d
00000370: 3071 6dbd e357 aa3d 4792 81bd 9e21 603e
00000380: 68ff 953d 113e ac3d 9ab1 e73e 2a70 2abe
00000390: 0263 68be d2df ed3c 0e9f c7bd f239 c0be
000003a0: e388 183e 0036 19be 4718 0bbc 99f7 5a3d
000003b0: 49f4 ebbe c911 b03e f946 a13d cdea c2bc
000003c0: 75d9 6abe df0c 643d 1bb9 653e a411 1f3e
000003d0: 29da 363b 070b b03d 5a96 c9bc c160 3ebc
000003e0: e606 b1be fb36 8fbe cf0b b9be 5c20 94be
000003f0: 04e1 14be adbc 96be eca6 4bbc 812a bd3d
0.04235449 0.027721437 -0.1390571 -0.020598859 -0.09612942 -0.18606861 -0.11934605 -0.17515767
0.29909173 0.018990861 0.085128166 0.1710822 -0.38454342 -0.08785472 0.46462 -0.36604697
-0.2195967 0.1840812 0.22208259 -0.42965662 0.07496133 0.22487943 0.17680465 -0.1592031
-0.71691746 -0.6559086 0.18075077 -0.019483417 -0.056778315 0.3951349 -0.10005403 0.36949325
0.31641605 -0.020132245 -0.12779443 0.23169528 0.14489333 -0.12618491 -0.06504609 -0.028055679
0.3048806 0.16125448 -0.29354393 0.004497817 -0.027172098 0.059759017 0.3702249 0.23024267
0.06147297 0.0653751 -0.017023595 -0.02380401 0.018218037 0.4655316 0.09330402 0.10109206
-0.12655345 -0.12240253 0.08794867 0.05815539 0.051682103 0.10607672 0.11047831 0.42238584
0.07003084 0.08150429 -0.09140214 0.094391316 -0.018349146 -0.057945907 0.0073459893 0.088992715
-0.24755791 0.09023238 0.14836042 -0.12864828 0.11286639 -0.23163427 -0.161653 0.005550334
0.24386469 -0.045679037 -0.11485057 0.023047445 -0.06271737 -0.15119058 -0.2428181 0.16268861
0.2607521 0.10234674 -0.05408897 0.18617666 -0.06640695 -0.07344615 0.009061159 -0.22775005
-0.03553012 0.11961773 -0.20002052 0.39336234 0.27765086 0.037908833 -0.035256058 0.09873071
-0.0069606244 0.10260101 -0.26115713 0.060354616 0.40443787 0.16508935 0.18243982 0.41926202
0.18263757 0.0023675612 -0.12739012 0.1616609 -0.1060276 0.18170336 0.07950997 0.40167767
-0.01764856 -0.05231511 0.025894422 0.006896564 0.05178277 -0.026898427 0.11097457 0.14368305
0.12543663 0.06733033 0.36751813 -0.09911458 -0.07248217 0.11588642 -0.08674371 -0.046436943
0.28437972 0.23271132 -0.10660828 0.173603 -0.10909744 0.2179785 0.16107714 0.036954295
0.16555195 0.09683033 0.23049773 0.066612795 -0.07791633 0.22429693 0.08397585 0.056684554
-0.3287028 -0.020956066 0.036953676 0.06506813 -0.00020271497 0.07300761 0.0063876533 0.1682073
-0.28677168 0.009603471 0.43079332 -0.4884254 -0.33159187 0.21101713 -0.07422908 -0.33681557
4.098332e-05 -0.17850074 -0.025580574 0.09858254 -0.3650433 0.40729597 -0.1570316 -0.048217148
-0.50513005 0.16081476 0.29812017 0.1339539 -0.036973573 -0.22547255 0.023387464 -0.025788188
-0.94812834 -0.69140565 -0.19739975 -0.08175986 -0.22975902 -0.11859782 0.12751651 -0.06574262
0.006767318 0.0793481 0.28108767 0.16095914 0.31628573 0.15316838 -0.0893677 0.24209896
0.12103653 0.21189934 0.18852116 0.081008226 0.03354512 -0.027745444 0.1699018 0.14190742
0.28661633 0.21100977 0.26355624 0.09525886 -0.013976643 0.14834428 0.05110549 0.017620493
-0.2041179 -0.17426606 0.17177999 0.1229881 -0.057969272 0.08317544 -0.06326728 0.21887824
0.073241055 0.08410276 0.45252687 -0.1664435 -0.22694018 0.02903739 -0.09747134 -0.3754421
0.14895968 -0.14962006 -0.008489675 0.053458784 -0.46084812 0.3438857 0.07874865 -0.023793602
-0.22934516 0.055676337 0.22433893 0.15534073 0.002790103 0.08595853 -0.024607826 -0.011619748
-0.34575576 -0.27971634 -0.36141822 -0.28930938 -0.14538962 -0.29440823 -0.012429934 0.092366226

rnn.weight_hh_l0 f4 [192, 64]
00000000: ffba 3ebe 5df9 0c3d c92c 3a3e f700 803d
00000010: 3ea5 b13d c418 373d fcc7 bbbd 5beb d23d
00000020: ca88 03bd 5d7d 22bc af6a e13d a08c 91bd
00000030: 8f6e 543e 3683 543d e359 0ebd 750a acbd
00000040: f850 6abd cba2 04bd dfe5 ecbd 3d6b 90bd
00000050: fea4 a33c abe2 86bd 3e59 343d 5672 e83d
00000060: aae3 1dbc 3745 2fbe c03e b039 7984 b9bd
00000070: b6da 0abd d4e9 673e 1ee9 90bd aa76 0c3d
00000080: 65be 5abe 006f ccbd 5312 15bc f02c 413e
00000090: 04db 6dbd 1488 403e ab2b 053e 4ec3 ec3d
000000a0: 90ea 2ebe c2eb 3c3e 5cd1 2c3c d4f9 1fbe
000000b0: 6158 2dbe 0f19 ebbd 2757 a33b e288 173d
000000c0: f0e4 023d 78e3 b93d 0d5a 24bc 95ee 8a3d
000000d0: 0c04 06bd 52d1 563d 06fb a83c 5ad1 b8bd
000000e0: 3027 a83c 50d4 54bd b399 52bd fe55 9c3c
000000f0: 81e9 9a3c 94f9 3f3e 3cfe 46bd 2003 623c
00000100: 8443 273d 7b66 363d c220 d03d 4252 83bd
00000110: 33e6 c13d 1620 dc3d f315 f93d ead8 de3c
00000120: 3134 b53b 0f8c a43c a938 05bc a3fc e4bd
00000130: 66ba 5b3d a1b1 d73d 1607 0abc 6139 9f3d
00000140: fc21 143e 4df5 0dbe a5a0 583c b977 92bc
00000150: ed3a d83d a9f0 853d 6f31 ea3d 5a09 5c3d
00000160: 8625 c53d 4a4f d2bd a0e8 5abd 7c6c acbd
00000170: 577c b23e 178d 4fbd 5978 a33d 2b78 8cbd
00000180: 1966 ca3b 4fdf 3e3c 37a9 babd 4efe c83d
00000190: e47f 3cbd b42f 153d 8ce4 883e 2792 eb3d
000001a0: d9c2 96bd 4b76 d23d 54b3 913c 322c 953d
000001b0: aad7 673d c6a6 1dbe a024 db3c 6a5f 223d
000001c0: 5889 d1bc 1155 a43c 76b6 053e 1b79 743c
000001d0: b61b 9a3d 2391 e1bd b1bc 8a3d 76a1 853e
000001e0: a299 1d3e df3e 2a3e 2b4a 67bd 8504 4f3e
000001f0: 6787 f53d b834 acbc 349e a0bc 9d14 c1bc
00000200: dd0a 093e 25eb 93bd fafe 10be d10b f33d
00000210: 9174 a93d 35a3 1ebe 9f0a 9a3d bf2d c1bd
00000220: 998e be3d bfbc 11be abf8 fdbd e420 8abd
00000230: 9ee4 56bd d673 8e3d 0743 7dbd a487 a93b
00000240: a464 27be 0654 41be a3a5 023e 4978 3e3d
00000250: cb3d ba3d dd2b 88bd 7e37 40bc 0db5 a73d
00000260: fce2 943d 6c9f f23d a509 17bd 9d38 83b9
00000270: 13ee c2bd a24e 8a3d ae3a e93d 7b30 1dbe
00000280: ffcd 7fbd e2f7 b83d 3ace 44be cba3 d5bd
00000290: 062f 80bc be5c 24bd cdef 213d 7fab 2abd
000002a0: d1df fdbd 21a3 f1bd ac95 8abd 8d3f c9bd
000002b0: 151a 32bd 3eb4 57bc 7884 1ebd e719 95bd
000002c0: e542 0bbe 8bd9 b2ba 2117 403e 8668 de3b
000002d0: 1463 293e 7bb0 c2bd c90f 5c3d 2e1e 043e
000002e0: b4f2 a03c 8197 7f3d d0aa 913d 743b b83d
000002f0: 5315 b8bd 9e7d 833d f3e3 303e b456 393d
00000300: 1c00 643d 9010 8fbd ea3f dcbd 4a7d 9dbb
00000310: 2058 78be e860 023d f6ad 4a3e 8ae1 8cbd
00000320: f90f 613e 99ee 2bb8 b346 f4bb 8548 653d
00000330: 8dc7 e4bd 756b 173d 99c8 f6bd a51f 0b3e
00000340: 2300 59bc 5164 0cbe e1f1 b7bd 3734 3dbb
00000350: ba8e dabd cb30 79bd 7dce 823d c40a 1e3e
00000360: 6123 8e3d bc43 5dbd 87ae 1fbd 0e33 893d
00000370: 41bb e93d 73ac 2bbe 2187 86bc ec12 24be
00000380: 54b4 28bd 16d3 a13c 6793 8cbd ea25 0dbe
00000390: 8bc9 503d 63c5 c5bb 422d 75bd ad16 dabd
000003a0: 778a 663e 1509 14be a84e 9ebd 40fc 833c
000003b0: 7845 633e b2c9 c2ba 5d72 cd3d aac1 c8bb
000003c0: 2a64 22be 4734 58bd 9f74 933d 16cc 90bd
000003d0: 4319 7f3c 37b3 bb3d 9648 d23c 1bbb ccbd
000003e0: c637 b13c fe7a a03d 0e4a 8dbc 1088 3fbe
000003f0: 1a74 1fbc 22c1 493d 7d7a 393d 0749 b73d
-0.18626021 0.0344175 0.18181147 0.06250184 0.086740956 0.044701353 -0.09169003 0.10298797
-0.032112874 -0.009917584 0.110066764 -0.071069 0.207453 0.051882945 -0.03475369 -0.08400432
-0.057206124 -0.032381814 -0.11567282 -0.07051704 0.019976135 -0.06586202 0.04403042 0.11349933
-0.009636799 -0.17116247 0.00033616088 -0.0905847 -0.033899985 0.22647792 -0.070757136 0.034292854
-0.21361692 -0.09982109 -0.009098607 0.18864799 -0.058070198 0.1880191 0.1300494 0.11560689
-0.17081666 0.1844931 0.010547962 -0.15622646 -0.16928245 -0.11479389 0.0049847546 0.036995776
0.031956613 0.09076589 -0.010031235 0.06783787 -0.032718703 0.052445717 0.02062751 -0.09024306
0.020526499 -0.05196029 -0.05141611 0.019083973 0.018910171 0.1874755 -0.0485823 0.01379469
0.040835872 0.044531327 0.10162498 -0.06412174 0.09467735 0.107483074 0.121623896 0.027203042
0.0055299033 0.020086316 -0.008131185 -0.11180999 0.05364456 0.10531927 -0.008424541 0.07774616
0.14466089 -0.13863106 0.013221894 -0.017879354 0.10558114 0.06540043 0.1143521 0.053719856
0.09626298 -0.102690294 -0.053444505 -0.08419129 0.3486049 -0.050671663 0.07981939 -0.06858858
0.006176722 0.011649921 -0.091143064 0.0981413 -0.046020404 0.036422446 0.26736867 0.11502486
-0.07361383 0.10276469 0.017785706 0.0728382 0.056602158 -0.1539565 0.026750863 0.039641775
-0.025578186 0.020060094 0.13057885 0.014921452 0.07524817 -0.11014011 0.06774271 0.26099747
0.15390638 0.16625546 -0.056467216 0.20216568 0.119887166 -0.021021232 -0.019606687 -0.0235694
0.1338305 -0.07222585 -0.14159766 0.11867488 0.082741864 -0.15491946 0.07521557 -0.094325535
0.09304542 -0.14232157 -0.12400945 -0.06744555 -0.05246412 0.06955688 -0.0618315 0.0051736403
-0.16346985 -0.18879709 0.12758498 0.04650143 0.09093817 -0.06648991 -0.01173198 0.081888296
0.07269856 0.118468136 -0.036874432 -0.00025028447 -0.09518065 0.06753279 0.113881454 -0.15350525
-0.062452313 0.09031655 -0.19219294 -0.10431632 -0.015647423 -0.04012751 0.039535332 -0.041667458
-0.12396205 -0.117986925 -0.06766829 -0.098265745 -0.043481905 -0.013165532 -0.03870055 -0.07280331
-0.13599737 -0.0013645155 0.18758823 0.0067873625 0.16541702 -0.09506317 0.05372599 0.12902138
0.01964698 0.062400345 0.07112658 0.08995715 -0.08988442 0.06420444 0.17274456 0.045248702
0.055664167 -0.06985581 -0.10754378 -0.0048061954 -0.24252367 0.0318307 0.19792923 -0.06878956
0.2197875 -4.099179e-05 -0.007454717 0.055977363 -0.11170874 0.036967713 -0.1204998 0.1358629
-0.0132446615 -0.13710143 -0.089816816 -0.0028870234 -0.10671754 -0.06083755 0.06387041 0.15433794
0.06940342 -0.054019675 -0.0389848 0.06699191 0.11412669 -0.16765003 -0.016421856 -0.16022843
-0.0411876 0.019753974 -0.06864052 -0.13783994 0.050973456 -0.006035493 -0.059857614 -0.10648856
0.22513758 -0.1445659 -0.07729846 0.016111493 0.22194469 -0.0014861135 0.10031579 -0.006126602
-0.15858522 -0.05278423 0.07199978 -0.07070176 0.015569988 0.09165042 0.025669377 -0.09996625
0.02163304 0.07835959 -0.017247226 -0.18704247 -0.009732271 0.04925645 0.04528283 0.08949476

rnn.bias_ih_l0 f4 [192]
00000000: 38b9 18be e9b5 8fbc 98eb 49bc 4ed0 203e
00000010: d130 323e 695b fabd c3fb 433e 9c4e 5fbd
00000020: 430d cbba a9c2 79be 824a 6d3d e0b6 983c
00000030: b691 07be ac7d bdbd 278a 8fbd 4276 2ebe
00000040: 7803 71be 1338 e3bd 2186 003e 7ad8 e6bd
00000050: a7ad 863d fb65 17be 57c2 05be e05b eebd
00000060: 0968 54be 1880 893d 8fe8 66be d147 c93d
00000070: c380 52bd 699e a3bc 00b3 bb3d 5509 0c3e
00000080: 021a 24bd d8dc cabc 5222 adbc 99b4 c43b
00000090: a9a9 1a3d 8296 edbd 62bb 3fbd 38cf 6b3d
000000a0: 5ec3 e83d 8262 2ebd 65f8 4c3c ad6b 04be
000000b0: 0ca7 21be be4a 273c 12ea 013e 3c42 fc3d
000000c0: 1cf7 843c 7f22 d2bd 149f a4bc a0d4 fbbd
000000d0: 7109 7fbb 2717 523d c7a5 14bc 593d d7bd
000000e0: abe9 403c f444 dc3d 32c6 4fbd 863a 71bd
000000f0: 11bd 313d f17c 43be c5e7 273e 2836 4a3c
00000100: 0449 d7ba df82 583c 92a1 0cbe 58d4 51bd
00000110: eaae 92bb 8e8e 27bd 2d1a 7fbd f6de 0ebe
00000120: a2e7 663c aaf3 3d3d 5d93 2cbd 4b5a 343d
00000130: 039d 94bd c712 a03d 1cf0 15be 6049 57be
00000140: e0e0 79bd eb76 06be 49f2 19be 997a fabc
00000150: f502 d03c 4c7d 5ebd ebd8 77be 4ac9 02bc
00000160: 5a92 30be 82a2 1f3c 5f45 88bd b3ec 48be
00000170: d547 10be 0a00 213c ce2d 11bd 6fd0 053b
00000180: bd42 febd 35a7 c13c a20d 96bd a79b c9bd
00000190: 0c4b 563d 984b 8a3d 4cb2 1fbe b620 8abd
000001a0: f5ed 01bb d712 f8bc 3b00 11bd 15d7 6b3c
000001b0: cc79 cdbd bc87 92bd 4012 17be 0168 aebe
000001c0: 22c2 66bc 08f0 fabd 9c01 07be edae a2bc
000001d0: 532a 03be 60c7 9e3d 6c4c 3fbe 4f8b 0ebe
000001e0: 0c8f 86bc fb80 efbd 8153 f6bc c717 1fbe
000001f0: 7e5f f4bc 0472 6bbe 11b4 a43d 53a7 b9ba
00000200: 64c0 e33d 0dd7 62bc 9040 33be 78b0 0e3e
00000210: 742c a4bc 500f 62bc ed93 063e 0127 a8bd
00000220: 211e 513c ac05 d2bd 6b90 e8bc 908e 073e
00000230: 6da4 00be 62cf 143e 4173 f83d 8666 e83d
00000240: abeb a23d 54b4 a53c 49f5 083e b513 cabd
00000250: ff35 123e 37c2 00be 04f4 8039 6ac9 b53c
00000260: ad8c 753d e1e2 ab3d 6670 afbc ad77 7a3d
00000270: 8f2d 003d 7f2f 0fbe ad17 1c3d c78e ccbd
00000280: 4f7d 953d 5d66 b2bb e887 49bd b452 1dbe
00000290: 66d4 25bc 1fe6 80bd 32f7 863d e819 2abe
000002a0: 2332 713d dd80 67bd 0c7b 19bb a45b f3bc
000002b0: 639e f53c b49d 993d cd27 83ba 59c3 14bd
000002c0: 6538 dfbc 408b cf3d cad2 95bb 31a8 67bd
000002d0: b245 b03d c5e9 13be acab b73d 01c5 9d3d
000002e0: c541 08be 0d4b aa3d a830 2f3d 6bd2 d6ba
000002f0: 49ce bdbc 82cd 7ebd 77d7 723d 7d2c d03d
-0.14914405 -0.017542796 -0.012324236 0.15704462 0.17401434 -0.12224466 0.19139008 -0.054518327
-0.0015491623 -0.24390663 0.057932384 0.01864189 -0.13239178 -0.09252486 -0.07008772 -0.170373
-0.2353648 -0.1109468 0.12551166 -0.112717584 0.0657609 -0.14784996 -0.13062416 -0.116386175
-0.20742811 0.06713885 -0.22549652 0.09828151 -0.051392328 -0.019972997 0.09165001 0.13675435
-0.040063865 -0.02476351 -0.02113453 0.006002974 0.037759457 -0.11600973 -0.04680956 0.057570666
0.11365388 -0.042574413 0.012510394 -0.129317 -0.1578638 0.010210691 0.12686947 0.12317321
0.016231112 -0.10260486 -0.020095386 -0.122964144 -0.003891554 0.05129161 -0.0090727275 -0.10509748
0.011774461 0.10755339 -0.050726123 -0.058893703 0.0433932 -0.1909063 0.16397007 0.012342013
-0.0016424959 0.013214796 -0.13733509 -0.051227897 -0.004476418 -0.040907435 -0.062280823 -0.1395224
0.0140933115 0.046374954 -0.042132724 0.044031423 -0.0725651 0.078160815 -0.14642376 -0.21024084
-0.061005473 -0.13131301 -0.1503383 -0.030576037 0.025392035 -0.05431871 -0.24203841 -0.007982561
-0.17243329 0.009743335 -0.066538565 -0.19621544 -0.14089902 0.0098266695 -0.035444073 0.0020418426
-0.12415073 0.0236393 -0.07326819 -0.098441415 0.052317664 0.067526996 -0.15595359 -0.0674452
-0.0019825671 -0.030282421 -0.03540061 0.014394541 -0.100329965 -0.071547955 -0.14753056 -0.34063724
-0.014084371 -0.122528136 -0.13184208 -0.019858802 -0.12809114 0.077528715 -0.18681496 -0.1392033
-0.016425632 -0.11694523 -0.030069115 -0.15536414 -0.02983069 -0.22992712 0.080421574 -0.0014164246
0.1112068 -0.013845217 -0.17505097 0.13934505 -0.020040728 -0.013797596 0.13142367 -0.082105644
0.012763531 -0.10254988 -0.028389176 0.13237977 -0.12562723 0.14532235 0.12131358 0.1134768
0.07955106 0.020227589 0.13374819 -0.0986704 0.1427841 -0.12574087 0.00024595868 0.022190768
0.059948612 0.08392883 -0.0214159 0.061149288 0.031293448 -0.13982962 0.038108516 -0.0998817
0.07299291 -0.0054443316 -0.049201876 -0.1536358 -0.0101214405 -0.06293892 0.065901175 -0.16611445
0.058885705 -0.056519378 -0.002341929 -0.029706784 0.029982751 0.075007826 -0.0010006368 -0.03631911
-0.02724857 0.10133982 -0.004572247 -0.056556884 0.08607043 -0.14444645 0.08968291 0.07703591
-0.13306339 0.08315096 0.04277101 -0.0016389614 -0.023169653 -0.062207706 0.059287515 0.101647355

rnn.bias_hh_l0 f4 [192]
00000000: a61d 73bd d929 093e cf58 e2bc 0ff3 24bd
00000010: 6184 933c 169b f63d adcf 313e bd87 fbbc
00000020: 8b40 df3c 0ade 41be 4530 6dbd 42fb dabd
00000030: 0c30 bfbd cb50 08be af17 7ebd 7c18 0dbe
00000040: dd68 4ebe 53a0 d2bd 0ceb e93d 03c1 38bd
00000050: aded 153d d0c3 4f3d f17d 11be 844c d3bc
00000060: 6ce5 8b3a 656c 183e 0e1c 313a fc34 91bd
00000070: 110a 22bd 6e4e a23d ae05 60bd 8b31 f83d
00000080: a9b5 41bd 4c96 48be 2997 303e 0f0c 153e
00000090: fd6c e4bd 4a78 dabd 8e6d a8bd 779c 703d
000000a0: 0e50 043e b53b 94bd 4ed3 d53d 3876 bcbd
000000b0: d633 1cbe aee1 683b 008f ff3c 5fe0 2c3d
000000c0: 3b3c 62bd dc26 6fbb 5ee6 2f3e 45f0 e0bd
000000d0: 627a bb3d b16e e1bd dda8 33bd 1f56 7a3c
000000e0: 5274 3fbd c21b c03d 19a7 c13b 4d38 713d
000000f0: 83fe 013e 8335 24be aa55 2e3e 4a98 303d
00000100: bf8b 823b 9720 47be d67c 22bd c26d f6bd
00000110: ab32 84bc f9d8 28be 6329 45be 594c 2cbe
00000120: 90a1 54be a388 af3d 60b1 a13c fa29 15be
00000130: 48ee 16be 79ad 333d 4440 a1bd 1389 8dbe
00000140: d451 a63d 5f82 b4bd 8977 303c 58f8 bfbc
00000150: c0bf 5abc 9d20 39bd c6e4 acbc 6a58 1abe
00000160: 764e 33be 86d9 273d 5771 24bd 71a7 36be
00000170: 1484 eabd de2f 78bd e51e 07be 28af cbbc
00000180: 9921 23bd f797 2fbd dc41 b4bd 84ea d1bd
00000190: 0177 51bd f7cc fabb 02c1 d3b9 ca27 4d3d
000001a0: 3bf0 7bbc 7cf2 9fbd 991c 263d ba5d 44be
000001b0: 7740 37be ff5f 133b e97a d1bd 72f1 60be
000001c0: 4403 3ebe e5ef 46be adb9 3bbe 76a1 b5bc
000001d0: 167e c5bc ae28 27bd 1549 2ebe 3067 70be
000001e0: 35f1 30bd e421 6bbd 4988 163d 1223 e33c
000001f0: 8027 1ebd 093e 92bd 2671 24be ec9e 6e3d
00000200: e0e5 ce3c e0ff f2bd b0bf 473c fd10 0d3e
00000210: e12d 9cbd 6277 7fbd afe1 153e 5db2 06be
00000220: 5874 2fbc 143a 5dbc 5ec0 8cbd 7de0 24bc
00000230: da07 cebd b0a4 d13c 3762 8e3d e4b6 b4bd
00000240: 4c42 e3bc 95a4 b4bd a75a b23d 5b3e b6bd
00000250: 4a6a f43d 8bdf a2bd 6034 a43c 6ef3 393c
00000260: 1761 9cbc 9bc5 213e b5ed 41bd 7f64 9a3c
00000270: 8051 c33c 52e3 4fbd 9a74 9b3d 055a 22be
00000280: a89e babd 5e29 cc3c 35f9 08be de84 d0bd
00000290: 8b2c 1cbd 1683 eabc 8978 923d 1b45 bbbd
000002a0: 7326 92bd 9faa 12bd cd0c 04be b9eb 803d
000002b0: 618e 143e fe62 be3d 21c3 0e3e 85f3 983b
000002c0: b610 06be eec0 b6bd f816 0b3e 357a a7bd
000002d0: 4d29 1f3e da82 ebbc c412 7f3d 05cd b9bc
000002e0: 11f7 d6ba 8ebb c73d 98fc 8f3d e79b 1c3e
000002f0: 4be9 2bbe bb14 fd3c 9406 c63c 7a49 f93c
-0.059354447 0.1339487 -0.027630238 -0.04027086 0.01800746 0.12041299 0.17364378 -0.030704373
0.027252456 -0.18932357 -0.05790736 -0.10692455 -0.09335336 -0.1331207 -0.062034305 -0.13778871
-0.2015719 -0.10284486 0.11421785 -0.045105945 0.03660362 0.05072385 -0.14208199 -0.025793321
0.0010673231 0.14885099 0.00067561946 -0.07090184 -0.03956038 0.079251155 -0.054692917 0.121188246
-0.047292385 -0.19588584 0.17245163 0.14555381 -0.111536 -0.106674746 -0.08224021 0.058742967
0.12921163 -0.07237951 0.10440694 -0.09202236 -0.15254149 0.0035534906 0.031196117 0.042206164
-0.05523322 -0.0036491668 0.17177722 -0.10983328 0.09154202 -0.11007441 -0.043862212 0.015279322
-0.04674179 0.093802944 0.005909812 0.058891583 0.12694745 -0.16036038 0.17024866 0.043113984
0.003983944 -0.19446026 -0.039669834 -0.120326534 -0.016137442 -0.16489018 -0.19254069 -0.16826
-0.20764756 0.08570983 0.0197379 -0.14566794 -0.14739335 0.04386661 -0.07873586 -0.27643642
0.08121076 -0.08813929 0.010770687 -0.02343385 -0.013351381 -0.045197118 -0.021105181 -0.1507279
-0.17510399 0.04097893 -0.04014715 -0.17837311 -0.11450973 -0.060592525 -0.13195379 -0.024863794
-0.039826963 -0.042869534 -0.08801624 -0.102498084 -0.05113888 -0.0076538282 -0.00040388858 0.050086774
-0.0153771 -0.07809922 0.040554617 -0.19176379 -0.17895685 0.0022487638 -0.102285214 -0.21967104
-0.18555933 -0.1942745 -0.18332548 -0.022171717 -0.024107974 -0.04081028 -0.17020066 -0.23476863
-0.043198783 -0.057405367 0.036751065 0.027726684 -0.03861189 -0.071407385 -0.16058788 0.05825703
0.025256097 -0.118652105 0.012191698 0.13776012 -0.07625938 -0.06236971 0.14636873 -0.13153978
-0.010708891 -0.013502616 -0.06872629 -0.010063288 -0.10060091 0.025591224 0.06952327 -0.08823946
-0.027741574 -0.08820454 0.08708697 -0.08898612 0.119343355 -0.07952794 0.020044506 0.011349542
-0.019089265 0.15798037 -0.047345836 0.018846748 0.023842573 -0.0507539 0.07590599 -0.15854652
-0.091122925 0.02492207 -0.13376315 -0.101815924 -0.038128417 -0.02862696 0.071518965 -0.0914404
-0.0713624 -0.03580725 -0.12895508 0.062949605 0.14507438 0.09296225 0.13941623 0.0046677017
-0.13092312 -0.08923517 0.1358298 -0.08177606 0.15543099 -0.028748918 0.062273756 -0.022680769
-0.0016400536 0.0975257 0.070306 0.15293847 -0.16788213 0.030893674 0.024173059 0.030430544

rnn.weight_ih_l1 f4 [192, 64]
00000000: 284e 0a3b 09af 113e 0176 a33d 0163 013d
00000010: 165c 193c b6b1 2f3d fc1a 843d 7211 a13d
00000020: 94bf ddbd 23be b5bd fa5f db3d 31d3 d23d
00000030: f691 703d 2fcc 91bd eb0e c23d 21d1 e53c
00000040: 57c2 b03c bc72 1a3d cb66 013e 8cf3 85bc
00000050: 2ab2 8f3d 0fda 64bc 41d6 d4bd a649 483e
00000060: a1ae 493d 8d93 aa3d f6b2 153e 9bdb bebd
00000070: 9ab1 7c3e 2f40 5f3d c52c 38bd 4aab 1d3e
00000080: 7279 f7bd b52e 11bd 55cb debd 6994 c9bd
00000090: eaed bdbd 8cae a63d 8642 f83d 7dff 203e
000000a0: 1f18 31bd ec89 06bd 3972 1abd 4a7b 623d
000000b0: 375f bebd 619b b43d 2af1 e1bd f506 0a3e
000000c0: a638 a73d 250c 903d 04f3 c4bc 0218 35bd
000000d0: f917 843d 8be0 023e 1222 303e e842 3bbb
000000e0: 1970 913d 1841 643d e7cf 82bd 31c8 e23c
000000f0: e773 083e ee68 af3d c739 36bd a68b 9f3d
00000100: 0c34 a33d 5288 ad3d 8b0b cb3c 34cf 153c
00000110: bf0e f23d 9ff7 0cbe 442b 0b3d b721 213e
00000120: 2e7c 6b3c ef96 5e3d e83c dc3b 57fd d3bd
00000130: a8b7 bebc 72ea 6fbd 0c3d 88bc b047 3f3d
00000140: a8dc a2bb b0cf 443e b7cc 40be 054b 82bc
00000150: 2b9b 05be e602 083e d299 f23d 5198 063e
00000160: 271b 18be 0333 173d 219c e73c 310d 97bb
00000170: 2841 9bbe 9141 3f3d b2c2 acbd c44a 053e
00000180: ff70 973d 1fa0 71be 8a20 743d 9849 213e
00000190: fc9e 063e 6cbf 163d 21e6 adbd 7363 003e
000001a0: d63c 1fbe d8c8 c73d 9105 323e 2be1 35bd
000001b0: 0e2a 69be a434 31be 87b5 48bd 73e5 383e
000001c0: 68ec 543e 2527 653c c6d7 2ebc 925a 0e3e
000001d0: 8fdb 8b3d 4aef 813c c869 cd3d 6a80 2d3c
000001e0: 6e5c 6b3e cd0a d3bd 9617 b6bb 7a59 39bd
000001f0: a25f 0a3d e703 8d3d e94c 0cbe 4890 31bd
00000200: 55df fd3d 3e2c 20be 6178 ee3c 2453 523d
00000210: b4c7 06be a4fa 7cbd f3a3 5cbb 502e a33d
00000220: 182a 583d 530f c4bb 8c3f 50bd ebe5 e3bd
00000230: 8e42 a93d 5b49 bb3d 373c 87bd f323 543d
00000240: efb9 eebc 7615 963d aaa9 56bc 3fea 943d
00000250: 5047 903d 850b b1bc 07dc ad3d 27ab 46be
00000260: bf76 ab3d 558f b9bd ee88 c2bd b86b ebbc
00000270: ee16 aa3d c29d 7abd 0325 49bd f76d 86bd
00000280: 9d01 7f3c c683 4b3c 7444 3cbe 9744 dd3d
00000290: 2dda 9abd f2f9 933d c85a 213d 91e4 f8bd
000002a0: 2e0b c33d 3180 14bd c0fe fbbd ca27 273e
000002b0: 69b7 d2bc 0b6a 523a 7d9f ff3d bca6 91bd
000002c0: db08 febd f424 f83d 2225 d6bc 7495 82bd
000002d0: ad1d 803d 94ab 323b 7cd6 193d c9bd dd3d
000002e0: 6dea 293d 4ed7 953d 493d 1bbe f208 adbc
000002f0: 0525 6a3d a601 07be cbb6 693d 9fce ba3c
00000300: b335 e83c 78ed 0a3d 5686 3b3e 2948 90bd
00000310: 8da5 723d e842 eebc af6a 333d 45fd 4fbe
00000320: b6d0 27be ef21 403e d79f f0bd 9c16 43bd
00000330: 7157 0abe 1f00 e03c 55de 06bd c20d ceba
00000340: bf1c 3abb a551 1a3d 2745 333d 795f 8a3d
00000350: b929 9c3d 455c 8a3d 2ad6 003e 79c8 5bbd
00000360: 710f f93d 00da bebd 0a3e 133d fff7 78be
00000370: df5d 90bd de69 2a3e 305b 56be 39a0 6f3e
00000380: 8ee8 95bd e2ef a1bc 8bea 903c d4fa 623e
00000390: be2f ba3d b750 9dbd c519 95bd 23ba 663e
000003a0: f44b 373d 8bcf 49bd b534 343e b684 84bd
000003b0: 125c d9bc ac7a 8abd fd92 eabd 8133 a33d
000003c0: 824a ac3d 10e9 02be 989f 4e3d cdf6 103e
000003d0: ae7f e7bd f91d ca3d dc78 a53d c06c d43d
000003e0: 8306 023e d20b d0bd eabf be3c 8514 e3bd
000003f0: fe92 da3d 1306 86bd 3a65 56be c863 26be
0.0021103714 0.14226927 0.07981492 0.031588558 0.009360334 0.042894088 0.06450459 0.078646556
-0.10827556 -0.08874156 0.107116655 0.10294188 0.05873295 -0.07119023 0.094755016 0.028053822
0.021577043 0.037707075 0.12636869 -0.016351484 0.07016404 -0.013968005 -0.10392428 0.19559345
0.049238805 0.08328924 0.1461905 -0.0931923 0.24677125 0.05450457 -0.04496457 0.15397373
-0.12083711 -0.035444934 -0.10878626 -0.0984276 -0.09273894 0.08138761 0.12122063 0.15722461
-0.043235894 -0.032846376 -0.037706587 0.05529336 -0.092955045 0.08818699 -0.110323265 0.13479216
0.08165102 0.070335664 -0.02404166 -0.04421235 0.06449885 0.12780969 0.17200497 -0.0028573815
0.07101459 0.05572614 -0.063873105 0.02768335 0.13325463 0.085649356 -0.044488695 0.07790308
0.079689115 0.08473267 0.024785778 0.009143639 0.11819219 -0.13766335 0.03397681 0.15735517
0.014372868 0.05434316 0.006721128 -0.10351055 -0.023280933 -0.058573194 -0.016630672 0.046699226
-0.004970152 0.19219851 -0.18828093 -0.015904913 -0.13047473 0.13282356 0.11845745 0.13144042
-0.14854108 0.036913883 0.02827269 -0.004609727 -0.30323148 0.04669339 -0.08435573 0.13016802
0.07394599 -0.23596238 0.059601344 0.1575073 0.13146585 0.036803648 -0.08491159 0.12537937
-0.15550551 0.09755105 0.17384936 -0.04440419 -0.22769949 -0.17305237 -0.049001243 0.18056278
0.20793307 0.013986384 -0.010671562 0.13901737 0.06828987 0.015861172 0.10029942 0.010589698
0.22984478 -0.103047945 -0.005557011 -0.045251347 0.03378261 0.0688551 -0.13701214 -0.043350488
0.12396113 -0.15641877 0.029110136 0.05134882 -0.13162118 -0.061762467 -0.0033667057 0.07967818
0.05277452 -0.005983272 -0.050841853 -0.11127838 0.082646474 0.09144851 -0.06603282 0.051792096
-0.029141394 0.07328312 -0.0131019745 0.072712414 0.07044852 -0.021611938 0.084892325 -0.19401227
0.083722584 -0.090605415 -0.094987735 -0.028737888 0.08305155 -0.061185606 -0.049107563 -0.06563943
0.0155643495 0.012421554 -0.18385488 0.10804098 -0.07561145 0.07225408 0.039393216 -0.121529706
0.09523617 -0.036255065 -0.12304449 0.16323772 -0.025722222 0.0008026666 0.12481592 -0.0711188
-0.12404033 0.12116423 -0.026140753 -0.06376162 0.0625566 0.0027262913 0.037558064 0.10827214
0.04148333 0.07316457 -0.15160097 -0.02112243 0.05716421 -0.13184223 0.05705909 0.022803603
0.028345918 0.033917874 0.18312964 -0.070450135 0.059239913 -0.029084638 0.043802913 -0.20311458
-0.1638821 0.18762945 -0.11749237 -0.047628984 -0.13509919 0.027343808 -0.032926876 -0.0015720653
-0.0028398482 0.03767552 0.04376712 0.06756491 0.076251455 0.0675588 0.12581697 -0.053657982
0.12161148 -0.09318924 0.035947837 -0.24313353 -0.070491545 0.16641948 -0.20933223 0.23400964
-0.07319747 -0.019767705 0.017689964 0.22165996 0.09091137 -0.07681411 -0.07280306 0.22531943
0.04475017 -0.049270194 0.17598231 -0.06470625 -0.02653316 -0.06761679 -0.11453817 0.07968808
0.08412649 -0.12784219 0.05044517 0.14156647 -0.1130365 0.09868998 0.08079693 0.10372305
0.12697797 -0.101585045 0.023284871 -0.11087898 0.10672568 -0.06544127 -0.20937052 -0.16249001

rnn.weight_hh_l1 f4 [192, 64]
00000000: eadc fbbc ff2d 5ebd a3b5 1fbc f4c9 843d
00000010: aa24 11be f866 69bd ae54 bbbc c373 673d
00000020: 201d 313d a654 f2bd 4636 fd3d 0fad e8bd
00000030: c035 a4bd 6adc 773d e186 b3bd 3f5f 5e3d
00000040: f796 d6bd 6adb 9b3c d126 203d c1af 543d
00000050: d448 1c3e 557a d2bc b682 c93b 07c8 273e
00000060: 7981 843d 4f97 c63d 16a7 633d 63b8 17be
00000070: 2294 bd3d d865 b8bb cb0b be3c 2cef 94bc
00000080: 222f 10be 7f64 7c3c 9d06 7cbd 62f3 34bd
00000090: a7ef 3b3d 14e9 dfbd 2b80 b93d 163e 2c3d
000000a0: 0726 71bd 3e53 cd3c 2a03 d6bd efae 133d
000000b0: d338 b7bd 36e2 88bd 15ee f13d 51bc 4dbe
000000c0: a9ac 883d 278c 2fbd 926d 11be 48e0 303d
000000d0: 02b7 87bd 91c0 d23b 5c99 813d debe 9dbd
000000e0: d784 69bd bf83 19be 6bd3 653d 137f 52bd
000000f0: cdf8 e6bd 89dc 8bbd 28cd 153e 335e 533c
00000100: 61f5 dbbc 1df1 f03c f297 15be 692f 373d
00000110: 3386 99bc b9d9 0b3d a373 44bd 7c33 b23d
00000120: 7e80 a0bd 751f 0d3d 7e22 bdbc 2a7d 1abc
00000130: cada 95bd 4a92 473e 4b9b fa3c 074f bd3d
00000140: 9a68 f0bd 1d89 1e3d 0239 623d a41b 763c
00000150: ca33 c7bc 4eaa 8fbd 8e3e 34be 4eb6 5d3c
00000160: 36a4 093c ec86 853d e13b ebbd a1db d53c
00000170: ce64 ec3d 0695 dbbd 6c40 a3bc 8b83 06bc
00000180: 2ea9 b9bc cff3 173e 89c7 a43b 5b2f 98bb
00000190: 93e7 20be 27a1 c5bc 8d6d 8d3d b1a3 2b3d
000001a0: bc72 e23d ed06 75bd 168d 3c3c 120c 0e3d
000001b0: da92 56bd a59a 9d3d d895 9b3c e562 5fbe
000001c0: 5672 e43d 272b 753d 70f2 983b 7702 9f3d
000001d0: d557 a03d 02d1 013d b3e6 0e3d 234e eb3d
000001e0: 5c35 a13d f273 a33d e6c2 be3d d158 c63d
000001f0: eafb 6ebd 3c31 293e 5e1a 9cbc 79a8 c8bd
00000200: 2ab2 8dbd 6e57 a1bd 6279 e9bc 25dd 44bd
00000210: 1844 c73d 9761 df3c 9b9e f2bd 2a54 e93c
00000220: b4da b7bd 6440 0a3d 4483 edbd 5a30 973d
00000230: 7dc0 21be e9f9 bcbd 0f77 963d 3b22 1f3c
00000240: 48ac 513d ee96 d53d 5e57 893d 55cb 773d
00000250: 02f9 303d 4188 913d 05bc ea3c 02f9 de3d
00000260: 9af7 15bb 4c10 c0bc b92a 6cbc d751 f13c
00000270: 4781 3dbe ab9f 4dbd 49e0 023d 455e d2bd
00000280: ad5a a93d eaf5 c9bd 0e8d 2a3d d1a1 fbbd
00000290: 4a1a bc3d df28 db3c b254 fdbd 0047 063e
000002a0: 786e 63bd cbed 07be 4260 9f3d 515e ac3a
000002b0: 68f4 683d 1cc1 e8bd 5db6 92bb f5d2 ed3d
000002c0: ea67 293d 6837 e1bd 759e 513d a93e 5dbd
000002d0: 5901 85bd ed7f 503c b9c8 a73d c58c babb
000002e0: 8f6d 0b3b 89be 243e 1a28 aebd 1a4d 6cbd
000002f0: 0f13 c93d 3ab3 c93d 7950 fb3c fe3a a23c
00000300: 438c 3dbc f6aa e43c 338b 3abe 06c2 0a3e
00000310: 5a20 763b 588f e83d 6891 1c3d 35f0 b0bb
00000320: 6347 c03c 268f 34be f4cc 82bc d413 8fbd
00000330: cfcd d83c eda5 283c c449 4dbe 3c8e 5a3d
00000340: 0a21 6cbc 9de5 0bbe c412 193e 2ffc 773d
00000350: 8b5e 1cbd 7e6e 07be 894b 43be bf7d da3d
00000360: 10c0 c83d f39a 2fbd 8604 8bba e33e f1bd
00000370: 3c72 0d3e f871 aebd 4df2 4fbc bd52 06bb
00000380: 950a e03c 57b1 273e 73c0 a73c d4eb 3bbd
00000390: 59be 65be 3000 ad3c 229a 443c 297f 5a3c
000003a0: 1bb8 473e 5067 e43d 4c49 1c3d 063c 21be
000003b0: 6ce2 4d3d 878d 9bbc 9ecb fa3d f6e5 06be
000003c0: 189b 7bbd 7ff1 9cbc 7452 4f3d 068e 16be
000003d0: d635 a5bd c0cb 34be 8de3 883d cdc6 803d
000003e0: b96e c03d 2cbf 0ebe bb33 d83d 6d96 d23d
000003f0: 2afc ccbc 3dcb 253e d213 f03d d9d3 26be
-0.030744988 -0.054243084 -0.009747895 0.06483832 -0.14174142 -0.056982964 -0.022867527 0.056506883
0.043240666 -0.11832552 0.123638675 -0.11361133 -0.080180645 0.060512938 -0.087659605 0.054290053
-0.10478013 0.019025523 0.03909952 0.051925424 0.15262157 -0.025693098 0.006149615 0.16384898
0.064700074 0.096968286 0.055579267 -0.14816432 0.0925677 -0.005627375 0.023198983 -0.018180452
-0.1408048 0.0154048195 -0.061529744 -0.04417742 0.045882847 -0.10933128 0.09057649 0.042051397
-0.058874156 0.025064107 -0.10449822 0.0360555 -0.08946385 -0.06683771 0.11812989 -0.20091368
0.06673557 -0.04285827 -0.14201954 0.04318264 -0.06626703 0.006431647 0.06328079 -0.07702421
-0.05701145 -0.14991663 0.056109827 -0.05139072 -0.11277924 -0.06829173 0.14629042 0.012900877
-0.026850404 0.029411847 -0.14608744 0.04472295 -0.018740749 0.034143183 -0.047961842 0.08701226
-0.07837008 0.034453828 -0.023087736 -0.0094292555 -0.07317121 0.19489399 0.030591628 0.09243589
-0.11738701 0.03870498 0.055230148 0.0150212385 -0.024316687 -0.07014905 -0.17601988 0.013532234
0.008400967 0.06519875 -0.1148603 0.026105704 0.115426645 -0.10721783 -0.01992818 -0.008210073
-0.022663679 0.148391 0.0050286693 -0.004644317 -0.15713339 -0.024124695 0.06905661 0.041904155
0.1105704 -0.059821058 0.011508247 0.03467948 -0.052386142 0.07695512 0.01899235 -0.21815069
0.1115462 0.059855606 0.0046675727 0.07764142 0.07829253 0.031693466 0.03488798 0.11489513
0.078715056 0.07981099 0.09314518 0.09684909 -0.058345713 0.16522688 -0.019055542 -0.097977586
-0.06918748 -0.07878004 -0.028500263 -0.048062462 0.09729785 0.027268214 -0.11846658 0.028482515
-0.08977261 0.033752814 -0.115973026 0.07382269 -0.15796085 -0.09227354 0.073469274 0.009712751
0.05118969 0.10429178 0.06706117 0.060496647 0.043206222 0.071060665 0.028654108 0.10887338
-0.0022883178 -0.023445271 -0.014414483 0.02945797 -0.18506347 -0.0502011 0.031952176 -0.10271887
0.08269248 -0.098613575 0.041638426 -0.122867234 0.09184702 0.026752887 -0.1236967 0.13113022
-0.055525273 -0.13274305 0.077820316 0.0013150667 0.05687371 -0.11364958 -0.004477306 0.116125025
0.041358866 -0.10996896 0.051176507 -0.054014836 -0.06494398 0.012725812 0.08192582 -0.0056930506
0.0021275019 0.16088308 -0.085037425 -0.057690717 0.09818088 0.09848638 0.03067802 0.01980352
-0.0115690855 0.027913552 -0.18217163 0.13550577 0.0037555904 0.11355466 0.038224608 -0.0053997287
0.02347154 -0.17632732 -0.01596687 -0.06986204 0.026465325 0.010293466 -0.2004767 0.0533583
-0.014412174 -0.1366181 0.14948565 0.060543235 -0.0381761 -0.13225743 -0.19071783 0.106685154
0.09802258 -0.04287238 -0.0010606206 -0.11779573 0.13813108 -0.085178316 -0.012692046 -0.0020496093
0.027348796 0.16376244 0.02047751 -0.0458792 -0.22435893 0.021118253 0.011999639 0.013335981
0.19503824 0.11152518 0.03815584 -0.15745553 0.05026476 -0.018988384 0.12245868 -0.1317366
-0.061427206 -0.019158123 0.050615743 -0.14702615 -0.08066909 -0.1765585 0.06684027 0.06287918
0.09396119 -0.13940114 0.10556742 0.10282598 -0.025022585 0.1619081 0.117225304 -0.16291751

rnn.bias_ih_l1 f4 [192]
00000000: 1f89 35bd a6d3 08be cab7 fa3d 4e38 40bd
00000010: 4445 313c 22cb 07bb 12df 853d fe3f 1d3e
00000020: 19ee 63bd bced ee3d daae 81bd 01a7 1bbe
00000030: 3873 813d 732a fc3d 725a df3d fa28 213d
00000040: 1204 e53d 6857 f5bd 926f d63c 80be 393d
00000050: 19a9 c0bd bd74 7abd be27 0a3e b785 4f3c
00000060: b608 143e 66c9 5fbd 6956 b9bc 4cad f93c
00000070: 29ec 1cbe 4b6a e33b 882c b9bd 6940 40bc
00000080: 0285 7abd 4c79 5abc 4d6f e53d 5a03 21bd
00000090: f662 e73d 5cca a2ba a4d6 5cbd 5998 d8bc
000000a0: f483 55bd 4c25 583c 8713 7f3d 5abe b9bd
000000b0: a682 10be 11f7 19bd 1c55 ca3a 2986 953d
000000c0: 1649 d5bd 513a 0b3d b67f 24bc 1d30 c1ba
000000d0: 1fc2 28bd 0042 27be d0e0 1b3d 4c98 ad3d
000000e0: 1d02 733d df64 82bd 8d73 5abb a710 0cbd
000000f0: 6e6a 1e3d f64a 1cbc fab7 e63d 2956 ef3c
00000100: 2af9 07bd 667e 17be e1a5 963d a7d8 61bd
00000110: a552 9fbc 1861 7cbc b651 10be 9bf2 9abd
00000120: 0ccd f4bd 9789 e43c c0e5 2cbe f53c 4cbe
00000130: acf8 f4bd 0db6 8b3d 7cbf adbd bbac fdbd
00000140: 6019 d3bc 48db 9abd f2e8 d5bc 637c 1abb
00000150: 7e85 9cbd 86d9 0c3d b1e2 9e3d a59d 1dbd
00000160: 5567 bdbd de91 1e3d a2b4 e3bb 4f94 a4bc
00000170: acd9 9bbd a7d6 d2bc 3944 223d 80ce 27be
00000180: 0970 efbd 877d e9bc 85b6 a8bd b279 2fbe
00000190: 28b7 bdbd 0b89 b1bd 64d6 b1bd 8f94 8f3d
000001a0: 071d 12bb a268 2d3e 054a 32bd b7d8 12be
000001b0: 15ed c33c cd09 ab3b 5e79 17be 5cb4 bd3c
000001c0: 065a e1bd f891 e43c d6c6 5abe 7f88 343c
000001d0: e0ac 41be 3f00 243d d05e 11be 580a 09be
000001e0: 26dc f63d 1daa f6bc e78e a33d 1aa6 77bd
000001f0: 95a0 dd3b 5bc8 f7bc 4a6b 0c3d f877 7bbd
00000200: ad5d e23c 78f6 be3d 5107 0b3e 3eec fc3c
00000210: ff96 fd3d 4a43 2bbe 9a57 123e e5c5 15be
00000220: bce5 64bd 3353 813d 6f72 1bbe 0fec 0bbd
00000230: 6365 683d 1149 f6bc 228f fd3d c5b1 8fbd
00000240: 2696 b23d d664 a4bc 6eac 0fbc b04a 5a3c
00000250: 9652 80bd b395 83bd 4d6c 0d3e baf9 c4bd
00000260: e9b2 13be 5a90 70bd 488c 073e bfe9 5c3d
00000270: 3f37 a83c baaa c3bc b2b0 8e3d 9ea6 d2bc
00000280: 7d03 843d b1b0 ed3d 0d77 053e 42f5 cd3d
00000290: 43cb e33d d386 f53c 3cd9 6e3c 709f fdbd
000002a0: eae1 d8bd f3c5 163d e0b4 e23d 8061 ddbd
000002b0: b422 0fbe cfab 163e 01e1 ffbd de1f 843d
000002c0: e683 c93d 19bb 5dbd 93cb 343d 0a34 c13d
000002d0: f7aa 86bd 3350 dc3d 2e88 27be 340b 22be
000002e0: b9a8 0f3e ea2b 483c 9744 a8bd 14d1 343d
000002f0: 325d 1b3e 41c8 22be c336 663d 0b09 a83d
-0.044320222 -0.13361987 0.12242086 -0.046928696 0.010819737 -0.0020720442 0.06536688 0.15356442
-0.05564699 0.11666438 -0.063321784 -0.15200426 0.06320804 0.12312784 0.10905923 0.03934572
0.11182417 -0.11979562 0.026176248 0.04534769 -0.09407253 -0.061146487 0.13491723 0.012666157
0.14456448 -0.054635428 -0.022624211 0.030478142 -0.15324463 0.0069401613 -0.09041697 -0.011734107
-0.061162002 -0.0133345835 0.112028696 -0.039309837 0.11298172 -0.0012419927 -0.053915635 -0.026439833
-0.052127793 0.013192486 0.062274482 -0.0906951 -0.14112338 -0.037589137 0.0015436742 0.0730098
-0.10414331 0.03399116 -0.010040214 -0.001473907 -0.041200753 -0.16333771 0.038056195 0.08476314
0.059328187 -0.06366896 -0.0033333034 -0.03419557 0.038675718 -0.009539356 0.112655595 0.029215889
-0.033196606 -0.14794311 0.07355858 -0.055138256 -0.019448588 -0.015404008 -0.1409367 -0.075658046
-0.11953172 0.02789764 -0.16884518 -0.19945128 -0.11961493 0.06821833 -0.08483788 -0.12386461
-0.025768936 -0.07561356 -0.026112054 -0.0023572675 -0.07642649 0.034387134 0.07758082 -0.03848042
-0.09248225 0.03871333 -0.0069490233 -0.02009025 -0.07609877 -0.02573712 0.039615843 -0.16387367
-0.11691291 -0.028502239 -0.08237938 -0.17136267 -0.0926345 -0.08668717 -0.0868347 0.07010757
-0.0022295134 0.16934446 -0.04352762 -0.14340483 0.02391676 0.005219674 -0.14792392 0.023157291
-0.11003499 0.027901635 -0.21364912 0.011018871 -0.18913603 0.040039297 -0.14196324 -0.13382852
0.12053709 -0.030110413 0.07986241 -0.06046114 0.0067635276 -0.030246904 0.034282006 -0.061393708
0.027632559 0.09324354 0.1357701 0.030874368 0.12382316 -0.16724887 0.1429123 -0.14626272
-0.055883154 0.06314697 -0.15180372 -0.03416067 0.056737315 -0.030064138 0.12380816 -0.07016329
0.08720045 -0.020067614 -0.008769138 0.013323471 -0.06265752 -0.06425037 0.13810845 -0.09617944
-0.14423718 -0.058731414 0.13237107 0.053933855 0.020534156 -0.02388512 0.06967296 -0.025714215
0.06445978 0.11605967 0.13033696 0.10056545 0.111227535 0.029971516 0.01457816 -0.12383926
-0.10589965 0.036809873 0.110696554 -0.10809612 -0.13978082 0.14713977 -0.12494088 0.06451391
0.09839611 -0.05413351 0.044139456 0.09433754 -0.06575578 0.10757484 -0.16360542 -0.15824586
0.14029206 0.012217501 -0.082162075 0.044144705 0.1517227 -0.15896703 0.05620457 0.0820485
