graphrnn_v2/experiments/reproduction/ego_small/ego_small_graph_rnn_s/model_at_2800.pt (torch, 400915 bytes, 22 tensors)

embedding.0.weight f4 [32, 15]
000000 08 a1 83 3e 37 27 4c 3e ff d1 f8 bd 72 15 62 3e
       0.25708795 0.19936834 -0.121494286 0.22078493
000010 be be 23 3e f4 19 25 3f b6 d6 04 3f 6f cd 20 be
       0.15990731 0.64492726 0.5189012 -0.15703367
000020 ae 1e d5 3e 40 70 34 bd a6 8f ba bd 06 b1 cf bd
       0.4162497 -0.044052362 -0.0910943 -0.101411864
000030 ce e5 d8 3d 73 1c c5 3c 13 29 54 3f 3a f2 7d 3d
       0.10590707 0.024061417 0.82875174 0.061998583
000040 e6 b7 d6 3e 4d 04 6d 3e dc e2 97 bc 09 22 bb 3d
       0.41937178 0.23146172 -0.018540792 0.09137351
000050 75 4d d6 3e 28 bb b2 be 39 b6 0b 3e fc 4d 3b 3d
       0.4185597 -0.34908414 0.13643731 0.04572867
000060 3a 68 97 3d d5 7a 60 be 89 ce e0 3d 61 11 56 3d
       0.073929265 -0.21921857 0.109768935 0.052262668
000070 f2 33 a7 3d 48 d3 0a 3f 70 fd 22 bd df f2 8f be
       0.08164205 0.5422864 -0.039792478 -0.28114983
000080 d5 b8 11 3e d9 c2 b3 3e 2c 32 dc bd 9c b6 49 bd
       0.14230664 0.35109594 -0.10751757 -0.049246415
000090 1b 7e f9 3e 5e 61 ec bd 99 05 8c bb 49 30 38 3f
       0.48729023 -0.11542009 -0.004273128 0.7194868
0000a0 1e bd 90 3e 10 2c 27 3f dd a9 81 3e 87 78 8d 3e
       0.28269285 0.6530161 0.25324908 0.27631018
0000b0 98 7d ce bd b5 59 da 3d 7a e9 98 3d ca 49 cf 3e
       -0.10082549 0.106616415 0.07466407 0.40485984
0000c0 9c f7 04 3f 87 32 c3 bc 31 c3 c1 3e 55 45 6f 3c
       0.5194032 -0.023827804 0.37844232 0.014603932
0000d0 e7 91 ab 3e d2 39 52 bf af 9e 61 3e e8 5e 24 3d
       0.33509752 -0.82119477 0.22033189 0.040129572
0000e0 20 06 7e 3e e6 37 93 3e d4 be 79 3e 35 bd e4 be
       0.24807024 0.28753585 0.24389201 -0.44675604
0000f0 14 73 ad bd 76 74 3b 3e 31 73 f3 3e 35 d3 b4 3e
       -0.08469215 0.18306145 0.47548822 0.35317388
000100 10 6d 97 3e 90 50 ef 3d d4 91 55 3e 1a 59 a5 3e
       0.29575396 0.11685288 0.2085641 0.32294542
000110 9b b4 3e 3e 1c 8a d9 3e 8d 68 42 bc 2b 64 5e 3e
       0.18623583 0.42488182 -0.011865747 0.21717899
000120 5a 1a 42 3e 13 b3 a1 be a8 b1 93 be 9f f4 0c 3e
       0.18955365 -0.31581935 -0.28846478 0.1376519
000130 2a 75 c8 be cf 5b d5 bc 7e aa 6d 3e 4c f3 b8 3d
       -0.3915189 -0.026044754 0.23209569 0.0903078
000140 ba 75 14 3f d9 16 78 3d 00 15 29 be 7d 4e 39 bf
       0.57992136 0.060568664 -0.16511917 -0.7238539
000150 c0 df b7 be 2a 0d 5d 3f 97 04 ee 3e 79 9d 88 be
       -0.35912895 0.8634821 0.46487877 -0.26682642
000160 16 87 4f bd e7 8f 27 3f 6b fc bc 3d 9d 28 16 be
       -0.050665937 0.6545395 0.092278324 -0.1466393
000170 86 61 95 3e 4e a0 1b 3e d9 a6 2d 3f 9b 08 83 3e
       0.29175967 0.1519787 0.67832714 0.25592503
000180 02 25 e7 bd 37 79 17 3e 66 07 18 3f 3c 81 3a 3e
       -0.112863556 0.14792334 0.5938629 0.18213362
000190 4c 47 fb 3e 6a f8 d5 be 94 fc d9 be f5 7f 25 bf
       0.49077833 -0.41791087 -0.42575514 -0.6464837
0001a0 61 99 06 3e 0b 59 3d be 29 ef 63 be 1d 26 af 3d
       0.13144447 -0.18490998 -0.22259201 0.085521914
0001b0 e0 01 2c 3e 27 9e f7 3e 35 6a ae 3e 5e 3b 5c 3f
       0.1679759 0.48362848 0.34065405 0.8602809
0001c0 6e 8b 89 3e ce 94 5a 3d 57 3d 28 3f 09 b6 8c be
       0.2686419 0.053364567 0.657186 -0.27482632
0001d0 9e 54 5b 3e ce e0 91 3e 4a d0 6f 3e 46 3b 23 3d
       0.21418998 0.28491825 0.234193 0.03985145
0001e0 eb 61 23 bf 5a b3 cc 3e 72 86 79 bd e4 aa 23 bd
       -0.63821286 0.39980584 -0.060919233 -0.039957896
0001f0 39 75 39 3e 80 7a 8b be 5c b3 f0 3c 13 f7 c7 be
       0.18111123 -0.27241898 0.0293824 -0.3905569
000200 ec 5d a3 be 79 c8 21 bf 4f 27 6d bf a8 4c de be
       -0.31907594 -0.6319652 -0.92638105 -0.4341786
000210 25 e7 84 3d 3f 68 7a 3e 79 1f 22 bf f3 f6 3e be
       0.064894 0.24453829 -0.63329273 -0.18648891
000220 2c 35 97 3e 9e 98 90 be 7c 8a 65 3e f3 4d 06 bd
       0.29532754 -0.28241438 0.22416109 -0.032789182
000230 32 83 0e 3f e0 60 98 bd 6f de b0 3e 1c 7e 41 3d
       0.5566894 -0.074403524 0.34544703 0.047239408
000240 2e d2 60 be 1f 3a 3b 3f b6 45 df be 9c a3 95 3e
       -0.21955177 0.7313556 -0.43607873 0.29226387
000250 50 a6 c4 be 7e 1b 84 3f ff 87 6a 3e ca 49 c9 3e
       -0.38408136 1.032089 0.22903441 0.3931411
000260 2a 75 c6 3e ef 74 85 3e d1 7c 2e bd 0c 56 79 3d
       0.38761264 0.26065776 -0.042599503 0.060873076
000270 d3 96 61 bd d1 f1 f9 3d d6 a2 19 3e ba 51 9d 3c
       -0.055075478 0.12204326 0.15003523 0.01920401
000280 5b a6 11 bf e8 29 30 be d9 56 06 bc a5 b1 9c 3e
       -0.56894463 -0.17203486 -0.008199417 0.30604282
000290 ff d7 45 be ae ba c3 3e 3b 17 06 3f 3c 5b 00 3e
       -0.19320677 0.38228363 0.52379197 0.12534803
0002a0 e0 1c 8d 3b 8a 95 44 bc 41 2a 27 3e 84 11 14 be
       0.0043064207 -0.0119985435 0.16324712 -0.14459807
0002b0 14 81 38 3e b5 90 23 3e 20 ba 00 3d 13 f0 cd 3d
       0.1801799 0.1597317 0.031427503 0.10055556
0002c0 e9 01 5b be 4f 72 80 3e 10 2f 2f 3e e6 e0 e1 be
       -0.21387447 0.2508721 0.17107797 -0.44116896
0002d0 44 17 41 3d 89 3f a3 bd e3 e1 84 3e 66 3f c2 3e
       0.04714133 -0.07971103 0.25953588 0.37938994
0002e0 a1 e6 02 3f c8 70 07 3c 82 da 8e 3e 9a 12 39 3e
       0.5113316 0.008266635 0.27901083 0.18073502
0002f0 86 c7 be 3d ab 02 8c 3e 96 7e d8 bd 31 61 35 3d
       0.093154 0.27345785 -0.10571019 0.044282142
000300 d1 6c 98 be 21 d6 c9 be fa 4b 07 bf a2 af e0 3e
       -0.2977052 -0.3942118 -0.52850306 0.43883997
000310 db 2d 86 3e 67 36 1e 3e 66 10 98 3e 60 63 1f 3e
       0.2620686 0.1545044 0.2970001 0.15565252
000320 c8 16 8a 3e 5a 3d 37 be 28 2c 28 3f 13 5b 09 3f
       0.26970506 -0.17894498 0.6569238 0.53654593
000330 77 6c bf be 9c 99 24 bf 45 dc f9 be 7e 86 f9 be
       -0.3738744 -0.6429689 -0.48800865 -0.48735422
000340 1e 7c f9 be ca 02 e2 bd 41 c8 d6 3d 84 f4 96 be
       -0.48727506 -0.11035688 0.10487414 -0.29483426
000350 bd 38 90 3e 75 69 cf be 2c fd 5a bf 6e 8e 28 be
       0.28168288 -0.40510145 -0.8554256 -0.16460583
000360 7f bd 04 3e 72 84 d4 be 3a 98 36 be 2a f7 e7 3e
       0.12962912 -0.41507298 -0.17831507 0.4530576
000370 51 0d 13 3e b7 59 07 3f 96 69 dc bd 5f 71 34 3f
       0.14360549 0.5287127 -0.107623264 0.7048549
000380 9e 6e 53 bf 42 4e 92 be 05 49 c6 3e ed e4 7a be
       -0.82590663 -0.2857533 0.38727584 -0.24501391
000390 68 f4 0e bd ef 1c 07 bf e0 1f 31 be 7f af f9 be
       -0.034901053 -0.52778524 -0.17297316 -0.48766705
0003a0 37 03 2d 3e 39 4c 4d 3e db 2d e5 be d9 b5 29 bf
       0.16895758 0.20048608 -0.44761547 -0.662931
0003b0 9a d3 5c 3e 41 66 11 3f f3 52 0f bf 79 47 21 3f
       0.21565095 0.5679665 -0.55985945 0.62999684
0003c0 a9 9c 34 be 37 b0 dd b9 98 8d fe 3e dd 59 da 3e
       -0.17637886 -0.00042283695 0.49717402 0.42646685
0003d0 e4 7e d7 bd d9 bd 5e 3d 5d 49 d0 bd 94 70 01 be
       -0.10522249 0.05438027 -0.10170243 -0.12640601
0003e0 1b 42 3a be f4 d1 4b bd 46 c5 0e 3f 32 0e bc 3d
       -0.1818928 -0.049760774 0.55769765 0.09182395
0003f0 62 ba 2e 3f 59 39 7a 3e b6 81 39 3f 2a fd c1 3d
       0.6825315 0.24435939 0.7246355 0.09472115

embedding.0.bias f4 [32]
000000 8a ee 02 be 2b c8 93 bd b1 e8 da 3d 3e 40 2d bd
       -0.12786308 -0.072159134 0.106889136 -0.042297594
000010 8c 6d 41 be a2 66 3d 3e e9 04 1f 3e a1 f8 28 3e
       -0.18889445 0.18496183 0.15529217 0.16501094
000020 df a5 c9 3e 3c 6f 5e 3e 2a 22 5f be 30 92 ad 3c
       0.39384362 0.2172212 -0.21790376 0.021187872
000030 88 aa 74 3c 21 5a 28 be 15 98 d3 3e 2c b3 ab 3e
       0.014933236 -0.16440631 0.41326967 0.33535135
000040 45 97 46 3d 7f 3a 33 3e 99 ba 9b 3e 2c f3 47 3c
       0.048484106 0.17502783 0.304158 0.012203973
000050 16 27 78 3e 31 b9 2c 3e 1e 23 3a 3e 61 27 23 bd
       0.2423366 0.1686752 0.18177459 -0.039832477
000060 63 2d ff 3d 3f 60 a8 3e 3a a1 b4 3d 82 1f 2c be
       0.12459829 0.3288593 0.08819814 -0.16808894
000070 e8 38 9a 3e 52 6e 30 3d 27 20 cd 3e 89 17 be 3c
       0.3012154 0.04307396 0.40063593 0.023204582

rnn.weight_ih_l0 f4 [192, 32]
000000 74 4c 62 3e bc d3 8d be de b4 cf 3d 0b 8f 3a bd
       0.22099477 -0.27700603 0.101419196 -0.045546573
000010 c8 4d 61 3e 69 7c 17 3f 6e d4 09 3f c1 b0 bb bc
       0.22002327 0.5917421 0.53839767 -0.022911431
000020 8f d4 cd be 5d 73 42 be 7f 64 7d be 86 99 1c be
       -0.40201232 -0.1898932 -0.24745367 -0.1529294
000030 f6 59 7c 3e 36 e4 3c 3e 60 e9 68 3e 86 9a 22 bf
       0.24643692 0.1844643 0.22745275 -0.63517034
000040 35 89 f7 3d 4b 33 58 be 9c da 8f 3d 09 18 0a 3f
       0.12086717 -0.21113317 0.07024118 0.53942925
000050 f3 c3 c0 3e d3 bd 35 be 18 64 99 be 1f 8b bd be
       0.37649497 -0.17748193 -0.29959178 -0.37020203
000060 58 0a bf 3d a3 04 1d 3e 26 19 63 3e 4d d8 11 3e
       0.09328145 0.153338 0.22177562 0.14242668
000070 e1 65 59 3c 15 c3 5e 3d b8 81 04 bf b9 9d f7 be
       0.013268919 0.054385263 -0.51760435 -0.4836252
000080 24 91 1c 3e 10 49 2e 3d 70 95 69 3c 47 45 bd bd
       0.15289742 0.042550147 0.01425682 -0.09241729
000090 4a c2 b0 bd 10 a8 aa bd ef 4f 5e 3e 5d 30 c9 bd
       -0.08630808 -0.08332837 0.2171018 -0.09823678
0000a0 cf eb 23 bf 88 aa f9 be 45 f1 e8 bd ff 19 49 3d
       -0.6403169 -0.48762918 -0.113741435 0.049097057
0000b0 2a ea 7c 3d fe 76 bc bc a0 54 0e 3f 79 a0 b5 be
       0.061746754 -0.023005959 0.5559788 -0.35473993
0000c0 15 bc 23 be e5 e8 a7 3e 46 f8 24 bd 9f 30 98 3e
       -0.15989716 0.32794872 -0.040275835 0.29724595
0000d0 fa 73 9f 3e ec 73 b0 be be 51 17 bf 96 90 08 3c
       0.3114317 -0.3446344 -0.59109104 0.008335253
0000e0 df 3f f9 3e be cd a2 3e 8d 35 fa 3d 94 44 f3 3d
       0.48681542 0.31797594 0.12217245 0.118783146
0000f0 9b f1 b7 3d 63 92 11 be 22 88 6e be c1 60 11 bd
       0.089816295 -0.14215998 -0.23294118 -0.035492662
000100 23 88 53 3e b6 bb 25 3d 27 64 8a be 36 99 1e be
       0.20657401 0.04046222 -0.27029535 -0.15488133
000110 58 c0 ed bd 29 17 87 3d 49 8a 93 3d 2e 72 43 be
       -0.11608952 0.06596214 0.0720411 -0.19086525
000120 5a 4e 55 bd 93 07 6b be d8 14 8e 3d 67 e7 7c 3e
       -0.052076675 -0.22952108 0.069375694 0.24697648
000130 5e 4d 27 be 8d c5 8d 3e 9e d2 32 3f 8c 4b d0 bb
       -0.16338107 0.27689782 0.69852626 -0.006356662
000140 df 9d 9b be 12 63 8d 3e b0 d4 12 3e bc 5e 40 3e
       -0.30393884 0.27614647 0.14338946 0.18786138
000150 17 4a 12 3e 69 31 24 3d e5 6f 7a be 1e fd 3f 3e
       0.14286076 0.040086184 -0.24456747 0.187489
000160 63 ee e6 3e 61 f2 11 3e da f7 4f 3e 26 6e 99 3b
       0.4510375 0.14252616 0.20309392 0.00468232
000170 3f bc c5 3d f4 85 08 be 16 9e 63 bd 82 a5 ca 3d
       0.09655046 -0.13332349 -0.055570684 0.09894849
000180 01 9a 94 be 06 09 8e be 34 f3 91 bd 74 54 5c be
       -0.29023746 -0.2774126 -0.071264654 -0.21516591
000190 f1 fd 68 be d1 cb 1b 3e e9 83 b5 bc 41 70 33 bd
       -0.22753121 0.15214469 -0.022157626 -0.043808226
0001a0 29 fb c9 be 1b ff 1f bf c8 69 2d bd b5 58 99 be
       -0.39449432 -0.62498635 -0.04233721 -0.2995049
0001b0 4d 53 80 be 6a f6 d6 bd dc 57 8a 3e 5b f1 3f bf
       -0.25063553 -0.104962185 0.27020156 -0.74977654
0001c0 5a ab 39 be 84 b9 5d be b4 33 7b be 5f 2f 2b be
       -0.18131772 -0.216528 -0.24531442 -0.1671729
0001d0 94 4a 8c 3d a1 c4 a3 be 6c 03 15 bf a5 81 e3 be
       0.06850162 -0.31985953 -0.58208346 -0.44434848
0001e0 7a 7e cc 3d 71 d6 1a be d3 02 35 3d 28 84 c2 be
       0.09985061 -0.15120865 0.044192147 -0.37991452
0001f0 ff d1 31 be 86 35 23 be 64 76 d6 bd 58 8f 04 bf
       -0.17365263 -0.15938386 -0.104718 -0.51781225
000200 0b 6a d6 3c 8c e7 fb 3d 8a e8 15 be b4 4e 04 be
       0.026173612 0.123000234 -0.14639488 -0.12920648
000210 17 ae 41 3c 56 9c d3 be 61 d4 0c be d6 78 a5 bd
       0.011821291 -0.41330212 -0.13752891 -0.08079688
000220 92 aa 91 be ef f0 52 3e e6 5c e2 3e ee c8 e8 3e
       -0.28450447 0.20599721 0.442115 0.45465797
000230 f1 a5 93 bc 0f 61 98 3e 50 e2 c2 3d 60 f5 5a 3e
       -0.018023463 0.2976155 0.09515822 0.21382666
000240 18 3c 30 be 6b c5 a9 3e d9 fb 9a 3d 3d c4 e6 3e
       -0.17210424 0.3315843 0.075675674 0.45071593
000250 f3 18 06 3e 7a 24 40 3f 2e 8e bd 3c bd 4d 30 3e
       0.13095455 0.7505566 0.023139086 0.17217155
000260 12 8d 39 3f 2e 4a 00 3f f2 43 d1 3c 64 d7 eb bc
       0.7248088 0.5011319 0.025545094 -0.02878923
000270 d3 e6 3e 3e a6 f4 6e be d6 eb 72 be a7 09 5c 3e
       0.1864274 -0.23335513 -0.23722777 0.21488057
000280 f1 c7 07 3d 8f e5 9a bd 06 87 0b be 7f 01 73 be
       0.033149663 -0.07563316 -0.13625726 -0.2373104
000290 6c d2 da be 01 bb c6 3d 79 a3 ab 3c 28 18 3f 3d
       -0.42738664 0.09703637 0.020951973 0.046653897
0002a0 21 b9 25 be 30 c9 a1 bc e9 c2 38 be 48 87 6d bd
       -0.16183902 -0.019749254 -0.18043102 -0.057990342
0002b0 a1 5b 4b be 09 b2 39 be c4 2e 94 3e 71 c6 e2 bc
       -0.19859172 -0.18134321 0.2894193 -0.027682515
0002c0 17 d6 97 be 4c 04 4b 3e 7d 4b 53 3e c7 d4 36 3d
       -0.29655525 0.19825858 0.20634265 0.044636514
0002d0 13 96 ae 3e 38 e6 2c 3e 6c 97 b8 bd 68 ee 57 3d
       0.34098873 0.16884696 -0.090132564 0.052717596
0002e0 3c 9e 35 3e 6d d4 0b 3f d6 9a 4c be 21 e6 ea bd
       0.17736143 0.5462101 -0.1998094 -0.11469675
0002f0 a6 a5 1e 3e cb 31 41 3d 2f 86 b0 3d c3 be cd bd
       0.15492877 0.047166627 0.086193435 -0.100461505
000300 de 8b aa 3e d5 b5 d4 be ee 5b b7 3c 01 03 7f be
       0.33309835 -0.41544977 0.022382703 -0.2490349
000310 d0 e6 81 be 72 2c da 3d c8 97 4f 3e 79 f8 d6 bc
       -0.25371408 0.106530085 0.20272744 -0.026241528
000320 33 d4 17 bf 74 23 03 bf 9d 2a bc be b2 46 f1 bc
       -0.59308165 -0.5122597 -0.3675126 -0.029452655
000330 03 cc 15 bd a4 3c 0d 3d 43 58 e9 bc ad 6b 0f bf
       -0.036571514 0.03448166 -0.02848447 -0.56023675
000340 43 03 21 bf 4c 1a 50 be fc 64 70 3e f6 64 ea 3e
       -0.628956 -0.20322531 0.23476022 0.45780152
000350 1d 26 27 3d 66 d6 27 be eb ab 1d bf b9 3d 48 be
       0.040807832 -0.1639038 -0.6159045 -0.19554795
000360 3d d3 95 bb 87 78 8d 3e 42 70 09 bf b1 34 d4 be
       -0.0045723007 0.27631018 -0.53686917 -0.4144645
000370 cb 13 f2 3e 54 b0 d9 bd fa 30 6e bf e9 32 3d bf
       0.47280726 -0.10629335 -0.9304348 -0.7390581
000380 97 c6 f5 bd c9 ad ce 3c ea 5c 5a 3e 31 17 9e 3c
       -0.12000769 0.025229352 0.21324506 0.019298168
000390 5d 89 f1 3d d9 be 21 be 1a ff 16 be b8 e9 7a 3e
       0.11793778 -0.15795459 -0.14745751 0.24503219
0003a0 e8 80 98 3d 4a 95 ba 3b d0 d2 c1 bd c2 c4 05 be
       0.07446462 0.005694066 -0.094640374 -0.13063338
0003b0 dd 98 39 3d 43 ff 9f be db 64 11 3f 77 08 87 be
       0.045311797 -0.31249437 0.5679452 -0.26373646
0003c0 74 aa cf 3e ae ae 32 be 0c 2b 0a bd c0 6b 77 be
       0.40559733 -0.17449448 -0.03373246 -0.24162197
0003d0 9f f0 6e 3e 12 16 26 bd 44 b1 4d 3e b4 ea 62 bd
       0.23333977 -0.04054839 0.20087153 -0.05539961
0003e0 87 ae 77 3e 47 44 4d be bd 55 e0 3e 71 e9 ae 3c
       0.2418767 -0.20045577 0.43815413 0.021351548
0003f0 18 66 28 bb 07 21 50 bc 97 cf 0e 3e 02 2a 10 bd
       -0.0025695618 -0.012703187 0.13946377 -0.03519631

rnn.weight_hh_l0 f4 [192, 64]
000000 7a b0 99 3e 90 10 14 bb a0 b1 42 3e ed 84 f2 3d
       0.30017453 -0.002259288 0.19013071 0.1184176
000010 7b 83 5c be a2 4e dc 3d cf a8 4a bd 94 60 37 3d
       -0.21534531 0.107571855 -0.049477395 0.04476984
000020 4a e8 68 be 48 99 b8 3c 3c e9 7a 3e e1 b6 91 3e
       -0.22744861 0.022534028 0.24503034 0.28459838
000030 da 25 11 be f2 6c 36 3e 16 bb c1 bc e8 d5 3a 3d
       -0.14174595 0.17814997 -0.02364878 0.045614153
000040 7f da 6f 3b cd ee 89 bd 86 83 8a bd 90 1f f8 3e
       0.003659874 -0.06735001 -0.06763367 0.4846158
000050 ea 4d 2a 3e a7 e1 82 3d 4c 3f 11 3e e6 fe 5f be
       0.16631284 0.06390696 0.14184302 -0.2187458
000060 a4 0d 22 be 7c f4 db 3e 94 20 94 be 9e 1b a1 bd
       -0.15825516 0.42959964 -0.28931105 -0.07866596
000070 1a 07 4c 3e 9c 57 e5 bd 9d a8 cc 3e 7f cb 93 3d
       0.19924584 -0.11198351 0.39972392 0.07216548
000080 37 70 e5 3c 17 5c 93 3e d1 d8 26 be 3d 8f 33 bc
       0.02800761 0.28781196 -0.16293646 -0.010959444
000090 a3 63 69 3d 67 e1 a8 bd a4 8b 59 3e e0 e3 92 3e
       0.056979787 -0.08246117 0.21244675 0.2868948
0000a0 29 47 8c bd aa f6 4e 3e bd 00 92 3e c6 fa 80 3c
       -0.0684951 0.20211282 0.28516188 0.015744578
0000b0 6a 5c 7e be 1e 49 4e be c2 27 9b 3d f7 4f 00 be
       -0.2483994 -0.2014508 0.075759426 -0.12530504
0000c0 d7 45 89 3e 29 ca dc bc 41 63 95 3d 1a 25 80 3e
       0.26811096 -0.026951866 0.07294322 0.25028306
0000d0 40 65 b1 bd 1f 18 4f 3d d4 a6 a0 3c 4d 14 09 3e
       -0.0866189 0.050560113 0.0196108 0.1338665
0000e0 8b 75 bd be 0a 60 b0 3d 9e 0b 96 bd f0 61 02 bf
       -0.3700374 0.08612068 -0.073264346 -0.5093069
0000f0 5e ec 06 3e cb 79 83 be 9b ef 25 3e 0b cc 1b be
       0.13176104 -0.25678858 0.16204683 -0.15214555
000100 2e ee 17 bd 82 e3 31 bd 59 ad 36 3e 27 ba 4e 3e
       -0.03709238 -0.04342986 0.17839564 0.20188199
000110 e6 2b 2b bd ca 35 bf bd 03 4f 84 3e 63 22 6c bd
       -0.04178991 -0.09336431 0.2584153 -0.05764998
000120 2d e6 92 3e 6d 18 17 bd e0 2b e6 bd 03 54 52 3e
       0.28691235 -0.03688853 -0.11238837 0.2053986
000130 4b bb 8b 3e 74 12 33 3c 09 b9 e4 3c 40 ea 86 be
       0.2729133 0.010929693 0.027920263 -0.26350594
000140 14 16 f0 bc d5 f6 f1 bc 92 16 1c bd eb ac a4 bd
       -0.029307403 -0.029536644 -0.038107462 -0.08040794
000150 85 81 66 bd 8a 94 00 bd 70 fa 76 be 66 22 96 be
       -0.056275863 -0.031391658 -0.24118972 -0.2932312
000160 97 89 37 3e 3f 5f 24 3d 46 9a 4d 3c 47 70 8c bd
       0.1792358 0.040129896 0.012548989 -0.06857353
000170 be 18 14 be 60 d9 95 3c 14 dc a4 3e 5f 6c 9a 3e
       -0.14462563 0.018292129 0.32199156 0.30160806
000180 c8 ce d3 bd a9 bc 9d 3d 4a 95 01 bf 67 64 95 be
       -0.10342175 0.07702 -0.5061842 -0.29178163
000190 51 89 f4 3c f9 5a c9 be dd 89 0a be 54 71 ea 3d
       0.029850634 -0.3932722 -0.13529153 0.11447397
0001a0 a9 a6 57 bd 85 2e 1e be 3d 15 80 3d dd 19 e8 3d
       -0.052649174 -0.15447433 0.06254051 0.11333058
0001b0 77 f6 57 3e 07 82 26 be f6 ba cd 3e bd e6 55 3c
       0.21090113 -0.16260539 0.40181702 0.013055501
0001c0 79 5a 9d bc b6 cc 4e 3e c4 54 86 bd 22 94 50 3e
       -0.01920818 0.20195279 -0.065591365 0.20369008
0001d0 ce f4 b4 be b0 53 6f be a2 e2 8d be 46 ec ee bd
       -0.3534302 -0.23371768 -0.2771197 -0.11666159
0001e0 8c 2c 11 be 7e 31 cf 3d e3 3b eb 3d b9 d8 b8 3d
       -0.1417715 0.10116862 0.11486032 0.090257116
0001f0 cd c9 1a bd c7 76 c9 bd 93 35 5b 3e c5 ad b8 bd
       -0.03779011 -0.09837108 0.21407156 -0.09017519
000200 5b 59 9e be 88 18 f9 bd e7 85 42 3d 15 f4 55 bd
       -0.30927548 -0.12162882 0.04749098 -0.052234728
000210 9f b9 a9 bd 86 05 5a be 43 e8 96 3d d7 2a b5 be
       -0.082873575 -0.2129117 0.07368519 -0.35384247
000220 25 5c 04 3e 3f 55 db bd 36 6f 88 bd f9 f9 66 3e
       0.12925775 -0.10709619 -0.06661837 0.22556295
000230 5d 98 44 3e d2 a7 1d be 75 a2 21 3e 89 0a 6e be
       0.19198747 -0.1539605 0.15784629 -0.23246206
000240 b1 3e e5 bc 38 8b a4 3e 6a 6c 37 bd c1 c6 30 bd
       -0.027983995 0.32137465 -0.044781126 -0.043158296
000250 1e d9 c7 be bc 05 b8 be 23 15 a8 3d f7 31 8c bd
       -0.39032835 -0.35941875 0.082071565 -0.068454675
000260 1f b6 f0 3e e3 fb a7 be 23 11 2b 3e 55 fe 3c be
       0.47013947 -0.32809362 0.16705756 -0.18456395
000270 8e f7 30 be 36 d3 7f 3e 43 7f 0a be 50 47 9d 3d
       -0.17281935 0.24982914 -0.13525109 0.076796174
000280 21 d1 40 be ac 39 01 be 87 32 09 bd a4 4c 9b be
       -0.18829776 -0.12619656 -0.033495452 -0.3033191
000290 71 a0 07 be b1 43 3c be 94 77 94 be 21 ad 4b be
       -0.13244797 -0.18385197 -0.2899748 -0.19890262
0002a0 0e e9 b7 bd 3d bd 10 be f6 eb d9 3c bd ee 57 be
       -0.089799985 -0.14134689 0.026601773 -0.21087165
0002b0 50 a0 62 3e 3f c9 42 3d 8e 77 3a be 2f 4c fd 3d
       0.22131467 0.047555204 -0.18209669 0.123680465
0002c0 80 c1 c4 bd fe 74 3b bd 6a d1 98 3c 5d 21 fe 3d
       -0.0960722 -0.04576587 0.018654544 0.12408707
0002d0 b0 8f 00 be 08 f4 1c be 2c 5e a8 3e 0e 07 ba be
       -0.12554812 -0.15327466 0.32884347 -0.36333507
0002e0 b1 f6 a7 3d 8c ae d2 3e 9a a3 c2 3e 5a ed 22 3d
       0.082013495 0.41148794 0.38015443 0.039777137
0002f0 cd 66 3f bd 40 41 29 3e bb 62 d3 bd 61 cb 49 3e
       -0.046728898 0.16528797 -0.10321566 0.19706489
000300 7e 89 30 be 13 90 16 bd 51 05 dc 3e ba ae 9a 3e
       -0.17239949 -0.036758494 0.42972806 0.3021143
000310 b8 58 d0 be aa 39 a6 3d 48 4b 84 be ec 9a 06 bd
       -0.40692687 0.08116467 -0.25838685 -0.03286259
000320 fb 25 3c be 42 bc 4d 3e 75 05 f5 3d 4e aa 0c 3d
       -0.18373863 0.20091346 0.119639315 0.034342103
000330 cb 07 2b bd c6 7c 89 bd c8 89 2c be b1 c4 75 be
       -0.04175548 -0.06713252 -0.16849434 -0.24000813
000340 e7 0f 36 3e 5b 78 be be de 44 ba be cf 22 db 3d
       0.17779504 -0.372012 -0.36380666 0.106999986
000350 9a 4c 7d 3e b7 c8 a1 3d c7 87 ab 3d c1 f1 58 3e
       0.24736252 0.078996114 0.08375507 0.21185972
000360 53 28 5f bd 80 07 80 3e 04 65 a6 be 08 2f 93 3a
       -0.054481816 0.25005722 -0.32498944 0.0011229226
000370 f1 d3 0d be ae 7f 28 be ec 99 62 bd 8a 71 01 bf
       -0.1385038 -0.16454956 -0.055322573 -0.5056387
000380 44 56 75 be 59 82 09 be 0c 0b 06 be d7 7e b2 3c
       -0.23958689 -0.1342863 -0.13090152 0.021788998
000390 df 61 95 bd c3 3b 79 bc 68 cd ca bd c3 23 b7 3e
       -0.07294058 -0.015212002 -0.099024594 0.35769472
0003a0 d7 e8 17 3f 41 5e c7 bd 04 d9 44 3e c1 e7 82 3e
       0.5933966 -0.097347744 0.1922341 0.2556744
0003b0 8b b6 d5 be 9c d9 2d bd db ed c8 3e 50 dc 00 bf
       -0.41740832 -0.042443857 0.3924397 -0.5033617
0003c0 b8 c2 ae 3d 15 ec 13 be fe ee db 3e 56 1e 07 bf
       0.085332334 -0.14445527 0.42955774 -0.52780664
0003d0 6f 0e 64 be 6b 34 0c be b3 b3 b1 bd c5 a7 d1 3d
       -0.22271131 -0.13691871 -0.08676853 0.102370776
0003e0 c0 ff 7a bd 03 ac f7 bd 30 1b 6f bc bf c0 11 3d
       -0.06127906 -0.120933555 -0.014593884 0.035584208
0003f0 1b dc af 3e 7f a5 b6 3c f2 b7 ba be a8 66 3a be
       0.34347615 0.022295712 -0.36468464 -0.18203223

rnn.bias_ih_l0 f4 [192]
000000 44 3e 48 be 65 18 e0 bd 6b e9 14 3e 43 db a2 bd
       -0.19555002 -0.10942153 0.14542167 -0.07951977
000010 2b 4b 81 3d 64 f0 59 3e 5a 6c 82 be dc 07 1b 3d
       0.06313165 0.21283108 -0.2547329 0.037849292
000020 73 aa 6b bd 3e 6e 68 be c0 d6 18 3d ce 34 d9 3d
       -0.0575356 -0.22698304 0.037314177 0.10605775
000030 05 a4 51 be a2 77 4e bd a4 30 67 be 7e f4 56 3d
       -0.20472725 -0.05040706 -0.22577149 0.05247926
000040 e5 b7 29 be 21 13 b2 3d e1 50 98 3e 28 c3 a0 bd
       -0.16574056 0.08695055 0.29749206 -0.07849723
000050 a4 a8 90 bd bf 70 23 be 65 08 0e 3e 14 94 60 bb
       -0.07063416 -0.15960978 0.1387039 -0.003426795
000060 36 9d 1e be 96 ff 0f 3c 66 ed 86 3e aa a2 88 be
       -0.15489659 0.008788964 0.26352996 -0.26686603
000070 6b a0 1e bc 94 e1 20 bd c5 9a 69 3d 52 37 31 3d
       -0.009681801 -0.039277628 0.057032365 0.04326565
000080 86 39 10 be 1b 6d 7e bc c7 38 50 3e 00 82 69 be
       -0.14084443 -0.015528942 0.20334159 -0.22803497
000090 eb 0a 5e bc 2e 1d 41 3c 2d ae 25 3e df e5 40 bc
       -0.013552408 0.011786742 0.16179724 -0.011773556
0000a0 28 6e ec 3e c4 a3 f0 bd 04 d8 2d 3e 7d 4f 44 bc
       0.46177793 -0.11749986 0.16976935 -0.011981842
0000b0 de 03 5a bd 30 b9 45 3e bb 4b 0a 3e d7 62 8e 3d
       -0.053226344 0.19308925 0.13505451 0.06952446
0000c0 c8 47 17 be 3b 56 82 bd 85 ad 8e 3e ff 89 8b 3c
       -0.14773476 -0.063641034 0.2786676 0.017033575
0000d0 a7 a8 1d 3e a2 c3 e2 3d f3 30 b0 3d c5 79 2a be
       0.15396367 0.1107247 0.08603086 -0.16648014
0000e0 db e1 bc 3d d0 bd 6f be 53 4c 55 be f6 13 4e 3d
       0.09222766 -0.23412251 -0.20829897 0.050312005
0000f0 82 2d c2 38 d7 9d 52 3d 61 c7 03 bd a7 39 98 bd
       9.259117e-05 0.05142006 -0.032172564 -0.07432871
000100 43 6b 94 bc 12 98 85 bb a8 4d f8 3d 35 7d f7 be
       -0.018117553 -0.004076966 0.12124187 -0.48337713
000110 12 a6 9d be 08 e9 ca bb 02 89 0d 3e 34 c8 98 be
       -0.30790764 -0.0061923303 0.13821796 -0.29840243
000120 a2 a2 8b be a3 2f 4c 3c 1c 96 a8 bd 40 67 0d be
       -0.27272516 0.012462529 -0.08231756 -0.13808918
000130 72 58 74 be 4b 5c cf 3c 5c b8 a2 be 0b d9 5a be
       -0.23861864 0.025312563 -0.3178128 -0.21371858
000140 e3 3e 4b bd 9c 0f da be 15 84 a1 bd 6d 7c a0 be
       -0.04962052 -0.42590034 -0.07886521 -0.3134493
000150 bd 71 f2 3d a3 34 23 be a7 99 c8 bd f9 94 81 bd
       0.118381 -0.15938048 -0.09794932 -0.063272424
000160 c9 78 87 be d0 4c 33 be 6b fb d2 3d 33 8a 0c be
       -0.2645934 -0.1750977 0.103018604 -0.13724594
000170 d9 95 8e be 52 9f 95 be 12 ed 22 be d9 54 a2 be
       -0.278487 -0.29223114 -0.15910748 -0.3170536
000180 e8 17 86 be 09 50 98 bd e2 bf 88 3c c9 7b 9f be
       -0.26190114 -0.074371405 0.01669306 -0.31149128
000190 53 be 68 be 39 e1 4b be de 23 02 3d 3a f4 91 be
       -0.22728853 -0.19910134 0.031772487 -0.28506643
0001a0 8d 23 02 3d 63 8f 60 be fa e3 f8 3d e1 97 b1 bd
       0.031772185 -0.21929698 0.12152858 -0.08671547
0001b0 db fc 87 be 55 40 60 be 95 1f 3d bc 48 39 dd 3d
       -0.265601 -0.2189954 -0.011543174 0.10801941
0001c0 0b e8 18 be bb 38 20 be 4b 22 fd 3d 62 e9 af bc
       -0.14932267 -0.15646641 0.123600565 -0.02147359
0001d0 a8 64 98 bd 75 e5 f7 be 7e bf 6e be e0 8f d0 be
       -0.07441074 -0.4841725 -0.23315236 -0.40734768
0001e0 d4 d6 88 bd d2 7a 82 bd b8 21 82 be 4d 5f b6 be
       -0.066816 -0.06371082 -0.2541635 -0.35619584
0001f0 b3 41 2e be 5e 0e 77 be 44 1a d5 bd f6 ff 80 3d
       -0.1701725 -0.24126574 -0.104054004 0.06298821
000200 66 6c 80 bd 3c 9a 80 3d df ce 34 bd e8 92 2d be
       -0.06270675 0.06279418 -0.0441426 -0.16950572
000210 ad 5c 95 bd 26 7f 15 be b2 8a fa bd 81 89 bd bd
       -0.07293067 -0.14599285 -0.12233485 -0.092547424
000220 6b 80 ae 3d 55 44 59 3e ad 10 0d be 21 51 3e be
       0.085205875 0.21217473 -0.13775893 -0.18585636
000230 1f fa a2 bd d7 d4 e0 3d 8f ad f8 bc 8d ec e8 3d
       -0.07957863 0.10978096 -0.030356197 0.113732435
000240 04 66 9c bd d3 6a 26 bd 18 c9 21 3d 0b 88 0d bd
       -0.076366454 -0.04062922 0.03949842 -0.03455357
000250 b7 a6 04 3d c5 36 4c 3d d3 23 f3 bd 16 4c 01 3d
       0.032385554 0.04985692 -0.11872067 0.0315667
000260 4f 06 4f be a7 cc 31 be af 9b 6b 3c 20 52 fc 3d
       -0.2021725 -0.17363225 0.01438038 0.123203516
000270 e9 4f 48 3d a4 85 46 be d7 62 ab bd 80 8b a1 3d
       0.048904333 -0.19386917 -0.083684616 0.07887936
000280 80 12 10 bb d8 a7 76 be 23 08 24 3d ed 29 c0 3d
       -0.0021983683 -0.24087465 0.040046822 0.09382997
000290 8f 5f b1 bd 75 bd 5f 3d a2 83 0b 3b 52 f5 47 bd
       -0.086608045 0.05462404 0.0021288176 -0.04881794
0002a0 ec a4 f4 bc 34 e0 da 3c f8 54 fc bd b8 37 ea bd
       -0.029863797 0.026718237 -0.12320894 -0.11436409
0002b0 c8 cf 6b 3e b1 a2 0f 3e 0c 27 b3 3d 12 a9 20 3e
       0.23028481 0.14026906 0.08747682 0.15689495
0002c0 e7 12 e1 bc 90 a1 f0 3c fa 2e e0 bc 68 06 a1 3d
       -0.027474834 0.029373914 -0.02736615 0.0786255
0002d0 40 a9 31 3d cf db 5a 3d 0a 1a dd bd c8 95 0c 3e
       0.0433743 0.053432282 -0.10795982 0.13729012
0002e0 2f ac 37 3e ce 35 06 bd 73 f3 b5 bd a4 7b 8a 3e
       0.17936777 -0.032766156 -0.08884325 0.27047455
0002f0 0c 21 f7 bd 5f 2d aa bd 8a 4b 39 bc 40 e5 82 3d
       -0.1206685 -0.08309435 -0.011309514 0.06391382

rnn.bias_hh_l0 f4 [192]
000000 0e fe 50 be 0c 82 d3 bd ee 5d 0f 3e 69 f0 88 be
       -0.20409414 -0.10327539 0.14000675 -0.26745918
000010 e0 5c 3f 3d 91 b5 4f 3e 8c ab 66 be 5c 16 12 3e
       0.046719432 0.20284106 -0.22526377 0.14266342
000020 5d d0 33 bd 4b c9 05 be 37 eb 33 be cb 90 6b 3e
       -0.043899883 -0.13065068 -0.17570196 0.23004453
000030 65 d8 41 be 08 a1 9f bc b9 90 57 be df 66 cf 3d
       -0.18930204 -0.019485965 -0.21051301 0.10127043
000040 cf 87 4a be c4 06 05 3e 7e 72 9d 3e 37 00 98 bd
       -0.1977837 0.12990862 0.30751413 -0.07421916
000050 f8 38 6a bd a2 4d e5 bd 1a 3f b0 3c 07 4c 66 bc
       -0.057183236 -0.11196448 0.021514464 -0.014056212
000060 05 df e5 bd 39 b4 4c bd 56 5c 9e 3e f4 33 07 be
       -0.11224178 -0.04997656 0.30929822 -0.13203412
000070 5c 05 53 be d9 0a 00 3c f1 45 81 3d e2 75 90 bd
       -0.20607513 0.007815086 0.063121684 -0.07053734
000080 0f b2 4a be 66 c7 3a 3b db 9b fc 3d 79 12 85 bd
       -0.19794486 0.0028500198 0.123344146 -0.06497664
000090 2c e2 ff bd e2 90 ba 3d 53 aa fa bc d7 ac a1 3d
       -0.12494311 0.091096655 -0.030598795 0.07894295
0000a0 03 32 88 3e 3d 99 dd 3b 21 3c 41 3e 63 22 57 bd
       0.26600656 0.006762652 0.18870594 -0.052523028
0000b0 0c e8 c8 bc 52 fc 4e 3e f0 18 37 3c c3 d0 05 be
       -0.024524711 0.2021344 0.011175379 -0.13067918
0000c0 67 6a 2f 3c 83 30 99 3d 3f 4e 7b 3e 07 ee 6c 3e
       0.010706521 0.07479956 0.24541567 0.23137675
0000d0 2b 95 37 bd aa a2 ce bb d6 8a 8a bd 81 9d f9 bd
       -0.044819992 -0.006306012 -0.06764762 -0.121882446
0000e0 82 e9 38 bd 63 2c 97 be 3c 1d 5b be 7a bd 11 3d
       -0.045144565 -0.29526052 -0.21397871 0.03558109
0000f0 db 3f 5a bd 30 12 da 3b b1 f0 d7 3d aa d9 00 3d
       -0.053283554 0.006655 0.10543955 0.03145758
000100 49 8b 02 bd dc dd 75 3d ed 14 de 3d 0a 29 d2 be
       -0.031871114 0.060026035 0.10843835 -0.41046935
000110 56 e5 38 be f5 c8 dd 3d aa 0c 07 3d 14 93 27 be
       -0.18056235 0.10829345 0.03297106 -0.163647
000120 53 4c 9b be a0 50 0d be 10 c7 41 bc 88 a2 8d bd
       -0.30331668 -0.13800287 -0.011827245 -0.06915766
000130 ad 5e 57 bc f7 30 f8 3d e8 26 b4 be 2d d9 74 bd
       -0.013145131 0.12118714 -0.35185933 -0.059777427
000140 2d 47 22 bb 5b 00 be be c4 5e ae 3c e4 71 d2 bd
       -0.0024761662 -0.37109646 0.021285422 -0.10275629
000150 ee ad ed 3d 63 76 36 be bd 04 ac bc 26 f9 71 be
       0.1160544 -0.17818598 -0.020998353 -0.23630199
000160 a2 a6 90 be 22 18 1d be b1 9c e2 3d d7 d3 45 be
       -0.2825213 -0.15341237 0.11065043 -0.19319092
000170 bf d7 53 be d1 fb 78 bd 86 8a 4e be 0c 96 f1 be
       -0.2068777 -0.060787026 -0.2017003 -0.4718479
000180 43 f2 87 be f6 91 4e be 96 06 9a 3c 7b d8 9c be
       -0.2655202 -0.20172867 0.018801969 -0.30633911
000190 a7 bb a8 be f5 e4 8a be 8c 98 14 3e d1 3a 76 be
       -0.32955667 -0.27127805 0.14511317 -0.24045874
0001a0 8a db 56 3d d7 66 0f be b1 65 f9 3d c1 14 99 bd
       0.052455463 -0.14004074 0.12177599 -0.074746616
0001b0 86 92 1c be 58 7d 14 be 08 61 67 3c 5f 80 8a bd
       -0.1529027 -0.1450094 0.014122255 -0.06762766
0001c0 15 08 10 be bb 70 66 be 01 43 fb 3d eb 62 9f bd
       -0.14065583 -0.22503941 0.12268639 -0.07782539
0001d0 78 19 61 be 95 4c 11 bf c3 0b b1 be 89 68 cf be
       -0.21982372 -0.5675748 -0.34579286 -0.40509441
0001e0 7f e8 2d be 8f 50 10 be 84 1a 81 be 7f f2 d1 be
       -0.16983221 -0.1409323 -0.25215542 -0.41005322
0001f0 a3 47 43 be 3b 62 d9 be 8d 41 8d bc 53 31 c2 3c
       -0.19070296 -0.42457756 -0.017243171 0.02370516
000200 4b 26 06 3e 9a 11 51 bd b9 d5 a9 bd b0 f6 09 be
       0.13100545 -0.051042177 -0.082927175 -0.1347301
000210 f0 ee 75 3d cf aa db bd 10 ea ba 3d eb 2a 44 3e
       0.06004232 -0.107259385 0.09126675 0.19156997
000220 7f 5a 0c be be e1 26 be db b2 ab be bc 4f 61 be
       -0.13706397 -0.16297051 -0.33534893 -0.22003073
000230 27 0d a8 bd 80 43 4b 3c 6a 8b 5b bb f3 14 55 3e
       -0.082056336 0.01240623 -0.0033499845 0.20808773
000240 e7 08 64 bd bf 48 d0 bc a0 4d f8 3d 74 d1 6b bd
       -0.055672552 -0.025425313 0.12124181 -0.057572797
000250 2a bc c8 3c 59 da 4d 3e 9e 74 28 bd 29 21 28 bd
       0.024503786 0.20102824 -0.04112684 -0.04104725
000260 f7 ac 4b be a9 37 4c 3d 42 a0 3b 3e 1c 2e 16 bd
       -0.198902 0.04985777 0.18322852 -0.036665067
000270 78 29 74 3c fa 3c 85 bd af 55 b0 3c a1 06 5c bc
       0.014902465 -0.06505771 0.021525232 -0.013429315
000280 38 c5 82 3d 7e b0 39 be 3c 54 aa 3d e3 d1 86 3d
       0.06385273 -0.18133733 0.08316848 0.065830015
000290 54 c0 15 be ee 8b b1 ba 31 db 80 3e 19 1a 87 bb
       -0.14624149 -0.0013545731 0.2516723 -0.004122984
0002a0 d7 fb 02 3d f8 0c d9 bd 1b 2a 85 bd 0d 5d da bc
       0.031978454 -0.10598177 -0.065021716 -0.026655698
0002b0 d3 38 cc 3d fa db 3c 3e a3 2f a7 3d 3b f8 1d 3e
       0.09971776 0.1844329 0.08163383 0.15426724
0002c0 97 54 5a bc df 07 91 3e 74 cd 82 bd 82 47 cc bd
       -0.013325832 0.28326318 -0.06386843 -0.099745765
0002d0 8b 1e c0 3c 6a 36 00 3e 66 98 bb bd 4b 62 eb bb
       0.023452064 0.12520757 -0.09159927 -0.0071833483
0002e0 dd 20 4b 3e 12 0e 41 be 02 95 80 3d d0 16 6e bd
       0.19836755 -0.18853024 0.06278421 -0.058127224
0002f0 c3 0c 00 be 8f 4f 30 be 5d e2 eb bd 9e bf fa 3d
       -0.12504868 -0.17217849 -0.11517785 0.12243579

rnn.weight_ih_l1 f4 [192, 64]
000000 e8 de 2a be 3f 5a 5a 3e 3e f4 2b 3e a6 06 a4 3d
       -0.16686594 0.21323489 0.1679239 0.080090806
000010 77 fd 0b be e9 09 ae 3d cd e1 d3 3d fa 03 2b be
       -0.13670908 0.08497984 0.103458025 -0.16700736
000020 cc 62 82 3e 34 60 97 bd 2f 88 04 3e 7e 4d 88 3c
       0.25466 -0.07391396 0.12942575 0.016638514
000030 1a 6f b0 bd c5 ba c4 3e 25 6a 80 3d aa 3b 8b be
       -0.08614941 0.38423744 0.062702455 -0.27193958
000040 76 36 a0 be 7a db ab bd fc 7e f1 bc aa a5 18 bd
       -0.3129155 -0.08391471 -0.029479496 -0.037267365
000050 94 da 1a bf f7 45 b4 bd 0a 21 2a 3e 1a ab 29 3c
       -0.60489774 -0.08802407 0.16614166 0.010355735
000060 00 71 87 3e 0f c6 61 be c0 3f 7f bd 3b cd 85 be
       0.264534 -0.2204821 -0.062316656 -0.2613314
000070 98 ab 36 be 7e be 93 3e bd a2 3e 3d b8 5a d7 3c
       -0.17838895 0.28856272 0.046541918 0.026288375
000080 43 03 c4 3c b2 7a f0 3c cc 4b e4 3d 0e d3 1d be
       0.023927337 0.02935538 0.111472696 -0.15412542
000090 70 20 82 be 72 ae 21 be bc 42 73 be 01 b1 99 bd
       -0.25415373 -0.15789202 -0.23755926 -0.07504464
0000a0 51 06 4f 3d 30 b3 a8 bd 55 d7 03 be b8 19 5d be
       0.050543133 -0.08237302 -0.12875111 -0.21591842
0000b0 66 59 fb 3e 9d a2 91 3e be 01 4b be f6 5e 07 be
       0.49091643 0.28444377 -0.19824883 -0.13219818
0000c0 f8 68 24 3d cc c0 4b be 07 ad 1e be 66 02 a6 3d
       0.04013917 -0.19897765 -0.15495692 0.08105926
0000d0 d8 42 67 be 89 7d dd bd 0e 1c b4 3d 72 28 de be
       -0.22584093 -0.108149596 0.087944135 -0.43390232
0000e0 2e 41 5c bd 34 1a bd bc 13 c1 5b 3e ac 3c 22 3e
       -0.053773098 -0.023083784 0.2146037 0.15843457
0000f0 56 20 a4 3d 94 a3 18 3f c7 a6 a7 3e 16 5a e7 bd
       0.0801398 0.596246 0.3274443 -0.112964794
000100 a1 5d d4 bd 02 a0 86 be f3 8b 92 3e fe 47 06 3f
       -0.10369421 -0.2629395 0.28622398 0.524536
000110 91 8f d3 3d 84 12 1f 3e 9f 42 89 3e 57 81 52 3d
       0.103301175 0.15534407 0.2680864 0.05139288
000120 4b d2 b0 3d 59 2e 69 bb 0c 74 16 3f 30 80 98 3e
       0.0863386 -0.0035580604 0.58770823 0.297853
000130 08 b5 b8 be a6 f0 9d 3d a9 dc f8 3d 35 60 87 be
       -0.36075616 0.07711916 0.121514626 -0.26440588
000140 ec 9f 99 bd b0 c1 16 be 64 97 0a be 65 44 ea 3e
       -0.07501206 -0.14722323 -0.13534313 0.45755306
000150 3d 88 51 be be 8b ef be 00 2d 36 3e b1 27 cc bd
       -0.20462127 -0.46786302 0.17790604 -0.09968508
000160 90 8e 6e 3e a1 3f 90 3e 99 3f 7d bd e9 39 19 be
       0.23296571 0.28173545 -0.06182823 -0.14963497
000170 69 6d 4d 3e b0 15 c0 3e 07 f2 a2 3e 40 91 84 be
       0.20061268 0.37516546 0.31825277 -0.25892067
000180 a0 27 9a be 02 65 7a 3e 5e 29 6e 3c 7b a5 35 be
       -0.30108356 0.24452594 0.01453623 -0.17738907
000190 af 42 e8 bc 59 43 72 be 3a 7e 90 bd 46 3c 8d 3d
       -0.02835211 -0.23658504 -0.07055326 0.06896262
0001a0 c1 d2 54 bd 87 ba 9a 3d 5d 07 cb bd 1b 77 41 3e
       -0.051958803 0.075551085 -0.09913514 0.18893091
0001b0 7b 3a 55 be 7e 95 39 be 65 fe 6f be 8d 49 0a bf
       -0.2082309 -0.18123433 -0.23436888 -0.5401848
0001c0 50 2e 28 3f 98 fb c6 3b 4b 13 34 3d 17 5c 11 bf
       0.6569567 0.006072473 0.04396371 -0.5678114
0001d0 e5 a3 42 be 6a f7 f2 be 44 be 29 bd 69 cd d7 be
       -0.19007833 -0.47454387 -0.041441217 -0.42148903
0001e0 8f 74 ec 3d 58 62 0b 3e 77 5a 38 3e 1a 73 f5 be
       0.11545669 0.13611734 0.1800326 -0.47939378
0001f0 3b 2a b9 3e 66 89 f2 3d 28 38 8c bd d1 15 33 be
       0.36165032 0.11842613 -0.068466485 -0.17488791
000200 db 3b a9 bd 71 a3 0a bf 18 f6 29 be 9b 6e 0d bd
       -0.0826337 -0.5415564 -0.16597784 -0.03452931
000210 61 9f 3e 3e 50 da 76 be 22 3b 56 bd d6 20 b5 3e
       0.18615486 -0.24106717 -0.052302487 0.35376614
000220 e1 61 3a be fb 25 ff 3d 1e 33 95 3e 23 6f 2f bf
       -0.182014 0.12458416 0.29140562 -0.68528956
000230 ed 0c 11 3e cc 16 a9 3b f7 9c 60 be ca 09 a8 3e
       0.14165087 0.0051601883 -0.21934877 0.32819968
000240 53 87 51 3d 3b 24 02 3e 08 5c ac 3e 3b aa 2d bd
       0.051154446 0.12709133 0.33663964 -0.042398673
000250 bb bd 0d bd 65 4b b3 3d 32 5f ca bc 14 5a d8 3d
       -0.03460477 0.08754615 -0.024703596 0.10564056
000260 e7 e9 19 be e6 46 50 be 2b 2c c6 3d 0b 3e 6c bd
       -0.15030633 -0.20339546 0.09676393 -0.057676356
000270 03 05 fb bd d0 7a a8 3d a7 fa ff 3d 63 f9 3f 3e
       -0.12256815 0.082265496 0.1249898 0.18747477
000280 da 20 6c 3e de 33 f5 bc 57 79 a1 be c9 e8 01 3d
       0.23059407 -0.029931959 -0.31537887 0.03171614
000290 87 89 2e be 5d e8 8d 3f 28 99 a3 3e ab 42 9d bd
       -0.1704465 1.1086537 0.31952786 -0.076787315
0002a0 01 42 9e bd c4 c1 ef bc 58 9c 9d bb 74 22 e1 bd
       -0.07727433 -0.0292672 -0.0048098974 -0.109928995
0002b0 67 9c 1f bb 74 b2 d5 bd e7 c1 d6 3c 3e 57 31 be
       -0.0024354698 -0.10434428 0.026215507 -0.17318437
0002c0 da 12 b0 bd 94 21 bd be a0 2e 2d be 15 57 18 be
       -0.08597346 -0.3693968 -0.16912317 -0.14876969
0002d0 02 d5 03 be a0 bb 4d 3e 76 ee 3a 3d 4d 0a 0a 3c
       -0.12874225 0.20091105 0.04563757 0.008425307
0002e0 e9 fc 25 be 7d 55 82 bd 85 69 8c be 92 cf 81 3d
       -0.16209759 -0.06363962 -0.27424255 0.06338419
0002f0 7e b4 fb bd 24 c1 91 ba 6f eb 3e bd 6d eb 60 3d
       -0.122902855 -0.0011120182 -0.046611246 0.05491202
000300 ff e8 43 bf 1f 69 da be a5 d5 8f 3d 14 4e ad 3e
       -0.765274 -0.42658326 0.07023171 0.3384863
000310 d1 17 4a be 7b 70 2d be 10 4d 15 3e 3f 26 fb bd
       -0.19735648 -0.16937439 0.14580178 -0.12263154
000320 fb ca 8a bc 32 53 88 3d 95 49 07 3e 04 9a d3 bd
       -0.016942492 0.06656493 0.13211663 -0.103321105
000330 ed 4b a9 3d d4 5f 99 bd 31 1a 69 3d ba 2b 95 3e
       0.08266435 -0.07488981 0.056909744 0.29134923
000340 91 e0 71 3c 81 8a 9b bd 5f e5 36 3e 54 f2 1c 3e
       0.014763013 -0.07594777 0.17860936 0.15326816
000350 43 8c 90 be 52 ef 13 bd b2 aa 4a 3d 80 5b 53 3e
       -0.2823201 -0.036116906 0.049479194 0.20640373
000360 a6 b4 25 3e 30 d2 7d 3e 8d f2 92 bd 31 11 cc be
       0.16182193 0.24787211 -0.07175169 -0.39856866
000370 d7 32 e1 be 79 ae f0 3e 73 60 c3 be ee 72 db bc
       -0.439841 0.47008112 -0.38159522 -0.026788201
000380 5b 81 52 bc 33 93 81 3c 50 5f 4c bd f9 c6 56 bd
       -0.012848224 0.01581726 -0.049895585 -0.05243585
000390 3f d1 5d be d8 87 0e 3e b1 43 f9 bd f2 1e 5f bd
       -0.21661852 0.13919008 -0.12171114 -0.05447287
0003a0 ba 15 18 3d 03 45 ce bc ea 81 18 3e 64 50 34 3e
       0.037130095 -0.025179392 0.14893308 0.17608792
0003b0 ec 44 b2 be 8e b1 29 3d 4e 93 b2 3d f1 51 4b be
       -0.34818208 0.041429095 0.087195024 -0.19855477
0003c0 e3 db 40 3d 21 e1 de be 29 a4 1f 3e 17 d6 cd be
       0.0470847 -0.43531135 0.15589966 -0.402024
0003d0 32 de 92 bc 1a c9 00 bf 97 28 3f bc 8c 4c d1 be
       -0.017928217 -0.50306857 -0.011667392 -0.40878713
0003e0 c5 0c 1e 3e 35 75 6b 3e 69 a3 63 bd fc d7 91 3e
       0.15434559 0.2299393 -0.055575762 0.28485096
0003f0 33 4f 50 3d 7f 20 84 3e 6a 91 1a be 1b 03 b0 3d
       0.05085678 0.25806043 -0.15094534 0.08594342

rnn.weight_hh_l1 f4 [192, 64]
000000 37 99 a0 bd f0 bb 22 3e 6b 6e 23 be 6c 1f 42 3e
       -0.078417234 0.15892005 -0.1596009 0.18957299
000010 e1 95 88 3d 1c ae 7d 3e 9d 13 bd bd 5f 3d 19 3e
       0.06669212 0.24773449 -0.092322566 0.14964817
000020 5c 83 69 3b 80 a0 17 be 00 50 be 3e 94 c2 15 3e
       0.0035631275 -0.1480732 0.3717041 0.14625007
000030 42 09 83 bd 2f a0 d5 bd 59 5a d1 3d 19 2e 73 bd
       -0.0639825 -0.10430943 0.102223106 -0.059370134
000040 34 97 fa bd 97 de a8 3e 33 ca 6d 3e b9 3d 1e be
       -0.12235871 0.32982323 0.23221664 -0.15453233
000050 74 67 cf 3d e8 ed c0 3d e4 33 89 bd 1b da fc 3d
       0.10127154 0.09420377 -0.066993505 0.12346288
000060 56 0d 84 bd 37 1e 9c 3e b4 4f 17 bd e0 66 d0 3d
       -0.06447856 0.30491802 -0.036941245 0.10175872
000070 ef 6c 52 3d 99 5c 9e 3e c7 27 f9 3c f4 47 91 3e
       0.05137342 0.3093002 0.030414475 0.28375208
000080 0d 2b 63 bc 93 fd 35 be db 38 61 be aa e1 f1 bd
       -0.013865245 -0.17772512 -0.21994345 -0.1181062
000090 cd 4a 83 3e 5f 2a a1 bc 87 47 51 3e e7 a4 63 bd
       0.25643006 -0.019673524 0.20437442 -0.055577185
0000a0 56 75 93 ba 81 9e f6 3d a1 b5 f8 3d 38 ea 24 bc
       -0.0011250179 0.12041951 0.12144018 -0.010065608
0000b0 7c d1 48 3b 9e f9 2f bd 3b b5 33 bd 8d 28 31 be
       0.003064244 -0.042962663 -0.043874007 -0.17300625
0000c0 99 2f 34 bb 3d ac ee be fc 06 bd bd 72 cb 1d be
       -0.002749419 -0.46615782 -0.09229848 -0.1540964
0000d0 56 23 4f 3d aa 5f 2a 3c 69 23 72 be e3 55 61 be
       0.05057081 0.010398785 -0.2364632 -0.2200542
0000e0 c5 37 d7 bc 88 05 be bd 0d a7 29 3e a2 30 5e be
       -0.02627171 -0.09278399 0.16567631 -0.2169824
0000f0 6f 74 a1 3d 1b 69 84 3e c9 a1 64 3d 8c cb ab be
       0.07883536 0.2586144 0.055818353 -0.3355373
000100 af 60 66 3e 59 8f 36 be 6a 6f f8 bd fb 5d be bd
       0.2249782 -0.1782812 -0.121306255 -0.09295269
000110 e6 09 09 be 7c 9e ac bd fd e3 d8 bd 86 dd ca 3e
       -0.13382682 -0.08428666 -0.1059036 0.39622134
000120 8f fb 38 be 67 66 d1 3c 6e a7 2e 3e 58 2f 51 3e
       -0.18064712 0.025561525 0.17056057 0.20428216
000130 97 13 29 bd f2 38 9d be 6e aa a9 bd 7a b8 d2 3c
       -0.041278448 -0.30707508 -0.0828446 0.02572273
000140 05 10 0b 3b ce d0 0a be 51 7b 57 be 73 7f 0a 3e
       0.0021219265 -0.13556215 -0.21043135 0.1352518
000150 71 56 c2 bd 41 5a 10 3e 50 5b 4f 3e 25 b6 44 be
       -0.09489144 0.14096929 0.20249677 -0.19210108
000160 62 73 16 bd a6 2f bd 3e 0d a0 46 bd 9b ef b5 3d
       -0.03673113 0.36950415 -0.04849248 0.08883592
000170 89 fc de bc 8d 3b 63 be ca b3 4c be 4d 1f 1a be
       -0.027220028 -0.22190686 -0.19990459 -0.15051003
000180 e9 89 4f 3e 47 58 ba 3c 2a 82 eb 3d c3 f5 4c bd
       0.20267452 0.022747172 0.11499436 -0.050039064
000190 8e db bd 3d ca e5 55 3e d6 9a c0 bd 99 77 16 3e
       0.09270392 0.20888439 -0.094045326 0.1469406
0001a0 13 84 5d 3d 36 43 4b bd 55 75 ea bd bf 76 9a 3d
       0.054081034 -0.049624644 -0.114481606 0.0754218
0001b0 a2 16 42 bb 10 bc 4d be 79 75 a2 3d 78 ab f0 3d
       -0.002961554 -0.20091271 0.079325624 0.11751455
0001c0 ae d0 75 3e 2a 53 aa 3e 8b 5e 7d be fe cd 0a bc
       0.24005386 0.33266574 -0.24743097 -0.008471964
0001d0 bd ae 0a bd 6e 3c 30 3e a9 e5 01 3d 42 8a 95 be
       -0.03385805 0.17210552 0.03171316 -0.29207045
0001e0 7b ad 6e 3e ab ec 9f bc eb da 02 be 84 ad 0b bc
       0.23308365 -0.019522032 -0.12778823 -0.008525256
0001f0 e2 94 ae 3c 6c c3 b4 3d 61 38 c3 bd 76 71 88 3e
       0.021311227 0.08826336 -0.09532238 0.26649064
000200 9b c6 40 bc 3c 43 4b bd b6 84 d2 3e 55 28 1a bd
       -0.011766101 -0.049624667 0.41116875 -0.03763612
000210 08 7c 01 bf f6 f1 34 be da 51 9f bd 9b 99 32 bb
       -0.5057988 -0.17670426 -0.07779284 -0.00272522
000220 7a f2 30 bd cb ae 2f bd e6 6a 05 bb ee 3d 74 bd
       -0.043199994 -0.042891305 -0.0020357906 -0.059629373
000230 87 86 05 be 70 6a d8 bc 32 6c 4e 3d 18 a9 0c 3b
       -0.130396 -0.02641794 0.05039615 0.0021463092
000240 9f fb 12 3e 6a 23 d9 3d d8 63 40 3e f1 4a 69 be
       0.14353798 0.10602458 0.18788087 -0.22782494
000250 dd 2f 85 bd b8 98 b1 3d 2c 25 12 be 66 cd 3e be
       -0.0650327 0.08671707 -0.14271992 -0.18633041
000260 ee f8 a6 be fb 53 a0 bd 1d 9c 37 be 4b a2 ef 3d
       -0.32611793 -0.07828518 -0.17930646 0.11700877
000270 89 7f c5 bd ad bb 25 3e be 3e 14 3e fa 6f 96 bd
       -0.09643466 0.16184874 0.14477059 -0.073455766
000280 b9 3f 6b bc c3 20 7d bd 28 5a 28 be 86 4d 34 3d
       -0.014358454 -0.061798822 -0.16440642 0.044019245
000290 31 0e 8c be 99 a3 25 bd d0 7f c9 bd eb 2d 0b 3e
       -0.27354577 -0.040439222 -0.098388314 0.13591735
0002a0 4f 75 90 bd 2b 2e bf 3e 24 c1 ed 3e d4 d9 f5 3e
       -0.07053625 0.3733991 0.46436417 0.48017752
0002b0 77 d2 2c be 0f a9 af 3c fc bd d2 3e a1 00 22 3e
       -0.16877161 0.021442918 0.41160572 0.15820552
0002c0 af 88 a1 3d 97 7a 6d bd 06 b7 9a be 34 3c e3 bd
       0.078873985 -0.05797824 -0.3021776 -0.11095467
0002d0 e9 c9 3b be 8d ce b2 bc 43 32 6b 3e 34 4e 35 3d
       -0.18338741 -0.021827007 0.22968392 0.044264033
0002e0 cd 68 66 3d c3 8b fd 3d a4 26 b7 3e 9b 1a 28 be
       0.05625229 0.12380173 0.35771668 -0.16416399
0002f0 f7 6d dd bd 81 7e f8 3d f2 0f 2d 3d 9c d1 c7 be
       -0.1081199 0.12133504 0.042251535 -0.39027107
000300 37 d8 17 3e c0 ab 96 bd b3 d6 af 3e cc 62 e1 be
       0.14828573 -0.073569775 0.3434349 -0.4402069
000310 86 e8 86 ba 8b 5b dd 3d 4d 97 d3 3d 62 fc 7a 3e
       -0.0010292686 0.10808476 0.10331593 0.24510339
000320 ee b9 94 be 60 f8 d7 bc 19 c9 49 3e b2 cb 32 3e
       -0.29048103 -0.026363552 0.19705619 0.17460516
000330 51 34 2c 3e 37 6f bb bd 85 c5 96 be 73 30 31 be
       0.16816832 -0.09152072 -0.2944757 -0.17303638
000340 2f a1 8c be 6b 84 eb bd 28 3f 89 3d 7e ec 0a 3e
       -0.27466723 -0.11499866 0.06701499 0.13566777
000350 10 96 af be a1 48 a0 3e c9 3f e6 3c f1 6f 80 bc
       -0.34294176 0.3130541 0.028106587 -0.015678378
000360 35 6c 48 3d 9a 7b 23 3c 11 ba 7c bb b3 4e 15 be
       0.04893132 0.009978199 -0.0038563053 -0.14580803
000370 c3 7f 23 be 43 c9 c3 3d 14 30 1e 3c 08 76 91 bc
       -0.15966706 0.09559872 0.009655017 -0.017756477
000380 0b 86 4e bd 26 a5 3c 3e 40 27 3e 3e 05 fe 00 3e
       -0.050420802 0.18422374 0.1856966 0.12596901
000390 1a 1c 7c bb bd d3 c0 3e 9e d3 a8 be a8 5a 1f bd
       -0.0038468898 0.37661543 -0.3297395 -0.038904816
0003a0 5e be 6d 3e 6e a0 3b be 76 a4 44 be 1b 2f 1f be
       0.2321715 -0.18322918 -0.19203362 -0.15545313
0003b0 2a c3 39 3e cd 45 30 be 44 96 70 3e 4b 63 30 3e
       0.18140855 -0.17214127 0.23494822 0.17225377
0003c0 06 49 5d bd 28 f0 e1 3d 13 1a c8 bd 2e a8 76 be
       -0.05402472 0.11032134 -0.09770598 -0.24087593
0003d0 a9 e1 cf bd 86 3c 23 3e a0 58 63 be b4 ad 04 be
       -0.10150463 0.15941057 -0.22201777 -0.12956887
0003e0 e6 69 39 3e 68 1d 82 3e 5e 99 b6 3d 0b 4d 0e 3e
       0.18106803 0.2541306 0.08915971 0.13896577
0003f0 77 a9 b5 bd c0 94 9e 3e 34 d4 76 3d 36 f9 9b 3c
       -0.088702135 0.30972862 0.060260966 0.019039731
