graphrnn_v2/experiments/structures/k_regulars/vary_m/3_regular_vary_m_8/model_at_1600.pt (torch, 419259 bytes, 43 tensors)

adj_embedding.0.weight f4 [32, 8]
0.073539756 0.04713196 -0.38160008 -0.3632304 0.11250817 0.30371475 0.34752446 0.3311973
-0.0034363589 -0.33907926 0.012896609 -0.29478785 -0.26221064 -0.2997594 0.11703446 0.16298354
0.08704865 -0.34765914 0.06842468 0.1837107 0.31107733 0.283335 0.15637921 -0.37141857
0.31169185 0.6237961 -0.081494 0.37333575 0.44583535 0.42254642 0.21467827 0.072935894
0.7292912 0.08820185 0.45807615 0.12390224 0.14302668 0.1536592 0.31928688 0.086968526
-0.18376851 -0.5218285 0.21426886 0.46993497 0.3922072 0.0036344177 -0.19523737 -0.16214626
-0.1133104 -0.2244638 -0.2460487 -0.2233836 -0.021248514 -0.04326285 -0.15968005 -0.45433462
0.79983896 0.22222914 -0.25068167 -0.20242873 -0.29108852 -0.25391254 -0.25348195 -0.23396617
0.21771589 0.3434126 0.4594097 -0.07587653 -0.086407304 -0.4910883 -0.3611316 -0.23536599
0.47284302 0.030496694 0.1976811 0.11116147 0.07401157 0.28487164 -0.23859817 0.07805642
-0.37648347 -0.1738676 0.32512814 0.09721277 0.07730121 0.3553485 0.42365706 -0.1200133
-0.42394075 0.31070918 0.19498736 0.15535729 0.33107188 -0.21521331 -0.28987658 -0.2712599
0.30127338 -0.07202355 -0.08594962 0.06137167 0.3430814 0.58250815 0.62395084 0.44438073
0.5985871 0.51313424 0.26488876 0.083186485 0.37796283 -0.020586452 0.19797464 -0.023578046
0.5593863 0.48392144 0.39724702 0.2126297 0.029097857 -0.20352355 0.20608261 0.21504319
-0.14370707 0.043567505 0.50809735 0.35836625 0.36068997 0.3470475 0.11509616 -0.048009943
-0.07075404 0.33476138 0.22117646 0.42749768 -0.16651712 -0.08519213 -0.23794243 0.10650447
0.44158345 -0.08177066 0.3391607 0.5017977 0.26484495 0.44849223 -0.1267888 -0.16310862
-0.029200887 -0.3213415 0.2986864 -0.017904768 -0.32650748 0.31493375 -0.3207038 -0.28941044
0.2786468 0.7080726 0.09195462 -0.1313426 -0.18051215 0.25817037 0.04476987 0.22937013
0.34348 0.5410689 0.52518755 0.32735035 0.24483149 0.1659683 0.042378373 -0.021159686
0.24184978 0.25099486 0.04594497 0.37369597 0.23183548 0.12813772 0.12513295 0.04634238
-0.1180628 -0.28994954 0.051699683 0.03872503 -0.20421466 -0.05852347 -0.010241178 -0.13381633
0.3001457 -0.015706707 -0.2243651 0.023442851 0.42480913 0.14481327 0.11487582 -0.18084888
0.23010963 0.15690562 0.53096503 0.3051586 0.45523745 0.15811461 0.18543123 0.21540904
0.31717873 -0.40571848 -0.018501498 -0.54870945 -0.40868756 -0.22992606 -0.39071614 -0.24354155
0.10811695 -0.22677246 -0.3308674 -0.37779048 0.03557335 0.009177141 0.34398624 0.30812937
0.0230549 0.13037765 -0.009030338 -0.37615508 -0.3556808 -0.37666535 -0.38035733 -0.37565175
-0.2083492 -0.11934807 -0.3406388 -0.34446567 -0.3442308 0.05376623 -0.308294 -0.32394442
-0.11761482 -0.13317212 -0.18345065 0.4152409 0.37490022 -0.15289038 -0.15578052 -0.055651978
0.52652836 -0.08894524 -0.39095372 0.11230036 -0.5007027 -0.50322694 -0.6128459 -0.4378895
0.17460279 -0.44503927 0.30256164 0.087841034 -0.2796711 -0.14550234 -0.14357774 -0.44410884
00000000: 039c 963d 710d 413d 1661 c3be 56f9 b9be
00000010: af6a e63d 8080 9b3e baee b13e b192 a93e
00000020: 8934 61bb cc9b adbe 4c4c 533c 6fee 96be
00000030: 7940 86be 107a 99be c3af ef3d 28e5 263e
00000040: 9046 b23d 6100 b2be 3d22 8c3d a81e 3c3e
00000050: 8745 9f3e 4911 913e df21 203e 932a bebe
00000060: 1396 9f3e 1ab1 1f3f 54e6 a6bd dd25 bf3e
00000070: 8844 e43e 0158 d83e 9fd4 5b3e 6a5f 953d
00000080: d4b2 3a3f 2ca3 b43d f588 ea3e 75c0 fd3d
00000090: 9675 123e d658 1d3e 9279 a33e 8e1c b23d
000000a0: d02d 3cbe 8d96 05bf 4c69 5b3e 519b f03e
000000b0: 62cf c83e 692f 6e3b 4eec 47be ab09 26be
000000c0: 480f e8bd d7d9 65be 31f4 7bbe acbe 64be
000000d0: 5d11 aebc 6334 31bd 2b83 23be 8c9e e8be
000000e0: 3fc2 4c3f 0990 633e 5959 80be 7a49 4fbe
000000f0: 8e09 95be d300 82be 63c8 81be d494 6fbe
00000100: eaf0 5e3e c7d3 af3e c037 eb3e 2765 9bbd
00000110: 50f6 b0bd ed6f fbbe 3ee6 b8be c803 71be
00000120: 7b18 f23e 34d4 f93c ea6c 4a3e a0a8 e33d
00000130: 6193 973d b2da 913e 1453 74be 0bdc 9f3d
00000140: 71c2 c0be 590a 32be 3277 a63e 7d17 c73d
00000150: 1950 9e3d 3df0 b53e 94e9 d83e 88c9 f5bd
00000160: c30e d9be 4615 9f3e c4aa 473e fb15 1f3e
00000170: 4182 a93e e160 5cbe b46a 94be 94e2 8abe
00000180: 8140 9a3e 1581 93bd 5b06 b0bd dc60 7b3d
00000190: 5ea8 af3e 411f 153f 3ebb 1f3f df85 e33e
000001a0: 013d 193f c45c 033f 809f 873e ad5d aa3d
000001b0: 5884 c13e eba4 a8bc ddb9 4a3e bf26 c1bc
000001c0: f133 0f3f 8dc4 f73e f663 cb3e 9abb 593e
000001d0: a15e ee3c 7a68 50be 5207 533e 4834 5c3e
000001e0: f227 13be d773 323d ab12 023f c87b b73e
000001f0: 5bac b83e 36b0 b13e 89b7 eb3d 13a6 44bd
00000200: 7ee7 90bd d865 ab3e 157c 623e fae0 da3e
00000210: 7783 2abe 3679 aebd 2ea7 73be 041f da3d
00000220: 3a17 e23e 6077 a7bd 79a6 ad3e d075 003f
00000230: c299 873e c6a0 e53e ecd4 01be f205 27be
00000240: b336 efbc e086 a4be 6ced 983e 05ad 92bc
00000250: fd2b a7be ff3e a13e 4a33 a4be 9b2d 94be
00000260: cbaa 8e3e 3f44 353f b452 bc3d ad7e 06be
00000270: 2dd8 38be e82e 843e 9c60 373d 01e0 6a3e
00000280: 9cdc af3e 7e83 0a3f b172 063f 779a a73e
00000290: 1bb5 7a3e 98f3 293e f294 2d3d 1457 adbc
000002a0: 78a7 773e 6682 803e cb30 3c3d 1455 bf3e
000002b0: 4866 6d3e 8936 033e da22 003e 82d1 3d3d
000002c0: e9ca f1bd 4474 94be 0cc3 533d 239e 1e3d
000002d0: a61d 51be 4eb6 6fbd 9dca 27bc 2607 09be
000002e0: b2ac 993e 5aab 80bc f7bf 65be 390b c03c
000002f0: 9580 d93e ee49 143e 0444 eb3d 7330 39be
00000300: dca1 6b3e deab 203e 53ed 073f bf3d 9c3e
00000310: e214 e93e cce8 213e afe1 3d3e 3094 5c3e
00000320: 4065 a23e 55ba cfbe 7490 97bc 3978 0cbf
00000330: 7f3f d1be bd71 6bbe f20b c8be f562 79be
00000340: 6b6c dd3d 0a37 68be 7467 a9be c16d c1be
00000350: 5cb5 113d b85b 163c f71e b03e 22c3 9d3e
00000360: a1dd bc3c b881 053e fcf3 13bc 6697 c0be
00000370: cb1b b6be 48da c0be 32be c2be 6d55 c0be
00000380: 7e59 55be c36c f4bd 3568 aebe ce5d b0be
00000390: 053f b0be fa39 5c3d b6d8 9dbe 0bdc a5be
000003a0: 0ae0 f0bd 465e 08be 7dda 3bbe 759a d43e
000003b0: ecf2 bf3e 4c8f 1cbe ee84 1fbe 54f3 63bd
000003c0: 90ca 063f ec28 b6bd 162b c8be bbfd e53d
000003d0: 0d2e 00bf 7bd3 00bf 78e3 1cbf 0d33 e0be
000003e0: 13cb 323e 30dc e3be 5ce9 9a3e 00e6 b33d
000003f0: 0d31 8fbe 91fe 14be 0b06 13be 3c62 e3be

adj_embedding.0.bias f4 [32]
-0.40712243 -0.29567507 -0.40145943 0.03644545 -0.10074612 0.3934093 0.4439185 0.23155622
0.24171707 0.043771867 0.29147765 0.32758424 0.15666518 0.012687812 0.14800858 0.027970439
0.077846035 0.24326697 -0.29942563 0.17617622 -0.048765596 -0.047655597 -0.24820043 0.10829411
-0.20051017 0.22882506 0.34054425 0.21879245 -0.24141437 0.38481292 -0.025590701 -0.03464557
00000000: 5a72 d0be b962 97be 178c cdbe d347 153d
00000010: fb53 cebd f26c c93e 4949 e33e 131d 6d3e
00000020: ae84 773e 214a 333d 8f3c 953e 1fb9 a73e
00000030: d66c 203e 8ae0 4f3c 908f 173e 4322 e53c
00000040: be6d 9f3d fa1a 793e 514e 99be 8a67 343e
00000050: 6fbe 47bd 8432 43bd 4128 7ebe 4dc9 dd3d
00000060: 8a52 4dbe 1e51 6a3e d15b ae3e 210b 603e
00000070: 5435 77be 3306 c53e 97a3 d1bc 83e8 0dbd

graph_rnn.weight_ih_l0 f4 [192, 32]
0.18962723 -0.105632365 0.28603482 0.15875101 -0.027907932 0.096198276 0.0047871284 -0.18662594
-0.0634267 -0.0007428108 0.14158182 -0.08866551 0.10406014 -0.17110981 -0.19322097 0.21197364
-0.1601559 0.18671574 0.08875619 -0.025466677 -0.15753104 -0.056589562 -0.05169989 0.12730402
0.106786296 -0.29055604 -0.14673962 -0.3546186 0.06171602 -0.044917643 0.28652325 -0.15903229
0.3028524 -0.021432465 0.3727141 0.060437597 0.10637167 -0.35698897 0.017214557 0.34006655
0.06400203 0.14435461 -0.101239964 -0.2039496 -0.072060674 0.22537838 0.12303797 -0.09238378
-0.12702402 -0.14368862 0.12335834 -0.0076094093 -0.014618825 0.032325506 -0.050903022 -0.06553362
-0.10048871 0.4592667 -0.14555937 0.613915 0.02436158 -0.19847123 0.93704313 -0.0027934522
0.46592045 0.059885204 0.10702679 0.19256899 0.03184572 -0.14746314 -0.1603652 0.13419749
0.18273725 0.25953588 -0.09289756 -0.09673258 -0.034703434 0.011588997 0.15084055 0.063732676
0.118345045 0.30155703 -0.3328978 0.29379225 0.2757232 0.08117338 0.06807463 0.060848247
0.14480527 -0.12770937 0.08591459 -0.27865052 -0.031465203 -0.04442178 -0.44183925 0.03930099
0.17158625 0.12104964 -0.30225435 -0.14648604 -0.058066007 -0.004188573 0.10707013 0.022270225
-0.0015904342 -0.09128575 -0.09640522 -0.069763884 -0.02154509 -0.17960815 -0.11433156 -0.120535515
0.041330583 -0.11892091 0.03623599 -0.12908345 -0.14792515 -0.15691671 -0.060471594 -0.10521919
-0.12549238 0.24058217 -0.017549768 0.11088281 0.092395246 -0.032547977 -0.010923091 0.32612714
-0.084828384 -0.063563645 -0.33252254 0.13232246 0.28720686 0.0798884 0.09590771 0.16202399
0.3439358 0.024257004 0.07276568 0.26006585 -0.13591252 0.4270033 0.10676071 0.11607537
0.015636737 0.028068548 -0.011334202 -0.009211089 0.15744665 0.18294033 -0.087795645 0.3255792
0.33560178 0.015091496 -0.27588642 -0.020858785 0.07939017 0.23900384 -0.051788997 0.47791404
0.3584773 0.066938676 0.8463511 -0.05395415 -0.08131239 0.19329134 0.053750042 0.025260996
-0.16782641 -0.022272952 0.16797484 -0.020476412 0.023275914 -0.027423061 -0.15234393 0.22457515
-0.2751655 0.08813388 0.5703449 -0.15121342 0.043446403 -0.013515576 -0.11363195 0.03300122
0.026225623 0.20022906 0.13356358 0.058788426 0.049792454 0.1849015 -0.1398652 0.10430479
-0.04271118 0.021524817 -0.38232422 -0.063119516 0.11434621 0.02394152 -0.15305662 -0.0661408
0.04170661 -0.101441495 -0.12755685 0.100728564 -0.052596126 -0.088295355 0.09998269 -0.054243203
-0.08367999 -0.015929164 0.1981539 -0.099785365 -0.037586078 -0.16501473 -0.024690807 -0.03973087
-0.007538448 -0.11531904 0.21190369 0.06574233 -0.09354068 -0.011663185 0.18186052 0.16621098
-0.0040279864 0.1204623 0.0027688576 -0.28819257 -0.10764584 -0.008591076 0.06659551 -0.046565074
-0.14812614 -0.04611965 -0.04587946 -0.08753401 -0.124535106 -0.32235456 -0.13985305 -0.16806297
-0.080671705 -0.0026685533 0.10855716 -0.03594509 -0.3222336 -0.10604317 -0.04382375 -0.14872803
-0.15437274 -0.1172122 -0.022294808 0.04838335 -0.124933496 0.05304548 0.036452234 -0.0057184226
00000000: a42d 423e c855 d8bd 2873 923e a08f 223e
00000010: 2d9f e4bc 9a03 c53d 58dd 9c3b df1a 3fbe
00000020: dce5 81bd 30b9 42ba d3fa 103e 4396 b5bd
00000030: 7c1d d53d 6937 2fbe b8db 45be 9e0f 593e
00000040: e9ff 23be 6932 3f3e cec5 b53d 7e9f d0bc
00000050: d14f 21be 75ca 67bd 44c3 53bd fc5b 023e
00000060: c6b2 da3d c3c3 94be e942 16be 9290 b5be
00000070: f0c9 7c3d 90fb 37bd 2db3 923e 5cd9 22be
00000080: 780f 9b3e 2393 afbc 62d4 be3e 6a8d 773d
00000090: 64d9 d93d 42c7 b6be 8b05 8d3c 341d ae3e
000000a0: 7f13 833d b2d1 133e e656 cfbd 2ad8 50be
000000b0: 8c94 93bd 97c9 663e 55fb fb3d b533 bdbd
000000c0: 9612 02be 1c23 13be 4ca3 fc3d 5a58 f9bb
000000d0: cc83 6fbc c067 043d b07f 50bd 7e36 86bd
000000e0: 06cd cdbd 0125 eb3e 840d 15be 8929 1d3f
000000f0: f091 c73c 0b3c 4bbe 0fe2 6f3f 5a12 37bb
00000100: 208d ee3e 304a 753d dd30 db3d ce30 453e
00000110: a870 023d 9400 17be c636 24be 116b 093e
00000120: 791f 3b3e e3e1 843e 1341 bebd bb1b c6bd
00000130: 3025 0ebd c7df 3d3c f275 1a3e 4786 823d
00000140: e35e f23d af65 9a3e 9571 aabe f06b 963e
00000150: 972b 8d3e 3b3e a63d b66a 8b3d 033c 793d
00000160: d547 143e 3fc6 02be fdf3 af3d 48ab 8ebe
00000170: a8e1 00bd 9df3 35bd c138 e2be 13fa 203d
00000180: 4eb4 2f3e e0e8 f73d 15c1 9abe 7000 16be
00000190: 9fd6 6dbd 4c40 89bb 9647 db3d 0c70 b63c
000001a0: 1e76 d0ba 06f4 babd 1a70 c5bd 5ee0 8ebd
000001b0: 547f b0bc 33eb 37be aa26 eabd 53db f6bd
000001c0: 424a 293d ce8c f3bd 306c 143d 742e 04be
000001d0: b179 17be c6ae 20be 10b1 77bd 297d d7bd
000001e0: 1381 00be 2c5b 763e 88c4 8fbc 8716 e33d
000001f0: b839 bd3d 0751 05bd c4f6 32bc 23fa a63e
00000200: 81ba adbd a82d 82bd 6540 aabe 8a7f 073e
00000210: c70c 933e 889c a33d 436b c43d 9ee9 253e
00000220: 5a18 b03e a0b6 c63c 2c06 953d 5a27 853e
00000230: a72c 0bbe 2da0 da3e 5ca5 da3d ecb8 ed3d
00000240: 9d18 803c 03f0 e53c 17b3 39bc 1cea 16bc
00000250: b239 213e b654 3b3e 34ce b3bd 51b2 a63e
00000260: ffd3 ab3e 5242 773c fc40 8dbe 0be0 aabc
00000270: 5097 a23d 6cbd 743e b320 54bd 26b1 f43e
00000280: 568a b73e 2517 893d 77aa 583f 07ff 5cbd
00000290: 1c87 a6bd 2aee 453e 0129 5c3d 26f0 ce3c
000002a0: b0da 2bbe c475 b6bc 9901 2c3e 26be a7bc
000002b0: 21ad be3c 54a6 e0bc 0c00 1cbe 07f7 653e
000002c0: 7ee2 8cbe 897f b43d 2002 123f b1d7 1abe
000002d0: dbf4 313d 6f70 5dbc deb7 e8bd 4a2c 073d
000002e0: 1ed7 d63c d908 4d3e e4c4 083e 22cc 703d
000002f0: 2cf3 4b3d d256 3d3e d338 0fbe c09d d53d
00000300: ebf1 2ebd d054 b03c 00c0 c3be ce44 81bd
00000310: 592e ea3d 0221 c43c e0ba 1cbe d474 87bd
00000320: 8dd4 2a3d 8fc0 cfbd 439e 02be c74a ce3d
00000330: 096f 57bd 32d4 b4bd b9c3 cc3d 1f2e 5ebd
00000340: 6a60 abbd e17d 82bc dbe8 4a3e 455c ccbd
00000350: dcf3 19bd 9ff9 28be 6044 cabc d6bc 22bd
00000360: 1605 f7bb 642c ecbd 48fd 583e eaa3 863d
00000370: 4292 bfbd f216 3fbc a539 3a3e 3633 2a3e
00000380: 33fd 83bb f0b4 f63d b975 353b fa8d 93be
00000390: 6c75 dcbd 96c1 0cbc 3a63 883d 05bb 3ebd
000003a0: 61ae 17be f5e7 3cbd 1aec 3bbd 0845 b3bd
000003b0: 430c ffbd a80b a5be a335 0fbe b318 2cbe
000003c0: 3537 a5bd e5e2 2ebb 3753 de3d 293b 13bd
000003d0: cdfb a4be 292d d9bd 8880 33bd 294c 18be
000003e0: e313 1ebe f30c f0bd 9aa3 b6bc 9f2d 463d
000003f0: 22dd ffbd 3846 593d f04e 153d 9b61 bbbb

graph_rnn.weight_hh_l0 f4 [192, 64]
-0.11621859 0.14715011 0.03834684 -0.13392784 0.081154704 -0.033934668 0.1104561 -0.38092145
-0.09559569 0.04775176 0.13487908 -0.02342029 -0.20699216 0.09899611 0.06209365 0.13518383
0.061521545 -0.07728236 -0.028321505 0.065637626 0.07324034 -0.06034944 -0.14803402 0.09024585
-0.17348965 0.0033483133 -0.072635606 -0.060432702 -0.15341613 -0.06174633 0.25249195 -0.026075346
-0.21455634 0.083367825 -0.08105633 -0.05883122 0.042029936 -0.101487294 0.27503172 0.100894466
-0.068919264 -0.04289606 0.1897743 0.101947695 0.026074983 0.2849473 0.2635097 0.23464955
-0.13386033 -0.074904844 -0.052357834 -0.17805116 0.074701294 -0.18409263 0.045833994 -0.09907695
-0.011778181 -0.116255894 -0.120894164 -0.008464966 -0.31688535 -0.075985216 -0.15819788 -0.11102935
0.026801577 -0.123943076 -0.040677585 0.00076803187 -0.08172544 0.13061294 -0.09674999 0.40349054
0.16851923 -0.3149403 -0.03480425 -0.02560648 0.10160402 -0.111570746 -0.038338285 -0.0076673054
-0.07483225 -0.29636243 0.014396279 0.07473274 -0.021035241 0.1670753 0.038497407 -0.07427397
0.29858938 0.08018859 0.43520507 -0.12074888 0.23376408 -0.14868246 -0.2501727 -0.07291177
-0.084707685 -0.07476754 0.027559206 0.27510995 -0.17855118 0.15701638 -0.23288232 -0.14767696
-0.020211902 0.1643233 -0.15860593 -0.049016528 0.18763351 0.10641803 -0.13265179 -0.008589885
0.053993925 0.15219043 0.031805478 0.20382102 -0.1945504 0.042387206 -0.091234215 0.061445612
0.093367055 0.054166604 -0.18364641 -0.2021945 0.09215725 -0.041058116 0.049800597 0.41322258
-0.07818565 -0.058080554 0.082620986 0.04758521 -0.008210859 -0.024016343 -0.21701792 0.27464733
-0.15721412 0.07727071 -0.031787857 -0.16905071 0.10488527 -0.021661757 0.092997454 0.02915936
0.021473562 -0.16743669 0.2582956 -0.0044877413 0.009132207 0.08737203 -0.09836402 0.1749365
0.18366131 0.0067443396 -0.034693886 0.04409331 0.030522266 0.15892033 0.0079891775 -0.08558411
-0.018245144 -0.050672688 0.110681795 0.17762747 0.00451609 0.01390022 -0.087432414 -0.43826774
0.38345188 0.47965738 0.020168142 -0.2872784 -0.19699301 0.07877773 -0.0060078828 0.26922664
0.42842305 0.1720943 -0.24156603 0.48561913 0.1438698 -0.06723328 -0.099181674 -0.13295372
0.013054662 -0.0043631652 -0.03953535 -0.035585117 0.21456823 0.040568087 0.058117136 0.30413365
-0.1014768 0.047243576 -0.045437966 -0.23243272 0.033900183 -0.002920356 0.18112625 -0.22712101
-0.03845836 -0.0723476 0.09276377 0.05598344 -0.13213192 0.021727614 0.06981177 0.0563922
-0.0022182986 -0.08588737 -0.19661994 0.08021239 0.039953902 0.012174052 -0.19060081 0.06478286
-0.028253933 -0.0589253 -0.08810353 0.08171094 -0.10319039 0.050078806 0.3981582 0.0039719488
0.017012853 0.08765103 -0.10257568 -0.088503726 -0.19278893 0.10609634 0.15208873 0.20600465
-0.16879304 0.027406644 0.20264596 -0.024637587 -0.0009409947 0.11808984 0.19060433 0.015767254
-0.23388061 -0.07690141 -0.021548344 -0.027013676 0.035955835 0.08313519 -0.12820749 -0.037896253
-0.0114642605 0.2361858 0.14469194 -0.043752495 -0.25485086 -0.023376273 0.18184745 -0.11703628
00000000: 0304 eebd 85ae 163e 9311 1d3d 6124 09be
00000010: 7034 a63d 14ff 0abd cf36 e23d 2308 c3be
00000020: acc7 c3bd 5997 433d be1d 0a3e e8db bfbc
00000030: c1f5 53be 79be ca3d e955 7e3d a16d 0a3e
00000040: 04fe 7b3d 3746 9ebd 8002 e8bc 056d 863d
00000050: 08ff 953d f930 77bd 3b96 17be d1d2 b83d
00000060: 45a7 31be 606f 5b3b fac1 94bd 4888 77bd
00000070: 1e19 1dbe b8e9 7cbd a046 813e f79b d5bc
00000080: a8b4 5bbe c0bc aa3d dc00 a6bd 01f9 70bd
00000090: 9527 2c3d 92d8 cfbd f5d0 8c3e c2a1 ce3d
000000a0: 8b25 8dbd c7b3 2fbd 3254 423e f4c9 d03d
000000b0: 349b d53c 9de4 913e beea 863e f947 703e
000000c0: af12 09be b667 99bd 2b75 56bd 0b53 36be
000000d0: fefc 983d c782 3cbe 6dbc 3b3d dbe8 cabd
000000e0: 46f9 40bc 9217 eebd 5c97 f7bd a4b0 0abc
000000f0: cc3e a2be 239e 9bbd a0fe 21be 5b63 e3bd
00000100: fb8e db3c ded5 fdbd 8a9d 26bd bf55 493a
00000110: ab5f a7bd 66bf 053e dc24 c6bd 5096 ce3e
00000120: 4e90 2c3e db3f a1be e78e 0ebd aec4 d1bc
00000130: c515 d03d 347f e4bd 9b08 1dbd 053e fbbb
00000140: a741 99bd d1bc 97be 5fde 6b3c 7b0d 993d
00000150: 1952 acbc ca15 2b3e 75af 1d3d f41c 98bd
00000160: b5e0 983e ea39 a43d 33d3 de3e 304b f7bd
00000170: da5f 6f3e 3740 18be a316 80be c452 95bd
00000180: 397b adbd b91f 99bd d8c3 e13c 36db 8c3e
00000190: 1fd6 36be e7c8 203e b478 6ebe a138 17be
000001a0: 6e93 a5bc 5e44 283e 9869 22be 8ec5 48bd
000001b0: 0023 403e b2f1 d93d dfd5 07be 97bc 0cbc
000001c0: bc28 5d3d cfd7 1b3e 7646 023d 75b6 503e
000001d0: 3838 47be 359e 2d3d 01d9 babd 65ae 7b3d
000001e0: 3a37 bf3d cddd 5d3d ce0d 3cbe 130c 4fbe
000001f0: f1bc bc3d 8e2c 28bd b6fb 4b3d e991 d33e
00000200: cc1f a0bd e0e5 6dbd 3135 a93d b6e8 423d
00000210: d786 06bc ecbd c4bc f239 5ebe 939e 8c3e
00000220: bdfc 20be 1b40 9e3d fc33 02bd a11b 2dbe
00000230: 17ce d63d ff73 b1bc 7375 be3d 9cdf ee3c
00000240: 53e9 af3c 8674 2bbe 523f 843e e70d 93bb
00000250: 419f 153c 1bf0 b23d 1373 c9bd 8e22 333e
00000260: b611 3c3e 9fff dc3b 2d1b 0ebd 309b 343d
00000270: d509 fa3c 03bc 223e 0ae5 023c b946 afbd
00000280: d776 95bc 2a8e 4fbd 23ad e23d fae3 353e
00000290: b5fb 933b c0bd 633c c40f b3bd a164 e0be
000002a0: ce53 c43e a795 f53e a937 a53c 2816 93be
000002b0: 89b8 49be 3856 a13d c6dd c4bb 13d8 893e
000002c0: 445a db3e 7d39 303e 165d 77be 12a3 f83e
000002d0: 9b52 133e 9ab1 89bd c31f cbbd 0525 08be
000002e0: 39e3 553c e2f8 8ebb d2ef 21bd b3c1 11bd
000002f0: c6b7 5b3e b92a 263d 3c0c 6e3d 68b7 9b3e
00000300: 12d3 cfbd 7b82 413d 291d 3abd d802 6ebe
00000310: ebda 0a3d 7263 3fbb 2979 393e 6992 68be
00000320: 8386 1dbd fa2a 94bd eefa bd3d e44e 653d
00000330: 974d 07be 1cfe b13c 79f9 8e3d 82fb 663d
00000340: e060 11bb b8e5 afbd bd56 49be 6546 a43d
00000350: b4a6 233d ad75 473c dc2c 43be e0ac 843d
00000360: cb74 e7bc a85b 71bd a06f b4bd 1158 a73d
00000370: 7c55 d3bd 6f1f 4d3d 64db cb3e 1f27 823b
00000380: 8a5e 8b3c 6282 b33d 3313 d2bd 7141 b5bd
00000390: 766a 45be 0a49 d93d 26bd 1b3e e2f2 523e
000003a0: 15d8 2cbe e683 e03c 6c82 4f3e c4d4 c9bc
000003b0: 16ad 76ba 16d9 f13d c82d 433e 542a 813c
000003c0: 667e 6fbe 7d7e 9dbd 2786 b0bc c94b ddbc
000003d0: 6d46 133d c842 aa3d d348 03be 1a39 1bbd
000003e0: 98d4 3bbc b1da 713e 202a 143e d135 33bd
000003f0: d07b 82be 997f bfbc 3836 3a3e b8b0 efbd

graph_rnn.bias_ih_l0 f4 [192]
0.011638701 0.009550289 -0.097063415 -0.03048497 -0.0953635 0.15592444 -0.028350584 -0.08708257
-0.09488957 -0.071296915 -0.05891753 -0.04654944 -0.102198705 -0.07850118 -0.09915857 0.07097621
0.15255262 -0.119068705 -0.070007466 0.035790194 0.20797835 -0.024805658 0.17370187 0.2558621
0.050317094 0.16053219 -0.14348425 0.027051903 -0.05431121 0.18486804 -0.06027756 0.03833579
-0.026464831 -0.039505925 0.14117634 -0.026648277 -0.036267072 0.07544253 0.060345925 0.19138509
0.022372387 0.13988242 0.14597608 -0.0020258606 0.011619634 -0.062207516 -0.002578721 0.05294098
-0.082110435 -0.066708155 -0.04288855 -0.016832292 -0.10604298 -0.010436866 0.05909163 0.090490855
-0.1202016 0.036954988 0.09735405 0.1668349 0.14648646 -0.040030368 -0.007046615 0.1801843
-0.011201162 -0.07426196 -0.0116643105 0.08555366 -0.06097829 -0.0033258046 -0.059171975 -0.018103477
-0.14548415 -0.060142096 -0.111975305 -0.10103282 -0.021382883 -0.40535435 0.21563877 -0.07555084
0.088924676 -0.12044079 -0.09074714 -0.017006956 0.006620889 -0.17299081 0.1383236 -0.14503276
-0.18113387 -0.2344986 -0.44596797 -0.07923519 -0.037264675 0.06793232 -0.074181065 0.13918367
0.07783743 -0.25674868 -0.17538704 -0.07243434 -0.0913471 0.039661035 -0.30357578 -0.56663966
0.034480084 -0.29029307 -0.121066146 -0.028182335 0.10508795 0.104809105 -0.122474425 0.024431068
-0.31618336 -0.09942596 -0.06625874 -0.22531499 0.035737026 0.02495301 -0.2416838 -0.3550866
-0.05313551 -0.06884647 0.0068497784 0.038765684 0.023630027 -0.20278558 -0.35213673 -0.3567934
0.0057773027 -0.0506819 0.07478145 -0.03538381 -0.05172278 -0.08544035 -0.021913707 -0.1333981
0.01251976 0.08027192 0.033638008 0.033074073 -0.09218272 0.1886103 -0.16647327 0.13070342
0.016042411 0.02808954 -0.13730165 0.08133387 0.21856602 -0.12663606 0.102893025 -0.08536379
0.0745087 -0.27260557 -0.09907377 0.15359697 -0.10419345 -0.037599523 0.17257056 0.003182974
0.051040858 0.062476408 -0.14490244 0.04606454 -0.13893713 0.1406565 0.05353431 -0.10476332
-0.1280137 0.17570472 0.016099622 -0.12848406 0.11008022 0.074604034 0.032366302 0.017437225
-0.037153427 0.12666383 0.01828363 -0.078315124 0.08949848 -0.15008338 0.16396117 -0.16134886
-0.041227706 0.19670497 -0.034610216 -0.0316335 0.0051599373 0.1497588 -0.14823553 -0.12711735
00000000: 40b0 3e3c d178 1c3c 2fc9 c6bd 9ebb f9bc
00000010: f04d c3bd a8aa 1f3e 7c3f e8bc 5958 b2bd
00000020: 7655 c2bd 1e04 92bd 8253 71bd a0aa 3ebd
00000030: 8e4d d1bd 3ac5 a0bd a613 cbbd fa5b 913d
00000040: c136 1c3e 4bda f3bd 1360 8fbd bd98 123d
00000050: 47f8 543e 3c35 cbbc e7de 313e 5b00 833e
00000060: 4c19 4e3d 8d62 243e 89ed 12be f49b dd3c
00000070: 6e75 5ebd 0c4e 3d3e 9ae5 76bd fd05 1d3d
00000080: c6cc d8bc f7d0 21bd 8890 103e 7d4d dabc
00000090: c88c 14bd 9d81 9a3d 4a2d 773d 74fa 433e
000000a0: 4c46 b73c 563d 0f3e c17a 153e 4dc4 04bb
000000b0: 4760 3e3c 4fcd 7ebd c2ff 28bb a4d8 583d
000000c0: 8429 a8bd 499e 88bd e7ab 2fbd e0e3 89bc
000000d0: 102d d9bd 64ff 2abc 110a 723d 4553 b93d
000000e0: 422c f6bd 1d5e 173d 8f61 c73d c5d6 2a3e
000000f0: 8c00 163e e2f6 23bd 4ae7 e6bb 3c82 383e
00000100: 1485 37bc a816 98bd aa1b 3fbc c236 af3d
00000110: 5fc4 79bd bef5 59bb 505e 72bd be4d 94bc
00000120: ccf9 14be 8f57 76bd 4f53 e5bd 4cea cebd
00000130: 282b afbc 9b8a cfbe 69d0 5c3e 66ba 9abd
00000140: 241e b63d a9a9 f6bd a3d9 b9bd 2c52 8bbc
00000150: 0bf4 d83b 8124 31be b4a4 0d3e 7883 14be
00000160: 287b 39be 6720 70be ea55 e4be 0f46 a2bd
00000170: d8a2 18bd 1a20 8b3d 3eec 97bd 2a86 0e3e
00000180: 3b69 9f3d 9074 83be a998 33be 7558 94bd
00000190: 3014 bbbd 9c73 223d 496e 9bbe 4c0f 11bf
000001a0: fd3a 0d3d 4ba1 94be 87f1 f7bd a4de e6bc
000001b0: 5a38 d73d 28a6 d63d dfd3 fabd aa23 c83c
000001c0: c9e2 a1be d69f cbbd aab2 87bd f9b8 66be
000001d0: fd60 123d 416a cc3c f57b 77be e9cd b5be
000001e0: 9fa4 59bd 61ff 8cbd 1b74 e03b c4c8 1e3d
000001f0: c293 c13c 06a7 4fbe 444b b4be a0ad b6be
00000200: 874f bd3b d397 4fbd 0427 993d 9dee 10bd
00000210: 44db 53bd 5afb aebd 6084 b3bc 8399 08be
00000220: ae1f 4d3c 9b65 a43d 02c8 093d ae78 073d
00000230: 4bca bcbd 0f23 413e f877 2abe 1ed7 053e
00000240: 606b 833c 091c e63c ce98 0cbe 5f92 a63d
00000250: c5cf 5f3e e2ac 01be 94b9 d23d 36d3 aebd
00000260: 0498 983d f592 8bbe 30e7 cabd 8648 1d3e
00000270: 6063 d5bd f501 1abd 56b6 303e 7199 503b
00000280: 3810 513d 43e7 7f3d 4e61 14be 2cae 3c3d
00000290: 8945 0ebe 4208 103e cb46 5b3d 278e d6bd
000002a0: 0616 03be f0eb 333e 5be3 833c 5391 03be
000002b0: bd71 e13d 00ca 983d 8792 043d 83d8 8e3c
000002c0: 312e 18bd 2ab4 013e 8dc7 953c ae63 a0bd
000002d0: fb4a b73d 75af 19be 70e5 273e a338 25be
000002e0: 62de 28bd 076d 493e 71c3 0dbd 2192 01bd
000002f0: b114 a93b 5f5a 193e 0ecb 17be 0d2b 02be

graph_rnn.bias_hh_l0 f4 [192]
0.13472353 -0.037962243 0.11738357 0.10442424 0.09437456 -0.0903949 0.067470916 0.037548784
0.03330359 -0.14432032 -0.04552105 -0.031757303 -0.16028027 -0.28427798 -0.0887213 0.008699392
0.08656429 -0.0065366975 -0.0045488277 0.09195541 0.18150066 0.042022325 0.07948867 0.13703422
0.090259835 -0.036035467 -0.0875177 -0.00066728005 0.12720756 0.17708695 -0.122693054 -0.10039304
-0.044490807 -0.05347422 0.025209708 -0.03308098 -0.025126975 0.17231566 -0.0039848504 0.052877996
-0.17363136 0.16220558 -0.023279063 0.16558191 0.08228561 0.08151255 -0.051522 0.10350843
0.036556423 0.1008755 0.13555887 0.08867661 -0.06485376 -0.06590006 0.07269348 -0.00066767173
0.07830562 0.12757036 0.041762363 0.16181694 0.04468412 -0.03757341 0.004706922 -0.0067356266
-0.08512359 -0.0039993743 -0.11422093 0.048415624 -0.23283762 0.0028111404 -0.16546553 -0.20865123
-0.2203876 0.035833806 0.04150378 -0.0834272 -0.0046829977 -0.2913877 0.14475651 0.1346682
-0.06946087 -0.110031955 -0.10612439 0.022543289 -0.036040757 -0.09878804 -0.037698958 -0.06408699
-0.18954474 -0.12634195 -0.26131487 -0.07497532 0.021979768 0.16592336 -0.058094986 0.106708884
0.0024374824 -0.060247324 -0.19016531 -0.2037856 0.046977274 -0.06331985 -0.2196834 -0.4679435
0.11760083 -0.096498385 -0.04035453 -0.04783698 0.09562971 0.093147755 -0.16273965 -0.04433163
-0.17799848 -0.06914477 -0.23551777 -0.31424364 0.008735168 -0.06786746 -0.22466028 -0.39920855
-0.10248347 -0.11033247 0.1300099 0.04462691 0.014388319 -0.28171706 -0.1591174 -0.40673816
0.05793281 -0.041004606 0.064863436 -0.04444994 -0.19069545 -0.070706345 8.0087986e-05 -0.21200486
-0.05208287 -0.06632709 -0.011848252 0.06163044 -0.070674114 0.13726477 0.021375835 0.19565098
-0.062055245 0.21224591 -0.10647305 0.14607748 0.22089788 -0.117977254 0.1978131 0.120013684
-0.082127556 -0.1821951 -0.0342799 0.051286597 -0.06470387 0.1142462 0.116258495 -0.08305527
-0.117418274 0.16498241 -0.02876491 0.07454005 -0.01590794 0.024310285 0.202479 -0.037835743
-0.042375572 -0.23178199 -0.018033998 -0.03762701 0.054540806 0.02946937 0.22035351 -0.1222822
-0.12282842 0.10170451 0.085200846 0.07002566 0.037315123 -0.058164757 0.0968838 -0.13534643
-0.07995866 -0.057911936 0.06452508 0.24772443 -0.09001859 0.10900664 -0.08839893 -0.20025258
00000000: f7f4 093e 4c7e 1bbd cc66 f03d 60dc d53d
00000010: 7347 c13d f620 b9bd 312e 8a3d c1cc 193d
00000020: 5869 083d b5c8 13be 4874 3abd f213 02bd
00000030: 8320 24be e28c 91be 83b3 b5bd e587 0e3c
00000040: 9e48 b13d cb31 d6bb 550e 95bb 1e53 bc3d
00000050: 4fdb 393e 9a1f 2c3d f5ca a23d b352 0c3e
00000060: 26da b83d ed99 13bd 7b3c b3bd 68ec 2eba
00000070: b342 023e 4856 353e 7f46 fbbd de9a cdbd
00000080: fe3b 36bd c907 5bbd 9784 ce3c ec7f 07bd
00000090: 16d7 cdbc 8473 303e 5993 82bb 9996 583d
000000a0: 6bcc 31be 3819 263e bcb3 bebc 4e8e 293e
000000b0: 5c85 a83d 0df0 a63d bc08 53bd 3afc d33d
000000c0: 30bc 153d d097 ce3d f2cf 0a3e 159c b53d
000000d0: 0cd2 84bd 9cf6 86bd 52e0 943d b106 2fba
000000e0: b25e a03d cea1 023e 030f 2b3d 57b3 253e
000000f0: b206 373d 93e6 19bd 863c 9a3b 88b6 dcbb
00000100: 4755 aebd 2f0d 83bb aaec e9bd 764f 463d
00000110: fc6c 6ebe 1c3b 383b cc6f 29be aba8 55be
00000120: 49ad 61be 78c6 123d deff 293d e1db aabd
00000130: d573 99bb c530 95be 0d3b 143e 76e6 093e
00000140: 8041 8ebd 6f58 e1bd bf57 d9bd b4ac b83c
00000150: 799f 13bd 6251 cabd 396a 1abd 0a40 83bd
00000160: 0418 42be c95f 01be 10cb 85be a98c 99bd
00000170: ea0e b43c d0e7 293e 02f5 6dbd 308a da3d
00000180: 2bbe 1f3b e6c5 76bd b2ba 42be 2cad 50be
00000190: 3e6b 403d d6ad 81bd aff4 60be 4a96 efbe
000001a0: b4d8 f03d f2a0 c5bd cb4a 25bd b6f0 43bd
000001b0: 82d9 c33d 40c4 be3d 39a5 26be 1595 35bd
000001c0: 3c45 36be c69b 8dbd 922b 71be 8be4 a0be
000001d0: f31d 0f3c 18fe 8abd 580d 66be 1065 ccbe
000001e0: dbe2 d1bd fdf5 e1bd 5121 053e b5ca 363d
000001f0: fcbc 6b3c 383d 90be acef 22be fc3f d0be
00000200: f44a 6d3d 72f4 27bd 1fd7 843d 2411 36bd
00000210: ab45 43be 7dce 90bd e9f4 a738 cd17 59be
00000220: d954 55bd 7fd6 87bd 2c1f 42bc 3370 7c3d
00000230: 97bd 90bd 238f 0c3e 601c af3c bb58 483e
00000240: a42d 7ebd fe56 593e 8b0e dabd 5695 153e
00000250: 0e33 623e 0f9e f1bd 848f 4a3e bcc9 f53d
00000260: 7e32 a8bd 5a91 3abe 1569 0cbd e511 523d
00000270: 7683 84bd e9f9 e93d ef18 ee3d e218 aabd
00000280: fe78 f0bd 26f1 283e 63a4 ebbc 74a8 983d
00000290: 5e51 82bc 5d26 c73c a856 4f3e a7f9 1abd
000002a0: 0292 2dbd 4258 6dbe 09bc 93bc c81e 1abd
000002b0: 2e66 5f3d c069 f13c 5aa4 613e 176f fabd
000002c0: 778d fbbd 744a d03d c87d ae3d 9d69 8f3d
000002d0: bed7 183d 2b3e 6ebd 046b c63d 4198 0abe
000002e0: 5ec1 a3bd 1135 6dbd ba25 843d 79ab 7d3e
000002f0: ab5b b8bd e03e df3d 800a b5bd 030f 4dbe

graph_rnn.weight_ih_l1 f4 [192, 64]
-0.09723415 0.12934604 -0.43604153 -0.07185388 -0.22753823 0.15049113 0.048970196 -0.1037355
-0.019869251 -0.2366379 -0.012440914 0.14240283 -0.2558493 0.75882787 -0.16637336 0.00030621278
-0.41598988 0.045497384 -0.20279181 0.084783055 -0.033429507 -0.10278295 0.01745734 -0.04222253
-0.3500382 -0.07062008 -0.11490523 0.26326615 -0.17790948 -0.07055125 0.32058123 0.07048762
-0.078897804 0.22436027 -0.2837038 -0.27073413 -0.62458944 0.12444652 0.1644109 -0.35592175
-0.46505445 0.4602434 -0.104777485 0.00985343 0.16002518 0.21540178 0.055860303 -0.50613296
0.4390747 0.15625009 0.0030411386 -0.35316053 -0.13676782 0.06807702 0.021698626 -0.22276446
-0.054419264 -0.10023629 0.06512561 -0.025812231 -0.22415802 -0.13451968 -0.36805195 -0.24250448
0.05065881 0.10639538 -0.00010620746 0.052206613 0.12839504 0.1761935 0.1569349 -0.111020304
-0.069009155 -0.15978305 -0.13526456 -0.04404 0.0012513282 0.15973802 0.04851429 -0.19523388
-0.12950973 0.032542672 -0.25078946 0.19170949 0.12241331 -0.08838524 0.049449675 0.06783914
-0.10560189 -0.04819682 -0.058453433 0.14948322 -0.11868125 0.068860754 0.02210309 0.21576822
0.04996801 0.082675084 -0.022157414 0.41515398 -0.20085037 0.02029776 -0.058785427 -0.034192882
-0.6287854 -0.122877605 -0.38808334 0.13340786 0.016438745 0.15809894 0.16189739 -0.23527047
-0.058950763 0.119617775 0.10854143 -0.23373333 0.06771709 0.2740077 0.25168192 0.018000195
0.13322306 -0.08765271 -0.06374179 -0.032945473 0.1604935 0.10285361 -0.015844079 -0.10245457
-0.14275165 0.17948395 -0.5219669 -0.3771957 -0.10171099 0.6964194 0.120115586 -0.4977315
-0.06841826 -0.1666199 0.10150315 -0.07348759 -0.45923233 -0.03397718 0.24870296 -0.05879537
-0.107678145 0.20391302 0.024683721 -0.074006215 0.06449151 -0.41595578 0.009783442 0.2624299
-0.34235567 0.1637181 -0.30186227 0.18874487 -0.54001206 -0.12590076 0.1014187 -0.4817047
0.12107735 0.25593108 -0.67036647 0.14834993 -0.4576088 -0.10672342 0.15631698 -0.104153916
-0.20021221 0.23835666 0.012222549 0.16261756 0.20309232 0.25118026 0.18959494 -0.38493162
-0.11823075 0.6884393 -0.30038884 0.09213413 -0.015950521 -0.021792067 -0.70097387 -0.51901793
-0.5941671 0.07352103 0.43601614 0.073208496 -0.45986977 -0.12978294 -0.22635585 0.13703477
-0.09693084 -0.03925361 -0.590632 0.14347129 -0.23566978 0.33748135 0.30033088 -0.092671454
-0.5847959 0.21588431 0.41140243 -0.5924652 -0.91372055 -0.01018884 -0.12488715 0.13681915
-0.46914893 0.040455595 -0.010375704 0.38395214 0.2451343 -0.26398152 0.25302476 0.004684078
0.033949796 -0.08616169 -0.22686523 0.57239807 -0.52756184 -0.052585587 0.22273353 -0.38284376
-0.40553743 0.528381 -0.49325812 -0.04212751 -0.6480325 0.2734598 -0.07940985 -0.25036988
-0.5247455 -0.48247933 -0.82233846 -0.3144593 0.20957793 0.38128948 -0.04690701 -0.19796471
-0.07204749 0.48585457 0.44050968 -0.038603056 0.031397805 0.06620423 -0.18808165 0.0013937091
-0.055690736 0.57492 0.8030813 -0.06985694 -0.36792848 0.38561296 0.02796686 0.21739337
00000000: b322 c7bd 4a73 043e d640 dfbe 2128 93bd
00000010: c8ff 68be 591a 1a3e f994 483d 4773 d4bd
00000020: d7c4 a2bc 3551 72be fad4 4bbc 0cd2 113e
00000030: aefe 82be 8b42 423f c75d 2abe 2f8b a039
00000040: a0fc d4be 775b 3a3d a8a8 4fbe bda2 ad3d
00000050: 61ed 08bd de7f d2bd b202 8f3c 88f1 2cbd
00000060: 3538 b3be 43a1 90bd 6f53 ebbd d2ca 863e
00000070: e72d 36be 2c7d 90bd 3923 a43e d05b 903d
00000080: 2c95 a1bd b3be 653e a041 91be aa9d 8abe
00000090: 18e5 1fbf d1dd fe3d 555b 283e 603b b6be
000000a0: 9e1b eebe 06a5 eb3e 9495 d6bd 4870 213c
000000b0: a4dd 233e 4992 5c3e c6cd 643d ee91 01bf
000000c0: 66ce e03e 0600 203e d74d 473b 75d1 b4be
000000d0: dd0c 0cbe f76b 8b3d 51c1 b13c 5e1c 64be
000000e0: bce6 5ebd af48 cdbd 9360 853d 2c74 d3bc
000000f0: ae89 65be 87bf 09be 4e71 bcbe 1853 78be
00000100: 9d7f 4f3d d2e5 d93d b2bb deb8 9ad6 553d
00000110: fd79 033e 126c 343e 8bb3 203e 9d5e e3bd
00000120: ac54 8dbd 2b9e 23be cb82 0abe 4963 34bd
00000130: 9b03 a43a 5d92 233e ecb6 463d 64eb 47be
00000140: 339e 04be 774b 053d 7a67 80be 7e4f 443e
00000150: d4b3 fa3d 5203 b5bd be8b 4a3d 3fef 8a3d
00000160: ce45 d8bd 076a 45bd de6c 6fbd 2112 193e
00000170: 280f f3bd de06 8d3d 8a11 b53c 58f2 5c3e
00000180: 42ab 4c3d 8e51 a93d 7783 b5bc 108f d43e
00000190: b8ab 4dbe 7d47 a63c fdc8 70bd d60d 0cbd
000001a0: 14f8 20bf 41a7 fbbd dcb2 c6be 129c 083e
000001b0: 8caa 863c b0e4 213e 6ec8 253e beea 70be
000001c0: 5b76 71bd 2afa f43d f84a de3d ca57 6fbe
000001d0: 42af 8a3d bd4a 8c3e 74dc 803e 2575 933c
000001e0: a06b 083e 4483 b3bd 0e8b 82bd d5f1 06bd
000001f0: 6858 243e eaa4 d23d 71cb 81bc b4d3 d1bd
00000200: 7d2d 12be a4ca 373e 9f9f 05bf cb1f c1be
00000210: da4d d0bd 8b48 323f 29ff f53d aad6 febe
00000220: df1e 8cbd 689e 2abe e2e0 cf3d a980 96bd
00000230: 8020 ebbe a82b 0bbd fdab 7e3e 6ad3 70bd
00000240: 5c86 dcbd 93ce 503e 8435 ca3c 9290 97bd
00000250: 2014 843d 28f8 d4be bb4a 203c 365d 863e
00000260: 3e49 afbe b8a5 273e b18d 9abe 5646 413e
00000270: 3b3e 0abf 21ec 00be 9bb4 cf3d 00a2 f6be
00000280: 67f7 f73d 6609 833e 239d 2bbf 0be9 173e
00000290: b34b eabe cf91 dabd 8f11 203e a64e d5bd
000002a0: 6e04 4dbe c513 743e 1641 483c 3885 263e
000002b0: 6ff7 4f3e b39a 803e 2d25 423e c215 c5be
000002c0: f722 f2bd 8f3d 303f 91cc 99be d2b0 bc3d
000002d0: abaa 82bc 4785 b2bc 0673 33bf 5cde 04bf
000002e0: 561b 18bf 3292 963d 823d df3e 56ee 953d
000002f0: 0d74 ebbe d2e5 04be d4c9 67be d852 0c3e
00000300: ad83 c6bd 65c8 20bd a933 17bf 23ea 123e
00000310: 6b53 71be 5bca ac3e f8c4 993e 88ca bdbd
00000320: 2fb5 15bf c710 5d3e 57a3 d23e cdab 17bf
00000330: 97e9 69bf 18ef 26bc d6c4 ffbd 521a 0c3e
00000340: 4a34 f0be c4b4 253d dbfe 29bc 6095 c43e
00000350: 7c04 7b3e 9628 87be 768c 813e e57c 993b
00000360: f10e 0b3d 8a75 b0bd 5c4f 68be ae88 123f
00000370: 4b0e 07bf fc63 57bd 4214 643e 1904 c4be
00000380: 9aa2 cfbe fa43 073f 548c fcbe e58d 2cbd
00000390: 75e5 25bf ec02 8c3e a2a1 a2bd 7b30 80be
000003a0: b955 06bf 8807 f7be c684 52bf cf00 a1be
000003b0: 999b 563e 6038 c33e 9121 40bd 43b7 4abe
000003c0: a28d 93bd eec1 f83e 7c8a e13e 3d1e 1ebd
000003d0: fc9a 003d 1596 873d 7a98 40be 1ead b63a
000003e0: f81b 64bd f52d 133f bc96 4d3f 2811 8fbd
000003f0: 1f61 bcbe 106f c53e c21a e53c 5e9c 5e3e

graph_rnn.weight_hh_l1 f4 [192, 64]
0.48043382 0.4056631 -0.15837891 -0.023491673 0.08051702 0.0906586 -0.029273657 0.30570218
0.14913245 0.055620424 -0.02898724 0.16216221 0.056474753 0.07723645 0.55593306 0.11988298
0.27599058 0.034177776 -0.031798 0.03806566 0.07332453 -0.21092676 -0.04686905 -0.15650614
-0.1337392 0.18690662 -0.31415346 -0.07151788 -0.5291927 -0.07475564 -0.04060413 -0.05849988
-0.002276654 0.13204803 0.23017105 -0.11955947 0.07797649 -0.156126 -0.10375171 0.25312933
0.15938665 -0.047057558 -0.24842851 0.13003428 0.17841993 -0.16406788 -0.23645696 -0.06149586
-0.21522425 0.26039356 0.005980542 -0.10428487 -0.049992222 0.22051325 -0.031653304 -0.14585271
0.14176166 -0.18211244 -0.011329981 0.103112526 -0.28774253 0.021422965 0.13870549 -0.21750557
0.45220625 0.14296533 0.2300292 -0.07169231 0.09632375 0.13895376 0.009313183 -0.49611348
0.20338264 0.10231033 0.14231604 -0.16854635 0.2389665 0.07388406 0.083380185 0.14639767
-0.2792231 0.026843581 0.27604407 -0.20673156 0.26545927 -0.107819624 -0.086477846 0.021641664
0.03924784 0.04667282 -0.020734753 -0.03885992 -0.08556746 0.12192162 0.21839935 -0.029062599
-0.025015391 0.4028524 0.4605495 -0.011469504 0.16064958 -0.031796753 0.0049498375 -0.30356872
0.10684821 0.008131085 -0.2296033 0.4070498 -0.069735795 0.041950222 -0.20890956 0.22091293
0.025481727 0.30391085 0.00335914 -0.11620891 0.13102588 -0.23878631 0.10117079 -0.2868572
0.15233736 -0.6244342 -0.13065563 0.13955148 -0.14336592 -0.1339822 -0.1465851 -0.081030935
0.052611288 -0.08848395 -0.048164733 -0.12934104 -0.77910984 -0.03634403 -0.08576332 0.0052809003
0.5703046 -0.20622739 0.11964292 -0.40056574 -0.17785026 -0.13896677 -0.40145156 0.14559957
-0.37226588 -0.79168165 0.16356342 -0.26881507 0.28581432 0.20148306 -0.13099213 0.07595064
0.41180557 -0.17885777 0.1685784 0.3613778 -0.23900431 -0.36643794 -0.10860803 -0.09699069
-0.16264792 -0.27651307 0.1607294 -0.00038062173 -0.25897533 0.5568309 -0.17950809 -0.038913324
-0.30879402 -0.16452459 0.18278259 0.04926812 0.023598613 0.23114838 -0.1825386 -0.66470855
0.09074624 0.2820408 0.37630948 -0.24417494 0.2720498 -0.164272 0.17589791 0.064339206
-0.102592394 -0.15829745 -0.43388256 0.08788024 0.1254044 -0.3527639 -0.011081354 0.020137873
0.040468838 -0.020544566 -0.124794126 0.08963736 0.26162666 0.25032136 0.018727064 0.21068318
0.47048405 -0.36639473 -0.287287 -0.30038399 0.048079193 0.3278424 -0.16340145 0.028069982
-0.2787359 -0.0033606794 0.14060046 0.3107955 -0.22891524 0.029088847 0.14299466 0.08582625
-0.06563141 -0.51414615 -0.16868024 -0.15885165 -0.13419546 -0.079181254 -0.10133088 0.20194782
0.11783221 -0.6510039 0.024170667 -0.10083817 0.12065972 -0.5200748 -0.070091344 -0.28113914
0.25985184 -0.4073664 -0.2996292 0.22927918 0.43749553 0.1337109 -0.0290791 -0.39342406
-0.39335275 0.20277737 0.33998507 -0.27139953 0.051995862 -0.43877473 0.14307891 0.13950782
0.11926751 -0.25638357 0.54865587 0.058178224 0.06542109 0.114271656 -0.3749371 -0.41803125
00000000: 6cfb f53e 13b3 cf3e 152e 22be 9c71 c0bc
00000010: 1be6 a43d 37ab b93d 4fcf efbc ff84 9c3e
00000020: 2db6 183e 3ed2 633d a676 edbc da0d 263e
00000030: 1252 673d 252e 9e3d a151 0e3f 3585 f53d
00000040: a34e 8d3e fffd 0b3d 9f3e 02bd bdea 1b3d
00000050: 2c2b 963d 2ffd 57be c3f9 3fbd 2543 20be
00000060: eef2 08be 7364 3f3e b9d8 a0be f777 92bd
00000070: 2c79 07bf 7c19 99bd 8450 26bd 929d 6fbd
00000080: ea33 15bb 9937 073e f6b1 6b3e 98db f4bd
00000090: 23b2 9f3d 7fdf 1fbe c77b d4bd 2b9a 813e
000000a0: 4136 233e 6dbf 40bd 0b64 7ebe b527 053e
000000b0: b7b3 363e 6901 28be c621 72be 15e3 7bbd
000000c0: bf63 5cbe 4e52 853e 6cf8 c33b 4e93 d5bd
000000d0: a5c4 4cbd 3ace 613e e5a6 01bd 6a5a 15be
000000e0: f829 113e af7b 3abe 62a1 39bc a92c d33d
000000f0: fd52 93be 377f af3c d008 0e3e c8b9 5ebe
00000100: 9487 e73e 8165 123e c68c 6b3e 6bd3 92bd
00000110: 6345 c53d e549 0e3e 5296 183c 9602 febe
00000120: 8a43 503e 1488 d13d 4cbb 113e 6a97 2cbe
00000130: a2b3 743e 8750 973d 3bc3 aa3d 45e9 153e
00000140: 55f6 8ebe 12e7 db3c a655 8d3e 70b1 53be
00000150: 47ea 873e 89d0 dcbd 4c1b b1bd dc49 b13c
00000160: 58c2 203d 002c 3f3d eedb a9bc 942b 1fbd
00000170: fe3d afbd 0bb2 f93d 14a4 5f3e b014 eebc
00000180: 14ed ccbc ab42 ce3e 25cd eb3e 96ea 3bbc
00000190: 5381 243e 503d 02bd 3f32 a23b 5c6d 9bbe
000001a0: 3cd3 da3d 3e38 053c 211d 6bbe d568 d03e
000001b0: a4d1 8ebd ffd3 2b3d 63ec 55be 0037 623e
000001c0: 0ebf d03c 349a 9b3e 0425 5c3b f0fe edbd
000001d0: a62b 063e 6684 74be a232 cf3d f2de 92be
000001e0: 53fe 1b3e ebda 1fbf 97ca 05be 95e6 0e3e
000001f0: 84ce 12be a132 09be 681a 16be 8cf3 a5bd
00000200: ef7e 573d 1337 b5bd 6248 45bd fa71 04be
00000210: be73 47bf 7add 14bd aea4 afbd 670b ad3b
00000220: 7bff 113f 462d 53be 5907 f53d f416 cdbe
00000230: 611e 36be 4e4d 0ebe 0f8b cdbe 0e18 153e
00000240: a299 bebe a6ab 4abf 2b7d 273e 21a2 89be
00000250: 4156 923e 9351 4e3e cd22 06be 028c 9b3d
00000260: 2ed8 d23e 7e26 37be d19f 2c3e 8306 b93e
00000270: 8cbd 74be c19d bbbe e36d debd 0ea3 c6bd
00000280: 2d8d 26be 1f93 8dbe 3f96 243e 2f8e c7b9
00000290: 6a98 84be 788c 0e3f f8d0 37be 9463 1fbd
000002a0: 401a 9ebe 2279 28be 5c2b 3b3e 5ecd 493d
000002b0: e151 c13c 29b2 6c3e 66eb 3abe 572a 2abf
000002c0: 2ad9 b93d a767 903e a3ab c03e ff08 7abe
000002d0: 1d4a 8b3e eb36 28be 951e 343e 46c4 833d
000002e0: f61b d2bd ba18 22be db25 debe 8efa b33d
000002f0: 036a 003e 789d b4be 918e 35bc 2ef8 a43c
00000300: a7c2 253d 144d a8bc 1094 ffbd cb93 b73d
00000310: eef3 853e 1f2a 803e 8069 993c 55bd 573e
00000320: 49e3 f03e 1798 bbbe 4817 93be eecb 99be
00000330: b0ee 443d f6da a73e b652 27be 05f3 e53c
00000340: 79b6 8ebe d83e 5cbb 91f9 0f3e 9620 9f3e
00000350: c268 6abe bc4b ee3c 316d 123e acc5 af3d
00000360: c369 86bd 159f 03bf 83ba 2cbe 02aa 22be
00000370: 896a 09be c829 a2bd 9086 cfbd 69cb 4e3e
00000380: 0452 f13d 31a8 26bf 9001 c63c 3e84 cebd
00000390: 711c f73d 9f23 05bf 0d8c 8fbd 78f1 8fbe
000003a0: 4d0b 853e 5492 d0be 0069 99be 29c8 6a3e
000003b0: 6aff df3e 83eb 083e 4b37 eebc e16e c9be
000003c0: 8865 c9be dfa4 4f3e 8612 ae3e e1f4 8abe
000003d0: 9df9 543d 15a7 e0be 4783 123e 23db 0e3e
000003e0: 8642 f43d b544 83be b674 0c3f 4a4c 6e3d
000003f0: 7efb 853d 4207 ea3d c1f7 bfbe 3108 d6be

graph_rnn.bias_ih_l1 f4 [192]
0.15363222 0.08143827 -0.10149281 0.21081945 0.067530364 0.050458323 0.00037859936 0.022929357
0.009718446 -0.071844466 -0.011036524 -0.03612743 0.15802704 0.07417685 0.17465845 0.084187284
0.1293794 0.14601673 0.028990883 0.14101252 0.12989229 0.17417194 0.13191533 -0.07287507
0.014047379 -0.111794665 0.107650444 -0.058226332 0.100088686 -0.03082395 -0.11573733 0.012697166
0.06578219 -0.011956442 0.102801934 0.10165077 0.07229032 -0.11453544 0.024107978 -0.025090396
0.08965466 -0.15751572 -0.080146484 0.2152636 0.0051864083 0.099043265 0.15144223 0.17170449
0.16835214 0.12093771 0.07194052 0.102387875 -0.030648073 0.04600244 0.06489912 0.1592938
0.105204895 -0.03132498 0.05032835 0.098789215 -0.17288423 0.18864293 0.1414995 0.06898984
0.040315464 -0.15821828 -0.20602566 -0.09052032 -0.16898933 -0.0021379227 -0.018445503 0.09066639
-0.15723887 0.16018112 0.018561987 -0.036626432 -0.0053175967 -0.25146493 -0.12572129 -0.20961347
0.032075446 -0.13451226 0.011887847 0.044734735 -0.21248959 0.09419388 0.11985434 0.0319541
0.20356989 -0.06370478 -0.15547647 -0.4308107 0.11056211 0.013444944 -0.073807456 0.20004208
-0.10179758 -0.061700348 -0.05309265 -0.13364334 0.21025863 -0.3095754 -0.1325911 -0.05518818
0.12477865 0.009552401 0.1574386 0.103585444 -0.14365068 -0.22669758 -0.17357872 -0.18659452
-0.049790632 -0.09267695 -0.15399815 0.098307915 -0.038935836 -0.17753725 -0.0037617355 -0.1199575
0.10107647 0.044978432 -0.1867316 0.076462075 0.008023527 -0.030773545 0.41930413 0.14781071
-0.09316834 0.020954287 -0.029811108 -0.08562252 0.10863327 0.055962563 -0.13006568 0.0130456565
0.17493188 0.010965971 -0.06571271 -0.06925529 -0.008309531 0.08762453 -0.09542207 -0.2245357
-0.11113953 0.12962107 0.011461247 -0.004591326 -0.11032356 0.0030502456 -0.12772533 0.10189834
-0.05630603 0.029133974 0.07564484 -0.08445145 -0.045319058 -0.15803559 -0.19068608 0.10175171
0.0689601 -0.08018079 0.012388293 0.16004248 0.07157955 -0.03721874 0.19346204 -0.046655793
-0.1721063 0.07453223 0.025885545 0.0932681 0.019502409 -0.06805227 -0.06649693 -0.056586582
-0.23888686 0.1607738 0.18249333 0.019470016 -0.018616254 0.06194344 -0.0060792468 -0.092257746
0.033747453 0.08204108 -0.060028188 -0.08513265 0.090092465 -0.12426876 -0.023779867 0.1262276
00000000: c451 1d3e 1cc9 a63d 76db cfbd 0ee1 573e
00000010: 5c4d 8a3d 63ad 4e3d bf7e c639 59d6 bb3c
00000020: 1e3a 1f3c 3123 93bd 89d2 34bc 5bfa 13bd
00000030: d7d1 213e 08ea 973d aad9 323e 626a ac3d
00000040: 097c 043e 6985 153e 4a7e ed3c 9665 103e
00000050: 7c02 053e 215a 323e d014 073e 863f 95bd
00000060: fa26 663c 9af4 e4bd d677 dc3d bc7e 6ebd
00000070: 4cfb cc3d 8282 fcbc b107 edbd c607 503c
00000080: d0b8 863d f4e4 43bc d289 d23d 472e d03d
00000090: f30c 943d 8f91 eabd 187e c53c 608a cdbc
000000a0: dd9c b73d cd4b 21be d723 a4bd 106e 5c3e
000000b0: bff2 a93b 32d7 ca3d ac13 1b3e 4dd3 2f3e
000000c0: 8164 2c3e 31ae f73d 8d55 933d bcb0 d13d
000000d0: ab11 fbbc 0e6d 3c3d d4e9 843d ea1d 233e
000000e0: aa75 d73d 9f4e 00bd 1a25 4e3d 0052 ca3d
000000f0: 9008 31be 9d2b 413e 3fe5 103e 8c4a 8d3d
00000100: d421 253d f903 22be 64f8 52be b862 b9bd
00000110: 8a0b 2dbe 641c 0cbb 061b 97bc 4daf b93d
00000120: 3a03 21be 8506 243e 4f0f 983c 9905 16bd
00000130: 3c3f aebb 03c0 80be 15bd 00be eaa4 56be
00000140: 8b61 033d 95bd 09be 3fc5 423c c53b 373d
00000150: df96 59be b9e8 c03d 3176 f53d 4de2 023d
00000160: a074 503e a777 82bd 3935 1fbe 3893 dcbe
00000170: 636e e23d 2f48 5c3c 5d28 97bd d5d7 4c3e
00000180: 407b d0bd 81b9 7cbd ae77 59bd cdd9 08be
00000190: 0a4e 573e ab80 9ebe f6c5 07be 000d 62bd
000001a0: f38b ff3d ac81 1c3c 9637 213e 9b24 d43d
000001b0: 2a19 13be 6923 68be 9fbe 31be a212 3fbe
000001c0: 43f1 4bbd 6acd bdbd b1b1 1dbe a955 c93d
000001d0: 2f7b 1fbd 53cc 35be 7387 76bb 47ac f5bd
000001e0: 2e01 cf3d 4e3b 383d 9236 3fbe 2698 9c3d
000001f0: 1d75 033c cd18 fcbc 08af d63e b15b 173e
00000200: 0bcf bebd 53a8 ab3c 6d36 f4bc dc5a afbd
00000210: 1f7b de3d 0039 653d f02f 05be 73bd 553c
00000220: 5821 333e 9eaa 333c 6394 86bd b8d5 8dbd
00000230: b324 08bc 7d74 b33d a56c c3bd b0ec 65be
00000240: 1f9d e3bd 63bb 043e f4c7 3b3c d672 96bb
00000250: 52f1 e1bd a1e6 473b 6eca 02be 14b0 d03d
00000260: 27a1 66bd 5faa ee3c afeb 9a3d e2f4 acbd
00000270: 7aa0 39bd 15d4 21be 3643 43be 3363 d03d
00000280: f43a 8d3d d335 a4bd 44f8 4a3c 2de2 233e
00000290: 4d98 923d ad72 18bd ea1a 463e 251a 3fbd
000002a0: a23c 30be 5ba4 983d ec0d d43c 5803 bf3d
000002b0: 84c3 9f3c fd5e 8bbd 8b2f 88bd 55c7 67bd
000002c0: c29e 74be e3a1 243e 88df 3a3e 957f 9f3c
000002d0: 1d81 98bc 68b8 7d3d 6b34 c7bb a1f1 bcbd
000002e0: c53a 0a3d 2705 a83d 1ee0 75bd 075a aebd
000002f0: 6682 b83d 9f80 febd ffcd c2bc cf41 013e
