graphrnn_v2/experiments/structures/k_regulars/vary_m/3_regular_vary_m_8/model_at_800.pt (torch, 419259 bytes, 43 tensors)

adj_embedding.0.weight f4 [32, 8]
0.07362048 0.0395209 -0.39041877 -0.3720491 0.09397103 0.30527392 0.33795795 0.32975358
-0.0034363589 -0.33907926 0.012896609 -0.29478785 -0.26221064 -0.2997594 0.11703446 0.16298354
0.09709787 -0.34765914 0.06832437 0.18863761 0.3039173 0.2789395 0.15455693 -0.37141857
0.31148294 0.61036533 -0.08687147 0.37373105 0.4395816 0.41750798 0.21517362 0.0740441
0.70769817 0.0867768 0.4513181 0.117057584 0.1504031 0.15267411 0.3130266 0.08243149
-0.19715874 -0.5156231 0.20856765 0.46970707 0.38944757 0.0012941166 -0.18859284 -0.15307443
-0.118675806 -0.21369115 -0.24144202 -0.22634137 -0.016533826 -0.045688618 -0.15908721 -0.45433462
0.7717991 0.22720806 -0.26380715 -0.21383253 -0.29082066 -0.24810413 -0.27074596 -0.22457568
0.20534635 0.3481654 0.44709757 -0.08177835 -0.08432818 -0.49581844 -0.36172536 -0.24943301
0.45884764 0.039071515 0.18983823 0.11704526 0.07469126 0.28158474 -0.23608431 0.068286285
-0.37641492 -0.1650827 0.33075854 0.08002174 0.075825796 0.34976032 0.41337192 -0.13349661
-0.4201975 0.28395772 0.19684044 0.14779541 0.31995088 -0.20406835 -0.2814056 -0.27169
0.30021703 -0.07710233 -0.090309694 0.05834544 0.34309044 0.58072233 0.6151799 0.43862194
0.58900696 0.5071176 0.26161766 0.08568346 0.37520424 -0.011292618 0.19835263 -0.024279032
0.54950905 0.4783 0.3914309 0.20432441 0.028309196 -0.2054973 0.20290792 0.20847245
-0.14050147 0.052281734 0.5024405 0.35167432 0.35306993 0.3427958 0.11448812 -0.0467606
-0.07239752 0.33559534 0.22704154 0.41105363 -0.17684126 -0.084352 -0.23069 0.10461635
0.42925835 -0.07501316 0.34243524 0.4948761 0.2624658 0.44396994 -0.11821357 -0.15684667
-0.11382187 -0.31186062 0.29650617 -0.015918676 -0.30716705 0.29100475 -0.29244393 -0.27794912
0.2803388 0.6912623 0.089536555 -0.12582831 -0.1823749 0.24605365 0.057317663 0.23323883
0.3418896 0.53188604 0.5184912 0.322521 0.24310379 0.16012943 0.041988004 -0.0216816
0.23580648 0.24599959 0.043220982 0.36332157 0.23054138 0.12537354 0.12294904 0.04578795
-0.1180628 -0.28994954 0.051699683 0.03872503 -0.20421466 -0.05852347 -0.010241178 -0.13381633
0.29454595 -0.024643945 -0.23344125 0.024060141 0.41247833 0.14877534 0.11492319 -0.18749754
0.2256402 0.15518112 0.523046 0.2976784 0.45192325 0.15148166 0.18266866 0.20811458
0.30879 -0.47693887 -0.017337522 -0.5268043 -0.3872884 -0.22972359 -0.37264577 -0.230099
0.10700454 -0.22589344 -0.32981154 -0.37781873 0.03627535 0.012312627 0.34412214 0.2967294
0.029933348 0.11023821 -0.0025233717 -0.37615508 -0.334179 -0.35690606 -0.38035733 -0.36655888
-0.2083492 -0.11934807 -0.3406388 -0.34446567 -0.3442308 0.05376623 -0.308294 -0.32394442
-0.123934 -0.14358865 -0.16998285 0.40969747 0.36920384 -0.15405364 -0.15642402 -0.054932036
0.49482915 -0.061626654 -0.39870316 0.093953654 -0.46301696 -0.5003421 -0.49238223 -0.4021001
0.16186115 -0.43080795 0.29298005 0.08432282 -0.26322 -0.13154523 -0.15076427 -0.4292571
00000000: 56c6 963d abe0 213d f8e4 c7be 387d bebe
00000010: e273 c03d dd4c 9c3e d308 ad3e 76d5 a83e
00000020: 8934 61bb cc9b adbe 4c4c 533c 6fee 96be
00000030: 7940 86be 107a 99be c3af ef3d 28e5 263e
00000040: 40db c63d 6100 b2be a6ed 8b3d 382a 413e
00000050: 0c9b 9b3e 28d1 8e3e 2c44 1e3e 932a bebe
00000060: b17a 9f3e e740 1c3f abe9 b1bd ad59 bf3e
00000070: d710 e13e 9bc3 d53e 7956 5c3e 6fa4 973d
00000080: b52b 353f 09b8 b13d 2a13 e73e e3bb ef3d
00000090: 4503 1a3e 9a56 1c3e 0645 a03e d7d1 a83d
000000a0: fbe3 49be e0ff 03bf c292 553e 727d f03e
000000b0: ac65 c73e 599f a93a 7b1e 41be 8bbf 1cbe
000000c0: 4d0c f3bd dad1 5abe 943c 77be 08c6 67be
000000d0: f271 87bc fd23 3bbd c2e7 22be 8c9e e8be
000000e0: a094 453f 3ba9 683e bb11 87be eaf6 5abe
000000f0: 72e6 94be 020f 7ebe 379f 8abe 2bf7 65be
00000100: 5046 523e bc42 b23e f9e9 e43e 687b a7bd
00000110: 41b4 acbd eadb fdbe 1134 b9be 5e6b 7fbe
00000120: 14ee ea3e 7409 203d f464 423e 6db5 ef3d
00000130: bbf7 983d e02b 903e 16c0 71be aed9 8b3d
00000140: 75b9 c0be 700b 29be 2f59 a93e 70e2 a33d
00000150: 8e4a 9b3d c913 b33e 7ca5 d33e 56b3 08be
00000160: 2024 d7be e862 913e 8a90 493e ae57 173e
00000170: 9ad0 a33e 4bf7 50be 6514 90be f41a 8bbe
00000180: 0cb6 993e d4e7 9dbd 4af4 b8bd a1fb 6e3d
00000190: 8da9 af3e 38aa 143f 6e7c 1d3f 0e93 e03e
000001a0: 29c9 163f 76d2 013f c0f2 853e cf7a af3d
000001b0: c51a c03e ac04 39bc f41c 4b3e d2e4 c6bc
000001c0: a0ac 0c3f bde3 f43e a269 c83e 6b3a 513e
000001d0: b0e8 e73c e26d 52be 18c7 4f3e cd79 553e
000001e0: 9edf 0fbe 5f25 563d f19f 003f a80e b43e
000001f0: 95c5 b43e ee82 af3e bf78 ea3d 0b88 3fbd
00000200: 2745 94bd 27d3 ab3e 947d 683e 9f75 d23e
00000210: e015 35be bec0 acbd 003a 6cbe 1941 d63d
00000220: c0c7 db3e 80a0 99bd ac53 af3e 6660 fd3e
00000230: eb61 863e 0750 e33e f519 f2bd 6a9c 20be
00000240: 711b e9bd 32ac 9fbe a8cf 973e e267 82bc
00000250: 0045 9dbe 93fe 943e 36bb 95be 594f 8ebe
00000260: 9188 8f3e 91f6 303f f15e b73d 23d9 00be
00000270: 7cc0 3abe 7df5 7b3e edc5 6a3d 29d6 6e3e
00000280: 270c af3e af29 083f d7bb 043f 7921 a53e
00000290: 33f0 783e f8f8 233e 9dfb 2b3d 9c9d b1bc
000002a0: 4177 713e 51e7 7b3e 7c08 313d 4905 ba3e
000002b0: 0a13 6c3e ec61 003e b5cc fb3d 258c 3b3d
000002c0: e9ca f1bd 4474 94be 0cc3 533d 239e 1e3d
000002d0: a61d 51be 4eb6 6fbd 9dca 27bc 2607 09be
000002e0: bace 963e 19e2 c9bc 390b 6fbe c619 c53c
000002f0: 5c30 d33e 9058 183e d95c eb3d 5bff 3fbe
00000300: 390e 673e cde7 1e3e 58e6 053f 4e69 983e
00000310: 7c62 e73e 021e 1b3e 7e0d 3b3e fd1b 553e
00000320: b919 9e3e 5531 f4be 6b07 8ebc a6dc 06bf
00000330: aa4a c6be a93c 6bbe 6dcb bebe 129f 6bbe
00000340: 3225 db3d 9c50 67be 0fdd a8be 7571 c1be
00000350: 7695 143d e7ba 493c c730 b03e eaec 973e
00000360: c836 f53c 92c4 e13d 275f 25bb 6697 c0be
00000370: 8319 abbe 64bc b6be 32be c2be 9bad bbbe
00000380: 7e59 55be c36c f4bd 3568 aebe ce5d b0be
00000390: 053f b0be fa39 5c3d b6d8 9dbe 0bdc a5be
000003a0: 1cd1 fdbd e708 13be fc0f 2ebe dec3 d13e
000003b0: 4908 bd3e 3dc0 1dbe 9e2d 20be 6a00 61bd
000003c0: 3f5a fd3e 3b6c 7cbd d222 ccbe c66a c03d
000003d0: 8f10 edbe 6b16 00bf 8619 fcbe 10e0 cdbe
000003e0: eebe 253e dc92 dcbe 7b01 963e 71b1 ac3d
000003f0: c6c4 86be cbb3 06be f361 1abe 96c7 dbbe

adj_embedding.0.bias f4 [32]
-0.40421155 -0.29567507 -0.39818472 0.040958654 -0.099904954 0.39197093 0.43834725 0.23134503
0.23309399 0.044682935 0.2930892 0.32980233 0.16422345 0.019376267 0.15246958 0.037162032
0.07767289 0.25308865 -0.2998758 0.1787027 -0.049675263 -0.047223784 -0.24820043 0.098789446
-0.20184638 0.22455037 0.3375482 0.21523888 -0.24141437 0.38433036 -0.03414601 -0.034966808
00000000: d1f4 cebe b962 97be dede cbbe 43c4 273d
00000010: f89a ccbd 6ab0 c83e 0d6f e03e b6e5 6c3e
00000020: 31b0 6e3e 7405 373d ca0f 963e dadb a83e
00000030: 312a 283e faba 9e3c fc20 1c3e 3737 183d
00000040: f712 9f3d d694 813e 5289 99be d7fd 363e
00000050: 4a78 4bbd ba6d 41bd 4128 7ebe 1f52 ca3d
00000060: d1b0 4ebe 88f0 653e 1ed3 ac3e 9567 5c3e
00000070: 5435 77be f3c6 c43e b0dc 0bbd 5b39 0fbd

graph_rnn.weight_ih_l0 f4 [192, 32]
0.10122156 -0.105632365 0.20644432 0.15132555 -0.012414163 0.08015867 -0.00873387 -0.19266534
-0.06441093 -0.0194556 0.17090143 -0.0844214 0.09448364 -0.16432557 -0.18769796 0.2252912
-0.17465079 0.18012531 0.192978 -0.020510862 -0.14648998 -0.06463964 -0.05169989 0.11318349
0.11340886 -0.2980735 -0.16389358 -0.37708023 0.06171602 -0.070017874 0.25960582 -0.16204116
0.3309441 -0.021432465 0.4193788 0.05958718 0.11714742 -0.35494313 -0.003380553 0.3309598
0.056703433 0.16332848 -0.11625297 -0.20196606 -0.07140743 0.22600684 0.1165983 -0.08667192
-0.14450452 -0.13626269 0.093019016 -0.00807359 -0.007823748 0.031672146 -0.050903022 -0.06169224
-0.08036743 0.47156423 -0.1559513 0.58009523 0.02436158 -0.19885786 0.88483375 -0.03018354
0.52247435 0.059885204 0.14565843 0.20073226 0.031624377 -0.13568008 -0.17861694 0.09410176
0.14672711 0.19719467 -0.081515595 -0.091100864 -0.012859806 0.023570523 0.18577214 0.052337725
0.13387638 0.2750083 -0.4145591 0.27404416 0.25708932 0.11542959 0.06807463 0.06664574
0.15863559 -0.13449217 0.122465394 -0.29748574 -0.031465203 -0.013205708 -0.45640126 -0.00958221
0.12121734 0.12104964 -0.28333294 -0.12367182 -0.07835437 -0.029720178 0.108936094 0.0122546675
-0.027535776 -0.11583192 -0.10413101 -0.074288234 -0.01139887 -0.16973682 -0.11377685 -0.1343756
0.054012377 -0.13525347 0.10358512 -0.1092525 -0.14969559 -0.14292136 -0.060471594 -0.08973031
-0.13949922 0.1829899 -0.001996903 0.06318046 0.092395246 -0.030566186 -0.019083463 0.24658293
-0.102614954 -0.063563645 -0.31875005 0.13010745 0.28170353 0.09029881 0.093994424 0.20628153
0.31852332 0.007086462 0.06344497 0.28518236 -0.1354608 0.44062233 0.11448815 0.1064965
-0.020238308 0.013473715 0.0007122291 -0.026114391 0.14086331 0.19061494 -0.087795645 0.33379656
0.3510164 0.07955035 -0.2666476 0.029795509 0.07939017 0.27153832 -0.019384634 0.32784852
0.36070442 0.066938676 0.71167386 -0.057272676 -0.081046656 0.17403547 0.0631558 0.016648313
-0.14124915 -0.039452747 0.16754213 -0.005775688 0.013904139 -0.014646158 -0.14219266 0.2159642
-0.28274456 0.07337268 0.4942413 -0.13174202 0.05136139 -0.030015517 -0.11363195 0.034152005
0.023852954 0.17930427 0.1338304 0.07360549 0.049792454 0.1710258 -0.14791514 0.07902901
-0.030731464 0.021524817 -0.3703916 -0.057281908 0.10686093 0.030905569 -0.13521206 -0.055644207
0.011080544 -0.09112441 -0.1188255 0.07988219 -0.045761034 -0.10863039 0.075610965 -0.054176908
-0.09518542 -0.0021772012 0.16392538 -0.106186114 -0.056492265 -0.15986727 -0.024690807 -0.024850426
-0.036048975 -0.073323816 0.21287106 0.06271949 -0.09354068 -0.005468783 0.20249657 0.13258643
-0.0090748 0.1204623 0.013019873 -0.28806114 -0.08723794 0.0014927331 0.063513815 -0.040497474
-0.14480843 -0.028148524 -0.040444214 -0.08979149 -0.12088492 -0.31715184 -0.13157222 -0.15682048
-0.07363738 0.011225012 0.15808022 -0.03129812 -0.31051278 -0.102541655 -0.04382375 -0.14780575
-0.13836507 -0.10255538 -0.026599737 0.038480014 -0.124933496 0.05202424 0.026686892 0.011367428
00000000: 404d cf3d c855 d8bd 2466 533e 16f5 1a3e
00000010: c664 4bbc 3b2a a43d 8218 0fbc 104a 45be
00000020: e1e9 83bd 5a61 9fbc c900 2f3e 21e5 acbd
00000030: a380 c13d f644 28be e533 40be bdb2 663e
00000040: a8d7 32be c572 383e 069c 453e 6506 a8bc
00000050: 7801 16be ca61 84bd 44c3 53bd bfcc e73d
00000060: e842 e83d 179d 98be b8d3 27be a910 c1be
00000070: f0c9 7c3d 8865 8fbd 0eeb 843e 1eee 25be
00000080: 8171 a93e 2393 afbc d1b8 d63e b011 743d
00000090: fdea ef3d 1bbb b5be 458c 5dbb 9073 a93e
000000a0: dc41 683d 953f 273e 0a16 eebd 31d0 4ebe
000000b0: 0f3e 92bd 566e 673e 17cb ee3d 0c81 b1bd
000000c0: fef8 13be 7288 0bbe c180 be3d 1747 04bc
000000d0: 2d2f 00bc a7ba 013d b07f 50bd 01b1 7cbd
000000e0: ae97 a4bd de70 f13e b3b1 1fbe 1f81 143f
000000f0: f091 c73c 65a1 4bbe 7784 623f 7943 f7bc
00000100: e1c0 053f 304a 753d 7c27 153e c28c 4d3e
00000110: 9088 013d b8ef 0abe 5ce7 36be 6cb8 c03d
00000120: a23f 163e 66ed 493e a6f1 a6bd 1793 babd
00000130: f0b1 52bc f816 c13c 0d3b 3e3e 1560 563d
00000140: e416 093e e3cd 8c3e 1741 d4be 844f 8c3e
00000150: 36a1 833e 5966 ec3d b66a 8b3d 907d 883d
00000160: 5e71 223e 51b8 09be 23cf fa3d 0d50 98be
00000170: a8e1 00bd c15c 58bc 6dad e9be b4fe 1cbc
00000180: cc40 f83d e0e8 f73d 0411 91be a747 fdbd
00000190: 4278 a0bd bb77 f3bc e319 df3d cdc7 483c
000001a0: b592 e1bc 4939 edbd a442 d5bd 6e24 98bd
000001b0: 53c2 3abc 7dcf 2dbe d603 e9bd c299 09be
000001c0: 153c 5d3d e37f 0abe 6f24 d43d c6bf dfbd
000001d0: cd49 19be fa59 12be 10b1 77bd 86c4 b7bd
000001e0: e2d8 0ebe b461 3b3e 79de 02bb c264 813d
000001f0: b839 bd3d f065 fabc ec54 9cbc 3c80 7c3e
00000200: ca27 d2bd a82d 82bd 3533 a3be e33a 053e
00000210: 723b 903e 95ee b83d 2680 c03d 773b 533e
00000220: 7d15 a33e 8d35 e83b 70ef 813d 6c03 923e
00000230: 3cb6 0abe 4099 e13e c378 ea3d d61a da3d
00000240: cfca a5bc dbc0 5c3c e3b4 3a3a d9ed d5bc
00000250: 793e 103e 9030 433e 34ce b3bd 62e7 aa3e
00000260: 6cb8 b33e 4beb a23d 0986 88be b615 f43c
00000270: 5097 a23d 1207 8b3e 86cc 9ebc c3db a73e
00000280: 40ae b83e 2517 893d 4230 363f c196 6abd
00000290: cafb a5bd 5b36 323e d457 813d 0b62 883c
000002a0: 9ea3 10be 3499 21bd 2a90 2b3e fc41 bdbb
000002b0: 30ce 633c 70f6 6fbc f49a 11be b825 5d3e
000002c0: e5c3 90be 6a44 963d 320d fd3e 61e7 06be
000002d0: 5260 523d 1ae3 f5bc deb7 e8bd f9e2 0b3d
000002e0: 4567 c33c 8a9b 373e d60a 093e 7abe 963d
000002f0: 2cf3 4b3d 6321 2f3e 1177 17be f6d9 a13d
00000300: 8dc0 fbbc d054 b03c f8a3 bdbe 6fa0 6abd
00000310: e7d9 da3d ad2d fd3c 0875 0abe 2eeb 63bd
00000320: 2c8b 353c 6f9f babd c95a f3bd 4699 a33d
00000330: ec6f 3bbd 9c79 debd ecd9 9a3d 9be8 5dbd
00000340: 93f0 c2bd 60af 0ebb 0edc 273e 1b78 d9bd
00000350: 6f64 67bd 3fb4 23be 6044 cabc 1f93 cbbc
00000360: 17a8 13bd cc2a 96bd dffa 593e 1373 803d
00000370: 4292 bfbd 7a33 b3bb 435b 4f3e bdc4 073e
00000380: 78ae 14bc f0b4 f63d 4e51 553c c07c 93be
00000390: cea9 b2bd d0a7 c33a 8813 823d aee0 25bd
000003a0: a948 14be bc97 e6bc d5a8 25bd 9ae4 b7bd
000003b0: 8392 f7bd ba61 a2be deba 06be 8c95 20be
000003c0: 32cf 96bd 1de9 373c c8df 213e 7532 00bd
000003d0: 88fb 9ebe 5c01 d2bd 8880 33bd 645a 17be
000003e0: 93af 0dbe 8e08 d2bd b1e7 d9bc 389d 1d3d
000003f0: 22dd ffbd 5f17 553d 789e da3c 733e 3a3c

graph_rnn.weight_hh_l0 f4 [192, 64]
-0.11674146 0.17633758 0.035782497 -0.13138382 0.09210403 0.007825324 0.11710688 -0.37717694
-0.100683264 0.04818028 0.13959625 -0.017172402 -0.20315903 0.0974793 0.0752162 0.12216301
0.043901257 -0.055891 -0.021565339 0.06492849 0.063608125 -0.10364327 -0.15492047 0.073543526
-0.20815888 0.020171354 -0.09339807 -0.050746206 -0.1788343 -0.077498876 0.2262974 -0.03441679
-0.18464443 0.072561465 -0.08619968 -0.065340504 0.03170908 -0.09984875 0.28808224 0.09203937
-0.060548067 -0.06326525 0.16018553 0.12294803 0.038862262 0.28109035 0.25990215 0.18342021
-0.14269853 -0.08908441 -0.05624294 -0.1580077 0.030631434 -0.14325371 0.024113394 -0.07644931
-0.037745632 -0.09645284 -0.07192123 -0.005516688 -0.26810527 -0.066522665 -0.1251238 -0.12588884
0.020079317 -0.12536936 -0.05146265 -0.01187556 -0.07879162 0.12477505 -0.064859465 0.39014953
0.1682392 -0.3187276 -0.01159009 -0.029048027 0.09876012 -0.14256889 -0.04287598 -0.010800408
-0.0722029 -0.27587038 0.027395964 0.059892755 -0.031319395 0.18511729 0.03173015 -0.052936673
0.29627633 0.09278904 0.43822092 -0.14219074 0.23340417 -0.1106959 -0.22670664 -0.017845642
-0.077968046 -0.09027325 0.041614227 0.23611994 -0.18104978 0.13559093 -0.21861522 -0.14366396
0.011285228 0.19225907 -0.14304583 -0.04309644 0.17749155 0.101104215 -0.1301255 0.016290635
0.03656114 0.15008351 0.03156325 0.16680066 -0.16471148 0.047486424 -0.091772236 0.07358393
0.09298531 0.080097996 -0.18127644 -0.19129437 0.08104834 -0.030043114 0.052916188 0.4299905
-0.07238984 -0.05064464 0.08988574 0.033671595 -0.0107380245 -0.007821366 -0.19274594 0.24594745
-0.12722738 0.06823247 -0.03161046 -0.17015173 0.10478506 0.0029996457 0.09116519 0.017443832
0.035239417 -0.1667203 0.23249874 -0.005230318 0.0077859946 0.07512097 -0.07720409 0.16837105
0.13594864 0.013751749 -0.026282933 0.043861233 0.042767633 0.14507289 0.01896831 -0.081744134
-0.010415814 -0.06375782 0.10334333 0.16128433 0.01926828 0.024585582 -0.08597639 -0.41178754
0.37367985 0.46555272 0.040078957 -0.2730159 -0.15370162 0.07514911 0.003328865 0.20171122
0.41238016 0.15654865 -0.24524479 0.43240067 0.13169067 -0.05142798 -0.05432766 -0.13994329
0.023652047 -0.027270142 -0.08066124 -0.02902501 0.23306125 0.022487389 0.058829412 0.22842948
-0.10845928 0.055573434 -0.052350715 -0.21152699 0.037385456 0.0032441309 0.1907661 -0.22848393
-0.05080371 -0.0734606 0.10428014 0.044883713 -0.12287732 0.02177159 0.07241231 0.059406623
-0.015093323 -0.08456674 -0.18369202 0.083041854 0.03492535 0.016037496 -0.18970305 0.07392509
-0.021289732 -0.054511994 -0.086043105 0.08317115 -0.109591186 0.0494189 0.3982756 0.00039602167
0.003573436 0.08707053 -0.09955329 -0.08313656 -0.1991266 0.105731465 0.1436931 0.1570071
-0.12662186 0.032377377 0.20771883 -0.021316366 -0.0016984913 0.12460648 0.18274243 0.03303478
-0.20447795 -0.05248736 -0.030688379 -0.030060288 0.04126649 0.087924086 -0.116832815 -0.042420004
-0.0036022833 0.23251885 0.15570152 -0.04272465 -0.2688422 -0.025280556 0.18614417 -0.10220777
00000000: 2616 efbd d791 343e ab90 123d 7b89 06be
00000010: 0aa1 bc3d ca35 003c bbd5 ef3d 561d c1be
00000020: 0733 cebd af58 453d 52f2 0e3e 23ad 8cbc
00000030: ec08 50be 3aa3 c73d f30a 9a3d 9a30 fa3d
00000040: ced1 333d f6ed 64bd cba9 b0bc 3af9 843d
00000050: fa44 823d ec42 d4bd 79a3 1ebe fd9d 963d
00000060: 9a27 55be 653e a53c 7d47 bfbd 41db 4fbd
00000070: 5720 37be bbb7 9ebd 81ba 673e 9ff8 0cbd
00000080: 6e13 3dbe 1b9b 943d 7589 b0bd 3ed1 85bd
00000090: 61e1 013d 807d ccbd 847f 933e 237f bc3d
000000a0: 4001 78bd 3691 81bd ad07 243e 2dcc fb3d
000000b0: 092e 1f3d 13eb 8f3e e511 853e 82d2 3b3e
000000c0: 901f 12be e371 b6bd ff5e 66bd c5cc 21be
000000d0: c6ee fa3c 1ab1 12be 7489 c53c 7591 9cbd
000000e0: 2a9b 1abd 1189 c5bd 704b 93bd 55c5 b4bb
000000f0: 1845 89be 093d 88bd 7420 00be 01e9 00be
00000100: 617d a43c d360 00be 80ca 52bd b591 42bc
00000110: 805d a1bd 108a ff3d 0ad5 84bd aec1 c73e
00000120: e646 2c3e 4430 a3be 5ce4 3dbc 21f6 edbc
00000130: bf42 ca3d 94fd 11be b99e 2fbd 32f4 30bc
00000140: 1ddf 93bd e23e 8dbe 806d e03c 1b52 753d
00000150: c448 00bd 638f 3d3e 79f7 013d 20d4 58bd
00000160: 88b1 973e 2e08 be3d 7e5e e03e 739a 11be
00000170: 8101 6f3e 88b4 e2bd c925 68be 0631 92bc
00000180: b6ad 9fbd 2fe1 b8bd ae73 2a3d 6dc9 713e
00000190: 1d65 39be 59d8 0a3e abdc 5fbe a51c 13be
000001a0: ade5 383c 90df 443e 9b7a 12be e585 30bd
000001b0: 58c0 353e ba0f cf3d 9e3f 05be f073 853c
000001c0: 22c1 153d 7eaf 193e 7748 013d cbcd 2a3e
000001d0: 20aa 28be 2081 423d 15f3 bbbd 2cb3 963d
000001e0: 156f be3d 6b0a a43d 88a0 39be ace2 43be
000001f0: acfc a53d fa1c f6bc a5be 583d b727 dc3e
00000200: 2041 94bd c170 4fbd 0416 b83d 3aeb 093d
00000210: 8aee 2fbc 3025 00bc 315f 45be a6d9 7b3e
00000220: e547 02be 77bd 8b3d f879 01bd 413c 2ebe
00000230: 8d99 d63d b495 443b d1b4 ba3d 5ee6 8e3c
00000240: 3557 103d bab8 2abe 2614 6e3e 1663 abbb
00000250: a821 ff3b 06d9 993d 2e1d 9ebd 7669 2c3e
00000260: 1f36 0b3e 044f 613c 4e4f d7bc d6a7 333d
00000270: 1d2d 2f3d fd8d 143e 6e63 9b3c 7869 a7bd
00000280: 17a7 2abc 7693 82bd aba5 d33d b827 253e
00000290: 83d8 9d3c b467 c93c 6414 b0bd d1d5 d2be
000002a0: f752 bf3e ed5c ee3e d529 243d bdc8 8bbe
000002b0: f563 1dbe c7e7 993d 1629 5a3b 638d 4e3e
000002c0: 7e23 d33e 4a4e 203e 7321 7bbe 9f63 dd3e
000002d0: ebd9 063e 25a6 52bd ae86 5ebd 4b4d 0fbe
000002e0: f0c1 c13c a265 dfbc b831 a5bd dcc5 edbc
000002f0: 9ca7 6e3e 7937 b83c 1cf7 703d 6be9 693e
00000300: e61f debd f8a0 633d b46d 56bd 889a 58be
00000310: 7e21 193d 7c9b 543b 3058 433e b1f7 69be
00000320: 8d17 50bd 8372 96bd d390 d53d fcd7 373d
00000330: 1ba7 fbbd 555a b23c e84c 943d 5c54 733d
00000340: fc49 77bc 5431 adbd c319 3cbe d911 aa3d
00000350: e20d 0f3d 1161 833c 8441 42be 0a66 973d
00000360: ce67 aebc f847 5fbd 5e37 b0bd a355 aa3d
00000370: 5871 e0bd 796b 4a3d c8ea cb3e 21a1 cf39
00000380: 4f30 6a3b 0952 b23d 98e2 cbbd 8043 aabd
00000390: d8e7 4bbe bd89 d83d 4924 133e 78c6 203e
000003a0: 29a9 01be 249e 043d 3fb4 543e a99f aebc
000003b0: e99f deba af31 ff3d d520 3b3e 7a4f 073d
000003c0: ab62 51be fcfc 56bd 3266 fbbc fe40 f6bc
000003d0: 0d07 293d 8b11 b43d 0b46 efbd 99c0 2dbd
000003e0: 4914 6cbb 6c19 6e3e 3870 1f3e 0b00 2fbd
000003f0: afa5 89be 2b19 cfbc 949c 3e3e 4f52 d1bd

graph_rnn.bias_ih_l0 f4 [192]
0.007238753 0.002879012 -0.08594656 -0.03295498 -0.090996325 0.15950722 -0.02538277 -0.08493571
-0.09268112 -0.07236716 -0.05471276 -0.037581787 -0.0956846 -0.06453326 -0.096629776 0.07292231
0.15398492 -0.12751949 -0.07493386 0.038917836 0.20810063 -0.025330817 0.16837935 0.2616938
0.053416383 0.1685594 -0.1350008 0.034035366 -0.059436303 0.19399711 -0.058484867 0.023130517
-0.021416565 -0.03633234 0.13834763 -0.018062603 -0.037351 0.080110155 0.05449491 0.18630195
0.020681638 0.14515315 0.14769413 -0.010283651 0.004354922 -0.060343772 -0.00043680193 0.052089702
-0.084179215 -0.07222043 -0.047543123 -0.019279337 -0.11060613 -0.008303093 0.061768606 0.09880731
-0.12382572 0.037625037 0.083602145 0.16825655 0.13627023 -0.04747226 -0.0101675475 0.17566577
-0.012133491 -0.073498085 -0.012910728 0.07931975 -0.059034213 -0.01810275 -0.05528108 -0.018382654
-0.14394112 -0.06180108 -0.110945284 -0.107738025 -0.02254796 -0.42208073 0.21308802 -0.0829173
0.08295542 -0.13290487 -0.082898475 -0.025625162 0.0059971325 -0.17065701 0.14897525 -0.146408
-0.18343908 -0.23842895 -0.43281317 -0.09679513 -0.04215874 0.06883058 -0.075699046 0.135151
0.06986608 -0.26143506 -0.186811 -0.068379104 -0.09319408 0.037672304 -0.30586904 -0.5694134
0.017243553 -0.2902139 -0.12513644 -0.035879932 0.09427884 0.09669467 -0.12380683 0.030285304
-0.29757804 -0.09322597 -0.08626289 -0.22266684 0.03516998 0.023180068 -0.24728087 -0.356785
-0.050849844 -0.06917423 0.0016216283 0.03156092 0.021665229 -0.204715 -0.34804028 -0.36387637
0.008241283 -0.04711722 0.07393189 -0.034393188 -0.053193413 -0.08205335 -0.02524376 -0.13081886
0.015298681 0.0778872 0.030629568 0.035732955 -0.08626483 0.1826636 -0.17109881 0.12705676
0.016617445 0.0228406 -0.13298334 0.08047678 0.21557415 -0.12047621 0.09999041 -0.08190054
0.074771866 -0.2633691 -0.09843828 0.14903066 -0.098820604 -0.035622723 0.16918752 0.004179833
0.051434666 0.06236018 -0.13924573 0.048198134 -0.14044441 0.13516848 0.050305966 -0.10109974
-0.12508877 0.17744118 0.018451605 -0.1293079 0.107315935 0.06955908 0.029309686 0.018395606
-0.032018308 0.1283417 0.01694589 -0.07755873 0.089936756 -0.15035985 0.16483939 -0.15939786
-0.037072297 0.18982123 -0.0399921 -0.03025771 0.005158675 0.15929002 -0.15088943 -0.120503455
00000000: 1033 ed3b cead 3c3b c004 b0bd cdfb 06bd
00000010: 485c babd dc55 233e 87ef cfbc c6f2 adbd
00000020: 99cf bdbd 3c35 94bd 7d1a 60bd 5cef 19bd
00000030: 4af6 c3bd 042a 84bd d5e5 c5bd 4b58 953d
00000040: 39ae 1d3e 7894 02be ec76 99bd 4f68 1f3d
00000050: 5518 553e 9382 cfbc a36b 2c3e bbfc 853e
00000060: 23cb 5a3d d69a 2c3e a63d 0abe ab68 0b3d
00000070: 7b73 73bd 2ea7 463e d48d 6fbd 367c bd3c
00000080: cb71 afbc 38d1 14bd 00ab 0d3e 06f8 93bc
00000090: 5dfd 18bd cb10 a43d 0e36 5f3d f0c5 3e3e
000000a0: 8a6c a93c 07a3 143e 213d 173e c27c 28bc
000000b0: bcb3 8e3b 082b 77bd 9002 e5b9 035c 553d
000000c0: 2766 acbd 4ee8 93bd 94bc 42bd b3ef 9dbc
000000d0: 7785 e2bd b209 08bc 1401 7d3d 7d5b ca3d
000000e0: 5798 fdbd b61c 1a3d 9a37 ab3d 724b 2c3e
000000f0: 6c8a 0b3e 4672 42bd c995 26bc bae1 333e
00000100: 8dcb 46bc 2a86 96bd 8587 53bc 6572 a23d
00000110: dccd 71bd 384c 94bc 6a6e 62bd 3897 96bc
00000120: 4d65 13be 2123 7dbd 4837 e3bd c1a5 dcbd
00000130: 80b6 b8bc f71a d8be bf33 5a3e 8cd0 a9bd
00000140: 88e4 a93d 3718 08be adc6 a9bd dceb d1bc
00000150: 9883 c43b b6c0 2ebe f88c 183e fbeb 15be
00000160: 74d7 3bbe b826 74be b099 ddbe 863c c6bd
00000170: a5ae 2cbd 0cf7 8c3d 1a08 9bbd 0665 0a3e
00000180: f315 8f3d d1da 85be 624b 3fbe 580a 8cbd
00000190: 8adc bebd 464e 1a3d de9a 9cbe 14c5 11bf
000001a0: 5a42 8d3c eb96 94be c423 00be d6f6 12bd
000001b0: 4415 c13d db07 c63d 6f8e fdbd e318 f83c
000001c0: 265c 98be 42ed bebd 99aa b0bd c702 64be
000001d0: 660e 103d 20e4 bd3c 3237 7dbe 86ac b6be
000001e0: ed47 50bd 38ab 8dbd d18c d43a 0646 013d
000001f0: 477b b13c cfa0 51be 5632 b2be 014e babe
00000200: 7206 073c fcfd 40bd 9a69 973d dfdf 0cbd
00000210: 56e1 59bd 960b a8bd 00cc cebc 61f5 05be
00000220: 52a7 7a3c 5383 9f3d dcea fa3c b85c 123d
00000230: 9dab b0bd 2b0c 3b3e 8734 2fbe 2b1b 023e
00000240: 4f21 883c 361c bb3c c92c 08be 03d1 a43d
00000250: 78bf 5c3e 3bbc f6bd c6c7 cc3d 78bb a7bd
00000260: fe21 993d 51d8 86be 029a c9bd 7e9b 183e
00000270: 7562 cabd 22e9 11bd 7e3f 2d3e fbf6 883b
00000280: 28ad 523d 636d 7f3d 6f96 0ebe 686b 453d
00000290: a9d0 0fbe 9b69 0a3e a10d 4e3d 610d cfbd
000002a0: 4517 00be 24b3 353e d227 973c 4a69 04be
000002b0: 75c8 db3d fe74 8e3d de1a f03c 62b2 963c
000002c0: a125 03bd 026c 033e 1bd2 8a3c 1dd7 9ebd
000002d0: c330 b83d eff7 19be a8cb 283e 3139 23be
000002e0: 1fd9 17bd 7f60 423e c2ce 23bd 04df f7bc
000002f0: 1a0a a93b ec1c 233e c282 1abe 84ca f6bd

graph_rnn.bias_hh_l0 f4 [192]
0.13032307 -0.044633217 0.12850063 0.101954654 0.09874173 -0.086811885 0.07043844 0.03969541
0.035512667 -0.14539026 -0.041316282 -0.02279005 -0.15376745 -0.27031046 -0.0861925 0.010645616
0.08799699 -0.0149876205 -0.009475415 0.095083244 0.18162294 0.041497152 0.074166 0.14286621
0.09335841 -0.028008351 -0.07903393 0.0063159578 0.12208271 0.18621603 -0.12090008 -0.115598895
-0.039442476 -0.050300635 0.02238018 -0.024495168 -0.026211102 0.17698415 -0.009835843 0.047795065
-0.17532234 0.16747631 -0.021560967 0.15732306 0.07502056 0.08337685 -0.04938012 0.10265724
0.03448716 0.09536322 0.13090292 0.086229995 -0.0694169 -0.06376608 0.075370215 0.007648509
0.074681506 0.12824056 0.028010221 0.16323858 0.03446811 -0.0450153 0.0015859889 -0.011254685
-0.08605576 -0.003236265 -0.115466766 0.042182114 -0.23089336 -0.011965717 -0.16157436 -0.20892912
-0.21884456 0.034174822 0.042533394 -0.0901324 -0.0058481838 -0.30811408 0.14220576 0.1273019
-0.075430125 -0.12249717 -0.09827573 0.013925095 -0.03666426 -0.09645485 -0.027045887 -0.06546227
-0.19184995 -0.1302723 -0.2481601 -0.09253526 0.017085869 0.16682105 -0.059612885 0.102675736
-0.005533398 -0.06493409 -0.20158927 -0.19973017 0.045130216 -0.06530864 -0.22197533 -0.47071236
0.1003643 -0.09641905 -0.044425156 -0.05553459 0.0848206 0.08503332 -0.16407192 -0.038477365
-0.15939398 -0.06294494 -0.2555214 -0.31159455 0.008168125 -0.06964103 -0.23025759 -0.40090695
-0.10019802 -0.110660225 0.12478155 0.037422143 0.012423566 -0.28364775 -0.15501893 -0.41382113
0.061374646 -0.03579713 0.07235553 -0.04323073 -0.19027688 -0.06677616 -0.0020340874 -0.21037343
-0.050276283 -0.060832985 -0.013299099 0.060876437 -0.060790528 0.1385917 0.01769968 0.19273558
-0.06129671 0.21113476 -0.10754516 0.14530568 0.22277234 -0.10813795 0.19540788 0.12179694
-0.08498386 -0.1814125 -0.03794444 0.04668077 -0.056914818 0.11486062 0.11246094 -0.07984798
-0.111968815 0.1556766 -0.022489006 0.076825425 -0.016038256 0.01913633 0.19955915 -0.041381843
-0.03846197 -0.22579558 -0.018289078 -0.040786196 0.05027078 0.027793903 0.21494329 -0.116257146
-0.11926218 0.10752874 0.07722621 0.06545128 0.04279951 -0.056193184 0.09689804 -0.13405895
-0.06887055 -0.06338646 0.054852825 0.24724758 -0.089716025 0.118434824 -0.09493069 -0.19487643
00000000: 6973 053e 52d1 36bd ab95 033e 9acd d03d
00000010: 1b39 ca3d 6eca b1bd 0742 903d a797 223d
00000020: bb75 113d 2fe1 14be 433b 29bd 33b2 babc
00000030: 3775 1dbe 2266 8abe b285 b0bd f36a 2e3c
00000040: c437 b43d a38e 75bc c53e 1bbc 01bb c23d
00000050: 5dfb 393e ebf8 293d 58e4 973d 854b 123e
00000060: b232 bf3d c571 e5bc 8bdc a1bd 18f6 ce3b
00000070: 8006 fa3d 6aaf 3e3e 769a f7bd 1dbf ecbd
00000080: 6f8e 21bd 0a08 4ebd a456 b73c 17aa c8bc
00000090: aab8 d6bc 553b 353e 8426 21bc c2c4 433d
000000a0: b387 33be e97e 2b3e a0a0 b0bc 4c19 213e
000000b0: 61a4 993d 7bc1 aa3d cf42 4abd f63d d23d
000000c0: 6942 0d3d cb4d c33d 6a0b 063e 5a99 b03d
000000d0: 732a 8ebd ca97 82bd b35b 9a3d 58a0 fa3b
000000e0: 9ef2 983d 7e51 033e b175 e53c 0428 273e
000000f0: 6f2e 0d3d f761 38bd f5e0 cf3a 9265 38bc
00000100: 013e b0bd 8417 54bb d779 ecbd 27c7 2c3d
00000110: 4f6f 6cbe db0b 44bc c073 25be 84f1 55be
00000120: ca18 60be e6fa 0b3d 7f37 2e3d 5697 b8bd
00000130: 1fa2 bfbb 21c1 9dbe 639e 113e 6e5b 023e
00000140: 1c7b 9abd ccdf fabd c944 c9bd 1526 643c
00000150: 432d 16bd 1f8a c5bd 568f ddbc 1511 86bd
00000160: 5074 44be 1a66 05be ae1d 7ebe 2083 bdbd
00000170: aaf7 8b3c 23d3 2a3e a42c 74bd a847 d23d
00000180: 8251 b5bb 2afc 84bd 6b6d 4ebe 1186 4cbe
00000190: 76da 383d 89c0 85bd 804d 63be 3601 f1be
000001a0: cc8b cd3d 5a77 c5bd 27f7 35bd 3d78 63bd
000001b0: 6cb6 ad3d f325 ae3d 7802 28be 719a 1dbd
000001c0: 2d38 23be 47e9 80bd b3d3 82be 5289 9fbe
000001d0: 99d3 053c f59f 8ebd a5c8 6bbe ad43 cdbe
000001e0: 9f34 cdbd d4a1 e2bd 788d ff3d f647 193d
000001f0: 368c 4b3c 473a 91be 48bd 1ebe 5de0 d3be
00000200: fb63 7b3d 03a0 12bd 232f 943d b512 31bd
00000210: f1d7 42be f0c1 88bd 534e 05bb 226c 57be
00000220: 81ee 4dbd 022c 79bd 77e4 59bc 9259 793d
00000230: 7dff 78bd fcea 0d3e ebfe 903c 7a5c 453e
00000240: 4212 7bbd b633 583e a340 dcbd 03cb 143e
00000250: 6f1e 643e 6e77 ddbd 0119 483e ad70 f93d
00000260: 050c aebd 33c4 39be a16b 1bbd 5634 3f3d
00000270: 831f 69bd 0b3c eb3d ec51 e63d 5687 a3bd
00000280: e84f e5bd b069 1f3e dd3a b8bc a656 9d3d
00000290: a962 83bc cbc3 9c3c 3c59 4c3e 0280 29bd
000002a0: 4c8a 1dbd f536 67be fad2 95bc 6d0f 27bd
000002b0: bce8 4d3d 0ab0 e33c 181a 5c3e 3a18 eebd
000002c0: bb3f f4bd 0738 dc3d c628 9e3d 520b 863d
000002d0: 8a4e 2f3d d32a 66bd 7b72 c63d c046 09be
000002e0: 010c 8dbd c3d0 81bd 5bad 603d 782e 7d3e
000002f0: 09bd b7bd f58d f23d 066b c2bd b08d 47be

graph_rnn.weight_ih_l1 f4 [192, 64]
-0.111718886 0.12865272 -0.41626275 -0.06318779 -0.2076679 0.15543659 0.046695746 -0.11737082
0.040049613 -0.24427639 -0.038046762 0.15074748 -0.22491182 0.7248839 -0.16269845 -0.008969517
-0.4154059 0.05119898 -0.19843958 0.080733895 -0.03792812 -0.08960623 0.021556504 -0.033386823
-0.35992593 -0.05423306 -0.16826023 0.23144566 -0.15654689 -0.06686635 0.31004837 0.022944149
-0.056452207 0.17885916 -0.28163755 -0.23412701 -0.5766609 0.12718898 0.16166525 -0.35492256
-0.45507115 0.4749881 -0.06391018 0.008834548 0.12769502 0.1935631 0.032963052 -0.5702575
0.39204052 0.16459924 -0.030556671 -0.3012296 -0.17587753 0.052266326 -0.031172518 -0.20538767
-0.064170815 -0.14835675 0.045426276 -0.013828603 -0.21251658 -0.15414014 -0.33617917 -0.27147284
0.059064604 0.10342745 -0.009751433 0.051228844 0.11159841 0.17174268 0.16271845 -0.087971635
-0.060210813 -0.12117211 -0.12734568 -0.028913822 -0.027264751 0.15015213 0.05039369 -0.18510213
-0.12043748 0.055607665 -0.227422 0.18736136 0.11783385 -0.088101536 0.052113954 0.045839317
-0.10644163 -0.057394434 -0.026341313 0.14091706 -0.12929389 0.058698818 0.02785683 0.18666291
0.04682255 0.08720958 -0.017712303 0.41418976 -0.1996391 0.02161878 -0.01494139 -0.039539445
-0.581215 -0.12827763 -0.3606041 0.118726216 0.04864155 0.13216244 0.16920374 -0.2277858
-0.070749864 0.09181035 0.13085927 -0.23642778 0.070420384 0.26501128 0.24669488 0.011628639
0.14127108 -0.0777729 -0.041437697 -0.015865354 0.10221676 0.066185825 -0.042120177 -0.094425656
-0.1499932 0.101348326 -0.5242222 -0.4192766 -0.11005418 0.718379 0.139634 -0.5061732
-0.05704694 -0.1310267 0.12679173 -0.097582 -0.44852212 -0.051939055 0.23497444 -0.047339946
-0.12061926 0.23288192 0.020362642 -0.064736485 0.08043943 -0.40876812 0.022363422 0.2313031
-0.31410846 0.14215083 -0.33130315 0.2088774 -0.53206027 -0.08574231 0.18235266 -0.49160555
0.12346585 0.2896465 -0.6256738 0.16499424 -0.4664906 -0.107203096 0.17660753 -0.060564697
-0.19035211 0.24606228 -0.028843429 0.17182171 0.22501612 0.26441044 0.17828277 -0.31725758
-0.066045016 0.7050418 -0.2884088 0.13421138 0.021770634 -0.025531579 -0.6385445 -0.5331172
-0.5984308 0.081988275 0.48145002 0.1043307 -0.48486894 -0.11535164 -0.29900163 0.18934634
-0.10395614 -0.030218681 -0.58339113 0.12675811 -0.29203123 0.3555674 0.21573852 -0.091893
-0.59294736 0.16938157 0.39617676 -0.59485364 -0.86400974 -0.008156318 -0.16655637 0.12072185
-0.4550621 0.06345466 -0.098231465 0.38220426 0.23587279 -0.2630846 0.27747732 0.01917817
0.06361234 -0.08485155 -0.2147684 0.51199675 -0.4741749 -0.0464886 0.16419317 -0.42510274
-0.3905535 0.53956723 -0.5773394 -0.06544323 -0.60548395 0.327959 -0.1775349 -0.33483934
-0.54565233 -0.41640615 -0.793082 -0.23574717 0.19098806 0.36455122 -0.047367092 -0.2108818
-0.043279406 0.48297054 0.3625965 -0.026950806 -0.05535342 0.044552248 -0.17579225 -0.045116343
-0.04977229 0.5040409 0.703632 -0.0589781 -0.32905138 0.34526947 -0.019485215 0.23851462
00000000: dfcc e4bd 8abd 033e 6420 d5be 9a68 81bd
00000010: e5a6 54be c52a 1f3e 0a44 3f3d 1d60 f0bd
00000020: 100b 243d 9723 7abe ecd6 1bbd 8c5d 1a3e
00000030: 494f 66be fe91 393f 6c9a 26be e2f4 12bc
00000040: 15b0 d4be 06b6 513d bf33 4bbe d057 a53d
00000050: 845a 1bbd 7983 b7bd 4497 b03c 9fc0 08bd
00000060: 3648 b8be 7c23 5ebd 694c 2cbe 1700 6d3e
00000070: d44d 20be 3af1 88bd a9be 9e3e 5ef5 bb3c
00000080: 6e3a 67bd db26 373e cc32 90be febe 6fbe
00000090: 0ca0 13bf d43d 023e 938b 253e 69b8 b5be
000000a0: 16ff e8be a431 f33e 57e3 82bd c8be 103c
000000b0: 7cc2 023e 6835 463e 4404 073d 65fc 11bf
000000c0: 89b9 c83e b48c 283e fc51 fabc c43a 9abe
000000d0: 3d19 34be 3715 563d 825d ffbc 2551 52be
000000e0: fd6b 83bd d5ea 17be e710 3a3d 5d91 62bc
000000f0: f29d 59be ead6 1dbe ad1f acbe 7dfe 8abe
00000100: baed 713d c5d1 d33d 79c4 1fbc 56d5 513d
00000110: b58d e43d 50dd 2f3e aa9f 263e 792a b4bd
00000120: 9d9f 76bd 1529 f8bd e866 02be aedc ecbc
00000130: 545a dfbc 7bc1 193e 9d69 4e3d 6a8b 3dbe
00000140: eda7 f6bd ddc4 633d 50e1 68be a8db 3f3e
00000150: e052 f13d 946e b4bd 7175 553d 02c2 3b3d
00000160: 12fe d9bd 6d16 6bbd bdc9 d7bc 904c 103e
00000170: 9e65 04be 2c6e 703d 0234 e43c 9024 3f3e
00000180: 01c9 3f3d f09a b23d 6419 91bc ae10 d43e
00000190: 316e 4cbe de19 b13c bbcc 74bc 1df4 21bd
000001a0: 82ca 14bf 365b 03be 1aa1 b8be bb26 f33d
000001b0: 5d3c 473d 9755 073e bf43 2d3e ae40 69be
000001c0: 4ee5 90bd 1107 bc3d f9ff 053e 201a 72be
000001d0: 9038 903d 8faf 873e 959d 7c3e 0c86 3e3c
000001e0: 5ea9 103e 6647 9fbd 93ba 29bd 0ff8 81bc
000001f0: 0557 d13d 6f8c 873d 3586 2cbd 3d62 c1bd
00000200: d197 19be b68f cf3d 6d33 06bf 6cab d6be
00000210: 1664 e1bd b0e7 373f 37fc 0e3e 9194 01bf
00000220: 0daa 69bd dd2b 06be b1d5 013e 12d9 c7bd
00000230: b1a4 e5be 0cbe 54bd 249d 703e 88e7 41bd
00000240: 3b07 f7bd 9978 6e3e 8ecf a63c 9094 84bd
00000250: 6ebd a43d 0e4a d1be 7f33 b73c b8da 6c3e
00000260: d3d2 a0be fd8f 113e 91a0 a9be f5e3 553e
00000270: 1a35 08bf aa99 afbd a8ba 3a3e b9b3 fbbe
00000280: aadb fc3d 8c4c 943e 282c 20bf 40f4 283e
00000290: dbd7 eebe 4c8d dbbd 9bd8 343e b012 78bd
000002a0: aaeb 42be c0f7 7b3e 0e49 ecbc 08f2 2f3e
000002b0: a06a 663e ce60 873e c28f 363e 966f a2be
000002c0: 9c42 87bd 9f7d 343f 51aa 93be b56e 093e
000002d0: 5458 b23c 9a27 d1bc a777 23bf 5e7a 08bf
000002e0: c332 19bf 78e9 a73d 9e80 f63e 56ab d53d
000002f0: be40 f8be 7b3d ecbd be16 99be 02e4 413e
00000300: f5e6 d4bd 2b8d f7bc 1f59 15bf e1cc 013e
00000310: 1e85 95be ee0c b63e 8fea 5c3e 6632 bcbd
00000320: 66cb 17bf 5d72 2d3e aed7 ca3e 5448 18bf
00000330: be2f 5dbf 14a2 05bc c18d 2abe 043d f73d
00000340: e6fd e8be 84f4 813d 942d c9bd 47b0 c33e
00000350: a388 713e 06b3 86be 8211 8e3e 8a1b 9d3c
00000360: 3047 823d a6c6 adbd 3fec 5bbe 3812 033f
00000370: 0dc7 f2be d56a 3ebd 4122 283e 11a7 d9be
00000380: a1f6 c7be 1421 0a3f 84cc 13bf 1a07 86bd
00000390: ff00 1bbf 3eea a73e b5cb 35be 1070 abbe
000003a0: dfaf 0bbf 3033 d5be 6c07 4bbf b567 71be
000003b0: 6092 433e 75a6 ba3e ff03 42bd 66f1 57be
000003c0: bf45 31bd ea47 f73e 40a6 b93e f0c7 dcbc
000003d0: 45ba 62bd 6b7c 363d e202 34be eacb 38bd
000003e0: 07de 4bbd d308 013f 3a21 343f 0593 71bd
000003f0: 6c79 a8be 29c7 b03e 759f 9fbc 2d3d 743e

graph_rnn.weight_hh_l1 f4 [192, 64]
0.4569481 0.3700792 -0.14209788 -0.004656108 0.09072599 0.06306292 -0.010921856 0.30625454
0.17193052 0.043085493 0.0328821 0.1310687 0.03891939 0.0736852 0.53868204 0.0894613
0.26379836 0.02688216 -0.0046521863 0.003852896 0.08158889 -0.21683076 -0.01697068 -0.12782526
-0.047890052 0.14223412 -0.26818433 -0.09939328 -0.516114 -0.07206645 -0.049428113 -0.038990032
-0.008991463 0.10292573 0.27129906 -0.108029574 0.072306074 -0.14858559 -0.074033685 0.23387296
0.15585826 -0.015604999 -0.26986307 0.10432765 0.21402624 -0.16350126 -0.19571768 -0.06487976
-0.22945866 0.25076264 -0.008538761 -0.039551478 -0.031151107 0.18875335 0.10268139 -0.14708272
0.15266885 -0.17463285 0.046162814 0.074115515 -0.22150087 0.018715315 0.06407423 -0.18351354
0.45736158 0.13727884 0.2221938 -0.082174696 0.08465557 0.097079255 -0.005803507 -0.46040347
0.25428858 0.09472546 0.14812027 -0.14944367 0.2547973 0.119040176 0.070613965 0.12916179
-0.25613165 0.029943248 0.27702802 -0.13811383 0.29940706 -0.12949425 -0.10454005 0.027461566
0.04556703 -0.00073650153 0.0017255007 -0.039834537 -0.080435835 0.10572728 0.19119547 -0.06230345
-0.038769618 0.37499017 0.4330651 -0.003446813 0.16583905 -0.027762774 -0.018903567 -0.29895633
0.09296484 0.011448276 -0.22581159 0.43203223 -0.06079784 0.041453466 -0.22664511 0.21173277
-0.015336703 0.28467184 -0.01314047 -0.07657705 0.15037882 -0.2247268 0.09998662 -0.2780727
0.13027327 -0.5748437 -0.09909443 0.129946 -0.12329748 -0.109615594 -0.135554 -0.11619945
0.060158774 -0.094225004 -0.05288708 -0.14333282 -0.79579157 -0.036600936 -0.08642896 0.02352644
0.616223 -0.19494097 0.20656952 -0.4110855 -0.14764318 -0.1054876 -0.37361974 0.16562444
-0.3721933 -0.7929553 0.13106471 -0.25035223 0.28619465 0.18169518 -0.1406409 0.0957648
0.4052732 -0.14918563 0.118047364 0.40256718 -0.21739823 -0.36808652 -0.08236923 -0.084208965
-0.17576635 -0.29382902 0.11601859 -0.030384663 -0.24378586 0.5342863 -0.17953134 -0.07062965
-0.2681362 -0.113718905 0.1724923 0.058493808 -0.015809258 0.23726402 -0.17567682 -0.59945005
0.12293506 0.25867063 0.3435334 -0.2343662 0.26127526 -0.112762436 0.14558013 0.062195223
-0.096974134 -0.13480249 -0.43840882 0.09696532 0.13433638 -0.35715428 -0.031542126 -0.011616389
0.034133274 0.0023314974 -0.20465001 0.101505734 0.26114717 0.23269668 0.032347232 0.25420222
0.48614067 -0.31424206 -0.27340835 -0.3288973 0.06269771 0.25746343 -0.11645528 0.04915445
-0.24574532 -0.08896565 0.14960259 0.122701965 -0.18392606 0.041191448 0.17034306 0.17199594
-0.04102633 -0.48809054 -0.19618268 -0.14777115 -0.11095719 -0.023970563 -0.06915784 0.20032501
0.14154875 -0.6148098 0.05067453 -0.07202103 0.118944846 -0.5469128 -0.020717798 -0.30826247
0.30335945 -0.36453944 -0.313219 0.2231665 0.48421842 0.12378181 -0.04388465 -0.25448942
-0.4447397 0.17325123 0.30237424 -0.26765168 0.10648848 -0.46079627 0.09047974 0.1105055
0.10006669 -0.27315485 0.5719005 -0.006541042 0.06431096 0.09550162 -0.37294552 -0.35919502
00000000: 1af5 e93e 057b bd3e 1b82 11be 4492 98bb
00000010: 8cce b93d 2227 813d 96f1 32bc 65cd 9c3e
00000020: 8e0e 303e 6a7a 303d 62af 063d e036 063e
00000030: f069 1f3d 44e8 963d 11e7 093f 7c37 b73d
00000040: 9410 873e fa37 dc3c 5e71 98bb de80 7c3b
00000050: 1318 a73d e208 5ebe 1806 8bbc a0e4 02be
00000060: 5c28 44bd d2a5 113e 754f 89be b48e cbbd
00000070: 0c20 04bf 9397 93bd 2275 4abd 03b4 1fbd
00000080: ee50 13bc baca d23d b6e7 8a3e 9c3e ddbd
00000090: 3515 943d d226 18be f99e 97bd 657c 6f3e
000000a0: 4f99 1f3e 1cac 7fbc 7e2b 8abe bca9 d53d
000000b0: b229 5b3e e06c 27be 376a 48be aedf 84bd
000000c0: 36f7 6abe f663 803e 29e6 0bbc bb00 22bd
000000d0: 9b30 ffbc 8f48 413e 9f4a d23d da9c 16be
000000e0: 3955 1c3e f4d2 32be 3815 3d3d e0c9 973d
000000f0: 20d1 62be dc50 993c 5a39 833d f9ea 3bbe
00000100: 4c2b ea3e d392 0c3e c686 633e 354b a8bd
00000110: e65f ad3d 7dd1 c63d 582b bebb 01ba ebbe
00000120: 1d32 823e 6cff c13d d7ac 173e c307 19be
00000130: cb74 823e 56cb f33d 0e9e 903d fd42 043e
00000140: b023 83be 8b4b f53c 9ed6 8d3e b66d 0dbe
00000150: e24b 993e 249a 04be 1819 d6bd 14f7 e03c
00000160: 7ea4 3a3d c811 41ba 322a e23a 8a29 23bd
00000170: 8bbb a4bd 8b87 d83d bfc8 433e e731 7fbd
00000180: e4cc 1ebd b6fe bf3e b5ba dd3e ede3 61bb
00000190: b6d1 293e c26e e3bc a7db 9abc ce10 99be
000001a0: 5a64 be3d 8d91 3b3c 273b 67be 5433 dd3e
000001b0: 2807 79bd 1ccb 293d a815 68be 7ad0 583e
000001c0: cb46 7bbc 82c0 913e 204b 57bc 6ed4 9cbd
000001d0: e8fc 193e c81e 66be c9c5 cc3d 8c5f 8ebe
000001e0: 5b66 053e f528 13bf 05f2 cabd 9010 053e
000001f0: 6483 fcbd 247e e0bd abce 0abe faf9 edbd
00000200: 0c69 763d 0af9 c0bd 1fa0 58bd d7c5 12be
00000210: ffb8 4bbf ddea 15bd ab01 b1bd 85ba c03c
00000220: cac0 1d3f 9b9e 47be f686 533e cc79 d2be
00000230: c62f 17be e209 d8bd 164b bfbe 7499 293e
00000240: 1f90 bebe 1eff 4abf d435 063e 2b2e 80be
00000250: 1b88 923e 4d0e 3a3e 2b04 10be 5620 c43d
00000260: f87f cf3e 1ec4 18be d1c2 f13d 491d ce3e
00000270: a49d 5ebe d675 bcbe 33b1 a8bd c075 acbd
00000280: 18fc 33be c270 96be 289b ed3d 42e9 f8bc
00000290: 00a3 79be fdc6 083f 10d7 37be 47a6 90bd
000002a0: 2649 89be 75e5 e8bd d2a1 303e 3497 6f3d
000002b0: 6b82 81bc 57f5 723e a0e4 33be 8f75 19bf
000002c0: 60c5 fb3d 7a70 843e 9ce3 af3e b1fd 6fbe
000002d0: dfc5 853e feef e6bd f512 153e 6bc0 7e3d
000002e0: 609a c6bd aa09 0abe 1f77 e0be c195 c63d
000002f0: 7a8f 093e eddc b6be 5132 01bd ab52 3ebc
00000300: 55cf 0b3d 09cc 183b c68f 51be 3de2 cf3d
00000310: 15b5 853e 0a48 6e3e 887e 043d cb26 823e
00000320: 6ee7 f83e 56e4 a0be 2efc 8bbe 3a65 a8be
00000330: a867 803d 3fd2 833e 1b80 eebd 2d56 493d
00000340: a9a4 7bbe 9f33 b6bd 6c31 193e 2b4b fb3d
00000350: 1d57 3cbe 5db8 283d 696e 2e3e b41f 303e
00000360: 3a0b 28bd 01e7 f9be 1de4 48be 5251 17be
00000370: 863d e3bd ea5d c4bc a0a2 8dbd 0022 4d3e
00000380: 28f2 103e 2d64 1dbf 1990 4f3d c37f 93bd
00000390: 5b99 f33d 7a02 0cbf 5fb8 a9bc 94d4 9dbe
000003a0: ee51 9b3e eaa4 babe 3e5e a0be c285 643e
000003b0: 7aeb f73e 5181 fd3d 64c0 33bd 704c 82be
000003c0: ecb4 e3be c568 313e ccd0 9a3e a409 89be
000003d0: a216 da3d 7ded ebbe 714d b93d b550 e23d
000003e0: c4ef cc3d f4da 8bbe 1268 123f 3d56 d6bb
000003f0: 77b5 833d 5a96 c33d b7f2 bebe 69e8 b7be

graph_rnn.bias_ih_l1 f4 [192]
0.14910188 0.07914265 -0.08688193 0.208865 0.057312597 0.04764796 -0.0059344736 0.023850026
-0.0036955792 -0.07040212 -0.013507854 -0.04017465 0.15361455 0.070885584 0.1763623 0.08798129
0.1318673 0.14781596 0.025872491 0.13220477 0.13132691 0.17621161 0.12648436 -0.08208523
0.0078848265 -0.10846888 0.106905535 -0.057696614 0.090017945 -0.019853352 -0.12441963 0.016733538
0.062706 -0.0072392244 0.09441105 0.10613047 0.067705505 -0.11576399 0.03439884 -0.014137624
0.10503217 -0.14200555 -0.08640026 0.21053647 0.008364834 0.09672087 0.15564393 0.17238393
0.16577049 0.11493861 0.06962635 0.1055748 -0.031482432 0.059212632 0.04949897 0.1495099
0.09798901 -0.037342902 0.044140093 0.09661703 -0.18088545 0.17573541 0.13596916 0.071540326
0.04369776 -0.16429837 -0.20825256 -0.07087494 -0.16039884 0.0010020885 -0.01819451 0.08609116
-0.15035278 0.16343133 0.013340475 -0.039382737 -0.014142881 -0.23934773 -0.13504575 -0.20235734
0.027417658 -0.12086343 0.012705555 0.047167286 -0.2076995 0.09151459 0.11597127 0.031035677
0.19961375 -0.0738417 -0.13756403 -0.43031326 0.10563084 0.014670812 -0.05686001 0.18703301
-0.094575465 -0.05467924 -0.05542797 -0.13002041 0.18001226 -0.2863723 -0.13607843 -0.058649853
0.12137826 0.012465217 0.15583397 0.09916344 -0.13267162 -0.22137485 -0.17419179 -0.18229072
-0.04749153 -0.09526934 -0.13620637 0.10348041 -0.03488571 -0.17561135 -0.00865267 -0.13144827
0.09167246 0.045272853 -0.18582703 0.07351321 0.005298 -0.032074716 0.41637838 0.14747877
-0.08621216 0.021869604 -0.032893367 -0.081171416 0.113657616 0.054969884 -0.120200194 0.014702602
0.15825404 0.0056575933 -0.060518317 -0.073807076 -0.012645347 0.09425569 -0.0778772 -0.22466342
-0.10431778 0.13907063 0.015145816 -0.0007946814 -0.10549574 0.009137678 -0.120137714 0.100328155
-0.04961034 0.027453614 0.07868687 -0.08765094 -0.035801258 -0.14623709 -0.18291774 0.09512733
0.060400154 -0.084016815 0.006663563 0.16257793 0.07083445 -0.048796892 0.18855806 -0.03621
-0.16764456 0.08003099 0.03391383 0.083048545 0.014380016 -0.06646918 -0.07382262 -0.054706
-0.23103859 0.15764873 0.16841868 0.018085742 -0.024401389 0.06390266 -0.010162123 -0.09231169
0.029740678 0.07336951 -0.0598489 -0.08528949 0.09271194 -0.12719725 -0.028855812 0.12185544
00000000: 2aae 183e 8b15 a23d 27ef b1bd b5e0 553e
00000010: 9dc0 6a3d 822a 433d f975 c2bb 2161 c33c
00000020: 8831 72bb fd2e 90bd 0c50 5dbc 2c8e 24bd
00000030: 224d 1d3e 762c 913d 5298 343e 892f b43d
00000040: 3908 073e 115d 173e 8cf2 d33c b060 073e
00000050: 907a 063e d170 343e 1e85 013e 4d1c a8bd
00000060: 5c2f 013c ef24 debd 4af1 da3d 4953 6cbd
00000070: 545b b83d 7fa3 a2bc b8cf febd c614 893c
00000080: 016c 803d 0437 edbb 955a c13d ef5a d93d
00000090: 2fa9 8a3d ac15 edbd cce5 0c3d 7ea1 67bc
000000a0: 1b1b d73d e769 11be 9ff2 b0bd df96 573e
000000b0: a80c 093c 9715 c63d 1f61 1f3e 6a85 303e
000000c0: bdbf 293e ef64 eb3d 4398 8e3d 9a37 d83d
000000d0: b9f3 00bd f288 723d 6fbf 4a3d 2019 193e
000000e0: 76ae c83d dff4 18bd 3ecc 343d 26df c53d
000000f0: 093a 39be fcf3 333e 803b 0b3e bc83 923d
00000100: 6cfc 323d d53d 28be 2940 55be e126 91bd
00000110: 983f 24be 8358 833a a70c 95bc 9050 b03d
00000120: 14f6 19be 8b5a 273e 0292 5a3c cb4f 21bd
00000130: 8bb7 67bc 9217 75be 6f49 0abe c336 4fbe
00000140: ff9a e03c 3f87 f7bd f62a 503c 7c32 413d
00000150: 2daf 54be 006c bb3d 5882 ed3d 883e fe3c
00000160: 8c67 4c3e 513a 97bd 96dd 0cbe 0552 dcbe
00000170: fb54 d83d d85d 703c 0be6 68bd 9585 3f3e
00000180: c8b0 c1bd 57f7 5fbd 7008 63bd 1224 05be
00000190: 2255 383e 649f 92be 2558 0bbe d43a 70bd
000001a0: 2a95 f83d e93a 4c3c f192 1f3e 3416 cb3d
000001b0: 12db 07be 17b0 62be 555f 32be 6baa 3abe
000001c0: 7b86 42bd 921c c3bd af79 0bbe 8aed d33d
000001d0: 51e4 0ebd 76d3 33be eec3 0dbc 609a 06be
000001e0: c5be bb3d 0770 393d 7149 3ebe 188e 963d
000001f0: d89a ad3b c760 03bd 8c2f d53e ad04 173e
00000200: 0090 b0bd e227 b33c 32bb 06bd 333d a6bd
00000210: 53c5 e83d 1a28 613d 852b f6bd 2fe3 703c
00000220: 590d 223e 5563 b93b 0ee2 77bd 2a28 97bd
00000230: 6e2e 4fbc 2109 c13d 157e 9fbd 2b0e 66be
00000240: 8fa4 d5bd 8868 0e3e 2826 783c 2a52 50ba
00000250: 270e d8bd 33b6 153c c30a f6bd d978 cd3d
00000260: 3634 4bbd 67e6 e03c 9526 a13d 5682 b3bd
00000270: 57a4 12bd 2dbf 15be ca4e 3bbe 1ed2 c23d
00000280: 2766 773d 0211 acbd 055a da3b d47a 263e
00000290: a711 913d 40df 47bd 5d15 413e f050 14bd
000002a0: 04ab 2bbe 4ae7 a33d 3ae9 0a3d 5b15 aa3d
000002b0: 299a 6b3c fe20 88bd 5030 97bd 6613 60bd
000002c0: 6195 6cbe ab6e 213e f275 2c3e 8d28 943c
000002d0: 6ce5 c7bc 66df 823d 087f 26bc e90d bdbd
000002e0: b9a2 f33c c142 963d 1f24 75bd 42ac aebd
000002f0: c2df bd3d ff3f 02be 0663 ecbc 588f f93d
