graphrnn_v2/experiments/structures/k_regulars/vary_m/3_regular_vary_m_8/model_at_400.pt (torch, 419259 bytes, 43 tensors)

adj_embedding.0.weight f4 [32, 8]
0.07737991 0.04581138 -0.39542374 -0.37705407 0.08630183 0.3188433 0.3147455 0.30601025
-0.0034363589 -0.33907926 0.012896609 -0.29478785 -0.26221064 -0.2997594 0.11703446 0.16298354
0.08588972 -0.34765914 0.062329955 0.17567118 0.29882655 0.26941243 0.16698378 -0.37141857
0.30724868 0.5916692 -0.08560356 0.3721486 0.43252668 0.40767995 0.21668017 0.07462514
0.6828067 0.084333956 0.43262368 0.107637785 0.16282044 0.14829847 0.29891157 0.08852048
-0.19808352 -0.4907249 0.2078572 0.46980587 0.3822724 -0.0016494613 -0.19974454 -0.13112225
-0.11021365 -0.21042792 -0.22756465 -0.21640125 -0.0070552197 -0.056500137 -0.15659541 -0.45433462
0.7245683 0.20642225 -0.25492048 -0.22705096 -0.27047256 -0.26201236 -0.28211293 -0.21209233
0.19980618 0.35351554 0.41673765 -0.080327444 -0.08380793 -0.46830678 -0.33509958 -0.2626708
0.45018223 0.04527541 0.1835514 0.125172 0.06545385 0.26681766 -0.2204253 0.025508976
-0.33982712 -0.16875033 0.31964138 0.06808385 0.08064524 0.3469185 0.3872496 -0.13719273
-0.39953607 0.23346429 0.16941105 0.1479937 0.29556724 -0.1937734 -0.2756274 -0.2684669
0.30686894 -0.08850929 -0.10586869 0.058438223 0.3363885 0.57479054 0.6035594 0.4205081
0.573254 0.49034175 0.25340024 0.08393156 0.3776808 -0.013228288 0.19319646 -0.02999114
0.536317 0.46700615 0.3823297 0.19637074 0.012888023 -0.20333996 0.20001619 0.19689395
-0.13945502 0.06123734 0.47834432 0.34781846 0.34293875 0.33634654 0.11346769 -0.052348252
-0.05438305 0.33505067 0.24254318 0.3924008 -0.1989448 -0.099108264 -0.2174894 0.104109384
0.41851473 -0.06832635 0.34686083 0.4804367 0.25684604 0.4373975 -0.12703358 -0.15534125
-0.17591451 -0.31186062 0.28570813 0.010743339 -0.27824625 0.26351428 -0.143089 -0.27291188
0.2681369 0.6773106 0.089080945 -0.12742355 -0.19123252 0.23059256 0.08008491 0.23106128
0.33510375 0.519443 0.5018769 0.3135262 0.24740778 0.14941116 0.038495824 -0.026132973
0.22682309 0.23687701 0.042753346 0.3452213 0.23176733 0.11725609 0.12228225 0.04290264
-0.1180628 -0.28994954 0.051699683 0.03872503 -0.20421466 -0.05852347 -0.010241178 -0.13381633
0.29278564 -0.028952736 -0.23673542 0.027102303 0.39407003 0.1561992 0.09552918 -0.14976685
0.22560596 0.14217043 0.4981725 0.29085252 0.44627875 0.1490507 0.1717319 0.20409396
0.28474858 -0.49835667 -0.036454894 -0.508239 -0.39287433 -0.19517513 -0.34574994 -0.21246701
0.10032887 -0.20975205 -0.34241512 -0.37765977 0.042729095 0.0031575207 0.34421402 0.28908366
0.056567486 0.07382237 -0.0068208557 -0.37615508 -0.27140155 -0.34242103 -0.38035733 -0.36301455
-0.2083492 -0.11934807 -0.3406388 -0.34446567 -0.3442308 0.05376623 -0.308294 -0.32394442
-0.12348046 -0.15591128 -0.15401545 0.39961976 0.35767063 -0.14005344 -0.15572736 -0.06933757
0.4262952 -0.031377185 -0.31545183 0.070793636 -0.4693658 -0.4485421 -0.39918745 -0.30035755
0.18871914 -0.42112333 0.25321165 0.08723445 -0.21526928 -0.13880666 -0.1210412 -0.4292571
00000000: 5c79 9e3d b7a4 3b3d fb74 cabe 3b0d c1be
00000010: 04bf b03d 6e3f a33e 5226 a13e 60ad 9c3e
00000020: 8934 61bb cc9b adbe 4c4c 533c 6fee 96be
00000030: 7940 86be 107a 99be c3af ef3d 28e5 263e
00000040: f3e6 af3d 6100 b2be b24d 7f3d 25e3 333e
00000050: cbff 983e 6df0 893e ccfd 2a3e 932a bebe
00000060: b34f 9d3e a277 173f eb50 afbd 438a be3e
00000070: 2374 dd3e 6dbb d03e 68e1 5d3e 11d5 983d
00000080: 6bcc 2e3f 48b7 ac3d da80 dd3e 3371 dc3d
00000090: 67ba 263e 8edb 173e f00a 993e 3a4a b53d
000000a0: 68d6 4abe 4b40 fbbe 85d8 543e 658a f03e
000000b0: 35b9 c33e bd32 d8ba d589 4cbe e944 06be
000000c0: b2b7 e1bd 6b7a 57be b506 69be 4a98 5dbe
000000d0: 792f e7bb b06c 67bd 8c5a 20be 8c9e e8be
000000e0: 4f7d 393f 5b60 533e f084 82be 0c80 68be
000000f0: 617b 8abe 7c26 86be 1b71 90be bb2e 59be
00000100: fe99 4c3e fdff b43e a35e d53e b782 a4bd
00000110: 7ea3 abbd e8c5 efbe 2c92 abbe c97c 86be
00000120: 497e e63e b572 393d e6f4 3b3e 172d 003e
00000130: ab0c 863d 539c 883e 2bb7 61be 33f8 d03c
00000140: d2fd adbe e3cc 2cbe 09a8 a33e 8c6f 8b3d
00000150: 5529 a53d 4d9f b13e 9445 c63e 407c 0cbe
00000160: fe8f ccbe 4311 6f3e 177a 2d3e a98b 173e
00000170: 9754 973e 896c 46be 091f 8dbe 7e74 89be
00000180: ed1d 9d3e 5c44 b5bd afd1 d8bd eb5c 6f3d
00000190: 1d3b ac3e 7925 133f de82 1a3f d64c d73e
000001a0: c6c0 123f 130e fb3e adbd 813e 4fe4 ab3d
000001b0: 615f c13e 76bb 58bc 4bd5 453e fbaf f5bc
000001c0: 124c 093f 6e1b ef3e b8c0 c33e 6915 493e
000001d0: 4928 533c 5a38 50be 0bd1 4c3e 919e 493e
000001e0: 4ccd 0ebe 01d4 7a3d 8ce9 f43e 4315 b23e
000001f0: ab95 af3e 9d35 ac3e c061 e83d 1f6b 56bd
00000200: c3c0 5ebd c38b ab3e 3d5d 783e c2e8 c83e
00000210: 30b8 4bbe 46f9 cabd 8bb5 5ebe 4d37 d53d
00000220: 9047 d63e afee 8bbd be97 b13e cdfb f53e
00000230: 5381 833e 91f2 df3e 1715 02be c711 1fbe
00000240: ef22 34be 32ac 9fbe 5648 923e d404 303c
00000250: 4b76 8ebe 58eb 863e ec85 12be 1bbb 8bbe
00000260: 3d49 893e 3a64 2d3f 1270 b63d 527b 02be
00000270: 75d2 43be 7520 6c3e 8f03 a43d 549b 6c3e
00000280: b892 ab3e 37fa 043f 017b 003f 8286 a03e
00000290: 7758 7d3e 3dff 183e ccad 1d3d d114 d6bc
000002a0: 5044 683e e38f 723e 221e 2f3d d9c0 b03e
000002b0: 6a54 6d3e f623 f03d 1e6f fa3d aeba 2f3d
000002c0: e9ca f1bd 4474 94be 0cc3 533d 239e 1e3d
000002d0: a61d 51be 4eb6 6fbd 9dca 27bc 2607 09be
000002e0: 00e8 953e 4a2e edbc c56a 72be a605 de3c
000002f0: 8cc3 c93e aff2 1f3e cda4 c33d 7b5c 19be
00000300: 4005 673e 2095 113e 7710 ff3e 9fea 943e
00000310: a67e e43e bfa0 183e 7dda 2f3e 02fe 503e
00000320: 91ca 913e 9b28 ffbe ba51 15bd f31b 02bf
00000330: d326 c9be fddb 47be 2306 b1be f490 59be
00000340: 3979 cd3d 3ec9 56be 0951 afbe 9f5c c1be
00000350: b404 2f3d 68ee 4e3b d23c b03e c602 943e
00000360: 4fb3 673d 2f30 973d 7c81 dfbb 6697 c0be
00000370: 25f5 8abe cf51 afbe 32be c2be 0bdd b9be
00000380: 7e59 55be c36c f4bd 3568 aebe ce5d b0be
00000390: 053f b0be fa39 5c3d b6d8 9dbe 0bdc a5be
000003a0: 53e3 fcbd 35a7 1fbe 3ab6 1dbe f69a cc3e
000003b0: 9b20 b73e 2b6a 0fbe fe76 1fbe db00 8ebd
000003c0: 5d43 da3e 5d85 00bd e782 a1be 41fc 903d
000003d0: b750 f0be 4fa7 e5be 4c62 ccbe 77c8 99be
000003e0: 973f 413e 7a9d d7be f5a4 813e faa7 b23d
000003f0: 8d6f 5cbe 5523 0ebe 73e4 f7bd 96c7 dbbe

adj_embedding.0.bias f4 [32]
-0.4009443 -0.29567507 -0.39357477 0.050381396 -0.09884562 0.39427552 0.4286436 0.22791544
0.22564167 0.04761286 0.2963906 0.32286885 0.17389242 0.02248828 0.16195162 0.049005188
0.06873842 0.25970823 -0.28391856 0.17601182 -0.051705886 -0.04669951 -0.24820043 0.09410963
-0.20096251 0.20391215 0.33163184 0.19193454 -0.24141437 0.38036817 -0.062476948 -0.0401843
00000000: 9248 cdbe b962 97be a282 c9be b95c 4e3d
00000010: 936f cabd 7bde c93e 2d77 db3e aa62 693e
00000020: 9c0e 673e b405 433d 82c0 973e 114f a53e
00000030: db10 323e 5739 b83c a5d6 253e aab9 483d
00000040: bbc6 8c3d 7af8 843e c65d 91be 713c 343e
00000050: 8dc9 53bd fc47 3fbd 4128 7ebe 8dbc c03d
00000060: 1ec9 4dbe 59ce 503e a6cb a93e 7d8a 443e
00000070: 5435 77be 9ebf c23e d4e7 7fbd 4b98 24bd

graph_rnn.weight_ih_l0 f4 [192, 32]
0.13411787 -0.105632365 0.1319899 0.1535437 -0.018126937 0.06606992 -0.005593311 -0.1860597
-0.058985576 -0.04460093 0.18838307 -0.05801485 0.06995305 -0.1665575 -0.17246932 0.22673854
-0.1570436 0.17700696 0.30234903 0.0012591074 -0.1375142 -0.054436952 -0.05169989 0.085326
0.09615051 -0.26733312 -0.19223294 -0.35425353 0.06171602 -0.07249734 0.22659089 -0.18417527
0.3307209 -0.021432465 0.4399524 0.03308566 0.09476551 -0.3458625 -0.013132919 0.2702974
0.0537521 0.157932 -0.12740521 -0.2038589 -0.09513996 0.18918413 0.11313725 -0.087315865
-0.10310272 -0.13237792 0.12698643 -0.022725813 -0.0149770975 0.013664177 -0.050903022 -0.093835324
-0.09174752 0.40869984 -0.18187568 0.5629814 0.02436158 -0.20163529 0.72905594 0.016762208
0.64162314 0.059885204 0.088311754 0.1811233 0.057080317 -0.12754373 -0.16848281 0.14184853
0.17684041 0.15340756 -0.06345846 -0.08737555 0.0064151734 0.042687044 0.24026577 0.017892698
0.1216188 0.23998341 -0.38576347 0.27543962 0.22262208 0.108322725 0.06807463 0.057738993
0.1505316 -0.0755127 0.19957088 -0.18020661 -0.031465203 0.0042348723 -0.3943618 -0.045454804
0.0460611 0.12104964 -0.16561788 -0.092368044 -0.09105465 -0.05042725 0.11980296 0.015222674
-0.06420354 -0.11918813 -0.11241947 -0.08287976 0.0021845887 -0.1584377 -0.12040622 -0.13773106
0.053624403 -0.13484293 0.10203127 -0.08608866 -0.14515775 -0.11852873 -0.060471594 -0.05371725
-0.1442156 0.14063029 0.0073596593 0.019698376 0.092395246 -0.026671164 0.0041172444 0.18685828
-0.0442615 -0.063563645 -0.2865526 0.13463432 0.25121704 0.078079015 0.16137728 0.28856793
0.31388965 -0.016132671 0.068647906 0.31964085 -0.13215676 0.44320828 0.09969686 0.08066246
-0.09163222 -0.010369738 0.055324316 -0.029400216 0.08649838 0.18104613 -0.087795645 0.3447833
0.31058806 0.17818281 -0.24302544 0.19845839 0.07939017 0.28476292 0.07095496 0.12096155
0.36990204 0.066938676 0.61022055 -0.030995507 -0.08488803 0.14478098 0.040718213 -0.013299269
-0.1503815 -0.033512004 0.16952091 -0.014923389 0.03061009 -0.015354895 -0.12103146 0.2098614
-0.24884066 0.074096635 0.31971613 -0.07632187 0.06613901 -0.012574152 -0.11363195 0.030825265
0.0040776017 0.08812991 0.13724871 0.011275742 0.049792454 0.15556526 -0.21363749 0.013598878
-0.05698354 0.021524817 -0.3783927 -0.047003813 0.0869834 0.027957339 -0.13712458 -0.061878264
-0.03603244 -0.07687952 -0.12935275 0.05683078 -0.04822366 -0.12857829 0.050827645 -0.064180635
-0.09136707 0.005114454 0.16998312 -0.10840983 -0.06637456 -0.14474459 -0.024690807 -0.017495895
-0.068291165 -0.081755415 0.2022483 -0.0046230825 -0.09354068 -0.0012159756 0.098371446 0.030183429
-0.07114419 0.1204623 -0.03489429 -0.28421894 -0.0765427 -0.0033582363 0.0667515 -0.046236545
-0.1454173 -0.026365118 -0.034571987 -0.09285286 -0.11896244 -0.30631965 -0.12113156 -0.15229137
-0.07572269 0.011031381 0.17134914 -0.014474264 -0.30008352 -0.10352502 -0.04382375 -0.14246881
-0.1345229 -0.08741752 -0.02149461 0.014375106 -0.124933496 0.04228402 0.02165885 0.021357745
00000000: 3256 093e c855 d8bd 5c28 073e 8f3a 1d3e
00000010: f17e 94bc ab4f 873d 1848 b7bb 6f86 3ebe
00000020: dc9a 71bd 77af 36bd 7ee7 403e fba0 6dbd
00000030: 8b43 8f3d 0d8e 2abe cc9b 30be 262e 683e
00000040: 0ad0 20be 5041 353e 7ecd 9a3e a208 a53a
00000050: 86d0 0cbe 48f9 5ebd 44c3 53bd 66bf ae3d
00000060: 8fea c43d e3df 88be b6d8 44be b860 b5be
00000070: f0c9 7c3d 7c79 94bd 7107 683e 7198 3cbe
00000080: 4054 a93e 2393 afbc 7141 e13e d484 073d
00000090: 6b14 c23d e414 b1be 742b 57bc 6c64 8a3e
000000a0: 292b 5c3d edb8 213e 8376 02be 63c0 50be
000000b0: bdd8 c2bd 7cb9 413e 81b4 e73d a9d2 b2bd
000000c0: 8527 d3bd 148e 07be bb08 023e 7c2b babc
000000d0: 8062 75bc b6df 5f3c b07f 50bd bc2c c0bd
000000e0: 20e6 bbbd 1b41 d13e 9e3d 3abe 8d1f 103f
000000f0: f091 c73c 7b79 4ebe 69a3 3a3f e650 893c
00000100: 6a41 243f 304a 753d cbdc b43d 6378 393e
00000110: 0dcd 693d d39a 02be c286 2cbe be40 113e
00000120: a715 353e df16 1d3e 82f6 81bd f4f1 b2bd
00000130: 6036 d23b 9cd8 2e3d 3b08 763e b593 923c
00000140: 4713 f93d 36be 753e ca82 c5be 6c06 8d3e
00000150: 0bf7 633e 4ed8 dd3d b66a 8b3d b97f 6c3d
00000160: f524 1a3e 67a6 9abd 4f5c 4c3e 1588 38be
00000170: a8e1 00bd afc4 8a3b cae9 c9be d12e 3abd
00000180: 90aa 3c3d e0e8 f73d bc97 29be 752b bdbd
00000190: dc7a babd ce8c 4ebd 415b f53d 8668 793c
000001a0: 257d 83bd e818 f4bd 2e3c e6bd ddbc a9bd
000001b0: 512b 0f3b 7e3d 22be 8997 f6bd 5f09 0dbe
000001c0: 43a5 5b3d 4414 0abe c5f5 d03d 404f b0bd
000001d0: 3ca4 14be 31bf f2bd 10b1 77bd 9e06 5cbd
000001e0: 41ad 13be 6301 103e 4c29 f13b 7d5e a13c
000001f0: b839 bd3d 7c7d dabc f3e9 863b c757 3f3e
00000200: 8c4b 35bd a82d 82bd 06b7 92be 94dd 093e
00000210: 859f 803e e4e7 9f3d 1640 253e 2dbf 933e
00000220: 25b6 a03e aa28 84bc 4697 8c3d f7a7 a33e
00000230: 1a54 07be 32ec e23e de2d cc3d 5c32 a53d
00000240: aca9 bbbd d5e5 29bc c09b 623d b9d8 f0bc
00000250: 1026 b13d 2864 393e 34ce b3bd 7087 b03e
00000260: 6605 9f3e 8e75 363e a9db 78be ad38 4b3e
00000270: 5097 a23d 72cc 913e d650 913d b0ba f73d
00000280: cd63 bd3e 2517 893d 6a37 1c3f 4aea fdbc
00000290: c7d9 adbd 7741 143e 24c8 263d 2de5 59bc
000002a0: 9cfd 19be e243 09bd e496 2d3e 3b81 74bc
000002b0: 03c2 fa3c 1993 7bbc 58df f7bd e8e5 563e
000002c0: 16d0 7ebe fabf 973d d5b1 a33e a44e 9cbd
000002d0: e473 873d d103 4ebc deb7 e8bd 4485 fc3c
000002e0: 679d 853b 747d b43d ed8a 0c3e e4bd 383c
000002f0: 2cf3 4b3d 804c 1f3e c9c3 5abe d4cd 5e3c
00000300: 9367 69bd d054 b03c b0bc c1be 1287 40bd
00000310: 5a24 b23d ca06 e53c 636a 0cbe 1074 7dbd
00000320: c096 13bd 0373 9dbd 0c75 04be 64c7 683d
00000330: 2c86 45bd 07aa 03be a630 503d 2371 83bd
00000340: a91e bbbd 2697 a73b 0e10 2e3e f905 debd
00000350: 63ef 87bd ed37 14be 6044 cabc 8d53 8fbc
00000360: 3ddc 8bbd 626f a7bd 2e1a 4f3e 3a7d 97bb
00000370: 4292 bfbd 5f61 9fba f876 c93d 3d43 f73c
00000380: 0cb4 91bd f0b4 f63d 51ed 0ebd 2585 91be
00000390: 6bc2 9cbd db15 5cbb 03b5 883d 8862 3dbd
000003a0: 46e8 14be a9fb d7bc 5b9b 0dbd a429 bebd
000003b0: 94a2 f3bd eed5 9cbe d313 f8bd 45f2 1bbe
000003c0: 7f14 9bbd f7bc 343c 2676 2f3e 7725 6dbc
000003d0: 8ca4 99be ed04 d4bd 8880 33bd 58e3 11be
000003e0: 5fc0 09be f507 b3bd 7715 b0bc 9185 6b3c
000003f0: 22dd ffbd 0232 2d3d e76d b13c 70f6 ae3c

graph_rnn.weight_hh_l0 f4 [192, 64]
-0.106082186 0.19031909 0.039941255 -0.11410985 0.08044078 0.06641937 0.046695698 -0.36624268
-0.10414293 0.051338892 0.14927289 -0.028722895 -0.22007342 0.15295903 0.09348319 0.09482528
0.009502317 -0.027469136 0.015797315 0.080380976 0.07226164 -0.17787908 -0.14958867 0.055686347
-0.2236486 0.040139616 -0.11010358 -0.013895053 -0.20470423 -0.11047117 0.19491848 -0.075389825
-0.15169989 0.08133416 -0.13733792 -0.062289692 0.008255205 -0.077924326 0.27976805 0.028318018
-0.07326996 0.010051368 0.13958663 0.09004275 0.07974557 0.27443936 0.25155053 0.1388835
-0.06816281 -0.020544348 -0.06213911 -0.1039356 0.00046754006 -0.11597895 0.03219607 -0.06359417
-0.08395185 -0.091670714 -0.00035967794 0.0029521568 -0.20762026 -0.040380962 -0.13657823 -0.14730702
0.021498308 -0.097871676 -0.059097216 0.026265424 -0.075838484 0.09469548 -0.09282907 0.3787091
0.18725574 -0.27626228 0.012872688 -0.0200689 0.075304404 -0.1547134 -0.026005307 -0.022707557
-0.061156966 -0.23104733 0.040696397 0.040278792 -0.03148068 0.168077 0.03162456 -0.023974456
0.305849 0.082389906 0.4091022 -0.14195834 0.19915104 -0.088588916 -0.2246613 0.034494378
-0.0440048 -0.109853245 0.012373722 0.18797725 -0.20471656 0.10841825 -0.20071785 -0.07167836
0.02837672 0.24376115 -0.055530284 -0.05324698 0.16641688 0.07080026 -0.12104392 0.03288304
0.065612234 0.14302675 -0.003929672 0.10269311 -0.14261831 0.01795031 -0.073489435 0.065266
0.08288835 0.10534385 -0.1845616 -0.18566796 0.097793005 0.0007746824 0.047132324 0.40115333
-0.0385471 -0.048970863 0.078248195 -0.045968655 -0.03855964 0.0014587847 -0.21795171 0.18788262
-0.06784015 0.056523573 -0.07200697 -0.15371571 0.06434375 0.04251082 0.086387575 -0.014802673
0.041785497 -0.14745575 0.20506147 0.030831968 0.030821374 0.034559365 -0.017784158 0.11665841
0.09541172 -0.0061384887 -0.0685809 0.07061509 0.046309713 0.08987375 0.027853731 -0.100883804
0.0075640753 -0.0582204 0.041285176 0.18266328 0.016298868 0.06048855 -0.11545171 -0.34966338
0.2696458 0.38559124 0.09077663 -0.28114346 -0.051463675 0.08200947 -0.018876093 0.07389803
0.36969456 0.17213395 -0.24478248 0.39927188 0.05986489 -0.06471274 0.007466575 -0.1426982
0.02741147 -0.03550933 -0.02873705 -0.0471215 0.19550602 0.05606143 0.015295916 0.1691577
-0.1064156 0.07836331 -0.03981894 -0.21719313 0.035721775 0.0077468683 0.17358567 -0.23946516
-0.059282977 -0.07061027 0.105744116 0.046334557 -0.14164469 0.052318897 0.08823239 0.049517002
-0.025983622 -0.07667212 -0.15425575 0.07841916 0.02591613 0.003999732 -0.18739761 0.07317622
-0.03243305 -0.045875687 -0.069555275 0.08301995 -0.11447419 0.04721923 0.37840766 -0.03128399
0.0062632104 0.09336975 -0.118436314 -0.09262055 -0.20886032 0.10194251 0.14432998 0.07715174
-0.0791095 0.08989486 0.25105262 -0.023688132 -0.019714614 0.11673577 0.18225943 0.03091329
-0.15546805 -0.035939224 -0.021566376 -0.019412875 0.035605144 0.09700223 -0.13041002 -0.036863793
0.00068234256 0.22824945 0.1381822 -0.04318852 -0.26702052 -0.04080309 0.18322937 -0.11000704
00000000: 9e41 d9bd 02e3 423e 7199 233d 6db2 e9bd
00000010: 23be a43d e106 883d fd43 3f3d 2984 bbbe
00000020: e348 d5bd bb48 523d feda 183e 474c ebbc
00000030: ed5a 61be 4ba1 1c3e 1d74 bf3d c233 c23d
00000040: 9baf 1b3c f406 e1bc 5f69 813c c89e a43d
00000050: e9fd 933d ef25 36be c62d 19be 5e17 643d
00000060: 2304 65be 7069 243d fc7d e1bd 14a8 63bc
00000070: fc9d 51be b53e e2bd b698 473e fb65 9abd
00000080: 3757 1bbe 8692 a63d 50a2 0cbe 7a23 7fbd
00000090: d740 073c ca96 9fbd c23d 8f3e 30fb e73c
000000a0: 900e 96bd 7eae 243c ccef 0e3e 5568 b83d
000000b0: a551 a33d 5183 8c3e 3bcb 803e 7a37 0e3e
000000c0: f198 8bbd 9f4c a8bc 9485 7ebd 30dc d4bd
000000d0: 2a20 f539 5f86 edbd 07e0 033d a93d 82bd
000000e0: f3ee abbd dbbd bbbd 2893 bcb9 f978 413b
000000f0: 689a 54be 8266 25bd 2adb 0bbe a7d7 16be
00000100: 381d b03c f270 c8bd ec0f 72bd 962a d73c
00000110: 3551 9bbd b4ef c13d 2b1d bebd 29e6 c13e
00000120: f8bf 3f3e 4072 8dbe f7e7 523c 8967 a4bc
00000130: 3239 9a3d 316d 1ebe 1509 d5bc 3305 babc
00000140: ba7f 7abd ac97 6cbe 44b1 263d 60fb 243d
00000150: e3f1 00bd 611c 2c3e c188 013d 1466 c4bc
00000160: 3d98 9c3e 0abc a83d d875 d13e 875d 11be
00000170: 40ee 4b3e 1b6e b5bd 9d0d 66be fa49 0d3d
00000180: 613e 34bd bdfa e0bd 27bb 4a3c 1c7d 403e
00000190: 38a1 51be 630a de3d fb88 4dbe 1bcc 92bd
000001a0: 4c76 e83c 869c 793e b973 63bd 8119 5abd
000001b0: 3069 2a3e baff 903d e0e5 f7bd 5eb0 063d
000001c0: b55f 863d 9b75 123e 7ac4 80bb c450 d23d
000001d0: 890a 12be 870c 933c a181 96bd 2eaa 853d
000001e0: 5ec1 a93d 84be d73d b7fd 3cbe be1f 3ebe
000001f0: b347 c83d 0e14 4b3a d30d 413d f863 cd3e
00000200: 90e3 1dbd ac95 48bd 9740 a03d a149 3cbd
00000210: b7f0 1dbd b134 bf3a bc2e 5fbe 4d64 403e
00000220: c7ef 8abd 4385 673d 6478 93bd a767 1dbe
00000230: a8c6 833d d31f 2e3d f8eb b03d e986 72bc
00000240: 4527 2b3d a4fe 16be a2fb 513e 5393 fc3c
00000250: 1b7d fc3c 1f8e 0d3d 15b0 91bc 9bea ee3d
00000260: 3867 c33d 6025 c9bb 2574 8cbd a59e 903d
00000270: 41af 3d3d bb0f b83d 822d e43c 2b9c cebd
00000280: 10dc f73b 8478 6ebd a51a 293d 150c 3b3e
00000290: 3485 853c d8c2 773d f271 ecbd 1407 b3be
000002a0: 040f 8a3e 376c c53e 19e9 b93d 09f2 8fbe
000002b0: 93cb 52bd 95f4 a73d 09a2 9abc da57 973d
000002c0: 9b48 bd3e e243 303e 42a8 7abe 5d6d cc3e
000002d0: e334 753d 1d88 84bd 2caa f43b 7a1f 12be
000002e0: 058e e03c 3b72 11bd f669 ebbc 7902 41bd
000002f0: bb32 483e aca0 653d b99b 7a3c ad37 2d3e
00000300: 6cf0 d9bd f17c a03d 2f19 23bd e067 5ebe
00000310: ff50 123d 71d9 fd3b 71c0 313e 5b36 75be
00000320: b5d2 72bd 1e9c 90bd 5f90 d83d 4ec9 3d3d
00000330: 4e0b 11be 574c 563d 2fb3 b43d 57d2 4a3d
00000340: 9bdb d4bc 4606 9dbd 38f5 1dbe 399a a03d
00000350: 104e d43c 2f10 833b 29e5 3fbe 6add 953d
00000360: 85d8 04bd 25e8 3bbd ff72 8ebd 5d06 aa3d
00000370: 7271 eabd f468 413d a6be c13e a423 00bd
00000380: 9e3b cd3b a438 bf3d bd8e f2bd d8af bdbd
00000390: 7bdf 55be 3cc7 d03d 3dcb 133e bb01 9e3d
000003a0: 2904 a2bd cc1a b83d f889 803e 9d0d c2bc
000003b0: 8b80 a1bc 2a13 ef3d 37a2 3a3e de3d fd3c
000003c0: 0433 1fbe 0235 13bd f8ab b0bc c007 9fbc
000003d0: b3d6 113d 1ba9 c63d 348a 05be 7dfe 16bd
000003e0: 3cdf 323a 39ba 693e a27f 0d3e 72e6 30bd
000003f0: eab6 88be 2421 27bd 7ba0 3b3e 5f4b e1bd

graph_rnn.bias_ih_l0 f4 [192]
0.015318299 -0.00300451 -0.05387469 -0.037772696 -0.0798401 0.16428663 -0.032828428 -0.084840834
-0.098771006 -0.09400828 -0.05159329 -0.03875498 -0.08666826 -0.03357864 -0.10194357 0.079301685
0.15007907 -0.13325146 -0.07520244 0.042023208 0.19118422 -0.039501343 0.14958124 0.24594365
0.05659591 0.17676188 -0.13007687 0.043447655 -0.068751 0.20220794 -0.05305036 0.013149849
-0.030812178 -0.027014757 0.13054731 -0.009414475 -0.040580813 0.068158485 0.04520177 0.14763299
0.038656168 0.14604436 0.14238995 -0.015307169 -0.0045488756 -0.05534068 -0.0046266946 0.043229703
-0.09358358 -0.09044037 -0.052646257 -0.027709445 -0.11127845 -0.012606773 0.06260966 0.09872316
-0.14095348 0.03851156 0.065653 0.16968738 0.11829588 -0.06646517 -0.00018064752 0.16424271
-0.022866752 -0.10659505 -0.015360495 0.06514372 -0.0688122 -0.036832802 -0.046852164 -0.008273943
-0.1573429 -0.07046312 -0.11028881 -0.109362476 -0.034569513 -0.43988302 0.21568629 -0.101210974
0.06998345 -0.1379386 -0.07151564 -0.031313118 0.004635476 -0.14594138 0.16206439 -0.14758718
-0.180397 -0.2501991 -0.41237798 -0.109382786 -0.056120872 0.06020568 -0.08010705 0.12581709
0.07076713 -0.2852903 -0.18408284 -0.039787743 -0.104775704 0.03446355 -0.300384 -0.5600266
0.0054195956 -0.293891 -0.12858948 -0.050764006 0.09521497 0.08040781 -0.122486785 0.02454596
-0.27796122 -0.088973425 -0.10958543 -0.21943156 0.04391719 0.0064714113 -0.23699652 -0.34439626
-0.03416368 -0.08226388 -0.008687332 0.023417326 0.012630845 -0.1952309 -0.34208524 -0.38412243
0.015567135 -0.041656025 0.08356856 -0.031594258 -0.043773208 -0.07091906 -0.027140096 -0.1265597
0.019489184 0.075936936 0.027019236 0.033520978 -0.07786295 0.17047553 -0.17352657 0.122458555
0.017841183 0.007961624 -0.13271655 0.07478256 0.21457952 -0.1156278 0.095575355 -0.075518504
0.070442215 -0.2509312 -0.09864673 0.14339419 -0.0870495 -0.033568516 0.16503023 0.00037425305
0.04748025 0.05697704 -0.12689456 0.049051337 -0.14114517 0.13009627 0.043311898 -0.08613803
-0.11863189 0.17931925 0.021654272 -0.14220843 0.10542775 0.06316686 0.028211292 0.018410742
-0.029899996 0.12783158 0.015600208 -0.068312906 0.08665754 -0.14898957 0.16668494 -0.15521453
-0.032547247 0.1760103 -0.047345385 -0.027295552 0.011308831 0.17954995 -0.14829421 -0.110921256
00000000: 9af9 7a3c 50e7 44bb b5ab 5cbd 8bb7 1abd
00000010: 3583 a3bd c13a 283e 1a77 06bd 08c1 adbd
00000020: 7448 cabd 6a87 c0bd 7c53 53bd 8bbd 1ebd
00000030: 217f b1bd c289 09bd cac7 d0bd ec68 a23d
00000040: 54ae 193e 1273 08be bd03 9abd 8720 2c3d
00000050: ccc5 433e 29cc 21bd d32b 193e a7d8 7b3e
00000060: 1dd1 673d 1101 353e df32 05be 2bf6 313d
00000070: 53cd 8cbd 990f 4f3e 564b 59bd 7772 573c
00000080: d269 fcbc 0d4e ddbc 32ae 053e 2c3f 1abc
00000090: 1138 26bd ad96 8b3d 7e25 393d 1a2d 173e
000000a0: ee55 1e3d a78c 153e acce 113e ecca 7abc
000000b0: bc0e 95bb e9ac 62bd 879b 97bb a111 313d
000000c0: bfa8 bfbd cd38 b9bd 9aa3 57bd ebfe e2bc
000000d0: f5e5 e3bd a38c 4ebc 7e39 803d 5e2f ca3d
000000e0: 1c56 10be 4cbe 1d3d 1475 863d 87c2 2d3e
000000f0: 1c45 f23d e41e 88bd 336c 3db9 3e2f 283e
00000100: 0e53 bbbc 814e dabd 96aa 7bbc 126a 853d
00000110: 69ed 8cbd fedd 16bd 0ee8 3fbd 6f8f 07bc
00000120: 7f1e 21be f84e 90bd 1adf e1bd 6ff9 dfbd
00000130: c398 0dbd 5938 e1be dedc 5c3e b347 cfbd
00000140: 7c53 8f3d c73f 0dbe cb76 92bd 2f42 00bd
00000150: 31e5 973b a871 15be 35f4 253e 1821 17be
00000160: feb9 38be 191a 80be 3523 d3be 1504 e0bd
00000170: 00df 65bd 3b9a 763d 2a0f a4bd 32d6 003e
00000180: 5bee 903d 9211 92be 3680 3cbe 79f8 22bd
00000190: a594 d6bd a729 0d3d efcb 99be e75d 0fbf
000001a0: dd96 b13b e278 96be f6ac 03be ebed 4fbd
000001b0: 1100 c33d daac a43d 5ada fabd 9c14 c93c
000001c0: ef50 8ebe b337 b6bd 536e e0bd abb2 60be
000001d0: 83e2 333d 220e d43b 37af 72be b554 b0be
000001e0: 37ef 0bbd f779 a8bd 5055 0ebc b1d5 bf3c
000001f0: 9bf1 4e3c 9cea 47be cc25 afbe b2ab c4be
00000200: 4c0d 7f3c 829f 2abd fe25 ab3d fb68 01bd
00000210: 894b 33bd 033e 91bd e854 debc de98 01be
00000220: c8a7 9f3c d384 9b3d 7257 dd3c 4b4d 093d
00000230: 9c76 9fbd 2391 2e3e f3b0 31be 8dcb fa3d
00000240: ac27 923c 7971 023c d9e6 07be 9927 993d
00000250: bcba 5b3e 45ce ecbd 03bd c33d 72a9 9abd
00000260: 0244 903d 0e7a 80be 4c07 cabd edd5 123e
00000270: 0247 b2bd 247f 09bd affd 283e 6537 c439
00000280: a77a 423d c260 693d a6f0 01be 0eea 483d
00000290: 5c88 10be f537 053e d167 313d 2369 b0bd
000002a0: 47f5 f2bd 779f 373e 4d64 b13c 169f 11be
000002b0: 81ea d73d a05d 813d 5e1b e73c 20d2 963c
000002c0: d6f0 f4bc 48e6 023e 0498 7f3c a3e7 8bbd
000002d0: 8279 b13d b990 18be 75af 2a3e 8ff0 1ebe
000002e0: 4350 05bd 0b3c 343e 3ced 41bd ec9a dfbc
000002f0: ad48 393c f1db 373e 70da 17be af2a e3bd

graph_rnn.bias_hh_l0 f4 [192]
0.13840318 -0.050516736 0.16057351 0.09713681 0.109897956 -0.08203296 0.06299269 0.039790504
0.029422902 -0.1670313 -0.03819681 -0.023963265 -0.14475188 -0.2393567 -0.091506295 0.017024873
0.08409127 -0.020719627 -0.009744316 0.09818846 0.16470653 0.027326278 0.05536845 0.12711492
0.09653832 -0.019806324 -0.074109726 0.015728204 0.11276788 0.19442685 -0.11546535 -0.12557986
-0.048837878 -0.0409831 0.014579857 -0.01584705 -0.029441118 0.1650329 -0.0191291 0.009125921
-0.15734819 0.16836752 -0.026865331 0.15229927 0.06611647 0.08837923 -0.05356998 0.09379706
0.025083069 0.07714328 0.12579969 0.07779975 -0.07008923 -0.06806979 0.0762115 0.0075639524
0.057553735 0.12912805 0.010061021 0.16466941 0.016493652 -0.06400827 0.011572895 -0.022677768
-0.09678895 -0.03633319 -0.11791674 0.028006056 -0.24067117 -0.030695789 -0.15314451 -0.19882011
-0.23224634 0.02551291 0.04318982 -0.09175685 -0.017869897 -0.32591638 0.14480403 0.10900818
-0.08840209 -0.12753074 -0.086892895 0.00823721 -0.038025856 -0.0717395 -0.013956925 -0.06664223
-0.18880787 -0.14204256 -0.22772355 -0.10512292 0.0031237288 0.15819623 -0.06402091 0.093342
-0.0046322322 -0.08878998 -0.1988611 -0.17113908 0.033548918 -0.06851759 -0.21648915 -0.4613226
0.08854051 -0.10009775 -0.047878344 -0.070418686 0.08575673 0.06874646 -0.1627504 -0.044216678
-0.1397765 -0.058692295 -0.27884343 -0.30835897 0.016915346 -0.0863498 -0.21997316 -0.3885182
-0.083511814 -0.123749934 0.114472575 0.0292782 0.003389133 -0.2741627 -0.14906624 -0.4340672
0.06800353 -0.032320876 0.08998426 -0.038201902 -0.17340508 -0.059183303 -0.0031518159 -0.20839798
-0.045002624 -0.06500281 -0.014535185 0.0568462 -0.046857424 0.1374004 0.015861684 0.18942405
-0.061749954 0.19900624 -0.1113546 0.1406813 0.22851923 -0.09890043 0.19297387 0.12711304
-0.09608903 -0.18352288 -0.036327746 0.042147376 -0.04507886 0.11732023 0.10828194 -0.073463075
-0.10837685 0.14158107 -0.012681626 0.08567649 -0.014932552 0.014939994 0.19397366 -0.047985885
-0.029373473 -0.21191062 -0.011330463 -0.044296987 0.045068942 0.02579785 0.2103179 -0.11042247
-0.118047714 0.11193933 0.061447617 0.06846798 0.046315387 -0.059968106 0.09928945 -0.12869565
-0.05546891 -0.072455674 0.053465825 0.24603167 -0.07914959 0.13072455 -0.08598538 -0.18430214
00000000: 90b9 0d3e a3ea 4ebd 626d 243e aaef c63d
00000010: 2e12 e13d e600 a8bd 5002 813d 5efb 223d
00000020: 4c08 f13c 410a 2bbe 4274 1cbd 9c4e c4bc
00000030: d639 14be ec19 75be a767 bbbd bf77 8b3c
00000040: 0b38 ac3d 35bc a9bc a0a6 1fbc 0817 c93d
00000050: d4a8 283e 5cdb df3c 07ca 623d 6a2a 023e
00000060: e2b5 c53d df40 a2bc d7c6 97bd 6fd8 803c
00000070: d9f2 e63d d517 473e 1979 ecbd 0298 00be
00000080: 3a0a 48bd e5dd 27bd 5ae0 6e3c acd1 81bc
00000090: 802e f1bc 62fe 283e a1b4 9cbc e384 153c
000000a0: e21f 21be 8968 2c3e af14 dcbc 57f4 1b3e
000000b0: 1268 873d 2b00 b53d 326c 5bbd ac18 c03d
000000c0: 027b cd3c 4cfd 9d3d a2d1 003e 7a55 9f3d
000000d0: f18a 8fbd 2d68 8bbd c614 9c3d 08db f73b
000000e0: 77bd 6b3d 253a 043e fbd6 243c 199f 283e
000000f0: b21d 873c c516 83bd 3d9c 3d3c bac6 b9bc
00000100: 4939 c6bd 1cd2 14bd 557e f1bd f56c e53c
00000110: 8172 76be bc75 fbbc ead1 1cbe 8097 4bbe
00000120: fcd1 6dbe 7300 d13c cfe7 303d 04eb bbbd
00000130: e463 92bc 83de a6be 8247 143e ae3f df3d
00000140: 280c b5bd 6b97 02be e7f4 b1bd 5df5 063c
00000150: 00c1 1bbd 29ec 92bd 96ab 64bc b97b 88bd
00000160: da56 41be 9b73 11be 5d30 69be af4a d7bd
00000170: 79b7 4c3b 31fe 213e 651d 83bd 172a bf3d
00000180: fbc9 97bb 85d7 b5bd 3fa2 4bbe 153f 2fbe
00000190: 976a 093d f352 8cbd 55af 5dbe 7a32 ecbe
000001a0: ba54 b53d 0d00 cdbd 151c 44bd ac37 90bd
000001b0: 39a1 af3d f2ca 8c3d 0aa8 26be 8c1c 35bd
000001c0: 9221 0fbe 5567 70bd 91c4 8ebe 3ae1 9dbe
000001d0: 0d92 8a3c 2ad8 b0bd a540 61be dceb c6be
000001e0: 3e08 abbd 9b70 fdbd 9970 ea3d d6d8 ef3c
000001f0: 371c 5e3b 0e5f 8cbe d2a4 18be 0e3e debe
00000200: 6f45 8b3d e562 04bd ab49 b83d 9979 1cbd
00000210: 1a91 31be 316a 72bd b28e 4ebb 4866 55be
00000220: ac54 38bd 3120 85bd fc24 6ebc 90d7 683d
00000230: 92ed 3fbd b1b2 0c3e 5df0 813c 61f8 413e
00000240: 85ed 7cbd 4bc8 4b3e e10d e4bd c20e 103e
00000250: f200 6a3e 4f8c cabd f19a 453e ec29 023e
00000260: 53ca c4bd 6ced 3bbe 67cc 14bd baa2 2c3d
00000270: 9ca4 38bd 9745 f03d ecc2 dd3d cf73 96bd
00000280: aff4 ddbd a1fa 103e 98c6 4fbc 2877 af3d
00000290: aaa7 74bc e0c6 743c 08a1 463e d98c 44bd
000002a0: a3a0 f0bc 19ff 58be 68a3 39bc c270 35bd
000002b0: 369a 383d 0356 d33c 935d 573e 2d25 e2bd
000002c0: 00c3 f1bd 7340 e53d 7fb0 7b3d f138 8c3d
000002d0: 34b5 3d3d 1ea1 75bd 4458 cb3d cbc8 03be
000002e0: 5e33 63bd a463 94bd fbfe 5a3d baef 7b3e
000002f0: 2e19 a2bd a8dc 053e 1a19 b0bd b3b9 3cbe

graph_rnn.weight_ih_l1 f4 [192, 64]
-0.15520318 0.066408694 -0.4355766 -0.001670758 -0.1773477 0.17466842 0.005478647 -0.12365758
0.007045428 -0.2350491 0.012843898 0.08790059 -0.21614583 0.68361497 -0.14773738 -2.2580984e-05
-0.44531187 0.14628854 -0.15290314 0.021461338 -0.0435763 -0.08188639 0.04166315 -0.018426606
-0.34241465 -0.05852013 -0.16238493 0.22021285 -0.14013526 -0.055677164 0.30230293 -0.0060829995
-0.017239835 0.16614251 -0.30437627 -0.1696272 -0.4987726 0.12252173 0.16412829 -0.28920534
-0.38602594 0.4164511 -0.08987591 0.031072594 0.10776429 0.17165183 -0.008926832 -0.51899195
0.33732516 0.18185006 -0.13205095 -0.26329565 -0.20592432 -0.029586466 -0.09921828 -0.17617838
-0.11018652 -0.24502869 0.093643345 0.056496866 -0.31278726 -0.1333203 -0.25622725 -0.33008546
0.091333605 0.09223984 -0.018927202 0.0015742903 0.11946556 0.1876173 0.1634543 -0.0729568
-0.09094428 -0.089234106 -0.10835873 -0.01211587 0.013383439 0.07881738 0.07040253 -0.18211378
-0.110975906 0.06594237 -0.2433194 0.13254403 0.09042358 -0.1076291 0.026115773 0.00027945335
-0.13299806 -0.059864998 -0.056126352 0.12976612 -0.15920843 0.040978495 0.023253571 0.0993525
0.047856763 0.018351447 -0.012870633 0.36442423 -0.17888753 -0.0002697967 0.0375487 -0.007532527
-0.4758022 -0.19801182 -0.35590535 0.14091112 0.05448192 0.10956998 0.20444481 -0.2487686
-0.10482426 0.0530949 0.1563248 -0.24687292 0.0540432 0.29009995 0.13097686 0.026908934
0.14449088 0.003393952 0.016961288 -0.0073197265 0.071168624 0.0473657 0.013106482 -0.12880486
-0.15543306 -0.017590718 -0.5301362 -0.36459973 -0.0869679 0.77175015 0.18680803 -0.5751111
-0.016442727 -0.11387978 0.1266324 -0.13191168 -0.36717942 -0.010126334 0.22981174 -0.06617746
-0.16098303 0.28431007 0.070666835 -0.057852942 0.08365197 -0.43331832 0.0077618193 0.20912006
-0.33507708 0.16825986 -0.38940242 0.20473062 -0.5628712 -0.07886771 0.26132601 -0.49780682
0.082355425 0.31076324 -0.57733786 0.29925984 -0.47125706 -0.09808097 0.24610901 -0.029942896
-0.17111711 0.22392604 -0.16069038 0.15003823 0.22852121 0.29078957 0.18003346 -0.23131439
-0.091920964 0.82397836 -0.28718525 0.14950119 -0.038962595 -0.041685395 -0.4823622 -0.54287684
-0.64753914 0.089092374 0.58893037 0.10349392 -0.4820438 -0.08140286 -0.38416755 0.2044013
-0.07155085 0.03442167 -0.49477184 0.08689022 -0.29495996 0.3948386 0.18544069 -0.069156796
-0.462713 0.10960679 0.24825981 -0.5129297 -0.63504684 -0.0010536851 -0.20078695 0.006723378
-0.45296624 0.01858045 -0.17581093 0.28319764 0.24474981 -0.20101991 0.2562777 0.014002554
0.061313145 -0.04244575 -0.0729568 0.284988 -0.2768144 -0.09393991 0.0446965 -0.32628453
-0.32395604 0.5189259 -0.5441802 -0.116961755 -0.4818805 0.38372844 -0.32437506 -0.29542473
-0.5197265 -0.26927167 -0.6292214 0.018694306 0.16625056 0.29388136 -0.07498599 -0.37293276
-0.016217763 0.4166452 0.35853642 -0.14880541 -0.1648009 0.11049177 -0.010782645 -0.13798924
-0.05002568 0.38950866 0.576937 -0.12819372 -0.2548825 0.20469475 -0.06136163 0.17234793
00000000: 95ed 1ebe 4801 883d e503 dfbe 56fd daba
00000010: a39a 35be 47dc 323e 3986 b33b 2f40 fdbd
00000020: 55dd e63b b6b0 70be 366f 523c 3905 b43d
00000030: 5555 5dbe 6401 2f3f 7848 17be 4b6c bdb7
00000040: ebff e3be aacc 153e a492 1cbe b0cf af3c
00000050: 107d 32bd 0db4 a7bd fba6 2a3d 65f3 96bc
00000060: f950 afbe ceb2 6fbd 3c48 26be 7a7f 613e
00000070: 9e7f 0fbe bd0d 64bd 73c7 9a3e e653 c7bb
00000080: 8e3a 8dbc 4321 2a3e 35d7 9bbe c1b2 2dbe
00000090: 1f5f ffbe acec fa3d 3f11 283e b912 94be
000000a0: 31a5 c5be 1439 d53e dc10 b8bd f48b fe3c
000000b0: 86b3 dc3d 7fc5 2f3e d941 12bc a8dc 04bf
000000c0: e2b5 ac3e e736 3a3e 5d38 07be b0ce 86be
000000d0: d3dd 52be 515f f2bc f432 cbbd 1b68 34be
000000e0: 78a9 e1bd cde8 7abe 15c8 bf3d 4269 673d
000000f0: a725 a0be 1e85 08be 3830 83be f600 a9be
00000100: 1d0d bb3d 3ee8 bc3d 380d 9bbc 6b58 ce3a
00000110: 5caa f43d c01e 403e 9060 273e 606a 95bd
00000120: ff40 babd 5fc0 b6bd 2feb ddbd a481 46bc
00000130: 3646 5b3c 026b a13d 342f 903d 097c 3abe
00000140: 5647 e3bd cb0c 873d b928 79be 9fb9 073e
00000150: ff2f b93d a56c dcbd bff0 d53c 9883 9239
00000160: a530 08be 0035 75bd bfe4 65bd 69e1 043e
00000170: 8907 23be 11d9 273d 467e be3c 5379 cb3d
00000180: 7405 443d c655 963c 59df 52bc d095 ba3e
00000190: 4b2e 37be 8073 8db9 aacc 193d 6bd3 f6bb
000001a0: 599c f3be 9cc3 4abe 3a39 b6be 014b 103e
000001b0: 6f28 5f3d 3a66 e03d fb59 513e 32bd 7ebe
000001c0: 1aae d6bd 0a7a 593d 9c13 203e 41cc 7cbe
000001d0: 675c 5d3d fb87 943e cc1e 063e 2070 dc3c
000001e0: 6bf5 133e 116d 5e3b 66f2 8a3c 51da efbb
000001f0: dbc0 913d 8902 423d 92bc 563c 6ce5 03be
00000200: d829 1fbe 691a 90bc 02b7 07bf d1ac babe
00000210: 3a1c b2bd 6b91 453f 9b4a 3f3e 7b3a 13bf
00000220: e6b2 86bc cd39 e9bd edab 013e db13 07be
00000230: f1fe bbbe ece8 25bc c553 6b3e 0c88 87bd
00000240: bcd8 24be 1791 913e c6b9 903d 35f7 6cbd
00000250: b951 ab3d e6db ddbe dc56 fe3b 9223 563e
00000260: 398f abbe 504c 2c3e c15f c7be e7a4 513e
00000270: 5418 10bf 6585 a1bd 86cc 853e 89e0 febe
00000280: f6a9 a83d 5c1c 9f3e 6acc 13bf 9638 993e
00000290: 9b48 f1be adde c8bd 0004 7c3e ce4a f5bc
000002a0: 5339 2fbe de4c 653e 058c 24be 9fa3 193e
000002b0: 7701 6a3e 5fe2 943e b15a 383e aedd 6cbe
000002c0: 0f41 bcbd 3ff0 523f f209 93be d716 193e
000002d0: 3e97 1fbd 4ebe 2abd 2ef8 f6be faf9 0abf
000002e0: 20c5 25bf 1076 b63d 24c4 163f 9ff4 d33d
000002f0: 72ce f6be 8bb6 a6bd 9cb1 c4be 934e 513e
00000300: 4189 92bd bdfd 0c3d bc52 fdbe 80f3 b13d
00000310: fe04 97be 4928 ca3e 2ae4 3d3e 14a2 8dbd
00000320: b8e8 ecbe 8679 e03d d237 7e3e 5c4f 03bf
00000330: 6e92 22bf ce1b 8aba 189b 4dbe c84f dc3b
00000340: 31eb e7be 0736 983c c807 34be 48ff 903e
00000350: b29f 7a3e 2ad8 4dbe d536 833e f86a 653c
00000360: 7e23 7b3d 98db 2dbd 606a 95bd f2e9 913e
00000370: 9eba 8dbe 9163 c0bd ad13 373d c40e a7be
00000380: 91dd a5be 54d8 043f 654f 0bbf a589 efbd
00000390: 0ab9 f6be 0e78 c43e 7d14 a6be e941 97be
000003a0: cc0c 05bf fadd 89be a714 21bf cd24 993c
000003b0: 963d 2a3e 9e77 963e 4192 99bd 0bf1 bebe
000003c0: 1ddb 84bc 8552 d53e 1692 b73e 7260 18be
000003d0: 91c1 28be 8249 e23d b1a9 30bc 0d4d 0dbe
000003e0: bae7 4cbd ae6d c73e 25b2 133f 3745 03be
000003f0: f67f 82be 809b 513e 5556 7bbd fa7b 303e

graph_rnn.weight_hh_l1 f4 [192, 64]
0.4437479 0.31725934 -0.13197029 -0.029267935 0.14816621 0.06623469 0.03191852 0.20887598
0.18721808 -0.022114936 -0.022456195 0.08516913 0.07100881 0.04523329 0.46929255 -0.056721907
0.23750526 -0.018816875 0.08258254 -0.07745431 0.04311853 -0.3225399 0.072839 -0.08079696
0.031749327 0.08707953 -0.20838846 -0.03552126 -0.5721025 0.005637784 -0.031675916 -0.027004257
-0.0155494455 0.024603892 0.3637221 -0.13178867 0.06172805 -0.118804075 -0.026345769 0.17074797
0.15523721 0.013290355 -0.28766155 0.11506047 0.19413601 -0.14264326 -0.13048643 -0.18835779
-0.18301593 0.25957322 -0.0038413059 0.07496281 0.011577729 0.15995958 0.22508308 -0.14848445
0.22428331 -0.16538681 0.04463291 0.07447092 -0.16755393 0.084493905 -0.048689853 -0.097034924
0.49102703 0.11037135 0.21366994 -0.10067343 0.08643175 0.012464003 -0.039667264 -0.35963604
0.25624844 0.06900225 0.08123793 -0.13674256 0.2573719 0.0989261 0.052125257 0.12017563
-0.18101975 0.0015172273 0.27301374 -0.09518072 0.29266754 -0.16828448 -0.112981714 0.08362221
-0.00045993217 -0.018333238 -0.0007708172 0.027740015 -0.12033638 0.09282971 0.15689957 -0.04830486
-0.078818366 0.28421268 0.40100637 -0.013379483 0.14922145 -0.022235466 -0.013661603 -0.29444304
0.07142442 0.011121744 -0.19634056 0.45723847 -0.065280356 0.06500325 -0.24780697 0.27034435
0.007958042 0.2834043 0.0017784897 -0.05532756 0.14144558 -0.21799721 0.066391945 -0.24610339
0.101995744 -0.52300423 -0.1002243 0.14978816 -0.11565714 -0.12858069 -0.10490807 -0.12329311
0.06397318 -0.058400493 -0.06527254 -0.17862388 -0.70642775 -0.10033636 -0.011397737 0.0027218887
0.6358371 -0.22211108 0.17338508 -0.41553652 -0.1295008 -0.04204283 -0.35459623 0.20700908
-0.34687498 -0.70039165 0.068052165 -0.2529772 0.27037463 0.15198193 -0.11084901 0.1586938
0.4010462 -0.11543316 0.13084441 0.46488675 -0.10998156 -0.3103802 -0.06355275 -0.079590335
-0.21267584 -0.22729343 0.09073274 -0.10752785 -0.23258843 0.404761 -0.2226005 -0.18096551
-0.18945737 -0.16807666 0.1699363 0.041822635 -0.04633893 0.15657836 -0.11701725 -0.5218127
0.15930153 0.15900554 0.28613958 -0.24904244 0.27185246 -0.050485678 0.1337505 0.0758411
-0.09881173 -0.077087216 -0.45094094 0.056807276 0.0854773 -0.31006327 -0.10715389 -0.05242456
0.04464153 0.041514505 -0.2077762 0.2064082 0.23006725 0.2918679 0.075908676 0.38955238
0.4871399 -0.28733096 -0.35831195 -0.30233255 0.08973095 0.097528644 -0.108110726 0.08598985
-0.07495156 -0.12749296 0.1663121 -0.014598089 -0.14633396 -0.008899093 0.2910378 0.18821642
0.0027184605 -0.3574205 -0.23290232 -0.08419523 -0.11936555 -0.00659762 -0.06494002 0.23621558
0.13135768 -0.5201806 0.07964081 -0.042336144 0.118847154 -0.58988327 0.042679016 -0.25645167
0.5225821 -0.37211812 -0.31706345 0.23996396 0.49840334 0.12642087 -0.05797773 0.006240674
-0.3659322 0.18265 0.38613817 -0.30255723 0.16339178 -0.45703417 0.088870235 0.04974462
0.07385031 -0.30609488 0.5917912 -0.027548948 0.07267477 0.16717888 -0.41362494 -0.20457508
00000000: ed32 e33e d16f a23e 3823 07be 4fc3 efbc
00000010: e2b8 173e 0ea6 873d febc 023d 96e3 553e
00000020: 19b6 3f3e 622a b5bc 0ef6 b7bc 276d ae3d
00000030: 116d 913d 8b46 393d 1d47 f03e 3b55 68bd
00000040: 9434 733e d925 9abc 0921 a93d 5ea0 9ebd
00000050: 0e9d 303d f323 a5be 9d2c 953d e078 a5bd
00000060: 950b 023d c156 b23d c963 55be be7e 11bd
00000070: 4f75 12bf 29bd b83b 9bbe 01bd 0838 ddbc
00000080: 1ac3 7ebc 1a8e c93c c839 ba3e 9cf3 06be
00000090: 8dd6 7c3d 8d4f f3bd 15d3 d7bc 8ed8 2e3e
000000a0: 81f6 1e3e cabf 593c 6048 93be d3a4 eb3d
000000b0: 97cb 463e 1311 12be 3c9e 05be dde0 40be
000000c0: 8768 3bbe c8e6 843e 6bbe 7bbb 1a86 993d
000000d0: 84b0 3d3c 72cc 233e 2e7c 663e 4f0c 18be
000000e0: 86aa 653e 295b 29be 00d1 363d 3684 983d
000000f0: 4293 2bbe 240b ad3d 036f 47bd 3fba c6bd
00000100: e567 fb3e 600a e23d 4bcc 5a3e df2d cebd
00000110: 2103 b13d d135 4c3c 247a 22bd 3722 b8be
00000120: ff32 833e 0d51 8d3d 1260 a63d 3e06 0cbe
00000130: 40c6 833e c499 ca3d 4b81 553d a41e f63d
00000140: 3e5d 39be b3dd c63a 75c8 8b3e 1cee c2bd
00000150: 85d8 953e c452 2cbe f562 e7bd 1f42 ab3d
00000160: 0d23 f1b9 962f 96bc ab10 4aba 073f e33c
00000170: ec72 f6bd 811d be3d 48aa 203e 51db 45bd
00000180: 866b a1bd 5384 913e b550 cd3e 9e35 5bbc
00000190: 82cd 183e 2727 b6bc ebd4 5fbc 3dc1 96be
000001a0: f746 923d fa37 363c 800d 49be 291b ea3e
000001b0: b5b1 85bd 6d20 853d 1cc1 7dbe 936a 8a3e
000001c0: 7362 023c 5e1a 913e 361c e93a 279f 62bd
000001d0: 1cd7 103e a93a 5fbe 80f8 873d 8702 7cbe
000001e0: 25e3 d03d 9be3 05bf 6642 cdbd 1162 193e
000001f0: a7dd ecbd a8aa 03be 0bda d6bd 1981 fcbd
00000200: 5f04 833d 5b35 6fbd 9cad 85bd 2ee9 36be
00000210: 73d8 34bf 267d cdbd 93bd 3abc b761 323b
00000220: 38c6 223f 1671 63be dc8b 313e 34c1 d4be
00000230: dc9b 04be 1a35 2cbd a38d b5be 30fa 533e
00000240: 9999 b1be de4c 33bf ef5e 8b3d 3a86 81be
00000250: 8b6e 8a3e 27a1 1b3e ce04 e3bd a180 223e
00000260: ed55 cd3e 3868 ecbd 14fc 053e a305 ee3e
00000270: 033e e1bd 27ea 9ebe f227 82bd 4200 a3bd
00000280: b2c7 59be 9cbf 68be 16d2 b93d 9037 dcbd
00000290: a92b 6ebe d53c cf3e 63f1 63be 064f 39be
000002a0: 1d01 42be 4a1c 2cbe c803 2e3e 364e 2b3d
000002b0: e4cd 3dbd 1456 203e bda6 efbd 8495 05bf
000002c0: f11f 233e 59d2 223e e380 923e fb04 7fbe
000002d0: 3f30 8b3e 12ca 4ebd e4f5 083e 9452 9b3d
000002e0: ce5d cabd e7df 9dbd bbe1 e6be bfae 683d
000002f0: b90e af3d 9dc0 9ebe 8073 dbbd 23bb 56bd
00000300: 09da 363d 1d0b 2a3d 49c3 54be ac5c 533e
00000310: c096 6b3e b66f 953e 0276 9b3d 6973 c73e
00000320: 676a f93e 0b1d 93be aa74 b7be 55cb 9abe
00000330: dcc4 b73d 19bd c73d 2869 ddbd 721b b03d
00000340: 3480 99bd 848d 02be b84d 2a3e d32c 6fbc
00000350: 92d8 15be 80cd 11bc e802 953e cebb 403e
00000360: 3328 323b d2ff b6be f27d 6ebe 8c6e acbd
00000370: ed75 f4bd d930 d8bb 46ff 84bd 7fe2 713e
00000380: a182 063e 8e2a 05bf b91a a33d aa68 2dbd
00000390: 2366 f33d 9702 17bf 31d0 2e3d a24d 83be
000003a0: f1c7 053f 4486 bebe 2456 a2be 1db9 753e
000003b0: b92e ff3e 7974 013e 0e7a 6dbd 917e cc3b
000003c0: 775b bbbe 9a08 3b3e e7b3 c53e c8e8 9abe
000003d0: 2d50 273e 6200 eabe 9901 b63d 04c1 4b3d
000003e0: d53e 973d 78b8 9cbe a17f 173f 55ae e1bc
000003f0: 83d6 943d f130 2b3e a6c6 d3be 217c 51be

graph_rnn.bias_ih_l1 f4 [192]
0.1389073 0.056143135 -0.07628726 0.21982574 0.030905355 0.03808829 -0.018974504 0.024165597
-0.013705336 -0.06819039 -0.04070492 -0.035071112 0.15123346 0.04560719 0.1691533 0.084119916
0.13617979 0.14431466 0.026319157 0.11705763 0.12865353 0.18259506 0.11331863 -0.08873295
-0.0036313096 -0.10382237 0.10972238 -0.058321998 0.08864367 -0.025337426 -0.14306842 0.022262573
0.05607849 -0.0031419457 0.08175904 0.089595325 0.059876982 -0.10854213 0.04101228 -0.0048274137
0.13522844 -0.14424083 -0.104721606 0.20422958 0.021919763 0.0914696 0.15210927 0.17607991
0.15991728 0.092287175 0.07194983 0.11215255 -0.030101107 0.054782007 0.040546097 0.14151603
0.1063152 -0.045700468 0.028458992 0.09057513 -0.1809579 0.20580468 0.124171115 0.06417827
0.04497513 -0.17920671 -0.21547674 -0.06132115 -0.16505133 0.014362473 -0.030077929 0.078064375
-0.14991538 0.16180801 0.0070078974 -0.049094018 -0.041245125 -0.19947706 -0.13660182 -0.17456396
0.021508088 -0.13278964 0.0021444259 0.049285676 -0.21010329 0.07659045 0.118647724 0.026411977
0.20955205 -0.098320745 -0.11109859 -0.41854933 0.10206075 0.036028396 -0.05932549 0.16743317
-0.11154697 -0.06141642 -0.07632674 -0.12406237 0.14368655 -0.2609259 -0.15537496 -0.048159234
0.11554611 0.008553231 0.15955418 0.09685763 -0.12337392 -0.22768952 -0.18232569 -0.17977387
-0.029867696 -0.10301417 -0.112695485 0.11884531 -0.030847581 -0.1590472 -0.0034938406 -0.13115773
0.07677051 0.05312379 -0.20483115 0.07153526 -0.0038248403 -0.029551959 0.41692084 0.14443034
-0.077375814 0.009661238 -0.040834304 -0.07662096 0.10310964 0.05828287 -0.1039826 0.0063753696
0.1556159 -0.007625739 -0.031978656 -0.090503186 -0.004522893 0.09149085 -0.07121099 -0.20992632
-0.09877613 0.12751397 0.015950607 0.0045006596 -0.08870696 0.026249861 -0.09847189 0.12080451
-0.057237543 0.014818946 0.08002472 -0.07778411 -0.02882889 -0.12717961 -0.1684534 0.09445132
0.04574864 -0.08494396 -0.0010500913 0.16623953 0.06310907 -0.06594782 0.17199647 -0.04016768
-0.17784263 0.087686 0.04030878 0.07125659 0.013821957 -0.0617078 -0.08293637 -0.03930387
-0.20799308 0.14932688 0.1476772 0.018673925 -0.03742198 0.08703541 -0.008043877 -0.10141141
0.014264395 0.062494975 -0.061306346 -0.08049599 0.1040245 -0.12626047 -0.041507725 0.10090631
00000000: b73d 0e3e 58f6 653d 7f3c 9cbd 001a 613e
00000010: 3a2d fd3c 7702 1c3d 6b70 9bbc eef6 c53c
00000020: 588c 60bc 67a7 8bbd 34ba 26bd baa6 0fbd
00000030: f2dc 1a3e 9bce 3a3d 8636 2d3e 1047 ac3d
00000040: b772 0b3e 39c7 133e 469b d73c e9bb ef3d
00000050: c0bd 033e 33fa 3a3e 9913 e83d 9fb9 b5bd
00000060: 44fb 6dbb d3a0 d4bd 21b6 e03d 0ce3 6ebd
00000070: d08a b53d 6f90 cfbc 8780 12be 0060 b63c
00000080: 8fb2 653d 1ae9 4dbb 4971 a73d c17d b73d
00000090: 9141 753d 564b debd 7efc 273d 482f 9ebb
000000a0: 5379 0a3e deb3 13be 4878 d6bd 8f21 513e
000000b0: 1391 b33c 6a54 bb3d 88c2 1b3e 4b4e 343e
000000c0: 5bc1 233e 0f01 bd3d 6f5a 933d 3cb0 e53d
000000d0: 9996 f6bc 1963 603d aa13 263d 94e9 103e
000000e0: c9bb d93d 6a30 3bbd d522 e93c 747f b93d
000000f0: 074d 39be 76be 523e 6d4d fe3d e66f 833d
00000100: d837 383d f781 37be efa5 5cbe e32b 7bbd
00000110: 3703 29be 9450 6b3c fd65 f6bc 37e0 9f3d
00000120: 6b83 19be 00b1 253e 81a2 e53b cf16 49bd
00000130: a6f0 28bd b743 4cbe 59e1 0bbe e5c0 32be
00000140: bb31 b03c 02fa 07be 7f89 0c3b c7df 493d
00000150: 5125 57be 74db 9c3d 94fd f23d ee5d d83c
00000160: d094 563e 635c c9bd a887 e3bd 194c d6be
00000170: 3a05 d13d 8392 133d 49ff 72bd 9a73 2b3e
00000180: bd72 e4bd c98f 7bbd 3251 9cbd 6914 febd
00000190: 9122 133e 1498 85be 9d1a 1fbe 9e42 45bd
000001a0: 70a3 ec3d da22 0c3c 2c62 233e 4b5d c63d
000001b0: 77ab fcbd 7127 69be 96b3 3abe a416 38be
000001c0: 19ad f4bc 18f9 d2bd e4cc e6bd 2b65 f33d
000001d0: 11b4 fcbc 45dd 22be ebf8 64bb 364e 06be
000001e0: db39 9d3d 5598 593d 42bf 51be 1481 923d
000001f0: 2caa 7abb f316 f2bc a676 d53e 8ce5 133e
00000200: 3677 9ebd 2b4a 1e3c df41 27bd 73eb 9cbd
00000210: 262b d33d 05ba 6e3d d4f4 d4bd 7ae8 d03b
00000220: c659 1f3e 56e1 f9bb 0dfc 02bd bc59 b9bd
00000230: c734 94bb 8e5f bb3d 11d7 91bd edf6 56be
00000240: 244b cabd 0693 023e d9aa 823c 457a 933b
00000250: ffab b5bd f309 d73c a1ab c9bd 5b68 f73d
00000260: ea71 6abd 2acb 723c 00e4 a33d 474d 9fbd
00000270: 902a ecbc 5f3b 02be 0c7f 2cbe b26f c13d
00000280: ed62 3b3d 19f7 adbd 38a3 89ba b23a 2a3e
00000290: 543f 813d a70f 87bd d81f 303e dd86 24bd
000002a0: 611c 36be b894 b33d d21a 253d faee 913d
000002b0: 7d75 623c 51c1 7cbd 8bda a9bd 18fd 20bd
000002c0: 23fc 54be 25e9 183e b138 173e 0ffa 983c
000002d0: ca47 19bd 9f3f b23d 77ca 03bc c9b0 cfbd
000002e0: 36b5 693c bbfa 7f3d 5d1c 7bbd 15db a4bd
000002f0: cc0a d53d 6d4a 01be 0104 2abd f8a7 ce3d
