graphrnn_v2/experiments/structures/k_regulars/vary_m/3_regular_vary_m_32/model_at_200.pt (torch, 422331 bytes, 43 tensors)

adj_embedding.0.weight f4 [32, 32]
000000 07 fd bf 3c ef b2 c2 3b 19 ff 6c bd f6 f0 4d 3e
       0.023436083 0.0059417407 -0.057860468 0.2011145
000010 24 24 b7 bd a4 87 96 3b 9e 00 1e bd 4b 3c ec bc
       -0.0894244 0.0045938063 -0.038574807 -0.028837344
000020 07 8b 9e be 77 44 fd be 50 27 bc 3e cf 1b fa be
       -0.30965444 -0.49466297 0.36748743 -0.4884934
000030 9e dd e6 3e ad c4 b2 bd 4d 01 27 be a5 dd e9 bd
       0.45090955 -0.08728919 -0.1630909 -0.114192285
000040 df 06 ff 3a 87 d4 ae bd 92 d3 b4 bd 7e b2 8d bc
       0.0019457004 -0.0853663 -0.08829416 -0.017297026
000050 ab 32 00 be 7d 7e 04 bd 04 be 8e bd ce f1 d7 bd
       -0.12519328 -0.03234719 -0.06969836 -0.105441675
000060 21 a1 1b 3e 0d c1 06 be 4b 57 5e 3d 28 e0 e4 3c
       0.15198185 -0.1315958 0.054282468 0.027938917
000070 3b 5f 6f bd 41 5d cf bd a1 c2 a7 3d 8c 28 0b 3e
       -0.05844043 -0.10125209 0.081914194 0.13589686
000080 cf 3a b6 bc 20 1e cb 3d 99 92 c4 bc 26 89 d3 bd
       -0.022244839 0.09917855 -0.023995684 -0.10328893
000090 8b 24 ac bd 8f f3 72 bd 15 09 10 bf 2c 0a 50 3e
       -0.084054075 -0.059314307 -0.5626386 0.2031638
0000a0 1a 25 83 3c e8 2f 11 bf 24 49 a4 3d 8e 50 a1 bd
       0.016008902 -0.56713724 0.08021763 -0.07876693
0000b0 00 23 b8 3e e9 5a d6 bd 40 57 b7 3d 21 ea de 3d
       0.35964203 -0.104665585 0.089521885 0.108845
0000c0 05 39 05 be e9 ca da bd 19 d5 5b 3d 4f 8b fd bd
       -0.13010032 -0.10683233 0.053670023 -0.12380087
0000d0 5e 8e 2a be c8 cd 94 bd 04 0c 4a be 40 e8 a0 bc
       -0.16655871 -0.07265812 -0.19731146 -0.019641995
0000e0 70 6d 87 bd 22 bb d4 bd 36 ea aa 3c 06 f9 a2 3d
       -0.066126704 -0.10387255 0.020863634 0.07957654
0000f0 f8 16 e5 ba 51 e1 b6 3d 23 48 46 be 18 b2 0f be
       -0.0017478159 0.089296944 -0.19363455 -0.14032781
000100 a8 98 bb bd 79 ba 7b 3d bc d2 06 be 5a 8b fd 3c
       -0.09159976 0.06145713 -0.13166326 0.030950237
000110 64 85 c1 3b 30 49 65 be b5 30 95 3e d1 50 87 be
       0.005905794 -0.223912 0.29138723 -0.26428846
000120 d3 fe 2f bf e1 5c a8 bd fa c8 39 bf 59 18 00 3f
       -0.68748206 -0.0822084 -0.7257229 0.5003715
000130 a8 63 0b 3f 5f d7 85 be c7 63 34 be 35 08 1f be
       0.5444894 -0.26140878 -0.17616187 -0.15530474
000140 b7 ad 03 be f9 37 24 3e ec ed 45 bd 5f d7 99 bd
       -0.12859236 0.16036977 -0.048322603 -0.07511782
000150 f0 ed 90 3d 31 39 8c bd 80 72 1b 3e 44 1c 8a bd
       0.07076633 -0.06846846 0.15180397 -0.067436725
000160 2e 5b fd bd 48 ee d7 3d 9f bd 32 3e e0 37 d8 bd
       -0.12370907 0.105434954 0.17455147 -0.10557532
000170 0d f9 79 3d 36 0d fb bd 8d e0 df bc bb b4 c2 3d
       0.06102853 -0.12258379 -0.027328754 0.09507128
000180 69 e9 a5 3e 0c 3c f7 bb 45 a7 76 3d 08 e9 4d 3e
       0.3240464 -0.007545 0.060218114 0.20108426
000190 56 00 1a 3e 8a bc df 3d 39 c3 1d be 80 db f5 be
       0.1503919 0.10924633 -0.15406503 -0.48019028
0001a0 b3 a0 0a bf c2 df 09 bf 90 fc 56 be 46 06 9d be
       -0.5415146 -0.5385705 -0.20994782 -0.3066885
0001b0 84 25 c7 be 6d 12 cd bd 96 9e f5 bc 6d c2 a1 bd
       -0.3889581 -0.1001328 -0.029982846 -0.07898412
0001c0 cb 55 84 3d 4b 5d c6 3d 93 97 19 3e 95 9c d6 3d
       0.06461676 0.09685763 0.14999227 0.104790844
0001d0 ad 8f 27 be 5c c6 3a 3d 2f db 07 be 1b 3a 0f 3e
       -0.16363402 0.045599326 -0.13267206 0.13987009
0001e0 4a 74 58 bd ad ed c4 3d 6f 10 9d bd db e0 29 be
       -0.052845277 0.096156456 -0.0766915 -0.16589682
0001f0 38 ab bb bd 4d bb 94 bd eb b2 d7 bd 86 01 dd bd
       -0.09163517 -0.07262287 -0.10532173 -0.10791306
000200 43 8d 28 bd a2 f5 10 3e db 18 d5 3d 27 d8 e8 bc
       -0.041150343 0.14156201 0.104051314 -0.028423382
000210 01 1a c6 bd 1e 47 74 bc a9 c8 0c bd 8b 3e 96 bd
       -0.096729286 -0.014909534 -0.034371052 -0.07336148
000220 eb 3f 3a bd 0b 59 c5 bc d3 31 f3 bc bc a2 1b bc
       -0.045471113 -0.02409031 -0.029686844 -0.009499248
000230 f9 63 3f 3e fa 40 69 3e 26 b0 73 3e ae b1 54 3d
       0.1869048 0.22778693 0.23797664 0.05192726
000240 0b 34 8f 3e 81 65 65 bd 71 06 0a 3d 07 25 be 3d
       0.27969393 -0.056005005 0.03369755 0.09284406
000250 a7 b3 8d 3e 87 f1 4d 3e 33 04 e4 3c 4e 39 55 3e
       0.27676126 0.20111667 0.027834034 0.20822641
000260 c1 46 24 3c 6f 30 0a 3d be d1 de 3c b9 c3 74 3e
       0.010026635 0.033737596 0.027199622 0.23902787
000270 af ad 81 3e 6d d6 73 3e f7 5d 5c 3e d0 5a fc 3d
       0.25327823 0.23812266 0.2152022 0.123220086
000280 bf 83 05 3e bd bc 65 3d ef a5 a9 bc dc 23 5e bd
       0.13038538 0.056088198 -0.020709006 -0.054233417
000290 5f 2e 35 bd af 9b 26 3c c2 0c 1c be 51 c1 6c be
       -0.044233676 0.010168954 -0.15239242 -0.2312062
0002a0 29 a9 61 3e b4 87 fd be 20 da 83 3e 83 89 1e 3f
       0.22037186 -0.49517596 0.25752354 0.61928576
0002b0 29 91 9f 3e 70 83 be be fe 84 00 be 6f b6 9f bd
       0.31165436 -0.37209654 -0.12550732 -0.07798468
0002c0 59 e2 58 3c c4 da e8 3d 10 a6 37 be c5 d9 03 bc
       0.013237559 0.11369851 -0.17934442 -0.008047526
0002d0 43 71 67 be f5 17 4b 3d e9 ce ab bc a8 58 a1 bd
       -0.226018 0.049583394 -0.020972686 -0.07878238
0002e0 db 44 1e 3b e1 40 ed bd a4 d6 5d bd 77 ff 22 be
       0.0024149928 -0.1158464 -0.054159775 -0.15917765
0002f0 0a 63 b8 bd fa 46 3c 3c 11 2d 62 3b 77 da 2b be
       -0.09003265 0.0114915315 0.0034511725 -0.16782556
000300 13 2f 2d 3e 8a ac 89 3e 64 dd 57 3e 05 e9 1b 3e
       0.16912489 0.2688945 0.21080548 0.15225609
000310 e1 a9 0f 3e 0d 7c 18 3e ab 58 3a 3c 7d 8f 9f be
       0.14029647 0.14891072 0.011373679 -0.3116416
000320 5a 1d 25 bd 58 91 a0 be 4f d3 9e be 09 7e 81 be
       -0.040311195 -0.31360888 -0.3102059 -0.2529147
000330 b3 b3 c9 3d 92 78 13 be 2e f3 05 bd 76 e8 46 3c
       0.09848728 -0.14401463 -0.032702617 0.012140384
000340 f7 ef fe 3d 80 43 fb 3d db f7 31 be 06 50 89 3d
       0.124481134 0.12268734 -0.17379706 0.067047164
000350 86 1d 0f be 63 26 2a 3d 15 88 c2 bd 54 bd 69 bd
       -0.13976106 0.041540515 -0.09498612 -0.057065323
000360 cf e1 16 3c b1 fe 9c 3d 5f 4f 31 bd 38 ec 17 3e
       0.00920911 0.07665766 -0.043288585 0.14836204
000370 e1 c3 a1 bc 63 9c 8d bd a5 48 a4 bd 49 5b 41 be
       -0.019746723 -0.06914594 -0.08021668 -0.18882479
000380 76 5e 3b be df e3 97 3d 05 c1 39 3e 13 41 28 3e
       -0.18297753 0.0741651 0.18140037 0.16431074
000390 46 77 ac bd 11 03 16 be 54 b4 f2 3d 5f be 68 3d
       -0.08421187 -0.14649607 0.11850801 0.056822177
0003a0 d5 6a 28 3e f5 bf 69 bd 8b 57 ae bd a1 76 f2 3d
       0.16447003 -0.05706783 -0.08512791 0.11839033
0003b0 b6 f9 c2 3d 23 0a 16 3e 47 dd 81 3e 21 34 fc 3d
       0.09520285 0.14652304 0.25364134 0.1231463
0003c0 59 ad 64 3c 35 94 45 3e dc c2 2d 3e 9f d9 8e 3e
       0.013957345 0.19294818 0.16968864 0.27900407
0003d0 39 da 35 bd ff 5a 15 3e e5 35 82 3d 1b aa 68 3e
       -0.044397566 0.14585494 0.06357936 0.2272114
0003e0 a5 28 89 3e 9f 5f 2b 3e b5 12 0c 3d 0b 15 fe 3d
       0.26788822 0.16735695 0.034197528 0.124063574
0003f0 3c 90 84 3e 94 d0 73 3e 8a 4c d3 3d c3 f0 18 3e
       0.25891292 0.23810035 0.10317333 0.14935593

adj_embedding.0.bias f4 [32]
000000 d0 7f 9c bd 22 12 96 3d a7 95 80 bd 11 c6 6a bb
       -0.07641566 0.07327677 -0.06278544 -0.0035823623
000010 fe f3 eb bd 15 dd f7 3c ba 1b 3d be 96 fd a9 3d
       -0.11521147 0.030256787 -0.18467608 0.08300321
000020 32 b9 b6 3d 4d c3 05 bd 97 07 83 bd 4b e8 f1 3d
       0.08922042 -0.032656956 -0.06397932 0.118118845
000030 45 5e 74 3d 71 4b 0c be ca 86 a0 bc 54 2f a7 bd
       0.059660215 -0.13700654 -0.019595522 -0.08163324
000040 97 24 37 3d 1e 60 b5 bd be 97 05 3e eb 40 e8 bd
       0.04471263 -0.088562235 0.13046166 -0.11340507
000050 13 78 15 be 1e cf 43 3d 30 64 1c be 58 70 1d be
       -0.14596586 0.047804944 -0.15272593 -0.15374887
000060 6c 7b 0d be f3 e4 f2 3b c5 19 5a be 80 d4 52 be
       -0.13816613 0.007412547 -0.21298893 -0.20588875
000070 b5 ff 5b bd 50 48 b4 3b eb b7 bd bc e8 59 15 bd
       -0.053710658 0.0055017844 -0.023158988 -0.036462694

graph_rnn.weight_ih_l0 f4 [192, 32]
000000 ce 3d 83 3e 2b 73 fd 3d f8 13 e3 3e 4f 32 b2 3e
       0.2563309 0.12375482 0.44351172 0.34804007
000010 0d 33 57 3e d1 a7 8c 3e 7e b0 60 bd af 49 7c 3e
       0.21015568 0.27471784 -0.054855816 0.24637483
000020 b9 f7 02 3f 4e 8f 84 3e 2e a9 80 3d 07 39 99 bd
       0.51159245 0.25890583 0.062822685 -0.0748158
000030 35 02 ae 3e 28 b3 5f 3e d7 ec 12 3e 37 26 55 3e
       0.3398606 0.21845686 0.1434816 0.20815359
000040 71 9f 24 3e 47 c1 f7 3d c2 da 6b 3c 39 a4 ae bc
       0.16076447 0.120974116 0.014395418 -0.021318542
000050 cc 7b 5c 3d e1 92 58 3e 09 01 fc 3e 4c 8d 45 be
       0.053829 0.2114978 0.4921954 -0.19292182
000060 21 bd cb 3e 55 9c a3 3e ed 73 d7 3d 47 78 80 be
       0.3979273 0.3195521 0.10520158 -0.25091764
000070 a3 61 e1 bd 1c e5 25 3e 3f ce 1a 3e 4e 32 18 3e
       -0.11004951 0.1620068 0.15117739 0.1486294
000080 04 d1 ec bd 3b 34 0a be e5 49 69 3d 1c a4 94 3c
       -0.11563304 -0.13496487 0.056955237 0.01814466
000090 d7 80 d2 bb e7 3e a9 3d ac bc 6c be 0e 65 2f be
       -0.0064240503 0.08263951 -0.23118848 -0.17128393
0000a0 7f f3 b6 bd 43 a1 6a bd ae 89 05 be 1b 39 16 be
       -0.08933162 -0.057282697 -0.13040802 -0.14670222
0000b0 48 ab 51 3d e7 9c 88 3d bd 31 99 3c 40 9b 62 3b
       0.051188737 0.06670552 0.018700475 0.00345774
0000c0 b7 56 ff bd e2 ca 78 3d a2 3e d7 bd e2 6f cd bd
       -0.124677114 0.06074036 -0.10509993 -0.100311056
0000d0 d8 e9 30 be dc 3f 09 3d 0c 43 21 be 5c d2 28 3e
       -0.17276704 0.033508167 -0.15748233 0.16486496
0000e0 fc 89 88 3d 85 16 63 bd 86 04 07 be 59 07 8e be
       0.066669434 -0.0554414 -0.1318532 -0.2773998
0000f0 53 f9 be bd 23 f5 f5 bd de fe 50 3c cd 43 2c be
       -0.093248986 -0.12009647 0.012756078 -0.16822739
000100 fb be d1 3e 98 07 94 bd 93 b9 03 be 27 4f 8d 3c
       0.4096602 -0.07228011 -0.1286376 0.017249657
000110 b2 15 ac 3d 6a cf 5e 3e 60 1b b8 3d 62 4f df bc
       0.084025756 0.2175881 0.08989596 -0.027259532
000120 b4 b4 47 3e 33 3c 42 3e ca 72 1c 3e 68 66 13 3e
       0.19502527 0.18968277 0.15278164 0.14394534
000130 d2 59 ae 3c 38 0e 86 3e 73 ae e9 3b 52 71 ca bd
       0.021283064 0.26182723 0.0071313917 -0.098848954
000140 1a 62 8e bc 95 8b 89 3d f6 08 ff 3d 10 cf 27 3e
       -0.017380763 0.06716076 0.12452881 0.16387582
000150 b0 67 38 3e 15 ac cc 3c 02 ee 32 bd 46 02 12 3e
       0.18008304 0.024984399 -0.043684013 0.1425868
000160 d5 d8 db bb ea 66 4e bc 0b f7 bd 3d a4 24 2c 3e
       -0.006709198 -0.012597779 0.09275635 0.16810852
000170 19 49 84 bc c1 f2 84 bd 1a bb f9 3d e4 51 38 3e
       -0.016148137 -0.06491614 0.1219389 0.17999989
000180 d7 b0 b6 bd 67 9b d9 bc 91 95 4d be 90 0a 54 3d
       -0.08920448 -0.02656336 -0.20076586 0.051767886
000190 ba 94 15 be 8b 9c e2 bd ac 41 68 be 37 27 f8 bb
       -0.14607516 -0.110650145 -0.22681302 -0.007573034
0001a0 dd d6 5d 3c 9d 24 d4 bc 29 86 e6 bd a0 16 51 bc
       0.013539997 -0.025896365 -0.11256058 -0.012761742
0001b0 f5 97 61 bd 33 a3 80 bd 10 b4 98 bc 55 75 bf bd
       -0.05507656 -0.06281128 -0.018640548 -0.09348551
0001c0 24 0c af bd 59 50 5c be f5 4f a8 3d e3 a0 b4 bd
       -0.085472375 -0.21515025 0.082183756 -0.08819749
0001d0 8c 5f 11 be 7c 7e 03 3d bd 03 64 be a6 78 c7 3d
       -0.14196604 0.032103047 -0.22267051 0.09739809
0001e0 92 60 b6 be f6 7f 73 3d f4 d3 84 be 72 b6 a7 bd
       -0.35620552 0.059448205 -0.25942957 -0.081890956
0001f0 6a 03 68 3e 1c 9f 7c 3b 63 7d 68 3d ba 5c c7 3c
       0.22657552 0.0038546985 0.056760203 0.024336208
000200 40 f9 b5 bd 21 6c f7 3d 6f 43 12 be da d6 6a 3d
       -0.08885431 0.12081171 -0.14283536 0.057333805
000210 f1 ce 96 3b 10 d3 0f 3e a5 63 a7 be 74 08 67 bd
       0.004602306 0.14045358 -0.3269321 -0.056404546
000220 3a 1f aa 3d 85 5d 39 bc 54 38 34 3d 22 a0 1e 3e
       0.08306737 -0.011313801 0.04399903 0.15490773
000230 21 99 82 3d 87 35 35 be d3 ca 97 bd 83 c5 07 3d
       0.06376863 -0.176962 -0.074117325 0.033147346
000240 4d ed 20 3d 6d 25 a3 bd 64 84 2d bd f9 6c 4a be
       0.039288808 -0.07966123 -0.042362586 -0.19768132
000250 33 95 d2 3d 04 a7 9c bd aa 3f 48 be 86 07 24 be
       0.10282364 -0.07649043 -0.19555536 -0.16018495
000260 4c e9 0e be ff cc bd 3d 86 a2 a5 be d8 28 b8 3c
       -0.13956183 0.092676155 -0.32350558 0.022480413
000270 19 bf 83 3e b8 47 bf bd 80 cb 9d 3d 59 52 ad 3e
       0.25731733 -0.09339851 0.0770483 0.3385189
000280 3e bb fc bc 78 8e 8f 3d d4 10 3c 3d 5e c1 08 be
       -0.030851003 0.07009596 0.045914486 -0.13355014
000290 63 ca 44 bb 37 31 44 be 67 b4 0f be fa d2 0a 3e
       -0.0030027858 -0.19159399 -0.14033662 0.13557044
0002a0 0e 47 47 bd 6d bc 16 ba 76 a4 0e 3e cf ef 70 bd
       -0.048651747 -0.00057501235 0.13929924 -0.05882245
0002b0 05 eb 02 3e 10 11 30 3d 03 90 d0 3c cc a7 a1 be
       0.12784965 0.042985022 0.025459295 -0.3157333
0002c0 8e 42 b2 3d 70 97 ba 3d 4f e8 bf 3d 46 3f 1a 3d
       0.087041005 0.09110916 0.09370481 0.037658
0002d0 69 2b 24 be 57 3c 50 bd af 22 bd be 25 b5 81 3e
       -0.16032185 -0.050838795 -0.36940524 0.25333515
0002e0 c7 65 05 bf 76 23 3f 3e c8 a4 a6 be 05 0b df bb
       -0.52108425 0.18665871 -0.32547593 -0.0068067336
0002f0 fa 7f 6b be 2f 0c 1d 3d 4b a6 0d bd e2 19 72 3d
       -0.22998038 0.038341697 -0.034582417 0.059106715
000300 b9 94 06 be 28 81 a2 be 51 e1 37 3e 03 2f f2 bd
       -0.1314267 -0.31739163 0.17957045 -0.11825373
000310 aa e0 31 3e e6 8b 6d 3e 7d 58 99 3e 0e 46 29 3e
       0.17370859 0.23197898 0.29950324 0.1653063
000320 a8 e8 d6 3c f2 b4 57 bd fa a1 72 3e 8d cb 86 bb
       0.026233986 -0.052662797 0.23694602 -0.0041136206
000330 cd 08 09 be 53 cc 8b 3e ea 71 98 3d f5 cc 6b 3e
       -0.13382263 0.27304325 0.074436024 0.23027404
000340 1e d5 fd 3d b1 71 12 3e ca e1 2f be 00 09 d4 3d
       0.123941645 0.14301182 -0.17175975 0.10353279
000350 49 8b 37 3e af 27 a7 3d 3c 6c ea 3d 70 22 2b bd
       0.17924227 0.08161866 0.11446425 -0.04178089
000360 8c 35 73 be ca 44 ba 3d 2c de 91 bc 1e c1 90 3e
       -0.23750895 0.09095152 -0.017806135 0.28272337
000370 75 36 93 3e 52 61 91 3d ca 9e 6e bd 8a 0d a8 bc
       0.28752485 0.070986405 -0.0582569 -0.020514268
000380 62 bd 3d bd 20 79 f8 3d cc f6 3a be 25 73 f2 3d
       -0.046323188 0.12132478 -0.18258208 0.11838368
000390 4e a3 1d bd 71 30 a1 3e d4 1f 98 bd f3 dc d5 bd
       -0.038485818 0.3148227 -0.07427946 -0.10442533
0003a0 fc 2d a6 3d 64 ad a1 3d f1 ab c2 bd 86 64 97 bd
       0.081142396 0.078944 -0.095054515 -0.0739222
0003b0 6d ea aa 3d a8 21 86 bd 10 94 9f bd 47 20 2c bc
       0.083454944 -0.06549388 -0.077919126 -0.010505742
0003c0 6e 86 00 bd f5 e0 f1 3c a7 65 f5 bd b2 f7 1d be
       -0.031378202 0.029526213 -0.11982279 -0.1542652
0003d0 90 91 dc 3d 0f c5 1c bd 68 6a 04 be 67 c5 a5 3c
       0.10769951 -0.038273867 -0.12931216 0.02023573
0003e0 94 dc 9a 3b b9 85 ed bd 04 bf a2 bd 8a 77 8b bd
       0.004726002 -0.11597771 -0.079465896 -0.0680991
0003f0 e2 59 66 bd 9e 3c ad bd 63 ac 83 3c af 50 a9 3e
       -0.056238063 -0.084588274 0.016073411 0.3306937

graph_rnn.weight_hh_l0 f4 [192, 64]
000000 83 ba 4f be 8b 79 e6 bb d9 ed 84 3d 44 3d ce bd
       -0.20285992 -0.007033532 0.06490678 -0.10070279
000010 d9 82 45 3c bb f4 6d be e1 65 3a be 40 5c 1c 3e
       0.012055122 -0.23237889 -0.18202926 0.15269566
000020 f3 cd 05 be 80 58 ce 3d cd 62 2b bb 0b f2 e1 3d
       -0.13066845 0.10075474 -0.002615142 0.11032494
000030 78 17 54 3e 83 93 3a 3e c7 99 8a bd c9 0f c0 bd
       0.20712078 0.18220334 -0.06767612 -0.09378011
000040 62 d4 06 be 86 b6 d4 3d f2 98 2e 3d b7 ca 7d be
       -0.13166955 0.10386376 0.04262633 -0.24784361
000050 38 25 62 3e d8 0a c7 3d bf 8b 1c bd 98 a7 86 bd
       0.2208451 0.09718865 -0.03821921 -0.06574935
000060 1f 21 b0 3c bf 4e 54 3e c3 91 f4 bc 53 6f 5d 3e
       0.021500168 0.20733164 -0.02985466 0.21624498
000070 67 de c9 3c 5f 79 90 bd d0 ba 11 bd d1 33 b3 3c
       0.024642183 -0.070544 -0.03557855 0.021875294
000080 a3 12 d2 3d d6 32 36 3e b3 a5 df bd 2b 18 08 be
       0.10257461 0.1779283 -0.109202765 -0.1329047
000090 d1 2e 72 3d e4 ce 86 3d c9 4f 59 3d 4a f2 d8 3e
       0.05912668 0.0658243 0.053054605 0.42372352
0000a0 88 4c a4 3d 47 d1 63 3c 30 0b d0 3d e1 ee 34 3d
       0.0802241 0.013904876 0.10158384 0.044173125
0000b0 09 91 16 3e dd 2f c4 3d 5a 87 4b 3c d5 59 db bd
       0.14703764 0.09579442 0.012422407 -0.107104935
0000c0 8f a6 23 bd 67 fe 92 bd e7 3f d7 bd aa fc 52 3a
       -0.039953765 -0.0717743 -0.10510235 0.0008048514
0000d0 fd a5 ab 3d 6a 19 82 3e af 00 e6 bd 7a 7f 56 3d
       0.08381269 0.25410014 -0.11230599 0.052367665
0000e0 11 ab 03 3e 95 f8 18 3d 52 88 34 3c a1 72 2a be
       0.12858225 0.03734644 0.011018829 -0.1664529
0000f0 1e 69 6d be 64 41 1d be 71 2e e2 bc 07 9f 14 be
       -0.2318463 -0.15356976 -0.027610036 -0.14513789
000100 be c8 69 3d 2a c7 ae bc c0 e1 05 bd 59 e8 02 be
       0.05707621 -0.021335203 -0.032685995 -0.12783946
000110 f5 79 0b bd 88 32 4c bc b8 e1 51 3c 87 8b 31 bd
       -0.034051854 -0.012463219 0.012810163 -0.043345954
000120 1c 94 f3 bb 63 07 d0 bd ab f4 ec 3d 16 c5 68 bd
       -0.0074334275 -0.10157659 0.11570104 -0.05682858
000130 4f fa 34 bd 05 8f da 39 a1 24 8e bd db b4 0b bd
       -0.044184025 0.00041686758 -0.0694058 -0.034108024
000140 79 74 e5 bd cf 0c 02 be ac 32 31 3d 7a b1 76 3d
       -0.11203856 -0.12700199 0.043261215 0.06022785
000150 96 c3 27 be 1b 33 b9 3d 07 2c 3c 3c 5c 93 3a be
       -0.16383204 0.09042951 0.011485106 -0.18220276
000160 ca fd aa 3c 89 6a b0 bd e7 64 8b 3d 37 1c 91 3d
       0.02087297 -0.0861407 0.06806355 0.0708546
000170 0a 0b 90 bd 9d ec 1d be 82 a5 01 3d c8 8d 4d be
       -0.070333555 -0.15422292 0.03165198 -0.20073617
000180 ed 88 14 3d d2 d8 de ba 16 0b 1a 3e 3e ab 7f 3d
       0.036263395 -0.0017001873 0.15043291 0.06241917
000190 d3 01 5e 3e ba fe 91 bd 39 0b e0 3c 87 03 4c 3e
       0.21680383 -0.07128663 0.027349101 0.1992322
0001a0 30 36 be 3d 26 c1 5f 3b a8 6e 85 3d 6e 4d c3 3d
       0.09287679 0.0034142225 0.06515247 0.09536253
0001b0 99 3a 63 3b 0b 51 1e 3d 54 45 f7 3b b9 c3 97 3c
       0.0034672378 0.038651507 0.0075461064 0.018525945
0001c0 59 e8 34 3d 1f 48 b9 3c e3 98 c9 bd f7 2b 4b 3d
       0.044166896 0.022617398 -0.09843614 0.049602475
0001d0 85 74 0e bd 79 b6 fb bd df 19 e8 bd ea 45 11 3d
       -0.03477909 -0.12290663 -0.113330595 0.035467066
0001e0 02 04 8f bc c8 2d 98 3d fa 39 6e be 6e 12 2d 3c
       -0.017457966 0.07430607 -0.23264304 0.010563476
0001f0 31 ab 10 be 73 8b 4d bd 66 cf 42 be 11 6f 81 bc
       -0.14127804 -0.050181817 -0.19024429 -0.01580003
000200 65 20 37 3e 17 06 f1 bd 9d 9b e5 3c a8 58 c8 bd
       0.17883451 -0.1176874 0.028028304 -0.09782535
000210 73 4e 10 bd db 7f 3a be ee bf e3 bc 4c 48 f5 3d
       -0.035231065 -0.18212835 -0.02780148 0.1197668
000220 0a a7 36 3c f4 f6 d6 bd dc fc 42 3e 7e 34 10 3e
       0.011148224 -0.10496321 0.1904177 0.14082524
000230 e5 80 a4 3d 4b 4d 18 3c e9 1c 2c be ce 30 28 bd
       0.08032397 0.009295772 -0.16807903 -0.04106217
000240 0e db b1 3d 98 a1 e7 3d d7 6d 35 be 22 15 64 3c
       0.086843595 0.113101184 -0.17717682 0.013921054
000250 dc 7c fe 3c 1e 33 f0 3d 26 f7 95 be fa 81 96 bb
       0.031065397 0.117285 -0.29290122 -0.004593131
000260 af 06 0c 3e f3 ab 84 bc 13 a3 38 3e 94 6b 5b be
       0.13674425 -0.016195273 0.18030958 -0.21427757
000270 6d d0 2d be ee 38 99 3d 7f 61 db bd ed ad d9 bd
       -0.1697404 0.074815616 -0.10711955 -0.10628877
000280 2d 75 52 3c cc 51 dd 3d 86 b6 1e bd 42 23 c4 bd
       0.01284532 0.10806617 -0.038748287 -0.095770374
000290 74 c8 7e 3d 55 0f 29 3d 51 26 d3 3d cd 2b db bd
       0.062202886 0.041274387 0.10310043 -0.10701714
0002a0 00 f5 3c be 03 f0 27 be 9c 2f 81 bc 2b f5 46 3d
       -0.18452835 -0.16400151 -0.015769772 0.048573654
0002b0 9c b1 0e 3b 27 19 54 be 46 e9 3a 3e 19 19 6c 3d
       0.0021773344 -0.2071272 0.18253049 0.057641122
0002c0 cb 81 0a be f0 bb 71 be 97 b7 70 bd 70 e4 8e be
       -0.13526075 -0.23606849 -0.058768835 -0.2790866
0002d0 e1 08 1a be ed bc 70 bd 72 4d 05 be f1 41 82 3e
       -0.1504245 -0.058773924 -0.13017824 0.25440934
0002e0 bc aa 91 3c 8a e1 01 be 26 6a 28 be 6d ea 0c 3e
       0.017781608 -0.12683693 -0.16446742 0.13761301
0002f0 11 89 08 bd d2 c1 6b 3d 22 6a d4 3a 08 d7 bd 3d
       -0.03333384 0.05755789 0.0016205946 0.092695296
000300 d5 f6 06 be fe 31 e5 bd 72 63 3a bd 22 a5 15 be
       -0.13180096 -0.11191176 -0.045504995 -0.14613774
000310 f2 56 84 bd 0a 4c 8d bd 34 3e 01 be 07 f9 36 3c
       -0.06461896 -0.06899269 -0.12621385 0.011167771
000320 cb c5 0b 3e 2b 14 9c bd 03 52 bd bd 09 5f 11 be
       0.13649671 -0.07621034 -0.09244158 -0.1419641
000330 e4 4c 06 be c8 62 1c 3c 94 f1 6c 3d 4c 0b 12 bd
       -0.13115269 0.009545036 0.057847574 -0.035655305
000340 ec 33 04 bd 15 82 bc bd 98 a1 4f 3d be b7 8d 3d
       -0.03227608 -0.09204499 0.050691217 0.06919812
000350 33 a6 04 be 01 5d 0f 3d bb 65 83 3c bc d2 19 bb
       -0.12954025 0.035000805 0.01603972 -0.0023471555
000360 3c f7 c9 3d b3 85 e1 bd 06 30 51 3d d6 28 11 3e
       0.09861609 -0.11011829 0.05107119 0.14175734
000370 8e 02 a2 bd cb c0 12 bb 77 d4 d1 3d 10 72 ab bd
       -0.079106435 -0.0022392746 0.102456026 -0.08371365
000380 99 c6 a6 3d 15 4b ab bd 27 a5 c9 3d 25 89 09 3e
       0.08143348 -0.0836393 0.098459534 0.13431223
000390 3e fe d7 bc 70 27 08 3d 4e e4 7a 3d 50 0c f9 bc
       -0.02636635 0.033240736 0.061252885 -0.030401379
0003a0 1a 49 45 3c 01 9e c1 3d b4 b8 d7 3c 79 cd 3d bd
       0.012041355 0.09453965 0.02633319 -0.046338532
0003b0 5d 34 31 3e 46 ee 33 bd 3e 2d ca bd 77 c0 08 3d
       0.17305131 -0.043928407 -0.098719105 0.033386674
0003c0 cb 21 bc 3d 62 5c 0f 3d ab a9 c2 bd 5a f1 e2 bd
       0.09186133 0.035000212 -0.09505018 -0.110811904
0003d0 4a 36 2d bc c3 c2 41 bd 91 d0 df 3b 21 01 f3 bd
       -0.010572026 -0.04730488 0.006830283 -0.1186545
0003e0 0b b7 af 3d 91 16 e0 bd 00 ff 64 bd 67 71 ed 3d
       0.085798346 -0.10941804 -0.05590725 0.115938954
0003f0 d8 76 14 3e 18 e3 4e bd 38 cf 8a bd 40 74 67 3c
       0.1449846 -0.050509542 -0.06777805 0.014126837

graph_rnn.bias_ih_l0 f4 [192]
000000 cb 53 c3 3d 39 dc 0c be b7 1c 8f 3d c3 0a 00 bc
       0.095374666 -0.13755883 0.06987899 -0.007815066
000010 bb aa 2e 3e 55 fc 9c bd 47 d9 bd 3d 7f 1f 51 3d
       0.17057316 -0.07665316 0.09269958 0.051055428
000020 ae 95 8e bd a5 8a 82 bd 1f f7 c5 3a 58 83 04 be
       -0.06962143 -0.063741006 0.0015103555 -0.12940729
000030 8e 33 e9 bd c3 fc 0b bc b2 8f 04 3e 6f 91 a2 bd
       -0.113867864 -0.00854415 0.1294544 -0.079378955
000040 d1 ca 00 be 02 01 84 bd 38 65 54 bd 8b 79 74 3e
       -0.12577368 -0.06445505 -0.051854342 0.2387449
000050 2f 23 90 3d 77 36 e8 3d 9d 52 da 3d 34 17 53 3c
       0.07037961 0.11338513 0.106602885 0.01288395
000060 8e ec 12 3e 1e 31 63 be 94 92 df 3d f4 d4 49 39
       0.14348051 -0.22186705 0.109166294 0.00019248185
000070 1f 56 fc bd 66 d6 4a bd f2 50 0d 3e c9 ba a3 3d
       -0.12321114 -0.049520873 0.1380041 0.07994611
000080 b7 86 94 bd 22 b0 a2 bd ba f1 8e bd db 14 50 bd
       -0.07252257 -0.07943751 -0.069796994 -0.05080114
000090 e6 ce 58 3d 6e 0b 06 bc 2e 5b 8a bc f3 34 5a 3d
       0.05293169 -0.008181436 -0.016889181 0.053273153
0000a0 9f d3 62 bd 64 da 0c be 58 13 92 bd d8 79 bf 3b
       -0.0553776 -0.13755184 -0.07132596 0.0058433823
0000b0 3c e9 ed bd 20 c1 bf bd 33 2e ce bd e8 d9 4f bd
       -0.116167516 -0.093630075 -0.100674056 -0.05074492
0000c0 98 35 84 bd d3 cd e5 3c 63 38 50 bd 28 96 b8 3d
       -0.06455535 0.028052246 -0.050835025 0.09013015
0000d0 9f 9b c8 bd 2d 62 37 3d d5 4b 9b bd 23 d4 1a 3d
       -0.09795307 0.044771362 -0.07582823 0.037799966
0000e0 c0 77 cb 3b 01 57 4b 3d 81 b8 bc 3b 04 39 c1 bd
       0.0062093437 0.04964352 0.0057592993 -0.09434703
0000f0 15 0e 2d 3a 69 e4 4a 3c e2 89 a2 bd 16 a5 f0 bb
       0.00066015247 0.012383559 -0.07936455 -0.0073438985
000100 de 09 43 be ca c3 65 bd ae 8b 5a 3c fb 80 b5 bd
       -0.19046733 -0.056094922 0.013338966 -0.08862492
000110 f6 23 d4 3c 8d 2b 94 3c b0 ce 81 be 0a 12 e7 bb
       0.025896054 0.018087173 -0.25353003 -0.007051711
000120 7b 19 4f 3e e7 1b c1 3d a6 4f 16 3e e2 8e c2 3d
       0.20224564 0.0942915 0.14678821 0.09499909
000130 90 fd 69 be 1c d8 51 be c5 06 c5 3a a2 05 11 bd
       -0.22850633 -0.20492595 0.0015031925 -0.035405762
000140 e4 e4 3f 3d 78 86 16 bf d6 7e de 3d 76 af b3 be
       0.046849146 -0.58798933 0.10864036 -0.35094804
000150 48 33 4c bd ec 1c 80 bd bd bc 23 3c 15 13 56 bc
       -0.049853593 -0.062555164 0.009993729 -0.013066073
000160 de 6a 65 bd 04 06 2f 3e 9a 32 72 be 42 fd ff bd
       -0.05601012 0.17092139 -0.23652115 -0.12499477
000170 a1 86 79 bd c1 cb 2b 3e bf 8d 4a bd d2 47 3b bd
       -0.060919408 0.16776945 -0.049451586 -0.04572279
000180 6d e1 5a 3d 63 8d af 3d 9e ca 58 bd 6d db 0d 3d
       0.05343764 0.08571889 -0.052927606 0.03463309
000190 ec 67 eb 3d 82 81 6e bd 52 60 05 be 46 c1 2e bf
       0.11494431 -0.058228977 -0.13025025 -0.6826366
0001a0 fd 8e aa bd 19 e0 90 bd 77 e5 fc 3d 30 5f 62 be
       -0.08328054 -0.07073993 0.123484544 -0.22106624
0001b0 27 43 0c 3d cd 39 a5 3d 77 fe b7 3c e0 28 c6 3a
       0.03424373 0.08067665 0.022460205 0.0015118383
0001c0 0a 0e 3c be 1a 55 4d bd 3c ae 07 be 1d e3 83 bc
       -0.1836473 -0.050129987 -0.13250059 -0.016099507
0001d0 08 f6 47 be 90 ce 2a 3e 45 3b 38 3e 13 2a e1 3d
       -0.19527447 0.1668036 0.1799136 0.10994353
0001e0 d6 a7 9f 3c f6 54 2f be c3 61 53 3e 61 f6 96 be
       0.01948921 -0.17122254 0.20642762 -0.29484847
0001f0 4c 71 24 3e 35 3b cf 3d 9d 21 e1 3b 12 f0 16 bd
       0.16058844 0.10118715 0.006870462 -0.036850043
000200 bd 64 83 bd ed ac 91 3c 8b 33 99 3b f9 00 05 bd
       -0.06415699 0.017782653 0.004675334 -0.03247163
000210 12 52 48 3d 52 44 7a bd 72 80 01 be 99 58 2b 3d
       0.048906393 -0.06110031 -0.12646654 0.04183254
000220 b5 b7 7e bd 7e 78 42 3e a1 37 bf bd 53 d7 be bd
       -0.062186915 0.18991277 -0.09336782 -0.093184136
000230 32 7f 69 bc b9 d9 23 3e 58 75 ce bd 4c c8 50 3d
       -0.014251517 0.16001023 -0.10080975 0.050972268
000240 3b 74 e6 bc 53 d6 a6 bd 51 be c8 3c bf 9c 0e be
       -0.028131595 -0.08146348 0.024504812 -0.13926981
000250 02 52 c6 3d d0 53 91 bc 17 62 3c bd a7 4a c6 3d
       0.096836105 -0.01774016 -0.045991983 0.096822076
000260 6d 81 a2 3d 54 a3 ad bd 2d 49 05 be ee b7 11 3e
       0.07934842 -0.08478418 -0.13016196 0.1423032
000270 c4 d1 53 bc b1 b5 d8 3c 2a d6 9a bd 59 cb e0 3d
       -0.01292843 0.026453825 -0.0756038 0.109762855
000280 f2 27 c4 3c a1 7c 0b 3d 29 bf 14 be 07 6f 29 3e
       0.023944829 0.034054402 -0.14526047 0.1654626
000290 35 c4 8c bd bb 5d 26 be cd bc bf bd d6 a3 6e 3d
       -0.06873361 -0.16246693 -0.09362183 0.058261715
0002a0 aa e0 42 3e 14 5f 33 3d 79 72 f3 3c f9 2e f5 bc
       0.19031015 0.043791845 0.02971767 -0.029929625
0002b0 41 bc dd 3b 15 2c 58 3e cd ef cb 3d 84 5f aa 3c
       0.0067668264 0.21110566 0.09957848 0.020797499
0002c0 69 2d 74 bc c6 6b 7f bd 5d 84 9f bd 04 c0 49 bd
       -0.014903405 -0.06235864 -0.07788918 -0.049255386
0002d0 0a c9 36 3e 86 e6 04 bd d8 7f cc bc c3 77 c8 bb
       0.17850128 -0.032446407 -0.024963304 -0.0061177923
0002e0 71 52 50 bd 83 f5 2e 3e 7d c9 0f ba 65 ee 98 bc
       -0.050859872 0.17085843 -0.0005485041 -0.018668363
0002f0 c5 54 3a bd ee ab 44 bd 35 1c 1a bd 72 3d 32 bd
       -0.045491 -0.048015527 -0.037624557 -0.04351563

graph_rnn.bias_hh_l0 f4 [192]
000000 61 d8 ec 3d 54 61 b7 bd 81 0b fa bd 2c 90 13 3e
       0.115647085 -0.08954111 -0.122092254 0.14410466
000010 c7 85 59 3e 51 e4 0b be a6 95 a0 bd 69 65 44 bc
       0.21242438 -0.13661315 -0.07841043 -0.011987069
000020 b5 0e 9e 3d 21 fa 16 be bf 30 8b 3d ac d4 1d be
       0.07717649 -0.14743854 0.06796407 -0.15413159
000030 f5 ab c2 3c c6 55 87 3c 86 54 19 3b 6e 0e 5b 3d
       0.023763636 0.016520392 0.0023396327 0.053480558
000040 c0 53 30 3d 66 4d bc bc 08 86 ae 3c fe 7c 85 3d
       0.04304862 -0.022986125 0.021304145 0.06517981
000050 4f 29 b7 bd 8b 26 f9 3d c4 9b b3 3d 1c 3e e8 bc
       -0.08943426 0.121655546 0.08769944 -0.028349929
000060 8d 74 00 3e 45 53 4a bd 23 2c 37 bd f3 e7 02 3c
       0.1254446 -0.04939582 -0.044719826 0.007989871
000070 ab 89 12 be 68 d9 70 bd 6a 66 1b bd 00 9a 45 bd
       -0.14310329 -0.058801085 -0.037939467 -0.04824257
000080 f2 c8 c7 bc 9f 99 30 3a 99 5e a4 bd bc d4 cf 39
       -0.02438781 0.00067367585 -0.080258556 0.00039640616
000090 70 83 b0 bd 9d 3e 8a bd 86 85 17 be a3 46 0b 3e
       -0.0861882 -0.06750224 -0.14797029 0.13601165
0000a0 ec c3 d1 3c 31 fb c5 3c aa 4d d2 bd 4d a8 d9 bd
       0.025606118 0.024167629 -0.102687195 -0.10627804
0000b0 db 30 30 bc 13 cb 06 3d a5 20 b9 bd f7 e7 9f bd
       -0.010753836 0.03290851 -0.090394296 -0.07807916
0000c0 1f 6e 31 3c d1 82 dc bd c0 e0 c4 bd 5b 53 d5 3d
       0.010829478 -0.10767139 -0.0961318 0.104162894
0000d0 e8 96 2a be ae 01 04 3d 16 0d ad 3d 4d 8b 73 3d
       -0.16659129 0.032228164 0.084497616 0.05945902
0000e0 2e de 71 3d b1 a2 ca bc 8e da c4 bd b4 39 4c bd
       0.059049778 -0.02473578 -0.096119985 -0.049859717
0000f0 b0 fe 8d 3d ce 30 93 bd c0 23 b9 3d 57 24 dc bd
       0.069333434 -0.07187043 0.09040022 -0.10749119
000100 5f 1f ff bc 02 ed b2 bd 7b a7 db bd 16 6b 5f bd
       -0.031142889 -0.08736612 -0.10725304 -0.054545484
000110 af 32 69 3c 80 af 04 bd 1a b7 37 be f7 c5 1c 3d
       0.014233275 -0.032393932 -0.17940941 0.03827473
000120 a8 e5 35 3d 26 07 5d 3d 0f 52 6a bd 2d d3 76 bd
       0.04440847 0.053961895 -0.057207163 -0.060259987
000130 69 cd b1 be 00 7f 63 be 73 43 df bd 0a 5c 38 bd
       -0.34727028 -0.22216415 -0.10901537 -0.04500965
000140 b5 d0 06 3e 82 17 e5 be f6 f7 5f 3e 61 bc 88 be
       0.13165553 -0.44744498 0.21871933 -0.26706222
000150 f2 e0 b1 bd e0 86 a0 3c ba 9e 3f be 4f 27 09 be
       -0.08685483 0.019595563 -0.18712893 -0.13393901
000160 e9 61 14 3e 62 48 b5 3c 51 80 5a be 9d 89 72 bd
       0.14490475 0.022129241 -0.21338011 -0.05921327
000170 cc 02 d6 bd dd b7 a3 3c ce 6e 96 3c 8e 77 17 3d
       -0.10449752 0.019985134 0.018363383 0.03697925
000180 a7 a2 bb 3c cc 00 88 3d d5 f1 05 be a5 fb f2 bd
       0.022904707 0.06640777 -0.13080533 -0.11864404
000190 49 25 8f bc 06 e7 6c bc 10 a9 71 be cd 2b 1b bf
       -0.017473834 -0.014459377 -0.23599648 -0.6061371
0001a0 4c 03 30 be c9 64 8c 3d 36 5d f9 3d ba c0 67 be
       -0.17188758 0.06855161 0.12175982 -0.22632113
0001b0 38 70 11 bd ff 56 b4 3d e6 9b 3d 3d 34 04 26 3d
       -0.03550741 0.08805656 0.046291254 0.040531352
0001c0 88 2c 0f be a1 1c a4 3d b9 be ad 3b e3 40 96 3b
       -0.13981831 0.08013273 0.005302277 0.004585372
0001d0 55 9c 23 be 00 42 16 3e e2 4d 12 3e e2 50 04 3d
       -0.15977605 0.14673615 0.14287522 0.0323037
0001e0 f0 34 fe 3d 5d 79 55 bd c6 4d cd 3d 35 78 b2 be
       0.12412441 -0.052117694 0.100246 -0.34857336
0001f0 9f c7 b4 3d c2 92 06 bd f0 cc 33 3e 97 9e 5e 3c
       0.08827137 -0.032854803 0.17558646 0.013587615
000200 eb 90 74 bc 70 74 f4 bd b6 f4 26 3c 50 34 a6 3b
       -0.014927129 -0.11936271 0.01019018 0.005072154
000210 8e a3 9f 3c 55 e5 26 be 90 58 aa bc 40 56 29 3e
       0.019487169 -0.1629842 -0.020794183 0.16536808
000220 75 8f ba bd d4 69 be 3b 70 fe a7 3c 8f 02 ca bc
       -0.091093935 0.0058109555 0.020507067 -0.024659423
000230 fd 78 56 bc 43 ed 52 3e 85 ab ef 3c 5f 80 be 3c
       -0.013090369 0.2059832 0.029256592 0.023254571
000240 2e 11 2b 3e 32 e3 be 3d 80 db 7c 3c d6 9b fe 3d
       0.16705772 0.09320678 0.015433192 0.12432067
000250 d1 f8 a3 3d c7 8c 70 3d eb 6e 98 bd a1 56 36 bd
       0.08006442 0.058728006 -0.07443031 -0.04451621
000260 e9 79 fc 3c 6a 5a 19 3d 0d dd 0b be 84 dd 48 bd
       0.03081985 0.03743974 -0.13658543 -0.04903938
000270 b5 0e 1c be 72 22 58 3d 51 97 11 bb 22 85 f8 3d
       -0.15239985 0.052767225 -0.0022215436 0.12134768
000280 19 f7 17 be 6c 7b 69 3d 18 c5 34 3d 53 c5 33 3a
       -0.14840354 0.05700247 0.044133276 0.00068577117
000290 a5 8a 58 3d 62 7d 75 bd 4b df 69 bd 60 94 d9 3d
       0.052866597 -0.059934027 -0.057097714 0.106240034
0002a0 01 81 39 3d ff 22 23 be 74 74 d4 bd c7 0c 82 3d
       0.045289043 -0.15931319 -0.10373774 0.06350093
0002b0 c5 db fe bd bf de 89 3c 5c 73 11 bd e6 ad 98 bd
       -0.124442615 0.016829846 -0.035510406 -0.074550435
0002c0 49 ea 63 3c 1c f1 ac 3d c1 3a 45 bd 32 75 08 be
       0.013910838 0.084444255 -0.048151735 -0.13325956
0002d0 a7 f4 ee bc ee b2 7e 3d ab ec b3 bd 4f cb 0d be
       -0.029169394 0.06218236 -0.08785375 -0.13847087
0002e0 1d 1f db bd 0b 0e be 3d 7d 6b 1b 3e de 23 6a 3e
       -0.10699294 0.09280022 0.15177722 0.22865245
0002f0 85 13 0f bd 81 09 5e 3d d2 1f ff 3d a6 89 e8 bd
       -0.034930725 0.054208282 0.12457241 -0.11354379

graph_rnn.weight_ih_l1 f4 [192, 64]
000000 ce 7c 12 be 55 42 95 3c 35 28 10 3d 00 1e 9e 3e
       -0.14305422 0.018220106 0.035194594 0.30882263
000010 97 c2 06 3e c2 7f 89 3e 6c fc 14 be 24 fe a0 3e
       0.13160168 0.26855284 -0.14549416 0.31443894
000020 ef 57 a7 3d 10 f5 b4 3d 41 38 53 be 87 cf 84 3a
       0.08171069 0.088358045 -0.20626928 0.0010132649
000030 85 1d 96 be 7e 51 03 3e 51 b3 3e be 9f 55 ec bd
       -0.29319397 0.12824056 -0.18623091 -0.115397684
000040 e6 fa 00 3e 19 44 41 3d c0 65 20 bd 37 7c 86 3e
       0.1259571 0.047184084 -0.039159536 0.26266643
000050 bd 7b 1f be 4f ff 94 bd 76 47 19 bd aa b4 f4 3b
       -0.15574546 -0.07275259 -0.037421666 0.007467826
000060 3f ca 88 be 0f 15 3a bd a5 a1 21 be b8 e0 2a bd
       -0.26716802 -0.04543024 -0.15784319 -0.041718215
000070 43 18 59 3e 2e ee 2c 3e ee e8 2b bd 9c 2d ad bd
       0.21200661 0.16887733 -0.041970186 -0.08455965
000080 f5 73 84 be 28 ef 8c 3d 6b bc f9 3b 6a 31 1a 3e
       -0.25869718 0.06881553 0.007621338 0.15057912
000090 d5 14 5c be 7c 64 af bd 48 69 e0 be a5 4c f8 3d
       -0.21492322 -0.08564088 -0.43830323 0.12123994
0000a0 8c 5b 17 3e f1 f0 06 be a8 59 93 be 8b c3 bf 3b
       0.14781016 -0.1317785 -0.2877934 0.005852168
0000b0 be a7 9f be 96 39 8b bd 70 34 14 3e 17 81 4a 3e
       -0.31182665 -0.06798093 0.14473128 0.19775806
0000c0 4d e7 9d 3e 2c 20 19 be 11 5b e3 3d a0 f8 91 3d
       0.3084053 -0.14953679 0.11101354 0.071274996
0000d0 d8 b6 dd 3e 5a 32 ee bd 33 b5 c8 bd 17 78 0e be
       0.4330356 -0.116306975 -0.09800186 -0.13912998
0000e0 33 2b 4e be d7 fd f9 3d d6 b9 ac 3e 1e 06 06 3e
       -0.20133667 0.12206619 0.33735532 0.13088271
0000f0 63 ec 9b 3e 5d 18 82 be 4c 09 19 3e f9 f1 7f 3e
       0.30453786 -0.25409213 0.14944953 0.24994649
000100 81 72 b0 be 76 23 6c bd 1b 68 98 bd 29 fd af bc
       -0.3446236 -0.057651006 -0.074417315 -0.02148302
000110 81 f3 88 bd f2 e2 a1 bd 40 a1 5d 3c 97 31 28 be
       -0.0668707 -0.079046145 0.0135272145 -0.16425167
000120 13 09 3d 3d d5 59 0b be e1 ff d8 3d 78 7c 4e 3c
       0.046151232 -0.13608487 0.1059568 0.012602918
000130 c4 57 c1 bd 0f 65 ee bc 4f e8 3a 3d 61 d7 80 3e
       -0.09440568 -0.029100923 0.045631703 0.2516432
000140 94 01 80 bd 6c 16 1d 3e df 0b 5a be ac df 73 3e
       -0.06250301 0.15340585 -0.21293591 0.23815793
000150 70 bd 9b 3c dc 07 0e bd 3e 66 a4 bd a4 cb dc 3d
       0.01901123 -0.034675464 -0.08027314 0.10781029
000160 2a 2b 31 be c5 94 8f be 2f 40 1b 3d 5c a9 c2 3d
       -0.17301622 -0.2804319 0.037903007 0.09504959
000170 22 a5 2a be 1e 57 c9 bd 5b 3e 1d 3e b6 2b 99 3d
       -0.16664556 -0.098310694 0.15355818 0.0747904
000180 50 9a 88 3d 83 14 04 bd 84 2f 27 3e bb c8 38 bd
       0.06670058 -0.032246124 0.1632672 -0.045113306
000190 09 73 39 3d e4 b2 e0 3d a7 9d 92 3c 9b e9 7f be
       0.04527572 0.10971621 0.01789744 -0.24991457
0001a0 10 41 0b be b1 e9 af 3d 3e 87 35 3e 9b 3e 92 bd
       -0.13599038 0.08589495 0.17727372 -0.07140847
0001b0 98 da fb 3d 00 5e b4 3d 99 47 8a bd 51 2d aa bd
       0.12297553 0.088069916 -0.067519374 -0.08309425
0001c0 16 5d 29 be c4 45 0c be 7a 5e dd 3d 98 5a 38 3d
       -0.16539416 -0.13698488 0.108090356 0.045008272
0001d0 4a 0f 86 3d 49 f6 8c be cc b7 d1 ba 91 e5 95 3d
       0.06545885 -0.2753165 -0.001600021 0.07319177
0001e0 76 e5 e3 3c b9 2a e1 bd 91 c1 0e be 5a 7c 0c 3e
       0.027819376 -0.10994477 -0.13941027 0.13719311
0001f0 6d 32 25 be 9e d8 07 3e db d3 46 3d fd a1 de bd
       -0.16132517 0.13266227 0.048541885 -0.108707406
000200 85 f5 bc 3e a7 22 06 be 95 22 85 3d ff 3d 62 be
       0.36906067 -0.13099156 0.065007366 -0.22093962
000210 20 53 f2 bd 16 27 7b 3a a6 d1 dd 3d 15 d9 b4 3d
       -0.11832261 0.00095807144 0.10831003 0.088304676
000220 c6 7e 8b bc 8f 22 3e be f7 03 a2 3d 03 2e 72 3e
       -0.017028224 -0.1856787 0.079109125 0.23650365
000230 1d 19 17 3e da c1 c2 be d5 40 34 3f db 0f c5 be
       0.14755674 -0.38038522 0.70411426 -0.3848866
000240 65 2c 65 be 9c 4a b3 be 57 e3 6d 3d f3 c6 be be
       -0.22380216 -0.3501786 0.058078136 -0.3726116
000250 fe 9a c5 3c ff 8a 9c 3e 46 d9 a4 3d 10 36 4f 3e
       0.024121758 0.30574796 0.08049254 0.20235467
000260 d3 b2 36 3d 9c 0c 95 3e 87 25 93 3e be b4 db bd
       0.044604134 0.29111183 0.2873957 -0.10727833
000270 9e e4 e1 3e 48 f1 70 be 54 d5 f5 bd de d2 94 be
       0.44119734 -0.23529541 -0.1200358 -0.2906713
000280 20 8b c9 3e 4d e2 3f 3e 1e 51 81 bc ed 2e 21 be
       0.39363956 0.1873867 -0.01578575 -0.15740557
000290 c9 d1 2f 3e da 73 bc ba 4d 70 95 3d 1a 0e 01 3f
       0.1716987 -0.0014377788 0.0729681 0.5041214
0002a0 d8 6c 58 bd 03 4d b3 3c 09 99 88 3d 8d 83 c0 3e
       -0.052838176 0.021887308 0.06669814 0.37600365
0002b0 30 6c 56 3e 72 17 e7 3a 89 96 ac bc 87 32 48 3e
       0.20939708 0.0017630889 -0.021067875 0.19550525
0002c0 ed e7 c4 bd 7b 97 35 be 54 41 b3 bd c2 37 b7 bc
       -0.09614549 -0.17733566 -0.08752695 -0.022365455
0002d0 0d 1f c8 bd 13 47 e4 3e 17 c7 bb 3c 02 a9 03 3d
       -0.097715475 0.44585475 0.022922082 0.0321436
0002e0 33 55 39 3d 49 b0 d9 bd c5 64 40 be 66 8d 04 bf
       0.045247268 -0.10629327 -0.1878844 -0.51778257
0002f0 4c c7 25 be 4a a2 11 be 17 fa a2 be 65 8d 18 3e
       -0.16189307 -0.14222065 -0.31831428 0.14897688
000300 f0 8b fa 3e be 9b 09 be 8f 87 ed bd b3 3a 24 bd
       0.4893489 -0.13438317 -0.115981214 -0.040095042
000310 5a 40 0b 3e 03 13 bc bd 1c cd 8a 3d c8 c0 28 3e
       0.13598767 -0.09183314 0.06777403 0.1647979
000320 60 02 f4 3c f3 67 1b 3e 09 1d 42 be 36 80 d3 bc
       0.029786289 0.15176372 -0.18956389 -0.025817972
000330 2f 0c 90 be dc 16 29 be 30 52 b4 be b4 e7 f1 bd
       -0.28134295 -0.16512626 -0.35218954 -0.11811772
000340 a3 66 de ba e2 da ed be 84 0a a8 bd 73 84 d7 3e
       -0.0016967844 -0.46456057 -0.08205131 0.42093238
000350 f4 d4 a8 3d 51 2f b1 bd d0 56 30 be fd 21 df 3d
       0.082437426 -0.08651603 -0.17220616 0.108951546
000360 a0 d2 24 3d 81 30 41 be 94 b3 22 be c8 ce 88 be
       0.04023993 -0.18866159 -0.15888816 -0.26720262
000370 74 0c ae be e6 ea 5c 3e 10 54 6a be 98 ea 6c bd
       -0.33993876 0.21573982 -0.2288363 -0.057840914
000380 c3 c4 3b 3d f2 27 5d 3e c3 10 bb be 20 d9 96 3e
       0.045841943 0.21597269 -0.36536226 0.29462528
000390 dd 0e 04 be ab 87 82 bd 86 a3 14 3e e3 8d 40 3b
       -0.12896295 -0.06373533 0.14515504 0.0029381446
0003a0 aa db cb bd 85 eb f7 bc 48 3c 8c 3c 92 ec 63 be
       -0.09954007 -0.030263672 0.017118588 -0.22258213
0003b0 a1 f1 8b bd 6b 24 61 bc 73 d8 f6 3e 15 22 2d 3e
       -0.068331964 -0.013741593 0.48212013 0.16907533
0003c0 26 86 2e 3c d1 7e 6d be f9 31 9b 3c 23 c4 fd bd
       0.010652101 -0.23192908 0.018944727 -0.12390926
0003d0 69 19 4d be a0 20 c9 be 69 f6 37 be c2 52 8a bd
       -0.20029224 -0.39282703 -0.17965092 -0.06754066
0003e0 26 20 b3 3c 13 a0 2e bd 96 07 cc 3c ef b9 f1 3e
       0.021865916 -0.042633127 0.024905961 0.4721217
0003f0 e5 a0 5b bd 08 b3 c5 3d 40 b0 70 3d 0b d9 88 3c
       -0.053620238 0.09653288 0.058761835 0.016705057

graph_rnn.weight_hh_l1 f4 [192, 64]
000000 88 c5 1b bd 62 c6 e9 bd 2e 1f 32 3e dd 0b a8 be
       -0.038030177 -0.11414792 0.17394707 -0.3282155
000010 80 8e 45 3d e9 94 54 bd d8 b8 4a be cb 74 1d 3e
       0.0482316 -0.051899824 -0.19797075 0.15376584
000020 34 47 8a 39 4a 08 60 bd a8 15 83 bd 8e e6 01 3c
       0.00026374462 -0.054695405 -0.06400615 0.007928504
000030 73 56 57 3d c3 95 aa 3d 83 6b 38 3d b3 d4 81 3d
       0.05257268 0.08329346 0.045024406 0.06339397
000040 e3 13 8d 3b 18 9b 8e 3d 98 76 d1 3d 65 02 13 3d
       0.004305349 0.069631755 0.10227698 0.035890955
000050 5b 31 0e 3d bf 47 29 bd a5 24 11 bd b7 57 38 be
       0.034715038 -0.041328188 -0.035435338 -0.1800221
000060 13 b9 00 3e 34 05 bb 3d 66 ee 1d be 5a 1c 10 3d
       0.125706 0.09131852 -0.15422973 0.03518329
000070 82 18 5a 3e d7 90 68 b9 a2 6f 0b 3d 2e 81 29 be
       0.21298411 -0.00022179201 0.03404201 -0.16553184
000080 42 80 fd 3d 04 65 cf 3c ab a2 e2 bd 9c 9c 89 bd
       0.12377979 0.025316723 -0.11066183 -0.06719324
000090 6b b8 37 bd ed 21 0e bd fd e2 80 bd e3 07 d1 3d
       -0.04485361 -0.034700323 -0.062932946 0.102065824
0000a0 0e 9b b8 3d aa 04 02 3c 03 06 2a be 9a db 4f be
       0.09013949 0.007935682 -0.16603856 -0.20298615
0000b0 1e db 05 bd a3 f9 e2 3c 2a 87 2a 3d 91 cf 6e 3c
       -0.03267967 0.027706927 0.04163281 0.014575855
0000c0 11 33 a1 bd 66 59 04 3e 6a 3d 09 be f0 24 4e bd
       -0.07871068 0.12924728 -0.13402334 -0.050328195
0000d0 15 39 43 bd c4 5b 12 3d 35 0f e9 3d 4d 77 94 bc
       -0.04766186 0.035732046 0.11379854 -0.018123293
0000e0 5a 0e 01 3b 27 b1 c0 3d 82 7e bd 3c ec 09 40 bd
       0.0019692392 0.09408789 0.023131613 -0.046884462
0000f0 b1 8c fe 3d 99 6e cb bc 61 25 14 be 21 d6 b2 3b
       0.124291785 -0.02483301 -0.14467384 0.005457655
000100 3e 75 a4 bd 46 14 90 3c 65 39 09 be c4 df 65 3e
       -0.08030175 0.017587792 -0.134008 0.22448641
000110 de cc 6a 3d 3c bb 59 3c 4c 84 9a be cb f3 01 be
       0.057324283 0.013289269 -0.3017906 -0.12690656
000120 a3 d8 6b bc 74 91 9e 3d ab 60 6c bd ad 53 b6 bc
       -0.014394912 0.07742587 -0.057709377 -0.022256697
000130 fa 5f c0 bd b0 c3 a4 bb 26 82 de bc 65 68 65 3d
       -0.09393306 -0.0050282106 -0.027161669 0.05600776
000140 8c d3 b8 3d f6 54 ca bd 7e f4 53 bd f3 ae b5 3d
       0.09024724 -0.09879486 -0.051746838 0.088712595
000150 e1 cd a0 3c f4 28 24 3e 20 ac 11 be 51 61 d2 3d
       0.01962942 0.16031247 -0.14225817 0.10272468
000160 c1 1f 4a bb 3c 3e a5 bb 8a a9 6a 3b ed 2c 0c bd
       -0.003084168 -0.0050428193 0.003580662 -0.034222532
000170 9a 12 fd 3d ae 2b df bd 9c 0c 3b bd f1 59 2f bd
       0.123570636 -0.10897003 -0.045666322 -0.042810384
000180 97 16 5a be fa 7b dd 3d 12 cd 8c bd b4 b7 3f 3d
       -0.2129768 0.10814662 -0.068750516 0.046806052
000190 94 a0 da 3d 0e d6 3a 3d 01 d8 e0 3d 2e 6d 4f bd
       0.10675159 0.045614295 0.109786995 -0.05064123
0001a0 50 3f 87 3c 15 e7 04 3e 66 84 a1 bb 37 b7 e5 bd
       0.016509682 0.12978776 -0.004929113 -0.11216586
0001b0 1f 5d cc 3e bb 26 12 bd 3c 9a 80 bd 33 68 26 3e
       0.39914796 -0.035681468 -0.06279418 0.16250686
0001c0 fc a9 ec 3d b3 3b 7e 3d 44 41 66 3e 04 a5 96 bc
       0.115558594 0.062068652 0.22485834 -0.018389232
0001d0 eb 09 9f 3d 57 ac 2f bc 4e 12 d8 3c dc b8 77 bc
       0.077655636 -0.010722241 0.026375916 -0.0151197575
0001e0 87 3f b2 bd 03 eb 33 3e 85 5b 03 be 63 8e 0c be
       -0.08703523 0.17570119 -0.1282788 -0.13726191
0001f0 bb 54 b9 bd e0 e6 dc 3d ec 94 6b 3d ff f8 02 be
       -0.09049364 0.107862234 0.05751507 -0.12790297
000200 1b 1b 87 bd ee b8 4e be ea 63 07 3d 64 ac 24 be
       -0.06596967 -0.20187733 0.03305427 -0.16081387
000210 1f e2 54 3e 86 82 46 ba 3f 7d ee bd d5 d5 c7 bd
       0.20789383 -0.000757255 -0.116449825 -0.09757582
000220 2b 57 22 3e fb 6c dc 3b 21 87 4e be e0 35 9e bd
       0.15853564 0.0067268587 -0.20168735 -0.077251196
000230 1c 54 3a be 94 d9 7c 3e ed 5e dd bc db c4 0c 3b
       -0.18196148 0.24692374 -0.027022803 0.002147964
000240 80 f6 45 3e 0a 2a f3 3d aa 64 a9 bc b4 62 1a bd
       0.19332314 0.11873253 -0.020677883 -0.037691787
000250 19 83 47 3d 87 0e 33 bd 9a 75 fe bd 5d 61 8d bd
       0.04870901 -0.043715026 -0.124247745 -0.06903336
000260 40 24 7c 3e fc 53 da 3d e8 a2 0f be 99 e9 88 bd
       0.24623203 0.1066055 -0.14026988 -0.0668518
000270 e3 29 6f bd 23 6e 88 3c 28 cf 98 3d 44 a2 cd bd
       -0.058389556 0.01665408 0.07461387 -0.10040715
000280 76 fd 02 be da f1 fd 3b d0 2a f7 3c d7 03 e7 bd
       -0.12792 0.007749778 0.030171782 -0.11280029
000290 8b b0 d0 3c e1 31 aa bb 10 3a 87 bd ea 55 54 bd
       0.025474807 -0.0051939343 -0.066028714 -0.051839747
0002a0 de 92 19 be fd 2f 9d bd 2b b7 c5 bc d3 b1 94 be
       -0.14997432 -0.07675169 -0.024135193 -0.2904192
0002b0 b5 93 7f 3d ca 19 b3 3d 7b fd ae 3b f6 b6 1e be
       0.062396724 0.08745153 0.005340276 -0.15499482
0002c0 7a a9 2b 3d 9e 96 70 3e 2a d6 66 bd c0 2e cb 3d
       0.041909672 0.23494956 -0.056356587 0.09921026
0002d0 0b 61 e1 bc 7b 05 ea be d6 cf 43 bd 83 4f a7 3d
       -0.027512094 -0.45707306 -0.04780563 0.081694625
0002e0 17 34 b6 3d b3 85 7b be ba d3 5a 3e fb e6 47 3e
       0.08896654 -0.24562721 0.2136983 0.19521706
0002f0 c4 84 3f 3e a4 d2 3b 3e 84 5d 9b bc 44 f4 14 bd
       0.1870299 0.18342072 -0.01896549 -0.036365762
000300 83 e9 31 be d1 b9 b4 3d 2a 0b d1 bc 9b 16 e6 3e
       -0.17374234 0.08824504 -0.025518019 0.44939122
000310 c0 3a 33 3e c2 4b b3 3a fa 66 d1 bd e1 21 db 3d
       0.1750288 0.0013679194 -0.10224719 0.10699821
000320 88 d1 85 be 26 91 13 be 64 3b 84 3c bf f9 31 3e
       -0.26136422 -0.14410838 0.0161416 0.17380427
000330 fa de e7 bd 1d ea 42 be 35 d3 b9 3d 19 1c 87 3d
       -0.11321826 -0.1903462 0.09073488 0.06597156
000340 f2 ec 4c 3c 36 86 09 be cd 4f 61 bd 15 6a 4c 3e
       0.012507664 -0.13430104 -0.055007745 0.19962342
000350 9a 5a ae bd 37 d4 a0 3d c5 69 9e 3c 1f 4e 7f be
       -0.085133746 0.07852977 0.019337544 -0.24932145
000360 9f 8f 8f 3d 89 a4 0f 3e cc fd 7e bd 95 e6 53 3e
       0.070098154 0.14027609 -0.06225376 0.20693429
000370 a8 dd a7 3c 45 83 8e bd 05 42 7a 3e 6f ed 35 3e
       0.020491436 -0.069586314 0.24439247 0.17766355
000380 08 27 9c be 11 f6 89 bb 68 74 58 3d d8 94 8a 3d
       -0.30498528 -0.0042102416 0.05284539 0.06766671
000390 96 b1 38 be b7 44 04 be c5 8f c6 bd e4 1a 68 3d
       -0.18036494 -0.12916838 -0.096953906 0.05666627
0003a0 97 f0 02 3d cf 4c f0 ba 21 2b 03 3e 5e 6d d9 bd
       0.031967726 -0.0018333438 0.12809421 -0.10616563
0003b0 35 72 8c 3e e3 c5 af 3d a3 e2 84 3d 1e 75 49 3b
       0.27430883 0.08582666 0.0648854 0.0030739973
0003c0 73 33 ba 3d 2c c3 03 3e 4a b6 a1 3d 9a 1c 64 3e
       0.090918444 0.12867421 0.07896097 0.22276536
0003d0 44 81 6a bb e3 57 ba bd d9 72 3e 3e 53 bb de bd
       -0.0035782615 -0.09098794 0.18598498 -0.10875573
0003e0 45 ff 9e bd 0e 09 b7 3d 56 96 86 bc f8 09 5c 3d
       -0.077635325 0.08937274 -0.016429108 0.053720444
0003f0 64 97 3e 3d 5e 8b 6c 3e cb 89 ea bc cb ac aa bd
       0.046531096 0.2310004 -0.028630158 -0.08333739
