graphrnn_v2/experiments/structures/k_regulars/vary_m/3_regular_vary_m_32/model_at_1700.pt (torch, 422331 bytes, 43 tensors)

adj_embedding.0.weight f4 [32, 32]
00000000: 0b37 4dbc e985 45bd 57da e6bc d874 183e
00000010: 75c1 76bd a165 27bc eef0 30ba c18b acbd
00000020: 620a ddbe 6d45 2abf 9baa d63e 9bbc 14bf
00000030: bba1 013f 2c3b 66be 4d01 27be a5dd e9bd
00000040: df06 ff3a 87d4 aebd 92d3 b4bd 7eb2 8dbc
00000050: ab32 00be 7d7e 04bd 04be 8ebd cef1 d7bd
00000060: 21a1 1b3e 0dc1 06be 4b57 5e3d 28e0 e43c
00000070: 3b5f 6fbd 415d cfbd a1c2 a73d 8c28 0b3e
00000080: a893 36bc 2f0d a23d ceb8 633c 04b3 27be
00000090: 6d96 9abd 749a b8bd 66c5 d7be 476e 773e
000000a0: da7a d6bc df20 eabe 1f2e 77bc 143d 98bd
000000b0: c1c5 623e bf4a 43be 4057 b73d 21ea de3d
000000c0: 0539 05be e9ca dabd 19d5 5b3d 4f8b fdbd
000000d0: 5e8e 2abe c8cd 94bd 040c 4abe 40e8 a0bc
000000e0: 706d 87bd 22bb d4bd 36ea aa3c 06f9 a23d
000000f0: f816 e5ba 51e1 b63d 2348 46be 18b2 0fbe
00000100: 1587 d8bd c966 93bc 24d2 16be 9529 77bb
00000110: 80d1 093d 4bcb 26be 4e42 813e e72c 2fbe
00000120: 6868 45bf 5a87 99bd 5c9b 28bf 4df7 123f
00000130: b55b 493f cfee b1be c763 34be 3508 1fbe
00000140: b7ad 03be f937 243e eced 45bd 5fd7 99bd
00000150: f0ed 903d 3139 8cbd 8072 1b3e 441c 8abd
00000160: 2e5b fdbd 48ee d73d 9fbd 323e e037 d8bd
00000170: 0df9 793d 360d fbbd 8de0 dfbc bbb4 c23d
00000180: aa8f ac3e 1108 c5bc 5342 ce3a e723 5d3e
00000190: 09b9 643e 087c 023e 1863 97be d408 16bf
000001a0: d3c9 16bf 61a0 16bf 3280 b7be bc8d eebe
000001b0: 01dc c6be 9ac7 c8bd 969e f5bc 6dc2 a1bd
000001c0: cb55 843d 4b5d c63d 9397 193e 959c d63d
000001d0: ad8f 27be 5cc6 3a3d 2fdb 07be 1b3a 0f3e
000001e0: 4a74 58bd aded c43d 6f10 9dbd dbe0 29be
000001f0: 38ab bbbd 4dbb 94bd ebb2 d7bd 8601 ddbd
00000200: 2f32 66be a9e6 4a3e 5425 293e 2d7e 573d
00000210: 803d e2bd f435 70bd 776b 0a3d 883c 75bd
00000220: cbbf c9be e3f6 adbd 8033 f4bc 839d 343e
00000230: 565a db3e a71a 903e f648 913e c31c c83d
00000240: faa4 a63e 2a79 27bc dfc6 a23d 92f4 0d3e
00000250: 9624 a53e 4cd3 7c3e bac4 963d 9d0d 823e
00000260: f898 643d dddb a23d 1b78 953d d1d2 913e
00000270: 9e1e 993e 105c 913e ab9f 853e 260f 2d3e
00000280: 5a89 db3d ad6b ad3c 2377 95bc ca2c 42bd
00000290: a876 dbbc 17ee 67bc 930c 0abe 6f52 71be
000002a0: 6bf1 793e f02d 14bf 2426 953e c681 263f
000002b0: 95cc 463e fbb7 e9be fe84 00be 6fb6 9fbd
000002c0: 59e2 583c c4da e83d 10a6 37be c5d9 03bc
000002d0: 4371 67be f517 4b3d e9ce abbc a858 a1bd
000002e0: db44 1e3b e140 edbd a4d6 5dbd 77ff 22be
000002f0: 0a63 b8bd fa46 3c3c 112d 623b 77da 2bbe
00000300: bbd6 323e 1afa 8e3e c5af 733e 62a9 f53d
00000310: 77b5 283e 49e6 2b3e a61c 843c 786e acbe
00000320: 95c5 b2bd 3b6c 63be 25f8 acbe e529 eebd
00000330: 762b 6f3c ccfd 12be 2ef3 05bd 76e8 463c
00000340: f7ef fe3d 8043 fb3d dbf7 31be 0650 893d
00000350: 861d 0fbe 6326 2a3d 1588 c2bd 54bd 69bd
00000360: cfe1 163c b1fe 9c3d 5f4f 31bd 38ec 173e
00000370: e1c3 a1bc 639c 8dbd a548 a4bd 495b 41be
00000380: 0bb2 77bd 0211 bf3a b75b 693e 57fa 9b3e
00000390: 87aa c3bd 26d9 8ebd 7c77 e63c 5e06 013e
000003a0: d3b5 ca3e e731 08bd c164 25bd f65e 8fbd
000003b0: 3ee4 523c 1b32 403e 394b 8f3e adf6 183e
000003c0: be9c 243d e470 603e 8b9f 483e 9147 9c3e
000003d0: 5bd1 94bc ae37 303e c5ee b73d 32c3 813e
000003e0: 9796 963e 4e3c 463e 5384 773d 28e7 193e
000003f0: 2efe 913e 5156 873e fe82 043e 72cd 333e
-0.01252533 -0.04822341 -0.028180284 0.14888322 -0.06024309 -0.010217101 -0.00067497685 -0.084250934
-0.43171984 -0.66512185 0.41927037 -0.5810029 0.50637406 -0.2248351 -0.1630909 -0.114192285
0.0019457004 -0.0853663 -0.08829416 -0.017297026 -0.12519328 -0.03234719 -0.06969836 -0.105441675
0.15198185 -0.1315958 0.054282468 0.027938917 -0.05844043 -0.10125209 0.081914194 0.13589686
-0.011143602 0.07912671 0.013899041 -0.16376883 -0.07548223 -0.090138346 -0.4214279 0.24163161
-0.026181627 -0.45728204 -0.01508668 -0.07433525 0.2214575 -0.19071482 0.089521885 0.108845
-0.13010032 -0.10683233 0.053670023 -0.12380087 -0.16655871 -0.07265812 -0.19731146 -0.019641995
-0.066126704 -0.10387255 0.020863634 0.07957654 -0.0017478159 0.089296944 -0.19363455 -0.14032781
-0.1057264 -0.017993348 -0.147286 -0.0037713994 0.03364706 -0.16288488 0.252459 -0.17106973
-0.77112436 -0.074965194 -0.6586206 0.574086 0.7865556 -0.3475251 -0.17616187 -0.15530474
-0.12859236 0.16036977 -0.048322603 -0.07511782 0.07076633 -0.06846846 0.15180397 -0.067436725
-0.12370907 0.105434954 0.17455147 -0.10557532 0.06102853 -0.12258379 -0.027328754 0.09507128
0.33703357 -0.024051698 0.0015736319 0.21595727 0.2233621 0.12742627 -0.2956779 -0.5860722
-0.5890171 -0.5883847 -0.35839993 -0.4659251 -0.38839725 -0.09803696 -0.029982846 -0.07898412
0.06461676 0.09685763 0.14999227 0.104790844 -0.16363402 0.045599326 -0.13267206 0.13987009
-0.052845277 0.096156456 -0.0766915 -0.16589682 -0.09163517 -0.07262287 -0.10532173 -0.10791306
-0.22480081 0.19814552 0.16518146 0.052610565 -0.110468864 -0.058645204 0.033793893 -0.05987218
-0.3940414 -0.084943555 -0.029809713 0.17638211 0.42842358 0.28145334 0.28375977 0.09771111
0.32547742 -0.010221759 0.07948088 0.13862827 0.32254475 0.24689978 0.07361741 0.2540101
0.055809945 0.07952092 0.07298299 0.28481153 0.29906172 0.2839055 0.2609838 0.1690031
0.10719557 0.021169508 -0.018245285 -0.047405995 -0.026789978 -0.014155886 -0.13481359 -0.23566602
0.244085 -0.57882595 0.2913066 0.6504177 0.1941398 -0.45648178 -0.12550732 -0.07798468
0.013237559 0.11369851 -0.17934442 -0.008047526 -0.226018 0.049583394 -0.020972686 -0.07878238
0.0024149928 -0.1158464 -0.054159775 -0.15917765 -0.09003265 0.0114915315 0.0034511725 -0.16782556
0.17464726 0.27925187 0.2379752 0.11995198 0.16475473 0.16787066 0.016126942 -0.3367803
-0.08729092 -0.22209255 -0.3378307 -0.116290845 0.014597764 -0.14354628 -0.032702617 0.012140384
0.124481134 0.12268734 -0.17379706 0.067047164 -0.13976106 0.041540515 -0.09498612 -0.057065323
0.00920911 0.07665766 -0.043288585 0.14836204 -0.019746723 -0.06914594 -0.08021668 -0.18882479
-0.06047253 0.0014577212 0.22788893 0.30464432 -0.0955401 -0.069750115 0.028133146 0.12600085
0.39591846 -0.033250716 -0.04037929 -0.07000534 0.0128718 0.18769114 0.27987078 0.1493785
0.040188543 0.21918064 0.19592111 0.3052335 -0.018166235 0.1720874 0.089810885 0.25344235
0.29411766 0.19358942 0.06042893 0.15029585 0.28514236 0.26433042 0.12940595 0.1755884

adj_embedding.0.bias f4 [32]
00000000: c791 9e3b 6072 973d ac5f 6abd 4806 7a3c
00000010: 8323 b3bd a031 1a3d b384 54be f26b c03d
00000020: c920 d83d 5085 bcbc 94ce 84bd c582 ef3d
00000030: d43f 943d 1728 04be 77cc 203d 904a c2bd
00000040: 5286 ce3c 4089 d7bd dfe3 ea3d b003 05be
00000050: 08a2 25be f0d0 6e3d a59e 40be f03e e7bd
00000060: e0b8 08be 5d13 283d b5d3 5ebe 26cc 6dbe
00000070: d26c 8ebd f65b 1abc b671 b6bc 8938 46bb
0.0048391554 0.07394862 -0.057220146 0.015260287 -0.08747008 0.037644982 -0.20753746 0.09395589
0.10553128 -0.023012787 -0.06484714 0.11694864 0.07238737 -0.12905918 0.039257493 -0.09486878
0.025210533 -0.10524225 0.11469244 -0.12989688 -0.16175091 0.058304727 -0.18810518 -0.11291301
-0.13351774 0.04103409 -0.21760447 -0.23222408 -0.069543496 -0.009421339 -0.022271018 -0.00302461

graph_rnn.weight_ih_l0 f4 [192, 32]
00000000: bb53 223e 8429 4b3e 1a44 2d3f ba09 8f3e
00000010: 5d80 c43e 64f4 a53e 25ad 13be 26ec 803e
00000020: 7f36 bc3e 07cf cd3d 787b 813c a913 06be
00000030: 3a41 973e 7c2b bb3e c798 743e 6f8f 173e
00000040: 5702 0a3e f8f9 713e e91c 75bd 6152 96bd
00000050: cccc d8bd bb8f 1c3e 7500 3b3f 4f04 eebe
00000060: fc75 0a3f 7b2d 013f 982e a83d 67ec a8be
00000070: 5d67 01be 3355 613e e6c3 003e 77f1 093d
00000080: 24e0 9abb 3971 f6bd 5ac3 8c3d 91ce ac3d
00000090: 0ea8 e4bd 5e3a 2b3e e2e9 a0be f9c4 5bbe
000000a0: 2338 11be 8b8e 533e ced4 09be 3025 f8bd
000000b0: bc4d 253e b7ee 2bbe 3607 f23d ad29 6ebd
000000c0: 2a50 75be 4ccf 36be 33a7 07be 730b 6cbe
000000d0: 36ea 00bd 56b5 69bd 4359 b0be ebde 653e
000000e0: 399d a3bd 2c7a 093e 2ce8 53be 161b 8bbe
000000f0: 57b7 54bd a81f 6cbe 3658 c93d 72fb 01bd
00000100: a9e4 123f fe86 c7bd 2f79 9ebd 3818 bf3d
00000110: 3ce1 91bd 23ed 903e b94d d0bd 1406 e1bd
00000120: 5445 1a3e beaa a43e 1043 293e f6a4 bf3d
00000130: f225 7e3d 9245 343e b716 ee3c 1294 3ebe
00000140: 0978 1ebe 3ff1 85bd 09f5 293e f745 b63c
00000150: 195d 8b3e 2fad b1bc 1304 efbd 7d16 c53c
00000160: 9780 9bbb dba7 893e 35a1 543d 3886 203e
00000170: 6d98 c53c c3d6 90bd 66fa b93e ae4c 843e
00000180: e9d4 70bd 7278 abbd 72fc 99be c613 0cbd
00000190: 8443 24be a6f1 39be 6c7f c2be c19d debc
000001a0: 1e70 febc dff6 113c 8870 2cbe 2bb3 ebbc
000001b0: 15af e6bc f4a0 49be cf88 cebc 4586 31be
000001c0: 9e39 b3bd 397a aabe 193a 5d3d 6a19 33be
000001d0: 5cb9 56be 427b 8a3d 2f6c a3be a7bf 05be
000001e0: 8be8 02bf cd30 683d d470 18bf 39f5 74be
000001f0: b143 a33d b252 91bd bb91 13bd d827 0dbd
00000200: f69d 09be 5139 133e 5ba2 77bd 290e 593d
00000210: 2342 03bd a803 1e3e f4cb c3be c16b 10be
00000220: 7edb ff3d b214 9abd 96f1 9e3c 03ab 2e3e
00000230: 9664 2e3c 5dd3 69be a64e d3bd f619 733d
00000240: d2b6 693d a70a 03be fc2b 4bbd a5d1 63be
00000250: 7cc7 3d3d 1c0f 0fbe d33d 2bbe 7f2b e1be
00000260: a301 5cbd a440 da3c 9ff9 a7be c769 433d
00000270: cd93 753e a9ac fdbd 273f be3d 84ac be3e
00000280: 913d 4f3c 25d1 4f3d aa47 56bb 7881 51be
00000290: 4c0a 8fbd 80d6 6cbe fe1c 7dbe 7832 243e
000002a0: 3aa3 b8bd c595 10be 9e99 0e3e edb6 b4bd
000002b0: cc8a 2d3e 1a19 4ebd d8cb 013e 9407 0dbf
000002c0: 28c8 5a3d b3f1 5c3d 1303 9e3d 2d80 3e3d
000002d0: 5ec7 85be 1656 9dbc 1d17 ccbe 33c3 7d3e
000002e0: 4b11 47bf 18c1 bc3e e882 15bf b80d 8abc
000002f0: 524e 90be e137 14b9 a02c 80bd 8225 403d
00000300: d44f d93d cb76 b2be 3050 453e f3c5 5cbe
00000310: ff7a 9a3e 14e9 753e a791 c43e 50fe 443d
00000320: 9354 bf3d 8b26 a4be 8576 043f 1e01 63bd
00000330: 56a7 9cbe c266 8e3e 236b 813e 1d08 813e
00000340: 0bb3 623e f88d 973e f9dd 78be 791a 373e
00000350: 627f ea3d 1021 103e 8aaf 793e 095f 7cbe
00000360: 5b77 06be 292a 1bbe 0939 473d 7b0f e33e
00000370: 9764 943e aa30 483e b958 71bb 4023 72bd
00000380: 41b9 94bd 16b7 8a3e 815e 1fbe 6bd8 e33d
00000390: fc00 dabb d684 b73e bda1 f2bd 8014 f0bd
000003a0: 08c6 d03d 8ae8 723d 7e57 0dbe bf28 27bd
000003b0: f264 673b a683 ffbc 5041 89bd c531 2c3c
000003c0: 2bc3 0dbd 1863 bd3c db1e b1bd 4365 35be
000003d0: dfb6 573d 6de8 5ebd 4154 95bd 7fdb 00be
000003e0: f4b3 0c3d b04d 21be 06c5 81bc 66ca 60bd
000003f0: 7cf4 0ebd 3f5e dabd 04d9 203d 15ec ba3e
0.15852253 0.19840056 0.6768204 0.27937108 0.38379183 0.32413018 -0.14421518 0.25180167
0.36760327 0.10049253 0.015805945 -0.13093437 0.2954195 0.36556613 0.23886405 0.1480081
0.13477455 0.23630512 -0.059842024 -0.07339931 -0.10585937 0.15289204 0.7304757 -0.46487662
0.5408628 0.5046002 0.08212012 -0.3299286 -0.12637086 0.22005157 0.1257473 0.033677544
-0.0047264267 -0.12033314 0.06873198 0.08437837 -0.111648664 0.16721484 -0.31428438 -0.21461858
-0.1418157 0.20659845 -0.13460085 -0.12116468 0.16142935 -0.16790281 0.118177816 -0.058145214
-0.23956361 -0.17852515 -0.13247375 -0.23051243 -0.03147336 -0.0570577 -0.344431 0.22448318
-0.07988972 0.13425511 -0.20694035 -0.27169102 -0.05193266 -0.23058951 0.09831278 -0.031733938
0.5738016 -0.097425446 -0.07737958 0.09330791 -0.07123038 0.2830592 -0.101710744 -0.109874874
0.15065509 0.32161516 0.16529489 0.09357636 0.062047906 0.17604664 0.029063566 -0.18611172
-0.15475477 -0.06540155 0.1659738 0.022250159 0.27219465 -0.021689026 -0.11670699 0.024058575
-0.0047455537 0.26885876 0.05191155 0.156762 0.024120534 -0.070722125 0.3632385 0.25839752
-0.058796797 -0.083725825 -0.30075413 -0.034198545 -0.1604138 -0.18158588 -0.3798784 -0.027174832
-0.031059321 0.008908956 -0.16839802 -0.028771957 -0.028159657 -0.19690305 -0.02521172 -0.17336376
-0.08751224 -0.33296373 0.054010484 -0.17490163 -0.20969146 0.06761791 -0.31918475 -0.13061391
-0.5113608 0.056687165 -0.5954716 -0.2392167 0.079718955 -0.07095851 -0.03602765 -0.034461826
-0.13439164 0.14377333 -0.06045757 0.05299202 -0.032045495 0.15431082 -0.3824154 -0.14103605
0.12493037 -0.075234786 0.019402307 0.17057423 0.010644099 -0.22834535 -0.103177354 0.05935093
0.057059117 -0.12797032 -0.049602494 -0.22247942 0.04633282 -0.13970608 -0.16722803 -0.43978497
-0.0537125 0.026642151 -0.32807633 0.0477083 0.23982163 -0.12386448 0.09289389 0.37240994
0.012648956 0.050736565 -0.0032696524 -0.20459545 -0.06984386 -0.231287 -0.24718091 0.16034877
-0.09015508 -0.14119633 0.13925788 -0.08823953 0.16947478 -0.050316907 0.12675416 -0.5508969
0.05341354 0.05394144 0.0771543 0.046508957 -0.26128668 -0.019206088 -0.39861384 0.24781494
-0.7776076 0.3686607 -0.5840287 -0.016852245 -0.28184754 -0.00014135196 -0.062585115 0.04691077
0.10610929 -0.34856257 0.1926887 -0.21559887 0.30171964 0.24014693 0.38392374 0.048094094
0.09342303 -0.32060656 0.51743346 -0.055420987 -0.30596417 0.27812773 0.2527705 0.25201502
0.22138612 0.296005 -0.24303426 0.17881192 0.114500776 0.14075112 0.24383369 -0.24645628
-0.13131468 -0.15152802 0.048638377 0.44347748 0.28982994 0.19549814 -0.0036826564 -0.05911565
-0.07261897 0.27092808 -0.15563394 0.11125263 -0.0066529494 0.35843533 -0.118472554 -0.1172266
0.101940215 0.059303798 -0.13802907 -0.040810343 0.003530797 -0.031190705 -0.067019105 0.010509913
-0.034609955 0.02311854 -0.08648463 -0.1771441 0.052664634 -0.054420877 -0.07291461 -0.12583731
0.034351304 -0.15752292 -0.015841018 -0.054880522 -0.034901127 -0.10662507 0.039269462 0.3650824

graph_rnn.weight_hh_l0 f4 [192, 64]
00000000: 9ef9 a5be 7261 26bd 6b60 933d ac63 943d
00000010: cde2 813c 527e 2cbe b58d 75be a153 023e
00000020: 7ad2 bfbd a9c7 7b3e 0cd1 4fbd 5c00 103d
00000030: 28a0 243e 869d bb3e 1729 3ebe d239 d1bd
00000040: 7b7e 9fbd 697d 64bd 7bbb 723c 1a93 7cbe
00000050: b173 163e 66a9 ca3c a760 14be e226 01be
00000060: 951c 90bd c638 1d3d 2124 dfbd 0eab e43d
00000070: 7d7d 923c 154b 69bc 972f 01bd 34cf b53d
00000080: c687 3bbc c15a 0c3e 408c dbbb 7441 12be
00000090: c28c 11bc 73ff 9f3d 76e0 1f3d 3c56 133f
000000a0: 7bc1 f33d c5d0 913c e966 673c 718d 85bd
000000b0: 0673 a93d e6e8 9e3d ac19 fabb 86c1 c2bd
000000c0: f170 5f3d a638 5abd 1edd df3c e39d 7a3c
000000d0: 9720 a13d bdc9 103e e68d 0bbe 5652 913d
000000e0: 29d7 bc3d 89c7 63bd 5ad3 9e3d 423c e4bd
000000f0: 79eb 03be c8f1 9ebd 105c 8dbc 3dbd f9bd
00000100: 4e39 713d 9e20 e33c b207 a1bc 2a9f 98bd
00000110: 24e1 22bd 6b17 1abb 3698 853d 5f27 0bbd
00000120: 9219 923b e032 ecbd 35b1 843d 9dde b7bd
00000130: 1991 81bd af30 ee3c 2545 bebd 5f6e 20be
00000140: 65f7 e9bd 9811 1abe 6e88 743d ef68 d13c
00000150: df7d 0fbe 4386 1a3d a190 aa3c 9ac9 45be
00000160: c81b 16bd e1cd dcbd 7fcd 8d3d 0de5 9f3d
00000170: 8b48 59bd 542e 31be ab8d b13c 01df 89be
00000180: 4cba b5bc 6aac 1abc 162c 433e 8f48 9e3d
00000190: d568 363e cf37 3ebd 9d6b 213d 8815 7f3e
000001a0: 614f df3d 69c1 a03c df7c 463d 85e6 1a3e
000001b0: 963c 983d 477e 953c 0e70 90bc 1b29 7b3d
000001c0: 28d1 ccbb 80df 99bc f769 89bd 5da7 993d
000001d0: 52b4 9ebb 2450 86bd 573e 12be 6b39 b13d
000001e0: 577b 993c d898 893d 432a 55be 5d26 58bc
000001f0: 7bbf 01be f022 c3bc d9d9 15be 40a3 b03c
00000200: 1eaa 223e 13e4 e1bc 1c69 d23d f3ad 87bd
00000210: 6491 44bd 28c1 f7bd bf47 ddba 067d 3a3d
00000220: e2f4 bf3d 89df fdba ab52 3d3e 2fe6 e33d
00000230: 58e6 213e 6d63 0f3d 9c07 00be df7b 53be
00000240: 79e7 833d a8a2 063e 5e60 07be 6be4 90bd
00000250: 1b4c ac3d badf 723d dbf4 9ebe 1c93 80bd
00000260: 5eaf c13d 3253 043d acc6 3c3e 67d5 9bbe
00000270: e757 efbd 68a2 113d 227e 56bd 03b2 afbc
00000280: 1f17 7cbc a0d6 7f3d 9503 993d 4f2c 16be
00000290: 34f2 593c b07c 053d abe2 b93d f53b 29bd
000002a0: 6694 22be a7b0 bcbd a7cb 67bd d9b9 05bd
000002b0: 2227 cebc 5eb9 5dbe 7945 973d 4991 0f3d
000002c0: 11b4 d8bd bcf8 39be 1168 453d 093e 55be
000002d0: 0752 4abe 95d8 a2bd 51d9 86bd 85ec 6e3e
000002e0: 8711 45bd 669b 47be 5d54 0ebe ad40 1c3d
000002f0: a57f f03b 3bd1 b73c aaa3 b1bb 2897 833d
00000300: 1d17 cfbd f0ad 03be 8eef d1bd bdcc 29be
00000310: c100 b4bd 70c7 95bd c9e9 febd d799 a63b
00000320: c64d 093e 91c9 93bd 4159 97bd 3e7f 05be
00000330: 01f5 08be 1d2f 8dbc 761c 603d 83ef 29bd
00000340: 3d62 04bc 1b02 ea3c 8ae6 f23c b34e 033e
00000350: 3516 0abe ba6c 943d b2f8 893c b80b 2fbc
00000360: e75e f43d cf26 2abe 6f1c df3c 6eb3 0c3e
00000370: 7cd6 babd 63aa ee3b 4507 ce3d acef 11be
00000380: 89bd af3d 9b85 9bbd b66f cb3d c206 393e
00000390: de2c cdbc 2016 833d 15a8 9a3d 168d 93bd
000003a0: 8b4c 26bd afa2 ae3d b390 173d 19d4 4dbd
000003b0: 5eda 393e eb73 7dbd bebd 3fbd 21d4 113d
000003c0: 63c8 8c3d d044 c83c 4fa5 84bd 02ac 0ebe
000003d0: 7968 d23b e5f6 1ebe 18fc 81bb a19e c0bd
000003e0: 4da1 d63d 637c f1bd 0ab3 89bd cf63 593e
000003f0: 9a81 283e 54e9 a0bd 8168 78bd 822a b2bc
-0.32417005 -0.040620275 0.07196125 0.072455734 0.015855217 -0.16845062 -0.23979838 0.12727214
-0.09366317 0.24587883 -0.050736472 0.035156593 0.1607672 0.36643618 -0.18570362 -0.102161065
-0.07787796 -0.055783663 0.014815207 -0.2466549 0.1469257 0.024738979 -0.14489995 -0.12612489
-0.070367016 0.03838422 -0.10895563 0.111654386 0.017882103 -0.014239092 -0.031539526 0.088774115
-0.011445945 0.13706495 -0.0067000687 -0.14282781 -0.008883657 0.07812395 0.039032422 0.5755346
0.11902138 0.017799744 0.014123657 -0.065211184 0.08273892 0.077592656 -0.007632455 -0.09509568
0.05455107 -0.05327668 0.027327117 0.015296432 0.07867544 0.14139457 -0.13628349 0.070957825
0.09220726 -0.055610213 0.07755156 -0.11144306 -0.12882794 -0.0776096 -0.017255813 -0.121942975
0.05889254 0.027725514 -0.01965699 -0.07452233 -0.039765492 -0.0023512493 0.065231726 -0.033973094
0.0044586146 -0.11533141 0.06479112 -0.08978007 -0.06326503 0.029075949 -0.09290532 -0.15667103
-0.1142414 -0.15045774 0.059700422 0.025562732 -0.1401286 0.0377257 0.020820918 -0.19315186
-0.036647588 -0.10781456 0.06923961 0.0780736 -0.053047698 -0.17302829 0.021673998 -0.2692795
-0.02218356 -0.009440521 0.19059786 0.07728683 0.17813428 -0.046439942 0.03940927 0.24910557
0.10903812 0.019623475 0.04845893 0.15126999 0.07433431 0.01824869 -0.017631557 0.061318498
-0.0062505193 -0.01878333 -0.06709664 0.07502625 -0.004843273 -0.06558254 -0.14281593 0.0865353
0.01873557 0.06718606 -0.20816903 -0.01319274 -0.126707 -0.02382037 -0.14633884 0.021562219
0.15885207 -0.027574575 0.10273954 -0.06624975 -0.047990218 -0.120973885 -0.0016882344 0.045529388
0.093728796 -0.0019368987 0.18488567 0.111278884 0.15810525 0.03500693 -0.12502903 -0.20652722
0.06440634 0.13147986 -0.13220355 -0.07074817 0.084129535 0.059295394 -0.31046185 -0.06278059
0.09457277 0.032305904 0.18435162 -0.3043625 -0.11686688 0.035555273 -0.052366383 -0.021447187
-0.015386372 0.06246054 0.07471386 -0.1466534 0.013302375 0.032589614 0.090764366 -0.041316945
-0.15876922 -0.09213381 -0.056590702 -0.03264794 -0.025165144 -0.21652743 0.07386298 0.035050664
-0.1058122 -0.18161291 0.04819495 -0.20824446 -0.19757853 -0.07951466 -0.065844186 0.23332413
-0.04811242 -0.19492874 -0.1389937 0.038147617 0.007339435 0.022438636 -0.0054211216 0.06425315
-0.101118304 -0.1285932 -0.102507696 -0.16582008 -0.08789206 -0.0731343 -0.12446935 0.005084257
0.13408574 -0.0721618 -0.07390071 -0.1303682 -0.13374712 -0.01723438 0.054714642 -0.04148818
-0.008080062 0.028565457 0.029650945 0.1282299 -0.13485034 0.072473004 0.01684222 -0.010683946
0.11932164 -0.16616367 0.027235238 0.13740322 -0.09122941 0.0072834953 0.1005998 -0.14251584
0.08581073 -0.075938426 0.099334165 0.18068984 -0.025045808 0.064007044 0.0755159 -0.072046444
-0.04060034 0.08527123 0.03700323 -0.0502511 0.18149707 -0.061878126 -0.04681181 0.035602693
0.06874158 0.024446875 -0.064768426 -0.13932803 0.0064211455 -0.1552387 -0.0039668195 -0.09405256
0.104799844 -0.11791303 -0.06723602 0.2122948 0.16455689 -0.07857004 -0.060646538 -0.021748785

graph_rnn.bias_ih_l0 f4 [192]
00000000: d08d 8f3d f306 29be 216a 033d db84 fbbc
00000010: 0c99 243e aef3 02be 302a e23d e0e5 6c3d
00000020: b532 06be d5a3 4fbd ba12 5ebc b52b 19be
00000030: 66d3 d8bd dda7 44bc 23f7 e23d 58bb 14be
00000040: 28a4 0bbe 8209 e3bc 4338 a6bd d377 523e
00000050: 0dc0 77bc 04ff ba3d a010 833d e6b8 0fbb
00000060: 32b9 023e 60e1 aabe dd9d 913d e2c2 9bbb
00000070: 5387 07be 613c 95bd d21d e93d 989a f03d
00000080: 2afa b5bd be5c d1bd 7c6f d0bd e490 bebd
00000090: 35ba 3e3d 4c9f 44bd a652 03be 3185 a63c
000000a0: 4462 f3bd fcca 21be 29b3 98bd ffa5 813d
000000b0: ad39 f3bd 8639 f1bd fe0c 23be d735 4dbd
000000c0: 0466 d0bd 5b23 973c 342b 0cbd a6d8 7a3d
000000d0: c2c0 21be 0c01 dfbb fe02 bfbd 1b7b 1e3d
000000e0: c821 f9bc 02e4 db3c 2e6c d43b 604a cbbd
000000f0: bc2b b6bb 17a6 a2bc d1c6 99bd afb7 57bc
00000100: 1409 61be 22d2 e1bc f3e2 113d 11bd fbbc
00000110: c55d 693d f1b1 e73c aa5b 9cbe 6baf 1f3d
00000120: 5812 673e 8b18 973d 5471 433e ab0b 0e3e
00000130: 3f39 40be c040 79be 717b 453b ea04 8abd
00000140: 6282 b63d 0d24 43bf d02e 143e 7b6c aebe
00000150: 6cc6 8dbd 4c41 fabc 10b3 70bd 66b3 a13c
00000160: 9425 453d d31f 0d3e 7b78 66be d6e3 9bbd
00000170: b1e1 95bd 1ead 5a3e d102 4239 ea87 30be
00000180: 877d f53d 1147 173e ba72 9abc 429c 3b3d
00000190: d7cb 2b3e bf4f 0abd ffdd 00be a3e2 51bf
000001a0: 9c35 46bd 02f5 12be 18f7 2e3e ca36 3cbf
000001b0: 1c44 a33d 8bf5 1b3d d7c1 6f3d 41f4 013d
000001c0: 2b7d 84be 9d3e adbc 1c73 16be bd65 503d
000001d0: 473a 1ebe 8e8e 333e e0f5 613e 9c03 a43d
000001e0: bf23 623c 008f 0dbe 6763 763e 286c abbe
000001f0: 7775 5b3e ab42 363e 8a05 d33c 0050 253c
00000200: 9c6f 99bc bc35 2c3c 2b7d 473c 810d 0c3d
00000210: e5b1 8d3d 2966 9fbd 21f3 28be 6fa4 5f3d
00000220: 5493 92bd 830a 5b3e 37b9 eebd 3645 e9bd
00000230: a0ef 02bd cb25 4d3e 7466 19be 7d5d 633d
00000240: ea12 71bc 230c 01bd e2d2 613d 086a 34be
00000250: c9ea e73d 5411 89bc 9156 81bd 43da e23d
00000260: 9371 de3d cc5e eabd 2229 30be 9e47 053e
00000270: 82da b4bc a986 3c3d 11d5 a8bd 614f 233e
00000280: 6b36 f9bb 044d 2c3d 2598 20be d7a0 3f3e
00000290: ba2e b8bd f064 47be 9c3e dbbd 8bac 4f3c
000002a0: 3df7 573e 5461 2e3d d5c7 443b 8993 a6bd
000002b0: aab2 e5bc 9250 683e 2065 ed3d 66a1 cd3c
000002c0: eb14 ed3b 8dae 42bd 9bd7 ffbc 322d 33bd
000002d0: c0c4 5a3e 8cf4 3ebd c7e9 06bd ab5b 39bd
000002e0: cb38 b1bd be31 473e 05fe c63c c1a1 4e3c
000002f0: 3ac1 93bc f267 8bbd 1e61 19bc 813d 83bd
0.070094705 -0.16506557 0.032083634 -0.030702999 0.16074008 -0.12788269 0.11043203 0.057836413
-0.1310528 -0.05069335 -0.013554269 -0.14958079 -0.10587196 -0.012002912 0.11082294 -0.14524591
-0.1363684 -0.027714495 -0.081162 0.20553522 -0.015121472 0.091306716 0.06399655 -0.0021930276
0.12765959 -0.33375072 0.07110188 -0.0047534565 -0.13235216 -0.07286907 0.11382641 0.117482364
-0.08885606 -0.10222767 -0.10177514 -0.093049794 0.0465643 -0.04800348 -0.12824497 0.020327182
-0.11883977 -0.15800089 -0.07456047 0.06330489 -0.11876235 -0.1177855 -0.15922925 -0.050100174
-0.10175708 0.018449476 -0.03422089 0.06124177 -0.15796188 -0.0068055447 -0.093267426 0.03869162
-0.030411616 0.026842121 0.0064826226 -0.09926295 -0.0055594128 -0.019854588 -0.07508624 -0.013166352
-0.2197612 -0.02756602 0.035616826 -0.030729802 0.05697419 0.028283091 -0.30538684 0.03898565
0.22565591 0.07377728 0.190862 0.13871638 -0.18771838 -0.24341106 0.0030133391 -0.067392185
0.08911587 -0.76226884 0.14470983 -0.3406714 -0.069226116 -0.030548714 -0.058764517 0.019738864
0.04813154 0.13781671 -0.22506897 -0.07611816 -0.07318438 0.21355101 0.00018502331 -0.17239347
0.11986833 0.14773203 -0.018853534 0.045803316 0.16776977 -0.033767458 -0.12584685 -0.81986445
-0.04839097 -0.14351276 0.17086446 -0.735211 0.07971975 0.038075965 0.05853447 0.03172708
-0.25876746 -0.02114802 -0.14692348 0.050878275 -0.15451919 0.17534849 0.2206645 0.08008501
0.013802468 -0.13824081 0.24061356 -0.33480954 0.21431528 0.1779887 0.025759477 0.010089874
-0.018729977 0.010510858 0.012175838 0.034192566 0.06918696 -0.077831574 -0.16498996 0.054600175
-0.07157007 0.21390729 -0.11656421 -0.11390154 -0.031966805 0.20033948 -0.14980489 0.05550908
-0.014713982 -0.031505715 0.055132754 -0.17618573 0.113240786 -0.016731896 -0.06315339 0.11076786
0.10861506 -0.11443862 -0.17203191 0.13015601 -0.022076849 0.04602686 -0.08243764 0.1594825
-0.007605364 0.042065635 -0.15683039 0.187137 -0.089932874 -0.19472098 -0.10705301 0.012675415
0.21090408 0.042573288 0.0030026336 -0.08133609 -0.028039295 0.22686985 0.11591554 0.025101375
0.0072351596 -0.047529746 -0.031230738 -0.043744273 0.21364117 -0.046619937 -0.03293779 -0.045253437
-0.086534105 0.19452569 0.024291048 0.012611807 -0.018036474 -0.06806935 -0.009361533 -0.06408215

graph_rnn.bias_hh_l0 f4 [192]
00000000: 6612 b93d 12b7 efbd beb9 23be 6b40 f83d
00000010: 1874 4f3e 025a 40be 8989 78bd c997 aabb
00000020: 8ffe 803c 729d 09be dcac 583d 097d 32be
00000030: 5816 023d 2400 563c 4576 85bc 69f0 4abc
00000040: f1ec 043d a15a 613c 8322 03bc a4f2 023d
00000050: a322 33be 18ef cb3d 6ab3 383d bee0 31bd
00000060: 4a83 e03d 9025 25be c88a a9bd 9a7c 473b
00000070: f1e5 1bbe c43d a8bd da6e 7ebd 626d 2fbc
00000080: f9cb 26bd 422e b5bc 5bdc e5bd f16c 2bbd
00000090: f48d bdbd cccc dbbd edc5 84be be14 d33d
000000a0: e20e 1bbd abc0 733b 7bed d8bd c7f2 47bd
000000b0: dab8 5abc 9369 0f3c 3f86 18be 2896 9ebd
000000c0: 810b d8bc 022e f0bd 65da a2bd a829 9a3d
000000d0: f509 68be 9281 9ebc ed55 893d 6a32 773d
000000e0: 10bc b73c c4b5 42bd 5c5f c3bd 6a5c 60bd
000000f0: d541 813d 8836 d5bd d1e6 c13d 4011 e8bd
00000100: 6b8c 77bd 73ff 70bd 7707 aebd 1789 5b3b
00000110: 6998 393d 1fd8 b5bc 67d1 6cbe c5ab ac3d
00000120: 86e4 8a3d cd00 093d 3133 57bc 0582 87bc
00000130: 6aeb 9cbe d673 85be 6a2b dcbd 27b0 9dbd
00000140: b718 323e 3a29 1fbf 8273 823e 6679 83be
00000150: ba8d d9bd 6b5c 533d 9703 83be f61f cfbd
00000160: 2a06 7f3e 81d6 33bc 32c6 4ebe 1a58 29bc
00000170: 1e21 efbd 8db0 863d 1a43 8b3d d5af b7bd
00000180: 5df5 b63d c480 033e c31a c6bd f41a dcbd
00000190: fbcb 103d cedf 233c a426 6dbe 2a4d 3ebf
000001a0: 1849 0cbe 344d 8abb fd32 2d3e 298f 3dbf
000001b0: 2755 233c c22f 3a3d 86af a83d 12e3 903d
000001c0: f418 5cbe c477 df3d ee6d 15bc b88f 923d
000001d0: 6dc1 f3bd fe01 1f3e 7d08 3c3e 173e 203b
000001e0: 0c90 f23d fec0 9cbc aba8 093e fced c6be
000001f0: 1b68 113e 8301 343d 7f24 473e ceeb 773d
00000200: e848 dd3a 5589 06be 1f23 993c 8180 963d
00000210: 36e8 263d c781 32be 2fbb 0ebd 9a10 323e
00000220: adf2 c4bd 6a90 2e3d f0dc 68bb 099f 35bd
00000230: 5046 03bd 9658 803e cad4 9abc ceca 493c
00000240: ab0f 303e c6e0 3e3e e657 3d3d 9790 b93d
00000250: 96f0 c63d 90d3 853d 3a99 b5bd 1c60 06bd
00000260: 6486 6a3d a26d 543b 4715 32be 8755 adbd
00000270: bd3d 54be 8b7a 8f3d b1a6 14bc 5994 2f3e
00000280: 6e41 33be f7b7 7e3d 1a50 e73c 199d c53c
00000290: 091e 073d d8a7 aebd 20fb a0bd f9cc 743d
000002a0: a3af 243d 4569 19be 4035 05be 58aa d63d
000002b0: 3850 25be 3c03 173d 92b9 84bc 57c7 a7bd
000002c0: 5e5a 3a3d 7f9d da3d 1707 9d3b 504a 00be
000002d0: a10a 21bb 580a 5a3d 37c2 c6bd becd 3cbe
000002e0: e09b 17be d7c2 df3d 2d41 313e 3155 883e
000002f0: 5bb4 15bc 9634 273d cfe2 193e 98af 0bbe
0.09036712 -0.1170484 -0.15988824 0.12121662 0.2025913 -0.18784335 -0.06067804 -0.0052060825
0.015746383 -0.13438967 0.052899227 -0.1743051 0.03175959 0.013061557 -0.016291747 -0.01238642
0.032452527 0.013754518 -0.008003834 0.03196968 -0.17493682 0.09957713 0.045092978 -0.04342722
0.109625414 -0.1612761 -0.082784235 0.0030439259 -0.15224434 -0.08214906 -0.062117435 -0.010707231
-0.040721867 -0.022116784 -0.1122367 -0.04185194 -0.09255591 -0.10732421 -0.25932255 0.10306691
-0.03785599 0.0037193696 -0.10592171 -0.048815515 -0.013349736 0.008753198 -0.14894961 -0.07743484
-0.026372673 -0.11727525 -0.07951812 0.075274765 -0.22660048 -0.019348893 0.06705842 0.060350813
0.022428542 -0.047536626 -0.09539673 -0.054775633 0.063113846 -0.10410792 0.09467853 -0.11331415
-0.060436647 -0.058837365 -0.084975176 0.003349846 0.045311365 -0.022197781 -0.23126756 0.084312
0.06781869 0.03344803 -0.013134764 -0.01654149 -0.30648357 -0.26064938 -0.10750468 -0.07699614
0.1739224 -0.6217228 0.2547875 -0.25678557 -0.10622735 0.05160181 -0.25588676 -0.10113518
0.24904695 -0.010976435 -0.20192793 -0.010335946 -0.116762385 0.06576643 0.06799908 -0.08969084
0.08933518 0.12842089 -0.09673073 -0.107473284 0.03535078 0.01000209 -0.23159271 -0.74336493
-0.13699758 -0.004220629 0.16913982 -0.7404657 0.009969032 0.0454557 0.082366034 0.0707456
-0.21493894 0.10911515 -0.009120448 0.071563184 -0.119021274 0.15528104 0.18362613 0.002445107
0.11843881 -0.019134995 0.13443248 -0.38853443 0.1419987 0.043946754 0.19447516 0.060527615
0.001688269 -0.13138326 0.018693505 0.07348729 0.040748797 -0.17432319 -0.03484648 0.17389145
-0.09616599 0.042618193 -0.003553208 -0.04434112 -0.032049477 0.25067586 -0.018900294 0.012316419
0.17193477 0.18640432 0.046226405 0.090607814 0.09713857 0.06534493 -0.08867116 -0.0328065
0.05725707 0.003241398 -0.17390929 -0.08463579 -0.20726676 0.07005795 -0.009072945 0.17146434
-0.17505428 0.06218716 0.028236438 0.024122762 0.032987628 -0.085281074 -0.07860398 0.05976579
0.040206563 -0.14981563 -0.13008595 0.10481709 -0.16143882 0.03686832 -0.016201768 -0.08192318
0.045496337 0.10674571 0.004792105 -0.12528348 -0.0024572986 0.05323252 -0.09705012 -0.1843786
-0.14805555 0.109258346 0.17310019 0.26627496 -0.009137238 0.040821634 0.15027927 -0.13641202

graph_rnn.weight_ih_l1 f4 [192, 64]
00000000: 26e9 e3bd bb6d c13d 11ff 8f3b 0f06 7d3e
00000010: 5921 703d f59c dd3e e630 a3be 3463 c73e
00000020: 12e8 a13d 03cc 9d3e 316b 09be 855e a93d
00000030: b97b d6be c95a 8f3e df77 9abe 9bf3 9abe
00000040: 13a2 c73d 13ee e2bd 460c 54bc 66b8 223f
00000050: 5fec 0abf 3fef dfbd 95a5 caba 9e3a 82bd
00000060: eee5 b1be 994d 903c 0f0c f1bd 1d81 363d
00000070: f89c a03e a9a4 fb3d 328c f93b 7f9b fd3d
00000080: cef8 63be 56f2 4abd 0ae2 3bbe 6de3 443e
00000090: 3475 38be bc89 45be 7e2e 63bf 9396 a23e
000000a0: e2ad 783e 466b e2bd 5b82 94be e6c9 c93d
000000b0: 8796 c0be 3152 a53d 4d03 143e b5cb 0d3e
000000c0: 5cba 4f3f 164b 3f3d 8c93 c6bd 5541 c63d
000000d0: c142 e23e 7714 1fbe 8992 f0bd 4128 03bf
000000e0: e10b e8be 9553 5a3e a3db b43e 1aa0 6f3e
000000f0: 1820 a43e 5049 15bf 1a06 113e bd58 043e
00000100: bed2 b3be d724 1cbe 95ef d73b 72db 133e
00000110: a788 1bbb c0fe 7bbd ae29 b6bd 868e 5fbe
00000120: 65dc af3d b966 5abe ba41 a53c 5800 bcbd
00000130: b753 bb3c 62d1 b13d 8f2a 423c bd96 e43e
00000140: 8673 c6bd 2374 063f a6ed 40be 6a9f 01be
00000150: dd05 523e 5839 6fbd 355f 0fbe 3c4f 033e
00000160: 6385 12be 1e1c 99be c69e 8a3d c9c5 6c3d
00000170: f848 74bd 85a4 93bd d932 2c3e 284d f73d
00000180: 4b28 013c 01e8 bebc 720a 063e f34b c63d
00000190: 22d9 853c 8748 5f3d d938 0a3e 9e28 8cbe
000001a0: ce57 113e 8513 2a3e 3ea1 183e 41ff 3dbf
000001b0: a104 efbc 6e40 ea3d 4c3e 22bd 29d9 d6bd
000001c0: 4936 85be f7c0 81be 6d68 893e a30f 2f3d
000001d0: 2fa6 2b3e 01e1 46be 8f91 90bc fc00 273e
000001e0: 3753 b0bd c67f 22be 7137 03be 881b 343e
000001f0: 6f06 e9bd 2d00 af3d 39d0 a83d d790 febd
00000200: dece 413f 3afb 03be 2975 753e 9a16 94be
00000210: cfb5 e0bd bdad 87be d5fb 13be 8047 3e3d
00000220: 3f03 60bd 78ba 29be 9288 0f3e 2095 0e3e
00000230: ff85 863e 84db 0ebf b3d4 7f3f 708d 67bf
00000240: 0c4a 4cbe 2211 24be 74a0 953d 4a3a d2be
00000250: 8c5c 7b3e 07cf a63e ef2e 293e 2dec 663e
00000260: e36f 023f 90f3 bb3e 6b01 953e ce9d a7bd
00000270: f309 783f 1a25 63be b5b3 19be 9ca1 2cbf
00000280: d2f6 ec3e 721e 653e 3136 b13d 53f3 04be
00000290: 6bd5 ac3e 61d9 623d 0133 663e 3d2e 813e
000002a0: 9695 4cbe 5920 6bbc ea2e 873e e843 e03e
000002b0: 48f4 743e 34ee 473d 244a 333c 3e61 573e
000002c0: f3c8 edbe 09ae eebd 341a 5ebe dd0a e2bd
000002d0: 4556 633e 6677 393f 00e7 1b3d f65b 4c3e
000002e0: 7105 783d e78a d0bc 8438 aabe 900b 0bbf
000002f0: 8ed3 c4be 513a b0be d44a dcbe 5275 5f3e
00000300: 20f2 d73e 7ffc f7bc 2fdc 77bd 7efe d4bd
00000310: c831 963d 543a c9bd a8cd 1e3e 2f1f bf3d
00000320: 28b7 0d3d ed36 393e bd14 f6bd fe43 50be
00000330: 9233 99be e9fc dcbd a265 a6be 2923 ffbd
00000340: 4eb1 7abd ef49 b3bf dc3a 8e3c 58a6 883e
00000350: 79ad f8bc 2bd5 0abe 4ae8 e9bd 95cb 1e3e
00000360: b8bf ce3c 2e38 20be 469c 4fbe ba94 7dbe
00000370: 5103 1ebe af5b 233e d210 2fbe 624f 78bd
00000380: e5fa 693d 6645 423e 7c9a bebe 6301 7c3e
00000390: be9f 79bd 4fbf f8bd ffd0 473e 0a54 323e
000003a0: 9e6d d5bd cceb 9abd ec63 ac3d 9b9d e0bd
000003b0: dfdf 1ebd b836 fa3c 8f96 de3e b9cc 1b3e
000003c0: fedc 5abd bd55 9ebe 4bef fdbd c70e 23bd
000003d0: 88f2 71be 6f41 c4be 2a0e dcbd 4158 88bd
000003e0: 86a3 d4bd bb9a 113e 69ea 81bd 5e9a f53e
000003f0: 3cd9 12be 426f 993d 4b3e fbbb cd37 923d
-0.11128454 0.094447576 0.00439442 0.24709342 0.058625553 0.4328381 -0.31873244 0.38942873
0.07905592 0.3081971 -0.13419797 0.08269981 -0.41891268 0.2799895 -0.3016958 -0.3026398
0.0974771 -0.11080565 -0.012942379 0.6356262 -0.54266924 -0.109343044 -0.0015460724 -0.063588366
-0.34745735 0.017615126 -0.11769878 0.044556726 0.31369758 0.12287266 0.0076155895 0.12383174
-0.2226288 -0.049547516 -0.18347946 0.19227381 -0.1801346 -0.19290823 -0.88742816 0.31755504
0.24285081 -0.11055617 -0.29005703 0.09852962 -0.37614843 0.080723174 0.14454384 0.1384724
0.81143737 0.046702467 -0.09696111 0.0968043 0.44191554 -0.1553515 -0.11746699 -0.512333
-0.45321563 0.21320947 0.3532382 0.23400918 0.32055736 -0.5831499 0.14162484 0.12924476
-0.3512172 -0.15248428 0.0065898397 0.1443918 -0.0023732574 -0.061522245 -0.088946685 -0.21831712
0.08586959 -0.21328248 0.020172942 -0.09179753 0.022867067 0.08682515 0.011850967 0.44646254
-0.09690003 0.5252096 -0.18840656 -0.12658468 0.20510049 -0.058404297 -0.14001162 0.12823194
-0.14308695 -0.29904264 0.06768565 0.05780581 -0.0596399 -0.07209114 0.16816272 0.12075263
0.007883142 -0.023303987 0.13089922 0.09682455 0.016338889 0.054512527 0.13498248 -0.27374738
0.14193651 0.16609009 0.14905259 -0.7421761 -0.029177012 0.1143807 -0.039610192 -0.10490639
-0.2601798 -0.25342533 0.26837483 0.04273952 0.16762613 -0.1942177 -0.017647533 0.1630897
-0.08609622 -0.15869054 -0.12814118 0.17588627 -0.1137818 0.085449554 0.0824284 -0.1242997
0.7570628 -0.12888804 0.23970474 -0.28923494 -0.10972177 -0.2649974 -0.14451535 0.046454906
-0.054690596 -0.16575038 0.14016941 0.13924074 0.26274106 -0.55803704 0.9993393 -0.9045019
-0.19950122 -0.1602216 0.07305995 -0.41060096 0.24547023 0.32579824 0.1652181 0.22551031
0.50951976 0.3670926 0.29102644 -0.08184396 0.9689018 -0.22182122 -0.15009959 -0.67434096
0.4628206 0.22374895 0.08652914 -0.12983446 0.33756575 0.05538309 0.22480394 0.2523059
-0.19978938 -0.014350974 0.2640298 0.43801808 0.23921311 0.048811153 0.0109429695 0.21033189
-0.46442375 -0.11654288 -0.21689683 -0.11037228 0.22200878 0.7244781 0.038062096 0.19956955
0.060552064 -0.025456859 -0.33246243 -0.5431452 -0.38442653 -0.34419492 -0.4302584 0.21822098
0.42176914 -0.030271767 -0.060512718 -0.10400103 0.07333714 -0.09825578 0.15508139 0.0933212
0.0345985 0.18087359 -0.12015674 -0.20338437 -0.29922158 -0.10790426 -0.32499415 -0.12457878
-0.061204247 -1.4006938 0.01736205 0.2668941 -0.030356156 -0.1355788 -0.11421259 0.15507348
0.025237903 -0.15646431 -0.20274457 -0.24763766 -0.15430953 0.15952943 -0.1709626 -0.06062258
0.057124037 0.18971786 -0.37227237 0.24609904 -0.060943358 -0.12145864 0.1951332 0.17414871
-0.104212984 -0.07564506 0.08417496 -0.10967561 -0.03878772 0.03054367 0.43474242 0.15214814
-0.05343341 -0.30924788 -0.12399157 -0.039809015 -0.23627675 -0.38331172 -0.10744889 -0.06657458
-0.10382752 0.14219181 -0.06343538 0.47969335 -0.14340681 0.07491924 -0.007667338 0.071395494

graph_rnn.weight_hh_l1 f4 [192, 64]
00000000: 9c32 b2bd 2822 7abc 43b8 c6bb ea3a 9bbf
00000010: 16ce 853c c4a3 203e 305b 563c c338 c03d
00000020: aece 293d 34fc 11bd eef0 5cbd fdb4 cc3c
00000030: 8b83 06be 4a89 bf3d d1e9 6e3e 3d69 bcbc
00000040: 2d16 fa3d 0b1d a13e a9d2 ac3e 5b74 613d
00000050: 2330 723e e027 66be d4da c4bc 5f29 78be
00000060: 920e bf3d cea1 ba3e 0d23 c3bd 182c 3abe
00000070: d6ef 183e 43c1 afbd 87fa 593e 0f3d 56be
00000080: 033b c63e 416b 9b3e 9179 21be 566a 1bbe
00000090: 4532 67be 7d0a b0bd ab15 75bd 84ff 86bd
000000a0: 1b72 b73e bf26 923d ef73 a1bd f8dc 0abe
000000b0: c8bc 87be b2ab 873c a2ad cd3c bfad 6b3c
000000c0: 347c 7abe 52fe 943e 3f61 0dbe ce6f 0d3d
000000d0: 8a07 9cbd b9b6 5c3c f2dd 2e3e b0ae 45be
000000e0: 25cc 8abe b634 32be 161b c73d d939 ac3d
000000f0: 214d 353e 48db 803d d763 043e dbeb dd3d
00000100: c76a fe3d 4f3a 07bc d6e2 b8be 03c3 d73e
00000110: 9342 32bb 8399 aabb 84fb c0be 1d77 0abe
00000120: 3aba 4abd 4dc7 293e bd3f e4bc 5a4d dcbd
00000130: 5c73 11be 5cd1 d2bd ac75 6d3d 2327 e13c
00000140: a697 343e aaee b9bd 67ca 01be 3ab9 37bd
00000150: 2694 e33c ea25 533e ce0d b9bd e375 8d3d
00000160: b174 c1bd f2e3 c33c 8c32 b7bc 97c9 bdbe
00000170: ffb2 993c 317f 36be 6508 90bd 5f55 8e3e
00000180: a322 e2bd 9ab1 743e 262d ebbc 54ea 503d
00000190: 3f60 103e aa2b 8a3d 20ee 033e dc8e 9a3c
000001a0: 5e77 5fbe 62ee 023d 8db1 f13b df5c a8be
000001b0: d731 173f bb8c eebd dc81 54bc b870 003e
000001c0: e608 5a3e 6ac7 9d3c 5585 803e 5b47 61bd
000001d0: 58d2 1c3e 5c32 b63b deec 963d e248 bd3c
000001e0: 0ac8 27be 1cd1 933e 3d70 fdbd 9bb1 08be
000001f0: fe7a 02be 0764 863d 3530 8c3e b21d 1cbe
00000200: d521 d0bd 5e75 66be 1539 64bd 71ab 95be
00000210: 35ae ce3e a995 543e 13ca a53b d26a 313d
00000220: 804f 803e 5695 82bd 2356 46be ac95 3cbd
00000230: a6bb 81be 6cd4 a23e 0441 5f3d 2395 653d
00000240: 9f43 4bbe b118 003e 39d5 d13c 781b 9b3d
00000250: 3bff 5c3e 85e4 0b3c 00f0 f7bd 7864 fabb
00000260: 2621 7a3e e26f 563e 8bbe 8c3c efbd b4be
00000270: ea32 ffbd c246 4abd 625a 8c3e 9aa8 f63e
00000280: c770 c3be 4509 aa3d 3ae1 943d 3858 8ebe
00000290: 3fcb 04be e280 83bd c0a0 27be b0cd 2abe
000002a0: 7c3a 97bd 1a37 473e 2056 30bd fb0b b03d
000002b0: 7229 9f3e 83ff a23d 6c67 be3c 4636 a2be
000002c0: cde6 3abe 8254 723e eae2 f13c 3b4a d23d
000002d0: ac5b 383d d29f 01bf d137 cb3d fae8 873d
000002e0: c136 743e fbed 43be ebbe 063e 8013 8e3e
000002f0: d284 8e3e 6af8 463e 91a3 2f3e eda3 8fbd
00000300: ced2 09be 1b11 273e 6556 b0be a15a 1a3f
00000310: 9b8e 3f3e 8aba a93d 6c26 28bd db1d 563e
00000320: feb4 94be 90e4 32be a5e7 073b a118 533e
00000330: be39 0abe d7c8 44be 97ee 4b3e 11eb 9a3a
00000340: c391 35bd 674e a8bd 1cf4 79bd 7fe2 3a3d
00000350: 8c20 42be 6fa9 053d 16f8 983d c679 84be
00000360: 07b1 27bd 6234 953e c47d 28bd 3cbd a33e
00000370: d87f 2cbd 02a9 b8bd 3468 b63e bf13 b83c
00000380: 673d d3be b42a d1bd 0239 2a3e 06a1 5abe
00000390: 7e56 d0bd d1d1 84be ea76 61bd 1318 d03d
000003a0: 9a7e 2f3d 729b 26be d902 713e 8837 57bc
000003b0: 8800 8a3e 7e94 37bc 8296 293e 2a14 cebd
000003c0: 1a07 d93b bc20 3f3e 6832 5c3d 89a7 153e
000003d0: b9db 0c3d 5858 0ebe 851a a93e 6d91 74bd
000003e0: 6d59 70be ca5c c93d fee7 48bc 972b 743e
000003f0: a1aa ebbc b47e e33d 8c1a 63bd 28c5 37bc
-0.08701059 -0.015266933 -0.006064446 -1.2127354 0.016333621 0.15687472 0.013083264 0.093858264
0.04145687 -0.03564091 -0.053940706 0.024988646 -0.13136117 0.09352358 0.23331381 -0.0229994
0.12211261 0.3146747 0.3375447 0.055042606 0.23651175 -0.22476149 -0.024030127 -0.24234532
0.09328951 0.36451572 -0.0952817 -0.18180883 0.1493524 -0.085817836 0.21286975 -0.2092173
0.38716897 0.30355266 -0.1576903 -0.15177283 -0.2257777 -0.085957505 -0.059835117 -0.065917045
0.35829243 0.071362965 -0.07883441 -0.13560855 -0.26511216 0.016561363 0.025107209 0.014384686
-0.24461442 0.2910028 -0.13806628 0.034530453 -0.076186255 0.013471299 0.17076853 -0.19304919
-0.27108875 -0.1740292 0.09721963 0.08409471 0.17705204 0.062918246 0.12928711 0.108360015
0.1242271 -0.008253648 -0.36110562 0.4214097 -0.0027200326 -0.0052062883 -0.3769189 -0.13522
-0.049494006 0.16579933 -0.027862424 -0.10756941 -0.14204162 -0.102938384 0.05797355 0.027484482
0.17635974 -0.09078725 -0.12674867 -0.04485438 0.027780604 0.20619932 -0.09035836 0.06907251
-0.09446085 0.023912404 -0.02236297 -0.37067863 0.01876211 -0.17821957 -0.07032851 0.27799508
-0.11041763 0.23895875 -0.028708052 0.051004723 0.14099215 0.067466095 0.12883806 0.018866949
-0.21822879 0.03196562 0.007375902 -0.32883355 0.59060425 -0.11647936 -0.012970414 0.12542999
0.21292457 0.019260127 0.25101724 -0.05499969 0.15314615 0.0055602025 0.073693976 0.023106042
-0.16384903 0.28870475 -0.123749234 -0.13349001 -0.1274223 0.065620475 0.2738053 -0.15245703
-0.10162703 -0.2250571 -0.0557185 -0.29232362 0.40367284 0.20760216 0.0050594895 0.043314762
0.25060654 -0.0637614 -0.19368796 -0.046041176 -0.25338477 0.3180269 0.054505363 0.05605043
-0.19850014 0.12509419 0.025614368 0.075735986 0.21581738 0.00853837 -0.12106323 -0.0076413713
0.24426708 0.20941117 0.017180702 -0.35301158 -0.12460883 -0.049383886 0.27412707 0.48175508
-0.3817198 0.08302549 0.07269521 -0.2780168 -0.12968157 -0.06421067 -0.16369915 -0.16680026
-0.07384202 0.19454613 -0.043050885 0.08596035 0.31086308 0.07958891 0.023242675 -0.31682032
-0.18252106 0.2366505 0.029527146 0.102680646 0.0450093 -0.5063449 0.099227555 0.06636234
0.23849012 -0.19133751 0.13158767 0.27749252 0.2783571 0.194307 0.1715224 -0.07013688
-0.13459322 0.16315119 -0.34440914 0.6029454 0.18706743 0.08287533 -0.041052267 0.20909826
-0.29044336 -0.17470002 0.0020737436 0.20614864 -0.1349859 -0.1921724 0.19915234 0.0011819323
-0.044328462 -0.08218079 -0.061023816 0.04562616 -0.18957728 0.032632288 0.07469194 -0.25874156
-0.04094031 0.29141527 -0.041135564 0.31980312 -0.04211411 -0.09016611 0.35626376 0.022470353
-0.41257784 -0.10213223 0.16623309 -0.21350488 -0.10172747 -0.25941327 -0.055045046 0.10160842
0.042845346 -0.16270235 0.23536243 -0.013135798 0.2695353 -0.011204837 0.1656132 -0.1006244
0.006623161 0.18664831 0.05375901 0.14614691 0.03438923 -0.13900888 0.33028045 -0.059709
-0.23471613 0.09832151 -0.0122623425 0.23844753 -0.028767886 0.11108151 -0.05544524 -0.011216439

graph_rnn.bias_ih_l1 f4 [192]
00000000: ff4c 3d3b 9324 ae3d cb54 983d a367 6e3e
00000010: 0d85 7ebd f8b8 f43d 887b 2d3e 5021 f8bd
00000020: 799e 253c 6b2b d23d a440 91bd dc05 d83c
00000030: cc63 d93d 96b4 013e b84b 213d 47c6 8a3d
00000040: e288 a4bb 26dc de3d ff6a 793e b52b d13c
00000050: f0f8 37bd 3e10 33bd 2eb6 a0bb 6ecc 313e
00000060: 73c1 153e 0ccb 583e ce0a 013e bf76 423e
00000070: f50f b9bd cf0a 0ebc 9bb6 5e3d 703b 373e
00000080: a6cf 9a3c fadb e33d ffa9 afbd a1b8 4a3e
00000090: 4747 4ebc c4c9 0b3e 52f9 acbc 9124 573e
000000a0: 32be 333d 72db 16be 98d3 4cbe 8d55 e53d
000000b0: 9218 2ebb 52ac 75be bb90 eb3c fc1c e0bc
000000c0: a626 803e 0ae5 b23d a97a 1ebe 7798 a23d
000000d0: df2f 923c fe19 74bd e453 213e a404 1d3c
000000e0: 3f36 a6bd fc1c 2d3d 0e41 b03d 2f2c a13d
000000f0: 1fd8 3c3b eab2 69be 1c18 37bd ed47 c53d
00000100: 98a2 cabc 9695 2ebe d6b2 1dbe bf80 bebe
00000110: 2368 0f3d 329f 7f3d e982 33be 1359 86be
00000120: 2775 4fbe 3546 3f3d 2244 23bd 396a 2fbe
00000130: 9b5d d3bd 5367 9bbe 8079 a2be dea9 1b3e
00000140: c24a 5bbe 3fcb dbbb d356 643d f904 43bd
00000150: 2284 e9bd 8d5e 8bbe 56d8 0ebd 0661 cbbc
00000160: e5ca 963c 6f53 84bd f0a7 c1bc d2ae d2be
00000170: 8eb4 0ebe f81b 0bbe 5ef4 8f3d 56ea 933d
00000180: ba19 6fbe 4c69 d4bd a723 0ebe 5dbf 83bd
00000190: 4247 f5bd f606 033e 98d2 053e 2469 8ebe
000001a0: 7230 cabd 23a1 4e3c 63d8 c03b 5db3 8bbe
000001b0: 2efa 423d ee56 813d 1eb9 233d 2cbb 033e
000001c0: 1792 1fbe 6c64 48be d50c 0c3e 94cd 51bd
000001d0: 0c64 50be 9d8e 793d d48f 663d 35d7 cb3b
000001e0: 6250 8dbe 9823 a3bd 8dc5 ecbd 9079 0bbe
000001f0: 089e 843d 3557 43be 3697 3ebe d7f2 edbd
00000200: 0553 c8bd be39 ad3d 16d7 873d 4806 b03d
00000210: 24e8 493d 4f4d 223e 0223 96bc 697b 313b
00000220: 436d 72bb 332a 66be 3e17 88bd 543e 5c3d
00000230: c7e7 93bd 3ff6 51bc 8994 32be d5a2 4fbe
00000240: a618 24be c036 80bd 32c8 9a3e fb49 073e
00000250: b3f8 8a3d a6f0 23be d438 d73d 857e 48bd
00000260: 7b18 3bbc 58b1 ab3e 2588 e3ba c7ba ce3d
00000270: bfc3 a53c 2013 fbbd ea74 183e 1157 f33c
00000280: 1781 123e 4113 9a3d 6618 08be 88c3 5d3c
00000290: d859 f8bd 37c3 44be 3930 9a3d c53d d23b
000002a0: ec72 2d3c 4fa7 55bc 687a 06bd f699 003e
000002b0: a647 40be 7637 2bbd 9369 943d 0d38 90bd
000002c0: 6704 1cbe a4ad 62bd 17b4 59bd badc 11bd
000002d0: f393 0d3d 5b18 e73c 92a9 993e 2f56 cbbd
000002e0: a434 0ebe 5bd0 5a3c 5208 c9bd 0a51 22bd
000002f0: f802 013a aa74 91bc ea8b 07bd a4a3 353e
0.0028885005 0.0850307 0.07438048 0.23281722 -0.062138606 0.119493425 0.16941655 -0.12115729
0.010108584 0.102621876 -0.07092407 0.026369981 0.10614738 0.12666544 0.03937885 0.067761
-0.0050212005 0.10881834 0.24357222 0.025533536 -0.04491514 -0.04371666 -0.00490453 0.1736314
0.14624576 0.21171206 0.12601778 0.1899061 -0.09036247 -0.008669569 0.054373365 0.17893767
0.018897843 0.111259416 -0.08577346 0.19796993 -0.012590236 0.13651186 -0.021114979 0.21010043
0.043882556 -0.14732149 -0.20002592 0.11197958 -0.0026564938 -0.23991516 0.028755536 -0.02735757
0.25029486 0.08735092 -0.15476479 0.079392366 0.017845092 -0.0595951 0.15754658 0.009583626
-0.08115815 0.04226397 0.08606158 0.078697555 0.0028815342 -0.22822157 -0.044700727 0.096328594
-0.024735734 -0.1704925 -0.15400252 -0.372076 0.035011422 0.06240768 -0.17530407 -0.26239833
-0.20259534 0.046697814 -0.0398599 -0.17130364 -0.10320588 -0.30352268 -0.31733322 0.15201518
-0.21415237 -0.0067075784 0.055746865 -0.047612164 -0.114021555 -0.27220574 -0.034874283 -0.024826538
0.018407295 -0.06461226 -0.02363965 -0.41149002 -0.13936064 -0.13584888 0.07029031 0.072224304
-0.23349658 -0.10371646 -0.13880788 -0.06432984 -0.11976482 0.12795624 0.13068616 -0.2781459
-0.098725215 0.01261166 0.0058851703 -0.2728528 0.04760187 0.06315409 0.039971463 0.12864369
-0.15583073 -0.19569558 0.1367677 -0.051221445 -0.20350665 0.060927022 0.05628951 0.006220723
-0.2760039 -0.07965773 -0.11561117 -0.13620591 0.064754546 -0.19076236 -0.1861237 -0.11618584
-0.0978146 0.08458279 0.06632821 0.08594948 0.049293652 0.15849803 -0.01832724 0.0027081615
-0.0036991395 -0.22477035 -0.06645058 0.05377038 -0.072219424 -0.012815057 -0.17439474 -0.20276959
-0.16025028 -0.06260443 0.30230862 0.13211815 0.06785717 -0.16009769 0.10508886 -0.048948783
-0.011419411 0.3353374 -0.00173593 0.10094219 0.02023494 -0.12259507 0.14888349 0.029704602
0.14307056 0.07523204 -0.13290557 0.013535388 -0.12126511 -0.19215094 0.07528729 0.006416055
0.010586482 -0.013040378 -0.03283158 0.12558731 -0.18777332 -0.04180094 0.07246699 -0.07041941
-0.15236054 -0.055341378 -0.053150263 -0.035610892 0.034564923 0.028209856 0.30012184 -0.099285476
-0.13887268 0.01335534 -0.0981604 -0.039628066 0.0004921402 -0.017755825 -0.033092417 0.17738205
