graphrnn_v2/experiments/structures/k_regulars/vary_m/3_regular_vary_m_32/model_at_1100.pt (torch, 422331 bytes, 43 tensors)

adj_embedding.0.weight f4 [32, 32]
-0.009017733 -0.03219755 -0.01761488 0.15913518 -0.06557443 -0.009588342 -0.017831624 -0.083657175
-0.43735787 -0.66512185 0.41886356 -0.5810029 0.4983433 -0.22042292 -0.1630909 -0.114192285
0.0019457004 -0.0853663 -0.08829416 -0.017297026 -0.12519328 -0.03234719 -0.06969836 -0.105441675
0.15198185 -0.1315958 0.054282468 0.027938917 -0.05844043 -0.10125209 0.081914194 0.13589686
-0.021891773 0.08221983 0.01158572 -0.15290694 -0.07826663 -0.0849147 -0.47308782 0.241075
-0.018402644 -0.42456865 -0.010502989 -0.082333975 0.22439748 -0.19019593 0.089521885 0.108845
-0.13010032 -0.10683233 0.053670023 -0.12380087 -0.16655871 -0.07265812 -0.19731146 -0.019641995
-0.066126704 -0.10387255 0.020863634 0.07957654 -0.0017478159 0.089296944 -0.19363455 -0.14032781
-0.11431663 -0.018603414 -0.1376852 0.0045457254 0.023675833 -0.163496 0.26047137 -0.18934256
-0.7484499 -0.08092219 -0.7348111 0.55575997 0.7594957 -0.3463345 -0.17616187 -0.15530474
-0.12859236 0.16036977 -0.048322603 -0.07511782 0.07076633 -0.06846846 0.15180397 -0.067436725
-0.12370907 0.105434954 0.17455147 -0.10557532 0.06102853 -0.12258379 -0.027328754 0.09507128
0.3406393 -0.024878738 0.006403634 0.21984442 0.21345645 0.11601695 -0.26659292 -0.5860722
-0.5890171 -0.5883847 -0.3123441 -0.48748618 -0.36207774 -0.09805831 -0.029982846 -0.07898412
0.06461676 0.09685763 0.14999227 0.104790844 -0.16363402 0.045599326 -0.13267206 0.13987009
-0.052845277 0.096156456 -0.0766915 -0.16589682 -0.09163517 -0.07262287 -0.10532173 -0.10791306
-0.19392215 0.20526248 0.15845935 0.0343084 -0.13973223 -0.059727475 0.026166307 -0.07218753
-0.32746634 -0.09048132 0.0011804682 0.17923665 0.413913 0.27501056 0.27731875 0.0912698
0.3190364 -0.016663048 0.07303957 0.13218717 0.31610373 0.24045868 0.0671761 0.24756843
0.049368747 0.07307961 0.06654168 0.2783705 0.2926207 0.27746448 0.25454277 0.162562
0.113092445 0.024296576 -0.02362386 -0.0417886 -0.028905448 -0.010295235 -0.1314784 -0.23684315
0.2383326 -0.56976086 0.282944 0.6500223 0.19964927 -0.45480376 -0.12550732 -0.07798468
0.013237559 0.11369851 -0.17934442 -0.008047526 -0.226018 0.049583394 -0.020972686 -0.07878238
0.0024149928 -0.1158464 -0.054159775 -0.15917765 -0.09003265 0.0114915315 0.0034511725 -0.16782556
0.16786884 0.27014542 0.22928457 0.116787694 0.16983029 0.17226027 0.011476788 -0.3367803
-0.09381956 -0.21438496 -0.3378307 -0.119426996 0.0018455526 -0.143554 -0.032702617 0.012140384
0.124481134 0.12268734 -0.17379706 0.067047164 -0.13976106 0.041540515 -0.09498612 -0.057065323
0.00920911 0.07665766 -0.043288585 0.14836204 -0.019746723 -0.06914594 -0.08021668 -0.18882479
-0.07337471 -0.001061405 0.2229564 0.30256623 -0.090440385 -0.062053505 0.031649303 0.12299655
0.38016888 -0.040207434 -0.045228966 -0.050678793 0.020855006 0.18525268 0.27743474 0.14694065
0.03775171 0.2167428 0.19348326 0.30279747 -0.020603377 0.16964956 0.08737382 0.2510063
0.29168162 0.19115157 0.057992093 0.14785801 0.28270632 0.26189438 0.1269681 0.17315055
00000000: 1dbf 13bc 94e1 03bd 154d 90bc 55f4 223e
00000010: e34b 86bd 6c18 1dbc a013 92bc 7454 abbd
00000020: 5fed dfbe 6d45 2abf 4975 d63e 9bbc 14bf
00000030: da26 ff3e 8cb6 61be 4d01 27be a5dd e9bd
00000040: df06 ff3a 87d4 aebd 92d3 b4bd 7eb2 8dbc
00000050: ab32 00be 7d7e 04bd 04be 8ebd cef1 d7bd
00000060: 21a1 1b3e 0dc1 06be 4b57 5e3d 28e0 e43c
00000070: 3b5f 6fbd 415d cfbd a1c2 a73d 8c28 0b3e
00000080: 6056 b3bc df62 a83d 08d2 3d3c a393 1cbe
00000090: 414a a0bd c2e7 adbd 9138 f2be 5ddc 763e
000000a0: 24c1 96bc 1061 d9be bb14 2cbc b79e a8bd
000000b0: 74c8 653e b9c2 42be 4057 b73d 21ea de3d
000000c0: 0539 05be e9ca dabd 19d5 5b3d 4f8b fdbd
000000d0: 5e8e 2abe c8cd 94bd 040c 4abe 40e8 a0bc
000000e0: 706d 87bd 22bb d4bd 36ea aa3c 06f9 a23d
000000f0: f816 e5ba 51e1 b63d 2348 46be 18b2 0fbe
00000100: d61e eabd 3066 98bc 59fd 0cbe 4ff4 943b
00000110: d2f3 c13c 7f6b 27be 815c 853e 04e3 41be
00000120: 6a9a 3fbf 88ba a5bd 951c 3cbf 4946 0e3f
00000130: 4f6e 423f c152 b1be c763 34be 3508 1fbe
00000140: b7ad 03be f937 243e eced 45bd 5fd7 99bd
00000150: f0ed 903d 3139 8cbd 8072 1b3e 441c 8abd
00000160: 2e5b fdbd 48ee d73d 9fbd 323e e037 d8bd
00000170: 0df9 793d 360d fbbd 8de0 dfbc bbb4 c23d
00000180: 4668 ae3e 7fce cbbc 93d5 d13b e51e 613e
00000190: 5494 5a3e 4b9a ed3d de7e 88be d408 16bf
000001a0: d3c9 16bf 61a0 16bf 91eb 9fbe ca97 f9be
000001b0: 4162 b9be ccd2 c8bd 969e f5bc 6dc2 a1bd
000001c0: cb55 843d 4b5d c63d 9397 193e 959c d63d
000001d0: ad8f 27be 5cc6 3a3d 2fdb 07be 1b3a 0f3e
000001e0: 4a74 58bd aded c43d 6f10 9dbd dbe0 29be
000001f0: 38ab bbbd 4dbb 94bd ebb2 d7bd 8601 ddbd
00000200: 8793 46be 5430 523e 2b43 223e f786 0c3d
00000210: f715 0fbe cca4 74bd b95a d63c 0ed7 93bd
00000220: aba9 a7be 454e b9bd f1b9 9a3a d089 373e
00000230: 68ec d33e 2fce 8c3e b9fc 8d3e a9eb ba3d
00000240: bd58 a33e f280 88bc c595 953d 135c 073e
00000250: 59d8 a13e cd3a 763e a093 893d 9482 7d3e
00000260: e236 4a3d c3aa 953d 0147 883d 9486 8e3e
00000270: 61d2 953e d30f 8e3e 6e53 823e a776 263e
00000280: 039d e73d 9d09 c73c d386 c1bc 862a 2bbd
00000290: 1ecb ecbc 58ad 28bc 46a2 06be 0387 72be
000002a0: 760d 743e d9db 11bf 09de 903e dd67 263f
000002b0: dc70 4c3e 0adc e8be fe84 00be 6fb6 9fbd
000002c0: 59e2 583c c4da e83d 10a6 37be c5d9 03bc
000002d0: 4371 67be f517 4b3d e9ce abbc a858 a1bd
000002e0: db44 1e3b e140 edbd a4d6 5dbd 77ff 22be
000002f0: 0a63 b8bd fa46 3c3c 112d 623b 77da 2bbe
00000300: cfe5 2b3e 8050 8a3e 93c9 6a3e 632e ef3d
00000310: fee7 2d3e ff64 303e 2309 3c3c 786e acbe
00000320: 7824 c0bd bb87 5bbe 25f8 acbe 2496 f4bd
00000330: 78e6 f13a d2ff 12be 2ef3 05bd 76e8 463c
00000340: f7ef fe3d 8043 fb3d dbf7 31be 0650 893d
00000350: 861d 0fbe 6326 2a3d 1588 c2bd 54bd 69bd
00000360: cfe1 163c b1fe 9c3d 5f4f 31bd 38ec 173e
00000370: e1c3 a1bc 639c 8dbd a548 a4bd 495b 41be
00000380: 7b45 96bd d81e 8bba af4e 643e f6e9 9a3e
00000390: cf38 b9bd d12b 7ebd b3a2 013d 9de5 fb3d
000003a0: 7fa5 c23e 8db0 24bd 0242 39bd 9194 4fbd
000003b0: 1ed8 aa3c e1b2 3d3e ed0b 8e3e 9c77 163e
000003c0: 89a1 1a3d d3f1 5d3e 7a20 463e 4508 9b3e
000003d0: 6ac8 a8bc 9db8 2d3e 0cf1 b23d e683 803e
000003e0: 4b57 953e 3dbd 433e 1e89 6d3d 1768 173e
000003f0: e2be 903e 0517 863e ed03 023e 614e 313e

adj_embedding.0.bias f4 [32]
-0.0002179389 0.07787184 -0.06321884 0.011958081 -0.08459316 0.036661714 -0.20651835 0.08736933
0.10421736 -0.026539588 -0.064735755 0.117307134 0.0687728 -0.12756637 0.037752245 -0.09166921
0.02541411 -0.1062526 0.11879526 -0.12821998 -0.16073588 0.05068363 -0.18517028 -0.114670716
-0.13501294 0.043618277 -0.2171231 -0.23084044 -0.06997952 -0.012184163 -0.02454878 -0.006262518
00000000: 8786 64b9 457b 9f3d e178 81bd d4eb 433c
00000010: 2e3f adbd 982a 163d 8c79 53be b1ee b23d
00000020: e96f d53d 8d69 d9bc 2e94 84bd b93e f03d
00000030: c1d8 8c3d c2a0 02be 19a2 1a3d 11bd bbbd
00000040: 4031 d03c f79a d9bd ee4a f33d 194c 03be
00000050: f297 24be a399 4f3d 479d 3dbe 7bd8 eabd
00000060: d540 0abe 14a9 323d 8555 5ebe 7061 6cbe
00000070: 6c51 8fbd 15a0 47bc 861a c9bc cf35 cdbb

graph_rnn.weight_ih_l0 f4 [192, 32]
0.19102412 0.16928641 0.6944914 0.28478184 0.36857545 0.3382174 -0.15035933 0.26728147
0.38144162 0.17267478 0.037300643 -0.13529965 0.3177626 0.3375983 0.23330906 0.15885575
0.13822104 0.22536965 -0.054064423 -0.075841345 -0.09672837 0.17450902 0.6738151 -0.46401674
0.5112883 0.50287646 0.06483617 -0.31851864 -0.12530932 0.22213507 0.13393904 0.051445317
0.026032772 -0.11604766 0.04751992 0.06652421 -0.07537938 0.14636977 -0.27078232 -0.21626177
-0.14404616 0.19880879 -0.13334052 -0.116931714 0.14141896 -0.14248377 0.1465916 -0.05536908
-0.21498564 -0.111769006 -0.13057306 -0.21199849 -0.035512652 -0.040415242 -0.3159571 0.21266772
-0.06291401 0.1355141 -0.20534481 -0.26470393 -0.05643753 -0.20862688 0.08821856 -0.0346525
0.5690669 -0.0731137 -0.11251983 0.07584316 -0.070145525 0.27329707 -0.06475475 -0.09124886
0.15799524 0.30005366 0.16968669 0.09975306 0.05553605 0.1575755 0.03873644 -0.15176804
-0.14263576 -0.0449815 0.15823425 0.02149502 0.26604462 -0.006523461 -0.12303848 0.04380793
-0.011802481 0.23921263 0.053640787 0.17937389 0.047060937 -0.055089235 0.35192627 0.2467415
-0.065647915 -0.0810821 -0.30834442 -0.026712984 -0.1602973 -0.20131895 -0.36418644 -0.03310656
-0.054198883 0.011408834 -0.16023004 -0.032305717 -0.03127426 -0.17779079 -0.026897335 -0.1639961
-0.08895193 -0.32212508 0.050382007 -0.17247012 -0.21238524 0.062251512 -0.33309838 -0.13485415
-0.5008866 0.052277625 -0.56947976 -0.24285837 0.08912175 -0.06401164 -0.033980817 -0.050915692
-0.13832335 0.12046377 -0.04338484 0.042038336 -0.048483152 0.1609977 -0.37494147 -0.14440554
0.11967889 -0.08718942 0.019178512 0.16228499 0.0032347792 -0.21427038 -0.10741486 0.04963334
0.049051456 -0.13998246 -0.05749266 -0.21484764 0.056052744 -0.14053228 -0.16707097 -0.44387197
-0.05945183 0.033841383 -0.33789998 0.041555956 0.24078788 -0.12608705 0.087436646 0.3739504
0.009657294 0.033486754 0.011059512 -0.20875308 -0.056285486 -0.22982569 -0.23029497 0.16614658
-0.08511214 -0.13700603 0.13565059 -0.085130736 0.1696747 -0.044890687 0.12283901 -0.5143624
0.06212371 0.054111786 0.06954927 0.04840399 -0.25306046 -0.027544484 -0.40063456 0.29120725
-0.7620551 0.3598048 -0.57037604 -0.020184234 -0.28452033 0.00032315482 -0.06916751 0.055980746
0.086600535 -0.32884538 0.22000703 -0.21408561 0.28402779 0.24976751 0.40809175 0.034320287
0.101608954 -0.32876542 0.46817437 -0.04340934 -0.33194265 0.32525143 0.24625584 0.25778127
0.2143076 0.30030957 -0.23187958 0.1808619 0.13355756 0.14278565 0.20707785 -0.2746489
-0.11387784 -0.14493424 0.05762012 0.41627207 0.27640486 0.17606306 -0.00029259236 -0.043825153
-0.08932989 0.24192527 -0.15111513 0.11735487 -0.02495391 0.3677418 -0.11036053 -0.1241241
0.09199789 0.05128174 -0.13600315 -0.043476656 -0.008954447 -0.0426272 -0.070255876 0.0008132917
-0.04473768 0.022580763 -0.09308597 -0.17461117 0.07503669 -0.059128925 -0.04586501 -0.113957085
0.032673836 -0.15749621 -0.027042868 -0.058526915 -0.02755803 -0.10265356 0.04095304 0.37192217
00000000: d49b 433e 6b59 2d3e 30ca 313f edce 913e
00000010: ecb5 bc3e d52a ad3e ccf7 19be 1ed9 883e
00000020: 514c c33e a8d1 303e 8fc8 183d fe8b 0abe
00000030: c8b1 a23e afd9 ac3e 92e8 6e3e 15ab 223e
00000040: d189 0d3e 4dc7 663e a872 5dbd b552 9bbd
00000050: 8619 c6bd 7eb2 323e 257f 2c3f 9a93 edbe
00000060: cae3 023f 83bc 003f d3c8 843d e014 a3be
00000070: 1651 00be 6077 633e 5127 093e 53b8 523d
00000080: ae42 d53c 65aa edbd 3fa4 423d d83d 883d
00000090: 8160 9abd f5e1 153e fba3 8abe ba73 5dbe
000000a0: d680 13be 8894 4b3e 6b8a 08be e579 efbd
000000b0: 22d0 103e 44e7 11be 1c1c 163e b0ca 62bd
000000c0: 3225 5cbe 26e7 e4bd f2b4 05be 2216 59be
000000d0: b775 11bd 748a 25bd 21c5 a1be 91c5 593e
000000e0: 0fd9 80bd 35c4 0a3e e945 52be 4687 87be
000000f0: 0a2b 67bd 49a2 55be efab b43d c8ef 0dbd
00000100: 5eae 113f a3bc 95bd cc70 e6bd a953 9b3d
00000110: 75a8 8fbd 98ed 8b3e 239e 84bd afe0 babd
00000120: 81c9 213e a2a0 993e 59c2 2d3e 554b cc3d
00000130: c579 633d 795b 213e 1aaa 1e3d 1569 1bbe
00000140: 1c0f 12be 853e 38bd 2908 223e 5316 b03c
00000150: 0037 883e c2c2 d5bb 99fb fbbd f26f 333d
00000160: 315f 41bc 28f4 743e 71b6 5b3d caad 373e
00000170: f8c2 403d 40a5 61bd ae2f b43e cea9 7c3e
00000180: 6a72 86bd 5f0e a6bd 52df 9dbe 30d5 dabc
00000190: fa24 24be 8e26 4ebe a576 babe bf9a 07bd
000001a0: a6ff 5dbd 1eec 3a3c 5813 24be 0053 04bd
000001b0: 7019 00bd ca0e 36be cd57 dcbc 98ee 27be
000001c0: 6e2c b6bd 94ed a4be 5d5d 4e3d 029c 30be
000001d0: 847b 59be 71fb 7e3d df8b aabe 3517 0abe
000001e0: 1b3a 00bf 1021 563d 6dc9 11bf ddaf 78be
000001f0: 7785 b63d 8918 83bd 782f 0bbd f98c 50bd
00000200: a3a4 0dbe b6b5 f63d 4db4 31bd 6430 2c3d
00000210: 4596 46bd 95dc 243e 54f8 bfbe 0cdf 13be
00000220: 351a f53d 5e90 b2bd 411c 9d3c 092e 263e
00000230: 97fe 533b b269 5bbe 52fc dbbd 544c 4b3d
00000240: 2eea 483d 9057 0fbe 6c7d 6bbd 0501 5cbe
00000250: 9097 653d b2e7 0fbe a714 2bbe 3043 e3be
00000260: c383 73bd 439d 0a3d 3a01 adbe 9436 2a3d
00000270: 1991 763e f71c 01be fc11 b33d 6d76 bf3e
00000280: a039 1e3c 6829 093d f532 353c 5ec3 55be
00000290: 9c8b 66bd 6d57 6bbe 72d2 6bbe 5422 2a3e
000002a0: 464f aebd 4f4b 0cbe fde7 0a3e 0659 aebd
000002b0: 34bf 2d3e 4cdf 37bd 0593 fb3d 41ad 03bf
000002c0: 6e75 7e3d 52a4 5d3d d96f 8e3d 4343 463d
000002d0: 2491 81be f8a4 e1bc f91f cdbe 1e19 953e
000002e0: 0b16 43bf 5638 b83e 2a04 12bf 6859 a5bc
000002f0: a6ac 91be 1b6d a939 b2a7 8dbd 114c 653d
00000300: 9f5b b13d 6c5e a8be 8649 613e 4239 5bbe
00000310: 176c 913e 0ec3 7f3e 67f1 d03e 6e93 0c3d
00000320: 5b18 d03d f153 a8be 8db4 ef3e fecd 31bd
00000330: 63f4 a9be 5b87 a63e 7e2a 7c3e e8fb 833e
00000340: 7473 5b3e 2dc2 993e d771 6dbe dd33 393e
00000350: 50c3 083e 6736 123e 370c 543e c89e 8cbe
00000360: c938 e9bd a469 14be 1303 6c3d 9d21 d53e
00000370: f084 8d3e e049 343e 1567 99b9 0182 33bd
00000380: 97f2 b6bd 42bb 773e edbd 1abe c057 f03d
00000390: 246c ccbc a748 bc3e b404 e2bd c734 febd
000003a0: 6469 bc3d cd0c 523d 6944 0bbe 9414 32bd
000003b0: acb5 12bc dc99 2ebd 50e2 8fbd 1533 553a
000003c0: dc3e 37bd 4bfb b83c dba3 bebd 45cd 32be
000003d0: d6ac 993d 2c31 72bd f3dc 3bbd 5562 e9bd
000003e0: 00d5 053d b046 21be 0189 ddbc ebb9 6fbd
000003f0: 61c1 e1bc 083c d2bd 60be 273d 956c be3e

graph_rnn.weight_hh_l0 f4 [192, 64]
-0.30380246 -0.03716876 0.06882426 0.057081543 0.019072236 -0.18251045 -0.22046135 0.13175426
-0.10266969 0.25347155 -0.048622254 0.051955886 0.17240603 0.3397699 -0.17825462 -0.09005978
-0.08113541 -0.013185054 0.017931243 -0.26927498 0.16396819 0.044906143 -0.15734266 -0.11814977
-0.05123363 0.05585402 -0.109478034 0.11490654 0.010392257 -0.020257974 -0.03480938 0.09503719
-0.013341892 0.1443711 -0.026081009 -0.13288769 -0.0008344141 0.07208361 0.04124886 0.5755544
0.12221954 0.021671165 0.023782581 -0.06260668 0.07647235 0.08529722 -0.007256585 -0.10105103
0.042128578 -0.051975504 0.030397218 0.010664835 0.08199232 0.14801036 -0.13590212 0.06019141
0.09273612 -0.04613583 0.07328906 -0.1119666 -0.1392256 -0.07553589 -0.019814745 -0.138293
0.050611097 0.01654184 -0.02302835 -0.08911164 -0.04441221 -0.001965896 0.05934408 -0.03093557
-0.0040616775 -0.11816906 0.07107163 -0.07276504 -0.06655957 0.02090738 -0.08859967 -0.16271724
-0.10645732 -0.11003281 0.04469893 0.018133862 -0.15100789 0.045824688 0.013767085 -0.18862417
-0.02754221 -0.11383913 0.06914323 0.07292694 -0.07766167 -0.15867674 0.022230713 -0.2663815
-0.026159018 -0.010638144 0.18537976 0.07824985 0.18546735 -0.0401621 0.035499122 0.24742553
0.100031495 0.011303004 0.04948038 0.13148113 0.06186255 0.013065957 -0.009311075 0.06060159
0.004927892 -0.0073941755 -0.06948356 0.06896246 -0.01607999 -0.07018754 -0.14765544 0.091861844
0.021361861 0.06442921 -0.20947543 -0.005476719 -0.12725982 -0.023765795 -0.1482108 0.016863756
0.16235487 -0.045798007 0.08231765 -0.0591337 -0.039836396 -0.12379567 0.0259835 0.056713026
0.0782983 0.005104666 0.18574181 0.101582974 0.16912435 0.005718022 -0.10597025 -0.19744973
0.07810651 0.14300226 -0.1470633 -0.06902129 0.07990985 0.04471769 -0.31745917 -0.05758538
0.09743783 0.024876917 0.19252859 -0.2966937 -0.12882835 0.04899447 -0.06525456 -0.016724614
-0.038346246 0.06563351 0.06275063 -0.12898795 0.0111875385 0.03145006 0.09272743 -0.034013413
-0.17577305 -0.101284124 -0.0587366 -0.014147624 -0.009150694 -0.2084804 0.08749601 0.04798276
-0.11891824 -0.19211012 0.031541962 -0.22412103 -0.19669285 -0.08385454 -0.07855345 0.2504239
-0.04792851 -0.18484731 -0.1323005 0.041042052 0.006578669 0.043515746 0.010734155 0.072195016
-0.10905056 -0.12167286 -0.08932425 -0.17265233 -0.08608864 -0.07170908 -0.12194862 0.0049261493
0.13645701 -0.061837196 -0.073285125 -0.14077957 -0.13791941 -0.010487659 0.051913295 -0.03771135
-0.012284671 0.021266744 0.033986807 0.12779397 -0.13333982 0.06545263 0.017352458 -0.009359295
0.10900128 -0.15701546 0.021954332 0.13759986 -0.0882851 0.0057555004 0.10187549 -0.14863797
0.08890287 -0.07675165 0.1018747 0.1711268 -0.021061534 0.060347516 0.074128345 -0.07203741
-0.030056408 0.08547062 0.037200093 -0.042920373 0.19341959 -0.06349623 -0.05962234 0.035043806
0.06758299 0.023965323 -0.06481302 -0.13368346 0.012505245 -0.15280834 -0.0018161292 -0.09591658
0.10526841 -0.11682194 -0.067965634 0.20312029 0.15894766 -0.06769835 -0.059529275 -0.009518559
00000000: ff8b 9bbe 453e 18bd bcf3 8c3d 56ce 693d
00000010: 613d 9c3c 05e4 3abe 9fc0 61be 97ea 063e
00000020: 7d44 d2bd 06c7 813e 2128 47bd b2cf 543d
00000030: 358b 303e 52f6 ad3e 6188 36be 4371 b8bd
00000040: 522a a6bd 2006 58bc 8be4 923c 69de 89be
00000050: 47e7 273e 81ef 373d 6f1e 21be 82f8 f1bd
00000060: 5bda 51bd 2fc7 643d 0536 e0bd 1f54 eb3d
00000070: 4944 2a3c 0df4 a5bc 4894 0ebd dca2 c23d
00000080: f397 5abc 05d6 133e d7a7 d5bc b613 08be
00000090: 95bc 5aba 92a0 933d 91f4 283d 8857 133f
000000a0: 3d4e fa3d ba87 b13c b0d3 c23c ee37 80bd
000000b0: 899d 9c3d 4fb0 ae3d a6c8 edbb d8f3 cebd
000000c0: 048f 2c3d 44e4 54bd 9603 f93c 8fbb 2e3c
000000d0: 97eb a73d 0790 173e ed29 0bbe 458b 763d
000000e0: 6fec bd3d edf8 3cbd 9318 963d bf4e e5bd
000000f0: 2891 0ebe 90b2 9abd 8852 a2bc ae9c 0dbe
00000100: 954d 4f3d c182 873c f3a5 bcbc 2a80 b6bd
00000110: 94e9 35bd 43d6 00bb c712 733d 986c fdbc
00000120: d217 85bb 9f02 f2bd 018e 913d d605 95bd
00000130: 6250 88bd f445 ab3c be73 b5bd 599f 26be
00000140: 4c06 dabd e258 e1bd 3a16 373d 778d 943c
00000150: d0a1 1abe abb2 3b3d 578f 613c b226 41be
00000160: 33a0 e1bc 7d24 e9bd f79a 8d3d b85a 953d
00000170: 150d 9fbd 287c 22be 2f1d b63c 2863 88be
00000180: 704b d6bc 9c4b 2ebc 31d4 3d3e 7541 a03d
00000190: 27eb 3d3e 0481 24bd 8767 113d 1e5d 7d3e
000001a0: 50dd cc3d 3c30 393c f0ab 4a3d fda2 063e
000001b0: 9663 7d3d 9912 563c 7b8d 18bc 5f39 783d
000001c0: 277a a13b d74a f2bb 664d 8ebd 313c 8d3d
000001d0: 2fba 83bc 7cbe 8fbd fd32 17be 1022 bc3d
000001e0: 12ff ae3c 76f3 833d ba80 56be 0c76 b3bb
000001f0: 6650 02be 7cb0 c2bc 92c4 17be dc25 8a3c
00000200: 5b40 263e b196 3bbd 2896 a83d 2e36 72bd
00000210: 7d2b 23bd 9688 fdbd 59db d43c eb4b 683d
00000220: dc5a a03d 0b45 a73b 1a33 3e3e bc0a d03d
00000230: ef2e 2d3e 3f5e bb3b ee06 d9bd 4330 4abe
00000240: 4ef6 9f3d 2f6f 123e c397 16be 095b 8dbd
00000250: c7a7 a33d e629 373d 028a a2be a6de 6bbd
00000260: 7c8d c73d adca cb3c 3726 453e 3de8 97be
00000270: 94eb 03be 6dae 483d 2fa4 85bd 0f02 89bc
00000280: f410 1dbd dd6a 863d 6783 803d 6b15 04be
00000290: f04b 373c c7d1 003d e1e7 bd3d a651 0bbd
000002a0: dafd 33be 0d6e cfbd ca95 70bd 70cb 67bc
000002b0: cbec 15bc e37b 55be 1c31 b33d 9289 443d
000002c0: 688b f3bd 84b8 44be 2532 013d fc7f 65be
000002d0: da69 49be eebb abbd a2e0 a0bd 9037 803e
000002e0: af50 44bd 9d48 3dbe c879 07be b61b 283d
000002f0: e091 d73b 913d 323d 4fde 2f3c fbda 933d
00000300: e655 dfbd 9f2f f9bd a2ef b6bd c6cb 30be
00000310: 3e4f b0bd 36dc 92bd 33c0 f9bd 896b a13b
00000320: 63bb 0b3e 0049 7dbd 8316 96bd 8528 10be
00000330: bf3a 0dbe 6ed4 2bbc 09a3 543d 3777 1abd
00000340: a545 49bc 9837 ae3c c035 0b3d 6cdc 023e
00000350: 3c8a 08be 070c 863d be26 8e3c ba57 19bc
00000360: 103c df3d a9c8 20be 92d9 b33c fae6 0c3e
00000370: d2ce b4bd a398 bc3b 19a4 d03d 8d34 18be
00000380: b512 b63d f82f 9dbd afa3 d03d dd3b 2f3e
00000390: 3d89 acbc f52e 773d 9ad0 973d 5a88 93bd
000003a0: db38 f6bc 380b af3d 205f 183d 46cd 2fbd
000003b0: c90f 463e 500a 82bd 8e36 74bd 188a 0f3d
000003c0: f368 8a3d ed52 c43c b0bc 84bd 51e4 08be
000003d0: cde2 4c3c ca79 1cbe 2f0b eeba e96f c4bd
000003e0: f796 d73d 5740 efbd 9131 8bbd c4fe 4f3e
000003f0: 2dc3 223e 6fa5 8abd f8d4 73bd bbf3 1bbc

graph_rnn.bias_ih_l0 f4 [192]
0.0764001 -0.1669501 0.040212568 -0.03358531 0.15805057 -0.12740739 0.11011226 0.05544127
-0.13022572 -0.058904067 -0.012247956 -0.16274387 -0.10992312 -0.014505822 0.106477 -0.13827845
-0.13665165 -0.03231484 -0.081370704 0.21222691 -0.019397592 0.090569906 0.05416032 -0.002427424
0.12563203 -0.33541584 0.06349074 -0.005083079 -0.13713266 -0.07441159 0.11747609 0.11047456
-0.08926239 -0.10073815 -0.10082612 -0.09379423 0.045361947 -0.047041982 -0.12121721 0.028006082
-0.118501864 -0.1638313 -0.07480089 0.053510632 -0.12104993 -0.11959077 -0.15716864 -0.050107226
-0.09267484 0.017547483 -0.043236315 0.060402233 -0.15916523 -0.014210486 -0.095410295 0.033299275
-0.03429749 0.024243435 0.007222712 -0.10447635 -0.004441401 -0.015618869 -0.07906343 -0.016844729
-0.21729165 -0.01674792 0.03993174 -0.024283722 0.05893297 0.029423047 -0.30343014 0.03887485
0.22904445 0.07659058 0.19017027 0.12234181 -0.18848975 -0.23431712 0.0076878737 -0.07349884
0.08826052 -0.7437546 0.14164826 -0.34091932 -0.06847844 -0.029385434 -0.056837562 0.026276018
0.04127307 0.14422952 -0.23140958 -0.0776492 -0.06555244 0.21554607 -0.0010954222 -0.15705337
0.11832165 0.14651188 -0.020139894 0.04767598 0.1625581 -0.039869584 -0.119403504 -0.80625474
-0.055120066 -0.11706561 0.1674965 -0.70887434 0.081766725 0.040055916 0.06506464 0.03491425
-0.26063973 -0.021205606 -0.13418499 0.04802542 -0.15474536 0.17612945 0.22024901 0.09156459
0.01587752 -0.13564351 0.23629403 -0.32164448 0.20972304 0.15680736 0.03620022 0.010009662
-0.027748892 0.011741052 0.008759204 0.03388919 0.06814464 -0.072497025 -0.1662418 0.05446788
-0.06814453 0.21296488 -0.11487555 -0.10794559 -0.0320594 0.1972545 -0.14374763 0.054807853
-0.01696787 -0.031652473 0.05356431 -0.17398643 0.110447414 -0.0099969255 -0.061911948 0.110451534
0.10513243 -0.1122577 -0.16676651 0.12659207 -0.022808129 0.04455657 -0.08113001 0.15499614
-0.0066903587 0.041961238 -0.15626585 0.1851443 -0.08923323 -0.19219196 -0.10063637 0.024667332
0.20698161 0.047360707 0.0034588517 -0.07886973 -0.022588026 0.22575444 0.11405523 0.023115154
0.017873205 -0.05116674 -0.029165518 -0.045319635 0.20925872 -0.04589649 -0.031787775 -0.045336884
-0.08459329 0.19225866 0.023187581 0.010678355 -0.020030744 -0.0689207 -0.0077349725 -0.059706774
00000000: a877 9c3d f8f4 2abe efb5 243d c090 09bd
00000010: 02d8 213e 1577 02be 8982 e13d 6316 633d
00000020: e459 05be 6445 71bd a7ab 48bc 54a6 26be
00000030: 5f1f e1bd d4a9 6dbc 9d10 da3d de98 0dbe
00000040: 69ee 0bbe 915c 04bd afa5 a6bd 0352 593e
00000050: b3e7 9ebc b77c b93d 36d7 5d3d 6b15 1fbb
00000060: afa5 003e a0bb abbe 6f07 823d f58f a6bb
00000070: 816c 0cbe 1b65 98bd 4e97 f03d 7c40 e23d
00000080: 33cf b6bd ce4f cebd ed7d cebd 3017 c0bd
00000090: 73cd 393d 18af 40bd bb40 f8bd 036d e53c
000000a0: 1bb1 f2bd 64c3 27be 3631 99bd f72d 5b3d
000000b0: 07e9 f7bd 01ec f4bd d1f0 20be 3c3d 4dbd
000000c0: 4ecc bdbd bdbf 8f3c 9018 31bd 5568 773d
000000d0: 36fc 22be 19d3 68bc 7966 c3bd d264 083d
000000e0: 867b 0cbd 2b9a c63c 80ac ec3b b2f7 d5bd
000000f0: 2c89 91bb 49e6 7fbc 02ec a1bd f5fd 89bc
00000100: b481 5ebe ef32 89bc 778f 233d a8ee c6bc
00000110: b363 713d 9a08 f13c 325b 9bbe 3c3b 1f3d
00000120: a18a 6a3e 86db 9c3d ffbb 423e 588e fa3d
00000130: 7503 41be d4f0 6fbe 8fea fb3b 8f86 96bd
00000140: eec1 b43d b466 3ebf 3e0c 113e fa8c aebe
00000150: 6d3e 8cbd b9b9 f0bc 81ce 68bd ce40 d73c
00000160: f30d 293d e7b0 133e a2f6 6cbe 8b06 9fbd
00000170: 5c40 86bd 1cb8 5c3e 4594 8fba 99d2 20be
00000180: 9f52 f23d 3607 163e 6bfc a4bc e347 433d
00000190: a175 263e 4a4e 23bd d389 f4bd b666 4ebf
000001a0: 94c5 61bd 18c0 efbd 3484 2b3e ca78 35bf
000001b0: 5075 a73d ac11 243d 9c40 853d 3f02 0f3d
000001c0: 9272 85be 61b7 adbc ca67 09be 4eb6 443d
000001d0: 9175 1ebe 475b 343e f588 613e 3786 bb3d
000001e0: 9311 823c 22e6 0abe 10f7 713e 96ae a4be
000001f0: a3c1 563e 1c92 203e af46 143d 91ff 233c
00000200: a551 e3bc 8b5d 403c c482 0f3c 64cf 0a3d
00000210: 6b8f 8b3d 5279 94bd 4a3b 2abe b619 5f3d
00000220: 5c8f 8bbd 7713 5a3e df43 ebbd 9412 ddbd
00000230: b850 03bd 15fd 493e 9432 13be 337e 603d
00000240: 3400 8bbc 06a6 01bd 4066 5b3d 8029 32be
00000250: 4132 e23d 25ca 23bc 6297 7dbd 6a34 e23d
00000260: ac4f d73d 5de7 e5bd d7c4 2abe 5aa1 013e
00000270: 1dd8 babc f380 363d 7e27 a6bd 4fb7 1e3e
00000280: cc3a dbbb 8cdf 2b3d 2804 20be 7896 3d3e
00000290: e9bf b6bd f8cd 44be 711a cebd 2513 ca3c
000002a0: fdf2 533e 4dfd 413d e7ad 623b 7486 a1bd
000002b0: 860a b9bc 2c2c 673e ca95 e93d fe5b bd3c
000002c0: d46a 923c 3794 51bd 86ec eebc 15a1 39bd
000002d0: eb47 563e f5fd 3bbd e633 02bd 2bb3 39bd
000002e0: 3f3f adbd 74df 443e e2f3 bd3c 44f4 2e3c
000002f0: 8417 a4bc 4c26 8dbd a775 fdbb 178f 74bd

graph_rnn.bias_hh_l0 f4 [192]
0.09667252 -0.118932486 -0.15175879 0.11833368 0.19990179 -0.18736805 -0.060997836 -0.0076012504
0.01657233 -0.14260036 0.054205574 -0.18746817 0.02770853 0.010558647 -0.020637993 -0.0054196795
0.032169517 0.0091543235 -0.008212346 0.03866058 -0.17921251 0.09884032 0.03525688 -0.043661505
0.10759729 -0.16294272 -0.090395376 0.0027143275 -0.15702485 -0.08369158 -0.058467582 -0.017714674
-0.041128088 -0.0206269 -0.11128768 -0.04259625 -0.09375831 -0.10636246 -0.25229678 0.11074586
-0.03751744 -0.0021115865 -0.10616213 -0.058609784 -0.015637556 0.00694738 -0.146889 -0.07744184
-0.017289706 -0.118177176 -0.088533446 0.07443508 -0.22780384 -0.026753813 0.06491555 0.054958466
0.018542698 -0.05013582 -0.09465626 -0.05998881 0.06423162 -0.09987254 0.09070134 -0.11699201
-0.057966813 -0.04801938 -0.08066059 0.009795844 0.047270145 -0.021057826 -0.22931127 0.08420107
0.07120792 0.03626144 -0.013825644 -0.032917082 -0.3072538 -0.2515555 -0.10283047 -0.08310279
0.17306775 -0.6032086 0.251727 -0.2570335 -0.10547968 0.052765317 -0.253961 -0.09459798
0.24218804 -0.004563742 -0.20826854 -0.011867121 -0.10913045 0.06776169 0.066719584 -0.074351475
0.0877885 0.12720074 -0.09801728 -0.105600275 0.030138923 0.0038999277 -0.2251492 -0.7297552
-0.14372633 0.022225881 0.16577186 -0.71412903 0.01201601 0.047435652 0.08889606 0.073933266
-0.21681184 0.10905712 0.0036182173 0.068710424 -0.119247586 0.15606199 0.18321064 0.013924506
0.12051366 -0.01653891 0.13011295 -0.37536937 0.13740645 0.022765212 0.20491606 0.06044725
-0.0046195067 -0.12769663 0.014531306 0.07362231 0.03935782 -0.16803953 -0.036541726 0.17427738
-0.09415943 0.041505218 -0.0015700578 -0.04273857 -0.033050645 0.2482624 -0.014816789 0.016201463
0.17030612 0.1852847 0.044165768 0.09359145 0.09570158 0.07179105 -0.086945355 -0.032424893
0.05560816 0.0054310905 -0.1706317 -0.08462171 -0.20409374 0.06859102 -0.007799296 0.16849717
-0.17439176 0.06208238 0.029183574 0.022057094 0.03347438 -0.083916195 -0.0723559 0.0665011
0.04239539 -0.14597361 -0.1295907 0.102875754 -0.15270996 0.035786472 -0.01801934 -0.082074024
0.05592936 0.10392312 0.0052359 -0.12670642 -0.0058948663 0.054063797 -0.0953693 -0.18281311
-0.14474046 0.10754483 0.1724338 0.26404852 -0.011268341 0.038635265 0.15134655 -0.13127483
00000000: 3efc c53d e092 f3bd a866 1bbe ee58 f23d
00000010: 0eb3 4c3e 69dd 3fbe ded8 79bd e913 f9bb
00000020: b2c2 873c d405 12be aa06 5e3d a8f7 3fbe
00000030: 00fd e23c 2dfe 2c3c 0211 a9bc 9197 b1bb
00000040: 2fc4 033d 04fc 153c 138d 06bc 8e5a 1e3d
00000050: 7c83 37be cb6c ca3d 8569 103d 68d6 32bd
00000060: f85b dc3d 75da 26be 3621 b9bd dce2 313b
00000070: 1fcb 20be 7e66 abbd b47b 6fbd 5d1e 91bc
00000080: ed75 28bd bff9 a8bc ccea e3bd 6879 2ebd
00000090: 5b04 c0bd 90d4 d9bd 0b2d 81be bace e23d
000000a0: e3ab 19bd 8b62 0abb 886b d9bd d010 70bd
000000b0: 551a 80bc d9a6 e33b 126a 16be d499 9ebd
000000c0: 24a3 8dbc e006 f2bd 0651 b5bd 6b71 983d
000000d0: 6945 69be d02a dbbc 72f2 843d 211c 613d
000000e0: dbe6 973c 385b 4dbd 24db c1bd d4b6 75bd
000000f0: de8b 833d f989 ccbd a0c1 b93d 8299 efbd
00000100: 9c6e 6dbd f8af 44bd 6131 a5bd bf7e 203c
00000110: 579e 413d 7681 acbc 93d0 6abe 9c71 ac3d
00000120: 75d5 913d e086 143d f484 62bc 10d4 06bd
00000130: 5f50 9dbe e2cb 80be c898 d2bd cc31 aabd
00000140: ac38 313e e16b 1abf 5de2 803e e599 83be
00000150: bb05 d8bd 7220 583d 2d07 82be 96bc c1bd
00000160: 2400 783e 718b 95bb 5944 55be 506e 42bc
00000170: c97f dfbd a4c6 8a3d 47a4 883d 9645 98bd
00000180: 75ca b33d e940 023e 49bd c8bd f544 d8bd
00000190: e7e5 f63c ee95 7f3b 838d 66be 3dd1 3abf
000001a0: ff2c 13be 0d13 b63c 19c0 293e 29d1 36bf
000001b0: ccde 443c e34b 423d 230f b63d 536a 973d
000001c0: ec03 5ebe 5759 df3d 9d1f 6d3b 0db8 8c3d
000001d0: 1438 f4bd b7ce 1f3e 929b 3b3e 9c23 643c
000001e0: decf f63d 9c7c 87bc 543c 053e 6a30 c0be
000001f0: 47b4 0c3e 1c7e ba3c 84d5 513e 8997 773d
00000200: 3b5f 97bb e8c2 02be b714 6e3c 4bc7 963d
00000210: aa35 213d 8e12 2cbe c7ac 15bd c575 323e
00000220: a9d6 c0bd 6001 2a3d 66ca cdba a40e 2fbd
00000230: 1d60 07bd 8038 7e3e 1ec2 72bc eeb8 843c
00000240: ba64 2e3e 46bb 3d3e 2ae7 343d e0ac bf3d
00000250: 31ff c33d 3007 933d 6810 b2bd f7cf 04bd
00000260: 62c5 633d 4af7 b13b 14ba 2ebe 264e adbd
00000270: f3fd 50be 7379 8c3d 3d91 ffbb 868a 2c3e
00000280: c193 32be 184a 7e3d 6412 ef3c 14b1 b43c
00000290: 6e1c 093d 41dc abbd 552f 94bd bb31 883d
000002a0: caa6 2d3d 1b7a 15be 6db3 04be 86b0 d23d
000002b0: 0060 1cbe d694 123d 4b9d 93bc 6d16 a8bd
000002c0: 2f16 653d a5d5 d43d ea91 ab3b 54bf 01be
000002d0: b929 c1bb 0072 5d3d fb50 c3bd 5c33 3bbe
000002e0: d836 14be 7740 dc3d 7c92 303e 5e31 873e
000002f0: d99e 38bc 0340 1e3d 97fa 1a3e e96c 06be

graph_rnn.weight_ih_l1 f4 [192, 64]
-0.15243097 0.103720106 0.029003004 0.2625527 0.054260757 0.461401 -0.3111702 0.3880779
0.084731616 0.32547367 -0.14145437 0.06345174 -0.40461093 0.31942773 -0.3238705 -0.33563104
0.10708105 -0.12566178 -0.029257823 0.6497186 -0.5468036 -0.13707972 -0.021307964 -0.046124987
-0.3798187 -0.02687789 -0.14620918 0.005546914 0.30691805 0.12896173 -0.0036185323 0.113686346
-0.23638783 -0.060650505 -0.1716148 0.20424177 -0.18806577 -0.18748933 -0.8696306 0.30201325
0.25766566 -0.11805986 -0.29701278 0.08622564 -0.34310278 0.054503046 0.15868053 0.13943249
0.8166437 0.05182756 -0.06483384 0.10507768 0.4276034 -0.17607555 -0.11525315 -0.45873404
-0.44195652 0.1982142 0.3553761 0.24479665 0.32672864 -0.5224431 0.15307173 0.1739844
-0.33218807 -0.14012648 0.0043905736 0.11475582 -0.031994026 -0.062817715 -0.10079019 -0.20381847
0.07459279 -0.22496593 0.051888797 -0.06060541 0.041705362 0.05688684 0.054403193 0.41259477
-0.09495566 0.5640944 -0.2008549 -0.12073502 0.17451908 -0.035470605 -0.10778868 0.11385644
-0.1431538 -0.25411937 0.08907204 0.05913141 -0.051810984 -0.08632856 0.16911556 0.11472156
0.035928987 -0.0150786545 0.15551746 0.0462487 0.0322124 0.093274914 0.1069609 -0.26554173
0.09776936 0.14552146 0.17051746 -0.71598643 0.033866417 0.082237445 -0.04828585 -0.09477376
-0.25054106 -0.24691147 0.23990689 0.03599134 0.14036195 -0.20940796 -0.024102846 0.16359873
-0.0410769 -0.15171659 -0.15092543 0.12716508 -0.13085586 0.053517174 0.032612894 -0.1357707
0.7628862 -0.11009263 0.23532954 -0.28592566 -0.10793667 -0.25543827 -0.13263652 0.05241911
-0.052829877 -0.17652635 0.14125802 0.14910337 0.2583423 -0.5514481 0.99764127 -0.8991734
-0.19948624 -0.19176239 0.07586576 -0.3954675 0.23580743 0.34334302 0.14863624 0.20493536
0.50604033 0.35779563 0.31393003 -0.08636463 0.95754516 -0.22210065 -0.14884369 -0.65381444
0.4606584 0.21553673 0.087703004 -0.124137565 0.33407834 0.054350466 0.2093572 0.29247242
-0.21133168 -0.0091543235 0.2467261 0.4253116 0.22720148 0.049788065 0.007229645 0.20846662
-0.44884682 -0.116182104 -0.20374924 -0.10614433 0.1977061 0.7220786 0.03880088 0.17487799
0.060852222 -0.03517677 -0.32506853 -0.53822803 -0.36559045 -0.3539167 -0.4334539 0.19804321
0.4317181 -0.029854016 -0.055587757 -0.1017204 0.082376845 -0.0886022 0.16692002 0.07990368
0.04063332 0.20115729 -0.116863996 -0.18783161 -0.29516086 -0.08276624 -0.34084588 -0.1322038
-0.068555236 -1.4060858 0.019222574 0.25568354 -0.035959233 -0.13903525 -0.116903745 0.14592382
0.025445223 -0.15781832 -0.21179982 -0.24970114 -0.15673192 0.15790164 -0.16781522 -0.04605213
0.055739217 0.18636592 -0.3690505 0.24213114 -0.0733557 -0.13177508 0.19962084 0.15780477
-0.08287222 -0.053666826 0.06867718 -0.121699475 -0.041281804 0.04041643 0.43672448 0.14081836
-0.04039716 -0.29907933 -0.097210005 -0.03371516 -0.23643722 -0.40114373 -0.10337428 -0.08692821
-0.116708905 0.129363 -0.054578666 0.49428672 -0.12786862 0.07730167 -0.0010168583 0.069044024
00000000: dd16 1cbe 356b d43d b597 ed3c 4f6d 863e
00000010: 8740 5e3d c03c ec3e b351 9fbe 26b2 c63e
00000020: c587 ad3d 7ca4 a63e 6ad9 10be fcf2 813d
00000030: 2a29 cfbe 088c a33e 5bd2 a5be d5d7 abbe
00000040: 4f4d db3d 7bad 00be 1aae efbc f553 263f
00000050: 52fb 0bbf a05e 0cbe 0a8e aebc 8eed 3cbd
00000060: 9977 c2be 052f dcbc dcb7 15be e3c2 b53b
00000070: 5d24 9d3e 8b0e 043e e624 6dbb 63d4 e83d
00000080: a70f 72be aa6c 78bd cabb 2fbe c124 513e
00000090: 5094 40be 34fd 3fbe 1ca0 5ebf 7ba1 9a3e
000000a0: c1ec 833e 5ec9 f1bd 0f12 98be 1197 b03d
000000b0: 2bab afbe 963e 5f3d 267d 223e 64c7 0e3e
000000c0: 900f 513f 2349 543d 9bc7 84bd f732 d73d
000000d0: d5ee da3e 264d 34be d809 ecbd 30df eabe
000000e0: 2048 e2be aaf8 4a3e dbf3 b53e f9ab 7a3e
000000f0: fa48 a73e d5be 05bf d6be 1c3e f728 323e
00000100: 8e14 aabe 517d 0fbe cdde 8f3b 1905 eb3d
00000110: 2b0c 03bd 93a6 80bd 166b cebd cab5 50be
00000120: 1bc4 983d 785d 66be 5989 543d 613d 78bd
00000130: 3ed3 2a3d 2d02 693d e2d5 5e3d 9f3f d33e
00000140: 1d78 c2bd 7e68 103f e8ac 4dbe ec43 f7bd
00000150: 21b5 323e a049 11bd 50c0 dcbd 912d e93d
00000160: e996 12be ef1b 82be 676b b63d c733 723d
00000170: c137 54bd 07cd b0bd a12c 2d3e 23f3 ea3d
00000180: 462a 133d 760c 77bc f83f 1f3e 476f 3d3d
00000190: 26f1 033d eb06 bf3d 510e db3d 16f5 87be
000001a0: 4d3b c83d 9403 153e 219c 2e3e e34a 37bf
000001b0: 83b7 0a3d 1b6c a83d 62c7 45bd bf18 c2bd
000001c0: eb46 80be 5cd6 7cbe 27aa 753e a86b 133d
000001d0: 0bbb 0f3e 0a6f 56be 5573 c5bc 6d86 273e
000001e0: 4040 28bd 985b 1bbe 328c 1abe 9037 023e
000001f0: 14ff 05be d334 5b3d 1995 053d 7907 0bbe
00000200: 834c 433f 3f78 e1bd 3afa 703e d964 92be
00000210: e70d ddbd cec8 82be ded1 07be 6cb5 563d
00000220: 2464 58bd 53c3 34be f1a5 103e 8eae 183e
00000230: 7145 843e b42b 0dbf 6b65 7f3f 3a30 66bf
00000240: 1f46 4cbe 5c5d 44be 825f 9b3d b77a cabe
00000250: 8177 713e a8ca af3e 1934 183e 93da 513e
00000260: dc8b 013f fd30 b73e 70bb a03e f0df b0bd
00000270: ae21 753f 5a6e 63be 7b6a 18be 6260 27bf
00000280: 6bdb eb3e a9b5 5c3e a29d b33d d63b febd
00000290: 510c ab3e 989e 5e3d bc61 563e f2be 953e
000002a0: 5567 58be 04fc 15bc c4a5 7c3e 71c2 d93e
000002b0: 81a7 683e 92ee 4b3d a8e6 ec3b 4678 553e
000002c0: 40cf e5be e2f0 edbd a4a3 50be 3362 d9bd
000002d0: 7873 4a3e 25da 383f aced 1e3d 3713 333e
000002e0: 2e40 793d 8415 10bd 626f a6be 50c9 09bf
000002f0: ac2e bbbe 9234 b5be abed ddbe d7cb 4a3e
00000300: 280a dd3e 6990 f4bc fdaf 63bd c952 d0bd
00000310: 31b5 a83d 1275 b5bd 15ed 2a3e 8aa4 a33d
00000320: 206f 263d 2dfc 4d3e 6456 efbd ee56 40be
00000330: 531f 97be 5981 a9bd 5a83 aebe 6f60 07be
00000340: b066 8cbd 9ffa b3bf a978 9d3c f4e8 823e
00000350: fd49 13bd 425f 0ebe 3b6b efbd 0e6d 153e
00000360: 8072 d03c 209b 21be 0de2 58be a8b1 7fbe
00000370: 557e 20be f8b0 213e c1d7 2bbe 29a1 3cbd
00000380: ce4e 643d b5d6 3e3e 30f4 bcbe 3af1 773e
00000390: 833b 96bd 0cf0 06be 6869 4c3e 9397 213e
000003a0: e9b8 a9bd bfd1 5bbd 9fa6 8c3d 933d f9bd
000003b0: 1c17 29bd b38b 253d 5a9a df3e b032 103e
000003c0: 7e77 25bd ed20 99be 0a16 c7bd e818 0abd
000003d0: 991c 72be b662 cdbe e5b5 d3bd 6b07 b2bd
000003e0: 1405 efbd bc77 043e e18d 5fbd 2613 fd3e
000003f0: feef 02be 5750 9e3d 1a48 85ba f466 8d3d

graph_rnn.weight_hh_l1 f4 [192, 64]
-0.06137914 -0.012945122 -0.025299262 -1.1801114 -0.010940893 0.122347206 -0.015940867 0.11200068
0.006924736 0.003129431 -0.03919439 0.020373983 -0.08991953 0.08589073 0.19624807 -0.0080263205
0.14434633 0.32585308 0.26936245 0.06794528 0.24463172 -0.20202047 -0.02257981 -0.23088431
0.12766187 0.33234268 -0.06735459 -0.18251494 0.14977787 -0.059931695 0.18961793 -0.20254219
0.38642806 0.33000103 -0.17999293 -0.16519289 -0.19244376 -0.07233259 -0.065522805 -0.032333508
0.32721543 0.06565913 -0.07692687 -0.09685348 -0.22250114 0.022998443 0.017538156 0.02736824
-0.21744809 0.26553145 -0.13307208 0.027975382 -0.03656498 0.038456224 0.14976741 -0.15804812
-0.22743608 -0.17105453 0.08913465 0.06724749 0.12533018 0.055322275 0.08147331 0.12710923
0.09786847 -0.020349985 -0.3170886 0.35974336 -0.017827086 -0.0016115753 -0.39583653 -0.1370346
-0.09564945 0.15275674 -0.0111711025 -0.087042816 -0.13954163 -0.07452517 0.050320625 0.022781752
0.16884251 -0.095590875 -0.11444023 -0.06669534 0.0020627044 0.21696186 -0.09862003 0.074122585
-0.06595077 0.01883602 -0.011149098 -0.38635635 0.054787967 -0.21739227 -0.07308713 0.27369145
-0.1723513 0.21022329 -0.0324525 0.06869507 0.12818502 0.057604562 0.120066635 0.004566023
-0.24318825 0.053969555 -0.0026112844 -0.29865006 0.5695426 -0.07263448 -0.013297833 0.11203476
0.18861401 0.02849834 0.24358717 -0.07803587 0.1243097 -0.013923344 0.067278676 0.0029271515
-0.1685595 0.2748449 -0.16690257 -0.11703597 -0.09782183 0.08341591 0.25715154 -0.15888108
-0.098276086 -0.22655715 -0.05179093 -0.3006883 0.3971315 0.20453452 -0.00066766574 0.03347149
0.24633361 -0.044124756 -0.19709522 -0.051802382 -0.278502 0.32162884 0.062699206 0.05674169
-0.18500228 0.13519524 0.026375473 0.077401236 0.20419359 0.009193156 -0.12719393 0.0012774898
0.24303168 0.2176589 0.013477217 -0.36288777 -0.11395488 -0.03305941 0.27134714 0.44201022
-0.37911147 0.09379046 0.061174225 -0.2913218 -0.13194634 -0.06342701 -0.16589221 -0.15876445
-0.07784114 0.18847743 -0.039806727 0.046631027 0.3070679 0.0745648 0.025006268 -0.31856683
-0.17568997 0.24333301 0.036407124 0.099836946 0.035956394 -0.5078007 0.096089564 0.070727475
0.22722039 -0.20319532 0.15025647 0.2832927 0.2906265 0.19522442 0.17828733 -0.0672543
-0.1476699 0.16196884 -0.30333263 0.6049758 0.15871684 0.0825232 -0.046454772 0.22669564
-0.2843643 -0.15441151 0.004823705 0.18817483 -0.118239895 -0.18088102 0.22108543 0.0140817575
-0.05118516 -0.09801982 -0.053681523 0.0567284 -0.15881874 0.019955777 0.07657044 -0.25275522
-0.040574174 0.29289556 -0.017350687 0.30079782 -0.04534733 -0.108231455 0.34366426 0.014518218
-0.41266707 -0.10059751 0.17224365 -0.19340473 -0.10399627 -0.24742281 -0.060036507 0.0895953
0.046000388 -0.14300887 0.21914785 -0.029844986 0.26848146 -0.0030822367 0.17268716 -0.08806861
0.024319991 0.17311291 0.04597092 0.16995345 0.02667821 -0.1130154 0.3201285 -0.05617377
-0.23904644 0.10369053 -0.02217022 0.20810856 -0.027830264 0.0987354 -0.0438677 -0.014046769
00000000: b168 7bbd c717 54bc 6640 cfbc e40d 97bf
00000010: 6e41 33bc 2c91 fa3d 6c96 82bc 9d60 e53d
00000020: e5e8 e23b 2417 4d3b 4c8a 20bd 57e7 a63c
00000030: bb27 b8bd 7be7 af3d 41f5 483e d480 03bc
00000040: 86cf 133e 37d6 a63e e0e9 893e e526 8b3d
00000050: bd80 7a3e 74de 4ebe 4bf9 b8bc f06c 6cbe
00000060: cbb9 023e d228 aa3e 34f1 89bd 32e5 3abe
00000070: 5f5f 193e f07a 75bd 342b 423e 3867 4fbe
00000080: e6d9 c53e e5f5 a83e 1150 38be 5328 29be
00000090: fa0f 45be 1c23 94bd d230 86bd 2470 04bd
000000a0: c888 a73e 4b78 863d d68b 9dbd 1e5b c6bd
000000b0: 57d7 63be 3b67 bc3c 2eac 8f3c 5c33 e03c
000000c0: b6aa 5ebe bdf3 873e 0c44 08be a12c e53c
000000d0: 29c5 15bd 4684 1d3d a15c 193e 5ed7 21be
000000e0: 01e5 68be eb28 2fbe 3a8c b63d 0db9 893d
000000f0: 8e56 003e 9c99 623d 7bdb a63d ec28 023e
00000100: 446f c83d 03b5 a6bc 7059 a2be 4830 b83e
00000110: 1c0a 92bc 7e3b d3ba 16ab cabe cc52 0cbe
00000120: dce3 c3bd 436c 1c3e 0007 37bc 8143 b2bd
00000130: 00e4 0ebe a7a0 98bd 001d 4e3d cca0 ba3c
00000140: 0de5 2c3e 26c5 c3bd a45f eabd 9197 88bd
00000150: 702e 073b 402b 5e3e 4cf9 c9bd 95cd 973d
00000160: 3311 87bd ff4d 9a3c b5aa 36bc 80d0 c5be
00000170: 5969 603d 149c 5ebe b5ae 95bd 4921 8c3e
00000180: dc7c 30be c644 573e eaec 04bd 00b0 8c3d
00000190: ef42 033e c3f2 6b3d 7fe5 f53d 949e 953b
000001a0: 5706 79be 2e0f 5d3d 1522 2bbb a9e8 98be
000001b0: 8bcd 113f 63c1 94bd 27df 59bc 7b72 e53d
000001c0: 0824 413e 5a75 e93c ea6e 793e 45d1 9fbd
000001d0: 1696 fe3d bd1e 64bc 67c9 893d 74d5 3f3b
000001e0: dd9a 2cbe 79b8 8c3e 82e8 2abe 8eb0 efbd
000001f0: d056 c8bd f6d5 aa3d 5ea9 833e b9b1 22be
00000200: f944 c9bd 99fe 67be ba22 54bd d1f3 99be
00000210: d254 cb3e 7f71 513e 4a06 2fba 6719 093d
00000220: e13e 7c3e 29bc 34bd 54d3 49be bc2e 54bd
00000230: d097 8ebe 89ac a43e 7168 803d f969 683d
00000240: 3d71 3dbe 9f70 0a3e 6011 d83c 8a84 9e3d
00000250: 2018 513e e49e 163c 203f 02be 7271 a73a
00000260: 4cdd 783e fae1 5e3e 8ccf 5c3c 6dcc b9be
00000270: 2d61 e9bd 4e69 07bd 03ee 8a3e 2a4f e23e
00000280: e61a c2be 3615 c03d d391 7a3d 2228 95be
00000290: f11c 07be 05e6 81bd a6df 29be 2693 22be
000002a0: 2d6b 9fbd 3a00 413e 610c 23bd 2d00 3f3d
000002b0: 0138 9d3e 6eb5 983d f2d9 cc3c 311b a3be
000002c0: 12e8 33be 4a2c 793e a31f 153d 5077 cc3d
000002d0: 0347 133d 3aff 01bf 9bca c43d 91d9 903d
000002e0: 76ac 683e 6f12 50be d5dc 193e be0b 913e
000002f0: ffcc 943e e9e8 473e f490 363e 9fbc 89bd
00000300: c736 17be 29db 253e 6a4e 9bbe b2df 1a3f
00000310: ab86 223e ec01 a93d 5c47 3ebd e722 683e
00000320: 3398 91be 0d1e 1ebe 2c10 9e3b e7b0 403e
00000330: c227 f2bd e038 39be 3864 623e 2cb7 663c
00000340: 88a7 51bd 9ebe c8bd 28e1 5bbd 0a5c 683d
00000350: 61a1 22be 4c7a a33c f6d0 9c3d 2269 81be
00000360: 1b31 26bd 68f6 953e 0723 8ebc 2c02 9a3e
00000370: 1fbe 39bd 74a8 ddbd c3f4 af3e d2dd 6d3c
00000380: 1949 d3be 1106 cebd a460 303e e40b 46be
00000390: fffb d4bd 685c 7dbe d7e8 75bd be7d b73d
000003a0: e76a 3c3d eb70 12be 4b68 603e 797d f4bc
000003b0: 6776 893e 5aff 49bb e7d4 303e 515d b4bd
000003c0: b83a c73c 8344 313e 014c 3c3d 4708 2e3e
000003d0: 438c da3c 9e74 e7bd e2e7 a33e 7816 66bd
000003e0: 97c8 74be b35b d43d 529e b5bc 691a 553e
000003f0: 4bfc e3bc c935 ca3d 9eae 33bd 6b24 66bc

graph_rnn.bias_ih_l1 f4 [192]
-0.006956977 0.07904938 0.07165708 0.22454682 -0.06839741 0.113358125 0.16679731 -0.1300364
0.0013258186 0.09379904 -0.07089515 0.01596895 0.10065252 0.11214081 0.022543862 0.0562019
-0.000130144 0.11734391 0.23956648 0.021285439 -0.049335208 -0.043805495 -0.002614068 0.17416094
0.14089558 0.20347735 0.116490744 0.19731146 -0.10220826 -0.015555979 0.054609105 0.16942859
0.014501772 0.10592259 -0.09057226 0.19058436 -0.022821752 0.13662115 -0.03924282 0.2161117
0.042143796 -0.15431683 -0.21226904 0.1171139 -0.000929562 -0.24010111 0.0154809905 -0.034434628
0.23787862 0.074444406 -0.15681346 0.06973159 0.0011117861 -0.06427685 0.14477688 0.008123778
-0.08236314 0.050655957 0.09887114 0.07192822 0.014321129 -0.23571615 -0.048341244 0.08687043
-0.021816999 -0.17000867 -0.14275719 -0.37063387 0.043514855 0.05738768 -0.17948937 -0.25266892
-0.20646752 0.049336404 -0.037331816 -0.16575968 -0.09839262 -0.2836749 -0.31137827 0.14681368
-0.23473087 -0.0006695238 0.053984985 -0.043875527 -0.1065074 -0.2625497 -0.03388733 -0.023910303
0.023528552 -0.07047457 -0.024009489 -0.39999947 -0.13970245 -0.13624798 0.07718242 0.075209096
-0.24020132 -0.09827669 -0.14758056 -0.063749015 -0.12726359 0.12554842 0.12845823 -0.28829315
-0.09894656 0.013673464 0.0022414352 -0.2620521 0.04490271 0.06974034 0.043944128 0.123547606
-0.16526066 -0.19608904 0.13386105 -0.04821711 -0.20121409 0.057423625 0.04590983 0.009617667
-0.27501407 -0.07413316 -0.11308211 -0.14032423 0.07236381 -0.18754335 -0.19912446 -0.0964166
-0.10309388 0.08594073 0.06978376 0.09085371 0.05677552 0.15452363 -0.022878127 0.004646138
0.0021467973 -0.23024301 -0.06758455 0.052372016 -0.07112037 -0.01358306 -0.16956693 -0.19942503
-0.15701212 -0.06557962 0.29402614 0.13163057 0.06098094 -0.15762092 0.10689163 -0.047733597
-0.015099 0.3269642 -0.011939705 0.1002263 0.019704461 -0.11606986 0.14863288 0.023005003
0.14124802 0.0703216 -0.13265915 0.008179411 -0.11346929 -0.19130258 0.08015703 0.01170187
0.006503026 -0.0087264795 -0.030422254 0.13597894 -0.18732932 -0.042023897 0.07254047 -0.07554156
-0.15221678 -0.05674543 -0.05512057 -0.03857262 0.02969232 0.03146092 0.30107787 -0.09482883
-0.12851222 0.01957354 -0.097327694 -0.03880927 -0.00044927362 -0.020586476 -0.033132676 0.1688128
00000000: 5af7 e3bb a4e4 a13d f2c0 923d 9aef 653e
00000010: f113 8cbd 4e28 e83d eacc 2a3e 4328 05be
00000020: 17c7 ad3a b619 c03d 7a31 91bd 51d1 823c
00000030: e922 ce3d 15aa e53d e8ad b83c f733 663d
00000040: 4477 08b9 0152 f03d ea50 753e cd5e ae3c
00000050: b713 4abd 646d 33bd c950 2bbb 3f57 323e
00000060: ee46 103e 5e5c 503e b392 ee3d 040c 4a3e
00000070: 9052 d1bd 81de 7ebc ccad 5f3d b07e 2d3e
00000080: d798 6d3c f1ed d83d f37d b9bd 8c28 433e
00000090: aff4 babc 6ae6 0b3e 14bd 20bd 634c 5d3e
000000a0: f99e 2c3d 3b05 1ebe 0e5d 59be 6ad9 ef3d
000000b0: daad 73ba 11dd 75be fba3 7d3c 530b 0dbd
000000c0: 7496 733e 4f76 983d b593 20be 70cf 8e3d
000000d0: 5ab9 913a 95a3 83bd 6440 143e 9819 053c
000000e0: 02ae a8bd 9f7c 4f3d f47c ca3d 1a4f 933d
000000f0: 2ba3 6a3c 935f 71be 7801 46bd 20e9 b13d
00000100: 90b9 b2bc c116 2ebe f12e 12be b9c3 bdbe
00000110: a23c 323d 580f 6b3d 10cc 37be d25d 81be
00000120: 396c 53be f814 4a3d 3fe9 18bd e8bc 29be
00000130: 1282 c9bd d63d 91be f96c 9fbe 5356 163e
00000140: 4a5d 70be fb82 2fba 5c1f 5d3d d3b6 33bd
00000150: 8d20 dabd ea6c 86be 71cd 0abd 8adf c3bc
00000160: f3be c03c f954 90bd 8caf c4bc bbcc ccbe
00000170: 290e 0fbe 9784 0bbe d111 9e3d 3a07 9a3d
00000180: 56f7 75be 4a45 c9bd 5c1f 17be d88e 82bd
00000190: 6351 02be c48f 003e 8e8a 033e 299b 93be
000001a0: 7ea4 cabd aa06 603c 0be5 123b b12b 86be
000001b0: e7eb 373d 06d4 8e3d c2fe 333d 8706 fd3d
000001c0: 173a 29be 91cb 48be df12 093e 4e7f 45bd
000001d0: 110b 4ebe 0935 6b3d f20b 3c3d 6b93 1d3c
000001e0: a5ce 8cbe 20d3 97bd 9897 e7bd 28b1 0fbe
000001f0: 7a33 943d 5d0b 40be 48e7 4bbe 1176 c5bd
00000200: e222 d3bd b201 b03d caea 8e3d 8311 ba3d
00000210: 738d 683d 713b 1e3e e96a bbbc a13e 983b
00000220: 48b1 0c3b d3c4 6bbe c569 8abd 0a84 563d
00000230: 8ea7 91bd 7c8b 5ebc f4a2 2dbe 1336 4cbe
00000240: c9c7 20be 9c4e 86bd 988a 963e 2aca 063e
00000250: 26c7 793d 6167 21be 00ea da3d 4e84 43bd
00000260: cc61 77bc da67 a73e c19e 43bc 7243 cd3d
00000270: 406b a13c 09b6 edbd 3833 183e fd74 bc3c
00000280: 52a3 103e c504 903d cdd7 07be f002 063c
00000290: 9662 e8bd d3e4 43be 5e29 a43d 33b9 3f3c
000002a0: 5617 d53b 82f9 0ebc 1738 f9bc 103e 0b3e
000002b0: 42d3 3fbe 4021 2cbd 1990 943d 89b5 9abd
000002c0: b7de 1bbe e56d 68bd 1bc6 61bd 53fe 1dbd
000002d0: 4f3d f33c 2add 003d e126 9a3e 9e35 c2bd
000002e0: b598 03be b058 a03c be53 c7bd 78f6 1ebd
000002f0: 7c8c ebb9 f8a4 a8bc 21b6 07bd 43dd 2c3e
