graphrnn_v2/experiments/reproduction/ego_small/ego_small/model_at_2800.pt (torch, 420155 bytes, 43 tensors)

adj_embedding.0.weight f4 [32, 15]
00000000: 5714 d5bc b16a afbd 9ae2 4ebd 8072 a6bd
00000010: 273c 1b3f 7a49 0abe c5ee b2be 50c2 d13e
00000020: 0c9f 373e 6beb 633e 6269 c23d 1612 9f3d
00000030: c886 a1bd 37f9 e3be 0176 44be b8ee 6ebe
00000040: bae8 d33e a199 153e d9b0 02bf 2f1e b93e
00000050: bd7f 063f 1a94 b4bd dfe0 d33e 4d2b fa3e
00000060: 8dc5 523b 41e4 623e 4c71 99be 101c b4be
00000070: f7ac 723f f050 90be 6958 1e3f dbb8 423e
00000080: 13f6 c3be 40cd ee3e 103e 603e 04c6 3ebf
00000090: e185 e7be 0f6a a6be 547f 24bf aaac bebe
000000a0: 2d3f 8abe 30ba acbe 974b 96be 6a9c f9be
000000b0: 9bf7 4cbf 0750 9c3e 6cb1 edbd 7345 1b3f
000000c0: 4f49 143f c293 86bd f843 1b3e 05fe acbd
000000d0: 3e2c 85bd 7023 f5bd e806 63be 796e 393d
000000e0: a45a 90be 31b5 4bbe 8dcf 2abf 553b 43be
000000f0: 5e28 4f3e 35ad 823e fff2 ae3e a0f4 043e
00000100: 83f8 6f3e 9aa8 07be 1fdc 283e db38 cb3c
00000110: 7a3e d73d 367b 243e 097d 973d 64af 1c3e
00000120: 291a d83e 9cb4 4ebe 6d19 65bc bbe1 3abe
00000130: c3a1 453f ebbd 4e3d e384 01bf 6203 a1be
00000140: 6026 82be 381d 8cbe f347 bf3e 22c5 9a3e
00000150: 90e6 633e 2dd9 9c3e 35ee 1cbe da5b 163e
00000160: c026 9f3f 88d2 aebd 4dda 243f 4c95 7c3e
00000170: 0875 c23b 1ab9 023d 7044 3d3e 568a bc3e
00000180: c9c6 a43c eb72 0c3f bd6b 9abe df1c a7be
00000190: 5b8c 20bd f432 96bd d788 ce3c 9a0d 0bbf
000001a0: 1c02 efbd 6067 693e 3bc3 85be 1131 01bd
000001b0: a38e 633e 8f18 053f e646 ea3e 67bc 29be
000001c0: 50b0 8cbe 5a50 85be dc94 0bbe f885 e3bc
000001d0: 5f7e 2b3f 3838 3b3e 7ee8 14bf e492 2f3e
000001e0: 8c75 d2bd 0577 b93e 3b16 76be 3bc0 58be
000001f0: 986e 133d 42e7 6dbe e380 cdbd 26e5 adbd
00000200: 1cfc 66bc f596 0d3e 2009 98bc e65e b2bb
00000210: b777 2f3e 7e48 9a3d 188d 34be 643a e73d
00000220: c156 adbe 3d86 c6be 7ce5 803e 71d7 07bd
00000230: 5d5d 233e 922e 283f ea47 043d c977 fdbd
00000240: 9fd2 d53e e058 693e a7f7 f6be 27a7 06bf
00000250: f49a dc3e 2f86 dabe ea62 28bc b720 08bf
00000260: 0e4e a13e 35e4 283f f19d f9bd ff1e cfbd
00000270: e2c1 c5be f9eb 503e d6e2 6abe cb6d b7bd
00000280: 7d60 06be c890 ff3d cc6c 8b3f f8c6 fcbe
00000290: 8ba3 92bd 6f4d 1ebd 5f8e de3d dc92 8f3c
000002a0: 32f4 d6be 58b8 503e f6fe c43e f49c 583e
000002b0: 8b2c 2b3e 275c 9dbe 262a 84be f8d5 da3d
000002c0: 7ee6 3f3f 9db6 233f 5a57 f4bd ca67 b23d
000002d0: 3ba0 21bd 7d3e 0d3b 0578 25be cf34 cb3e
000002e0: 83e4 debc 91bf 93be 512a e8bd eb4b 12bd
000002f0: 1081 b23d 3123 023e 0945 5e3f b8ba 5fbf
00000300: dcd6 42bf 85bc edbe c1bd 803f 173a 9f3c
00000310: 8781 a33e 985a 3bbe 8e35 c9bd 7604 8e3e
00000320: 4012 553e 0ed0 7abe 668a 55bd 1d09 82be
00000330: 2ccb dabe fb5b 2dbd 644f 5a3f 0c3c 0abd
00000340: 1b93 1dbe b1c0 9b3e 4581 203f a0d3 af3d
00000350: a253 5abe c16c 1f3d 5c1b a6be 2a6a 16bd
00000360: 6abd 0bbf 6a08 33bf 39b8 32bf 3ba6 83be
00000370: b4e7 1cbf 8035 1dbe be5b 3cbf 7fde c0be
00000380: 73e7 63bf 5360 ec3e d8b1 543e fab6 bfbd
00000390: 3bef 6abd b0d1 0d3e 240b 0a3c d313 59be
000003a0: 6783 893d a50b 78be 301d 99be 26a3 4dbe
000003b0: 96cc f03e e0d1 0a3f a2ec 95be 9e45 3b3e
000003c0: 8ff2 29be 36ac 0dbe a746 03be c0f6 3d3c
000003d0: 9934 eabd 7554 8e3d 76c7 c53d 5cd1 1b3e
000003e0: 5ec0 00be 0887 cf3d d17f 1cbe 7b30 463f
000003f0: 5f74 9e3e 3bf0 9b3e 1d3e c43e ca52 fa3e
-0.026010675 -0.08565272 -0.050509073 -0.08127308 0.6063866 -0.13504592 -0.34947792 0.4096856
0.17931765 0.22257774 0.094927564 0.077671215 -0.078870356 -0.44526073 -0.1918564 -0.23333251
0.41388494 0.14609386 -0.510511 0.3615584 0.52538663 -0.08817311 0.413825 0.4886116
0.0032161206 0.22157384 -0.2996925 -0.3517766 0.94795173 -0.2818675 0.61853653 0.1901583
-0.38273677 0.46640968 0.21898675 -0.745209 -0.4521933 -0.3250279 -0.6425679 -0.37241107
-0.27001324 -0.337358 -0.29354545 -0.48752147 -0.80065316 0.30529806 -0.11606106 0.60652846
0.5792436 -0.06571151 0.15162647 -0.08446888 -0.06502579 -0.1196965 -0.22170603 0.04527137
-0.28194153 -0.19893338 -0.6672295 -0.19065602 0.20230243 0.2552277 0.34169766 0.12983942
0.23434643 -0.1324791 0.1649022 0.024807384 0.10509963 0.16062626 0.073968954 0.15301281
0.4220746 -0.20186085 -0.013983113 -0.18250172 0.77199954 0.05047409 -0.50593394 -0.31447893
-0.25419903 -0.27366042 0.3735958 0.30228525 0.22255921 0.30634442 -0.15325244 0.14683476
1.24337 -0.085362494 0.643956 0.24666327 0.0059343614 0.031914808 0.18483138 0.36824292
0.02011432 0.5486285 -0.30160323 -0.32639214 -0.039196353 -0.07333937 0.025211735 -0.5431763
-0.11670324 0.2279334 -0.26125512 -0.031540934 0.2222238 0.519906 0.45757216 -0.16575776
-0.27478266 -0.26037866 -0.13631004 -0.027773842 0.669897 0.18283165 -0.58167255 0.17145878
-0.102763265 0.36223617 -0.24031918 -0.2116708 0.035994142 -0.23232749 -0.10034349 -0.08490972
-0.0140981935 0.13827117 -0.018559039 -0.0054434417 0.17135511 0.07533358 -0.17631948 0.11290434
-0.3385525 -0.3877429 0.25175083 -0.033164445 0.15953584 0.6569606 0.032295145 -0.12376363
0.41762254 0.2278781 -0.4823582 -0.52598804 0.4308697 -0.426805 -0.010277489 -0.5317492
0.31504864 0.65973216 -0.12188328 -0.10113334 -0.38624483 0.20402516 -0.22938094 -0.08956488
-0.13122745 0.12478787 1.0892577 -0.4937055 -0.071600996 -0.038648065 0.10866999 0.017526083
-0.4198318 0.20382822 0.3847577 0.21153623 0.1671621 -0.3073437 -0.25813407 0.106853426
0.7496108 0.6395052 -0.119307235 0.087112024 -0.03945945 0.0021552138 -0.16159065 0.39688727
-0.027208572 -0.2885709 -0.11336196 -0.035716932 0.08716023 0.12708737 0.8682409 -0.87394285
-0.761091 -0.4643289 1.0057908 0.01943688 0.3193476 -0.18296278 -0.09824668 0.27737778
0.20807743 -0.24493429 -0.05213394 -0.25397578 -0.42733133 -0.042324048 0.8527739 -0.03374867
-0.15388148 0.3042045 0.6269725 0.08585286 -0.21320966 0.038922075 -0.3244275 -0.03672234
-0.545859 -0.69934714 -0.6981235 -0.2571276 -0.6129105 -0.1535244 -0.7357749 -0.3766975
-0.8902504 0.4616724 0.20770967 -0.09361072 -0.057357054 0.1384952 0.008425508 -0.21198969
0.06714516 -0.24223192 -0.2990508 -0.20081767 0.47031087 0.54226494 -0.292821 0.18288276
-0.16596435 -0.13835225 -0.1281992 0.011594474 -0.114358135 0.06949703 0.09657185 0.15216583
-0.12573382 0.10133177 -0.15283133 0.77417725 0.3094816 0.3045672 0.3832864 0.48891288

adj_embedding.0.bias f4 [32]
00000000: 165c 2e3e 34e3 6a3e 0566 1e3d a2da ab3d
00000010: db6e d5be 8237 883e fa90 a8bc 3923 b53b
00000020: bed7 0cbe 7122 de3c 6124 653e 9a62 d43e
00000030: 7deb b13c 4d6c 033e d1b2 323e 8a56 ab3d
00000040: f0bc d53e f4b0 293d 6a30 97be 8b74 f73d
00000050: 43cb f8bd 382b cf3e 7f15 463c 7719 e83d
00000060: 7d16 0d3e 2a60 083d a19b f43b c11d b13c
00000070: e289 0dbd 6ec7 303e acd2 ba3d 4e94 1ebe
0.17027315 0.22938234 0.038671512 0.0839131 -0.4168614 0.2660485 -0.020576943 0.0055278805
-0.13754174 0.027116032 0.22377159 0.41481477 0.021718735 0.12834282 0.17451026 0.083661154
0.4174571 0.04142852 -0.29529124 0.12082776 -0.12148144 0.4046266 0.012090086 0.11332982
0.1377811 0.033294834 0.0074648415 0.021620633 -0.034555323 0.17263576 0.09122214 -0.15486261

graph_rnn.weight_ih_l0 f4 [192, 32]
00000000: f789 a7be a492 b9be 3d9c fd3e 04eb ae3c
00000010: bd9f 71be 36a7 29be bb1b 32be bb66 68be
00000020: 4a2d b73d 4fe4 a43d 30a8 ab3e c062 1abf
00000030: 2923 8f3f 9397 98be 18c6 20be 6abc 9cbe
00000040: 95b8 2abe 7378 ad3e b525 7b3e 3e08 a3bd
00000050: 4746 f73d 4524 263e 7eb7 b43e 37fb f1be
00000060: fe25 013e 7f4a fa3e 7b66 a0be 3f01 f23e
00000070: 732e 9c3e c6db f63e 71b3 80bf c5b5 043e
00000080: 69ea cbbe 9c0d d3be 8f9e 44be 3f70 243e
00000090: 537d 63bf f248 6cbf cf63 6ebe cfd0 a03e
000000a0: 9e85 ebbd c5e6 f2be 06e0 303f cd80 3e3d
000000b0: 80f7 3a3e f7cb b5be 3304 a83c 9307 94be
000000c0: 719d 863e e662 44bd e9fc 7ebe 1379 f2be
000000d0: ac53 55bf f3a1 1a3e d9b9 e03e 88c3 f3bd
000000e0: 54a1 5e3e dbde 0c3e 8fde 073f 3fc3 05be
000000f0: 4f9d a1bd be20 b73e 2d3f 1a3f f615 46bd
00000100: 0924 e13c d054 763d ddc7 d4bc c974 18bf
00000110: 2a2d 38be 9012 603e 08a2 51be 8410 8bbd
00000120: 8eda f73c 8614 31be 0bf1 9ebe f39e b9bd
00000130: 11bb 95bd a8b3 cb3d e3d4 15be a0a8 733d
00000140: f4a3 663e 3eb6 c7bb e408 32bf a7f1 e8bb
00000150: 5c71 64bd d141 04be cc19 a8be 9f89 ca3d
00000160: 6c83 dcbe 1626 bfbe e830 0bbd 839b aabe
00000170: d15c d13b 352d e5be 4e95 80be 1888 22bf
00000180: 47a2 d63c 13cf ebbe 711c 3cbe ee5f 883e
00000190: 8701 5a3e 9a0b b1be 1382 c9bd e882 61be
000001a0: fee9 0dbe 260a 2fbf 30fd 403f 6282 16be
000001b0: 9acf ff3e 8526 9abe 52de 16be 69bf d8bd
000001c0: 0e39 b7bd 802a 513e 5ceb 1a3f bf78 c8bd
000001d0: e4ae 04be faa5 b6bc 3f32 433e 1fb0 eabe
000001e0: c714 9a3e 9327 f13e 4ef0 b53d d307 8abe
000001f0: 1cce 1abe 4bc4 fb3e 3161 96be 80ec 9a3e
00000200: c55b ed3d 9c79 993e 7efa 35bd 3404 7f3c
00000210: 0560 2abe 7c69 113f e3eb 343e 031d 97be
00000220: 167d a53d 1dc4 85bd 51df b03d ebbf 8e3e
00000230: 33c5 f0bb e62d d73d 40ab 9c3d 9b04 6c3e
00000240: bf33 0d3e 80d8 02be 2e13 e83d 74ef ae3e
00000250: bcf9 763e 9e37 61be 1229 223e d22b 3ebe
00000260: 4192 e6be 51b2 c23b c749 49bd 5f4a c2be
00000270: 8e44 323f 2410 8d3e e87e 0e3e 0744 d73d
00000280: 9df4 3dbf c142 873c eda1 66bd af55 753e
00000290: 879a 223e 439b 9a3e 37dc 6ebd d81d b9be
000002a0: 2443 49bd ba03 103d e944 b7be 4f5e 29be
000002b0: 126f 89bc 457a 2fbd 10fa fbbd a56f cabc
000002c0: a91f 9bbc 1aed 10be 2cd6 423e 4b35 c33d
000002d0: 6769 a73d c760 01bf 0632 053f c6be cebe
000002e0: 56c4 89be 2386 273e 5cac 96bd 41b1 6bbe
000002f0: c37b 00bf 5c65 8c3e 866d c3bd 37f7 483e
00000300: 3801 acbe 535a 523e 3295 e0be 5d87 3abe
00000310: 6d25 abbe 0c73 3a3e 79ea 72be 9f2e 2cbe
00000320: ea7b 0c3e ac2b 9c3e f93d 20bf 102e 403e
00000330: 075f 80be 26fc b9bd ceb9 c1be b302 cfbd
00000340: 925f 203e 6f97 ddbe c0c9 c8be bebe dfbc
00000350: ac21 113d 858b dbbe 9bb9 573e 84e2 15be
00000360: 01f6 b7be 578e 11bf 718b 16bd 6702 21be
00000370: afa6 98bb b107 173e b7b1 aebe 62c5 a8be
00000380: 80a5 ddbe 4ee2 cabe 2174 1a3d d006 783e
00000390: 1322 de3d 89ba acbe f621 96be d2fe 84bd
000003a0: 60f2 e3bd 9fae 0b3a c8f9 203f a2d8 c6be
000003b0: 94d0 523f 048a c7be 4286 0fbe b4b2 32be
000003c0: 5cef 55be 773d 4e3e 0aec f83d ec27 e8bc
000003d0: b5bf cabd 2009 853d aaf6 c03e e28c ccbe
000003e0: 1a87 dc3d d19b 773e 2bf6 a83d bc1b 4c3e
000003f0: 1e52 013f 35d1 123f 7ef7 01bf 52b8 8c3e
-0.32722446 -0.3624469 0.49533263 0.021352299 -0.23596092 -0.16567692 -0.17393391 -0.22695439
0.08944185 0.08051359 0.33526754 -0.6030693 1.1182605 -0.29803142 -0.15700567 -0.306125
-0.16671975 0.33880958 0.24526103 -0.079605564 0.12073951 0.16224773 0.35296243 -0.47261974
0.12612149 0.4888496 -0.31328186 0.47266576 0.30504188 0.4821455 -1.0054761 0.12959965
-0.39827278 -0.4122132 -0.1920111 0.16058443 -0.88863105 -0.92298806 -0.23280261 0.31409308
-0.11500095 -0.47441688 0.6909183 0.046509553 0.18258476 -0.35507175 0.020509815 -0.2891203
0.26291993 -0.04794588 -0.24901165 -0.47357997 -0.833308 0.15100841 0.4389179 -0.11902529
0.2174123 0.13756888 0.5307397 -0.13062762 -0.07891332 0.35767168 0.6025265 -0.048360787
0.027483003 0.060139477 -0.025974208 -0.595532 -0.17985979 0.21882081 -0.20471966 -0.067902595
0.030255582 -0.17292985 -0.31043276 -0.0906352 -0.07311071 0.09946376 -0.14631991 0.059486985
0.2252348 -0.006094723 -0.69544816 -0.0071088853 -0.05577217 -0.12915732 -0.3283218 0.098895304
-0.43069017 -0.37333745 -0.033982188 -0.3332177 0.0063892384 -0.44761053 -0.2511391 -0.6348891
0.026200427 -0.46056423 -0.18370225 0.2663569 0.21289645 -0.34579164 -0.09839263 -0.22022593
-0.13858792 -0.6837486 0.75386333 -0.14698175 0.49963075 -0.30107513 -0.14733246 -0.105833836
-0.08946429 0.20426369 0.6051538 -0.097886555 -0.1295734 -0.02229594 0.19062136 -0.45837495
0.30093977 0.47100505 0.08883725 -0.26959094 -0.15117687 0.49173197 -0.29371026 0.3025856
0.11589769 0.29975593 -0.04442834 0.015564967 -0.16638191 0.5680158 0.17668109 -0.29514322
0.08080499 -0.06531546 0.08636344 0.27880797 -0.0073477267 0.10506801 0.07649851 0.23048632
0.13789271 -0.127779 0.11331783 0.34167063 0.24118704 -0.21993873 0.1583598 -0.18571404
-0.45033458 0.005941667 -0.049142625 -0.37947366 0.69635856 0.27551377 0.13915598 0.10511022
-0.74201375 0.016511323 -0.05630677 0.23958467 0.1587926 0.3019658 -0.058315482 -0.3615558
-0.049136296 0.035159804 -0.35794762 -0.16539882 -0.016776595 -0.042841215 -0.12303555 -0.02471144
-0.018935995 -0.14152947 0.19027013 0.09531649 0.08174401 -0.50538296 0.52029455 -0.40379924
-0.26907605 0.16359763 -0.07357094 -0.23016836 -0.50188845 0.2742108 -0.09542374 0.19625555
-0.3359468 0.20542268 -0.43863827 -0.182157 -0.3342699 0.1820795 -0.23722257 -0.1681466
0.13719144 0.3050207 -0.6259456 0.18767571 -0.250725 -0.090812966 -0.3783707 -0.10107937
0.15661457 -0.43279597 -0.39216423 -0.027312633 0.035432503 -0.42879882 0.21066897 -0.1463719
-0.35929874 -0.5685782 -0.036754075 -0.15723573 -0.004658542 0.14749028 -0.3411996 -0.3296309
-0.4329033 -0.39625782 0.037708405 0.24221349 0.10846343 -0.33736065 -0.29322785 -0.064939156
-0.11130214 0.000532845 0.62881136 -0.38837153 0.82349515 -0.38972485 -0.14016059 -0.17450982
-0.2089209 0.20140634 0.12154396 -0.028339349 -0.098998465 0.06495881 0.3768819 -0.39951235
0.10767956 0.24180533 0.08250078 0.19932455 0.50515926 0.57350475 -0.5076827 0.27484375

graph_rnn.weight_hh_l0 f4 [192, 64]
00000000: ec82 7ebe 917b babd 10f0 f2bc d99e 863e
00000010: 9702 c2bc 2c8f 27bc 4b00 123e 978a 46bd
00000020: 4b5e 84bd 921c 893d 8a40 0cbe 54d5 ca3c
00000030: 1221 0b3e 81e4 34be 9eda f6bd dd12 47bd
00000040: 827c b8bd 78fb 4dbd 0ba0 473e f3dd 64bd
00000050: 95e2 a43c ffdb d0bd 592c 0a3c e8d8 b4be
00000060: f733 d83d 64b7 463b a8e1 85be 392b aabc
00000070: 8f5e 2ebd 7a31 6f3e db9f ebba 622f 00be
00000080: 4beb 1abc 28ea 5fbe 51b7 c73d 1a70 9d3d
00000090: 26f6 45be 0457 24be a226 8abc f2d1 44be
000000a0: 25da 403d b342 f4bd d90c c5bc 4e98 f53d
000000b0: a15d d1bd c60f 353d f051 5fbd 3c1b eb3d
000000c0: 2cf8 333c edd3 23be d017 18bc 6ea0 fcbd
000000d0: 4f93 cabd 7809 a23d fe59 4ebd 6551 abbc
000000e0: acd8 113e b6d6 59be 7a1b 8d3e c74d 85bc
000000f0: 3fbd 333e 2ec2 82bd 008d 2ebd a0a6 b63d
00000100: 73c3 233e 2d84 043c 837f 303b 92be adbd
00000110: d3cb d2bc 73b2 9839 435d 08be 2a07 1e3e
00000120: 1d33 09be 370a 0d3e d09d 80bd 7a29 e23b
00000130: f85d de3d 795c c8bd f53a 54be f290 35be
00000140: ccee 39be 1497 3abe 1739 003e f64c 1dbe
00000150: 1078 db3c ad0a f8bd a6e8 dabd 776d 67be
00000160: 2ba4 383e 2272 cdbd 1188 ae3d 6cdf 88be
00000170: d61b de3d d452 37be 5740 823c 3f81 a03c
00000180: 7b78 c93d 7609 bfb9 4e63 883d f3c3 4cbc
00000190: 0698 c43d 4bd9 3abd 9b1b 623d e607 ddbd
000001a0: 823c f93d 05de 8b3d 2655 abbd 481c 9fbc
000001b0: a7f2 3ebe 11fe 12bb f2a1 39bd c9d2 15bd
000001c0: 2248 34be 4a21 85bd b75c efbb c561 0c3e
000001d0: 57c5 623d 7e66 3cbe 631a 1b3e 8309 52bd
000001e0: abe1 793d 845f 17bd a0e5 203b 9357 e2ba
000001f0: a6e7 42be f4b8 343e f71c d0bd 1073 1b3e
00000200: 76b6 c03c 11ff 633d 102f 973e 4160 013e
00000210: 850d e33d fa05 1cbd 26bc 16be cb21 4dbe
00000220: 7fff 4dbe 4779 30be 8775 a8bd 2e55 fb3a
00000230: 4cb4 0fbc 28af b23d d3b7 2e3e e720 373c
00000240: 73a7 87bd 864a 073b b9e8 4e3d a5f2 0abe
00000250: 1850 353e 861a 73bc d0ec 2e3e cd85 82be
00000260: efd9 18be 9b32 7fbd 6a12 2fbd 01af bebd
00000270: cbf2 0e3e 788c 643d e96b 67bd 7501 703e
00000280: d066 253d c8ff 00bc 965a 3f3d 274f a13e
00000290: 3626 b3be 16dd 503e e328 2a3e ec9a cf3c
000002a0: d273 7b3d c9d1 4c3c d1d1 13be 714d 983d
000002b0: 92e1 993e d051 07be 2804 d63d 301f 103e
000002c0: 7fe4 57bc d363 f1bd 2b1c ddbd 05c0 76bd
000002d0: e9ee f0bd 52cc e13d cd6c 57be 3f8d 8dbd
000002e0: 5230 893d 3045 0d3e 3fee 35bd cecb 753e
000002f0: ea18 443d ab46 c9be 086d 913d 1600 19bd
00000300: 2c0d 9d3d d721 d5bc c2e4 f53d 407f afbd
00000310: 9477 97bd f1de e13d 8c3f 03be 49fd aebc
00000320: fb1f 35be 4e25 a33e 39ed eb3d ede3 163d
00000330: 9472 0a3e dd2d 183e ebab f9bd 3e00 aebe
00000340: 2d46 e5bd 46da a8bb 382c 8cbd 2e60 dcbc
00000350: 780a 32bd 9073 06be 3f5c 05be 204f a4be
00000360: dbfd 073d 7528 5fbd e4c6 033d 1208 5dbe
00000370: d3a7 d0bc 4402 82bd 61ef 033e 12f7 0bbc
00000380: a16f e1bc b081 78bd 8be9 80be 5801 d0bd
00000390: f107 20be ffd7 17be 8833 90bd 1c87 283d
000003a0: fc94 38be 707b 3d3d 3562 2e3d f2f0 a13c
000003b0: 0359 8abe c351 d53d 843a 493e 37b6 21bd
000003c0: b972 00bd f25f 14be 8eff 1f3e 5436 b2bc
000003d0: 0714 b1bd 5676 d3bd 2fa9 4c3e 67dc a83d
000003e0: ea80 ae3c e3d1 463e cd37 6fbe 31b5 7c3d
000003f0: 6bc5 3dbd 96a8 8cbd 47b4 6c3d 9788 263d
-0.2485463 -0.091056 -0.029655486 0.26293066 -0.023682876 -0.010227006 0.14257924 -0.048472013
-0.064632975 0.066949025 -0.13696495 0.024759926 0.13586834 -0.17665292 -0.12053417 -0.048601974
-0.09008123 -0.050288647 0.19494645 -0.05587573 0.020127574 -0.10198211 0.008433425 -0.35321736
0.105567865 0.0030321712 -0.26148725 -0.020772563 -0.042570647 0.23358718 -0.0017976718 -0.12518075
-0.009455512 -0.21866667 0.09751762 0.07687397 -0.1933218 -0.16048819 -0.016864125 -0.19220713
0.04708304 -0.11926784 -0.024053978 0.119919404 -0.102229364 0.044204496 -0.0545215 0.11479804
0.010984462 -0.15998812 -0.009283021 -0.12335287 -0.09891378 0.07911962 -0.050378792 -0.020912835
0.1424281 -0.21273312 0.27560025 -0.016272439 0.1755266 -0.06384693 -0.042614937 0.089185
0.15992527 0.008088154 0.0026931472 -0.08483614 -0.025731957 0.00029124654 -0.13316827 0.1543242
-0.13398404 0.13773428 -0.062801 0.006901917 0.10857767 -0.09783263 -0.20725615 -0.17731073
-0.181575 -0.18221694 0.12521778 -0.1536139 0.026790649 -0.12111411 -0.106889054 -0.22600351
0.18031375 -0.10031535 0.08522046 -0.26732957 0.10845153 -0.1790269 0.01589982 0.01959288
0.09837433 -0.00036437408 0.06659566 -0.01249789 0.09599309 -0.045617383 0.055202108 -0.10792522
0.12169744 0.06829456 -0.0836585 -0.019422665 -0.18647252 -0.0022429267 -0.04532046 -0.036577974
-0.17605641 -0.0650049 -0.0073047536 0.13709171 0.05536398 -0.18398473 0.15146784 -0.051278602
0.06100623 -0.036956325 0.002455093 -0.0017268531 -0.1903368 0.17648679 -0.101617746 0.15180612
0.023524504 0.055663172 0.29528093 0.12634374 0.11086563 -0.038091637 -0.1472021 -0.20032422
-0.20116995 -0.17233764 -0.082255416 0.0019175166 -0.0087710135 0.08724815 0.17062311 0.011177278
-0.06623735 0.0020643785 0.05051491 -0.13569124 0.17706335 -0.014837867 0.17082524 -0.25492707
-0.14926885 -0.06230412 -0.04274217 -0.09310723 0.13959806 0.055798024 -0.056499396 0.23438056
0.040381253 -0.007873483 0.04671725 0.315057 -0.3499009 0.20396838 0.1661716 0.025342427
0.06138975 0.012501189 -0.14435507 0.07436646 0.3005491 -0.13214803 0.104500115 0.14074397
-0.013177036 -0.11786618 -0.10796388 -0.060241718 -0.117643185 0.11025299 -0.21037598 -0.06911706
0.066986695 0.13795924 -0.044416662 0.24003527 0.047875322 -0.39311728 0.07100874 -0.037353598
0.07668528 -0.026017113 0.12006523 -0.08569193 -0.073958546 0.11028851 -0.1281721 -0.02136101
-0.17687981 0.318644 0.11519856 0.03683846 0.1352027 0.14861245 -0.12190994 -0.3398456
-0.111950256 -0.0051529733 -0.068443716 -0.02690133 -0.043467015 -0.13130021 -0.1302347 -0.32091618
0.03320108 -0.054481942 0.0321721 -0.2158511 -0.02547065 -0.063480884 0.12884285 -0.008542793
-0.02751905 -0.060670555 -0.2517818 -0.10156506 -0.1562803 -0.1482849 -0.07041079 0.041144475
-0.18025583 0.046260297 0.042574126 0.019768212 -0.27021036 0.104159854 0.19651228 -0.039480414
-0.031359408 -0.14489725 0.1562483 -0.021754421 -0.08646398 -0.10325305 0.19986413 0.082451634
0.021301705 0.19416003 -0.2336113 0.061696235 -0.04633085 -0.06868093 0.057789113 0.040657606

graph_rnn.bias_ih_l0 f4 [192]
00000000: eb1c 0abe fc97 eebc e22f 7e3d 6536 84bd
00000010: c424 863e 20bf e1bd 16bd f03c 2e3e 2fbe
00000020: a56b 423d 30f4 6ebd 387e 84bd af09 8cbd
00000030: a800 0dbe 0064 473c b9b0 b3bc 08bb df3c
00000040: 920f 163e 606b 9d3d 592f 3dbe 3927 9bbd
00000050: b9e5 d63d e2e3 ae3d cb78 a23d c566 9bbd
00000060: dbbd 1dbd e63c 0a3e 8937 d93c 6854 d3bd
00000070: 6cf6 05be c092 cabd b5fc ffbd d8cf c4bc
00000080: 171f 8fbd 44c7 cfbd 8bd1 b2bd 6dfa da3d
00000090: 9cc2 673d e45f ce3d 2aa5 683e b075 df3c
000000a0: 9b6b fb3c 5ee1 b03c 6e4a 9f3d 6140 96be
000000b0: f04a a83d da23 d6bd ea8d d3bc 6f7c 05be
000000c0: 8b14 5b3d 55c2 39bd 2c90 8cbb 0f58 70bd
000000d0: 4250 8bbd f6ef cc3c e4ea c1bd e84a a0bc
000000e0: 2a7b 84bd fbbc 8c3d 6dca b63c f679 453e
000000f0: 74c2 903d b1e7 3ebe 5acf 0b3e 78c4 653e
00000100: 9850 18be acc0 20be 418a 15be 5a13 24be
00000110: 282b 37bd 63e2 be3d 4be3 6fbd 9720 74be
00000120: 7d8f 1bbd 7d48 8ebe 5e37 09be feb2 88be
00000130: 524b debd 2536 c2bc a95f a0bd 75db 74be
00000140: 5421 bfbd e201 00be c853 27bd d9c9 90bd
00000150: a560 28be cb1e cbbc 597e 53bc 3fd1 fdbd
00000160: ab89 20bd 0ee3 31be ad6f 77bd 2cf8 783c
00000170: 2ae4 73be b7f6 85be 6231 3abe 7e9f 38be
00000180: cb21 04be 3bf6 78bc 0241 35be b884 2bbe
00000190: d9d2 c2bd 58fa 66be 1274 14bd 2871 23be
000001a0: cbcd 8dbb 7953 33be f4e0 3abe 89b6 14be
000001b0: 3964 d5bd fa8d b83d ac8c 09be e4e8 37bd
000001c0: 7800 c1bd 5637 e0bd 2a38 21bd 95e5 84be
000001d0: cd05 f93c 36dc 51be 467f d4be 2056 b5bd
000001e0: d5fa 95be 5c09 dfbd b078 62be 2fab 04be
000001f0: 9574 38be 1d10 2dbd f803 8dbe 7933 91bd
00000200: f2cd 473e 610c 08be a29b 183e 4e7e c7bd
00000210: a2dc e33d a67e b4bd 092c 75bd 748f de3d
00000220: f1d2 cf3d 5a2d 6abe 7d2d 0dbe 3b0e 943c
00000230: 8a76 d53d 9056 2a3e a10a b1bc 6893 2cbe
00000240: ca19 9fbe eaf1 493e 4fec 823d ebcf e7bd
00000250: 1f81 ee3d 9fb7 a8bd d3e2 153e 8474 be3d
00000260: 7d9e 1c3e 65da 26bc 185a ce3d 89cf 0fbe
00000270: d756 8a3e 73c8 01be 3ca2 07be 7d40 813e
00000280: 73e7 32bc e495 023d 9eeb e73d 6f6b 6a3e
00000290: bee9 4abe f4ea 5fbc c1cd 053e eb26 e13c
000002a0: 8961 03be 1c68 5b3b 8f0f ffbd 75d4 3cbe
000002b0: 61c8 443e cd2b a4bd 255f 12bd ea18 b0bc
000002c0: 3c72 85be 1b63 e5bd 595f 973d 9559 fbbd
000002d0: b5ef 873d 9cfb 4b3e 08e0 78be 9701 a4bc
000002e0: 5861 14be 45fb 21bd 6b9e c83d bf44 3d3e
000002f0: ce55 093e b792 80bb 7c12 3e3c 8714 5ebe
-0.13487594 -0.029125206 0.062057383 -0.064556874 0.26199925 -0.11022782 0.029387038 -0.17113563
0.04746594 -0.058338344 -0.06469387 -0.068377845 -0.13769782 0.012169838 -0.021934854 0.027310863
0.14654377 0.07686496 -0.18475093 -0.075758405 0.10493035 0.08539559 0.07933196 -0.07587961
-0.03851114 0.13499793 0.026515739 -0.103188336 -0.13082284 -0.098912716 -0.12499372 -0.024024889
-0.06988352 -0.10145429 -0.087313734 0.10692296 0.05658208 0.100768834 0.22719255 0.027277797
0.030690959 0.021591838 0.07777868 -0.29345992 0.08217418 -0.10456057 -0.025824506 -0.13035749
0.05348639 -0.045351345 -0.0042896476 -0.05867773 -0.06802417 0.025016766 -0.0946863 -0.019566968
-0.06468804 0.06871983 0.022313321 0.19284806 0.07068339 -0.18643071 0.13653317 0.22438228
-0.14874494 -0.15698498 -0.14603521 -0.16023007 -0.04471889 0.093205236 -0.058566373 -0.23840557
-0.037978638 -0.2778968 -0.13400027 -0.2669906 -0.1085421 -0.023707459 -0.07830746 -0.23911841
-0.09332529 -0.12500718 -0.040851384 -0.070697494 -0.16443117 -0.024794957 -0.012908542 -0.12393426
-0.03919379 -0.1737177 -0.060409237 0.015195888 -0.23817506 -0.2616479 -0.181829 -0.18029591
-0.12903516 -0.015195425 -0.1770058 -0.16749847 -0.09512872 -0.22556436 -0.036243506 -0.15961134
-0.004327511 -0.17512311 -0.18249875 -0.14522757 -0.104195066 0.09011455 -0.13432568 -0.044899836
-0.094239175 -0.109480545 -0.039360203 -0.25956407 0.030398274 -0.2049416 -0.41503352 -0.08854318
-0.29292932 -0.10890457 -0.22116351 -0.12955926 -0.18013223 -0.042251695 -0.2754209 -0.07089896
0.19512156 -0.13285972 0.14903119 -0.097408876 0.11126067 -0.08813219 -0.05985645 0.10867205
0.10147656 -0.22868863 -0.13786884 0.018073192 0.10423 0.16634583 -0.021611514 -0.16853106
-0.31074363 0.19721189 0.063927285 -0.11318954 0.11645722 -0.08238148 0.14637308 0.09299567
0.15294833 -0.010183905 0.10075778 -0.14044012 0.2701938 -0.12674122 -0.13245481 0.25244513
-0.01091944 0.031881228 0.11324237 0.22892545 -0.19815728 -0.013666857 0.1306677 0.027484378
-0.12830175 0.0033478802 -0.124541394 -0.18440421 0.19217063 -0.08016167 -0.03573527 -0.021496255
-0.26063716 -0.112005435 0.07391233 -0.12272946 0.06637517 0.199202 -0.24304211 -0.02002029
-0.14490259 -0.03954627 0.09795841 0.18483256 0.13411638 -0.00392374 0.011601087 -0.21687518

graph_rnn.bias_hh_l0 f4 [192]
00000000: a9aa c4bd 4626 f1bd a442 253d 96b7 97bd
00000010: 0f14 a33e a233 d83d 34a5 873d 8233 4dbd
00000020: 59e7 173e dbf6 bdbd e8b3 46bd b8c7 6f3d
00000030: 17d0 c7bd da32 663d e897 03bd d8ec 01be
00000040: ccd7 ad3d 7d55 a7bc c16c 62bc d6f5 11bd
00000050: 9cbb 803d 6e64 e53b f9ad ac3d c01c 46bd
00000060: cc7c 64bd ed2e 063e a818 913d 9684 2139
00000070: acce 013c 556b 11be 2a1f d3bd 5f49 593b
00000080: 1e46 a8bc 05c3 49bd c3f3 3f3d 3bed 07bd
00000090: 9739 3d3e 6899 213e 01fe ab3e 28ea 9a3d
000000a0: 35da 68bd bd01 e83d 8c96 32bd 2e32 7dbe
000000b0: 9875 183c e026 d53d d2ce 4abd 683e 36bd
000000c0: 18d3 953e 2d92 3a3e 21cc 59bd 1600 e7bd
000000d0: deac 10be f86d cabd ff4a 94be faec a23d
000000e0: d41e 3ebe f09a 763d b701 5ebd 5233 313e
000000f0: d308 4bbd b569 54be eef0 e4bc a22d 8a3e
00000100: aaff 8d3d 8b1a 28be 42cf 91be f27c c7bd
00000110: 01da 32be 85dd b4bd ee0e 71bc d3e8 15be
00000120: bc18 5cbd 2212 6fbe cef9 7cbe 840f 8ebe
00000130: 100d 5dbd 212b 12bd 79e6 22bd e0ed 07be
00000140: 8468 8cbd c09a 4cbe 45fb 92bd ea11 51be
00000150: 03da 2fbe 2605 263b a473 1abe b290 01be
00000160: f3cd 10be cddc 9abd bc4d 893c d7da 2dbd
00000170: 3e90 5dbd 473e 53be 8b28 22be 7a45 67be
00000180: 4fc6 47be 48d2 bfbc 610b d7be 56c9 77bd
00000190: ffd4 cdbc ac70 6fbd dd99 72bd 29c9 99bc
000001a0: 6584 8bbc f79b 73bd 04a4 03be c040 b9be
000001b0: c1e0 3bbe b933 40bd 5e90 8cbd 3265 9ebd
000001c0: f25c 0cbe beaf 353d 4bc3 e4bd de36 a9be
000001d0: 2c24 933d 67a6 5cbe 1dc4 dfbe d321 8abd
000001e0: 71e9 a3be b8a8 09bc d130 e2bd 2ff4 b8bd
000001f0: f55b d0bd 371b a5bc e287 96be b6d8 37be
00000200: 08f6 a33d 788d 9fbe 4002 393e dda5 0fbe
00000210: c286 733e 4144 3abd a53d a33d 6fea 4a3c
00000220: 49c7 2c3d 4ca1 44be aceb 97be 7ab2 c2bd
00000230: 074e 423b 2839 5d3e 607c 35be b4ed 5cbd
00000240: 6874 7abe 677f 413e a6ee a63d ee76 f9bd
00000250: af34 903e 8994 563e c610 a3bb ccf1 983d
00000260: 5c5b a23d b067 28bc d1bc c33c 8e16 c2bd
00000270: 2dad 683c 62a2 fdbd 1604 c33d d1ab 683e
00000280: 9c29 2e3d 2bb7 03be e2a1 253e f2db 1a3e
00000290: 589a 163c 2ea5 a83d b247 0c3e 700e 11be
000002a0: fd2e cebd d848 65bb 005b 1cbe 2af1 70be
000002b0: c257 6c3e 69c6 2ebe 2dd3 4cbd 1a37 463e
000002c0: 6b21 bcbd 908d 823d 5e6d 323e 92a3 813d
000002d0: 2f06 0bbe c795 703e e602 24be 672b a13d
000002e0: 6a8b b5bd 7698 633c 5a1f a33d 8898 843e
000002f0: c68a 6e3d b9d2 cdbc 6551 483e 7ea3 80be
-0.09602863 -0.11774878 0.040346757 -0.07408063 0.3185124 0.10556723 0.06623307 -0.05009795
0.14834346 -0.092755996 -0.048511416 0.058540076 -0.09756487 0.05620084 -0.03212729 -0.12688005
0.084884256 -0.020426506 -0.013819874 -0.035634838 0.06285784 0.0070004975 0.0843162 -0.048367262
-0.055783078 0.13103838 0.07084781 0.00015403549 0.00792281 -0.142011 -0.103086784 0.0033155305
-0.020541247 -0.04925825 0.04686333 -0.033185225 0.18479 0.15781176 0.33592227 0.07564193
-0.056848723 0.113284566 -0.043600604 -0.24726173 0.00930538 0.104078054 -0.049513645 -0.04449311
0.29262614 0.18219824 -0.053173188 -0.11279313 -0.14128444 -0.09884256 -0.28963467 0.07955356
-0.18566447 0.060206354 -0.054200854 0.17304733 -0.049568962 -0.20743449 -0.027946915 0.2698794
0.0693353 -0.16416375 -0.28478438 -0.09740628 -0.17465974 -0.08831314 -0.014713032 -0.14639597
-0.053734526 -0.23346761 -0.24704668 -0.27746212 -0.053967535 -0.035685662 -0.039770577 -0.13274336
-0.06855872 -0.19980907 -0.07176832 -0.2041699 -0.17173009 0.0025332659 -0.15083176 -0.12652853
-0.14141063 -0.07561646 0.0167607 -0.04244503 -0.05409264 -0.20629226 -0.15835778 -0.22585097
-0.19509242 -0.0234157 -0.4200087 -0.060494743 -0.025125979 -0.05845706 -0.059228767 -0.018772678
-0.017030904 -0.05947491 -0.12855536 -0.36182213 -0.18347456 -0.046924327 -0.06863473 -0.07734145
-0.13707331 0.044357054 -0.11170062 -0.33049673 0.071846336 -0.21547852 -0.4370431 -0.06744733
-0.3201404 -0.008402042 -0.11044467 -0.09030949 -0.101737894 -0.020154579 -0.29400545 -0.17953762
0.08005911 -0.3116262 0.18067265 -0.14028116 0.23781875 -0.04547525 0.07970742 0.012384995
0.04218224 -0.19202155 -0.2967199 -0.09506698 0.0029648559 0.21603835 -0.17723227 -0.05393763
-0.24458468 0.18896256 0.08150987 -0.12180887 0.28165194 0.20955099 -0.004976365 0.07467994
0.07927582 -0.010278627 0.023893746 -0.09476958 0.014201445 -0.12384488 0.09522264 0.22721793
0.04252015 -0.12862842 0.16175035 0.15122965 0.009192072 0.082346305 0.13699225 -0.14165664
-0.10067556 -0.0034986045 -0.15269089 -0.23529497 0.23080352 -0.17067875 -0.05000608 0.19356957
-0.091860615 0.06374657 0.17424533 0.06330027 -0.13576578 0.23494636 -0.1601673 0.078696065
-0.08864482 0.01389133 0.07964964 0.25897622 0.058237813 -0.025124894 0.195623 -0.25124735

graph_rnn.weight_ih_l1 f4 [192, 64]
00000000: f098 843d 121d 8d3d bb69 c4be cd74 84be
00000010: 8f7c 1bbd d57d 92bc b5b7 0c3e e379 73bd
00000020: a82d 61bd 1b92 973e 05cb 93bb f918 f8bd
00000030: eece 0abf 6b4f 4abe 9ebe 733d 3578 44bc
00000040: c77b 523d 17d5 a63d 888a 3a3e f8cb 8ebe
00000050: 2279 17be 70c9 43be 8fbc d9bd 69ab afbd
00000060: 8372 883e e470 4dbe 3ca7 033c 23a7 40bd
00000070: 435e 4c3e 9c21 843e 4434 1bbd 775d 973e
00000080: bc44 c8bd bb7c 9b3e 7ac2 c9bd 8fd7 73be
00000090: 9b94 87bd 5922 86be e655 75be bba8 603e
000000a0: badb 4bbe fb92 15be 6b64 0c3e 6f93 9c3d
000000b0: 9c4a 07bd dda7 09be ce0d 2ebe 7d64 763c
000000c0: 1b31 8a3d 3624 35be 1f6a 853e 75a8 85bd
000000d0: 4430 52be 2313 3dbe 8870 85be a2ee d2bd
000000e0: 29a2 44bc 01df f0bc fdf8 373e 991a 273e
000000f0: e2b2 493e 2baf b23d 0a41 18be 23c4 b4bd
00000100: 19f3 ad3d dacd a1be 08aa 29be ce39 66bd
00000110: 5a7f 98be d46d 0c3e 0c85 723e da0c 43be
00000120: bb49 7f3e c35e 0fbe 4802 8e3d 0cfb b93e
00000130: 78e9 68be 918b 70be 84a3 4f3e ca40 853e
00000140: c7de aa3e 7e11 473e d6a2 913d a1f0 6dbe
00000150: 617d b1bd c65d 65be ad60 fa3a 44e9 a5bd
00000160: 60d9 25be f978 3dbd c225 e1be af46 ec3d
00000170: 4668 8d3e 0188 653d a145 97be 743e cc3e
00000180: b102 c2bc c229 8dbe f364 9bbd 23ba 27be
00000190: 0a00 75be 0e0f 89bd 67a9 f139 22b5 e53b
000001a0: e86a b03d ec0a 37bf e008 fc3e 86e1 3dbe
000001b0: a9d1 51be afb3 c93d 653e 91be a26b c43e
000001c0: f7c8 a63e ff9a 74be 29e0 be3d a5bc cbbd
000001d0: 673b 45be 6a45 a4bd 3f9f bdbe 9aee 3f3e
000001e0: 6d63 143d 30b5 54bc ad0e 053f 81af f2bd
000001f0: 57fe f13e f6f3 cdbd 722d 1f3e ab9b 333e
00000200: 4cca 663e a006 823f f9b5 20bf 5e7c cb3e
00000210: ce8c 953e eec1 ac3d 1d8d 613e 3bfa 40bd
00000220: 3493 9e3e 3420 dcbd b521 c53d d627 2cbe
00000230: 7ad8 6c3e a6e2 0fbf f890 f9bd 046f 5fbe
00000240: 83dd 7f3d ad56 7ebe f8af 463d d80a 1e3e
00000250: e4d9 3b3d c82f 5dbe 45a0 65bd 4481 51be
00000260: a6d9 f1bd b5df 71be 2c45 9abe 3a9b 2f3e
00000270: c419 3b3e d8cd 31bf 59b0 27be 16f9 f0bd
00000280: 0ba2 fd3d 9638 f83d 00ad c1be d5b8 e6bd
00000290: c60f 873d d606 683c 94e8 e43d ca0f 063e
000002a0: 0101 ea3d a6a4 b33e bb1a 19bd 4765 93be
000002b0: 6702 00bf f565 883d 0c18 a13d 064f 07bf
000002c0: 05c5 c23e 48a1 6b3d ea0a c9bd beb6 8c3e
000002d0: fa45 e13d 8002 423d 2bfa 803d 28dd cb3e
000002e0: 8b62 8c3d 068f 0b3f ae93 cbbe 133c 97bd
000002f0: 9455 9cbe 0104 563f 1560 a8bd 594d 133e
00000300: 4fa0 e1bc 4c18 d03e 6e15 8abe 1295 c4bd
00000310: 77bf 723e 1385 53be b099 0f3e 7290 d53d
00000320: 14d9 0b3e 2e52 d0be f77a c2be df49 9e3c
00000330: 402b 9cbd 90d0 173e ba20 d73e 4bbf 9fbd
00000340: dc17 20be 84cb b53e 078b ed3d 7e6e c2bd
00000350: d9bc 0a3f ecfc 403d ed8b a7bd 72f6 bebd
00000360: 8e87 213d 90a0 0a3d 60ab 993c 6a08 2e3e
00000370: eb2c d8bd 5e8f adbe 4d10 2c3e 64cb 35bd
00000380: cb63 dfbd 065b d9bd cea3 4b3e cf39 4f3e
00000390: 78d2 19be b7cf b63e 5237 3d3e cb57 ab3d
000003a0: db4a 583e 92e3 0d3f cf2c 36be faa4 cbbd
000003b0: 655e a23d 80da 5d3d e3ae 653d a94e 59be
000003c0: 95b2 a13d 993d 1c3e 2593 053e 3ea8 cabd
000003d0: c0ef a83e f06e 153e 7df0 dd3e 82b8 843e
000003e0: a590 02be 1771 80bd 94f9 d2bc d957 c73c
000003f0: 263f 94be 9964 a9bd 7128 13be 415e 9ebd
0.06474483 0.0689031 -0.38361916 -0.25870362 -0.037960585 -0.017882267 0.13741954 -0.059442412
-0.05497518 0.29603657 -0.004510286 -0.12114138 -0.54222 -0.19756858 0.05950796 -0.01199155
0.051387575 0.081461124 0.18216908 -0.2788999 -0.14792302 -0.19119811 -0.10631668 -0.08577616
0.26649866 -0.20062596 0.008035477 -0.047034394 0.19957833 0.25806892 -0.03789164 0.29563496
-0.09778735 0.303686 -0.098515466 -0.23812698 -0.06620141 -0.2619808 -0.23958549 0.21939366
-0.19908038 -0.1460685 0.13710181 0.07645308 -0.033030137 -0.13442941 -0.16997454 0.015038607
0.067476474 -0.17689595 0.26057526 -0.06526271 -0.20526224 -0.18464331 -0.26062417 -0.10299422
-0.012001553 -0.029403212 0.17966075 0.1631874 0.19697145 0.08724817 -0.1486856 -0.088264726
0.08493633 -0.31602365 -0.16568768 -0.05620747 -0.29784662 0.13713771 0.23683566 -0.19047871
0.2493047 -0.14000992 0.06934029 0.36324346 -0.22745311 -0.2349074 0.2027722 0.26025993
0.3337309 0.19440266 0.071111366 -0.23236324 -0.08666492 -0.22399053 0.0019102298 -0.081011325
-0.16196203 -0.046257947 -0.4397412 0.11536919 0.27618617 0.056037907 -0.2954531 0.39891398
-0.023682924 -0.2757092 -0.07587614 -0.163796 -0.23925796 -0.066923246 0.00046093317 0.007010118
0.08614141 -0.7150104 0.4922552 -0.18543062 -0.20490135 0.09848725 -0.28367916 0.38363367
0.325752 -0.23887251 0.09320099 -0.099480905 -0.19260941 -0.08021052 -0.37035558 0.18743363
0.036227632 -0.012982652 0.5197552 -0.11849881 0.47264358 -0.100562975 0.1554468 0.17539851
0.22538108 1.0158272 -0.6277767 0.39743322 0.29208988 0.08435427 0.22026487 -0.04711364
0.30971682 -0.1074833 0.0962557 -0.16812071 0.23129454 -0.56205213 -0.12185854 -0.21819693
0.06246711 -0.24837752 0.04850766 0.15433824 0.045862094 -0.21600258 -0.056061048 -0.20459467
-0.11809091 -0.23620494 -0.301309 0.17149058 0.18271548 -0.6945472 -0.16375865 -0.11766259
0.12384423 0.12120168 -0.378273 -0.11265723 0.065948054 0.014161786 0.11177173 0.1309196
0.11425973 0.35086554 -0.037379008 -0.28788206 -0.50003666 0.06660072 0.07865915 -0.52854955
0.3804094 0.057526857 -0.09816535 0.2748317 0.10999675 0.047365665 0.06297716 0.39817166
0.06854733 0.5451511 -0.39761108 -0.07384505 -0.3053404 0.8359986 -0.08221451 0.14384975
-0.027542261 0.40643537 -0.26969475 -0.095987454 0.2370585 -0.20656233 0.14023471 0.104279414
0.13657027 -0.40687698 -0.3798444 0.019322334 -0.07625437 0.14825654 0.42017156 -0.07800158
-0.15634102 0.35506833 0.11598783 -0.09493731 0.5419441 0.047116205 -0.081809856 -0.093243495
0.039435916 0.03384453 0.018758476 0.16995397 -0.105554424 -0.33898443 0.16803093 -0.04438342
-0.10907706 -0.106130645 0.19886705 0.20236896 -0.15021694 0.3570535 0.18478134 0.083663546
0.21122305 0.5542537 -0.1779053 -0.09943576 0.079281606 0.054163456 0.056074988 -0.21221413
0.0789539 0.15257873 0.13044412 -0.09895371 0.32995415 0.145931 0.4334754 0.25922018
-0.1275049 -0.0627157 -0.025753774 0.024333881 -0.28954428 -0.082711406 -0.14370896 -0.07732821

graph_rnn.weight_hh_l1 f4 [192, 64]
00000000: 6f31 023e d054 d3bc 1fcd 1cbe d8d7 c5bc
00000010: 8360 273e c172 00be dda6 c43d f8a1 51be
00000020: e933 12be b835 583d 91d2 f83d cc8a e2bd
00000030: 5a81 50be 1bbe 55bc d9ea d0bd dd4d 1dbe
00000040: b9ac 29be 5c4e f1bd f6c2 a3bd cf0e 11be
00000050: 95b4 a3bd 530f 06bd e884 1a3e c07c da3c
00000060: 4837 953e c238 0abc 4d20 6cbd 9494 2c3e
00000070: 658d 453d 52e1 25be da38 e53d 5212 1b3e
00000080: 78aa 51be 5017 b23d 26fe fa3c 1725 7f3d
00000090: f338 22bf 9b89 23be 4058 89bd 07f5 eb3d
000000a0: 74cf 363d aa97 a6be d251 9e3e 47e4 6abe
000000b0: 5d00 57be 9faa 903d 9ab2 8b3c 7f5a cebc
000000c0: d252 393e a231 bb3d ae2e 90be cc41 a23d
000000d0: e2a8 9f3d 09cb cdbd 3c17 78bd 840a f7bb
000000e0: 7097 a7be 1bfd 983e 39aa dfba be95 9e3e
000000f0: 4af6 75be f89a 433e 0ec2 8b3e b5c2 883e
00000100: 5f93 06bf 2e9f b7bd 062f 1a3e 4683 c13d
00000110: 4f7c 0a3c d73b c03d 9693 673e 36da 52bc
00000120: ced6 c9bd 671f 8dbe 64c2 2d3d 963b f73c
00000130: e5d9 083e aad2 eabd 212c a23d 1a46 7d3c
00000140: 1f80 e7bd b1e9 60be 208b 02be e11c 8bbd
00000150: 21eb 8dbd 323c 9dbe cbab 983e 4735 c73d
00000160: c0c9 233d 960f 3bbe 1c4c 38be be1c 63bd
00000170: e836 e53c 4449 cb3e ff2c 063d adb9 373e
00000180: e75a 01be 72eb 413d b81a 30bd dd0c 53bd
00000190: 14b3 e43e bf48 2d3e 2112 1ebe 399b 19be
000001a0: 48ca 8e3e d70f 143f 97fc 853e 65b8 1cbe
000001b0: f189 2abe a652 b13d d9d6 18be 75ca 953c
000001c0: 8f67 26be 8d03 743d 1317 72bd 9db2 6b3d
000001d0: 31e8 90bd 0a11 443e 4430 993e a3cb d73e
000001e0: 0a8f 9e3c 5b03 b23e 3623 ab3d 5f19 013f
000001f0: 6e38 8a3b 0f4c 3bbc 0723 4a3e 76a2 f6bd
00000200: 256c 973d bbd3 a4bd 19d5 04bc 3a04 903e
00000210: 8254 9bbd 7b4a 1dbc 0369 80bd 2c3d 3b3e
00000220: 4b23 08bd e318 873e 1b5e b1be 58f5 8a3e
00000230: 1e75 803e f293 a9be 0772 733e 7d9e aebd
00000240: aa91 ac3e 708c 3d3e 42c7 243e 02a5 0f3e
00000250: 09da 26bd db83 9a3d 241c 9cbe 9b14 bcbe
00000260: c74a 3c3e 42ab 7e3e 12a8 523d 0c9e 833d
00000270: 8148 e23d aaf7 c13d 90c5 3e3e ae81 d43d
00000280: b070 813d c6c7 61be f6ff b6bc d042 113e
00000290: 2e41 ae3e 82d9 4dbc bd28 9c3e ae4b 383c
000002a0: 1827 60be a3ee 95bd 1cac c2be 854d ebbc
000002b0: c5ea 7a3e 28bb eabd c579 673e 0a5c c43b
000002c0: 4300 f2be 0c68 87be 2d8a 8d3e fd8c 75be
000002d0: 5dc6 a0be f028 383c 1bbc 83be 8ee6 91be
000002e0: 7edb ee3e 09f3 e9bd fd6f 323e 1fa4 6abd
000002f0: d0e6 883e 19d8 afbd be9e e2bd 214d 6e3e
00000300: 89c3 063e dd38 8dbd d7d6 f63d 334c 90be
00000310: e0ad 69be 3ed6 b9bd 6a85 913e b7e0 023e
00000320: fc76 d63e f07d 053e 210f 5c3d 740b ecbd
00000330: 7a6a 08be 7593 47bd d6bb 06be 07aa bc3d
00000340: 3095 4c3d 7090 04bd 01a8 17be b10e 0fbf
00000350: 130d 5abe 04cd 7dbd 7397 fcbd 4b76 a13a
00000360: 6711 723d cd35 f43d 415f c9be b0ba f3be
00000370: 0749 65be 2fa2 3ebe 89bd 4c3e 4b25 3ebe
00000380: 9311 edbd b3e3 133d 9363 3d3e 3152 96bd
00000390: 5a3c 343d c7ef eb3c b663 b8bd 2b2b b5bb
000003a0: b840 9bbd 61a9 a6be 1fde 533d 9b6e bb3e
000003b0: 4e4a a13e d75e 01be c050 e2bd 5f43 fdbc
000003c0: dde1 82bd 0cf9 b93d 538f d5bd 92fe dc3d
000003d0: 7e68 2a3e 7b06 35be a18d 9f3c 6fe7 2cbe
000003e0: 6f96 263d 23b2 a6bc b588 25bf 5c8e 333d
000003f0: 70d8 f33d 8072 41bc 30ba 4d3e 0eae 4f3e
0.1271417 -0.025797278 -0.15312622 -0.024150774 0.1634541 -0.12543775 0.09602139 -0.20471942
-0.14277615 0.052785605 0.12149537 -0.1106163 -0.20361844 -0.013045813 -0.10201044 -0.15361734
-0.16569795 -0.11782524 -0.0799617 -0.14165805 -0.07993428 -0.032729458 0.15089762 0.026670814
0.2914374 -0.008436384 -0.057647992 0.16853553 0.048230547 -0.16199234 0.11192484 0.15143707
-0.20475185 0.08695853 0.030638766 0.06229123 -0.6336815 -0.15970461 -0.067062855 0.11521345
0.044631436 -0.32537585 0.309218 -0.22938643 -0.20996232 0.070637934 0.017052937 -0.025189636
0.18098 0.09140326 -0.28160614 0.07922706 0.07795884 -0.100484915 -0.060569033 -0.0075390954
-0.32732725 0.29880604 -0.001706428 0.3097362 -0.24019733 0.19102085 0.2729649 0.2671105
-0.5256862 -0.08965908 0.15057 0.094488665 0.008452489 0.093864135 0.22614893 -0.012869408
-0.09855424 -0.2756302 0.042421713 0.03017978 0.1336437 -0.11465962 0.07918573 0.015458608
-0.11303734 -0.21964146 -0.12748384 -0.067926176 -0.06929613 -0.30709988 0.29818568 0.09726959
0.039987326 -0.18267664 -0.17997783 -0.055447333 0.027980283 0.39704335 0.032757755 0.17941923
-0.12632333 0.04734368 -0.04299423 -0.05152594 0.44667876 0.16922282 -0.15436603 -0.15000619
0.27888703 0.5783667 0.26169273 -0.15304716 -0.16654183 0.08658342 -0.14925708 0.018285016
-0.16250442 0.0595737 -0.059104037 0.057543386 -0.07075537 0.19147125 0.29919636 0.4214755
0.019355316 0.34768185 0.08356325 0.5042934 0.0042181527 -0.011431708 0.19739924 -0.12042706
0.07393674 -0.08048197 -0.008107447 0.28128225 -0.07584478 -0.009600277 -0.062700294 0.18285054
-0.033236783 0.26386175 -0.3464211 0.27140307 0.25089353 -0.33120686 0.23773967 -0.08526323
0.33704883 0.18510604 0.16091636 0.14027789 -0.04073528 0.07544681 -0.3049022 -0.3673447
0.183879 0.24870017 0.051429816 0.064266294 0.11048985 0.09471066 0.18630052 0.10376297
0.063203216 -0.22048864 -0.022338849 0.14185643 0.34034103 -0.012564065 0.3049983 0.011248512
-0.21889913 -0.07320907 -0.38021934 -0.028723488 0.2450362 -0.114614785 0.22605045 0.005992417
-0.47265825 -0.2644657 0.27644482 -0.23979564 -0.3140134 0.011240229 -0.2572945 -0.28496212
0.46651834 -0.114233084 0.17425533 -0.057285424 0.26738596 -0.08586139 -0.11065434 0.2327161
0.13160528 -0.068956114 0.12052696 -0.28183135 -0.22820234 -0.090740666 0.284221 0.12781034
0.41887653 0.13036323 0.053725366 -0.11525622 -0.13321868 -0.04872461 -0.13157591 0.09212118
0.049946964 -0.03236431 -0.14810182 -0.5588179 -0.2129405 -0.061963096 -0.12333574 0.0012318579
0.059098627 0.11924324 -0.39330485 -0.4760337 -0.22391139 -0.18616556 0.19994177 -0.18568914
-0.11575618 0.036105823 0.18495016 -0.073398955 0.04400287 0.028800858 -0.09003393 -0.0055288277
-0.075807035 -0.325511 0.051725503 0.36607823 0.31502002 -0.12633835 -0.11050558 -0.030915914
-0.06390736 0.09080705 -0.104277276 0.10790743 0.16641423 -0.17678253 0.019476714 -0.1688516
0.04067081 -0.020348614 -0.64661723 0.043836936 0.119065166 -0.011807084 0.20090556 0.2028124

graph_rnn.bias_ih_l1 f4 [192]
00000000: e788 b93d 4bbf 023d 840d afbd e501 0cbd
00000010: 2717 89be e30f 153b e0df 113d 64af 13be
00000020: c845 813e 4809 21be ff35 05be e371 80be
00000030: bcb8 03bc 5372 5f3e 462b 4abe 216c f03c
00000040: 5ef1 e0bd 23f3 08bd 036e 25be 41dc f13d
00000050: adbe 493d 8a52 c3bd 20a4 c1bc 33d0 74bd
00000060: b29a cabb 14b3 5ebe 9cd1 113d 0e1e 1f3e
00000070: d3ef c93d 0c48 ef3d c3ef b63e 1cc0 7e3e
00000080: 665d 41be 4713 dd3d b5fe 8c3e 85ea 62bd
00000090: 846b bf3c dd79 77be d556 413e a6be dd3d
000000a0: 7cc7 bbbc a951 bb3d b7a0 a73d f7c4 3a3e
000000b0: 49c1 203b d372 bebd fcd0 9bbd b01c 953d
000000c0: d25a e8bd a347 a63d 8a68 913d 924b 863e
000000d0: 4dbf 543e 46aa b23d 8e11 4fbe 25cb a23e
000000e0: 5acf c63d 7b75 7d3d 662a f0bd cd76 933c
000000f0: 385a 97bd c876 8f3d 2e16 2cbd a9ca dcbd
00000100: d7ed c3be 374b 9bbe b419 f7bd e7e4 64bc
00000110: 27e5 56be 4c17 89be fe61 9f3d 8a98 0ebe
00000120: ea33 dabd f112 2bbd 5c3d 123e 6617 7abd
00000130: ffc1 b23d 515d 0abe e935 0abe 3e50 2fbe
00000140: a2e1 02be 6016 cbbd 773a b7be 4aa6 b5bd
00000150: d8c1 70be 5a76 b3be 0956 aabd 9dfb 2fbe
00000160: 5988 15be aaa2 90be 8982 0dbe 0684 f6bd
00000170: 5e48 56be 32a8 48be 0e32 a8be 2f4a 8fbe
00000180: d61a 89be f9bb c3be 3754 23be 9e29 8fbd
00000190: 52e0 5cbe e5dd 7cbe d11c ca3d 4c79 c2be
000001a0: 6342 f2bc ba85 653a 74bc 69be 7849 9abe
000001b0: f373 ebbd ac20 d43d 62c3 953c 9d49 b03c
000001c0: aaff c7bd 7714 59bd 3a24 29be 208d e6bd
000001d0: 754e 423c 3387 06be 4507 443e 9ba2 b23d
000001e0: 2b8c 65be 1fce 00be a6b8 5c3d 2d29 6fbe
000001f0: 1024 85be 27d5 de3c 687e 01bf 7552 9e3d
00000200: 8112 553e 2102 8ebe eb03 31be 5ae4 e4bd
00000210: 3225 433e 1e75 f53d 10a2 1bbe 6938 6ebd
00000220: 7f85 803e e6d9 09be 8ced 68be c2fa 88bd
00000230: 59af 5ebc 82a2 4d3e 9ca7 d3bd de42 893e
00000240: aa3a 29bd 2460 4dbd f89b f93d 2562 0b3c
00000250: 7fd5 8e3d 659b 9cbd b0ff bc3b 66e5 7f3d
00000260: ca3b 87be b104 80be fc31 c13d aace 81be
00000270: a4fc e8bd f5b1 1d3e afc1 1cbe e995 d0be
00000280: db94 b2bd e325 493e c24f 6abe 21fa 9fbd
00000290: 6195 b53d 09e3 47be 0f28 a6bc 0d48 383e
000002a0: e13b b33d 752a e43d 523e 443e 18b3 e33d
000002b0: 9028 393e fa76 313d 0ed9 febd b19b f53d
000002c0: 4d2f bb3c 67a6 453d d9ae 50be 7d55 f23a
000002d0: 1969 133e a03d 003e 8c98 c33c 2002 533e
000002e0: 152c 10be 763e 293c 1ba0 0ebe 5182 773d
000002f0: 5212 213d 482e 103e e13b 583d 2d5c 38be
0.09059315 0.031920712 -0.085475 -0.034181494 -0.26775476 0.0022745065 0.035613894 -0.14422375
0.2524855 -0.15726197 -0.13008879 -0.2508689 -0.00803965 0.21820955 -0.1974307 0.029348435
-0.10983537 -0.033435 -0.16155247 0.11809588 0.04925411 -0.095372275 -0.023637831 -0.059768867
-0.006182992 -0.21748 0.03560029 0.15538809 0.09860196 0.11683664 0.357298 0.24877971
-0.18883285 0.107946925 0.27538076 -0.055399437 0.023366697 -0.24167581 0.1888078 0.10827379
-0.02292227 0.09146435 0.08184951 0.18239199 0.002452927 -0.09299245 -0.0760822 0.07280862
-0.113454476 0.08119132 0.07100017 0.2622953 0.207761 0.08723883 -0.2022154 0.31795612
0.09707518 0.061879616 -0.11726837 0.018000985 -0.07390255 0.070050776 -0.04201334 -0.10780842
-0.38267395 -0.30330822 -0.12065449 -0.01397059 -0.20985852 -0.26775587 0.077823624 -0.13925377
-0.10654433 -0.04176611 0.14281219 -0.06105747 0.08728408 -0.1351216 -0.13497128 -0.17120454
-0.12781385 -0.09916377 -0.35786793 -0.08869608 -0.23511446 -0.35051233 -0.08317191 -0.17185827
-0.14602794 -0.28249103 -0.13819326 -0.120369 -0.20926043 -0.19595411 -0.3285069 -0.27986285
-0.26778287 -0.3822935 -0.15950094 -0.0699036 -0.21569946 -0.24694021 0.098687775 -0.37983167
-0.029572671 0.00087555835 -0.22825795 -0.30134177 -0.11496725 0.10357794 0.018281642 0.021519477
-0.09765561 -0.052998032 -0.16517726 -0.11257386 0.011859526 -0.13137512 0.19143398 0.08722421
-0.22416751 -0.12578629 0.053887032 -0.23355551 -0.26004076 0.027201248 -0.50583506 0.07730571
0.2080784 -0.27736 -0.17286651 -0.11176367 0.19057158 0.11985229 -0.1519854 -0.058159266
0.2510185 -0.13462028 -0.22746867 -0.06688453 -0.013591611 0.20081523 -0.10334703 0.26808828
-0.041315712 -0.050140515 0.12187952 0.008507286 0.06974315 -0.07646827 0.005767785 0.06247463
-0.26412803 -0.2500358 0.09433362 -0.25352985 -0.113763124 0.15399916 -0.1530826 -0.40739372
-0.08719798 0.19643359 -0.22881988 -0.0781138 0.088663824 -0.19520201 -0.020282773 0.17996235
0.08751655 0.111409105 0.19164398 0.11118144 0.1808188 0.043326356 -0.12443744 0.119925864
0.022849703 0.048254397 -0.20379199 0.0018488612 0.1439556 0.12523508 0.023876451 0.2060628
-0.14079316 0.010329833 -0.13928263 0.060427014 0.039324112 0.14080155 0.05279148 -0.18003912
