graphrnn_v2/experiments/reproduction/ego_small/ego_small/model_at_1400.pt (torch, 420155 bytes, 43 tensors)

adj_embedding.0.weight f4 [32, 15]
-0.033822384 -0.079933874 -0.078967586 -0.08380544 0.5915343 -0.15923934 -0.34277344 0.4016459
0.18166459 0.21598504 0.082674585 0.08820894 -0.06097433 -0.4327761 -0.19611123 -0.26600933
0.40410802 0.14422508 -0.49269202 0.3619854 0.52091974 -0.095210694 0.36671245 0.43107983
-0.014999993 0.21699232 -0.31468076 -0.40046778 0.92942894 -0.2712888 0.6136979 0.17129603
-0.38191545 0.45166826 0.20685257 -0.75137365 -0.39582342 -0.31485853 -0.550514 -0.35902557
-0.16456094 -0.35653785 -0.19162214 -0.52846485 -0.6636411 0.29764166 -0.11925849 0.5718693
0.5710319 -0.06277314 0.13138126 -0.07865268 -0.12925427 -0.1323749 -0.2578303 0.07865962
-0.24029541 -0.17075703 -0.5222477 -0.13959098 0.18369988 0.23935111 0.34747595 0.111202985
0.2410441 -0.11997866 0.12998854 0.030651715 0.1180747 0.1286555 0.06852465 0.13475546
0.41350186 -0.1597822 -0.001971688 -0.19622587 0.7578662 0.034943365 -0.49557945 -0.36807063
-0.24307902 -0.27207518 0.36660424 0.28814957 0.24117494 0.27392027 -0.14397773 0.11118382
1.1833957 -0.043534413 0.62354296 0.24053407 0.016204653 0.02879296 0.18159357 0.3478041
0.021362582 0.49635506 -0.2999219 -0.36189342 -0.07015417 -0.07870083 0.04821437 -0.5242421
-0.07008087 0.2399061 -0.24192083 -0.0137906745 0.22669436 0.5245239 0.4255497 -0.13729376
-0.22006585 -0.23444685 -0.1185913 -0.029187 0.6330748 0.18875873 -0.52991533 0.16193038
-0.1022617 0.30486172 -0.19371092 -0.26578382 -0.010542838 -0.21000648 -0.15485273 -0.030391043
-0.017406436 0.16191757 -0.10083339 -0.026827127 0.19448224 0.060788907 -0.12567541 0.1121432
-0.34293368 -0.37012976 0.2367361 -0.07554416 0.15836355 0.6461314 0.02647932 -0.118674286
0.39229178 0.24628572 -0.41243765 -0.5039516 0.46257523 -0.41130358 -0.022033464 -0.5309622
0.33737502 0.6395925 -0.10489187 -0.085469164 -0.36707708 0.1936083 -0.23908108 -0.07934206
-0.12966232 0.15100527 1.1018847 -0.43078765 -0.08229893 -0.040227395 0.10665883 0.03352635
-0.4377388 0.22262013 0.41415626 0.17339863 0.1749718 -0.3473342 -0.17292485 0.11604489
0.6928699 0.5874827 -0.15167981 0.11035281 -0.03699398 0.012789268 -0.18540347 0.39652687
-0.023571657 -0.2822242 -0.110441804 -0.09743457 0.1165662 0.14408894 0.8117726 -0.75778186
-0.7261066 -0.554801 0.95334804 0.030713258 0.31759784 -0.17989074 -0.105559826 0.27592772
0.23053785 -0.22859307 -0.055324093 -0.24602093 -0.30796775 -0.041067827 0.8224056 -0.03242721
-0.14450891 0.30483353 0.6015675 0.067157984 -0.21980667 0.03543473 -0.33668396 -0.014473241
-0.6052007 -0.6892532 -0.5455171 -0.24676213 -0.56687766 -0.24897894 -0.607618 -0.44748154
-0.8416724 0.4547835 0.20966128 -0.08822299 -0.055682495 0.12910298 0.024474977 -0.23063333
0.058094863 -0.214642 -0.28370476 -0.1776716 0.49057633 0.5214521 -0.2573512 0.17708093
-0.1698308 -0.15310527 -0.1268208 -0.0065367105 -0.1102266 0.09199108 0.09283065 0.1719235
-0.14529495 0.096474014 -0.1687728 0.7380683 0.28358552 0.27722076 0.37391198 0.49309152
00000000: 5789 0abd 5fb4 a3bd c2b9 a1bd 30a2 abbd
00000010: cb6e 173f a30f 23be 0080 afbe 88a4 cd3e
00000020: 4806 3a3e 2f2b 5d3e 4b51 a93d e4a6 b43d
00000030: 38c0 79bd d494 ddbe 62d1 48be 6032 88be
00000040: 3fe7 ce3e bdaf 133e 2142 fcbe 2656 b93e
00000050: ff5a 053f d3fd c2bd bcc1 bb3e 7fb6 dc3e
00000060: 88c2 75bc 3c33 5e3e d61d a1be 1d0a cdbe
00000070: 0eef 6d3f 5ee6 8abe 4e1b 1d3f 3a68 2f3e
00000080: 6c8a c3be 1041 e73e 29d1 533e 065a 40bf
00000090: 5ea9 cabe 2335 a1be 7cee 0cbf 33d2 b7be
000000a0: aa82 28be 218c b6be 9838 44be 7949 07bf
000000b0: 62e4 29bf 7d64 983e cc3d f4bd 0766 123f
000000c0: 262f 123f 348f 80bd cf88 063e a814 a1bd
000000d0: 3b5b 04be 498d 07be 5502 84be 4b18 a13d
000000e0: 0010 76be eeda 2ebe 06b2 05bf f0f0 0ebe
000000f0: d21b 3c3e 7518 753e 5ee8 b13e 64be e33d
00000100: 44d4 763e 5fb7 f5bd b71b 053e 4e19 fb3c
00000110: 26d1 f13d 44be 033e a756 8c3d 56fd 093e
00000120: 84b6 d33e f29d 23be 6f37 01bb 6fef 48be
00000130: 8503 423f c620 0f3d 97bc fdbe c173 bcbe
00000140: b5e9 78be 704d 8bbe 8db3 bb3e 5788 933e
00000150: 90f6 763e 473f 8c3e e66e 13be 58b4 e33d
00000160: 8379 973f 2451 32bd 83a0 1f3f 904e 763e
00000170: 9fbf 843c 37df eb3c aaf3 393e 6113 b23e
00000180: 9500 af3c 4022 fe3e 5d8f 99be 184a b9be
00000190: fdac 8fbd e72d a1bd 6e7c 453d bb34 06bf
000001a0: 8f86 8fbd f2a9 753e 18ba 77be 48f2 61bc
000001b0: 9122 683e 3347 063f a6e1 d93e bc96 0cbe
000001c0: f158 61be d612 70be ffdf f2bd 9319 efbc
000001d0: 3111 223f f849 413e 88a8 07bf 14d1 253e
000001e0: 956e d1bd d616 9c3e 285c 46be d114 88be
000001f0: debb 2cbc f00b 57be b791 1ebe a3f6 f8bc
00000200: f197 8ebc b8cd 253e bd81 cebd 90c4 dbbc
00000210: 5a26 473e cafd 783d 0eb1 00be 56ab e53d
00000220: 0195 afbe a681 bdbe f36a 723e e6b6 9abd
00000230: 0e2a 223e de68 253f 29eb d83c 810b f3bd
00000240: 78da c83e 5332 7c3e 072b d3be f902 01bf
00000250: a9d6 ec3e 6296 d2be 867f b4bc 24ed 07bf
00000260: 6bbc ac3e 56bc 233f 8cd1 d6bd 750a afbd
00000270: 87f1 bbbe 4141 463e acd1 74be 177e a2bd
00000280: 33c6 04be 20a1 1a3e 8f0a 8d3f 3390 dcbe
00000290: 578c a8bd 7bc5 24bd f26f da3d ed52 093d
000002a0: 4d1f e0be 88f6 633e 4a0c d43e 698f 313e
000002b0: cf2b 333e cad5 b1be 3613 31be f1a8 ed3d
000002c0: ec5f 313f 4465 163f f451 1bbe a700 e23d
000002d0: 0087 17bd 148a 513c 68da 3dbe 9205 cb3e
000002e0: 5919 c1bc b17f 90be 502f e2bd c78b c7bd
000002f0: 43ba ee3d 0d8c 133e 54d0 4f3f fefd 41bf
00000300: 1fe2 39bf 7007 0ebf 9e0e 743f 5f9a fb3c
00000310: 2f9c a23e 4735 38be c02f d8bd 6646 8d3e
00000320: 1d12 6c3e 4d14 6abe 849b 62bd e9ec 7bbe
00000330: f3ad 9dbe bd36 28bd 2c89 523f 65d2 04bd
00000340: 25fa 13be 2413 9c3e 5400 1a3f 208a 893d
00000350: 0015 61be 0224 113d d761 acbe 2c21 6dbc
00000360: 6fee 1abf e672 30bf 02a7 0bbf 36af 7cbe
00000370: e51e 11bf 56f4 7ebe da8c 1bbf 4d1c e5be
00000380: d877 57bf 62d9 e83e 72b1 563e 41ae b4bd
00000390: 5413 64bd 9233 043e bf7f c83c 252b 6cbe
000003a0: e1f4 6d3d 1dcb 5bbe c041 91be 8bef 35be
000003b0: d22c fb3e e37d 053f 89c3 83be b454 353e
000003c0: 20e8 2dbe a1c7 1cbe 50dd 01be e731 d6bb
000003d0: 7cbe e1bd d265 bc3d ff1d be3d b70c 303e
000003e0: 33c8 14be 2b94 c53d c7d2 2cbe 0bf2 3c3f
000003f0: 1f32 913e e1ef 8d3e 6471 bf3e 7e76 fc3e

adj_embedding.0.bias f4 [32]
0.15775095 0.22938932 0.028064014 0.07750287 -0.4259084 0.26108912 -0.024659635 0.012117241
-0.16237603 0.02286945 0.21391161 0.39948466 0.006910501 0.11448225 0.16946363 0.071189605
0.39797142 0.052044693 -0.30053398 0.11341709 -0.12773928 0.38893694 0.013906797 0.1141267
0.13709655 0.02970772 -0.013676884 0.01980012 -0.042277362 0.17287748 0.08462405 -0.15465619
00000000: 7789 213e 09e5 6a3e 81e6 e53c d3b9 9e3d
00000010: aa10 dabe 79ad 853e 0103 cabc 6487 463c
00000020: e745 26be b658 bb3c a50b 5b3e 4189 cc3e
00000030: 7c71 e23b ab75 ea3d e087 2d3e dbcb 913d
00000040: e9c2 cb3e d12c 553d 97df 99be 3847 e83d
00000050: 16ce 02be be22 c73e 56d9 633c 42bb e93d
00000060: 0a63 0c3e 9b5d f33c 0215 60bc dc33 a23c
00000070: 072b 2dbd cb06 313e 604f ad3d 315e 1ebe

graph_rnn.weight_ih_l0 f4 [192, 32]
-0.3358721 -0.37308958 0.486291 0.02525806 -0.25020242 -0.17171885 -0.17410542 -0.19758332
0.048228227 0.034334898 0.3352347 -0.6041286 1.129161 -0.27491245 -0.16510843 -0.30643028
-0.16976626 0.32446742 0.24668783 -0.085635684 0.13390875 0.17571627 0.29820937 -0.44891495
0.12968776 0.46670932 -0.3160843 0.46618757 0.27998295 0.4620063 -1.0157793 0.12589324
-0.4047416 -0.4310392 -0.17575552 0.14599782 -0.87735194 -0.8907233 -0.22847602 0.2954544
-0.07716653 -0.4155389 0.6446107 0.021870159 0.19237779 -0.36137655 0.021649802 -0.29000157
0.2331805 -0.04576083 -0.24450715 -0.46759886 -0.812035 0.15855786 0.4537139 -0.11760659
0.21491571 0.12782767 0.49686852 -0.122999154 -0.05208719 0.37475222 0.5772993 -0.053899664
0.0022521266 0.058974348 -0.030838186 -0.5519872 -0.20303105 0.230879 -0.16393302 -0.07130148
0.09531545 -0.15691349 -0.3410095 -0.109209664 -0.07142887 0.08443273 -0.13312203 0.06570348
0.18949263 -0.002678183 -0.6530932 0.0087751085 -0.012202442 -0.13629086 -0.31952637 0.091863595
-0.42909884 -0.34400403 -0.060391344 -0.3239386 0.016571477 -0.43307984 -0.24129744 -0.6030061
0.0070923427 -0.43856937 -0.17976092 0.25719473 0.22257772 -0.32956547 -0.10167627 -0.17332336
-0.1231581 -0.7115614 0.7391377 -0.12144946 0.4631581 -0.2564251 -0.14993057 -0.09615293
-0.06613628 0.20893218 0.6155263 -0.0860107 -0.096138686 -0.037075397 0.15576209 -0.40302372
0.32128635 0.4593643 0.08442021 -0.2640118 -0.15765212 0.48875982 -0.29824948 0.29073697
0.10976145 0.2559019 0.024599606 -0.006626794 -0.2067947 0.5830139 0.15172265 -0.2953132
0.059428025 -0.066571645 0.07278256 0.25244638 0.027371235 0.10216263 0.11735855 0.24368832
0.12936705 -0.038903303 0.07882612 0.3470807 0.20470114 -0.15768062 0.12631004 -0.16840467
-0.47148466 0.022820123 -0.030912697 -0.3911814 0.64592016 0.23805462 0.20011908 0.07548505
-0.7669179 -0.003220022 -0.06799664 0.23655356 0.13639304 0.28292716 -0.08212679 -0.36855197
-0.07930701 0.06460655 -0.34405503 -0.18039878 -0.002948789 -0.06606345 -0.12494715 -0.04986236
0.004909012 -0.14872675 0.17348585 0.07590888 0.059602574 -0.5100944 0.51872355 -0.41231576
-0.27678072 0.15881921 -0.10260319 -0.23390208 -0.4485818 0.2848821 -0.111318216 0.17957412
-0.35019374 0.17575864 -0.4244292 -0.1801317 -0.34649768 0.15128724 -0.22888625 -0.15930957
0.123937935 0.31936824 -0.6446683 0.1698004 -0.29199314 -0.09341094 -0.37833935 -0.0935521
0.12383863 -0.42594323 -0.3983234 -0.028312298 0.017241111 -0.41393778 0.20713119 -0.14024568
-0.35847324 -0.57874113 -0.054543033 -0.16726956 -0.018472837 0.13736013 -0.33629903 -0.3323605
-0.40619195 -0.39346993 0.06374574 0.22920883 0.09445545 -0.34702006 -0.3012935 -0.04359153
-0.088846505 -0.036299802 0.6151948 -0.38231987 0.81928355 -0.36668447 -0.13736089 -0.16658957
-0.21400705 0.2118535 0.1132442 -0.03290874 -0.10222875 0.09275641 0.34427434 -0.38660064
0.121131435 0.23892306 0.09550124 0.20595396 0.48752823 0.5589883 -0.5146605 0.2636539
00000000: 6ef7 abbe 9905 bfbe 22fb f83e fee9 ce3c
00000010: 881a 80be 11d7 2fbe b148 32be 4853 4abe
00000020: f68a 453d c0a2 0c3d e2a3 ab3e 2ca8 1abf
00000030: 5988 903f 53c1 8cbe 2f12 29be 6ee4 9cbe
00000040: 35d7 2dbe 9820 a63e bc9b 7c3e c361 afbd
00000050: 601f 093e f7ee 333e e6ae 983e 2ed8 e5be
00000060: decc 043e 86f4 ee3e cdd5 a1be 23b0 ee3e
00000070: ed59 8f3e 178c ec3e 0e05 82bf 28ea 003e
00000080: 4a3a cfbe 2cb1 dcbe 41f9 33be 7480 153e
00000090: 239a 60bf 7106 64bf 9ef5 69be cd45 973e
000000a0: 7c09 9ebd 84c1 d4be 3505 253f 0c29 b33c
000000b0: affe 443e 5906 b9be ed5a b13c 167b 94be
000000c0: dec6 6e3e b56f 3bbd 1560 7abe 1e69 efbe
000000d0: 87e1 4fbf fe5c 223e 304d e83e b9db f0bd
000000e0: dd12 5c3e 42e5 023e 8d65 fe3e fbe6 fbbd
000000f0: 6159 55bd 86df bf3e e3c9 133f e5c5 5cbd
00000100: 6a98 133b 168f 713d 5da0 fcbc 084f 0dbf
00000110: 5fe7 4fbe 8b6b 6c3e 0fde 27be 8306 92bd
00000120: bf34 c33d eead 20be cc98 aebe 51a9 dfbd
00000130: 4d49 92bd 11eb ac3d 2451 08be 8c8f 863d
00000140: 5b0a 423e 7484 2fbb 1e31 27bf 79c5 0f3c
00000150: c0ec 47bc d58f 0bbe f698 a3be fb22 bc3d
00000160: d8b2 dbbe 4c21 b0be ea5c 77bd 48db a5be
00000170: e8c0 873c a4bc ddbe ad16 77be 9c5e 1abf
00000180: e266 e83b 2a8c e0be 3f13 38be 07af 833e
00000190: 6aeb 633e cebc a8be a63b d0bd ae7b 31be
000001a0: 503a fcbd e328 36bf 2138 3d3f 7fba f8bd
000001b0: 0f23 ed3e 274a 83be 6687 19be d4eb c4bd
000001c0: 7572 87bd 51f2 553e 2293 1d3f 6126 b0bd
000001d0: 5ce4 c4bd 5fdc 17bd 1980 1f3e 2059 cebe
000001e0: a57f a43e cc31 eb3e 81e4 ac3d 8e2c 87be
000001f0: 8f6f 21be ba3e fa3e 28b4 98be 7adb 943e
00000200: 9cca e03d 9305 833e 1d85 c93c 9425 d9bb
00000210: fdc1 53be 6640 153f 2f5d 1b3e 4b33 97be
00000220: cd6a 733d b756 88bd 060f 953d a740 813e
00000230: a439 e03c a43a d13d ae59 f03d 6e89 793e
00000240: cc78 043e 1259 1fbd 976f a13d 90b4 b13e
00000250: 2d9d 513e 0777 21be 6b57 013e 4672 2cbe
00000260: 7066 f1be 44f1 ba3c a03c fdbc ee48 c8be
00000270: 065b 253f 97c4 733e 04ec 4c3e e897 9a3d
00000280: bb54 44bf 0107 53bb d341 8bbd 193b 723e
00000290: 9eaa 0b3e d4db 903e 1732 a8bd d8b2 bcbe
000002a0: b76b a2bd 7050 843d fb27 b0be 75ba 38be
000002b0: 7840 41bb 464c 87bd 4be4 ffbd 793c 4cbd
000002c0: c7db a03b d34b 18be 46a6 313e 1d76 9b3d
000002d0: d421 743d 8c95 02bf 11cb 043f 0d1b d3be
000002e0: 34b6 8dbe 81a1 223e 9f21 d2bd 0784 6fbe
000002f0: 84ac e5be 11dc 913e cefa e3bd 47e2 373e
00000300: 984c b3be 13fa 333e c94e d9be 7274 38be
00000310: 2568 b1be 0beb 1a3e 2861 6abe 0c22 23be
00000320: 2cd3 fd3d 3c84 a33e fb08 25bf 28e0 2d3e
00000330: 2080 95be 3c4e bfbd b2b5 c1be 3e98 bfbd
00000340: 1c9f fd3d 3b15 dabe 0bf1 cbbe 31ef e7bc
00000350: 3b3d 8d3c a7ef d3be 331a 543e 909c 0fbe
00000360: ce89 b7be 6128 14bf 8468 5fbd b648 2bbe
00000370: 5954 97bc 22a8 0c3e 632f acbe 282b aabe
00000380: 64f8 cfbe e474 c9be 208d 823d b8b5 6a3e
00000390: dc71 c13d 9dac b1be 2443 9abe 088d 32bd
000003a0: 28f5 b5bd 1aaf 14bd 687d 1d3f 6ebf c3be
000003b0: 91bc 513f 11be bbbe 55a8 0cbe 7596 2abe
000003c0: aa24 5bbe 20f0 583e 93ec e73d 51cb 06bd
000003d0: 4f5d d1bd 13f7 bd3d ba44 b03e 85f0 c5be
000003e0: c213 f83d 3fa8 743e 2796 c33d 98e5 523e
000003f0: 4d9d f93e db19 0f3f cac0 03bf a5fd 863e

graph_rnn.weight_hh_l0 f4 [192, 64]
-0.20724986 -0.1021085 -0.021118667 0.22096771 0.0051671383 0.040221453 0.09349626 -0.058959205
-0.09458066 0.07745593 -0.08269421 0.04134912 0.1339668 -0.17026073 -0.119302064 -0.074023105
-0.079438955 -0.07845241 0.15142566 -0.07880616 0.026865333 -0.107066065 0.0026331246 -0.30704775
0.11976071 0.011643827 -0.23565762 -0.009269527 -0.050043214 0.19025455 -0.021401435 -0.1347827
-0.0008432716 -0.19972132 0.12288962 0.057391685 -0.18399814 -0.09973043 0.022855297 -0.17056626
0.008240976 -0.118792646 -0.03816556 0.11885836 -0.123073116 0.02260299 -0.042227313 0.13145529
-0.0059717437 -0.15179652 0.010328464 -0.1121844 -0.122870035 0.043329556 -0.04041423 -0.018094925
0.14497024 -0.22397335 0.23956929 -0.020379497 0.15727189 -0.06659597 -0.0047904234 0.07572049
0.14581896 0.023886189 -0.017431134 -0.07191642 -0.013660737 -0.010324865 -0.120443225 0.1480286
-0.13355029 0.15375021 -0.07709496 -0.029480318 0.09929571 -0.07066615 -0.20541492 -0.14477684
-0.15637088 -0.19540867 0.09388788 -0.1448463 0.012122768 -0.10053987 -0.06400366 -0.21239072
0.16382796 -0.11721077 0.08226949 -0.25133976 0.092071734 -0.15930611 0.01597269 0.013724017
0.10044439 -0.0058545293 0.029347667 -0.035445306 0.12452122 -0.07879482 0.059115462 -0.07625433
0.13349706 0.07588016 -0.02654184 0.0013484829 -0.18815362 -0.01406698 -0.016838977 -0.052337933
-0.1497932 -0.04415495 -0.002768394 0.13361606 0.07616644 -0.18406604 0.15649094 -0.047309186
0.056712262 -0.03271308 -0.004328482 0.00993533 -0.17386937 0.18393739 -0.12740354 0.14901046
0.00054880057 0.06401479 0.26954067 0.111741565 0.1373053 -0.05753109 -0.14540523 -0.16450205
-0.22226988 -0.1958123 -0.105827674 9.191076e-05 -0.015333628 0.07643425 0.17069879 0.055954102
-0.008905196 0.009982181 0.06513934 -0.117606476 0.16723008 0.01946952 0.16004755 -0.23312505
-0.1617192 -0.08050542 -0.037648115 -0.08036614 0.10433087 0.09071034 -0.055551387 0.21766987
0.040999696 -0.03101359 0.074651055 0.32437834 -0.28018773 0.20730229 0.16645186 0.002393654
0.09083705 0.033606738 -0.14402452 0.089512914 0.31518152 -0.14003606 0.09795388 0.13061942
0.009823551 -0.11972127 -0.13521591 -0.025573276 -0.10019221 0.12883042 -0.19521561 -0.041175764
0.061894003 0.101097256 -0.048893146 0.22931997 0.08453049 -0.34901315 0.07858663 -0.06544437
0.08314015 -0.010977055 0.1317815 -0.08881952 -0.065195985 0.08527825 -0.13223557 -0.031707283
-0.1631 0.31959736 0.08600349 0.06406862 0.121602714 0.17633796 -0.09612484 -0.3253695
-0.11515491 0.02505253 -0.06235299 -0.017749943 -0.03777964 -0.12428582 -0.120931126 -0.30258965
0.030436378 -0.053746853 0.0444119 -0.20766743 -0.02479339 -0.083357036 0.14548293 -0.01616308
-0.025137177 -0.062681705 -0.2596475 -0.09217106 -0.10557293 -0.14766885 -0.06394631 0.03344632
-0.16933526 0.0559186 0.06656378 0.0054419963 -0.22611898 0.10966562 0.1884822 -0.030459456
-0.01919075 -0.15849572 0.14416988 0.00450715 -0.07670914 -0.1107362 0.21118367 0.08099992
0.021041242 0.17351165 -0.2312947 0.062671974 -0.043060124 -0.064673804 0.05843382 0.0284351
00000000: 4f39 54be 431e d1bd 0e01 adbc 5c45 623e
00000010: 1951 a93b 40bf 243d f87a bf3d 357f 71bd
00000020: 81b3 c1bd 37a1 9e3d 955b a9bd b25d 293d
00000030: 982e 093e d458 2ebe a454 f4bd 6d99 97bd
00000040: e4b0 a2bd a8ab a0bd 540f 1b3e 2065 a1bd
00000050: b014 dc3c 7445 dbbd 8090 2c3b 5d35 9dbe
00000060: 1a45 f53d c0c5 3e3c 3b50 71be 37df 17bc
00000070: 1dfa 4cbd 17d2 423e 1052 afbc 7a04 0abe
00000080: 000f 5dba bf83 4cbe 8ead fb3d 8b13 6b3d
00000090: 026a 3cbe 783f ccbd 083b bb3c eca8 2ebe
000000a0: 2905 073c 8f49 f3bd 7e53 1cbd 036c f33d
000000b0: c20d fcbd e829 b93c 8cf6 2cbd 379c 063e
000000c0: 9eae c3bb 8c70 1bbe b838 293c efc0 e5bd
000000d0: 49a3 fbbd 557a 313d 6489 25bd cf3b 94bc
000000e0: 1473 143e 4559 65be a751 753e e7f2 a6bc
000000f0: e20b 213e 7863 88bd fcf8 9cbb 5813 9b3d
00000100: 9151 153e f8ac c33c bdcb 8ebc ea48 93bd
00000110: 49d1 5fbc 9f29 29bc f0aa f6bd cf94 173e
00000120: 68c1 08be b270 1d3e f6e3 9dbd b580 f1bc
00000130: 8d5b cb3d 6ab9 90bd 4a58 52be 6140 14be
00000140: b01f 20be 3619 48be 4a48 c03d 9752 14be
00000150: 939e 463c d9e7 cdbd 5a14 83bd f47c 59be
00000160: 84c2 273e 330c f0bd e87c a83d 9baf 80be
00000170: 1b90 bc3d 2421 23be 29d9 823c b3da 603c
00000180: cab5 cd3d 5ad7 bfbb 856a f03c 192f 11bd
00000190: fb04 ff3d 2e5f a1bd 0e23 723d 3b2b 9cbd
000001a0: 74b3 083e 0f67 9b3d 466e d9bc 94bf b03a
000001b0: 58ab 40be 3179 66bc e5f1 89bc 4d60 56bd
000001c0: 6363 19be d2db 34bd f26d 35bb a6d2 083e
000001d0: 27fd 9b3d cf7b 3cbe 293f 203e 47c7 41bd
000001e0: 1e4b 683d 27fe 05bd f0d5 8dbb cbc7 223c
000001f0: d00a 32be 155a 3c3e 1376 02be 3396 183e
00000200: 62dd 0f3a 301a 833d 3c01 8a3e c3d8 e43d
00000210: c399 0c3e b8a5 6bbd 1ce5 14be 3a73 28be
00000220: b79a 63be 0583 48be 2ebc d8bd 37c0 c038
00000230: e639 7bbc 8f89 9c3d aacb 2e3e 2130 653d
00000240: 19e7 11bc 4d8c 233c c667 853d aadb f0bd
00000250: 5d3e 2b3e 8b7e 9f3c 81e3 233e 55b8 6ebe
00000260: b899 25be 07e0 a4bd e934 1abd 0197 a4bd
00000270: 6cab d53d 58c6 b93d da89 63bd dae4 5e3e
00000280: 4cef 273d 3610 febc a7e2 983d eb14 a63e
00000290: c474 8fbe 0d47 543e 5b72 2a3e dade 1c3b
000002a0: c608 ba3d 38a7 093d 2a7b 13be 8c52 b73d
000002b0: 795f a13e 9d65 0fbe 0b9c c83d 19c1 053e
000002c0: f6f2 203c 6d30 f5bd 0a76 0abe 0c7f d1bc
000002d0: 9331 cdbd 1fec 033e 9ae6 47be eba7 28bd
000002e0: 9184 7d3d 140c cf3d 2e44 48bd dbd2 6a3e
000002f0: 521e ad3d dab1 b2be 07f2 a03d b307 86bd
00000300: 6245 aa3d 1bd9 33bc bbf1 063e 02e7 b5bd
00000310: 7985 85bd 5da6 ae3d c368 07be 7fdf 01bd
00000320: b003 27be 44a2 a33e 9922 b03d 6936 833d
00000330: d80a f93d f091 343e 1add c4bd d596 a6be
00000340: 56d6 ebbd f73a cd3c d965 7fbd 5468 91bc
00000350: d3be 1abd 9089 febd bdaa f7bd 08ed 9abe
00000360: b655 f93c a925 5cbd 41e9 353d c5a6 54be
00000370: 821b cbbc 18b7 aabd 7af9 143e 7068 84bc
00000380: 7bec cdbc 445f 80bd 84f0 84be 2ec4 bcbd
00000390: 9f36 d8bd 8136 17be 48f6 82bd 02ff 083d
000003a0: 3966 2dbe e70a 653d 9752 883d c652 b23b
000003b0: bc8b 67be 5e98 e03d 7a01 413e 1c86 f9bc
000003c0: eb35 9dbc b44c 22be 45a1 133e b7b0 933b
000003d0: ae19 9dbd a9c9 e2bd 8840 583e 49e3 a53d
000003e0: af5e ac3c 0aad 313e 85d8 6cbe 2a5a 803d
000003f0: d05f 30bd b373 84bd 4d58 6f3d baf0 e83c

graph_rnn.bias_ih_l0 f4 [192]
-0.1470456 -0.036041424 0.04033649 -0.06400621 0.25910535 -0.11475963 0.004081818 -0.16805673
0.034023177 -0.066892445 -0.08512479 -0.05844782 -0.13520011 0.008812602 -0.018860184 0.009705307
0.15643239 0.074750654 -0.19589096 -0.08816301 0.10435373 0.06502761 0.07482235 -0.08079605
-0.035776712 0.10305988 0.013923251 -0.099519685 -0.14257671 -0.10450477 -0.14716218 -0.022225581
-0.08086086 -0.099505946 -0.0882213 0.10192277 0.027919857 0.098445244 0.21693094 0.008167252
0.032932926 0.01187671 0.07627337 -0.293243 0.077135116 -0.120268025 -0.028598132 -0.1550556
0.017123595 -0.053820737 -0.023512907 -0.06024805 -0.086741954 0.011369858 -0.09019476 -0.038325056
-0.057271775 0.053189162 0.01968519 0.1928348 0.05439189 -0.19616234 0.11674677 0.2044579
-0.15036455 -0.147059 -0.1223375 -0.1611785 -0.036722247 0.091221064 -0.07920868 -0.232402
-0.035127968 -0.28262666 -0.13372268 -0.27193934 -0.10297955 -0.024801675 -0.08994533 -0.23702139
-0.07827059 -0.15122525 -0.048708808 -0.061937384 -0.14660843 -0.007628925 -0.004871279 -0.12704737
-0.051377058 -0.1778245 -0.06274809 -0.0036299094 -0.24494128 -0.24105483 -0.1716903 -0.18404171
-0.121513866 -0.043086324 -0.18130833 -0.1853772 -0.0693793 -0.2061817 -0.020517891 -0.13683924
0.0013952403 -0.18766592 -0.17793943 -0.14700256 -0.1064559 0.0873614 -0.12345521 -0.067830615
-0.09321795 -0.12411036 -0.028524324 -0.25713617 0.013512581 -0.19335733 -0.42287284 -0.10598856
-0.28161275 -0.09792107 -0.21229196 -0.12490466 -0.17554198 -0.043807115 -0.27876568 -0.058985762
0.20031454 -0.123191744 0.14276308 -0.09355136 0.10309681 -0.0951048 -0.05195602 0.11713676
0.08706317 -0.22142288 -0.124107905 0.010777822 0.10486829 0.1624021 -0.022733195 -0.16191317
-0.3009206 0.19142543 0.0567926 -0.09769976 0.099052556 -0.06878591 0.14956515 0.09142701
0.15574123 -0.011236785 0.0925039 -0.13333389 0.25371042 -0.11931517 -0.13346262 0.24460983
-0.01457936 0.03095306 0.11063011 0.22401036 -0.17823872 -0.022646539 0.12528878 0.024200387
-0.12524001 0.0044206013 -0.12360569 -0.18621632 0.19893603 -0.06898096 -0.030635135 -0.009866372
-0.2563931 -0.11419933 0.080206975 -0.12402146 0.067349434 0.18994842 -0.23859145 -0.019002644
-0.1450452 -0.038929116 0.073770575 0.17875545 0.1352769 -0.005331155 0.02493152 -0.22047396
00000000: 1f93 16be 2ca0 13bd e037 253d b015 83bd
00000010: 75a9 843e 1907 ebbd c5c0 853b 1017 2cbe
00000020: e35b 0b3d e8fe 88bd e855 aebd fb66 6fbd
00000030: e671 0abe bb62 103c ac80 9abc 0203 1f3c
00000040: d02f 203e df16 993d a497 48be cf8e b4bd
00000050: 69b7 d53d 322d 853d 763c 993d 6678 a5bd
00000060: 9a8a 12bd 0f11 d33d 591e 643c fad0 cbbd
00000070: a1ff 11be 9906 d6bd afb1 16be 6c12 b6bc
00000080: 619a a5bd c6c9 cbbd 5ead b4bd e3bc d03d
00000090: 2fb8 e43c a99d c93d 2523 5e3e f0cf 053c
000000a0: ade4 063d 8896 423c 3635 9c3d f223 96be
000000b0: 04f9 9d3d 154f f6bd a146 eabc e5c6 1ebe
000000c0: c846 8c3c 2273 5cbd 249e c0bc a9c6 76bd
000000d0: c4a5 b1bd a448 3a3c 08b8 b8bd bcfa 1cbd
000000e0: cf95 6abd e1dc 593d d642 a13c 7c76 453e
000000f0: 08ca 5e3d c8de 48be ee18 ef3d 695d 513e
00000100: 2af9 19be a296 16be 158c fabd fa0b 25be
00000110: 116a 16bd 1cd2 ba3d 2938 a2bd cafa 6dbe
00000120: 58e2 0fbd 71b4 90be 99ee 08be a23b 8bbe
00000130: f1e6 d2bd e22c cbbc 4235 b8bd bcb5 72be
00000140: 554c a0bd cbda 1abe e382 47bd 0eb2 7dbd
00000150: 8520 16be 10fc f9bb 409f 9fbb b518 02be
00000160: c070 52bd a017 36be 1282 80bd c6e3 6dbb
00000170: e3d1 7abe 14d7 76be 95cf 2fbe 6e75 3cbe
00000180: 43dc f8bd 497b 30bd e4a8 39be 85d3 3dbe
00000190: bc16 8ebd 4c21 53be 2315 a8bc 961f 0cbe
000001a0: 7fe0 b63a 7f2b 40be c135 36be d787 16be
000001b0: 8d05 dabd 89ea b23d 16d6 fcbd c7ea 8abd
000001c0: 0de9 bebd 932d febd d8ab e9bc 5aa7 83be
000001d0: df63 5d3c 77ff 45be ca82 d8be 8810 d9bd
000001e0: 8c2f 90be d88a c8bd 1063 59be 04ce ffbd
000001f0: 47c1 33be 176f 33bd 60ba 8ebe 0e9b 71bd
00000200: 411f 4d3e f44b fcbd 7c30 123e db97 bfbd
00000210: 6c24 d33d 4ec6 c2bd d6cf 54bd 66e5 ef3d
00000220: 2d4e b23d aebc 62be 492c febd 7695 303c
00000230: 30c5 d63d bc4c 263e f73a babc 91cc 25be
00000240: 4412 9abe 0705 443e 5b9f 683d d016 c8bd
00000250: 11dc ca3d a1df 8cbd 9b27 193e 163e bb3d
00000260: a17a 1f3e 7e1a 38bc af72 bd3d ae88 08be
00000270: 55e6 813e 835b f4bd 6daa 08be 007b 7a3e
00000280: 45de 6ebc 4691 fd3c 0a92 e23d f962 653e
00000290: 3684 36be 3c85 b9bc b44b 003e e43f c63c
000002a0: eb3e 00be b1da 903b fb24 fdbd 7eaf 3ebe
000002b0: e3b5 4b3e e445 8dbd 89f6 fabc 90a6 21bc
000002c0: f545 83be 57e1 e9bd 8e43 a43d f7fe fdbd
000002d0: 80ee 893d d781 423e 5151 74be 6fab 9bbc
000002e0: bb86 14be 2374 1fbd 0715 973d ab0b 373e
000002f0: 0786 0a3e f8b0 aebb 303d cc3c edc3 61be

graph_rnn.bias_hh_l0 f4 [192]
-0.10819585 -0.12466532 0.018626044 -0.07352996 0.31561852 0.10103542 0.04092822 -0.047020566
0.13490103 -0.10130991 -0.06894198 0.06847 -0.09506692 0.05284352 -0.02905285 -0.14448531
0.09477382 -0.022540275 -0.024958245 -0.048038773 0.06228136 -0.013366801 0.079806596 -0.053283405
-0.0530487 0.09910125 0.05825471 0.003822901 -0.00383137 -0.14760284 -0.12525554 0.005115004
-0.031519085 -0.047310527 0.04595664 -0.038185455 0.15612917 0.15548865 0.32565987 0.05653151
-0.054606836 0.103568844 -0.04510653 -0.24704331 0.0042661913 0.0883706 -0.052287318 -0.0691911
0.2562637 0.17372939 -0.072396435 -0.1143631 -0.160003 -0.112489775 -0.28514373 0.060794957
-0.17824942 0.044675425 -0.056828715 0.17303407 -0.065860435 -0.21716613 -0.047733072 0.24995556
0.06771573 -0.15423776 -0.2610832 -0.09835301 -0.1666637 -0.09029731 -0.035355605 -0.1403924
-0.050883856 -0.23819423 -0.24676904 -0.28241086 -0.048405353 -0.03677958 -0.05140845 -0.13064633
-0.053503975 -0.22602734 -0.07962555 -0.19540827 -0.15390734 0.019699216 -0.14279473 -0.12964165
-0.15359512 -0.079724364 0.014421668 -0.06127108 -0.060858138 -0.18569648 -0.14821908 -0.22959676
-0.18757163 -0.051306695 -0.42431453 -0.07837334 0.00062341546 -0.039073166 -0.043502957 0.0039994163
-0.011308254 -0.072019085 -0.123995766 -0.36359677 -0.18573505 -0.049676687 -0.057764824 -0.10027239
-0.13605154 0.029727638 -0.100864366 -0.32806882 0.054961022 -0.20389426 -0.44488242 -0.08489271
-0.30882382 0.002581877 -0.10157195 -0.08565416 -0.09714721 -0.021710327 -0.29735023 -0.1676234
0.06182403 -0.2984938 0.14440913 -0.13993819 0.22642808 -0.042839408 0.054779716 0.02162488
0.031973846 -0.18211307 -0.29631436 -0.093515456 0.00038923722 0.20583265 -0.17578474 -0.043356694
-0.23584907 0.19388759 0.067555904 -0.1241872 0.25487933 0.21252447 -0.000104663275 0.067466095
0.07920638 0.009964148 0.015887119 -0.08349897 -0.0077082017 -0.124108605 0.10657294 0.2232419
0.04753393 -0.114877574 0.14085504 0.14082298 -0.0021799854 0.06687772 0.13235153 -0.14315344
-0.09475575 0.008209812 -0.13448972 -0.2244569 0.22425988 -0.15675072 -0.044905223 0.1830638
-0.093036205 0.062353034 0.1851656 0.06504951 -0.12067238 0.2161097 -0.14851613 0.06273979
-0.08477009 0.014241176 0.06613773 0.26360312 0.060938396 -0.026768453 0.19092289 -0.26093733
00000000: c995 ddbd 8850 ffbd a595 983c e096 96bd
00000010: c098 a13e a9eb ce3d 59a4 273d a398 40bd
00000020: 7f23 0a3e 927b cfbd 7431 8dbd 003a 8c3d
00000030: 72b2 c2bd 7272 583d 3e00 eebc f5f3 13be
00000040: c718 c23d 62a6 b8bc 3c75 ccbc 4ec4 44bd
00000050: bd1a 7f3d 6d00 5bbc a471 a33d b33f 5abd
00000060: 9849 59bd 99f5 ca3d 7e9c 6e3d a389 7a3b
00000070: b917 7bbb 3325 17be fd42 00be c39b a73b
00000080: 281a 01bd afc8 41bd 083d 3c3d 5a68 1cbd
00000090: 53e0 1f3e 6b38 1f3e e4bc a63e 968d 673d
000000a0: 6bab 5fbd e71b d43d a0c1 38bd ecf8 7cbe
000000b0: 68cb 8b3b a5fb b43d 3a2b 56bd 10b4 8dbd
000000c0: ff34 833e 1ee6 313e 9544 94bd 3337 eabd
000000d0: d4d7 23be 0a61 e6bd 5cfe 91be 2204 793d
000000e0: 0487 36be 94fd 363d 3ac5 68bd d82f 313e
000000f0: d6e1 86bd cc60 5ebe c183 43bd 5af4 7f3e
00000100: 8bae 8a3d 81f0 1dbe b2ac 85be 4e6d c9bd
00000110: e4a9 2abe cced b8bd 0ad1 10bd 06c3 0fbe
00000120: 976b 50bd 30e9 73be 06b1 7cbe 2898 90be
00000130: b144 46bd 2fa6 16bd ab91 52bd 27c8 05be
00000140: fc26 5bbd b673 67be b812 a3bd 1b19 48be
00000150: e399 1dbe 4060 a13c c838 12be c8c0 04be
00000160: 0a48 1dbe 8746 a3bd dc48 6c3c 62f7 7abd
00000170: 6246 79bd 3827 3ebe bec6 17be 6a1b 6bbe
00000180: c712 40be f826 52bd c13f d9be 3482 a0bd
00000190: b46c 233a 2f0b 20bd 2830 32bd 890d 833b
000001a0: 4146 39bc be7e 93bd 7ef1 fdbd 5b29 babe
000001b0: 5431 3ebe c879 4bbd cf9a 6cbd 9c5b cdbd
000001c0: 1851 0bbe 6087 f33c fa91 cebd a3f8 a7be
000001d0: cf1e 613d a8c9 50be a1c7 e3be 3bdc adbd
000001e0: 281e 9ebe b534 293b f404 d0bd 736b afbd
000001f0: 1ef5 c6bd dbd9 b1bc 4a3e 98be 78a5 2bbe
00000200: 323b 7d3d 2ed4 98be fddf 133e f54b 0fbe
00000210: c3dc 673e 6078 2fbd b260 603d a926 b13c
00000220: 02f7 023d d97b 3abe 84b6 97be 0885 bfbd
00000230: 8912 cc39 cbc5 523e ea00 34be ca96 31bd
00000240: 6b82 71be 788a 463e c05a 8a3d dc55 febd
00000250: 8b7f 823e 04a0 593e ab7e dbb8 aa2b 8a3d
00000260: f436 a23d aa40 233c b425 823c 8201 abbd
00000270: 1595 fcbb a72c febd ea42 da3d 8699 643e
00000280: f0b2 423d ef44 ebbd 4e3c 103e e633 103e
00000290: 16de 0ebb 30f7 883d 2987 073e d196 12be
000002a0: 4d0f c2bd 7382 063c acb7 09be 08d8 65be
000002b0: 62a4 653e 4383 20be 8aee 37bd 1475 3b3e
000002c0: c489 bebd e565 7f3d 0d9c 3d3e ad38 853d
000002d0: 1523 f7bd dc4b 5d3e 9d14 18be b87d 803d
000002e0: f19b adbd d253 693c 3873 873d fdf6 863e
000002f0: 8a9a 793d 8449 dbbc 4a81 433e 9499 85be

graph_rnn.weight_ih_l1 f4 [192, 64]
0.05956077 0.07862096 -0.36931145 -0.25339037 -0.01575353 -0.026541982 0.12206959 -0.08219961
-0.05799093 0.29905522 -0.012712418 -0.12086057 -0.4823843 -0.18933998 0.07863346 -0.028752131
0.0745781 0.07060239 0.19149645 -0.26765925 -0.1490981 -0.21258835 -0.107690975 -0.05060701
0.2686585 -0.17995381 -0.012431186 -0.029025301 0.16069219 0.21752091 -0.036820963 0.25828546
-0.082552224 0.3031313 -0.14054817 -0.23318222 -0.08704173 -0.26188278 -0.2189025 0.21611874
-0.185992 -0.13574009 0.11019685 0.0999574 -0.046667784 -0.1428942 -0.116834246 0.01016783
0.084914066 -0.14838822 0.25808555 -0.07207011 -0.20680624 -0.16918713 -0.2521412 -0.08560066
-0.012358357 -0.050146803 0.1574332 0.16545148 0.15340267 0.038931575 -0.14724638 -0.07422384
0.035464466 -0.3208028 -0.17533809 -0.052820865 -0.28759095 0.15458837 0.2426958 -0.18589735
0.24152786 -0.14059982 0.07245508 0.37741992 -0.24999769 -0.19225682 0.21215223 0.2860333
0.34337845 0.20566393 0.07234042 -0.26185608 -0.08615734 -0.20748289 -0.011338789 -0.08404296
-0.16799556 -0.055347692 -0.4643015 0.15107562 0.29802036 0.0213767 -0.30322933 0.43229774
-0.008040168 -0.22469819 -0.061839063 -0.16851696 -0.22965214 -0.07330329 0.005397943 0.016620658
0.08641172 -0.69419116 0.4850729 -0.1775125 -0.21306445 0.09171233 -0.28050268 0.3745799
0.35406643 -0.2460736 0.09854611 -0.07358128 -0.19191973 -0.07864703 -0.38936424 0.20494682
0.044407193 -0.024280665 0.5275337 -0.1071157 0.4735219 -0.12961954 0.163401 0.16472918
0.20852472 0.95956045 -0.698928 0.37135935 0.285275 0.12563086 0.24860087 0.008204495
0.27491447 -0.1467993 0.090389706 -0.10569749 0.09471102 -0.5028527 -0.11153467 -0.14485863
0.1064328 -0.2263407 0.1273685 0.1287794 0.032944947 -0.24432848 -0.023900306 -0.2608716
-0.1419082 -0.27552456 -0.39417362 0.26202098 0.15282467 -0.6603087 -0.21574868 -0.019512823
0.10090615 0.10545596 -0.30754888 -0.078961655 0.08481407 0.019408114 0.11522433 0.14512269
0.14746696 0.3584606 0.02891576 -0.2737594 -0.47983378 0.059133757 0.009324457 -0.4513028
0.44526258 0.0048017628 -0.07818339 0.24049866 0.08264648 0.03091466 0.022328166 0.454187
0.123309314 0.5350438 -0.34619814 -0.07239372 -0.2999928 0.8040639 -0.13507771 0.13214526
0.04559486 0.4094896 -0.28500387 -0.07396412 0.24073957 -0.16306987 0.15078835 0.13834353
0.10826583 -0.36463922 -0.33548218 0.007408137 -0.09814613 0.14016059 0.4321342 -0.10267003
-0.14450534 0.3374247 0.124112636 -0.08805223 0.5516333 0.053855576 -0.02340003 -0.07314124
0.020089645 0.009190646 0.035865016 0.15378043 -0.055914935 -0.33182657 0.12515408 -0.070785046
-0.13428159 -0.0861921 0.22577846 0.16910066 -0.10118687 0.3817285 0.18720417 0.10740159
0.18030523 0.56954086 -0.16977301 -0.09939325 0.079373285 0.04325389 0.060847122 -0.20226122
0.05605818 0.15520974 0.12960218 -0.06643464 0.32828888 0.14565852 0.41314706 0.2728431
-0.09559878 -0.017100077 -0.06663169 0.022272164 -0.29226145 -0.060613345 -0.17781134 -0.05973646
00000000: fef5 733d 0704 a13d 6416 bdbe 62bc 81be
00000010: 8c0d 81bc 926e d9bc 9fff f93d 4558 a8bd
00000020: e687 6dbd c41d 993e bf47 50bc bf85 f7bd
00000030: 13fb f6be 57e2 41be 940a a13d 9789 ebbc
00000040: 67bc 983d fc97 903d a517 443e a20a 89be
00000050: 2cad 18be c3b0 59be 168d dcbd 4c49 4fbd
00000060: 9b8d 893e d045 38be 2cac 4bbc 78c6 edbc
00000070: 7e8c 243e cdbd 5e3e 94d1 16bd fe3d 843e
00000080: 2411 a9bd 0734 9b3e dceb 0fbe 52c7 6ebe
00000090: ef42 b2bd 8015 86be fa27 60be 3b4e 5d3e
000000a0: b074 3ebe 73ff 0abe e3ae e13d 77b6 cc3d
000000b0: b826 3fbd db52 12be cb46 efbd f896 263c
000000c0: 6de7 ad3d 15f3 17be ca23 843e 7e99 93bd
000000d0: 04c5 53be 643f 2dbe a718 81be 664f afbd
000000e0: b57a 4abc bc66 4dbd 2b36 213e 1d6c 293e
000000f0: 9715 1d3e b776 1f3d c1c7 16be ab02 98bd
00000100: 3043 113d 4440 a4be d48b 33be b15a 58bd
00000110: 1f3f 93be 6a4c 1e3e 3f85 783e e05b 3ebe
00000120: 1453 773e 66f9 0fbe 5463 943d 2f3d c13e
00000130: 65ff 7fbe f9de 44be 6f3e 593e f572 923e
00000140: 4dcf af3e 9199 523e 3727 943d 0012 86be
00000150: 4273 b0bd 6576 54be 54c6 39bc b71e acbd
00000160: 0707 2cbe 43b4 62bd edb8 edbe 91b3 1a3e
00000170: 2096 983e 301e af3c e040 9bbe 2156 dd3e
00000180: e9ba 03bc 4817 66be f54a 7dbd b68f 2cbe
00000190: ee29 6bbe 0920 96bd 3ae1 b03b 0c28 883c
000001a0: a1f8 b03d 83b6 31bf 7a5b f83e d6c5 35be
000001b0: 912d 5abe add3 bb3d 0c9e 8fbe f0c8 bf3e
000001c0: 3248 b53e b8fa 7bbe 8bd2 c93d c8b1 96bd
000001d0: 9b86 44be b211 a1bd c05a c7be 94dd 513e
000001e0: 51e4 353d 3fe8 c6bc 730c 073f 7a5f dbbd
000001f0: 7671 f23e fcba 04be 9752 273e c4ae 283e
00000200: 8187 553e c1a5 753f f2ec 32bf d022 be3e
00000210: 910f 923e 60a5 003e 3a91 7e3e 256c 063c
00000220: 97c1 8c3e 8e52 16be 3d1e b93d ed77 d8bd
00000230: daf7 c13d f4ba 00bf 4a6c e4bd d255 14be
00000240: 71f9 d93d dbc5 67be e36c 023e bfde 033e
00000250: 48f1 063d 3f31 7abe 93ca c3bc f690 85be
00000260: 6250 11be 8e11 8dbe 20d1 c9be 9d27 863e
00000270: 127e 1c3e fe09 29bf 39ed 5cbe 5bd9 9fbc
00000280: e2a7 ce3d 4bf9 d73d 0c77 9dbe a6b6 a1bd
00000290: 00b3 ad3d c4fd 9e3c bcfa eb3d 0b9b 143e
000002a0: 9401 173e 2688 b73e bee0 ec3c 312a 8cbe
000002b0: c6ac f5be 3d36 723d 9bc5 183c 2911 e7be
000002c0: 75f9 e33e 1b58 9d3b 9d1e a0bd 4845 763e
000002d0: 8f42 a93d be40 fd3c 8fe9 b63c 338b e83e
000002e0: 9889 fc3d a1f8 083f e240 b1be 2943 94bd
000002f0: a898 99be 22d7 4d3f d051 0abe 1651 073e
00000300: adc1 3a3d 9fa8 d13e 07ec 91be 807a 97bd
00000310: 6f84 763e cafb 26be 4368 1a3e eda9 0d3e
00000320: 7aba dd3d feb1 babe 52c4 abbe f5bf f23b
00000330: d700 c9bd 4286 0f3e b240 dd3e aa44 d2bd
00000340: 35f9 13be eec2 ac3e c42e fe3d ba54 b4bd
00000350: d737 0d3f aa97 5c3d 6bb1 bfbc 13cb 95bd
00000360: 0a93 a43c 5d94 163c 32e7 123d 9e78 1d3e
00000370: 0f07 65bd 2ce5 a9be 6428 003e c0f7 90bd
00000380: 1d81 09be 7c85 b0bd 7832 673e b928 2d3e
00000390: 103b cfbd eb71 c33e 73b2 3f3e 5df5 db3d
000003a0: efa1 383e 6ecd 113f fad8 2dbe b08e cbbd
000003b0: 768e a23d fe2a 313d d53a 793d 911d 4fbe
000003c0: 439d 653d 4def 1e3e 6fb6 043e e20e 88bd
000003d0: 7b15 a83e 8227 153e 0388 d33e 17b2 8b3e
000003e0: 4bc9 c3bd 7615 8cbc 3276 88bd 1d74 b63c
000003f0: 4ba3 95be b345 78bd 2d14 36be 38ae 74bd

graph_rnn.weight_hh_l1 f4 [192, 64]
0.10868151 -0.025791885 -0.13383307 -0.025217758 0.16098666 -0.1273323 0.12426691 -0.21790862
-0.14713274 0.07384355 0.11659649 -0.09050236 -0.18093029 -0.031229261 -0.10076552 -0.15070298
-0.12466621 -0.13016993 -0.10975247 -0.16288064 -0.087634705 -0.020062406 0.18162659 0.045294542
0.30251297 0.05242479 -0.048139706 0.20057435 0.04011874 -0.18426687 0.11466737 0.1438977
-0.21321754 0.11383102 0.045025874 0.06876989 -0.63196385 -0.15355973 -0.058638513 0.093428634
0.0501523 -0.3306739 0.3407447 -0.22138707 -0.2054276 0.08414203 0.016164271 -0.027942196
0.2023942 0.075579345 -0.29241627 0.08596567 0.05816605 -0.08795345 -0.071863346 -0.018756393
-0.30758247 0.28580913 -0.0016912597 0.29491848 -0.23520273 0.21728407 0.29358155 0.30405408
-0.49508414 -0.07517603 0.12799184 0.06831381 0.010039582 0.08533935 0.22770269 0.0012907174
-0.10413581 -0.2612257 0.043154303 0.017043244 0.10934499 -0.114396356 0.09401621 0.0024241868
-0.12316311 -0.2192005 -0.13611235 -0.06511448 -0.021978034 -0.31766507 0.30400234 0.09578616
0.03358141 -0.16643485 -0.18435512 -0.058669586 -0.0027650346 0.39849964 0.06387011 0.18037562
-0.13485669 0.03925084 -0.048756633 -0.053355396 0.4215432 0.14127359 -0.15374248 -0.140481
0.27916318 0.5598916 0.2525349 -0.1290222 -0.17966497 0.08257644 -0.1402559 0.0093334885
-0.14534919 0.02541848 -0.07647468 0.02982757 -0.052703667 0.18274754 0.30281225 0.40065295
-0.007871409 0.3439294 0.065622434 0.49009544 0.0040931846 -0.006343614 0.20412573 -0.10784626
0.08221577 -0.030261097 -0.01125149 0.2880349 -0.048760794 0.02557349 -0.0537107 0.16673768
-0.05140055 0.22347091 -0.37786356 0.25919214 0.25334418 -0.31998008 0.21345867 -0.08800524
0.3045449 0.11779601 0.12426309 0.098477915 -0.0430047 0.082704306 -0.3468001 -0.31268844
0.16653198 0.22524059 0.010099125 0.041139632 0.072386816 0.0965616 0.21896744 0.10692801
0.08286058 -0.24402423 -0.06774288 0.12273315 0.35540512 -9.586563e-05 0.3177745 0.009392509
-0.24579939 -0.063348904 -0.36677712 -0.027951855 0.18881318 -0.12606731 0.1803231 -0.074919514
-0.45551756 -0.24515504 0.27411357 -0.28500113 -0.3028942 0.049520947 -0.26589775 -0.27421543
0.47498217 -0.13222712 0.14129514 -0.050043672 0.24064791 -0.09770822 -0.051828228 0.19614024
0.108626515 -0.03585041 0.13185756 -0.22084752 -0.17428282 -0.07608426 0.2609513 0.12519357
0.37402883 0.11139356 0.05612597 -0.10777579 -0.120206945 -0.07855764 -0.111974105 0.065047145
0.07256913 0.023475932 -0.13915874 -0.5427976 -0.16031325 -0.043786548 -0.12991855 -0.03606327
0.068691984 0.15221417 -0.33339408 -0.4909357 -0.17057161 -0.18518132 0.23639347 -0.18405244
-0.047499575 -0.030159414 0.18812437 -0.07225165 0.07184031 0.033701915 -0.0911096 0.015654823
-0.07329719 -0.29867846 0.050055135 0.32564846 0.3525612 -0.08373773 -0.100650616 -0.041794658
-0.11762611 0.08428045 -0.09940127 0.07456885 0.15292914 -0.14793646 0.069414064 -0.15704869
0.0718178 0.0057241805 -0.6569339 0.035545122 0.12597951 -0.042557087 0.18484616 0.16594605
00000000: 6994 de3d 8149 d3bc 890b 09be 7995 cebc
00000010: b0d9 243e 6663 02be a67f fe3d 7023 5fbe
00000020: f7a9 16be 4a3b 973d 24ca ee3d 4d59 b9bd
00000030: ca45 39be 82d4 ffbc 275e cebd e251 1abe
00000040: ff50 ffbd 444b 05be e7c5 e0bd 2fca 26be
00000050: d379 b3bd ea59 a4bc 52fc 393e c586 393d
00000060: fbe2 9a3e 60bb 563d 242e 45bd 5d63 4d3e
00000070: 8c53 243d 74b0 3cbe bad6 ea3d eb59 133e
00000080: b355 5abe 3d20 e93d 0d6d 383d 3ad7 8c3d
00000090: 62c8 21bf c33e 1dbe f02e 70bd 8357 bf3d
000000a0: 806c 4d3d 174e a9be 1776 ae3e 4bb3 62be
000000b0: 9d5b 52be a852 ac3d ef6a 843c 08e7 e4bc
000000c0: 6d40 4f3e 58c9 9a3d 96b7 95be c50e b03d
000000d0: 863f 6e3d f020 b4bd 172d 93bd 02a7 99bc
000000e0: 737b 9dbe 9355 923e 42ad ddba 8eff 963e
000000f0: fcd8 70be b77f 5e3e 5250 963e faac 9b3e
00000100: ab7b fdbe e4f5 99bd 4b10 033e 1ce8 8b3d
00000110: 0f7d 243c 66c6 ae3d e52a 693e 4a2d a93a
00000120: 2845 d5bd 60bf 85be 91c2 303d 469e 8b3c
00000130: 44f0 df3d a348 eabd 928b c03d 1bdf 1e3b
00000140: f13c fcbd 1976 60be 0961 0bbe be5a 85bd
00000150: 470b b4bc ffa4 a2be 32a6 9b3e 892b c43d
00000160: a98c 093d e66d 2abe 97c7 3cbe 854f 70bd
00000170: 9535 35bb 2508 cc3e 55ce 823d 63b4 383e
00000180: df17 0abe 7dc5 203d 09b5 47bd 308b 5abd
00000190: 83d4 d73e 06aa 103e ab6e 1dbe 40da 0fbe
000001a0: 7aee 8e3e 0e55 0f3f 414c 813e 651e 04be
000001b0: 18fa 37be d61d a93d 3e9f 0fbe 7deb 183c
000001c0: 6bd6 14be 6b3a d03c c29e 9cbd f358 f43c
000001d0: cddf 57bd 2c22 3b3e 350a 9b3e 6222 cd3e
000001e0: 15f7 00bc 8417 b03e 0e65 863d caed fa3e
000001f0: 1f20 863b 17de cfbb 5606 513e 80de dcbd
00000200: be60 a83d 1fe6 f7bc 2b58 38bc 4f79 933e
00000210: 66b9 47bd 7f7f d13c c0ff 5bbd 48bd 2a3e
00000220: 6289 52bd 8fd5 643e 5577 c1be d5b4 843e
00000230: 54b6 813e 6ed4 a3be e994 5a3e 173c b4bd
00000240: 4fed 9b3e 093f f13d a67d fe3d caae c93d
00000250: b225 30bd e060 a93d c88f b1be b318 a0be
00000260: 5c87 2a3e 78a5 663e cd76 253c 0882 283d
00000270: 8a3f 943d 17c2 c53d 0039 603e 13fd da3d
00000280: cfb2 a93d 7de1 79be c7bc 8abd 855b fb3d
00000290: a9f7 b53e 780b c9b8 57b3 a23e 0ae3 193c
000002a0: d6b2 7bbe 12bd 81bd 36ca bbbe 4afb e4bc
000002b0: 3e58 413e ca17 01be 9ea6 383e 676f 99bd
000002c0: 9939 e9be ec09 7bbe 9d58 8c3e abeb 91be
000002d0: f314 9bbe 7ad6 4a3d c023 88be f765 8cbe
000002e0: dd30 f33e 8c66 07be acaf 103e 98fa 4cbd
000002f0: 686c 763e 3f1b c8bd d649 54bd fdd8 483e
00000300: 9477 de3d e1d7 12bd ab05 073e da25 62be
00000310: 3277 32be 11d2 9bbd 699b 853e be32 003e
00000320: b580 bf3e 4f22 e43d 58e4 653d 8eb9 dcbd
00000330: 0f2f f6bd d4e2 a0bd ae52 e5bd 7037 853d
00000340: 209f 943d 9950 c03c a17f 0ebe c9f4 0abf
00000350: 2829 24be 8659 33bd 5e09 05be 14b7 13bd
00000360: 62ae 8c3d 08de 1b3e a1b2 aabe ed5b fbbe
00000370: 53aa 2ebe 2ca0 3dbe 2111 723e 3e78 3cbe
00000380: ea8e 42bd e010 f7bc ada3 403e acf8 93bd
00000390: 0321 933d 050b 0a3d ac97 babd 8b3e 803c
000003a0: d61c 96bd 62ec 98be 9d06 4d3d 65bb a63e
000003b0: e782 b43e b07e abbd e921 cebd e030 2bbd
000003c0: f5e5 f0bd 3b9b ac3d e592 cbbd 8eb7 983d
000003d0: 7599 1c3e a87c 17be f628 8e3d 5fd1 20be
000003e0: 3615 933d e891 bb3b d22c 28bf c397 113d
000003f0: c600 013e 5750 2ebd 5048 3d3e c3ed 293e

graph_rnn.bias_ih_l1 f4 [192]
0.09559138 0.03300884 -0.10232593 -0.051524516 -0.2680604 0.014140306 0.056003872 -0.16646867
0.2683791 -0.13075523 -0.13830994 -0.24809024 -0.015813466 0.18696392 -0.19480103 0.023962913
-0.114209205 -0.019877711 -0.15844335 0.1193522 0.04110222 -0.09810299 -0.018077686 -0.052880313
-0.005502642 -0.21379496 0.05467113 0.14475612 0.1008855 0.1179833 0.35366106 0.25848302
-0.1831487 0.096556745 0.2802322 -0.047105055 0.026344147 -0.24862246 0.16833209 0.11108676
-0.02183846 0.09743718 0.08214584 0.18630658 -0.012635759 -0.09733193 -0.06412692 0.080335945
-0.110483095 0.048820004 0.0785048 0.23929329 0.18551898 0.08088922 -0.19999833 0.32345507
0.0727524 0.06746652 -0.12309347 0.021507068 -0.09403931 0.0697647 -0.036088925 -0.11235634
-0.3906887 -0.3064647 -0.12400061 -0.005643742 -0.20161408 -0.27662936 0.0667163 -0.13072622
-0.10450133 -0.047128633 0.13953042 -0.0691267 0.08495845 -0.14911641 -0.112032466 -0.17000125
-0.1291923 -0.09437927 -0.35976416 -0.09185424 -0.23866303 -0.3521351 -0.086142994 -0.17036007
-0.1614813 -0.29457253 -0.12808737 -0.11445239 -0.22195987 -0.20137334 -0.33275807 -0.27072784
-0.27159503 -0.3885985 -0.15673144 -0.08395055 -0.22160694 -0.24775262 0.10716544 -0.37308836
-0.021083666 0.00083970145 -0.22429234 -0.27440238 -0.115854904 0.113251545 0.027353652 0.009593942
-0.09438981 -0.041149683 -0.17293054 -0.09646107 0.007004744 -0.149925 0.19404025 0.077294715
-0.21691023 -0.109865606 0.06990159 -0.22005808 -0.25861746 0.02680318 -0.5030812 0.0768144
0.19970973 -0.2640805 -0.18588018 -0.11922696 0.17694828 0.11538974 -0.15917125 -0.062198937
0.2704693 -0.12654865 -0.2341187 -0.07075384 0.00944088 0.18759502 -0.103764646 0.27459952
-0.025745109 -0.05758523 0.13594028 0.010088537 0.050102234 -0.09700611 -0.0022245883 0.056869842
-0.26093605 -0.24864624 0.09598909 -0.25577363 -0.10233007 0.16330136 -0.14955977 -0.41649494
-0.10334345 0.20913814 -0.23503335 -0.06591867 0.08980254 -0.17263934 -0.026281394 0.16648647
0.09811966 0.10653315 0.21190503 0.08863963 0.18384647 0.023080852 -0.12491481 0.118557364
0.031626288 0.057701346 -0.19220619 -0.0032033164 0.15235797 0.12464794 0.020746127 0.19141325
-0.124480225 0.03319711 -0.12950361 0.08564347 0.04310156 0.14969908 0.04468979 -0.20333521
00000000: 6ac5 c33d 4734 073d 4290 d1bd 5f0b 53bd
00000010: 363f 89be beac 673c 5164 653d c376 2abe
00000020: fc68 893e b3e4 05be 1fa1 0dbe 5e0b 7ebe
00000030: 3e8b 81bc 7873 3f3e ec79 47be df4d c43c
00000040: 84e6 e9bd 95d6 a2bc f93e 22be ed6e f43d
00000050: cd5a 283d 38ea c8bd a817 94bc 0799 58bd
00000060: 824f b4bb 11ed 5abe d6ee 5f3d f33a 143e
00000070: 0f9d ce3d 3aa1 f13d 1013 b53e e357 843e
00000080: 558b 3bbe 8bbf c53d 987a 8f3e 3bf1 40bd
00000090: aecf d73c e396 7ebe 3f5f 2c3e 7581 e33d
000000a0: 92e6 b2bc 258d c73d 143c a83d 27c7 3e3e
000000b0: 3706 4fbc f755 c7bd fa54 83bd 2c87 a43d
000000c0: f644 e2bd 7cf7 473d 20c7 a03d 4d09 753e
000000d0: b0f8 3d3e 3fa9 a53d 5dcc 4cbe e79b a53e
000000e0: 36ff 943d e32b 8a3d 6e18 fcbd 972f b03c
000000f0: af97 c0bd cce0 8e3d fbd1 13bd 151b e6bd
00000100: 5908 c8be f1e8 9cbe 08f4 fdbd 24ef b8bb
00000110: ec73 4ebe 5da2 8dbe 8ea2 883d 18dd 05be
00000120: cb04 d6bd f409 41bd 10e1 0e3e 4d92 8dbd
00000130: b2fe ad3d f9b1 18be 4771 e5bd cf14 2ebe
00000140: fc4a 04be eb49 c1bd 0233 b8be 131e bcbd
00000150: 1564 74be 0d4b b4be bd6b b0bd df72 2ebe
00000160: 5b5b 25be 36d2 96be 5629 03be 0466 eabd
00000170: 7349 63be d034 4ebe 445f aabe d79c 8abe
00000180: 810e 8bbe 62f6 c6be 357e 20be 44ee abbd
00000190: eeec 62be ddb2 7dbe 8e79 db3d 7005 bfbe
000001a0: a7b7 acbc 691f 5c3a e4ac 65be 787e 8cbe
000001b0: 5645 edbd 6df0 e73d c414 e03c e92f 1d3c
000001c0: 724f c1bd 928c 28bd b414 31be 628d c5bd
000001d0: 0d88 e53b f085 19be 7db2 463e b14c 9e3d
000001e0: b71d 5ebe 3801 e1bd 9128 8f3d e856 61be
000001f0: 8269 84be 5892 db3c eec9 00bf de50 9d3d
00000200: b580 4c3e 8f35 87be 6057 3ebe 442d f4bd
00000210: ee31 353e 7551 ec3d cafd 22be 50c4 7ebd
00000220: f47a 8a3e f895 01be d0bc 6fbe 64e7 90bd
00000230: ecad 1a3c e918 403e 8f82 d4bd 4f98 8c3e
00000240: 68e7 d2bc 7dde 6bbd ee33 0b3e 644a 253c
00000250: 0038 4d3d 24ab c6bd 66ca 11bb 5af0 683d
00000260: 6999 85be 1f9d 7ebe ee95 c43d c3f4 82be
00000270: 6e92 d1bd 7938 273e 3226 19be d33e d5be
00000280: bba5 d3bd 4f28 563e 95ac 70be 5e00 87bd
00000290: 65ea b73d 5ec8 30be 144c d7bc 6e7b 2a3e
000002a0: f6f2 c83d 0d2e da3d a2fd 583e b288 b53d
000002b0: 4042 3c3e 0e14 bd3c 56d3 ffbd 34ce f23d
000002c0: 918a 013d 3f58 6c3d b3d1 44be bbee 51bb
000002d0: ba03 1c3e 6b47 ff3d c8f3 a93c d601 443e
000002e0: 7def febd b1f9 073d 989c 04be d865 af3d
000002f0: 438b 303d b74a 193e a40c 373d 1b37 50be
