graphrnn_v2/experiments/reproduction/ego_small/ego_small/model_at_500.pt (torch, 420155 bytes, 43 tensors)

adj_embedding.0.weight f4 [32, 15]
000000 70 9f ad bc 7e c6 bb bd 74 a1 19 be 17 25 d8 bd
       -0.02119419 -0.09168719 -0.15002996 -0.10553949
000010 3f 4d 0b 3f 56 c6 13 be 50 c4 96 be 3a c5 cc 3e
       0.54414743 -0.14431128 -0.2944665 0.39994222
000020 4a b8 3d 3e 15 bd 44 3e 9c 20 27 3d 02 bb 9e 3d
       0.18527332 0.19212754 0.040802583 0.07750513
000030 38 0e 7a 3c df df d7 be 6b 5a 37 be b0 4e 81 be
       0.015262179 -0.42162988 -0.17905585 -0.25255346
000040 af 45 be 3e 70 f6 fc 3d a5 08 e2 be ea b5 ab 3e
       0.3716254 0.12351692 -0.4414722 0.33537227
000050 d2 f4 f3 3e aa fd b3 bd 79 4c a6 3e 60 21 bf 3e
       0.4764772 -0.08788617 0.3248022 0.3733015
000060 e0 08 ac bd 8c 09 80 3e d5 99 c4 be 50 60 d9 be
       -0.0840013 0.25007284 -0.38398615 -0.42456293
000070 f7 a2 5c 3f 7a e1 69 be b3 b6 0c 3f 03 96 f2 3d
       0.86186165 -0.22839919 0.54966277 0.11845019
000080 da e9 b5 be 1a f5 da 3e 68 a7 2c 3e e9 20 26 bf
       -0.35529977 0.42765123 0.16860735 -0.64893967
000090 6b f4 a8 be 7c c9 71 be 18 df e6 be 9a ce 7e be
       -0.32998976 -0.23612016 -0.45092082 -0.248835
0000a0 52 7d 4d be 14 f2 68 be bf 0d 31 be 8c 0f c1 be
       -0.20067337 -0.22748595 -0.172904 -0.37707174
0000b0 c9 18 05 bf aa 14 9d 3e d6 68 16 be ef 24 f5 3e
       -0.51990944 0.30679828 -0.14688429 0.4787974
0000c0 4a fb 0a 3f 00 dc 97 bd a1 d2 d9 3d 3d af a8 bd
       0.54289687 -0.074150085 0.106358774 -0.08236549
0000d0 92 18 2f bd ac e1 da bd d8 ed 37 be e7 81 11 3e
       -0.04274804 -0.10687575 -0.17961824 0.1420971
0000e0 59 55 2b be b8 ac 0c be a1 0f c8 be 28 0e 8f bd
       -0.16731776 -0.13737762 -0.39074424 -0.06985122
0000f0 ca cf 13 3e 1d 2d 62 3e 0e ea ae 3e 7f 9b 92 3d
       0.14434734 0.22087522 0.34162945 0.07158565
000100 ed 48 89 3e 99 6e 68 bd a0 60 d7 3d cd 6d 8f 3d
       0.2681345 -0.0567461 0.10516477 0.07003365
000110 22 45 01 3e 9e b6 12 3e 03 4c 94 3d b3 4a 34 3e
       0.12624028 0.14327475 0.072410606 0.1760662
000120 4f be c8 3e f0 49 45 bd 2c 34 28 3d d0 d2 24 be
       0.39207694 -0.048166215 0.04106538 -0.16096044
000130 f1 3c 30 3f e8 58 48 bc 2e 40 cf be 2a 12 00 bf
       0.6884299 -0.012228228 -0.40478653 -0.50027716
000140 83 15 76 be e4 5e 93 be ea 61 d7 3e a8 62 92 3e
       -0.24031644 -0.28783333 0.4206689 0.28590894
000150 38 74 84 3e da 5e 87 3e 80 23 da bd bd d4 0b 3e
       0.25869918 0.26439553 -0.10651302 0.13655372
000160 d8 dd 86 3f dc ca c0 3b fc 68 09 3f 0a d5 75 3e
       1.0536451 0.0058835577 0.5367582 0.24007049
000170 7b b4 42 3d e9 cf 14 bd 42 48 37 3e e8 43 a5 3e
       0.0475354 -0.03633109 0.17898658 0.3227837
000180 c6 74 91 3a f0 fb db 3e df a3 8c be 27 8a 83 be
       0.0011097423 0.4296565 -0.27468774 -0.2569134
000190 a2 51 61 be 72 90 8a bd 94 3d aa 3d ec 48 b0 be
       -0.22003797 -0.06765832 0.08312526 -0.34430635
0001a0 9e f7 4a 3d c9 cf 59 3e 1f 2d 46 be c2 2a 3c bc
       0.049552552 0.2127067 -0.1935315 -0.011484804
0001b0 07 0d 33 3e 44 c6 02 3f b5 5a bd 3e 4c be 62 be
       0.17485438 0.5108378 0.36983266 -0.22142905
0001c0 97 4e 0b be a2 13 de bd 1d 4e 1e bc 61 74 61 bd
       -0.13604198 -0.108435884 -0.009662178 -0.05504263
0001d0 2e 30 15 3f 1e 62 57 3e 7f 54 dd be b8 68 4b 3e
       0.5827664 0.21033522 -0.43228528 0.19864166
0001e0 e4 17 93 bd 6f 2e 56 3e f8 af 2d be a0 21 7a be
       -0.07182291 0.2091615 -0.16961658 -0.2442689
0001f0 00 6c 95 3b 17 77 60 be 92 bf 77 be bb 82 05 be
       0.0045599937 -0.21920429 -0.24194172 -0.13038151
000200 67 47 89 bd 98 ee 8b 3d 93 78 3d be 9d 6c aa bd
       -0.06703072 0.068326175 -0.18503027 -0.083214976
000210 14 cc 47 3e 42 26 aa 3b 1a d4 99 bd d8 b5 82 3d
       0.19511443 0.005192549 -0.07511158 0.0638234
000220 04 0a da be 92 54 95 be ab ab 50 3e fd 9d 0b be
       -0.42585766 -0.29166085 0.20377986 -0.13634486
000230 d2 5a 28 3e 08 e5 1a 3f 4a b9 dd 3c 43 95 85 bd
       0.16440895 0.60505724 0.027065892 -0.0652261
000240 92 65 9a 3e c2 d8 8f 3e 73 d7 af be 2e a5 fc be
       0.30155617 0.2809506 -0.34344062 -0.49344772
000250 0a 63 be 3e f9 65 ca be f3 51 96 bd 50 c9 06 bf
       0.37184936 -0.39530924 -0.07339849 -0.5265093
000260 70 09 ba 3e 0d 11 1b 3f 67 33 a8 bd 4b 5c c1 bd
       0.36335325 0.6057289 -0.08212929 -0.094414316
000270 f1 82 ba be b2 2f 4f 3e d5 ea d1 bd 25 94 76 bc
       -0.36428025 0.20233038 -0.10249869 -0.015049969
000280 92 a2 cb bd 46 df 13 3e b3 b0 85 3f fb 3e ae be
       -0.09943117 0.14440641 1.0444549 -0.34032425
000290 ee e2 9f bd ab 2a 17 bd 7b 9e a5 3d ef ea 61 3d
       -0.07806955 -0.036905926 0.080868684 0.05515569
0002a0 c9 71 dc be 29 4b 6f 3e 99 9c c2 3e 9d 0f f1 3d
       -0.4305556 0.23368515 0.380101 0.11770556
0002b0 91 5d 20 3e 1d a2 ac be 40 e5 83 bd 0a 57 6f 3e
       0.15660693 -0.33717433 -0.0644021 0.23373047
0002c0 e2 ea 0f 3f 95 46 fd 3e 90 1c 4d be c3 ab 39 3e
       0.5621778 0.49467912 -0.20030427 0.18131928
0002d0 ba 25 25 3b fb 5e 90 3c 46 06 5a be 33 b0 c2 3e
       0.0025199489 0.017623415 -0.21291456 0.38025054
0002e0 09 15 d6 bc a8 7c 94 be 6b e1 b5 bc fb d2 17 be
       -0.026133077 -0.29001355 -0.022202214 -0.14826576
0002f0 aa a4 33 3e 32 da 1e 3e 7d b3 3b 3f 1f 44 24 bf
       0.17543283 0.15512922 0.7332075 -0.64166445
000300 2d 5f 24 bf ef b4 f5 be f4 cf 3b 3f b2 2b 41 3d
       -0.64207727 -0.47989604 0.73364186 0.04716081
000310 26 5c 84 3e 38 95 fc bd 1d fe da bd 65 a1 86 3e
       0.25851554 -0.12333149 -0.106929995 0.2629501
000320 65 32 4e 3e d2 37 53 be 48 7a f0 bc 73 74 85 be
       0.20136411 -0.20626763 -0.029355183 -0.26065406
000330 69 46 b5 bd 4c 00 2a bd 02 73 46 3f 09 3b ab bb
       -0.0885132 -0.04150419 0.7751924 -0.0052255434
000340 e5 ec b3 bd b9 66 92 3e fe d5 02 3f 24 10 58 3d
       -0.087854184 0.28593996 0.51107776 0.052749768
000350 bf 75 6e be 28 69 05 3d 71 9f ac be 60 78 a7 3c
       -0.23287104 0.032570988 -0.33715394 0.020443141
000360 80 6c 3c bf a5 86 0f bf 1d 2c a1 be d7 ba 93 be
       -0.7360306 -0.56064826 -0.31478968 -0.28853485
000370 75 43 02 bf 43 f9 58 be b1 e5 ab be 9c 95 be be
       -0.5088418 -0.21188836 -0.33573678 -0.37223518
000380 2a f8 3d bf 13 bd cf 3e fd 1c 46 3e 92 54 88 bd
       -0.74206793 0.4057394 0.19346996 -0.066567555
000390 6a f7 56 bd 56 66 bd 3d fc 20 3c 3d c4 3e 3e be
       -0.052482046 0.09248035 0.045929894 -0.1857863
0003a0 b3 3f 66 3d 06 92 6b be 59 84 63 be 31 93 f9 bd
       0.056213092 -0.23004922 -0.22218455 -0.12186278
0003b0 b5 1b 01 3f 06 73 fd 3e 42 b2 14 be 61 f7 06 3e
       0.504329 0.49501818 -0.14521125 0.13180305
0003c0 a5 f4 13 be c7 c6 24 be 6e 9c c8 bd 87 14 3b bd
       -0.14448793 -0.16091453 -0.097954616 -0.045673873
0003d0 a1 42 a5 bd 1a 0c ce 3d 47 29 97 3d 1c c2 18 3e
       -0.08069349 0.10060902 0.0738092 0.14917797
0003e0 f2 7f 1c be a1 0c 0f 3d f0 4c 88 bd d0 80 22 3f
       -0.15283182 0.034924153 -0.066553 0.634778
0003f0 04 6b 81 3e 83 28 26 3e e8 1f c2 3e 1a 6d eb 3e
       0.2527696 0.16226391 0.37914968 0.45981675

adj_embedding.0.bias f4 [32]
000000 48 7d 0a 3e 2c 91 70 3e dd 07 e4 bb c9 f2 9d 3d
       0.13524354 0.23492879 -0.006958945 0.07712323
000010 31 73 d3 be f5 69 7e 3e 79 dc 42 bd 5a 0f 66 39
       -0.41298822 0.24845107 -0.04757354 0.00021940228
000020 4c e3 5e be 2a 2f d5 3b e3 6d 31 3e 1b 9c c4 3e
       -0.21766394 0.0065058665 0.17327075 0.3840035
000030 a6 18 ef bb bf 62 a8 3d 0b 97 24 3e 71 4b 6a 3d
       -0.0072966395 0.08221959 0.16073243 0.057200853
000040 60 71 b4 3e a0 c3 d6 3d 29 38 96 be 5b d4 fc 3d
       0.35242748 0.10486531 -0.29339722 0.12345191
000050 9e d8 09 be 19 0d ad 3e 29 f0 14 bc 50 db 02 3e
       -0.13461539 0.33799055 -0.009090462 0.12778974
000060 df de 07 3e 42 4f 2f 3d 63 2b 89 bd 5f a3 cc 3c
       0.13268612 0.042800196 -0.066977285 0.024980245
000070 fb 78 5c bd 2e 3c 1d 3e 1e 58 9b 3d c5 d2 0e be
       -0.053826313 0.15354988 0.075851664 -0.1394759

graph_rnn.weight_ih_l0 f4 [192, 32]
000000 33 d6 c1 be 38 03 d2 be 8c 46 d5 3e 9a f5 8e 3c
       -0.37858734 -0.4101808 0.41655385 0.017451096
000010 e8 03 b8 be 90 b4 7c be cf 1d 1e be f0 4e 0c be
       -0.3594048 -0.24678254 -0.15441059 -0.13701987
000020 89 b0 d6 3d fa b6 94 bd 52 30 a6 3e 91 60 17 bf
       0.1048289 -0.072614625 0.3245874 -0.59131724
000030 0b 49 76 3f 24 b7 85 be af 0d dc bd c4 86 8b be
       0.96205205 -0.26116288 -0.107447974 -0.27251256
000040 ab 62 48 be 18 31 94 3e fd 13 3b 3e 0d 61 fd bd
       -0.19568889 0.28943706 0.18269344 -0.123720266
000050 ff 37 24 3d d9 34 4d 3e 5b b5 78 3e c5 ab c0 be
       0.040092465 0.20039691 0.24287932 -0.3763105
000060 3e e6 bf 3d a5 12 d1 3e 9f 4b 9c be a8 bc d1 3e
       0.09370087 0.40834537 -0.30526444 0.40964246
000070 a7 24 1c 3e 0d 64 bf 3e 5b 37 6a bf ed 79 c0 3d
       0.15248357 0.3738102 -0.91490716 0.093982555
000080 fc 99 da be f1 ed cd be 61 02 16 be be a1 ca 3d
       -0.42695606 -0.40220597 -0.14649345 0.09894131
000090 49 11 4c bf be c6 4d bf 17 0b 64 be ca 78 5b 3e
       -0.79713875 -0.8038138 -0.22269855 0.21432796
0000a0 27 36 b6 3d 10 6b d4 be 52 a7 07 3f 85 5c 34 bd
       0.088970475 -0.41487932 0.52989686 -0.044033546
0000b0 0a df 81 3e 87 bc a1 be bf 82 ae bb 2d f9 96 be
       0.25365478 -0.31589147 -0.0053256447 -0.2948698
0000c0 26 cc f3 3d d5 77 1c bd 53 6b 5c be a0 fc de be
       0.119041726 -0.03820022 -0.21525316 -0.43552113
0000d0 b1 fa 2b bf a1 67 07 3e ef 32 e0 3e fd 34 08 be
       -0.671794 0.13223125 0.4378886 -0.13301463
0000e0 53 ad 64 3e 9b 0b d8 3d 2a 71 a9 3e 42 17 88 bd
       0.22331743 0.105490886 0.3309415 -0.06645061
0000f0 70 17 8b bc e4 10 b6 3e 5c 88 e8 3e 39 b9 ae bd
       -0.01697895 0.35559762 0.45416534 -0.08531422
000100 56 e0 00 bd f2 c3 00 3d 20 04 9e bd 5c 7d b8 be
       -0.031463943 0.031436868 -0.077156305 -0.36033142
000110 bb f5 44 bd fa 49 3d 3e 6d 1a fa bd 0c 65 d6 bd
       -0.04808591 0.18485251 -0.122120716 -0.10468492
000120 be 52 9f 3d 14 ad da bd 23 15 d1 be 65 b8 2a be
       0.07779454 -0.10677543 -0.4083644 -0.16671903
000130 d5 6e e8 bd 26 a7 2c bd 4c 95 0f be ba 55 d0 3c
       -0.113492645 -0.042151593 -0.14021796 0.025431503
000140 42 99 97 3d 1d 92 92 b9 14 ee dd be eb 53 01 3d
       0.074022785 -0.00027956153 -0.43345702 0.03157417
000150 1f 26 48 bc c3 15 40 be e4 ad fc bd 5c ce 83 bc
       -0.01221612 -0.18758301 -0.123378545 -0.01608961
000160 0c b6 d3 be 1e dd 81 be 18 e9 ae bd dd 09 ad be
       -0.41349828 -0.25364012 -0.08540553 -0.33796588
000170 ff 7c 8f 3c 53 fd 88 be 55 33 4e be 50 11 ba be
       0.017515657 -0.2675577 -0.20136769 -0.36341333
000180 79 8c 77 bd 0e 19 af be f7 81 15 be d3 41 89 3e
       -0.0604367 -0.34198803 -0.14600359 0.26808032
000190 77 a8 66 3e 49 a5 89 be 81 57 87 ba 11 0e 1a bd
       0.22525202 -0.26883915 -0.0010325761 -0.03761107
0001a0 a9 cc 89 bd 55 d5 39 bf 2d 9e 38 3f 0f 28 ff bc
       -0.06728489 -0.72591144 0.7211636 -0.031147031
0001b0 5a ce bb 3e 09 9c ff bd 94 2e dd bd 68 4a ae bc
       0.3668087 -0.12480933 -0.107999 -0.021275714
0001c0 73 ee c2 bc f9 64 6a 3e 2d 78 1d 3f d6 30 11 bd
       -0.023795342 0.2289008 0.615115 -0.035446964
0001d0 4d e1 12 3d f9 fb 29 b8 08 6f 8b 3d ae 8f 81 be
       0.035859395 -4.0527408e-05 0.06808287 -0.2530493
0001e0 48 37 bb 3e 46 71 cf 3e 27 6e 8d 3d 6b 82 47 be
       0.36565614 0.40516108 0.069057755 -0.19483344
0001f0 a8 cf fa bd ce 0d e2 3e 91 2d 8e be fa 23 8d 3e
       -0.122466385 0.44151157 -0.2776914 0.2756651
000200 59 15 2a 3d a7 6d 6b 3e be 28 0b be 1b 1c e1 bd
       0.041524265 0.22991048 -0.1358976 -0.10991689
000210 d5 f0 33 be 52 09 f1 3e 1c fc 7c 3d e8 45 99 be
       -0.17572339 0.47077423 0.061763868 -0.29936147
000220 fb c8 95 bd 96 26 94 3c 01 b5 13 bc fc e3 74 3e
       -0.073137246 0.018084805 -0.009015323 0.23915094
000230 9a 8d 13 bd 90 cc a9 3d 7e e7 56 bd 8a 14 d6 3d
       -0.036023714 0.0829097 -0.052466862 0.10453136
000240 5e a4 13 3e dc e0 f5 bd e2 3a 7a 3d 83 3c 73 3e
       0.1441817 -0.12005779 0.06109131 0.23753552
000250 66 ce 6d 3e f4 66 8c be a4 c5 1d 3e 39 b7 14 be
       0.23223266 -0.27422297 0.15407425 -0.14523019
000260 e8 7f ee be 8a de d2 bd 9e ec e5 bd 6d 74 b3 be
       -0.4658196 -0.10296352 -0.11226772 -0.35049763
000270 5f 6c ef 3e 71 bd 78 3e b0 90 90 3d 25 72 08 bd
       0.46762368 0.24291016 0.07058847 -0.03331198
000280 91 6f 39 bf fa 1f 44 bd e6 96 d1 bd d7 34 4c 3e
       -0.7243586 -0.047882058 -0.1023386 0.19942032
000290 e4 b6 c0 3d ce d7 67 3e bb 88 05 be 7a da a7 be
       0.094098836 0.22640917 -0.1304044 -0.32783872
0002a0 cd e4 ae bd cc 6c 4c ba 72 a9 aa be 02 6c 60 be
       -0.08539734 -0.00077981944 -0.33332402 -0.21916202
0002b0 c7 35 73 bd 41 28 a1 bd 78 38 26 be f0 7d c7 bd
       -0.059377458 -0.07869006 -0.16232479 -0.097408175
0002c0 80 b1 c6 3c 69 bb 3b be f0 73 0a 3e 8b 44 0b 3b
       0.02425456 -0.1833321 0.13520789 0.0021250572
0002d0 c1 5a 21 3d 1d fd 05 bf a0 bb ff 3e 9c b8 bf be
       0.03939319 -0.52339345 0.49947834 -0.37445533
0002e0 89 0e 83 be f2 a3 e3 3d 02 85 fc bd 5b da 4f be
       -0.25597027 0.111152545 -0.12330057 -0.2029814
0002f0 11 b8 b4 be 43 11 88 3e 5d fb 20 be 40 a9 0f 3e
       -0.35296682 0.2657567 -0.15720887 0.14029408
000300 0a a8 a5 be dd 53 0a 3e dd 7b bc be fc 2e 2d be
       -0.32354766 0.13508554 -0.3681325 -0.16912454
000310 47 21 a9 be 07 43 d3 3d e3 42 54 be c4 aa 4b be
       -0.330332 0.10315519 -0.2072864 -0.1988936
000320 ec ca 83 bd 4f cd 9a 3e e7 5e 31 bf ce 7e d7 3d
       -0.06435189 0.30234763 -0.69285434 0.10522233
000330 e8 79 80 be 63 31 0b be 9b e4 b4 be 9f 0e bb bd
       -0.25093007 -0.13593058 -0.35330662 -0.09133648
000340 a8 23 7b 3c 3b f7 c0 be 4f 00 bc be 6f a5 b9 bc
       0.015328325 -0.37688622 -0.36718985 -0.022661893
000350 fd aa 82 bc 75 25 ba be 97 41 2e 3e a2 eb 3e be
       -0.015950674 -0.36356702 0.17017208 -0.18644574
000360 a3 8b b3 be 79 c0 0a bf 2b 34 03 be 8c 62 27 be
       -0.35067472 -0.5419994 -0.12812869 -0.16346186
000370 24 92 db bc 49 c8 fb 3d 3b d8 9c be 31 e5 99 be
       -0.026803084 0.12294061 -0.3063372 -0.30057672
000380 f3 31 df be 77 a6 c6 be 25 70 3f 3d b5 24 42 3e
       -0.43592796 -0.38798878 0.04673781 0.18959315
000390 7d 5e 99 3d 64 03 9a be 68 bc a7 be 4b 7e ca bd
       0.07488725 -0.30080712 -0.3276093 -0.0988737
0003a0 b1 ab 98 3d 7a b5 e7 bc e3 9c 13 3f 62 4d c6 be
       0.074546225 -0.028284777 0.57661265 -0.38730913
0003b0 65 b4 4d 3f 79 8c b5 be b9 be 10 be 70 4f 3c be
       0.80353385 -0.35458735 -0.14135255 -0.18389678
0003c0 ec 69 42 be e3 e5 46 3e 75 a4 b2 3d 92 e4 17 bd
       -0.18985718 0.19423632 0.08722774 -0.037083216
0003d0 21 31 a9 bd 42 ae 48 3d 64 37 b5 3e 49 b0 d0 be
       -0.08261324 0.04899431 0.35393822 -0.40759495
0003e0 07 33 ab 3d e8 e9 5c 3e 13 35 66 3d f1 92 3f 3e
       0.08359342 0.21573603 0.05620296 0.18708397
0003f0 e9 df fe 3e d6 25 07 3f 36 ab 05 bf a8 6c 59 3e
       0.49780205 0.5279211 -0.5221437 0.21232855

graph_rnn.weight_hh_l0 f4 [192, 64]
000000 07 5c 8b bd 6d bb df bd fe 65 26 3d 0c cf 2c 3e
       -0.06804662 -0.109244205 0.04062461 0.16875857
000010 ba 3f 65 3d bf 9c 84 3d e8 14 c0 3d a4 78 8f bd
       0.055968978 0.064752094 0.093789876 -0.07005432
000020 c7 93 cc bd d3 0e 56 3d 33 56 14 bd c7 4d 96 3d
       -0.09989124 0.05226023 -0.03621502 0.073390536
000030 b9 d1 a3 3d 56 55 0a be a6 eb cb bd 74 73 97 bd
       0.07998986 -0.13509116 -0.09957056 -0.07395068
000040 65 98 c8 bc 33 14 b4 bd d8 6a fb 3d 3e 60 c8 bd
       -0.02448673 -0.08792915 0.12276238 -0.09783982
000050 c0 ae 4e 3b 15 d8 87 bd 38 30 11 bd 24 97 64 be
       0.0031537265 -0.06633011 -0.035446376 -0.2232328
000060 ae 9f c9 3d a6 97 bb 3c 78 83 4c be 91 fb 3e bc
       0.098449096 0.02289946 -0.19972026 -0.011656658
000070 b9 20 a3 bc b2 3c 24 3e ec 6f 1f bc 9b 5a 30 be
       -0.019913064 0.16038778 -0.009731274 -0.17222063
000080 49 76 38 3b 39 02 27 be b6 8a 9b 3d e1 78 b5 bb
       0.0028146675 -0.16309442 0.075948164 -0.0055380915
000090 d1 14 f8 bd ef ff 61 bd e6 4f 94 3c d0 df a9 bd
       -0.121133454 -0.055175718 0.018104505 -0.08294642
0000a0 a4 6c dd 3c 37 e1 a0 bd 20 75 89 bd 10 00 b4 3d
       0.027029343 -0.07855456 -0.06711793 0.087890744
0000b0 e8 e7 1f be 08 1b 79 bd 90 cc a6 39 b8 b3 1e 3e
       -0.15615809 -0.060816795 0.00031814398 0.15498245
0000c0 8a fe b6 bc 9a b2 0e be dc c2 34 3d d3 da 44 bd
       -0.02233817 -0.13935319 0.044131145 -0.04806025
0000d0 53 c8 03 be d8 35 00 3c da 4b e2 bb 40 f2 1b bc
       -0.12869386 0.007825337 -0.006906015 -0.009518206
0000e0 37 e3 23 3e 76 ef 39 be 01 5c 1a 3e dc 93 4d bc
       0.16004644 -0.18157753 0.15074159 -0.012547459
0000f0 13 05 23 3e 5f 2b b5 bd 3b 22 55 3d 47 34 41 3c
       0.15919904 -0.08846163 0.052034598 0.011792249
000100 cf 95 ad 3d eb 18 83 3c ba 9f 49 bd ae 54 b4 bd
       0.08475839 0.016003093 -0.049224593 -0.08805214
000110 4f 50 c6 bb e2 4b fe bd 6f 28 98 bc 8c ca 16 3e
       -0.006052054 -0.12416817 -0.018573968 0.14725703
000120 e5 0f 12 be 65 9f 10 3e a6 b7 c9 bd 50 80 b2 bd
       -0.14263876 0.14123304 -0.09849481 -0.0871588
000130 ed 19 9d 3d b4 d0 f8 3a ab a3 13 be 7f 57 c2 bd
       0.076709606 0.0018983097 -0.14417903 -0.09489345
000140 43 dc 22 be cc 49 50 be 11 45 96 3d 33 95 02 be
       -0.15904336 -0.20340651 0.07337392 -0.12752227
000150 fa ab eb 3c 46 b2 21 bd 25 22 97 bd 9e 00 01 be
       0.028768528 -0.039476655 -0.073795594 -0.12597892
000160 a8 79 02 3e 36 e2 26 be 98 f7 1f 3b 70 8c 4a be
       0.1274172 -0.1629723 0.0024409052 -0.19780135
000170 d9 d5 26 3d 4e 3d 01 be 96 6d 4f 3d 4b 6d 2b bd
       0.040731285 -0.12621042 0.05064162 -0.041852277
000180 7e 64 7d 3d 6b 01 f0 bd 26 24 bd bc 39 71 39 bd
       0.061863415 -0.117190205 -0.023088526 -0.045273993
000190 28 87 d9 3d e9 4b e6 bd 3a 44 10 3d 5a c8 e0 3a
       0.10621482 -0.112449475 0.035221316 0.0017149553
0001a0 c1 20 2b 3e cd e2 1a 3e 42 ba 89 3d c0 b7 84 3d
       0.16711713 0.1512558 0.06724979 0.0648036
0001b0 e2 73 33 be 56 16 31 bc 1d 37 61 ba d8 31 8a bd
       -0.17524675 -0.010808548 -0.00085912814 -0.06747788
0001c0 50 30 b0 bd 31 cd 87 3c 9e ca 83 bc ca 3f e9 3d
       -0.08602965 0.016577335 -0.016087826 0.1138912
0001d0 a3 71 d7 3d 96 18 1a be 1d cb 3e 3e ca 83 0b bd
       0.10519721 -0.15048441 0.18632169 -0.03406123
0001e0 5c 70 a1 3b c7 df 23 3d c5 16 5d 3b bc 0b 76 bc
       0.0049267244 0.040008333 0.0033735496 -0.015017446
0001f0 76 00 20 be be 67 6c 3e e5 e5 02 be 32 59 0a 3e
       -0.15625176 0.2308645 -0.1278301 0.13510588
000200 99 69 26 3c 81 0a 33 3d a5 b3 40 3e 3c f4 b8 3d
       0.010157012 0.04371119 0.18818529 0.09030959
000210 79 e8 cd 3d 0e ec 79 bc 66 1e 8a bd aa 21 06 be
       0.10054106 -0.015254034 -0.06744079 -0.1309878
000220 b3 3b 18 be 87 7d 15 be 46 70 2f be 29 23 2d bc
       -0.14866523 -0.14598666 -0.17132673 -0.010567465
000230 2a 52 3d bd e7 d1 0b 3d 94 53 20 3e 17 c3 0b 3e
       -0.046220936 0.034135725 0.15656883 0.1364864
000240 a2 9a cd 3c b6 5c 1a 3d 5d aa 99 3d 17 3d a0 bd
       0.025098149 0.037686072 0.07503197 -0.07824152
000250 8a fc 3c 3e 3e 54 63 3d 70 39 59 3e 36 6f 27 be
       0.18455711 0.05550026 0.21213317 -0.16351017
000260 09 b7 3c be 36 2c 00 be 27 a1 f5 bc 7a d6 86 bd
       -0.18429197 -0.12516865 -0.02998407 -0.06583877
000270 6a b8 a5 3d 6e 01 45 3b 11 08 72 bd 8c 30 2d 3e
       0.08091815 0.0030060667 -0.059089724 0.1691305
000280 cb 34 88 3d 86 c1 07 be a1 01 af 3d 2d ec ba 3e
       0.066506945 -0.13257417 0.085452326 0.36508313
000290 84 28 59 be 9e b4 0e 3e 8e b3 e3 3d f4 b9 fc 3b
       -0.21206862 0.13936087 0.11118232 0.007712597
0002a0 af 81 01 3e 08 43 95 39 c1 4b 9a bd a7 bc 13 bd
       0.12647127 0.00028469437 -0.0753398 -0.036068585
0002b0 a5 d3 37 3e f3 75 e1 bd 17 89 a8 3d ed 89 e3 3d
       0.1795183 -0.11008825 0.08229273 0.11110292
0002c0 b3 b1 ee 3c e4 16 f9 bd 0f 59 05 be db c3 83 bc
       0.029137468 -0.12162569 -0.13022254 -0.016084602
0002d0 87 d9 a4 bd 13 c8 14 3e ee c6 91 bd b7 81 3a 3c
       -0.080493025 0.14529447 -0.07118021 0.0113834655
0002e0 86 69 47 3d 3d 93 7b 3d 0e 70 1b bd d3 b6 30 3e
       0.04868462 0.061419714 -0.03794866 0.17257242
0002f0 8f db a6 3d 8f 00 4b be 24 e0 fe bb 70 6c 1c bd
       0.08147346 -0.19824432 -0.0077781845 -0.03818935
000300 a7 f4 80 3d a8 8a 56 bc 64 0a 23 3e 9a 80 c3 bd
       0.06296664 -0.013094582 0.15921932 -0.09546013
000310 61 ab 17 bd 4a 32 28 3d 79 4b 01 be 91 4f 9b 3a
       -0.037028674 0.041063584 -0.12626447 0.0011849274
000320 fc 5d 1f be 04 ee 57 3e 0d 86 3a bb 08 d9 01 3c
       -0.15563196 0.2108689 -0.0028461248 0.007925279
000330 3d 06 83 3d b6 8d 99 3e 63 1a d8 bd 69 e8 a8 be
       0.06397674 0.2999093 -0.10551908 -0.32989815
000340 0f 7c f3 bd b0 92 61 3d 2f 8f 84 bc 71 7c f5 3c
       -0.11888897 0.055071533 -0.016181557 0.029966565
000350 d9 1f fa 3c af 87 b0 bc 47 e3 b1 bd 99 5f 47 be
       0.030532764 -0.021549074 -0.08685928 -0.19470061
000360 53 bd 5b 3d f3 d5 16 bd 6c bf 07 3d 9e 60 5c be
       0.05364735 -0.03682513 0.03314154 -0.21521232
000370 d1 8d cf 3c cc 36 cf bd d7 50 39 3e a1 87 d2 ba
       0.025336178 -0.101178735 0.18097244 -0.0016062149
000380 84 c1 2e bc 60 d0 5b bd 3b 86 27 be 73 64 b2 bd
       -0.010666255 -0.05366552 -0.16359799 -0.087105654
000390 71 66 2f 3c 9e c1 ef bd 5a ed 58 bd 4e fb d7 3a
       0.010705576 -0.117068514 -0.05296073 0.0016478093
0003a0 a7 c6 c9 bd 7f b6 54 bb 70 f0 e3 3d 45 4a 83 3c
       -0.09852343 -0.003245741 0.11129844 0.016026625
0003b0 a1 1c d3 bd 0d 86 db 3d 01 5f 4e 3e c3 d6 84 bd
       -0.10308195 0.107189275 0.20153429 -0.06486275
0003c0 0b 83 65 bc 9c 36 04 be 51 4b 86 3d 38 ee 8d 3d
       -0.014008294 -0.12911457 0.06557334 0.06930202
0003d0 1b 9b 81 bd c9 84 db bd eb 60 21 3e 44 0b 62 3d
       -0.06328412 -0.10718686 0.15759628 0.055186525
0003e0 eb a7 45 bc 1a a6 f6 3d 20 6c 3f be 07 f3 a8 3d
       -0.012063961 0.120434 -0.1869359 0.08249479
0003f0 ac b3 9f bd 5e c2 29 bd 97 2c 11 3b b7 56 dd bc
       -0.077979416 -0.04144513 0.0022151822 -0.027018888

graph_rnn.bias_ih_l0 f4 [192]
000000 6b 1c 35 be d7 33 7e bd d5 71 07 bc a7 f8 50 bd
       -0.17686622 -0.062061157 -0.008266886 -0.051018383
000010 ab 89 56 3e 16 28 16 be 04 b5 c1 bc e7 a8 29 be
       0.20950954 -0.14663729 -0.023645885 -0.16568337
000020 d5 a4 e0 bc ba 60 c8 bd c2 65 cc bd 8b 58 4e bd
       -0.027422348 -0.09784074 -0.09980346 -0.05037741
000030 31 62 24 be 54 67 46 bc fb fa 6a bd db f6 b4 39
       -0.16053082 -0.012109596 -0.05736826 0.00034516197
000040 cf 37 1c 3e 19 2b 19 3d 0f 02 53 be f7 3c 9a bd
       0.15255664 0.037394617 -0.20606254 -0.07531159
000050 53 0a f8 3d 65 b1 15 3d b5 da 45 3c 3e 7b 72 bd
       0.12111344 0.03654613 0.01207607 -0.059199564
000060 57 6d cd bc e3 b4 d5 3c 26 54 7b bc 87 3f d1 bd
       -0.025076551 0.02608723 -0.015339887 -0.10217195
000070 7c 8a f9 bd a3 3d 03 be e6 70 36 be 8e 3c da bc
       -0.12184617 -0.12816481 -0.17816505 -0.026640203
000080 20 62 f6 bd d6 99 bc bd 9d d1 00 be 49 c4 c1 3d
       -0.120304346 -0.092090294 -0.12579961 0.094612665
000090 6f fa 4f bd e1 16 bb 3d db 1c 49 3e 1c 93 5a bd
       -0.05077594 0.09135223 0.19639914 -0.05336295
0000a0 57 e2 a0 3c b8 e9 ed bb ce d6 bc 3d c1 9d 82 be
       0.019639177 -0.0072605275 0.09220658 -0.25510982
0000b0 19 36 01 3d 24 f9 1c be 25 a8 c3 bd b3 58 37 be
       0.031545732 -0.15329415 -0.095535554 -0.1790493
0000c0 59 da 39 bd 95 79 d7 bd 96 18 a8 ba 0a d2 9e bd
       -0.04537425 -0.10521237 -0.001282471 -0.077549055
0000d0 d5 04 b5 bd 86 70 8d bc 4a ca 23 be 9b 35 81 bd
       -0.08838812 -0.01726557 -0.15995136 -0.063090526
0000e0 5a 36 16 bd 21 fa a9 3c 84 1b 49 bb 63 fa 12 3e
       -0.036672927 0.020749154 -0.0030686567 0.14353327
0000f0 29 52 21 3d 27 e9 59 be 68 93 9b 3d f2 22 88 3d
       0.039384995 -0.21280347 0.07596475 0.0664729
000100 1c b4 4a be ac 4a 19 be 85 cf 0f 3a 97 83 0a be
       -0.19795269 -0.14969891 0.000548594 -0.1352676
000110 00 5f e2 bc 31 1c 53 3d 66 45 a5 bd ee 00 79 be
       -0.02763319 0.051540557 -0.08069877 -0.24316761
000120 e9 7e 9b 3b 85 cc 97 be af 36 16 be 9b 90 50 be
       0.0047453535 -0.29648224 -0.14669298 -0.20367663
000130 d3 da c2 bd e2 08 26 bb 94 da 14 be 79 8c 62 be
       -0.09514394 -0.0025334884 -0.14536506 -0.22123899
000140 49 00 bf bd cd ed e1 bd bc a0 cb bd 57 00 08 bd
       -0.09326226 -0.11031685 -0.09942767 -0.03320345
000150 e4 83 2c be 89 07 13 3d 84 6d 47 3b 28 6f ef bd
       -0.16847187 0.035895858 0.0030430267 -0.11691123
000160 ac d8 0f bb 26 e8 38 be be 5c 9d bc dc 23 5c b9
       -0.0021949215 -0.18057308 -0.019209262 -0.00020994194
000170 d5 83 4d be 46 82 63 be c9 f0 07 be a7 14 11 be
       -0.20069821 -0.22217664 -0.13275446 -0.14168034
000180 90 5d e7 bd e8 56 14 bd 7b 0e 34 be 1b 1f 39 be
       -0.112971425 -0.036215693 -0.17583649 -0.18078272
000190 5b 9b b5 bc ba ac 4b be 11 d8 b1 3c fc 39 06 be
       -0.022168806 -0.19890109 0.021709474 -0.13108057
0001a0 fe 66 5c bd ba fd 41 be 5d 9c 3b be 16 43 23 be
       -0.05380916 -0.18944445 -0.18321367 -0.1594356
0001b0 31 20 10 be fc 71 c8 3d 4b a2 33 be 18 f6 36 be
       -0.1407478 0.09787366 -0.17542379 -0.17867315
0001c0 22 39 ae bd c7 93 2a be 7e 42 20 b9 c6 36 79 be
       -0.08506991 -0.16657935 -0.0001528356 -0.243373
0001d0 9b 97 63 3c a4 ef 37 be 6d bf d5 be 88 6d d1 bd
       0.013891126 -0.1796251 -0.4174761 -0.102259696
0001e0 82 3e 8c be 33 ad f4 bd 3a dd 56 be 37 33 c9 bd
       -0.2739144 -0.11947098 -0.20982829 -0.098242216
0001f0 ad 8b e2 bd e1 d2 76 3b 79 75 82 be 4a 4d 2a bd
       -0.11061797 0.0037662315 -0.2548025 -0.041577615
000200 aa 93 50 3e e5 e2 cb bd 0a 25 10 3e 43 0a c6 bd
       0.2036883 -0.09955386 0.1407663 -0.09669926
000210 1d 01 c4 3d 9d f2 ca bd 93 71 4f bd 05 40 0b 3e
       0.09570525 -0.09909556 -0.050645422 0.1359864
000220 10 ee ba 3d 15 03 4b be 04 3d c4 bd 76 ac a5 3c
       0.09127438 -0.19825394 -0.0958195 0.020223837
000230 47 a0 f4 3d f0 b6 15 3e b0 d1 75 bc 81 a2 1e be
       0.11944633 0.14620566 -0.015003607 -0.15491678
000240 fe a9 94 be d0 ff 34 3e a7 0a b2 3c a7 c4 b8 bd
       -0.29035944 0.1767571 0.021733595 -0.090218835
000250 7a 32 be 3d f7 ca 81 bd b8 22 0e 3e 47 94 a4 3d
       0.092869714 -0.063375406 0.13880432 0.08036094
000260 c6 3a 15 3e 63 31 ca bc 99 6e 9a 3d d4 05 11 be
       0.14573202 -0.024681753 0.07540626 -0.1416238
000270 ae 79 5a 3e c5 2a 05 be 24 6f 11 be d4 5c 72 3e
       0.2133548 -0.13004597 -0.14202553 0.23668224
000280 77 1b 19 bc dc d8 0e 3d e6 b4 02 3e a0 8a 52 3e
       -0.009344927 0.034874782 0.1276432 0.20560694
000290 8f 5d 36 be 5e 0c 1e bc ec 2b 04 3e d5 9b 34 3d
       -0.17809127 -0.009646503 0.1290738 0.044093926
0002a0 b5 19 e3 bd 7e 72 98 3c cf 2a 16 be 07 7f 41 be
       -0.110888876 0.018609282 -0.14664768 -0.18896113
0002b0 62 2b 4a 3e 27 08 ac bd 53 e1 73 bc d0 4d d7 bc
       0.19743112 -0.083999924 -0.014885264 -0.026282221
0002c0 e5 58 82 be 0e f6 0a be f0 98 97 3d 99 f7 ed bd
       -0.25458446 -0.13570425 0.074022174 -0.11619491
0002d0 26 58 c3 3c 81 0a 2c 3e a0 49 5d be c8 07 4e bc
       0.023845743 0.16800882 -0.21610117 -0.012575097
0002e0 a6 8b 13 be 17 56 fe bc 5d 6c 84 3c 83 f9 1d 3e
       -0.1440874 -0.03104691 0.016164953 0.15427212
0002f0 18 bb 18 3e ae d8 9f 3b 8a 9c 84 3b 9f bb 62 be
       0.1491512 0.004878125 0.004046981 -0.22141884

graph_rnn.bias_hh_l0 f4 [192]
000000 16 54 0d be 44 4d 1a be 0c 93 f5 bc f1 fa 77 bd
       -0.13801607 -0.15068537 -0.029977344 -0.06054205
000010 2a 34 88 3e d2 a2 8d 3d 87 48 58 3c 8b de 36 bd
       0.26602298 0.06915821 0.013200886 -0.044645827
000020 7d 6f 96 3d a4 6e 07 be 4e 41 ab bd e4 c0 9c 3d
       0.073454835 -0.132258 -0.08362065 0.076539785
000030 93 92 f6 bd 05 c0 02 3d 64 5d 8a bd fa 89 1d be
       -0.120396756 0.031921405 -0.06756094 -0.15384665
000040 ee 27 ba 3d c3 55 75 bd a9 e4 0f bd 64 20 10 bd
       0.09089647 -0.059896242 -0.035130177 -0.03518714
000050 3e e0 a1 3d cb 68 2b bd 31 c2 8b 3c 9e ca 01 bd
       0.07904099 -0.041847985 0.017060371 -0.03168737
000060 af 75 2d bd 02 47 b5 3c 0b 7f ed 3c 0f 75 99 3a
       -0.04234856 0.022128586 0.028991243 0.001170786
000070 a0 71 8a 3c a5 5f 2f be 3a 02 20 be 76 91 37 3a
       0.016899884 -0.17126329 -0.1562585 0.00070025714
000080 43 55 91 bd a3 69 23 bd 48 44 09 3c b7 5a 3a bd
       -0.070963405 -0.039895665 0.008378096 -0.04549667
000090 5f 95 9e 3d fa f4 17 3e b3 39 9c 3e 5d cc a3 bb
       0.07743334 0.14839545 0.3051277 -0.0049987272
0000a0 66 0f 8b bd 63 ea ac 3d 4e fe ee bc 70 ec 55 be
       -0.067900464 0.08443143 -0.029173996 -0.20890975
0000b0 12 43 29 bd 16 b1 62 3d 16 2c f4 bd 74 d7 be bd
       -0.04132373 0.055344664 -0.11922471 -0.09318438
0000c0 87 6a 46 3e d6 8b fa 3d 74 7b 4d bd ee d2 06 be
       0.19376574 0.12233703 -0.050166562 -0.13166401
0000d0 f8 86 25 be ed 82 10 be 21 b5 b5 be a8 93 13 3d
       -0.16164768 -0.14112444 -0.35489753 0.036029488
0000e0 e7 6e 21 be e8 77 48 3c 27 fc a2 bd 6e 67 fd 3d
       -0.15764962 0.012235619 -0.079582505 0.12373243
0000f0 ca 9d a5 bd 41 6b 6f be 71 47 b5 bd f2 50 e5 3d
       -0.080867365 -0.23380758 -0.08851517 0.1119708
000100 f5 e3 a4 3c 8b a4 20 be be 83 0d be ab 5c 94 bd
       0.02012823 -0.15687768 -0.13819787 -0.072442375
000110 1e 5b 21 be cc 18 05 be 81 eb 16 bd 24 c9 1a be
       -0.15757415 -0.1299774 -0.036845688 -0.15115792
000120 5a 65 34 bc d2 0c 81 be 8b fc 84 be ab 49 5b be
       -0.011010492 -0.25205094 -0.25973925 -0.21414821
000130 ad 2b 26 bd a7 c1 6d bc 95 c8 da bd 15 3e eb bd
       -0.040568996 -0.014511502 -0.10682789 -0.114864506
000140 5b 47 8c bd eb 8f 3d be 14 79 05 be 94 ac 2a be
       -0.068495475 -0.18511932 -0.13034469 -0.16667396
000150 42 fd 33 be 8f 7b 81 3d 1e 1e 0a be 48 bf f4 bd
       -0.17577079 0.06322395 -0.13488051 -0.119505465
000160 34 d6 d5 bd c4 e7 a8 bd 73 67 6d 3d 91 f5 6c bd
       -0.10441247 -0.08247331 0.057959985 -0.057851378
000170 17 1c 88 bc 6a d2 2a be 8f cf df bd a3 ba 3f be
       -0.016614957 -0.16681829 -0.109282605 -0.1872354
000180 a7 53 37 be cc 02 36 bd 8d 72 d6 be 1b 19 97 bd
       -0.17903005 -0.04443626 -0.4188427 -0.07377835
000190 4f ed 43 3d fa 38 02 bd 5a 32 a7 ba f4 e5 1f 3c
       0.047833737 -0.03179262 -0.0012756095 0.009759415
0001a0 c8 37 88 bd 9d 22 97 bd fa 5e 04 be ec 86 c0 be
       -0.066512644 -0.07379649 -0.12926856 -0.37602937
0001b0 ad 4e 61 be 3b 6a 20 bd 35 bb e0 bd 86 2e 58 be
       -0.22002669 -0.03916381 -0.10973207 -0.21111497
0001c0 2b f9 02 be 9f bf 50 bc 4b 77 94 bd ad ec a0 be
       -0.12790363 -0.0127409985 -0.07249316 -0.3143057
0001d0 da ab 62 3d d5 b9 42 be 44 04 e1 be 3b 39 a6 bd
       0.05533967 -0.19016202 -0.43948567 -0.081163846
0001e0 1e 2d 9a be 9a 62 9b bc 39 f9 ca bd 47 a1 71 bd
       -0.30112547 -0.018967915 -0.09910817 -0.058991697
0001f0 4b fb 03 bd 61 de d3 3c 63 f9 8b be d2 d1 19 be
       -0.032222074 0.025862874 -0.27338704 -0.15021446
000200 c5 e6 dd 3a 5f d9 82 be bc 95 72 3d 8c 25 0d be
       0.0016929737 -0.25556466 0.05922483 -0.13783854
000210 d0 67 4e 3e 81 0c 0c bd f5 e7 48 3d 55 06 22 3d
       0.20156789 -0.034191612 0.049049336 0.03955682
000220 b5 63 8b 3d 6c 70 10 be b4 da 89 be e1 9d 8c bd
       0.06806127 -0.14105386 -0.2692467 -0.068660505
000230 80 da 44 3b 5a eb 18 3e 41 98 20 be b0 03 6e bc
       0.0030037463 0.1493353 -0.1568308 -0.014527246
000240 eb a9 66 be ba a1 20 3e 73 9a d1 3c 6a e1 0f be
       -0.22525756 0.15686694 0.025586342 -0.14050832
000250 a0 42 6c 3e 46 59 64 3e 57 a4 d7 ba d7 0e a8 3d
       0.2307229 0.2229968 -0.0016452175 0.082059555
000260 85 95 6f 3d 37 f4 40 3c 6a d9 67 bc b1 fb 87 bd
       0.058492202 0.011776975 -0.014150957 -0.06639803
000270 3f 3c 1b bd bc 1a 00 be 4d 94 b0 3d 3f 62 72 3e
       -0.037899252 -0.12510198 0.08622036 0.2367029
000280 ab 9b 28 3d 71 65 ab bd e0 f7 16 3e b8 09 e4 3d
       0.04116408 -0.08368958 0.14742994 0.11134666
000290 9a d0 2f bd 50 38 7c 3d 42 3a 1c 3e 0c e9 f8 bd
       -0.042923547 0.06157714 0.15256599 -0.12153825
0002a0 63 98 a8 bd 7f ef e3 3c 54 9b 0c be 21 6c 4b be
       -0.082321905 0.027824162 -0.13731128 -0.19865467
0002b0 86 b9 39 3e 65 9f 08 be e0 54 29 bc bf 02 17 3e
       0.18137178 -0.13342054 -0.010335177 0.14747141
0002c0 c3 49 bb bd 90 c3 fb 3c 94 89 4d 3e 33 0f aa 3d
       -0.09144928 0.0307329 0.20072013 0.0830368
0002d0 dc 18 ef bd 14 cb 49 3e 27 26 03 be c9 f8 9f 3d
       -0.116746634 0.19706374 -0.12807523 0.07811124
0002e0 8c 8f a3 bd 58 6d b7 3c 12 48 63 3d 9d 67 72 3e
       -0.07986364 0.022391006 0.055488653 0.23672338
0002f0 e2 6a a3 3d 99 53 5b bd 3d 1b 07 3e 6b 73 78 be
       0.07979371 -0.05354652 0.13193984 -0.24262778

graph_rnn.weight_ih_l1 f4 [192, 64]
000000 28 ad 93 3d a4 ac e1 3c cc 1a 90 be 80 ae d5 bd
       0.07210761 0.027548142 -0.28145444 -0.10433674
000010 b5 e3 18 bd e6 c8 1c 3d 32 47 55 3b 78 5a 37 be
       -0.037326533 0.03827753 0.0032543656 -0.17905605
000020 87 a7 3f bd 98 d5 ab 3e 5c d7 37 3d 5a f0 19 be
       -0.046790626 0.33561397 0.044883117 -0.15033093
000030 d9 c2 97 be 5d b6 67 be a2 f0 a8 bc e3 6c f9 bd
       -0.29640844 -0.2262816 -0.020622555 -0.121789716
000040 bf 25 8b bd 0b b4 96 3d 57 b8 38 3e da 78 24 be
       -0.06794309 0.07358559 0.1803907 -0.16061726
000050 a5 05 8d be 4c 40 88 be 20 74 01 be 52 d7 c9 bc
       -0.2754337 -0.26611555 -0.12641954 -0.024638806
000060 c7 f3 9f 3e df e0 4f bd e6 1a 91 3d 70 08 32 be
       0.31240675 -0.050751563 0.070852086 -0.17386031
000070 c3 78 19 3e fa 70 17 3e ed 36 17 bd 0f 18 86 3e
       0.14987473 0.14789191 -0.036917616 0.2619023
000080 23 3a 2b bc 1b d5 8f 3e 9f 10 6d be a3 00 24 be
       -0.010450873 0.28092274 -0.23150872 -0.16015868
000090 7f 8b 7c bd 75 8c 9a be f6 03 59 be d6 d1 58 3e
       -0.06165647 -0.30185285 -0.21192917 0.21173796
0000a0 ad 47 53 be 6d ea 74 bd 03 f7 01 3e ae d4 14 3d
       -0.20632811 -0.05979388 0.12691884 0.03633564
0000b0 70 e4 13 be db 04 5f bd 28 88 81 bd 03 05 73 3d
       -0.1444261 -0.05444799 -0.06324798 0.05933095
0000c0 f3 4b 01 3d 6c e5 92 bd a9 c2 92 3e 64 4b 37 bd
       0.03156657 -0.07172665 0.2866414 -0.044749632
0000d0 cc 7b 37 be af 2b 1e be e0 de 33 be ae e7 f8 bd
       -0.17918319 -0.15446351 -0.17565489 -0.121535644
0000e0 a7 c6 6e 3d f5 1e 1c bd 14 8f de 3d 66 f9 01 3e
       0.05829492 -0.03811546 0.10867134 0.12692794
0000f0 b6 00 f2 3d 4f fd 84 3d 86 52 09 be 56 5b 3e bd
       0.11816542 0.06493627 -0.13410386 -0.046473823
000100 7e 39 11 bd 5a 43 ac be e1 f6 84 be 92 a5 40 bd
       -0.03545522 -0.33645135 -0.25969604 -0.0470329
000110 1e 4a 77 be 8a 05 d0 3d 96 3c 7a 3e f5 4b 5b be
       -0.24149367 0.101573065 0.24437174 -0.21415694
000120 27 bc 90 3e 41 df 09 be ab c1 1c bc bf 56 97 3e
       0.2826855 -0.13464071 -0.009567658 0.2955837
000130 77 fd a1 be c4 aa 2b be 63 df 38 3e d5 a7 c1 3e
       -0.3163869 -0.1676436 0.18053965 0.37823358
000140 ea f7 98 3e d4 50 6f 3e 50 ef d1 3d 37 f2 75 be
       0.29876643 0.23370677 0.10250723 -0.24018179
000150 ea dc 7b bd d7 58 61 be 6e 0c 40 bd c5 9f 0c be
       -0.061489977 -0.22006546 -0.046886854 -0.13732822
000160 a2 fe 20 be b7 fc a3 bd 20 9f e3 be 36 59 03 3e
       -0.15722135 -0.08007186 -0.4445734 0.12827
000170 9d d7 a7 3e 91 e1 89 3d 3c cf 83 be 68 25 c5 3e
       0.32781687 0.067324765 -0.25744045 0.385051
000180 69 5f 7d bd 99 56 1e be 2c 36 c0 bc 0c 3f 9a bd
       -0.06185857 -0.15462722 -0.023463331 -0.075315565
000190 d4 ba 6e be e4 82 8e bd 67 bd 54 bc 01 12 4f bc
       -0.23313457 -0.06958559 -0.01298461 -0.01263857
0001a0 1d 81 39 3d e7 ae 0a bf 6e 67 dc 3e b2 ae 03 be
       0.045289148 -0.5417313 0.4304766 -0.1285961
0001b0 c7 53 14 be 4b e4 0f 3d 51 ec bc be 2a 8d ba 3e
       -0.14485084 0.035129827 -0.36899045 0.36435825
0001c0 ec a6 ac 3e 9b 2b b2 be ac a9 13 3d d0 dc d9 bc
       0.337211 -0.34798893 0.036050484 -0.02659455
0001d0 24 e7 0a be da a6 51 3c 6d 88 b0 be 9b 2a 3a 3e
       -0.13564736 0.012796128 -0.34479085 0.18180315
0001e0 0f c6 8c 3c 4e 14 fb bc f8 a0 e4 3e 0f 3e 06 be
       0.017184285 -0.03064933 0.4465406 -0.13109611
0001f0 cd 53 18 3f 57 34 0c be e6 46 bd 3d 1d b1 24 3e
       0.5950287 -0.13691841 0.092420384 0.16083188
000200 ca 9e 09 3e ad fd 3a 3f 87 e4 10 bf ad c4 a0 3e
       0.1343948 0.7304333 -0.56598705 0.31400052
000210 ff 72 21 3e a4 7b 37 3c 02 9f 80 3e f6 be 86 bd
       0.15766524 0.011198912 0.25121313 -0.06579392
000220 30 78 6d 3e 78 6c cc bd ee f6 1c bd 8d e8 9d 3b
       0.23190379 -0.09981626 -0.038321428 0.004818982
000230 6b db 8f bd 27 da fc be e1 92 dd bd 99 d7 8b bd
       -0.070242725 -0.49385187 -0.108190306 -0.06828231
000240 ca 74 6c 3d eb df 25 be 18 02 db 3d 3b ab 00 3e
       0.057728566 -0.16198699 0.10693759 0.12565319
000250 a2 ba b0 3c f0 1b 55 be 19 5a fd bd de f8 5d be
       0.021573368 -0.20811439 -0.123707004 -0.21676967
000260 a2 f6 11 be db f0 2e be 2d 14 d8 be fa 42 76 3e
       -0.14254239 -0.17084067 -0.42202893 0.24048987
000270 47 0c c5 3d db f2 da be 22 d4 64 be d3 1e ee 3d
       0.09621482 -0.4276341 -0.22346547 0.11626973
000280 11 1d 00 3e 69 2d 84 3e bd 63 2b be f1 a3 ad bd
       0.12511088 0.25815895 -0.16737266 -0.08478535
000290 cb 50 54 3d 4e dc 3c 3c 67 d9 94 3d d7 1a c0 3d
       0.051834863 0.011527134 0.07268029 0.09380119
0002a0 2b aa 3e 3e 0f 77 a7 3e ae d2 85 3d ee 26 51 be
       0.18619601 0.32708022 0.065343246 -0.20425007
0002b0 ff fb a5 be 46 88 34 3e 8d bc 1e bd fa 97 8e be
       -0.3241882 0.17630109 -0.038754035 -0.27850324
0002c0 b0 e1 c3 3e b2 e1 03 bc 2c c8 06 be 5b 6a 84 3e
       0.38258123 -0.008049415 -0.13162297 0.25862393
0002d0 ba b5 74 3d 35 40 32 3d a5 a1 22 bd 0e e3 8f 3e
       0.05974362 0.043518264 -0.039704937 0.28102916
0002e0 44 96 f1 3d 07 10 f8 3e a4 a1 8e be 1f 0f a0 bd
       0.11796239 0.48449728 -0.27857697 -0.07815384
0002f0 d0 fc 78 be c0 8c 45 3f d1 f0 0e be 83 ae e9 3d
       -0.2431519 0.7716789 -0.13959052 0.114102386
000300 c7 d9 c7 3d 55 e1 ce 3e 4b 5e 8f be 8d df 8f bd
       0.097583346 0.4040629 -0.28001627 -0.07025061
000310 dd 31 82 3e 51 97 94 bd ca 7f 57 3e 4e a7 39 3e
       0.25428668 -0.07255424 0.21044841 0.18130228
000320 e8 8e 85 3c ea b5 87 be 46 b8 8f be 2d 4c cb 3c
       0.016303495 -0.26505977 -0.28070277 0.024816597
000330 a0 65 59 bd 51 6e 2f 3e 19 73 d2 3e 1e 84 06 be
       -0.053075433 0.17131926 0.41103438 -0.13136336
000340 83 cc bb bd 15 e4 8f 3e 95 36 3f 3e 36 25 be bd
       -0.09169867 0.281037 0.18673165 -0.09284441
000350 f4 46 01 3f 22 5a d9 3d 29 9a 1a 3d 18 bb a1 3c
       0.5049889 0.106128946 0.037744675 0.019742534
000360 cd e7 f5 3b 25 e8 3f bd 10 63 83 bc c4 e1 5c 3e
       0.0075044394 -0.04685225 -0.016038448 0.21570498
000370 11 ab f3 bd ca 71 9c be 9c 86 4c 3c bd 48 45 bd
       -0.11897863 -0.30555564 0.012483265 -0.04816507
000380 29 08 a3 bd 1d ed 55 be 38 11 4f 3e 94 4f 54 3e
       -0.07960541 -0.20891233 0.20221412 0.20733482
000390 6e 91 3e be 4f 32 c6 3e dd b8 0c 3e 29 48 17 3e
       -0.18610165 0.38710257 0.13742395 0.1477362
0003a0 21 06 81 3e df 95 0d 3f 49 d9 db bd ee ba c2 bd
       0.25199988 0.5530681 -0.10734803 -0.0950831
0003b0 b2 89 37 3d 2c 5b ca 3d 58 61 8c 3d 14 c7 24 be
       0.04480905 0.09880671 0.06854504 -0.16091567
0003c0 c2 10 04 3e 95 9e 1a 3e 02 52 16 3e 5c 20 2c be
       0.12897018 0.15099557 0.14679721 -0.16809219
0003d0 6a ac 92 3e f8 65 0e 3e e1 ca d2 3e 15 9c 9f 3e
       0.28647166 0.13906085 0.4117041 0.3117377
0003e0 69 5f 29 bd 9c 85 7d 3c 9f d0 9b bc 55 be ad 3c
       -0.041350756 0.0154737495 -0.019020377 0.021208921
0003f0 9e 84 a9 be a6 60 6c bd 88 3d 8e be 69 09 e7 bc
       -0.3310899 -0.05770936 -0.2778132 -0.02820273

graph_rnn.weight_hh_l1 f4 [192, 64]
000000 ef b4 26 3d 66 5c b9 bd 7f c0 18 be be b1 98 bc
       0.040699895 -0.09050827 -0.14917181 -0.018639442
000010 b8 bd ca 3d 6c ba 97 3b 6a 39 bd 3d eb af 48 be
       0.09899467 0.0046303775 0.092394665 -0.19598357
000020 1a 5a 30 be 22 53 a0 3d 53 f7 c0 3d bd 32 d9 bd
       -0.17221871 0.07828356 0.09422173 -0.10605381
000030 8f 41 20 be 6b cf d3 bc 1a af c3 bd 94 1e b1 bd
       -0.15650009 -0.02585574 -0.09554882 -0.086484104
000040 46 b3 3e be f8 44 fc bc 3a d7 1f be 0e 2c 50 bd
       -0.18623075 -0.030794606 -0.15609446 -0.050823264
000050 62 66 b7 bc 6c f1 d1 3c 68 bb e8 3d 22 b9 2b be
       -0.022387687 0.025627814 0.1136387 -0.16769841
000060 35 74 61 3e a3 4b 1d 3e 25 1b 88 3d a0 eb e1 3d
       0.22016986 0.15360884 0.066458024 0.1103127
000070 89 a1 00 3e df d3 ea bd 40 17 fd bb 7e 41 d9 3d
       0.12561621 -0.114661925 -0.007723719 0.10608195
000080 2a 93 54 be 3a b1 16 3d 5a 48 31 bd 09 66 8e 3d
       -0.20759264 0.03679011 -0.04328189 0.069530554
000090 d8 73 f7 be 48 3b 31 be d7 39 b0 bd 84 c2 4f 3e
       -0.4833057 -0.1730777 -0.08604782 0.20289046
0000a0 2e e0 a4 3d 73 25 88 be 7b 69 9a 3e cb a9 59 be
       0.080505714 -0.2659107 0.301586 -0.21256177
0000b0 10 f5 fb bd c6 96 d5 3d 82 dd ef 3c 5d f5 1a bb
       -0.12302601 0.104291484 0.029280428 -0.0023644783
0000c0 e5 f8 ec 3d 8c bc ee 3d 04 d8 82 be 25 7e e7 3d
       0.1157091 0.11657056 -0.25555432 0.11303357
0000d0 20 0b 3f 3d f2 54 a5 bd 3b 2d 28 3d 0a f2 5f bd
       0.04664147 -0.08072843 0.04105876 -0.054674186
0000e0 b6 46 98 bd d1 93 9f 3e 81 49 e9 3c 35 6f 42 3e
       -0.07435362 0.31167462 0.028477432 0.18987735
0000f0 ec 76 35 be aa 69 77 3e 8d d5 73 3e 07 5e 73 3e
       -0.17721146 0.24161401 0.23811932 0.23766337
000100 5a 5c db be de ab 93 bc 86 d5 0d 3e 3f 8b e0 bc
       -0.42843896 -0.018026289 0.13850984 -0.027410148
000110 f1 2f 42 3c 8b 66 ca 3d cc fe 84 3e 3b b3 89 3c
       0.01185225 0.0988284 0.25975645 0.016809097
000120 ed 9c 03 be 4f 55 72 be c6 25 03 3d 35 33 75 3c
       -0.12852831 -0.23665355 0.032018445 0.014965822
000130 66 88 84 3d 65 84 bc bd b9 77 89 3d e9 c0 bb bc
       0.064713284 -0.0920494 0.067122884 -0.022919135
000140 f9 dc 05 be d0 4e 6a be 31 5f d7 bd 6a 6e 8f bd
       -0.13072576 -0.22881627 -0.10516203 -0.07003482
000150 8c bb 7e bc d2 5c 9d be df 07 8d 3e a4 3d 4f 3b
       -0.015547644 -0.3073488 0.27545068 0.0031622434
000160 8f 1e 1e 3d aa 66 34 be 54 cc 45 be 9a de 30 3d
       0.03860336 -0.17617288 -0.19316226 0.04318104
000170 66 27 7c bd 48 71 aa 3e 4f 4c c3 3d 50 89 58 3e
       -0.06156101 0.33289552 0.09536039 0.2114613
000180 d2 5b 10 be 1b bb b5 3d a8 ce 40 bd e2 6d b4 bd
       -0.14097527 0.08873578 -0.047072083 -0.08810021
000190 b2 77 cd 3e 03 6d c7 3d 22 50 07 be 06 df 0b be
       0.40130383 0.09737589 -0.13214162 -0.13659295
0001a0 9e 30 9c 3e bc 83 08 3f bd 58 7d 3e cd 0f a8 bd
       0.30505842 0.5332601 0.24740882 -0.08206139
0001b0 80 91 7f be 56 19 b0 3c 80 5e 12 be b2 17 19 bc
       -0.24957848 0.021496456 -0.14293861 -0.009344028
0001c0 81 0d cf bd 13 14 0d bc 7a 41 b6 bd 06 07 c5 3c
       -0.101099975 -0.008610743 -0.088992074 0.0240512
0001d0 e0 90 13 3b cd f7 03 3e c7 3a 91 3e ba 60 ba 3e
       0.0022516772 0.12887497 0.28365156 0.36401922
0001e0 98 06 03 be 0c 0b a0 3e c3 01 3b 3d 5d 0d e2 3e
       -0.12795484 0.31258428 0.045655977 0.4415082
0001f0 cc e5 d9 bc 53 24 fa bc 91 2f 31 3e ad 7b 07 be
       -0.026598834 -0.030534899 0.17303301 -0.13230772
000200 6b 87 a0 3d fa 46 69 3d 4b a2 6c 3d 2a 96 b3 3e
       0.07838329 0.056952454 0.057771962 0.35075504
000210 9a 52 e1 3c 1f 78 8f 3c 25 19 77 bc 24 f4 af 3d
       0.027505208 0.017513333 -0.0150816785 0.08591488
000220 b2 4d 3f bd e0 7a dd 3d 1a 1c 9c be 73 fd 67 3e
       -0.046704955 0.10814452 -0.3049019 0.22655277
000230 7d 14 96 3e e0 fd 86 be 15 82 47 3e 22 44 08 be
       0.29312506 -0.26365566 0.19483216 -0.1330724
000240 47 51 5f 3e 56 36 d6 3d d2 66 29 3d 9a 8e 77 3c
       0.21808349 0.104595825 0.041357823 0.015109682
000250 c3 ff 6f 3c 13 3a 6a 3d 26 43 a7 be d8 9b 8a be
       0.014648381 0.05718429 -0.32668418 -0.27072024
000260 f1 f2 75 3e 6b ca 32 3e 58 21 3d bc f1 f9 38 3d
       0.24018456 0.17460029 -0.011543594 0.045160238
000270 b5 5d cd 3d 98 b4 8b 3d d6 1c 58 3e 5b 95 e7 3d
       0.10027639 0.06821555 0.2110475 0.11307784
000280 22 87 c9 3d 83 e2 53 be 2d 4e ea bb 05 8e 0d 3e
       0.09840228 -0.20691876 -0.0071504326 0.13823707
000290 66 42 85 3e 51 dc 15 bc 32 44 9c 3e ba a9 97 bc
       0.2602722 -0.009146766 0.3052078 -0.01851355
0002a0 85 bb 69 be de a2 e0 bd 22 13 b6 be 03 02 39 3d
       -0.2282544 -0.109685645 -0.35561472 0.045167934
0002b0 95 38 f6 3d 3f ac 3b be ae 28 01 3e 41 72 21 bd
       0.12022511 -0.18327425 0.12613174 -0.0394156
0002c0 7e 4f fe be 63 ee 58 be 67 02 83 3e 2d 48 15 be
       -0.49670023 -0.21184687 0.2558777 -0.14578314
0002d0 eb b6 66 be 0e a6 79 bd be 6a 8d be 98 8c 8c be
       -0.22530715 -0.060949378 -0.276205 -0.27451015
0002e0 ac 6d bc 3e e4 e7 34 be 58 d3 b9 3d c8 b4 42 bc
       0.36802423 -0.17666584 0.09073514 -0.011883922
0002f0 4e f5 22 3e 1a e1 4d be b8 f1 49 bd 10 6d 46 3e
       0.15913889 -0.201054 -0.049302787 0.19377542
000300 aa ec cd 3d 79 ba 0f bc 7e e1 c6 3d c7 4e 34 bd
       0.10054906 -0.008772486 0.09710978 -0.04402044
000310 86 8f 49 bd 40 02 52 bd 28 a2 8e 3e a8 c3 8a 3d
       -0.04920914 -0.051271677 0.2785809 0.067756
000320 10 42 b0 3e b4 4a 72 3d e0 2b 29 bc b8 22 07 be
       0.34425402 0.059153274 -0.010325402 -0.13196838
000330 a0 e6 75 bd d8 00 a5 bd e1 9b ef bd 85 0a 36 3d
       -0.060034394 -0.080568016 -0.116996534 0.044443626
000340 bb 4b da 3d 53 e2 29 3d 87 6b 74 bd 86 b5 d1 be
       0.10658976 0.041475605 -0.05967286 -0.40958804
000350 26 c7 2e be 34 fd 11 bd 0f 51 29 be 24 82 ed bd
       -0.17068157 -0.035641864 -0.16534828 -0.11597088
000360 a2 42 5d 3d e6 f8 26 3e 80 1c 52 be d7 d4 b3 be
       0.054018624 0.16305885 -0.20518684 -0.3512332
000370 36 f6 c4 bd 5f 72 38 be 4b 28 63 3e 42 24 2b be
       -0.096172735 -0.18012379 0.2218334 -0.1671305
000380 f2 6a c6 bc 98 0d a3 bd a9 d2 db 3d 06 8b 95 bd
       -0.024220917 -0.07961577 0.107335396 -0.07301907
000390 2a 78 58 3d 60 4a 60 bd f6 bb 7e bd 89 43 d3 bb
       0.052848972 -0.05475843 -0.062190972 -0.00644726
0003a0 4f 9a 9a bd dc 01 74 be 84 8d 86 3d b6 da 59 3e
       -0.07548963 -0.23828834 0.06569961 0.21274838
0003b0 d6 22 8a 3e b7 01 7f bd 0c d8 ab bd 74 c5 66 bd
       0.26979703 -0.062257495 -0.08390817 -0.05634065
0003c0 2e 92 49 be 1f 5e 2d 3d e0 dc cc bd 55 05 22 3e
       -0.1968467 0.04232609 -0.10003066 0.15822347
0003d0 57 94 d9 3d 0d e2 16 be 43 96 12 3d c4 49 fc bd
       0.10623997 -0.14734669 0.035787832 -0.12318757
0003e0 7a 0c c8 3d 9a 36 11 bd 7b 84 0b bf 7c 23 01 3c
       0.09768005 -0.035452463 -0.54499024 0.007881995
0003f0 79 8e 91 3d 95 5e af bd bc 4a 4f 3e c8 ec 1d 3e
       0.07107253 -0.08562962 0.20243353 0.15422356
