graphrnn_v2/experiments/reproduction/ego_small/ego_small/model_at_1100.pt (torch, 420155 bytes, 43 tensors)

adj_embedding.0.weight f4 [32, 15]
-0.037526432 -0.078300446 -0.08402287 -0.0786549 0.5840124 -0.16479388 -0.33164808 0.3992798
0.17643452 0.21836552 0.0798025 0.09556524 -0.05829479 -0.4262292 -0.2020934 -0.26973867
0.4042177 0.14821729 -0.487231 0.35672304 0.51442623 -0.09362447 0.35230997 0.41389045
-0.021353118 0.2225629 -0.32401654 -0.4095684 0.91897464 -0.2641971 0.6104344 0.16737531
-0.37728631 0.44735557 0.21008253 -0.75131977 -0.3873674 -0.30988365 -0.5530438 -0.36900395
-0.14651798 -0.3401206 -0.1513773 -0.5334431 -0.6269287 0.29672465 -0.12060458 0.5624511
0.5641741 -0.06615969 0.12841621 -0.07589077 -0.13158236 -0.14614284 -0.2764556 0.07217455
-0.2329754 -0.16702929 -0.4800631 -0.13038647 0.17996411 0.23853908 0.3489927 0.10881179
0.24874383 -0.12370838 0.11723167 0.03372323 0.11714021 0.109977186 0.058207717 0.1306082
0.41977513 -0.14189161 0.0065180142 -0.19350067 0.75774604 0.027834464 -0.4818995 -0.39623055
-0.24513899 -0.26769066 0.36907217 0.28835848 0.24584399 0.26007518 -0.14570484 0.10630777
1.1599171 -0.02886394 0.6210649 0.23798862 0.022020577 0.026989175 0.17979135 0.34241742
0.024794597 0.49500635 -0.2987599 -0.3756343 -0.08327393 -0.05989853 0.053295836 -0.51191163
-0.054631393 0.23940712 -0.2390866 -0.016141701 0.22096187 0.52705145 0.41272917 -0.13716224
-0.2002312 -0.21954805 -0.122894794 -0.020563575 0.62509036 0.19857706 -0.50847137 0.15818438
-0.100785464 0.29200372 -0.15835983 -0.29157704 -0.027866801 -0.20970778 -0.20775005 -0.037317544
-0.048293196 0.17340147 -0.10895572 -0.02753502 0.20508231 0.06341966 -0.077421404 0.10577103
-0.35281348 -0.36467683 0.23291431 -0.09289813 0.15496768 0.6394879 0.015478261 -0.12739536
0.39112848 0.253121 -0.3908761 -0.5031222 0.46366227 -0.40709865 -0.021302318 -0.5257567
0.3446902 0.63240504 -0.099263676 -0.0788048 -0.35815227 0.19212793 -0.22788888 -0.064539105
-0.12407489 0.16182506 1.1080359 -0.39898765 -0.0810701 -0.041708227 0.105681874 0.032982606
-0.44802222 0.22758189 0.41115382 0.17265794 0.169907 -0.35287756 -0.15513892 0.12784852
0.669264 0.58375776 -0.17153966 0.12250806 -0.03388455 0.016551342 -0.19154242 0.39589405
-0.02359021 -0.291872 -0.1046475 -0.118055135 0.13472655 0.14372115 0.7958125 -0.7269843
-0.7294299 -0.55181676 0.92802936 0.039690256 0.3147104 -0.17461641 -0.105940625 0.27378
0.23310909 -0.22384354 -0.05404597 -0.22951274 -0.28288272 -0.039248098 0.814741 -0.026588913
-0.14259268 0.30194697 0.59350544 0.061592095 -0.22012988 0.03310514 -0.33662677 -0.0017110809
-0.61403584 -0.67286646 -0.5121256 -0.26228687 -0.55736643 -0.28616035 -0.5790496 -0.47619358
-0.82995224 0.45527694 0.20742844 -0.08612525 -0.055344105 0.122909054 0.029135378 -0.23670512
0.06087351 -0.20579353 -0.2820422 -0.16693898 0.5011108 0.5154453 -0.24406204 0.17238143
-0.17322862 -0.15439574 -0.12555411 -0.016336884 -0.11038118 0.09262293 0.09930664 0.16580124
-0.14419645 0.09906663 -0.1610288 0.7176 0.29231846 0.2644059 0.3756515 0.4933171
00000000: 51b5 19bd fc5b a0bd 2f14 acbd d215 a1bd
00000010: d681 153f babf 28be c7cd a9be 676e cc3e
00000020: 40ab 343e 369b 5f3e 7e6f a33d b5b7 c33d
00000030: 85c6 6ebd b73a dabe 92f1 4ebe 301b 8abe
00000040: 9ff5 ce3e 46c6 173e 5776 f9be 67a4 b63e
00000050: 70b1 033f 30be bfbd f961 b43e 73e9 d33e
00000060: bcec aebc 87e7 633e 7fe5 a5be f3b2 d1be
00000070: ec41 6b3f d844 87be 6e45 1c3f 6f64 2b3e
00000080: ac2b c1be ca0b e53e e01f 573e 7e56 40bf
00000090: 0555 c6be 12a9 9ebe 4794 0dbf 16ee bcbe
000000a0: cf08 16be 4a24 aebe a702 1bbe ba8f 08bf
000000b0: 667e 20bf 4bec 973e 89ff f6bd ccfc 0f3f
000000c0: b76d 103f bb7e 87bd 8a7f 033e 9f6c 9bbd
000000d0: 87bd 06be 78a6 15be 978b 8dbe 40d0 933d
000000e0: 1a91 6ebe ba09 2bbe d5ca f5be 0884 05be
000000f0: 8348 383e 9743 743e 2caf b23e b7d8 de3d
00000100: b4b6 7e3e d25a fdbd 2817 f03d 5f21 0a3d
00000110: 35e7 ef3d b83b e13d 376b 6e3d 28be 053e
00000120: c4ec d63e 094c 11be 1195 d53b 0a25 46be
00000130: a5fb 413f 1a05 e43c 88bb f6be bbde cabe
00000140: b705 7bbe c00e 89be 07f7 bc3e b9a3 933e
00000150: 87be 7b3e 9328 853e a633 15be e3b7 d93d
00000160: 2a78 943f 1274 ecbc 1cfe 1e3f 4ab3 733e
00000170: 7f64 b43c 6718 dd3c 391b 383e 5651 af3e
00000180: 0a1e cb3c 7971 fd3e 0ff7 98be 2453 c0be
00000190: 868b aabd 2958 75bd bc4c 5a3d a40c 03bf
000001a0: 2bc5 5fbd 2427 753e 1ed3 74be 9a3b 84bc
000001b0: d443 623e d8ec 063f 3d51 d33e 4274 0cbe
000001c0: 6809 4dbe 34d1 60be 44b0 fbbd f174 a8bc
000001d0: ec05 203f c957 4b3e 2e2b 02bf 16fb 213e
000001e0: 9c68 cebd 8381 953e 1429 22be 9649 95be
000001f0: eb48 e4bc a3bd 56be 6ebc 54be 48da 18bd
00000200: 16cf 45bd 2890 313e 2d24 dfbd 1f91 e1bc
00000210: 1901 523e 2be2 813d 1d8f 9ebd 7b9e d83d
00000220: f8a3 b4be ecb6 babe 1781 6e3e 6041 bebd
00000230: d9af 1e3e 7bb5 233f 8898 7d3c ee73 02be
00000240: fe41 c83e 1399 813e ea20 c8be 9ecc 00bf
00000250: 2465 ed3e 3c6f d0be 3382 aebc fe97 06bf
00000260: 3c7b b03e 4ce5 213f c14a cbbd 6964 a1bd
00000270: bc5f b7be 2fbd 443e b45b 69be 142d 84bd
00000280: fa1a febd 78b5 253e 1fd4 8d3f 1c48 ccbe
00000290: 1508 a6bd 3fd6 2abd bd6f d83d c518 073d
000002a0: 2b63 e5be 3a0b 693e c182 d23e 3ecd 303e
000002b0: 1afc 2d3e 5eac b4be bddc 1ebe b9ea 023e
000002c0: e354 2b3f 2671 153f 18a8 2fbe 81e5 fa3d
000002d0: 87ca 0abd ae96 873c b223 44be a0b2 ca3e
000002e0: 4240 c1bc 3f70 95be 6e51 d6bd e4c6 f1bd
000002f0: c2f5 093e a32b 133e 5eba 4b3f a51b 3abf
00000300: ebbb 3abf dd43 0dbf 5593 6d3f 4092 223d
00000310: b921 a13e a5ce 32be 66f7 d8bd e42c 8c3e
00000320: 26b4 6e3e 3e37 65be 4f5f 5dbd 6305 6bbe
00000330: 01d6 90be 9dc2 20bd de92 503f fed0 d9bc
00000340: d103 12be cb98 9a3e f9ef 173f fe47 7c3d
00000350: ba69 61be 4199 073d 585a acbe 5946 e0ba
00000360: 7431 1dbf fa40 2cbf aa1a 03bf 774a 86be
00000370: 91af 0ebf 9c83 92be 983c 14bf a5cf f3be
00000380: c077 54bf 0f1a e93e 1f68 543e 6f62 b0bd
00000390: 80b0 62bd beb7 fb3d 51ad ee3c d462 72be
000003a0: 8056 793d 8abb 52be d667 90be 0df2 2abe
000003b0: cc48 003f 39f4 033f 66eb 79be c284 303e
000003c0: d862 31be eb19 1ebe 4291 00be eed4 85bc
000003d0: 870f e2bd 17b1 bd3d 4861 cb3d cdc7 293e
000003e0: 3ca8 13be 72e3 ca3d bce4 24be a2b4 373f
000003f0: c4aa 953e 3660 873e 6555 c03e 0f94 fc3e

adj_embedding.0.bias f4 [32]
0.15803793 0.22942746 0.02553657 0.073839426 -0.42323077 0.26299772 -0.02328618 0.01205074
-0.16435854 0.01618112 0.21174751 0.39413515 0.0038002366 0.111960985 0.16870266 0.067982666
0.39268446 0.053696588 -0.30399328 0.11271694 -0.13365033 0.38548082 0.011204558 0.11366863
0.13661526 0.026717653 -0.020959374 0.018968923 -0.041206896 0.17204675 0.08044054 -0.15396446
00000000: b2d4 213e 08ef 6a3e 1232 d13c 2039 973d
00000010: b4b1 d8be a3a7 863e a9c2 bebc 7870 453c
00000020: 9b4d 28be 458e 843c 57d4 583e 15cc c93e
00000030: 640d 793b cd4b e53d 64c0 2c3e 7f3a 8b3d
00000040: f00d c93e f4f0 5b3d 02a5 9bbe 24d8 e63d
00000050: a2db 08be be5d c53e 5393 373c 19cb e83d
00000060: dfe4 0b3e fbde da3c feb2 abbc b764 9b3c
00000070: 90c8 28bd 062d 303e 03be a43d dca8 1dbe

graph_rnn.weight_ih_l0 f4 [192, 32]
-0.33943635 -0.37573802 0.49216816 0.027180538 -0.2592941 -0.18112487 -0.16834329 -0.1829013
0.031626403 0.022160623 0.32972378 -0.6045245 1.1228201 -0.2687675 -0.15525557 -0.2984354
-0.17979956 0.32839632 0.24658583 -0.08724077 0.13026652 0.19068371 0.2842922 -0.4378927
0.13208055 0.463387 -0.31632975 0.46843055 0.26297155 0.45082507 -1.0096811 0.12558061
-0.39817956 -0.4270583 -0.16799212 0.14353354 -0.87661535 -0.88187015 -0.22928487 0.2933419
-0.064421855 -0.4112197 0.632252 0.016110297 0.20146321 -0.35958326 0.022588454 -0.29161623
0.21753314 -0.044160925 -0.23765665 -0.46543732 -0.80478156 0.16449507 0.4558781 -0.11340766
0.22157302 0.12496388 0.48076883 -0.11564875 -0.05314111 0.38133428 0.5699381 -0.053974275
0.00010633273 0.05689075 -0.030617405 -0.52695066 -0.18522027 0.2215723 -0.15882105 -0.07330826
0.09174055 -0.15208869 -0.34165207 -0.12016632 -0.07813264 0.06407507 -0.13100427 0.05762585
0.1731175 0.0016423836 -0.6192815 0.007117188 -0.014265775 -0.13563405 -0.29265457 0.08495704
-0.4225146 -0.33462226 -0.068601586 -0.31846005 0.012880075 -0.41023922 -0.23762643 -0.5744324
-0.0020599302 -0.43063354 -0.17596096 0.254062 0.22529629 -0.32601923 -0.095593736 -0.16389987
-0.122074515 -0.7191587 0.7383265 -0.11219948 0.44567132 -0.24122274 -0.1451332 -0.08864027
-0.05932016 0.21106303 0.6164372 -0.08004128 -0.08149669 -0.037852176 0.13409343 -0.38922274
0.32074222 0.45282882 0.083388254 -0.2651035 -0.15658563 0.4797041 -0.29925114 0.2880876
0.10935898 0.24686788 0.030362217 -0.022120025 -0.21774249 0.58336157 0.1371394 -0.29873323
0.03949189 -0.060470812 0.061819162 0.24657287 0.029810332 0.101958126 0.1099365 0.23426361
0.13124225 -0.028508026 0.06881438 0.34540308 0.20198594 -0.14923848 0.1204123 -0.16382027
-0.4761739 0.020236036 -0.034635734 -0.39196023 0.62729394 0.23028275 0.19627191 0.06286086
-0.77017325 -0.012481134 -0.070677124 0.2321114 0.12974383 0.27754676 -0.09193457 -0.37139338
-0.092430554 0.061149053 -0.34418154 -0.18543328 0.005086547 -0.07162085 -0.12760115 -0.057793427
0.010839057 -0.1523788 0.16645345 0.06752703 0.05233159 -0.51105434 0.5118985 -0.41489977
-0.2789188 0.15483193 -0.106971174 -0.23553911 -0.42313212 0.2864862 -0.12358859 0.17247067
-0.3494206 0.16852431 -0.41627052 -0.17725147 -0.32832357 0.14160033 -0.22127783 -0.16706318
0.11486912 0.31386632 -0.65533876 0.1545443 -0.2973275 -0.10235784 -0.37875596 -0.09692248
0.09689764 -0.41997987 -0.39128032 -0.030999087 0.01705916 -0.40727782 0.20828882 -0.14769709
-0.3522452 -0.5776658 -0.07467085 -0.16117112 -0.026453154 0.1372459 -0.3439994 -0.32499835
-0.4045556 -0.38725746 0.062199403 0.22813335 0.09016698 -0.34282798 -0.299989 -0.042966202
-0.08210544 -0.03425352 0.6102538 -0.3754896 0.80722326 -0.3603274 -0.13437411 -0.16355294
-0.20925136 0.21158063 0.112542816 -0.029581644 -0.099867366 0.09075241 0.3428003 -0.38392034
0.12039803 0.23740192 0.09802967 0.20566486 0.474468 0.5567764 -0.51464224 0.2613466
00000000: 9aca adbe bc60 c0be 77fd fb3e b8a9 de3c
00000010: 32c2 84be cc78 39be 2f62 2cbe 7a4a 3bbe
00000020: b08a 013d 328a b53c 8ed1 a83e 1ec2 1abf
00000030: 92b8 8f3f e59b 89be 51fb 1ebe 86cc 98be
00000040: 601d 38be 9023 a83e ff80 7c3e 4aab b2bd
00000050: 9664 053e 9742 433e bf8e 913e 7933 e0be
00000060: 2040 073e 1041 ed3e f9f5 a1be 21d6 ef3e
00000070: 35a4 863e 8bd2 e63e 3b3d 81bf 3498 003e
00000080: 31de cbbe 63a7 dabe 2006 2cbe 75fa 123e
00000090: dd69 60bf 3ec2 61bf a7c9 6abe e930 963e
000000a0: 9bef 83bd 638b d2be 44db 213f bef9 833c
000000b0: 5f4c 4e3e 4c1b b8be 6c0b b93c b94e 95be
000000c0: 02c1 5e3e 16e2 34bd 445c 73be cd4d eebe
000000d0: 2a06 4ebf 6571 283e db68 e93e 4642 e8bd
000000e0: 0ae4 623e 10ed ff3d 5527 f63e 40d9 ecbd
000000f0: 7eaa 59bd 3f3e c33e 77e7 113f 2114 5dbd
00000100: f3fe de38 4606 693d 5ad1 fabc 3de6 06bf
00000110: 62aa 3dbe d9e3 623e fca1 22be a422 96bd
00000120: 78e2 bb3d 23bd 1bbe 05ed aebe c219 f6bd
00000130: 0104 a0bd ca39 833d fc25 06be 1509 6c3d
00000140: b745 313e 4045 d73a 3b89 1ebf 4d37 e93b
00000150: ffba 69bc a7e3 0abe d2d6 95be f5fd ad3d
00000160: d553 d8be 9c53 abbe fd7e 8cbd 320d a3be
00000170: f306 533c e00a d2be 5854 73be 000e 13bf
00000180: e5ff 06bb 007c dcbe 1c2f 34be 6a14 823e
00000190: 12b4 663e feeb a6be a6c6 c3bd 5ed5 27be
000001a0: 3402 fabd c91a 38bf f702 3d3f d7c8 e5bd
000001b0: 082f e43e 1803 77be cc9d 14be 0889 b5bd
000001c0: b2f9 72bd e820 583e d4ce 1d3f afec a3bd
000001d0: bde7 a6bd e20a 1bbd ca4f 093e 3448 c7be
000001e0: 5338 a43e 2ed9 e73e 76c7 aa3d a5bb 87be
000001f0: fc57 20be c79b f53e 7237 99be 3880 933e
00000200: 9af7 df3d efca 7c3e 2fba f83c 0e35 b5bc
00000210: e3f7 5ebe 2f57 153f 456e 0c3e 90f3 98be
00000220: 40c2 213d 3eb0 77bd 1736 7d3d 997d 7c3e
00000230: cc34 f43c 6ccf d03d 6326 e13d cde2 6f3e
00000240: 5e64 063e aa89 e9bc 8eee 8c3d acd8 b03e
00000250: 67d5 4e3e f9d1 18be b99a f63d 80c0 27be
00000260: 11cd f3be 0bc6 a53c 33de 0dbd 03af c8be
00000270: 5696 203f 3ecf 6b3e 81fb 483e 32bd 803d
00000280: 132a 45bf ac7d 4cbc 2bbf 90bd 9cae 6d3e
00000290: 91db 043e 9c1a 8e3e 3148 bcbd 4627 bebe
000002a0: 3b4c bdbd 6e77 7a3d 9038 b0be 39e2 3dbe
000002b0: 0dad a63b f4ad 92bd e0a9 02be cdb8 6cbd
000002c0: 4d96 313c 3009 1cbe c672 2a3e 9d4b 8a3d
000002d0: a659 563d 75d4 02bf c80b 033f be6d d4be
000002e0: 72ce 8ebe 438c 1e3e b413 dbbd 2a31 71be
000002f0: c6a4 d8be 52ae 923e 041c fdbd 279c 303e
00000300: 42e7 b2be a391 2c3e 6921 d5be 6981 35be
00000310: 071a a8be adff 103e a896 62be 9c12 2bbe
00000320: 8040 eb3d 16b3 a03e 48c4 27bf dc40 1e3e
00000330: 4f3b 98be fda0 d1bd 4dec c1be 4b7f c6bd
00000340: 4572 c63d 9a07 d7be e555 c8be ccf1 fdbc
00000350: a7bf 8b3c b886 d0be aa49 553e e83d 17be
00000360: 7c59 b4be e8e1 13bf 08ed 98bd 0b0a 25be
00000370: 49b4 d8bc 308a 0c3e b020 b0be 2f66 a6be
00000380: e921 cfbe 9c46 c6be cdc4 7e3d ca9b 693e
00000390: 77a9 b83d 2687 afbe 2998 99be 54fd 2fbd
000003a0: e626 a8bd 6b4d 0cbd 9839 1c3f 2c40 c0be
000003b0: 2fa6 4e3f d57c b8be 5e99 09be 6c7a 27be
000003c0: fd45 56be 98a8 583e d97c e63d 3455 f2bc
000003d0: 4387 ccbd 66dc b93d 8583 af3e 3591 c4be
000003e0: 3e93 f63d 7d19 733e c8c3 c83d cf99 523e
000003f0: 78ed f23e e688 0e3f 98bf 03bf 39cf 853e

graph_rnn.weight_hh_l0 f4 [192, 64]
-0.17803709 -0.10144062 -0.013643817 0.20150289 0.015146034 0.04359131 0.08427417 -0.06214194
-0.093512766 0.080318205 -0.074455254 0.048805818 0.12886998 -0.17293382 -0.11519307 -0.074756816
-0.07137659 -0.087547846 0.14443375 -0.08286222 0.025712783 -0.09892844 0.0014678517 -0.2911626
0.12109434 0.0061857975 -0.22351125 -0.006483479 -0.045678023 0.18362704 -0.025026964 -0.12965472
-0.0034775597 -0.19497995 0.11961008 0.049526367 -0.17884976 -0.09031627 0.03248061 -0.16060458
0.005146424 -0.11556796 -0.05261798 0.11833551 -0.12468277 0.011396804 -0.043241944 0.13994132
-0.0113899615 -0.15141429 0.0147366375 -0.10194221 -0.12799719 0.03420307 -0.04127157 -0.023813458
0.15027647 -0.2202275 0.22534655 -0.020263804 0.1558556 -0.060684618 0.006756235 0.06702516
0.15727597 0.017970428 -0.019395951 -0.0762528 -0.013442758 -0.013072505 -0.11740695 0.15272146
-0.1318085 0.15443932 -0.08016414 -0.029771857 0.09748783 -0.056934312 -0.19060075 -0.13396835
-0.15497358 -0.20037122 0.08572782 -0.14659517 0.01448035 -0.09295824 -0.061845202 -0.1983327
0.16095693 -0.12954442 0.08850644 -0.24485816 0.086725876 -0.15432434 0.018656183 0.017322917
0.088707 -0.025653617 0.013707248 -0.03734558 0.13005057 -0.08889831 0.056520652 -0.0650182
0.130287 0.08073014 -0.011675767 -0.0015435654 -0.19388872 -0.020156369 -0.014282704 -0.049156234
-0.14450897 -0.03206736 0.00074669364 0.13354482 0.082155764 -0.17733587 0.16505593 -0.049216393
0.050250787 -0.019012375 -0.0017748558 0.0072934018 -0.1687277 0.1857628 -0.123989224 0.14746888
-0.0061440193 0.07096699 0.25770074 0.106638424 0.14921458 -0.06114415 -0.1436423 -0.15702032
-0.23008071 -0.19445887 -0.11540244 -0.008793547 -0.018945687 0.07863787 0.16822495 0.060962375
0.002313867 0.00762768 0.068019815 -0.11624021 0.17432296 0.02400297 0.17594083 -0.22596113
-0.16917521 -0.08123171 -0.035045065 -0.0759956 0.10229891 0.09145651 -0.060053837 0.2158005
0.050104797 -0.037038654 0.07891258 0.33088136 -0.27326742 0.208116 0.17160892 0.003957014
0.10416769 0.03484906 -0.14048994 0.09298644 0.3206445 -0.13560241 0.10299059 0.12574841
0.018744092 -0.11998608 -0.14586514 -0.01339087 -0.09793897 0.12969697 -0.19351116 -0.03554557
0.062476348 0.10048652 -0.048227206 0.2337467 0.08366222 -0.32543287 0.069112904 -0.07902691
0.08459367 -0.011331594 0.14245616 -0.0990192 -0.06172579 0.09335435 -0.14195274 -0.03249401
-0.1560205 0.31123868 0.07483804 0.0595735 0.11727371 0.19034138 -0.10961652 -0.32164043
-0.1077572 0.018327782 -0.071040764 -0.018066226 -0.03571823 -0.113090605 -0.11538687 -0.29069197
0.035674352 -0.049276635 0.059598465 -0.21443301 -0.015116575 -0.096044175 0.14817165 -0.010156832
-0.015636044 -0.053747427 -0.2587356 -0.09366428 -0.09724379 -0.1518398 -0.061313156 0.024272796
-0.17519215 0.050485227 0.05433328 -0.001863165 -0.22230326 0.09990879 0.18993413 -0.02446461
-0.021725032 -0.1595234 0.13585666 0.002680605 -0.08023521 -0.13266657 0.20440273 0.061612304
0.020741852 0.1588728 -0.22503132 0.06655499 -0.04506636 -0.057660136 0.061180346 0.027000703
00000000: 5b4f 36be 1ac0 cfbd 518a 5fbc c656 4e3e
00000010: 1227 783c cd8c 323d f097 ac3d 8c88 7ebd
00000020: 9f83 bfbd df7d a43d ff7b 98bd 9ce8 473d
00000030: 7ef6 033e 9015 31be 58ea ebbd 1a1a 99bd
00000040: e42d 92bd 494c b3bd 71e6 133e abb3 a9bd
00000050: 9da3 d23c fe9a cabd ee64 c03a 4413 95be
00000060: 4f00 f83d 3bb2 ca3b 22e0 64be 5d73 d4bb
00000070: e118 3bbd ba08 3c3e 5905 cdbc 35c4 04be
00000080: c5e7 63bb d3a8 47be 21f6 f43d 29dc 4a3d
00000090: 6424 37be bdf7 b8bd 630a 053d 8775 24be
000000a0: 55a3 a83b e5ae ecbd f385 57bd e359 f23d
000000b0: ae59 ffbd a9b9 3a3c 771e 31bd c74c 0f3e
000000c0: f69c 3abc 590c 1bbe f071 713c 14c7 d0bd
000000d0: b211 03be 8518 0c3d 610c 29bd 7114 c3bc
000000e0: 13e2 193e 5183 61be 3fc1 663e 4700 a6bc
000000f0: 9c98 1f3e 6f90 78bd 6863 dd3b 7d44 893d
00000100: f40c 213e b836 933c 42e4 9ebc 6e2a 9cbd
00000110: 033f 5cbc 0f2e 56bc 0e73 f0bd 0463 1c3e
00000120: cff8 06be 5725 1e3e 192d a4bd 1ce4 f3bc
00000130: b3a7 c73d f433 69bd d82c 43be 002f 09be
00000140: 65b1 1ebe 1d2e 4dbe 1192 af3d 0b1d 16be
00000150: fd3e 6d3c e460 bebd 6551 7dbd ba17 4bbe
00000160: e5d1 243e 4ba7 04be dd42 b53d 19bc 7abe
00000170: 569d b13d 3307 1ebe dad4 983c cae8 8d3c
00000180: 04ac b53d 8927 d2bc 5d94 603c aef7 18bd
00000190: fa2b 053e 5110 b6bd 3382 673d 4328 85bd
000001a0: f569 053e d855 a53d b74b 3fbc 7651 caba
000001b0: c48a 46be f81e a5bc 0102 6abc 0c58 49bd
000001c0: 29fa 13be 1059 03bd c3bd 433a f9bf 083e
000001d0: 4841 a83d 8997 35be 6c04 293e 2197 49bd
000001e0: c5d3 4d3d d7bf 9bbc 47a2 e8ba 7dfd ee3b
000001f0: f4c6 2cbe 9a38 3e3e 10ee fdbd 1502 173e
00000200: c553 c9bb 2457 913d 5af1 833e 3f65 da3d
00000210: b5cb 183e 4a72 7abd f816 13be efc9 20be
00000220: 479a 6bbe 3a20 47be 1d58 ecbd cf12 10bc
00000230: fc33 9bbc e40c a13d 2943 2c3e afb3 793d
00000240: 3fa4 173b 9ef1 f93b f94d 8b3d 590f eebd
00000250: b881 323e e0a1 c43c d529 343e 5b62 67be
00000260: 443c 2dbe d05c a6bd 6a8b 0fbd 95a3 9bbd
00000270: 1782 d13d 8d4d bb3d 03fb 75bd cefa 5c3e
00000280: b03a 4d3d d8b5 17bd eb9c a13d 4869 a93e
00000290: b5e9 8bbe 5c1c 553e 40ba 2f3e d7a9 813b
000002a0: df55 d53d e3bd 0e3d 98dc 0fbe ad6f be3d
000002b0: 842b a43e 5cdb 0abe bbec d23d 31c4 003e
000002c0: 368d 993c 43bb f5bd ac5d 15be 6165 5bbc
000002d0: 3a94 c8bd 48cf 043e ca27 46be 3b98 11bd
000002e0: 33e7 7f3d e0cb cd3d e489 45bd 4c5b 6f3e
000002f0: 1957 ab3d 239f a6be 118b 8d3d dcd8 a1bd
00000300: 723f ad3d 26a8 39bc 07e0 113e 94ca cabd
00000310: 2fd4 7cbd 9130 bf3d 0f5c 11be 7018 05bd
00000320: d7c3 1fbe ad5a 9f3e b044 993d 5803 743d
00000330: 332d f03d dae8 423e a07e e0bd 0eae a4be
00000340: cfaf dcbd 2524 963c d27d 91bd 9fff 93bc
00000350: 474d 12bd 0c9c e7bd f44f ecbd 94d5 94be
00000360: 451f 123d 4cd6 49bd 851d 743d 5494 5bbe
00000370: 83ab 77bc cfb2 c4bd 4fba 173e d768 26bc
00000380: 2917 80bc 4326 5cbd fe78 84be 0fd3 bfbd
00000390: c127 c7bd e47b 1bbe 8123 7bbd bed7 c63c
000003a0: 9265 33be 99c9 4e3d 938c 5e3d 7135 f4ba
000003b0: 77a3 63be fb9c cc3d 187e 423e 016a c8bc
000003c0: b2f8 b1bc 1a5a 23be 021e 0b3e 17ad 2f3b
000003d0: 5c52 a4bd bfd9 07be f34e 513e 2f5d 7c3d
000003e0: d1ea a93c 8daf 223e 9c6e 66be fc4d 883d
000003f0: 8197 38bd 092d 6cbd 3e98 7a3d 9430 dd3c

graph_rnn.bias_ih_l0 f4 [192]
-0.14943002 -0.0349734 0.0346207 -0.065222315 0.25732577 -0.11579451 -0.005601556 -0.16324486
0.023363488 -0.06523838 -0.08785202 -0.05680571 -0.13097148 0.004884368 -0.024654908 0.0061612288
0.1558799 0.07267216 -0.1951289 -0.09255316 0.10527339 0.057706367 0.06775443 -0.08242099
-0.034055863 0.087232545 0.010224946 -0.10270416 -0.14716409 -0.10908826 -0.15304498 -0.028661678
-0.081583016 -0.10081756 -0.08761145 0.09604474 0.024186345 0.094898134 0.20363036 0.0036218471
0.033050146 0.014485557 0.078220695 -0.28423288 0.06647463 -0.12329389 -0.030802008 -0.15784153
0.0072675683 -0.055817932 -0.027423017 -0.06614596 -0.09657657 0.008628002 -0.09542431 -0.043866556
-0.05472663 0.054325756 0.018286739 0.1919838 0.052776862 -0.20777184 0.108882196 0.20033959
-0.16352685 -0.1405488 -0.10779585 -0.1576963 -0.0364326 0.08736646 -0.09120827 -0.23034056
-0.035749424 -0.27620757 -0.13166642 -0.2672121 -0.09793795 -0.016139768 -0.09329134 -0.22866584
-0.07648416 -0.15091012 -0.05535033 -0.05385857 -0.14317559 0.0034451063 -0.008830419 -0.12971714
-0.050827913 -0.1821029 -0.0609975 0.0012368218 -0.24640867 -0.23895176 -0.16529621 -0.18303801
-0.118113756 -0.050935842 -0.18087302 -0.19055259 -0.06457762 -0.19942825 -0.014840741 -0.13865139
-0.0023542924 -0.1968364 -0.1719866 -0.15395495 -0.10854263 0.0879754 -0.12088844 -0.08167075
-0.09144569 -0.12487535 -0.02315051 -0.26153824 0.005679687 -0.19091733 -0.4213954 -0.110765524
-0.28058422 -0.09765473 -0.21048377 -0.12668897 -0.17661235 -0.033174723 -0.2781901 -0.058117162
0.19792202 -0.12132166 0.14400919 -0.09422995 0.09997404 -0.096133515 -0.048426315 0.11827646
0.086666726 -0.21932143 -0.11743019 0.015241211 0.10695098 0.16257112 -0.021508295 -0.1590631
-0.29862547 0.1901066 0.057797655 -0.092544496 0.095520206 -0.06959147 0.14558102 0.09057555
0.15611209 -0.014002068 0.09389746 -0.13464914 0.24718551 -0.119108394 -0.13388729 0.24428241
-0.0160435 0.032830756 0.11343568 0.22260559 -0.17710616 -0.023202308 0.12610649 0.025866184
-0.1224895 0.0091399895 -0.12827052 -0.18854241 0.19441167 -0.06679297 -0.028419618 -0.0067233066
-0.2557373 -0.11579783 0.08011805 -0.123113476 0.06728165 0.18784614 -0.23659335 -0.017677542
-0.14536929 -0.0387282 0.06828648 0.172966 0.13876753 -0.0047877915 0.023476666 -0.2182869
00000000: 2f04 19be 4540 0fbd 6fce 0d3d 4793 85bd
00000010: 34c0 833e ac25 edbd 428d b7bb a929 27be
00000020: c964 bf3c b39b 85bd c3eb b3bd 1bad 68bd
00000030: 631d 06be 0c0d a03b 17f9 c9bc 22e4 c93b
00000040: fb9e 1f3e 24d5 943d dfcf 47be 838c bdbd
00000050: 9399 d73d 835d 6c3d d6c2 8a3d 56cc a8bd
00000060: 297e 0bbd faa6 b23d 8886 273c 8f56 d2bd
00000070: 2fb2 16be aa69 dfbd d3b7 1cbe e5cb eabc
00000080: ff14 a7bd 7079 cebd a26d b3bd 1bb3 c43d
00000090: 7122 c63c f459 c23d 7a84 503e 835c 6d3b
000000a0: 975f 073d d454 6d3c 2c32 a03d f986 91be
000000b0: da23 883d 8281 fcbd 7e54 fcbc 36a1 21be
000000c0: c824 ee3b 58a1 64bd 3ca6 e0bc 8877 87bd
000000d0: f0c9 c5bd 775c 0d3c d26d c3bd 6bad 33bd
000000e0: 0829 60bd af84 5e3d 12ce 953c 6797 443e
000000f0: 8d2c 583d 24c2 54be a1fd de3d d225 4d3e
00000100: 9573 27be 06ec 0fbe 12c4 dcbd 247b 21be
00000110: 5a3a 15bd 30ed b23d 67cb babd 65de 6bbe
00000120: fd6d 12bd 146b 8dbe 90d3 06be 06d0 88be
00000130: b193 c8bd 8c37 84bc 880f bfbd 6127 6abe
00000140: baa3 9cbd 2f88 1abe 07b7 62bd ce9a 5cbd
00000150: 9f9c 12be 4bc7 613b 76ad 10bc 92d4 04be
00000160: ee30 50bd 2f79 3abe 84d8 79bd da1c a23a
00000170: 8e52 7cbe c5af 74be 6943 29be 516e 3bbe
00000180: a0e5 f1bd 1aa2 50bd c736 39be 3820 43be
00000190: 4541 84bd eb36 4cbe 9426 73bc a1fa 0dbe
000001a0: 794a 1abb 7b8f 49be 411d 30be 5ea6 1dbe
000001b0: 994b debd 722c b43d 5c94 f7bd ff42 a7bd
000001c0: e147 bbbd a6be ffbd 23a6 bdbc 57e8 85be
000001d0: ab1c ba3b d57f 43be 23c1 d7be 09d9 e2bd
000001e0: bca8 8fbe 34ff c7bd 0f89 57be c1ba 01be
000001f0: ded9 34be 38e2 07bd ef6e 8ebe 430c 6ebd
00000200: 12ac 4a3e 7e77 f8bd 2577 133e a2fb c0bd
00000210: 31bf cc3d a6e1 c4bd ac5a 46bd ee3a f23d
00000220: 537e b13d cc95 60be 3d7f f0bd 46b6 793c
00000230: 1e09 db3d 0b79 263e 2a32 b0bc 70e1 22be
00000240: 70e5 98be 4eab 423e 3cbd 6c3d f887 bdbd
00000250: 19a0 c33d f985 8ebd 3113 153e ad7f b93d
00000260: d9db 1f3e ee68 65bc 504d c03d 77e1 09be
00000270: 331e 7d3e 1aef f3bd c019 09be 2b25 7a3e
00000280: a86d 83bc 8b79 063d f750 e83d b8f2 633e
00000290: 515b 35be c412 bebc 0f22 013e 52e5 d33c
000002a0: c6db fabd e5bf 153c 5959 03be 4311 41be
000002b0: da13 473e c1ca 88bd 42d0 e8bc 2f4f dcbb
000002c0: 00f0 82be 6a27 edbd ef14 a43d eb22 fcbd
000002d0: f6ca 893d bd5a 403e 8745 72be 7ed0 90bc
000002e0: b0db 14be 76a1 1ebd c8d9 8b3d 001e 313e
000002f0: 1319 0e3e e8e2 9cbb 2352 c03c 9a86 5fbe

graph_rnn.bias_hh_l0 f4 [192]
-0.11057989 -0.123597845 0.012910326 -0.07474611 0.31383893 0.100000545 0.031244973 -0.042208534
0.124240935 -0.099655844 -0.07166921 0.07011202 -0.09083762 0.04891532 -0.03484766 -0.14802946
0.09422101 -0.024618674 -0.024196379 -0.052428417 0.06320095 -0.020687781 0.07273868 -0.054908868
-0.05132785 0.08327392 0.05455625 0.00063879695 -0.008418636 -0.15218642 -0.13113843 -0.0013212158
-0.032241818 -0.04862239 0.046566535 -0.04406372 0.15239593 0.15194151 0.31235898 0.051986124
-0.05448964 0.106177814 -0.043159153 -0.23803245 -0.0063947034 0.08534486 -0.054491196 -0.071976915
0.24640693 0.17173189 -0.07630663 -0.120260805 -0.16983649 -0.11523139 -0.29037327 0.055253457
-0.17570432 0.04581202 -0.05822727 0.17218308 -0.06747574 -0.22877562 -0.05559767 0.2458376
0.054553717 -0.14772756 -0.246542 -0.09487038 -0.16637415 -0.094151914 -0.047355387 -0.13833095
-0.051505312 -0.2317746 -0.24471278 -0.27768362 -0.04336366 -0.028117793 -0.054754578 -0.12229067
-0.051717643 -0.22571221 -0.08626725 -0.18732953 -0.1504745 0.030773299 -0.14675441 -0.13231142
-0.15304498 -0.0840025 0.0161721 -0.056404468 -0.062326018 -0.1835934 -0.14182499 -0.22859307
-0.18417183 -0.059156213 -0.42387882 -0.08354844 0.005424635 -0.03232026 -0.037825916 0.0021877482
-0.01505779 -0.08118898 -0.11804264 -0.37054986 -0.18782113 -0.049062584 -0.055197973 -0.114112526
-0.13427843 0.0289627 -0.095490664 -0.3324709 0.047128122 -0.20145425 -0.44340497 -0.089669675
-0.3077953 0.0028478533 -0.09976406 -0.08743837 -0.09821662 -0.0110780075 -0.29677466 -0.16675454
0.055285174 -0.29540715 0.13330126 -0.13989247 0.22099768 -0.043566797 0.051030025 0.02325857
0.03145808 -0.17932926 -0.29388407 -0.08509135 -0.0032145835 0.20445022 -0.17651309 -0.039975755
-0.23450437 0.19522056 0.06778153 -0.1273059 0.24829279 0.21704726 -0.0048438977 0.06752649
0.08136043 0.012042829 0.017054977 -0.08417819 -0.014036946 -0.12656954 0.10632449 0.22441465
0.04942969 -0.109970294 0.13935633 0.13566251 -0.010650633 0.06564434 0.13239343 -0.14106831
-0.09524152 0.010929482 -0.13782604 -0.21906452 0.2152 -0.1514882 -0.04138488 0.18306527
-0.09165947 0.059675634 0.19394298 0.067140676 -0.12103159 0.21319713 -0.14597057 0.05970698
-0.08206889 0.014368773 0.06790163 0.25884974 0.062718384 -0.027662314 0.18337518 -0.26026222
00000000: b677 e2bd de20 fdbd d585 533c 7d14 99bd
00000010: 7faf a03e 16cd cc3d 75f5 ff3c dbe2 2cbd
00000020: 0872 fe3d 5d18 ccbd 4fc7 92bd e496 8f3d
00000030: 1309 babd 6e5b 483d 6cbc 0ebd 0995 17be
00000040: f2f6 c03d 1aad c9bc 7c37 c6bc 2ebf 56bd
00000050: 806f 813d 6c79 a9bc 04f8 943d 1fe8 60bd
00000060: 273d 52bd 848b aa3d 6076 5f3d f074 273a
00000070: 52ee 09bc c2d6 1bbe 2749 06be a52c adba
00000080: ff0f 04bd 4528 47bd 8dbc 3e3d 297c 34bd
00000090: ae0d 1c3e 8e96 1b3e 84ed 9f3e 67ef 543d
000000a0: 8730 5fbd c173 d93d a7c7 30bd c7be 73be
000000b0: a98a d1bb 49c9 ae3d 2932 5fbd a268 93bd
000000c0: 1952 7c3e 7cda 2f3e a746 9cbd 4c4b f6bd
000000d0: 9ee9 2dbe 6ffe ebbd ceab 94be 7351 623d
000000e0: d5eb 33be 62a5 3b3d b87f 6ebd c350 303e
000000f0: b930 8abd 2844 6abe 62ba 63bd dabc 7b3e
00000100: b873 5f3d e545 17be 8275 7cbe 674b c2bd
00000110: fc5d 2abe b8d2 c0bd b9f7 41bd a1a6 0dbe
00000120: 3cf7 52bd 5256 6dbe fd95 7abe 8c2c 8ebe
00000130: 189e 31bd 4957 e6bc 5646 60bd 8873 fabd
00000140: e1d5 53bd 1a21 67be e2ac b0bd 50d3 3fbe
00000150: fd15 1abe 4918 fc3c ca46 16be a57c 07be
00000160: d3b7 1cbe 8109 acbd 5a7b 843c 5f08 67bd
00000170: 9149 7fbd e9ff 3bbe 923a 11be 4d14 6abe
00000180: 8a97 3cbe c94d 72bd a506 d9be 721b abbd
00000190: 23c1 b13b 4062 04bd 59ef 1abd 5360 0f3b
000001a0: f3b4 76bc 6846 a6bd 57c0 f1bd b6b8 bdbe
000001b0: 2f54 40be d9f5 48bd 4517 62bd d4b3 e9bd
000001c0: 4980 09be 2f43 ed3c 9c90 c3bd a039 aabe
000001d0: 6b09 413d 064a 4ebe fa05 e3be bca4 b7bd
000001e0: 5897 9dbe 0da3 3a3b 1951 ccbd e312 b3bd
000001f0: cc25 c9bd 8880 35bc d9f2 97be b4c1 2abe
00000200: b572 623d 9b3f 97be 2080 083e f93f 0fbe
00000210: 374d 623e 1973 32bd dc04 513d c288 be3c
00000220: 30da 003d 17a2 37be f977 96be 6044 aebd
00000230: c3ab 52bb 665b 513e d9bf 34be 9ebd 23bd
00000240: ea21 70be e6e7 473e 0bd1 8a3d 7a5c 02be
00000250: 7740 7e3e a341 5e3e 8fb9 9ebb 544b 8a3d
00000260: 4ca0 a63d 494f 453c e1b6 8b3c 9d65 acbd
00000270: 38fb 65bc 729b 01be a7c0 d93d f4cc 653e
00000280: c976 4a3d 1b38 e1bd 6db3 0e3e 1deb 0a3e
00000290: fe7f 2ebc 8a70 863d 2592 073e 3674 10be
000002a0: fc0d c3bd 9211 333c 4522 0dbe 7352 60be
000002b0: 645d 5c3e b91f 1bbe 3183 29bd 7675 3b3e
000002c0: f6b7 bbbd 706e 743d fd98 463e 0d81 893d
000002d0: 69df f7bd 5950 5a3e 4f79 15be 4e8f 743d
000002e0: bc13 a8bd 016b 6b3c 0310 8b3d f487 843e
000002f0: 7f72 803d 149c e2bc b4c6 3b3e 1741 85be

graph_rnn.weight_ih_l1 f4 [192, 64]
0.058592338 0.07696158 -0.3712766 -0.2365284 -0.0066807726 -0.02914447 0.11743124 -0.08313852
-0.0673273 0.2899885 -0.014935381 -0.10608492 -0.465976 -0.18242584 0.08704248 -0.033459477
0.08061862 0.07181962 0.20120987 -0.26118755 -0.15064485 -0.21828867 -0.11035157 -0.06276744
0.26206455 -0.18231809 -0.014613979 -0.022099968 0.14938945 0.20366599 -0.027188819 0.24554275
-0.07918699 0.29350534 -0.1513581 -0.22651075 -0.08702573 -0.25263262 -0.21042264 0.20635107
-0.1694278 -0.1256577 0.115234636 0.10726097 -0.04957261 -0.13916735 -0.10793315 0.016942447
0.08998039 -0.14729412 0.25714508 -0.0646231 -0.20222107 -0.16232277 -0.2393862 -0.0705732
-0.014623119 -0.059941072 0.14927438 0.16085818 0.14050913 0.00870507 -0.14153087 -0.06579392
0.018889474 -0.31758198 -0.18259339 -0.052253015 -0.28861493 0.15608598 0.24144447 -0.18906285
0.24154213 -0.14039028 0.07429183 0.3767256 -0.25197506 -0.19228575 0.2080677 0.29841134
0.34817883 0.20764168 0.071769916 -0.2641426 -0.08693924 -0.2051742 -0.015245494 -0.087444365
-0.16591425 -0.054050297 -0.4648086 0.15053828 0.30680418 0.020606505 -0.30950826 0.43993303
-0.0027334788 -0.19795945 -0.058924384 -0.17347969 -0.23303436 -0.0738933 0.006586109 0.01691951
0.083002016 -0.69469154 0.48440203 -0.17442344 -0.22115974 0.08423317 -0.28255707 0.37065008
0.35515672 -0.24878334 0.09793888 -0.069134556 -0.19326556 -0.08070092 -0.39472836 0.19793224
0.042671107 -0.027453925 0.5320478 -0.10611317 0.473024 -0.13680573 0.16178316 0.17024407
0.19786477 0.94504404 -0.6980637 0.3543079 0.27896872 0.11657681 0.25242913 0.026609942
0.26164877 -0.15389296 0.07749476 -0.10233451 0.06605898 -0.4870089 -0.11411925 -0.12803881
0.10648788 -0.22150463 0.13622543 0.120238125 0.022690253 -0.23733738 -0.029892229 -0.25768426
-0.13708666 -0.26967415 -0.41652122 0.26350266 0.13530028 -0.639747 -0.21949776 0.0026850142
0.09039912 0.118625484 -0.2841386 -0.07124913 0.087514155 0.023119306 0.113218576 0.14933811
0.14915359 0.36540017 0.052078765 -0.27045506 -0.4767794 0.07006679 0.0131670935 -0.4400143
0.46214297 0.0012614002 -0.08481051 0.22826365 0.073358804 0.02979116 0.014007759 0.4597295
0.12595621 0.53783506 -0.34541908 -0.07272226 -0.2992678 0.8088022 -0.14496225 0.120044984
0.04811303 0.41680762 -0.30338815 -0.06994149 0.23402649 -0.15284708 0.15728919 0.13657202
0.10502093 -0.33545408 -0.32191655 0.008806408 -0.09814408 0.13205686 0.43173525 -0.10557022
-0.1385946 0.33663672 0.12959366 -0.07562149 0.5416742 0.054277133 -0.021022199 -0.086212754
0.014210371 -0.0025813095 0.030861571 0.16264445 -0.07072789 -0.31846717 0.12069004 -0.08079352
-0.13989402 -0.094797134 0.21642184 0.17317295 -0.10760387 0.36590245 0.18159956 0.10082359
0.18437435 0.58186936 -0.1697547 -0.09564516 0.07434638 0.04898072 0.06448339 -0.2047268
0.060326703 0.1504869 0.12868387 -0.07070245 0.3384206 0.13973169 0.41897088 0.2696957
-0.088132165 -0.017161986 -0.06917111 0.015981968 -0.28433517 -0.061874803 -0.20010781 -0.04547568
00000000: 85fe 6f3d 089e 9d3d f717 bebe 8034 72be
00000010: 62ea dabb 62c0 eebc ca7f f03d 8744 aabd
00000020: e5e2 89bd 5f79 943e 87b3 74bc 0d43 d9bd
00000030: 6894 eebe d7cd 3abe 5443 b23d ce0c 09bd
00000040: 601b a53d 2a16 933d f609 4e3e 60ba 85be
00000050: a542 1abe 1187 5fbe 0100 e2bd 378c 80bd
00000060: 532d 863e 98b1 3abe 786f 6fbc fe0a b5bc
00000070: 8cf9 183e d18d 503e 16bb debc 8f6f 7b3e
00000080: ca2c a2bd 5546 963e 9efd 1abe 6ff2 67be
00000090: 8c3a b2bd 1059 81be 0879 57be b24d 533e
000000a0: 7b7e 2dbe 69ac 00be 2300 ec3d a4ab db3d
000000b0: a60c 4bbd e381 0ebe 0e0c ddbd e3ca 8a3c
000000c0: a447 b83d 45d4 16be 85a8 833e 1e59 84bd
000000d0: 0a13 4fbe f137 26be a821 75be af88 90bd
000000e0: ce95 6fbc c584 75bd 62db 183e 02b8 243e
000000f0: a0e1 0f3e b69f 0e3c 78ed 10be f6be 86bd
00000100: 19be 9a3c 1b9a a2be c3f9 3abe 4207 56bd
00000110: 56c5 93be 01d5 1f3e 383d 773e b199 41be
00000120: d256 773e 78c2 0fbe 5126 983d 2ee2 c03e
00000130: e002 81be 8ee6 44be b30f 553e 5fc9 983e
00000140: 7f44 b23e 05a0 543e 1bfc 923d b33d 87be
00000150: 330d b2bd 2f19 52be 3dc8 79bc 0816 b3bd
00000160: 6de5 29be d863 5dbd 65fb edbe b526 1a3e
00000170: 7015 9d3e f9ce a83c de77 9ebe e73e e13e
00000180: 2a24 33bb e2b5 4abe b25a 71bd a9a4 31be
00000190: 8fa0 6ebe 5f55 97bd 49d0 d73b c99a 8a3c
000001a0: f6fc a93d 4ed7 31bf 8b03 f83e 0f9c 32be
000001b0: b377 62be 7182 ac3d 52ab 90be d9c5 bd3e
000001c0: 1ad7 b53e 0fc1 7ebe 2e94 c83d 6b96 8dbd
000001d0: 68e7 45be 8646 a5bd d619 cabe c0ae 4a3e
000001e0: e6c7 2e3d 0ee7 e0bc 4934 083f dd51 d9bd
000001f0: 3430 f23e cd16 0cbe 7caa 253e 7654 2e3e
00000200: 109d 4a3e 68ee 713f 4db4 32bf d867 b53e
00000210: fdd4 8e3e d3bf ee3d 643e 813e 18fd d93c
00000220: d4f6 853e 1e96 1dbe 93b5 9e3d c194 d1bd
00000230: ee49 873d 3b59 f9be 5ab7 e9bd 9b1c 03be
00000240: 5116 da3d 1cd2 62be ae7e 0b3e 683f f63d
00000250: e9e0 b93c 9208 73be 8ce0 f4bc 31ef 83be
00000260: 7260 0cbe bb12 8abe 4542 d5be d2e9 863e
00000270: 288c 0a3e 76c6 23bf 05c4 60be 10f7 2f3b
00000280: 2c23 b93d ebf1 f23d 9d7a 91be 10eb 91bd
00000290: 9f3a b33d b364 bd3c 24df e73d 17ec 183e
000002a0: b8bb 183e bb15 bb3e 8b50 553d 1679 8abe
000002b0: 6e1c f4be 2d7f 8f3d cbba 573c 8e49 e1be
000002c0: 019e ec3e 9155 a53a 22b1 adbd f2bd 693e
000002d0: 243d 963d 970c f43c cd80 653c aa61 eb3e
000002e0: aafa 003e 8faf 093f c5da b0be 69ef 94bd
000002f0: a139 99be a90d 4f3f fc70 14be 25da f53d
00000300: 2b12 453d cf67 d53e b155 9bbe 7c3d 8fbd
00000310: a4a4 6f3e f283 1cbe 6b10 213e 89d9 0b3e
00000320: 3715 d73d a3c0 abbe 3fd2 a4be c148 103c
00000330: c3ff c8bd ea39 073e 670c dd3e 3335 d8bd
00000340: beeb 0dbe a65b ac3e 33b4 043e 71df 9abd
00000350: 29ab 0a3f b351 5e3d bf36 acbc 5090 b0bd
00000360: 9ed2 683c 302b 29bb 68d1 fc3c 448c 263e
00000370: c9d9 90bd 210e a3be 572c f73d 1377 a5bd
00000380: 6140 0fbe 0025 c2bd b09d 5d3e 4054 313e
00000390: 6b5f dcbd 9157 bb3e 3cf5 393e 997c ce3d
000003a0: a1cc 3c3e 64f5 143f 2dd4 2dbe 9ce1 c3bd
000003b0: ea42 983d 02a0 483d de0f 843d e7a3 51be
000003c0: 2219 773d 3d19 1a3e b4c5 033e 72cc 90bd
000003d0: 7745 ad3e d315 0f3e 5a83 d63e 8e15 8a3e
000003e0: a37e b4bd 4b97 8cbc 95a9 8dbd 9eec 823c
000003f0: 6194 91be 6f70 7dbd 10e9 4cbe b544 3abd

graph_rnn.weight_hh_l1 f4 [192, 64]
0.11581442 -0.023128754 -0.13025834 -0.023187093 0.16362998 -0.12188814 0.12874395 -0.22073966
-0.15036878 0.07128876 0.11633657 -0.084003136 -0.1762824 -0.033729922 -0.104609735 -0.14987302
-0.117193766 -0.13220747 -0.121359274 -0.16707033 -0.08767509 -0.021037016 0.19131316 0.04434711
0.2967093 0.062381126 -0.040782418 0.20435356 0.03991375 -0.19136977 0.1191645 0.13999696
-0.21975693 0.11682627 0.046299983 0.06785931 -0.6162326 -0.15351102 -0.05375386 0.10247414
0.04759344 -0.32763037 0.34434703 -0.22355156 -0.20306288 0.09104463 0.016868146 -0.027770935
0.20482175 0.07069776 -0.29172042 0.09041849 0.050607502 -0.07731021 -0.07267562 -0.022481715
-0.30363852 0.28609487 -0.005197505 0.2884034 -0.23433818 0.22848205 0.30552405 0.31553534
-0.49029893 -0.07599797 0.12097642 0.057898335 0.007191773 0.08917299 0.22445208 -0.00082133396
-0.102850914 -0.25915548 0.050350457 0.014258021 0.10981056 -0.115336426 0.10158208 0.0032986975
-0.12751791 -0.21836479 -0.13120246 -0.060889944 -0.0074685807 -0.32344094 0.30838245 0.09105863
0.034850303 -0.16571137 -0.18434453 -0.0577027 -0.0076084975 0.3930035 0.0657773 0.17973112
-0.13773905 0.038734347 -0.047005482 -0.056212503 0.42023292 0.13586481 -0.1521247 -0.13641198
0.2822112 0.5625445 0.24936996 -0.122509934 -0.18019542 0.07789824 -0.14084323 0.0067096073
-0.14157873 0.022690522 -0.08000109 0.026762733 -0.052224062 0.18031831 0.30270126 0.3956327
-0.013099521 0.34030098 0.05997207 0.47768655 0.0059657586 -0.0068947864 0.20425457 -0.108372614
0.09208031 -0.020266926 -0.01680691 0.27556857 -0.037932105 0.020834498 -0.044754453 0.15700948
-0.061047595 0.22423103 -0.37334967 0.24824555 0.25795177 -0.3263472 0.19866733 -0.09999025
0.29120922 0.109107405 0.10563419 0.08060095 -0.031142183 0.08696885 -0.35456243 -0.30334827
0.17045896 0.21738726 0.0007509135 0.034098987 0.05923795 0.10400397 0.23161422 0.119481534
0.07418878 -0.24381332 -0.06950113 0.11607015 0.35506177 0.0061038667 0.32807353 0.020604365
-0.25572258 -0.081509046 -0.37466168 -0.020866368 0.16539583 -0.1338447 0.1741624 -0.09453856
-0.45147294 -0.24073532 0.2660732 -0.29035974 -0.29340142 0.047469556 -0.2657559 -0.2953542
0.46613857 -0.15204594 0.13295744 -0.047942676 0.2330538 -0.11696416 -0.0478664 0.1874667
0.097395524 -0.020732082 0.13521734 -0.20765118 -0.16214882 -0.06609635 0.26392162 0.124758765
0.37115425 0.10625501 0.048992023 -0.104763135 -0.12221362 -0.074119285 -0.12663768 0.05885356
0.072613224 0.05088766 -0.13742745 -0.53013897 -0.16083719 -0.040468875 -0.14882672 -0.031308778
0.08313568 0.16350618 -0.30213568 -0.48458922 -0.15343754 -0.19021358 0.23161884 -0.17974956
-0.02800901 -0.04473391 0.16121706 -0.068222106 0.06883638 0.03184829 -0.088781476 0.01607569
-0.07885351 -0.2864726 0.05353425 0.31563276 0.35651726 -0.08003017 -0.10566609 -0.048782226
-0.13885354 0.080083646 -0.09480647 0.07995732 0.14512037 -0.14428636 0.07880175 -0.15334006
0.07682971 0.00806394 -0.65336126 0.02846556 0.12296355 -0.043958243 0.18505545 0.1692614
00000000: 1c30 ed3d 8378 bdbc 7162 05be dcf2 bdbc
00000010: 9e8e 273e 7da0 f9bd 74d5 033e 9409 62be
00000020: 46fa 19be d7ff 913d de41 ee3d d609 acbd
00000030: 6083 34be 6328 0abd a13d d6bd 5078 19be
00000040: 4903 f0bd 6561 07be 368b f8bd 7c14 2bbe
00000050: ff8e b3bd d255 acbc 99e7 433e 51a5 353d
00000060: 48ea 973e 5a83 7f3d 770b 27bd 0f42 513e
00000070: 9a7c 233d 70f6 43be 840c f43d 5d5b 0f3e
00000080: f607 61be 9d42 ef3d 0da5 3d3d d2f9 8a3d
00000090: 6bc1 1dbf fe31 1dbe 022d 5cbd f6dd d13d
000000a0: 57f1 423d 2bbf a7be 414e b03e b3ea 64be
000000b0: b7ef 4fbe 9b75 ba3d 112f 8a3c df7f e3bc
000000c0: cbbc 513e fdc9 903d 615c 95be 542d b93d
000000d0: d049 4f3d d154 9ebd f5d6 94bd 932b b8bc
000000e0: 8276 9bbe 077b 923e d54f aabb 9ca9 933e
000000f0: 59f6 6fbe 33f7 693e a66d 9c3e d98d a13e
00000100: 7608 fbbe d3a4 9bbd 7cc2 f73d ce26 6d3d
00000110: f7a8 eb3b 54a0 b63d c4d6 653e ca4e 57ba
00000120: 80a3 d2bd 07b0 84be 483c 4e3d 799a 693c
00000130: 5ce4 e03d 8135 ecbd 440a d03d f62e 583b
00000140: 0e94 02be 059b 5fbe f059 06be bc67 79bd
00000150: ffba f4bb 0d9a a5be 4ee4 9d3e f27c ba3d
00000160: 31bf 0e3d 3eb0 29be d0c4 3cbe ab59 6cbd
00000170: b450 f9bb c137 c93e 40b6 863d 6f0b 383e
00000180: 770b 0dbe e8a7 1e3d d288 40bd 153f 66bd
00000190: c528 d73e 2520 0b3e 94c6 1bbe 95af 0bbe
000001a0: fd7d 903e eb02 103f d75a 7f3e 7de6 fabd
000001b0: 2685 38be 1d89 9f3d 3539 10be 44dc db3b
000001c0: 04fa 10be 79e1 b93c 9dd7 a3bd 853d db3c
000001d0: e6e8 55bd 5da5 383e a9fb 9a3e 5f90 ca3e
000001e0: 609f 56bc ee3b ae3e 46a5 753d 5593 f43e
000001f0: 697c c33b a9ed e1bb 1c28 513e 76f2 ddbd
00000200: 9a94 bc3d d306 a6bc a5ae 89bc 5317 8d3e
00000210: b25e 1bbd 1cad aa3c 7250 37bd 18c7 203e
00000220: 0b0d 7abd d29c 653e b027 bfbe 1534 7e3e
00000230: 4112 843e fb16 a7be 736f 4b3e b0c7 ccbd
00000240: 6019 953e b473 df3d bd56 d83d 1c12 a53d
00000250: e41d ffbc b91c b23d 3589 b5be 7750 9bbe
00000260: cb8c 2e3e c49a 5e3e f4d8 443a 61ab 0b3d
00000270: 7ea3 723d 0900 d53d 472c 6d3e bcb2 f43d
00000280: 49f0 973d 33aa 79be 9c56 8ebd 30b6 ed3d
00000290: a8ca b53e f202 c83b 41f9 a73e 7cca a83c
000002a0: 12ee 82be 37ee a6bd a8d3 bfbe f2ef aabc
000002b0: 865d 293e 960e 09be a157 323e 6f9d c1bd
000002c0: 7627 e7be 5283 76be bf3a 883e 08aa 94be
000002d0: b638 96be 706f 423d 2811 88be aa38 97be
000002e0: b7a9 ee3e eeb1 1bbe ff25 083e 8a5f 44bd
000002f0: a8a5 6e3e e88a efbd 8f0f 44bd 45f7 3f3e
00000300: 4e77 c73d 54d6 a9bc 6a76 0a3e 83a2 54be
00000310: 570a 26be 865d 87bd bc20 873e 8681 ff3d
00000320: ee07 be3e 3a9c d93d dcab 483d 0e8e d6bd
00000330: 224b fabd dacb 97bd 4fad 01be 6e10 713d
00000340: 3eb6 943d 946f 503d c8b9 0cbe 30b7 07bf
00000350: 81b2 24be b1c2 25bd 0866 18be a23d 00bd
00000360: 0a43 aa3d 2a6e 273e 87b1 9abe 141c f8be
00000370: bb1e 1dbe 59c7 42be 7d2d 6d3e 4510 38be
00000380: 2773 e5bc e83a 37bd 1616 253e 08b8 8bbd
00000390: 17fa 8c3d 5a73 023d 10d3 b5bd 2ab1 833c
000003a0: f37d a1bd 89ac 92be bb46 5b3d 9e9a a13e
000003b0: 6e89 b63e dce6 a3bd 7767 d8bd dfcf 47bd
000003c0: 9f2f 0ebe e502 a43d e529 c2bd aac0 a33d
000003d0: 6f9a 143e cebf 13be d062 a13d 2d05 1dbe
000003e0: e558 9d3d 9e1e 043c af42 27bf 9b30 e93c
000003f0: 50d4 fb3d 8f0d 34bd 2d7f 3d3e dc52 2d3e

graph_rnn.bias_ih_l1 f4 [192]
0.095291354 0.030092698 -0.10495217 -0.059636142 -0.2676595 0.01008754 0.053922955 -0.16808988
0.28789455 -0.12446998 -0.13661335 -0.24230506 -0.02423389 0.18335931 -0.19546823 0.02127575
-0.112091355 -0.019106895 -0.1583432 0.115784034 0.040973835 -0.09630764 -0.014807691 -0.051798336
-0.004474343 -0.21042949 0.044400584 0.14336026 0.09917068 0.11940368 0.3546011 0.257362
-0.17642339 0.09107384 0.28760743 -0.04026861 0.028650684 -0.25533965 0.16813003 0.11916412
-0.019865347 0.09720435 0.08553786 0.1924624 -0.010196996 -0.10044313 -0.059436634 0.08134695
-0.107835956 0.052903567 0.084453024 0.23036924 0.17865503 0.08019865 -0.19685851 0.3137901
0.0770127 0.061635178 -0.1158697 0.024194295 -0.1042386 0.07418444 -0.035584882 -0.11236654
-0.39536947 -0.3052175 -0.12001709 -0.0093821455 -0.20760874 -0.27917662 0.06303499 -0.12722705
-0.11033431 -0.051478695 0.1346651 -0.07058865 0.077868 -0.15180618 -0.10718392 -0.16552399
-0.12591577 -0.09410016 -0.35255697 -0.09113755 -0.23549592 -0.34272453 -0.083732046 -0.17474449
-0.16245568 -0.29259354 -0.12394548 -0.11364623 -0.22711048 -0.2055581 -0.3275355 -0.26255286
-0.2735531 -0.38437715 -0.16417295 -0.08576496 -0.22751598 -0.25687847 0.103892565 -0.36561653
-0.027569454 -0.002552519 -0.22433506 -0.2628807 -0.11775079 0.111595035 0.02499888 0.0057490543
-0.09472942 -0.046465397 -0.17103823 -0.099506214 0.0039722095 -0.14996395 0.19469623 0.07372045
-0.22386718 -0.10246533 0.071980484 -0.21876071 -0.26508966 0.021720646 -0.518839 0.07594882
0.19535114 -0.25665638 -0.1904093 -0.12647365 0.17401965 0.11167594 -0.16401389 -0.067816906
0.26426005 -0.1280775 -0.23892663 -0.05875128 0.011034213 0.18908122 -0.10542006 0.2751919
-0.026728567 -0.06107657 0.13616928 0.011852992 0.04535195 -0.1006143 -0.010724021 0.05345645
-0.25847784 -0.24805793 0.08845626 -0.2572554 -0.09911221 0.1685044 -0.14713973 -0.41709968
-0.106187016 0.22058551 -0.24112089 -0.06798564 0.093268365 -0.16611576 -0.023121867 0.16486946
0.10843627 0.09770404 0.22297248 0.07986496 0.1854144 0.020827888 -0.12904927 0.122155726
0.029864077 0.055925544 -0.186358 -0.004461126 0.15179716 0.12364821 0.018280393 0.18843654
-0.1186014 0.042082876 -0.1254291 0.09275291 0.045248006 0.1561974 0.037003208 -0.20568678
00000000: 1d28 c33d f684 f63c 2af1 d6bd 0745 74bd
00000010: aa0a 89be 3646 253c 51de 5c3d c11f 2cbe
00000020: ea66 933e 1eea febd 5fe4 0bbe d11e 78be
00000030: 2786 c6bc 8bc2 3b3e d328 48be 7b4a ae3c
00000040: 2790 e5bd 1086 9cbc b824 22be 2e20 ed3d
00000050: 2ed4 273d f13c c5bd f59b 72bc 7e2a 54bd
00000060: 829d 92bb d47a 57be 63dd 353d 08cd 123e
00000070: ff19 cb3d eb89 f43d 468e b53e f4c4 833e
00000080: 55a8 34be ec84 ba3d 4841 933e b3f0 24bd
00000090: d7b4 ea3c e1bb 82be 472a 2c3e 510c f43d
000000a0: a7bc a2bc 1313 c73d 792e af3d dd14 453e
000000b0: 4d11 27bc 21b5 cdbd d473 73bd 3b99 a63d
000000c0: 19d9 dcbd 69b1 583d b5f5 ac3d eae5 6b3e
000000d0: 58f1 363e 313f a43d 4795 49be 19a9 a03e
000000e0: d6b8 9d3d 2b75 7c3d 184d edbd 1d33 c63c
000000f0: 0c7b d5bd 03ee 973d 74c1 11bd 6e20 e6bd
00000100: de6d cabe 7845 9cbe 85cb f5bd 92b7 19bc
00000110: 6397 54be 3df0 8ebe 7d18 813d cf47 02be
00000120: f4f6 e1bd 53db 52bd a6e5 093e c890 90bd
00000130: 4279 9f3d 1473 1bbe 3e83 dbbd 1f7f 29be
00000140: 10f0 00be 96b7 c0bd 5982 b4be 53a6 babd
00000150: d825 71be 9779 afbe b57b abbd 38f0 32be
00000160: c85a 26be d2ce 95be 21d7 fdbd 5bbf e8bd
00000170: a68f 68be d37d 52be bcb2 a7be 546d 86be
00000180: 270f 8cbe 15cd c4be f41c 28be 8aa5 afbd
00000190: f3f9 68be 9385 83be a0c5 d43d 1732 bbbe
000001a0: 56d9 e1bc 2a48 27bb 17b8 65be 4d98 86be
000001b0: 5427 f1bd f08b e43d 74ca cc3c 9062 bc3b
000001c0: 8001 c2bd 8052 3ebd a524 2fbe eac9 cbbd
000001d0: 4f29 823b 2690 19be 735e 473e bffa 963d
000001e0: 703d 65be 58d9 d1bd 816a 933d cf02 60be
000001f0: d5b9 87be 7fef b13c a2d2 04bf 0e8b 9b3d
00000200: 210a 483e 7768 83be a8fa 42be 4f82 01be
00000210: 3532 323e 5bb6 e43d 42f3 27be 97e3 8abd
00000220: 184d 873e c026 03be 2fa9 74be 2fa5 70bd
00000230: d8c8 343c 829e 413e 79e6 d7bd f4e5 8c3e
00000240: def5 dabc 6d2b 7abd f66f 0b3e 0d33 423c
00000250: f7c2 393d df0e cebd ceb3 2fbc 27f5 5a3d
00000260: 3557 84be e602 7ebe 8e28 b53d fbb6 83be
00000270: 58fb cabd 6b8c 2c3e ccab 16be 178e d5be
00000280: 9478 d9bd 2be1 613e 65e8 76be 0e3c 8bbd
00000290: 7c03 bf3d 401a 2abe 126a bdbc 8ad3 283e
000002a0: d613 de3d 0e19 c83d e652 643e 3d90 a33d
000002b0: 46dd 3d3e 3f9f aa3c 7e25 04be c82c fa3d
000002c0: 82a5 f43c 2f12 653d a2d4 3ebe a32e 92bb
000002d0: b770 1b3e 463b fd3d c3c0 953c 82f5 403e
000002e0: 4ae5 f2bd 185f 2c3d 7c70 00be 3df5 bd3d
000002f0: f955 393d 36f2 1f3e ad90 173d 8e9f 52be
