graphrnn_v2/experiments/reproduction/ego_small/ego_small/model_at_2200.pt (torch, 420155 bytes, 43 tensors)

adj_embedding.0.weight f4 [32, 15]
-0.027553014 -0.08457563 -0.055774458 -0.08140819 0.60299104 -0.14392859 -0.3458755 0.40771002
0.17918749 0.21344051 0.088446885 0.076177366 -0.07003975 -0.43764862 -0.1910084 -0.24522431
0.40780103 0.14240316 -0.5080001 0.3614202 0.5265343 -0.08652953 0.4035778 0.47070104
0.0008546298 0.2171582 -0.2996761 -0.36805284 0.9469885 -0.2804013 0.61770856 0.18374518
-0.38505152 0.4610178 0.21273349 -0.7506352 -0.43105173 -0.3269924 -0.5975507 -0.36771396
-0.2129998 -0.327379 -0.24027328 -0.5084351 -0.7344404 0.3024414 -0.115459986 0.5943821
0.5767508 -0.060658682 0.14679338 -0.07858592 -0.0807448 -0.12116468 -0.24835984 0.06641861
-0.24950609 -0.18993594 -0.6150766 -0.16894558 0.19906339 0.2485333 0.34687135 0.12162755
0.23500316 -0.119031824 0.14647013 0.017270926 0.10970032 0.14917636 0.078245446 0.14524327
0.41099215 -0.19877534 -0.0095960535 -0.18921201 0.76482743 0.042924017 -0.5088446 -0.32556805
-0.24610107 -0.26194304 0.3807733 0.29014322 0.23161066 0.2901993 -0.14056766 0.1298167
1.2272527 -0.06964289 0.64018524 0.24315087 0.007384758 0.030428672 0.1797599 0.36283377
0.020508 0.530801 -0.28991953 -0.33845556 -0.044308335 -0.07471446 0.03527867 -0.5394075
-0.0986225 0.23726022 -0.2489286 -0.02121193 0.22353196 0.5181702 0.4490317 -0.15626612
-0.2629572 -0.25330064 -0.12802772 -0.032865327 0.65648687 0.18171059 -0.5680364 0.17235914
-0.10913594 0.34004563 -0.21732934 -0.22123533 0.012678242 -0.22041103 -0.08829313 -0.054995652
-0.021081707 0.15580074 -0.058845215 -0.008934263 0.17968877 0.07630457 -0.16885431 0.10971736
-0.33363247 -0.38570186 0.24707247 -0.048190933 0.15744029 0.65563005 0.027555523 -0.12038157
0.40677795 0.23524503 -0.45150274 -0.5229171 0.4491404 -0.4214853 -0.018111218 -0.53298825
0.32552823 0.6515934 -0.116418876 -0.09709778 -0.38215885 0.20548844 -0.24500571 -0.08751608
-0.12975284 0.12630895 1.0884837 -0.47713426 -0.0775681 -0.039004143 0.10556721 0.023912348
-0.42560858 0.21256688 0.39774823 0.19834638 0.17368896 -0.32322443 -0.230966 0.10878962
0.7224176 0.6213392 -0.13277613 0.094010904 -0.036924504 0.010058924 -0.17521948 0.3971552
-0.02584563 -0.27989393 -0.11236374 -0.04901129 0.09047316 0.13727272 0.8422332 -0.83101004
-0.7449165 -0.52212566 0.99447304 0.021575227 0.31887347 -0.1823648 -0.10260375 0.27456936
0.21689057 -0.24172488 -0.051727235 -0.24929799 -0.3903597 -0.046271734 0.845034 -0.04176086
-0.1587159 0.31064227 0.6172758 0.079538554 -0.21350197 0.040877875 -0.3268945 -0.029842852
-0.5659876 -0.6996665 -0.6530577 -0.2535591 -0.577062 -0.17480992 -0.678303 -0.41523525
-0.8695931 0.4622387 0.20956205 -0.08983055 -0.05434075 0.13577561 0.0191131 -0.2132616
0.06980953 -0.22765444 -0.29255015 -0.1863706 0.47665408 0.5311415 -0.28718194 0.18570022
-0.16639918 -0.14346592 -0.12748498 0.007307135 -0.11036851 0.07599141 0.09768396 0.1594232
-0.13658147 0.10596218 -0.15602332 0.764247 0.29841748 0.29691994 0.37681618 0.49375364
00000000: dcb6 e1bc fd35 adbd c273 64bd 56b9 a6bd
00000010: 9f5d 1a3f 0462 13be 9816 b1be 5ebf d03e
00000020: ed7c 373e 2690 5a3e a423 b53d e102 9c3d
00000030: 0071 8fbd 7b13 e0be b597 43be 151c 7bbe
00000040: 4ccb d03e 22d2 113e 4b0c 02bf 120c b93e
00000050: f4ca 063f 6536 b1bd c0a1 ce3e baff f03e
00000060: 3c09 603a b85e 5e3e 256f 99be 6c71 bcbe
00000070: d76d 723f c290 8fbe 2622 1e3f b227 3c3e
00000080: 7925 c5be 860a ec3e cfd6 593e a129 40bf
00000090: d0b2 dcbe 8c6b a7be 15f9 18bf 0145 bcbe
000000a0: 9f1c 5abe 389e a7be 330a 76be cd28 02bf
000000b0: 4904 3cbf 99d9 9a3e 4976 ecbd 6d29 183f
000000c0: f1a5 133f 3d75 78bd 0151 163e a8f1 a0bd
000000d0: 885d a5bd 3025 f8bd 0b52 7ebe 7b06 883d
000000e0: 867e 7fbe 917e 42be a975 1dbf 1200 2dbe
000000f0: 46d7 4b3e 837f 7e3e 1f99 b13e dd17 f93d
00000100: aba4 703e f5c6 f3bd 44fc 153e c27b 8d3c
00000110: 90aa e03d b0c1 183e 263f a03d a7ba 143e
00000120: 906d d23e c38b 4bbe c438 1dbc cbc0 41be
00000130: bbcb 433f 18d1 2f3d a443 02bf dbb0 a6be
00000140: eb01 7cbe 661d 86be b8f4 c23e a78d 943e
00000150: 582b 6d3e 0195 943e f8f0 0fbe abee 043e
00000160: 9e16 9d3f eea0 8ebd 2ee3 233f 8bfc 783e
00000170: d7fb f13b 8d45 f93c fb12 383e 59c5 b93e
00000180: 6500 a83c 93e2 073f 5570 94be 0c4a adbe
00000190: a87c 35bd e503 99bd 5e80 103d 9c16 0abf
000001a0: 98fa c9bd 58f4 723e 24e7 7ebe a4c4 adbc
000001b0: 90e5 643e cda6 043f 7ce7 e53e 3a04 20be
000001c0: 53a2 86be 9fb0 81be b319 03be cb9d 06bd
000001d0: 860f 283f 5712 3a3e d56a 11bf ea7e 303e
000001e0: aa82 dfbd 761a ae3e 958b 5ebe 848b 62be
000001f0: 67b8 4f3c 6eb3 61be 07d3 b4bd 1f43 61bd
00000200: 8bb3 acbc 3b8a 1f3e ae07 71bd 0461 12bc
00000210: 5500 383e 9245 9c3d 25e8 2cbe 7fb3 e03d
00000220: e0d1 aabe b77a c5be 9100 7d3e db63 45bd
00000230: 0738 213e 5fd7 273f 1fbc e13c 9d8a f6bd
00000240: 3345 d03e 13e4 703e 5e2b e7be e5dd 05bf
00000250: bbf5 e53e eccc d7be fa5d 94bc eb71 08bf
00000260: a3ab a63e d3ce 263f 056d eebd 33db c6bd
00000270: 53aa c3be 906b 523e c7e2 7abe a13b b3bd
00000280: eedd 04be 2257 013e 6f53 8b3f f14a f4be
00000290: 06dc 9ebd cfc2 1fbd 9f33 d83d d4e3 c33c
000002a0: 5ee9 d9be 22ab 593e a8a5 cb3e 501b 4b3e
000002b0: 85db 313e ac7d a5be 5a82 6cbe 18cd de3d
000002c0: 5cf0 383f 1610 1f3f 77f6 07be ca88 c03d
000002d0: 263e 17bd 2fce 243c bc6c 33be ed57 cb3e
000002e0: 37ba d3bc 424e 8fbe f61e e6bd 10c0 48bd
000002f0: fe49 b93d 3891 0c3e 989c 573f 13bd 54bf
00000300: d9b2 3ebf 07aa 05bf c995 7e3f 88be b03c
00000310: 6243 a33e d7bd 3abe ea21 d2bd 5b94 8c3e
00000320: 9018 5e3e ba86 77be f0df 53bd f947 7fbe
00000330: 3add c7be 6e87 3dbd 2654 583f 6f0d 2bbd
00000340: 6c86 22be 810c 9f3e c905 1e3f 1ce5 a23d
00000350: 43a0 5abe 8f6f 273d b75e a7be ff78 f4bc
00000360: 90e4 10bf 581d 33bf ca2e 27bf 80d2 81be
00000370: 56ba 13bf 5f01 33be 44a5 2dbf b799 d4be
00000380: a79d 5ebf 8daa ec3e 6f97 563e 14f9 b7bd
00000390: 6894 5ebd c308 0b3e 1393 9c3c 4061 5abe
000003a0: 4df8 8e3d 3f1e 69be 22c9 95be efd7 3ebe
000003b0: 010c f43e e4f8 073f 8309 93be 3328 3e3e
000003c0: 8c64 2abe bbe8 12be 6c8b 02be b170 ef3b
000003d0: e308 e2bd 62a1 9b3d 870e c83d d63f 233e
000003e0: 03dc 0bbe b302 d93d 94c4 1fbe b1a5 433f
000003f0: 2dca 983e e405 983e 0dee c03e 47cd fc3e

adj_embedding.0.bias f4 [32]
0.16728899 0.22836526 0.0335236 0.08401107 -0.41946077 0.26207703 -0.01947044 0.0087946
-0.14654054 0.026635008 0.21848644 0.4092481 0.017618058 0.123297304 0.1734195 0.08241699
0.41075808 0.04711977 -0.2972557 0.11956329 -0.118748575 0.39661267 0.013404885 0.113520235
0.13894548 0.03059354 0.0023828233 0.020947654 -0.03680032 0.17461145 0.09111879 -0.1530657
00000000: ce4d 2b3e 95d8 693e 0b50 093d ff0d ac3d
00000010: 90c3 d6be f62e 863e 7980 9fbc 3a17 103c
00000020: b90e 16be a931 da3c e9ba 5f3e f888 d13e
00000030: bf53 903c 4c83 fc3d e294 313e 3dca a83d
00000040: e24e d23e a900 413d e631 98be 99dd f43d
00000050: 7432 f3bd d110 cb3e 2aa0 5b3c 4c7d e83d
00000060: b947 0e3e 4e9f fa3c 2429 1c3b 6a9a ab3c
00000070: efbb 16bd 58cd 323e 7d9c ba3d 41bd 1cbe

graph_rnn.weight_ih_l0 f4 [192, 32]
-0.33040637 -0.36753175 0.48869938 0.023923166 -0.24265344 -0.16442321 -0.17460994 -0.21945529
0.08606884 0.0568055 0.3376048 -0.6029092 1.1230993 -0.29317597 -0.1635185 -0.3079419
-0.16388525 0.33051968 0.2459653 -0.082373366 0.12392662 0.161396 0.33333325 -0.46766412
0.122917 0.4812368 -0.30568767 0.46320784 0.29799473 0.4759389 -1.0087628 0.13048548
-0.3967578 -0.4200226 -0.18946739 0.15299496 -0.887583 -0.911469 -0.23095153 0.31282648
-0.10007077 -0.44869035 0.67186165 0.04044381 0.17977168 -0.35049033 0.019624429 -0.28721625
0.25316486 -0.05010912 -0.25023547 -0.47059506 -0.8211037 0.15476486 0.43777636 -0.11340624
0.22073379 0.1303097 0.5243703 -0.12468597 -0.07149899 0.3651949 0.5946323 -0.05313711
0.014623768 0.053744923 -0.026648084 -0.58247775 -0.19000216 0.22505577 -0.18925701 -0.068215676
0.06136982 -0.16806564 -0.3239483 -0.10045745 -0.075245835 0.093225084 -0.14029422 0.06531281
0.21069662 -0.0017541046 -0.682597 -0.0019782062 -0.04168381 -0.13081555 -0.32506981 0.100619234
-0.43319613 -0.36352852 -0.04209705 -0.33459374 0.009591362 -0.44405916 -0.24458371 -0.624541
0.018825842 -0.45456523 -0.18257082 0.26336953 0.21653175 -0.34110248 -0.10114922 -0.20948432
-0.13405323 -0.70725393 0.7451283 -0.14263988 0.4896854 -0.28940377 -0.15032011 -0.10368731
-0.09411934 0.20482828 0.6091819 -0.09456791 -0.121464916 -0.030676484 0.1719445 -0.44873422
0.3042097 0.4679369 0.08748082 -0.27529886 -0.1565703 0.48768565 -0.29534099 0.29945135
0.11114753 0.28265613 -0.016780999 0.007036759 -0.17783527 0.57143164 0.17100687 -0.2935454
0.06766053 -0.059765607 0.078348316 0.27129063 0.004950254 0.10354419 0.10279971 0.24196677
0.13293889 -0.09107459 0.09841858 0.34070617 0.22714736 -0.19442433 0.15437478 -0.17698471
-0.45791748 0.01294039 -0.03642905 -0.38292402 0.677346 0.26481557 0.17439148 0.09453343
-0.7486499 0.014882608 -0.063671105 0.24183476 0.15011768 0.2965206 -0.066094734 -0.36275002
-0.058736052 0.04441023 -0.34610498 -0.16342838 -0.015924523 -0.05089581 -0.12586208 -0.03374502
-0.000245229 -0.14597426 0.18610245 0.090007395 0.073472224 -0.5098677 0.5256921 -0.40658385
-0.27013528 0.16249521 -0.07556721 -0.23207495 -0.48874357 0.28258255 -0.094657145 0.19199145
-0.3423599 0.19012192 -0.4399647 -0.18815215 -0.34044027 0.16609201 -0.23817563 -0.16457884
0.1275998 0.3124689 -0.63074845 0.17913538 -0.27812988 -0.09470788 -0.38227835 -0.10182702
0.14742091 -0.4356394 -0.39995766 -0.032138914 0.027306236 -0.4286074 0.20122911 -0.1466073
-0.36341673 -0.5787181 -0.04491293 -0.16757679 -0.013938013 0.13590504 -0.34413195 -0.3333335
-0.41779163 -0.39080775 0.050270926 0.23861513 0.105433576 -0.34117633 -0.29641694 -0.04929902
-0.102480434 -0.013478847 0.62314975 -0.3810516 0.8181871 -0.37523988 -0.14122117 -0.1709313
-0.20539156 0.20687461 0.122501336 -0.028954554 -0.096508734 0.078833416 0.370289 -0.3874211
0.119909905 0.24173011 0.08708159 0.20700535 0.49970093 0.5736936 -0.5111604 0.27260885
00000000: 062b a9be 1f2d bcbe ce36 fa3e 84fa c33c
00000010: 257a 78be 8f5e 28be f3cc 32be e3b8 60be
00000020: dc44 b03d e2ac 683d 89da ac3e 4258 1abf
00000030: b8c1 8f3f 291b 96be 6571 27be 90aa 9dbe
00000040: 89d1 27be e039 a93e 54de 7b3e 5eb3 a8bd
00000050: 3dcd fd3d fe44 253e a8aa aa3e ac71 efbe
00000060: e8bb fb3d ab64 f63e 1883 9cbe 9429 ed3e
00000070: c492 983e 43ae f33e 241f 81bf fc9d 053e
00000080: d723 cbbe 340d d7be bd03 42be b6aa 1c3e
00000090: a438 63bf 0856 69bf 8f7e 6cbe cb2a a03e
000000a0: e7f1 ccbd beba e5be 20ff 2b3f 69a8 253d
000000b0: 1116 383e 7873 b3be 69c3 a03c 020e 93be
000000c0: d39e 813e 383f 4dbd dd1e 80be d6f1 f0be
000000d0: da33 52bf ae7a 1e3e 3924 e03e 8841 e8bd
000000e0: 0a08 623e e86f 053e 223d 063f 5c5b ffbd
000000f0: 106e 92bd d3fa ba3e d339 183f 4ca6 59bd
00000100: 8798 6f3c a323 5c3d 154d dabc 431d 15bf
00000110: ed8f 42be 0575 663e 97cc 41be a9b4 8bbd
00000120: ec5e 7b3d 6619 2cbe 8ddc a5be a3bc cdbd
00000130: 7d1a 9abd cbec be3d 4aa9 0fbe b9c2 853d
00000140: dbc0 573e fce9 e5ba adbe 2ebf cba4 01bb
00000150: a5bc 2abd 83f4 05be 8d6f a6be 7511 ce3d
00000160: e2cb ddbe 6920 babe f56d 2cbd df4f abbe
00000170: 1725 1d3c b95b e3be 2774 7abe ebe1 1fbf
00000180: a738 9a3c c6bc e8be d8f3 3abe 5fd8 863e
00000190: 80ba 5d3e fca4 aebe 5227 cfbd 0f83 56be
000001a0: 4045 09be 980e 35bf bac0 3e3f 3010 12be
000001b0: 0bb8 fa3e bb2c 94be 84ed 19be 035a d4bd
000001c0: a4c1 c0bd 81be 513e 58f3 1b3f d2ac c1bd
000001d0: 99c2 f8bd 404d fbbc 3812 303e 7ec0 e5be
000001e0: 60c1 9b3e 6d95 ef3e 2529 b33d f9f3 8cbe
000001f0: f753 20be efb1 f93e ef36 97be b051 993e
00000200: 51a1 e33d 4eb8 903e 4e78 89bc 9d94 e63b
00000210: 731a 36be 5849 123f 6d1c 2f3e 954b 96be
00000220: 9b91 8a3d c8cc 74bd 1575 a03d 9be6 8a3e
00000230: be35 a23b fa0e d43d a888 d23d 23c6 773e
00000240: 2221 083e 5185 babd ae8f c93d 0a71 ae3e
00000250: 5199 683e 2c17 47be 6c14 1e3e 7b3b 35be
00000260: 2974 eabe ee03 543c a136 15bd 9e0e c4be
00000270: 8c66 2d3f e895 873e ae93 323e be9a c13d
00000280: 85a7 3fbf 2fd6 733c ff65 82bd 88a3 773e
00000290: 73b8 193e 8cd1 973e ad5c 87bd 5fba b9be
000002a0: 3795 70bd 80e7 353d ac34 b1be c559 27be
000002b0: 2574 82bc 2078 50bd fde1 00be 3838 0abd
000002c0: 1492 80b9 477a 15be a491 3e3e cc55 b83d
000002d0: 9b78 963d b186 02bf c293 063f c22b d0be
000002e0: 2c4f 8abe 2565 263e fbc2 9abd 0ea5 6dbe
000002f0: 993c fabe a9ae 903e 9bdb c1bd 6899 443e
00000300: cc49 afbe 52af 423e 0e43 e1be f5aa 40be
00000310: 304e aebe 0614 2a3e 50e4 73be 5b87 28be
00000320: 86a9 023e ecfb 9f3e bb78 21bf 446f 373e
00000330: 0a67 8ebe 34f6 c1bd fdb9 c3be af8a d0bd
00000340: 82f5 163e 210c dfbe 40c7 ccbe 18a4 03bd
00000350: 54b1 df3c 6e72 dbbe 010f 4e3e 3920 16be
00000360: c211 babe df26 14bf 9ff6 37bd 4099 2bbe
00000370: 445c 64bc b12a 0b3e 1032 b0be b0aa aabe
00000380: c9e8 d5be f417 c8be e3e8 4d3d 8657 743e
00000390: 8fed d73d aaae aebe f6c3 97be c5ed 49bd
000003a0: 43e1 d1bd 62d6 5cbc be86 1f3f 3219 c3be
000003b0: b674 513f 711f c0be 489c 10be 9d08 2fbe
000003c0: 2a52 52be f0d6 533e fbe1 fa3d 1a32 edbc
000003d0: 5fa6 c5bd 6a73 a13d 8596 bd3e 0f5c c6be
000003e0: 5393 f53d 1988 773e d557 b23d 36f9 533e
000003f0: cdd8 ff3e 95dd 123f 68db 02bf 6393 8b3e

graph_rnn.weight_hh_l0 f4 [192, 64]
-0.24461615 -0.09650322 -0.027518647 0.2477989 -0.021674398 0.011255514 0.11753247 -0.05036891
-0.073310405 0.06796517 -0.12154014 0.027874924 0.13585483 -0.1743122 -0.123698294 -0.057429407
-0.08738103 -0.05950966 0.1750648 -0.06401547 0.022890454 -0.10679281 0.012036119 -0.34119892
0.11385951 0.011076267 -0.25446528 -0.019239893 -0.043679845 0.21259803 -0.0076649287 -0.1324562
2.4567438e-05 -0.20350088 0.1138843 0.07165417 -0.19106244 -0.13667676 -0.0024839004 -0.18626285
0.029598473 -0.12442295 -0.019669818 0.11919028 -0.11334448 0.03665996 -0.048699375 0.11464566
0.0056264326 -0.15371066 0.0014184802 -0.12727289 -0.10893516 0.068176135 -0.044722687 -0.016193585
0.1402052 -0.22262639 0.2652098 -0.019865355 0.1640459 -0.06611681 -0.03224189 0.092930846
0.1495872 0.014320921 7.2133735e-05 -0.073709145 -0.018892935 -0.00024984553 -0.13353898 0.15217848
-0.1373798 0.1484943 -0.06325713 -0.010469849 0.10905113 -0.08832961 -0.20967686 -0.16506661
-0.16575988 -0.1837794 0.10757127 -0.13950112 0.012059956 -0.11385689 -0.091465004 -0.2184949
0.18696089 -0.10739942 0.0843613 -0.26504925 0.10289136 -0.17021662 0.020494025 0.013062555
0.09946219 0.010989096 0.040369637 -0.026504256 0.1130411 -0.061865907 0.058157403 -0.10059106
0.12486607 0.06754158 -0.05925138 -0.011462914 -0.19022416 0.001210497 -0.03754911 -0.04613218
-0.16477668 -0.054949068 -0.0057208114 0.12971115 0.060832642 -0.19406582 0.14643721 -0.05898634
0.062670104 -0.037517726 0.0009479778 0.0037567231 -0.19038892 0.17356527 -0.11469648 0.14556459
0.00852563 0.062522925 0.28954408 0.1186318 0.121301666 -0.055654455 -0.14792314 -0.18534058
-0.21328573 -0.18737645 -0.08789271 -0.0015823981 -0.008925897 0.07620858 0.17210089 0.026014926
-0.03860663 0.005292899 0.055934597 -0.12964441 0.16497095 0.0037070396 0.16326988 -0.25096697
-0.1493937 -0.06349922 -0.047694765 -0.094798036 0.12125878 0.07302316 -0.058744714 0.22281842
0.038161844 -0.013559678 0.06156478 0.3110052 -0.33242527 0.20795394 0.16645063 0.011568066
0.070213094 0.025553616 -0.15421362 0.08184958 0.31021556 -0.13732922 0.10287976 0.13664587
-0.0023443894 -0.11778284 -0.11693791 -0.056314357 -0.11345084 0.112630464 -0.20369956 -0.06053718
0.06355012 0.12332286 -0.048866596 0.23808442 0.06485597 -0.37996754 0.074087135 -0.048087012
0.07476956 -0.022791913 0.12181751 -0.08756248 -0.07346645 0.09051222 -0.13258037 -0.02578797
-0.17091396 0.32249814 0.103383936 0.053171717 0.13053863 0.15258494 -0.10507092 -0.33218107
-0.11659362 0.011499274 -0.06636362 -0.019893365 -0.043062154 -0.12630087 -0.12861836 -0.31704226
0.029686738 -0.05570363 0.035143334 -0.2166255 -0.028089305 -0.06237266 0.14032152 -0.018250197
-0.030561965 -0.06019558 -0.26153642 -0.10361709 -0.14031552 -0.15018727 -0.06780988 0.039045617
-0.17707334 0.051921654 0.05416938 0.018460942 -0.25584376 0.107098766 0.18943717 -0.03857576
-0.029223146 -0.14719902 0.15124455 -0.0094105955 -0.07939782 -0.10736443 0.20686388 0.08293305
0.014494005 0.1845185 -0.23633687 0.057096 -0.042038515 -0.074198104 0.05882492 0.037210543
00000000: a87c 7abe 7ba3 c5bd c96e e1bc ffbe 7d3e
00000010: 828e b1bc 0c69 383c ddb4 f03d a14f 4ebd
00000020: c423 96bd 5331 8b3d 09ea f8bd f459 e43c
00000030: 871d 0b3e e67e 32be 8855 fdbd 193b 6bbd
00000040: d3f4 b2bd 67c0 73bd 3044 333e 8b1a 83bd
00000050: c384 bb3c 30b6 dabd 2433 453c a0b1 aebe
00000060: 2d2f e93d 3b79 353c 4649 82be fb9c 9dbc
00000070: a3e9 32bd 4cb3 593e 152a fbbb 99a2 07be
00000080: 2c16 ce37 8962 50be 2c3c e93d 6cbf 923d
00000090: dfa5 43be fef4 0bbe efc8 22bb b0bb 3ebe
000000a0: 7f78 f23c 76d1 febd 9922 a1bc 091a f43d
000000b0: 2721 e8bd c128 163d ff78 47bd 58cb ea3d
000000c0: f05d b83b 5466 1dbe 4cec b93a d353 02be
000000d0: 6619 dfbd ee9f 8b3d 232f 37bd 69a8 84bc
000000e0: f491 0f3e 2cf8 63be 94c9 873e abbc a2bc
000000f0: a6fb 273e 4068 87bd 1210 04bd 8752 be3d
00000100: 632d 193e 4ca2 6a3c 8146 9738 d2f4 96bd
00000110: 5bc5 9abc b3fd 82b9 71be 08be add4 1b3e
00000120: 4aad 0cbe e40e 183e f48c 81bd bb89 2bbc
00000130: 3356 df3d 28e6 b4bd 88b5 56be 3907 29be
00000140: f5bc 29be ab30 3cbe 534e dc3d 62d9 0ebe
00000150: 1f97 453c cd2d e9bd 0152 bbbd 21bd 5fbe
00000160: ad72 3f3e 3af4 dbbd 9ec5 ac3d 89b4 87be
00000170: b5b8 d23d 444d 2ebe 16e3 a73c 5404 563c
00000180: d5b2 cb3d 9c0b 343c a25a 253d 741f d9bc
00000190: 1882 e73d 1b67 7dbd 7536 6e3d b002 cebd
000001a0: c8b9 ff3d 3d53 8a3d 93b1 72bd f2ce 3bbc
000001b0: 1fca 42be 8aa9 9e3a 18cd 19bd 19f5 3cbd
000001c0: 38bb 28be 4612 61bd a575 bbbb 00d3 043e
000001d0: a62b 793d 31b9 46be a3f3 153e a99b 71bd
000001e0: 2f59 803d 30ac 19bd b781 783a 5b33 763b
000001f0: 50f5 42be 18bb 313e fde5 eabd e20e 153e
00000200: 16af 0b3c 050c 803d 1f3f 943e 3bf5 f23d
00000210: 026d f83d edf5 63bd 2a79 17be ecc9 3dbe
00000220: 9367 5abe 9ddf 3fbe 1801 b4bd 7868 cfba
00000230: ed3d 12bc 3e13 9c3d 373b 303e 411d d53c
00000240: fc21 1ebd 0e70 ad3b ad1b 653d 81c1 04be
00000250: 25ee 283e cef1 723b 3830 273e be7e 80be
00000260: a9fa 18be e10b 82bd 965b 43bd 7925 c2bd
00000270: 8656 f83d 2b8d 953d 4c9e 70bd 832a 643e
00000280: 984f 1c3d 6929 5ebc 5a2b 7c3d 133c 9f3e
00000290: a533 aabe e1f1 543e 0972 2a3e fc87 3d3c
000002a0: e2cb 8f3d d155 d13c 2dea 1dbe c1a0 a73d
000002b0: 93d4 9e3e 08a0 0cbe a0b2 d23d e5ec 0b3e
000002c0: 54a4 19bb 2138 f1bd 257d efbd e2a9 66bd
000002d0: ea58 e8bd cdaa e63d 9e96 50be d6f5 77bd
000002e0: 9126 823d b290 fc3d 5728 48bd 67cc 733e
000002f0: 35d3 843d 1b8b c2be ffba 973d e3f6 44bd
00000300: c820 993d 1bb6 babc 757b f93d f553 b3bd
00000310: 9475 96bd 795e b93d 26c3 07be 4b41 d3bc
00000320: 1204 2fbe 7a1e a53e f5ba d33d 96ca 593d
00000330: ebab 053e 3a3f 1c3e 6c2f d7bd a313 aabe
00000340: a3c8 eebd 7367 3c3c a6e9 87bd 69f7 a2bc
00000350: f161 30bd 0455 01be 88b4 03be 5d53 a2be
00000360: 9a31 f33c 7d29 64bd 75f2 0f3d 13d3 5dbe
00000370: 8b1b e6bc 797a 7fbd 72b0 0f3e 7081 95bc
00000380: 165d fabc a48f 76bd 1ae8 85be 3235 d4bd
00000390: dfae 0fbe b1ca 19be e8df 8abd 4cee 1f3d
000003a0: b752 35be cdab 543d b6e0 5d3d 673b 973c
000003b0: f4fd 82be 9956 db3d d1fb 413e 9e01 1ebd
000003c0: 6165 efbc 57bb 16be dadf 1a3e e62e 1abc
000003d0: 539b a2bd e2e1 dbbd 20d4 533e ced8 a93d
000003e0: 4378 6d3c 6bf2 3c3e 4b02 72be 7fdd 693d
000003f0: 9430 2cbd 2df5 97bd 66f2 703d 156a 183d

graph_rnn.bias_ih_l0 f4 [192]
-0.1405497 -0.031029765 0.052563123 -0.068754 0.26060134 -0.1082753 0.016528768 -0.16722031
0.041105185 -0.06243183 -0.074164525 -0.062334467 -0.14271273 0.013175789 -0.023321671 0.018766204
0.14935641 0.07811199 -0.18767323 -0.07806186 0.10708707 0.080188215 0.08224059 -0.07951573
-0.033147853 0.12544972 0.022226712 -0.10401546 -0.13491118 -0.100903265 -0.1335948 -0.020278899
-0.07843082 -0.10376725 -0.085523054 0.10785174 0.0470061 0.102928475 0.22321418 0.022037862
0.03513471 0.0076694307 0.07804124 -0.29655167 0.0800469 -0.11002464 -0.030919462 -0.13696946
0.04472394 -0.04826112 -0.0046282685 -0.05950423 -0.076751016 0.020145355 -0.09291282 -0.021993725
-0.06080235 0.06150459 0.019813074 0.18955666 0.06476436 -0.18880644 0.12834015 0.21354386
-0.14905857 -0.15639998 -0.13841449 -0.15430951 -0.039613754 0.09267135 -0.06932329 -0.23613183
-0.03760165 -0.2807465 -0.13207728 -0.27009162 -0.10727695 -0.030228725 -0.07388401 -0.24460308
-0.08649787 -0.13515906 -0.040398758 -0.07011158 -0.15065405 -0.015714932 -0.010349031 -0.12933771
-0.048366204 -0.17511992 -0.061996363 0.0063051106 -0.24101229 -0.2520968 -0.17888638 -0.18574525
-0.12813427 -0.030579487 -0.18617591 -0.17740086 -0.08584212 -0.21665192 -0.03153364 -0.15041912
0.0014261157 -0.18255572 -0.1771064 -0.14350171 -0.105548605 0.08949953 -0.13077721 -0.04594541
-0.09234897 -0.116388276 -0.03403598 -0.2581055 0.02232031 -0.20119788 -0.42073527 -0.08720774
-0.28942254 -0.10247179 -0.2214272 -0.1231344 -0.18083161 -0.04543474 -0.2812307 -0.061939124
0.19552988 -0.12865262 0.14367601 -0.09700314 0.10825924 -0.0920742 -0.05918738 0.110271536
0.093890585 -0.2229839 -0.13249809 0.0130792 0.10391016 0.16377994 -0.021273639 -0.16759047
-0.3064983 0.19481193 0.06010725 -0.10776688 0.10961839 -0.076675564 0.14714982 0.09547695
0.15307656 -0.011439626 0.100423135 -0.13799562 0.26549786 -0.12496491 -0.13185865 0.25030747
-0.014810077 0.032373488 0.11338235 0.2280941 -0.19007644 -0.01553561 0.12959945 0.023457056
-0.12798102 0.0050901696 -0.12523103 -0.18581514 0.19572493 -0.07479619 -0.03458911 -0.01632595
-0.2559397 -0.113956966 0.07850521 -0.124228835 0.06543036 0.19301243 -0.24116658 -0.018605422
-0.143994 -0.041330714 0.08914447 0.18468943 0.13429792 0.0009525713 0.015724197 -0.21939804
00000000: 43ec 0fbe 2232 febc 6e4c 573d e6ce 8cbd
00000010: 8a6d 853e 71bf ddbd 5767 873c cd3b 2bbe
00000020: e95d 283d 85b8 7fbd 92e3 97bd 6d52 7fbd
00000030: 4923 12be 44df 573c 170d bfbc 95bb 993c
00000040: e3f0 183e 2ef9 9f3d 692d 40be e5de 9fbd
00000050: 7750 db3d b839 a43d c16d a83d 25d9 a2bd
00000060: 0bc6 07bd e475 003e cb14 b63c 0f06 d5bd
00000070: 2826 0abe 5fa6 cebd 13cd 08be ef1f a6bc
00000080: 56a0 a0bd ed83 d4bd b626 afbd 60e1 dc3d
00000090: 7889 403d 2acc d23d 4292 643e bf88 b43c
000000a0: 6ae9 0f3d d94f fb3b 16d4 9f3d 9fd5 97be
000000b0: a1ef a33d 9954 e1bd d04a fdbc b941 0cbe
000000c0: 7330 373d 74ad 45bd bba8 97bb b5ba 73bd
000000d0: a32f 9dbd df07 a53c 1449 bebd 2f2c b4bc
000000e0: e30b 79bd 3dec 7b3d 074f a23c 241b 423e
000000f0: 2da3 843d 7a56 41be 9a6b 033e 3eab 5a3e
00000100: cfa2 18be 5127 20be 87bc 0dbe 5003 1ebe
00000110: 0842 22bd 7aca bd3d 5ef9 8dbd 8bcc 71be
00000120: 3004 1abd 01be 8fbe 443f 07be 7349 8abe
00000130: 04b4 dbbd 3ba2 f7bc 8050 97bd 3b79 7abe
00000140: cc25 b1bd 2367 0abe 2b79 25bd a996 8fbd
00000150: 0e45 1abe 9abc 80bc fb8e 29bc 1b71 04be
00000160: a41b 46bd a352 33be e6ef 7dbd 1a9b ce3b
00000170: edcb 76be d512 81be fe2d 37be 0134 3ebe
00000180: a135 03be d581 fabc e6a4 3ebe 92a8 35be
00000190: fecd afbd 00da 5dbe 6b29 01bd 7807 1abe
000001a0: 81ec ba3a e3ef 3abe 615b 35be 1df2 12be
000001b0: de29 d8bd 884b b73d 76ea 05be 4131 3cbd
000001c0: 7521 bdbd fa5c eebd 5069 0bbd 6726 84be
000001d0: 15d9 b63c d106 4ebe 9d6a d7be f999 b2bd
000001e0: 312f 94be bbdc d1bd d0bd 62be e32d fcbd
000001f0: ec2b 39be c719 3abd 78fd 8fbe e1b3 7dbd
00000200: fc38 483e 83bd 03be ce1f 133e 95a9 c6bd
00000210: 05b7 dd3d 6691 bcbd 776e 72bd 0bd6 e13d
00000220: b549 c03d e455 64be 94ad 07be 244a 563c
00000230: dace d43d eeb5 273e 0e46 aebc d69c 2bbe
00000240: 58ed 9cbe c77c 473e 0533 763d e2b4 dcbd
00000250: 9b7f e03d 1408 9dbd 71ae 163e 6b89 c33d
00000260: 1ac0 1c3e 456d 3bbc a5aa cd3d b94e 0dbe
00000270: 56ef 873e 9aed ffbd f405 07be 4d28 803e
00000280: f7a5 72bc 109a 043d 0135 e83d 8091 693e
00000290: 66a3 42be 1289 7ebc b8b5 043e 0329 c03c
000002a0: 750d 03be 70cb a63b 903c 00be 5346 3ebe
000002b0: 1e6c 483e bf2e 99bd 50ad 0dbd 00be 85bc
000002c0: 870a 83be 4562 e9bd 57c7 a03d b06b febd
000002d0: 5a00 863d 0da5 453e 5ff4 76be 666a 98bc
000002e0: 2a73 13be 654a 29bd 6091 b63d 3a1f 3d3e
000002f0: 6585 093e fab5 793a 08d0 803c e1a9 60be

graph_rnn.bias_hh_l0 f4 [192]
-0.10170244 -0.119653724 0.030852478 -0.07827776 0.3171145 0.10751975 0.053375043 -0.046183355
0.14198257 -0.096849084 -0.057982083 0.06458363 -0.102579735 0.057206698 -0.03351446 -0.13542458
0.08769707 -0.01917931 -0.016742013 -0.037938207 0.065014616 0.0017936163 0.08722483 -0.052003488
-0.05041975 0.121490665 0.06655843 -0.00067326054 0.0038340879 -0.14400174 -0.11168859 0.0070616286
-0.029088503 -0.051570892 0.04865474 -0.032256484 0.17521401 0.15997171 0.33194414 0.07040189
-0.052405052 0.099361695 -0.043338437 -0.25035223 0.007178101 0.098613985 -0.054608904 -0.05110487
0.28386223 0.17928873 -0.05351188 -0.113619745 -0.15001214 -0.10371402 -0.28786203 0.07712689
-0.18177888 0.05299084 -0.05670114 0.16975594 -0.05548803 -0.20981023 -0.036139477 0.25904214
0.06902277 -0.16357875 -0.2771634 -0.09148478 -0.16955504 -0.088847026 -0.025470242 -0.14412223
-0.053357538 -0.23631532 -0.24512368 -0.28056315 -0.05270255 -0.042207137 -0.035347387 -0.13822803
-0.06173134 -0.20996115 -0.07131562 -0.20358486 -0.15795296 0.011613275 -0.14827275 -0.13193193
-0.15058367 -0.077018715 0.01517368 -0.05133607 -0.056929633 -0.19673856 -0.15541516 -0.23130031
-0.19419153 -0.038799807 -0.42917994 -0.070397355 -0.01583933 -0.049544357 -0.05451894 -0.009580509
-0.011277421 -0.06690694 -0.12316279 -0.36009565 -0.1848276 -0.047538597 -0.06508662 -0.07838701
-0.13518278 0.03744946 -0.106376335 -0.32903814 0.06376892 -0.2117348 -0.44274485 -0.06611189
-0.3166336 -0.0019691533 -0.110708684 -0.08388376 -0.10243673 -0.02333792 -0.29981524 -0.17057806
0.071619175 -0.30627418 0.16433081 -0.14297183 0.23403554 -0.045314953 0.064278506 0.013460302
0.037579846 -0.18455024 -0.29819146 -0.096978925 0.0023670336 0.2117481 -0.17756678 -0.051627167
-0.24145862 0.19186762 0.0774041 -0.12134474 0.2709291 0.21391033 -0.004978518 0.07572308
0.07772865 0.0008894537 0.021131178 -0.091557965 0.007207377 -0.12187164 0.10277049 0.22985636
0.042701114 -0.121422485 0.1570578 0.14770895 0.006191672 0.077526845 0.1356522 -0.14470276
-0.09916284 0.001356477 -0.14587227 -0.23339717 0.22835575 -0.16476655 -0.048748374 0.18870361
-0.09038459 0.06045474 0.17849614 0.06380122 -0.13070343 0.22557655 -0.15688495 0.07355194
-0.087874524 0.012726834 0.07402819 0.26244193 0.057925187 -0.02298061 0.1946961 -0.25639874
00000000: 5e49 d0bd 030d f5bd 56be fc3c 1750 a0bd
00000010: d55c a23e 5133 dc3d ca9f 5a3d c22a 3dbd
00000020: e163 113e d058 c6bd 9f7e 6dbd 6c44 843d
00000030: 5315 d2bd 9251 6a3d 7546 09bd beac 0abe
00000040: 859a b33d ee1d 9dbc 8c26 89bc 1865 1bbd
00000050: 6226 853d c717 eb3a efa2 b23d 9c01 55bd
00000060: f184 4ebd 19d0 f83d c94f 883d c07d 30ba
00000070: 5245 7b3b 3175 13be fdbc e4bd 3c65 e73b
00000080: 034b eebc 003c 53bd 314a 473d 601f 04bd
00000090: 4d6b 333e a0cf 233e 95f4 a93e de2e 903d
000000a0: aea6 56bd 257e cb3d a583 31bd 2b2e 80be
000000b0: 4736 eb3b 21f6 c93d 96ad 5fbd 5753 51bd
000000c0: 6456 913e 7797 373e 462f 5bbd 78b1 e8bd
000000d0: c89c 19be 0468 d4bd a762 93be b4f4 9d3d
000000e0: 3e24 3abe ec0c 593d 743f 68bd 80d4 2d3e
000000f0: 6b47 63bd 7ed8 56be fd06 14bd 2ca1 843e
00000100: cf5b 8d3d 3081 27be 5ce8 8dbe 5f5c bbbd
00000110: d69f 2dbe 6ef5 b5bd f8a6 d0bc c794 13be
00000120: 6f8d 5abd a5fc 71be b401 7bbe f9a5 8fbe
00000130: a1de 57bd 64e1 2cbd 6cc8 10bd a68b 0dbe
00000140: 00da 7cbd 0e00 57be ec0d 92bd 8d78 50be
00000150: 6cbe 21be 9b45 3e3c d0d4 17be 2a19 07be
00000160: 9b32 1abe fdbb 9dbd 079b 783c c545 52bd
00000170: 0c2f 69bd d575 49be 2725 1fbe fdd9 6cbe
00000180: 25da 46be 8cec 1ebd 79bd dbbe 7d2c 90bd
00000190: 7cc1 81bc 06ef 4abd 414f 5fbd 91f7 1cbc
000001a0: efc4 38bc 8106 89bd c63c fcbd 755e b8be
000001b0: 7243 3dbe d5b7 42bd 224c 85bd 5e89 a0bd
000001c0: 5b6d 0abe 9b64 193d d6db d9bd b077 a8be
000001d0: 4899 823d 02d1 58be 74af e2be ac65 87bd
000001e0: cd1d a2be e90c 01bb 3cbb e2bd 40cb abbd
000001f0: 59ca d1bd 2a2f bfbc 6281 99be 04ac 2ebe
00000200: 13ad 923d f8cf 9cbe 5646 283e 3567 12be
00000210: 03a7 6f3e 2c9c 39bd 73a4 833d 9988 5c3c
00000220: 53ed 193d bdfa 3cbe 8dac 98be e39c c6bd
00000230: 3c20 1b3b 7ed4 583e 11d4 35be 0277 53bd
00000240: ee40 77be f278 443e 0a86 9e3d 9783 f8bd
00000250: 38b7 8a3e 4f0b 5b3e d622 a3bb b414 9b3d
00000260: 3330 9f3d 3a2a 693a 4b1b ad3c be82 bbbd
00000270: dc2b ec3b d797 f9bd 5679 d23d 775f 6b3e
00000280: 5de7 2e3d 5aac f8bd c3d3 203e 0441 173e
00000290: 82e3 ca3b 65c6 9e3d 69e8 0a3e f62c 14be
000002a0: e315 cbbd d1cb b13a 8a5f 15be abff 6ebe
000002b0: 17d6 693e 90b8 28be 60ac 47bd 853b 413e
000002c0: 8e1b b9bd 649f 773d b1c7 363e 37aa 823d
000002d0: 1fd7 05be 8afd 663e 73a6 20be 66a2 963d
000002e0: 8ff7 b3bd 3684 503c 179c 973d ca5e 863e
000002f0: f642 6d3d d541 bcbc 6a5e 473e b246 83be

graph_rnn.weight_ih_l1 f4 [192, 64]
0.067304075 0.074719004 -0.38338524 -0.2653001 -0.027627638 -0.015659068 0.12878257 -0.06806376
-0.051668864 0.30454755 -0.007811645 -0.1321767 -0.5193728 -0.20270218 0.068337254 -0.019710388
0.064883955 0.074287206 0.17760961 -0.26568332 -0.1456179 -0.19738564 -0.10762994 -0.05666826
0.2678347 -0.19179413 0.005788398 -0.043586135 0.1909867 0.244201 -0.03489467 0.277219
-0.09336733 0.30574417 -0.11905611 -0.23816143 -0.076318316 -0.26891428 -0.2316567 0.22289097
-0.20433854 -0.14728777 0.12088175 0.08460986 -0.037395123 -0.14955944 -0.14275199 0.007912838
0.07180374 -0.15731336 0.26185814 -0.069359206 -0.21174878 -0.1762138 -0.25668985 -0.104925394
-0.017139932 -0.03079666 0.16854759 0.16500859 0.18021972 0.0713751 -0.14464386 -0.08079897
0.058667462 -0.3200355 -0.17231742 -0.05726497 -0.2923512 0.14356937 0.24027051 -0.1856209
0.24663794 -0.13911183 0.065232374 0.37489444 -0.238988 -0.22445263 0.2104451 0.27337834
0.3375125 0.1988258 0.07134787 -0.2477736 -0.08833142 -0.21631664 -0.006411878 -0.08098128
-0.16612646 -0.05236652 -0.44868615 0.13346279 0.28133646 0.04382073 -0.2945451 0.41141927
-0.018844865 -0.26140678 -0.06250649 -0.16419688 -0.23666172 -0.06903813 0.0030805382 0.010537993
0.08538624 -0.7036992 0.47985876 -0.18830486 -0.20175926 0.09668384 -0.2871697 0.38233495
0.33873522 -0.23922876 0.09567183 -0.08923982 -0.18973832 -0.07888275 -0.37530854 0.20649236
0.038563017 -0.016924007 0.5175132 -0.11796809 0.4760334 -0.10507195 0.15917946 0.16792883
0.22382832 0.9937227 -0.66922265 0.38901958 0.2944006 0.11578453 0.2308565 -0.03860433
0.3007096 -0.12161881 0.09583873 -0.14888087 0.16601387 -0.53816605 -0.112676695 -0.18315779
0.07831791 -0.24357978 0.08735058 0.14475442 0.05684718 -0.2397629 -0.034314282 -0.21932086
-0.1347314 -0.25658506 -0.33427384 0.2244305 0.17657095 -0.68735045 -0.1933354 -0.07548884
0.11886393 0.111544214 -0.34536514 -0.09261051 0.0769115 0.013485077 0.10933789 0.13842238
0.12646839 0.35934335 -0.01520807 -0.28676867 -0.4836739 0.046925962 0.03489874 -0.48854753
0.3984603 0.035203803 -0.08613511 0.27199027 0.09804739 0.036270075 0.038963556 0.4132228
0.09911233 0.5390465 -0.37692574 -0.07182455 -0.300661 0.826339 -0.102273874 0.1489762
0.004046934 0.40785176 -0.2804803 -0.088216275 0.24542329 -0.19458608 0.13825005 0.124365464
0.11755141 -0.39287734 -0.36175966 0.006648031 -0.08727924 0.13872835 0.42086953 -0.08543548
-0.16035777 0.34664318 0.11563121 -0.09884362 0.5526631 0.03979989 -0.053596165 -0.08121413
0.037421063 0.025803203 0.030263541 0.15158123 -0.06903834 -0.34575003 0.1430818 -0.053240176
-0.124253444 -0.09909797 0.22814125 0.1835262 -0.12798493 0.3743096 0.19017214 0.10191906
0.19146968 0.56208813 -0.1841685 -0.10968001 0.08147732 0.04268031 0.057306167 -0.20669626
0.062459826 0.15234762 0.13036175 -0.08181424 0.3188506 0.1490246 0.42560056 0.27871814
-0.11149423 -0.034569435 -0.045881286 0.029441262 -0.29298523 -0.063337535 -0.15401034 -0.07692373
00000000: b8d6 893d 4706 993d 124b c4be 6ad5 87be
00000010: 5b53 e2bc 7247 80bc 94df 033e 0365 8bbd
00000020: bba2 53bd a8ed 9b3e d4f8 ffbb 5459 07be
00000030: 9ef5 04bf 2991 4fbe 67f4 8b3d ae77 a1bc
00000040: e1e1 843d e423 983d 4bdf 353e a507 88be
00000050: dc1c 15be 761f 4abe 166d dcbd fa1c 68bd
00000060: a121 893e ae65 44be 9aac bd3b 6087 32bd
00000070: 0492 433e d40f 7a3e b7ed 0ebd a6ef 8d3e
00000080: 5f37 bfbd 808a 9c3e b1d3 f3bd 97e0 73be
00000090: c74c 9cbd 22af 89be 6a37 6dbe 883d 643e
000000a0: 1f3e 51be 9bd2 16be da90 f73d ef47 ad3d
000000b0: a12b 19bd 1c26 19be 942d 12be d9a4 013c
000000c0: d70d 933d c116 21be 4512 863e 330c 8ebd
000000d0: acd4 58be 6471 34be da6c 83be 20e3 d6bd
000000e0: 0b69 8cbc 4749 fcbc bd97 2c3e 03f8 283e
000000f0: 858b 383e 1c2d 923d 851d 14be ee79 a5bd
00000100: 4b4d 703d b1db a3be fa73 30be ac8e 6abd
00000110: 0eaf 95be d903 133e 7909 763e 6813 3ebe
00000120: a88e 7c3e 5573 0ebe 8d98 853d 2af2 bf3e
00000130: 45b9 74be e9d6 65be ec7e 573e 3ff8 8b3e
00000140: 70ce ac3e fe98 4b3e d51e 923d 5db8 7dbe
00000150: 1be7 b4bd 1c82 5dbe bb1a d2bb 83d9 a5bd
00000160: 0e1d 2abe 477e 56bd 31ba e5be 78aa 083e
00000170: 550b 903e 5e7d 333d 9ece 96be 8ca5 d23e
00000180: 8c60 9abc 1cd7 85be 6703 80bd 3a23 28be
00000190: 7357 72be dd63 8dbd dbe2 493b 8ca7 2c3c
000001a0: fbde ae3d a125 34bf 0cb0 f53e fdd2 40be
000001b0: fb99 4ebe 2d02 c63d e807 93be 68c1 c33e
000001c0: b46e ad3e 62f8 74be 98ef c33d 5ec3 b6bd
000001d0: c34a 42be 478d a1bd 7128 c0be bc72 533e
000001e0: 41f4 1d3d 37a4 8abc bf7b 043f 4199 f1bd
000001f0: a6ba f33e f62f d7bd f1ff 223e 89f5 2b3e
00000200: 4033 653e 9c64 7e3f 2d52 2bbf 932d c73e
00000210: adbb 963e 7120 ed3d a565 6c3e 931f 1ebd
00000220: 9cf6 993e 4813 f9bd 1947 c43d 3a74 18be
00000230: 8aff 293e 40c5 09bf 0ac3 e6bd b78d 3bbe
00000240: 2465 a03d fa6c 79be dce4 b23d 813a 143e
00000250: 97d8 683d 6884 75be 228d 0cbd a695 60be
00000260: 07f7 09be 1e5f 83be f125 abbe 1cd1 653e
00000270: 04cf 343e 33f6 2fbf b7f9 45be e599 9abd
00000280: ef6e f33d 4b71 e43d b3d3 b0be 94aa bdbd
00000290: c783 9d3d 83f0 5c3c 8bec df3d 99be 0d3e
000002a0: ee80 013e dafb b73e 452b 79bc 58d3 92be
000002b0: 1ba4 f7be 7035 403d fbf1 0e3d e722 fabe
000002c0: fd02 cc3e dd31 103d 9b67 b0bd 4f42 8b3e
000002d0: 12cd c83d ee8f 143d 4098 1f3d f091 d33e
000002e0: 68fb ca3d f4fe 093f 69fc c0be c018 93bd
000002f0: 3df0 99be f48a 533f f774 d1bd 388d 183e
00000300: 259c 843b f2d1 d03e 1d9b 8fbe bcaa b4bd
00000310: 3e50 7b3e 9341 47be 6c91 0d3e 52b3 fe3d
00000320: cbbe f03d 3827 c9be 9038 b9be bad7 d93b
00000330: 75bf b2bd ce0e 0e3e 367c d73e ccf8 aebd
00000340: d434 24be 377b b13e 0ed0 ec3d 866e cabd
00000350: 547b 0d3f 3605 233d a787 5bbd 9853 a6bd
00000360: d446 193d 3d61 d33c 3feb f73c 1c38 1b3e
00000370: f963 8dbd 2606 b1be 0984 123e 5f12 5abd
00000380: 9778 febd e0f3 cabd dc9d 693e 4bee 3b3e
00000390: 7b0e 03be 82a5 bf3e 7cbc 423e f1ba d03d
000003a0: a110 443e 02e5 0f3f ab96 3cbe ea9f e0bd
000003b0: 95dd a63d 8cd1 2e3d dfb9 6a3d 2fa8 53be
000003c0: e0d5 7f3d 0401 1c3e 8d7d 053e 398e a7bd
000003d0: 6340 a33e e899 183e 51e8 d93e 25b4 8e3e
000003e0: 1657 e4bd ae98 0dbd 04ee 3bbd cd2e f13c
000003f0: 2902 96be 1cb7 81bd e3b4 1dbe 308a 9dbd

graph_rnn.weight_hh_l1 f4 [192, 64]
0.11669004 -0.028165225 -0.14867406 -0.024819376 0.16073532 -0.12683529 0.10570633 -0.20825116
-0.14407155 0.06532749 0.11264702 -0.105672844 -0.19738461 -0.021213893 -0.09591538 -0.14695345
-0.15294053 -0.11837641 -0.09038887 -0.1507526 -0.088070214 -0.026770458 0.16195081 0.036496144
0.29684073 0.02035304 -0.057715293 0.17887701 0.043674618 -0.16074562 0.11331742 0.1466421
-0.21133544 0.0934572 0.03451284 0.06535397 -0.63887435 -0.1528731 -0.064790756 0.10626157
0.04993925 -0.3311683 0.32105377 -0.22290157 -0.2089521 0.07099968 0.013754355 -0.025716664
0.19368325 0.08591731 -0.2826066 0.0823079 0.078635454 -0.106038064 -0.06324079 -0.009293126
-0.31623754 0.29118186 -0.0014433408 0.30831647 -0.24527463 0.20157103 0.2815963 0.2794316
-0.506436 -0.0862215 0.1399749 0.0809178 0.00792487 0.089005075 0.22817829 -0.005550371
-0.09729707 -0.27156308 0.044324096 0.022897769 0.120460056 -0.11225663 0.08080489 0.011192203
-0.11715979 -0.21859668 -0.12917982 -0.06735275 -0.050088033 -0.31071803 0.30349278 0.100172915
0.041275747 -0.17698014 -0.18281294 -0.059892952 0.014880344 0.39951956 0.04370908 0.17853373
-0.13082336 0.041233465 -0.044280306 -0.05016096 0.4345059 0.15536708 -0.15683427 -0.14110284
0.28055108 0.5718671 0.25936365 -0.14430235 -0.17275457 0.09067056 -0.14780504 0.015142771
-0.15754789 0.04718538 -0.07030403 0.044489868 -0.058578927 0.19032374 0.30006614 0.4144714
0.0126199955 0.3489984 0.077872135 0.4998961 0.0022894791 -0.006952464 0.20209157 -0.11492122
0.07326444 -0.057251953 -0.003468663 0.28770363 -0.061790586 0.018786313 -0.063058466 0.19449249
-0.03758317 0.23658432 -0.37430745 0.2720632 0.24990664 -0.31343663 0.22748503 -0.07734636
0.3332935 0.14947388 0.15206628 0.12956618 -0.039283004 0.083837904 -0.32245922 -0.35014302
0.16186795 0.2374173 0.03912221 0.04965836 0.10028786 0.0970577 0.19402179 0.0984962
0.08344279 -0.22723693 -0.045712225 0.13307261 0.32983634 -0.011132231 0.31183004 0.008874124
-0.22400795 -0.069499664 -0.36715198 -0.026904766 0.23518026 -0.11634849 0.20446913 -0.027039122
-0.45782217 -0.2684159 0.2789702 -0.24632135 -0.30112857 0.033092894 -0.25973234 -0.26452747
0.47478473 -0.11704638 0.16062778 -0.05329206 0.25907847 -0.081887074 -0.08608959 0.21150918
0.12501234 -0.063439704 0.12393648 -0.25296924 -0.20710346 -0.089231245 0.27118707 0.12517391
0.40293333 0.11481991 0.06255406 -0.11268426 -0.11439843 -0.061439376 -0.11779971 0.08202762
0.057670098 -0.0147992205 -0.13948116 -0.54887986 -0.18539026 -0.05433474 -0.11733603 -0.021506017
0.06516932 0.13163912 -0.366927 -0.48939732 -0.20035958 -0.1846465 0.21622284 -0.19142976
-0.09039208 0.007610521 0.19989215 -0.07242711 0.061607104 0.03223881 -0.09617908 0.0065619373
-0.07564983 -0.31729424 0.05376009 0.35129878 0.33161107 -0.10810601 -0.100765206 -0.028946342
-0.08803074 0.09348421 -0.10505634 0.084726624 0.16395459 -0.16695796 0.04229483 -0.16524373
0.06398034 -0.010263617 -0.652822 0.036737725 0.1231198 -0.022147294 0.19620135 0.17810549
00000000: 30fb ee3d c2ba e6bc 033e 18be 0152 cbbc
00000010: cd97 243e 1ce1 01be 8f7c d83d cb3f 55be
00000020: 7e87 13be 6bca 853d 7bb3 e63d 016b d8bd
00000030: 311f 4abe c2c8 adbc 486f c4bd f77a 16be
00000040: 719c 1cbe 556f f2bd cd1d b9bd e45e 1abe
00000050: 285e b4bd b84d dbbc 6fd6 253e fb7c 153d
00000060: 82fb 973e 6bbb a63c df66 6cbd 892b 373e
00000070: 28e4 323d 809a 24be f712 e83d 5929 163e
00000080: 5168 58be 7d66 bf3d 565d 0d3d 4dd8 853d
00000090: 458d 23bf c48a 1cbe 04b1 84bd aa9f d93d
000000a0: 198d 4c3d e48e a9be 2961 a43e 4f40 64be
000000b0: 8af7 55be 4868 913d f259 613c c1ab d2bc
000000c0: e754 463e 6af5 af3d d0b1 90be 0b91 a83d
000000d0: a00b a13d 7c2a d9bd 6384 81bd 3242 18bc
000000e0: e3e9 a1be ca15 953e 7b2e bdba a8db 9d3e
000000f0: 4629 7bbe a368 4e3e 642d 903e a911 8f3e
00000100: caa5 01bf e694 b0bd 9555 0f3e 3bb8 a53d
00000110: 50d7 013c 4b48 b63d 92a7 693e e3df b5bb
00000120: b043 c7bd 510a 8bbe 2f8d 353d 1a94 bb3c
00000130: c3b3 f63d cee6 e5bd 097d a53d 805f 373c
00000140: 79f1 efbd cfd7 5fbe b747 04be 3df0 89bd
00000150: 1c29 4dbd 6f16 9fbe 6863 9b3e 7527 cd3d
00000160: c210 293d 483a 35be 5133 3bbe 5052 75bd
00000170: b0cc 733c d48d cc3e 4b08 333d 8cd1 363e
00000180: 8ff6 05be 6ce4 283d 445f 35bd 9475 4dbd
00000190: 8f77 de3e 8c18 1f3e 2a99 20be 437d 10be
000001a0: 64a4 8f3e e265 123f 50cb 843e ffc3 13be
000001b0: 93e6 30be 7db1 b93d 345a 17be 6319 783c
000001c0: 3c54 21be 7545 413d 8ffb 8fbd 023b 363d
000001d0: 75f0 6fbd 3ae4 423e 45a2 993e 9835 d43e
000001e0: 19c4 4e3c ebaf b23e 6d7b 9f3d 62f2 ff3e
000001f0: 160b 163b 7fd1 e3bb 18f1 4e3e d15b ebbd
00000200: ab0b 963d 0681 6abd 8252 63bb e44d 933e
00000210: 2018 7dbd c1e5 993c cc24 81bd 0a29 473e
00000220: cff0 19bd 2943 723e 3aa5 bfbe de4b 8b3e
00000230: 87e7 7f3e c47a a0be d6f1 683e c567 9ebd
00000240: 72a5 aa3e ae0f 193e 43b7 1b3e ffac 043e
00000250: 37e7 20bd 35b3 ab3d 6019 a5be f245 b3be
00000260: b6c0 253e 851d 733e 9c3e 203d 9166 4b3d
00000270: b963 cd3d 30c6 c63d a6ad 463e 60b8 c93d
00000280: 0ee4 aa3d ccb0 68be be3c 3bbd 3044 083e
00000290: 4fe0 a83e f663 36bc 30a8 9f3e c664 113c
000002a0: 5762 65be d755 8ebd 58fb bbbe 6267 dcbc
000002b0: 18d3 703e 1e48 eebd 5b60 513e 2681 ddbc
000002c0: ab67 eabe cf6d 89be 2fd5 8e3e aa3b 7cbe
000002d0: 862d 9abe 6a8c 073d a3fb 84be 2570 87be
000002e0: fc16 f33e 03b6 efbd 9c7b 243e c648 5abd
000002f0: efa5 843e 69b4 a7bd bd4f b0bd dd95 583e
00000300: 3c03 003e adec 81bd 69d2 fd3d 2f85 81be
00000310: ee12 54be dfbe b6bd 08d9 8a3e 972d 003e
00000320: 474d ce3e b326 eb3d 581c 803d 01c7 e6bd
00000330: b949 eabd dba7 7bbd f940 f1bd 19fe a73d
00000340: 7b37 6c3d 6e78 72bc 26d4 0ebe 6483 0cbf
00000350: f2d6 3dbe 1b8e 5ebd df4d f0bd 632d b0bc
00000360: 7e77 853d 68cc 063e dbdd bbbe 4992 fabe
00000370: 102b 4dbe f913 3dbe 8569 5d3e 2a06 44be
00000380: 7c1f b9bd ad61 f93b 87b0 4c3e aa54 94bd
00000390: bb57 7c3d d80c 043d 8af9 c4bd 8505 d73b
000003a0: 4cee 9abd 6474 a2be 8a33 5c3d 6fdd b33e
000003b0: edc8 a93e af66 ddbd fd5d cebd e120 edbc
000003c0: 7649 b4bd a674 bf3d c727 d7bd 2785 ad3d
000003d0: b6e3 273e 07f7 2abe 583d 2d3d a735 29be
000003e0: 2008 833d bb28 28bc 581f 27bf 4c7a 163d
000003f0: 3c26 fc3d 3e6e b5bc 02e9 483e 4961 363e

graph_rnn.bias_ih_l1 f4 [192]
0.09281423 0.033670425 -0.09324082 -0.037235726 -0.26971456 0.017663656 0.04603128 -0.15028101
0.2595954 -0.14655396 -0.13430281 -0.2508797 -0.0021977487 0.20613568 -0.19747865 0.020099996
-0.1133037 -0.024034375 -0.15532325 0.124635525 0.045125686 -0.09424211 -0.025837995 -0.06240748
-0.006094531 -0.21797493 0.04926091 0.15350431 0.09851176 0.115706906 0.3554768 0.2449788
-0.188281 0.10936757 0.2729627 -0.05038494 0.025880562 -0.24014932 0.18091877 0.10443509
-0.022213623 0.09593713 0.07640962 0.18112428 -0.0066974056 -0.087965086 -0.07426221 0.07444365
-0.11113634 0.06567054 0.07518125 0.2530186 0.20218727 0.09100213 -0.20568952 0.32868445
0.0834959 0.066634394 -0.120924056 0.016408283 -0.07934324 0.07307455 -0.041092522 -0.11206807
-0.38341317 -0.3047993 -0.123289146 -0.010397046 -0.20633091 -0.26931015 0.07898377 -0.13917346
-0.10342564 -0.044399727 0.14440544 -0.062371604 0.08487015 -0.1424803 -0.13028692 -0.17319407
-0.12724558 -0.10264863 -0.36340252 -0.09042294 -0.23004581 -0.3531238 -0.08597549 -0.17543344
-0.15159534 -0.2884154 -0.13790073 -0.11649169 -0.2167215 -0.19701776 -0.3294564 -0.27902648
-0.26922053 -0.39629915 -0.15921354 -0.08153313 -0.21819304 -0.24470769 0.1004102 -0.38085347
-0.022948014 0.0029929783 -0.22443315 -0.29645663 -0.11947967 0.11395878 0.024789596 0.018133195
-0.10010147 -0.049394988 -0.16787924 -0.104651734 0.011053697 -0.14364132 0.19540387 0.08119155
-0.22524416 -0.122107975 0.05873723 -0.22456966 -0.25421005 0.025694788 -0.50263023 0.07716951
0.20416865 -0.2718682 -0.17811114 -0.11282634 0.18846783 0.118466325 -0.15519159 -0.064488955
0.2604644 -0.12834679 -0.22718836 -0.072436176 -0.0057966625 0.19678426 -0.10374514 0.27157354
-0.03381249 -0.05118979 0.12705977 0.011811908 0.0643895 -0.08077123 0.0053358655 0.059327092
-0.2640192 -0.25199577 0.09365838 -0.25335678 -0.10838878 0.15705472 -0.15289946 -0.40809047
-0.09319101 0.20046356 -0.22753148 -0.07215596 0.08555332 -0.18504262 -0.024082365 0.17241608
0.08962926 0.10927346 0.19555734 0.10539264 0.1814292 0.03544993 -0.12510657 0.122182146
0.028096076 0.051298667 -0.20198792 -0.0022282132 0.14922555 0.12626559 0.025763081 0.19881886
-0.13555743 0.018282412 -0.13493119 0.06808562 0.03848412 0.14531675 0.049674038 -0.19007297
00000000: 6315 be3d 00ea 093d 0bf5 bebd 7d84 18bd
00000010: 0718 8abe 5fb3 903c 4c8b 3c3d 44e3 19be
00000020: b0e9 843e 3e12 16be ad86 09be 4e73 80be
00000030: 1b08 10bb 3b15 533e d837 4abe bfa8 a43c
00000040: c50b e8bd bde3 c4bc 0f0d 1fbe e940 ff3d
00000050: b6d5 383d 0202 c1bd 34aa d3bc fc9e 7fbd
00000060: a2b4 c7bb d234 5fbe cfc5 493d 3c30 1d3e
00000070: 89c0 c93d bef7 ec3d 0e01 b63e b9db 7a3e
00000080: bccc 40be 1bfc df3d c4c1 8b3e 7060 4ebd
00000090: 7903 d43c b4e9 75be c542 393e 11e2 d53d
000000a0: 58f9 b5bc b07a c43d a67c 9c3d a578 393e
000000b0: e975 dbbb 0a27 b4bd c916 98bd ea75 983d
000000c0: 739b e3bd 477e 863d a1f8 993d a78b 813e
000000d0: 2e0a 4f3e 535f ba3d 46a0 52be 5449 a83e
000000e0: e6ff aa3d 9d77 883d 08a7 f7bd aa6a 863c
000000f0: b57e a2bd 1ca8 953d a250 28bd f283 e5bd
00000100: bb4e c4be a70e 9cbe 057f fcbd 5f58 2abc
00000110: 6948 53be 05e3 89be 3ec2 a13d 7d83 0ebe
00000120: d2d0 d3bd 7ddc 35bd 05df 133e 5e79 7fbd
00000130: 67d0 ad3d 5be6 11be ef69 05be c959 31be
00000140: aa4c 02be 7239 d2bd e50f babe aa2f b9bd
00000150: 2191 6bbe a5cc b4be eb13 b0bd d3a4 33be
00000160: cf3b 1bbe 2fab 93be d935 0dbe 3293 eebd
00000170: 3eec 5dbe 06bf 49be 82ae a8be 8fdc 8ebe
00000180: 46d7 89be b9e7 cabe e008 23be d7fa a6bd
00000190: ff6d 5fbe a794 7abe dda3 cd3d 3aff c2be
000001a0: 79fd bbbc d825 443b ced1 65be 2ac9 97be
000001b0: c2b1 f4bd 3963 e93d 8d13 cb3c 118c 943c
000001c0: 0002 cdbd 6652 4abd 89e8 2bbe a653 d6bd
000001d0: 911a 353c b616 13be f417 483e c147 a63d
000001e0: 68a6 66be bf13 fabd 7396 703d 97f5 65be
000001f0: d227 82be e07d d23c 60ac 00bf 0c0b 9e3d
00000200: 9611 513e 4f32 8bbe c462 36be 7f11 e7bd
00000210: b6fd 403e 799e f23d 8bea 1ebe c912 84bd
00000220: 975b 853e 576d 03be 11a4 68be 6b59 94bd
00000230: eef1 bdbb d081 493e 5578 d4bd b00b 8b3e
00000240: f77e 0abd 63ac 51bd f51b 023e bc86 413c
00000250: a4de 833d 636b a5bd 7cd8 ae3b f700 733d
00000260: 862d 87be 9705 81be f7cf bf3d fbb7 81be
00000270: f0fa ddbd f4d2 203e ad91 1cbe 3cf1 d0be
00000280: eeda bebd 5246 4d3e 03fe 68be 81c6 93bd
00000290: 9436 af3d d07b 3dbe 6148 c5bc d78d 303e
000002a0: 8c8f b73d c4ca df3d 2f40 483e 19d8 d73d
000002b0: 94c8 393e f233 113d f01b 00be a23a fa3d
000002c0: be29 e63c 8d1e 523d ecd5 4ebe 3707 12bb
000002d0: 95ce 183e c44b 013e 190d d33c 2c97 4b3e
000002e0: 91cf 0abe ffc4 953c 672b 0abe 7970 8b3d
000002f0: 86a1 1d3d eacd 143e 0177 4b3d 7da2 42be
