graphrnn_v2/experiments/reproduction/ego_small/ego_small/model_at_1200.pt (torch, 420155 bytes, 43 tensors)

adj_embedding.0.weight f4 [32, 15]
00000000: c413 12bd 0735 a2bd 4d02 aabd 8ec0 a6bd
00000010: e970 163f 5dbd 27be 73b4 a9be f7bb cb3e
00000020: 74bd 363e 473c 613e 8108 a53d 8b47 bf3d
00000030: 9487 75bd d462 dabe c6a4 4dbe 14b8 8abe
00000040: 28a9 ce3e f8c8 123e 24a8 f9be 7f55 b73e
00000050: 0e09 043f 7325 c5bd 67cf b63e 64e4 d73e
00000060: efa1 a9bc f8ac 623e 312b a1be 5254 cfbe
00000070: 4a47 6c3f 7ec9 88be f1b4 1c3f 3a20 2c3e
00000080: 84ad c2be 4e4c e53e 4aae 583e fdc4 40bf
00000090: 1f2c c5be 744e 9dbe c6bf 0cbf 02d1 b8be
000000a0: e68b 19be 0c53 b0be 93fd 25be f15e 09bf
000000b0: 8fa0 24bf fa57 983e a4be f1bd 150e 113f
000000c0: f578 113f a344 87bd 4ad6 063e 5a90 98bd
000000d0: 4832 07be 3384 0cbe dc4e 8abe a672 973d
000000e0: 5083 76be 76d4 30be 4370 fdbe c049 04be
000000f0: 5283 373e f2dc 733e 9598 b23e fc81 da3d
00000100: 7cfa 7c3e af07 fbbd 4fb0 f73d a276 f63c
00000110: a882 f43d f0b8 e63d 959c 843d 66ac 013e
00000120: fa95 d53e 0a29 1bbe d166 443b 3e57 47be
00000130: e7f2 413f f690 e73c 5416 f8be 841e c9be
00000140: 5f5a 7dbe bc4c 8cbe 0fd2 bc3e 2aaa 953e
00000150: 7dde 783e 9cb1 873e 3557 0ebe b06f dc3d
00000160: 4019 953f 2e48 0ebd 0133 1f3f 0a2b 753e
00000170: 7397 a43c 2532 ea3c 58c6 373e 2dbe b03e
00000180: 4d4c c63c 57be fc3e f70f 95be 7ff0 bdbe
00000190: a191 9dbd 97dc 84bd 1034 5d3d cf84 03bf
000001a0: a459 75bd f25b 783e e208 74be d498 57bc
000001b0: 0bfc 633e 1791 063f b04f d73e 6158 0bbe
000001c0: 9fe5 52be 6173 67be 7122 fcbd c050 9bbc
000001d0: 24a6 1f3f afd8 463e 6a02 04bf 6282 243e
000001e0: 3ada ccbd a9af 973e feb0 2ebe 1e2e 91be
000001f0: 4f39 bebc 3919 55be 641f 3ebe 6783 d0bc
00000200: 5360 2bbd b7de 303e 0a44 cabd bc96 c3bc
00000210: 311c 533e 2dc6 883d 1c20 adbd 5c01 e03d
00000220: bde0 b2be fb89 bbbe 189a 713e 3886 adbd
00000230: 4279 203e 2e4c 243f fc5d 823c 892c ffbd
00000240: 7328 c83e 258e 803e fffb c9be a71a 01bf
00000250: 5ae2 ed3e 8951 d1be 26d3 b7bc 8e65 07bf
00000260: 65f5 ae3e 2ae3 213f ca2a cfbd 8655 a7bd
00000270: bd38 babe aa36 4a3e 9937 6ebe b96e 8abd
00000280: 4872 02be 5f8e 203e b874 8d3f 1edc d1be
00000290: 6216 a4bd 4bef 30bd 6549 d83d a417 023d
000002a0: 7147 e4be 5e26 663e 8303 d33e 1c8e 2a3e
000002b0: 26d2 2e3e bdbb b4be a4bc 27be 0a8d 003e
000002c0: 3c25 2d3f 96a2 163f 2265 2bbe 13af f73d
000002d0: 5d11 01bd 01c5 7c3c 0b08 41be 1691 cb3e
000002e0: 08a5 b5bc 0517 93be 0adf ccbd f427 e7bd
000002f0: 376b 043e 5e10 113e 4dd1 4c3f 64a9 3dbf
00000300: a419 3abf 7131 0dbf 458b 6f3f 3e72 143d
00000310: 8b9f a13e 6e25 34be b621 dbbd 1567 8c3e
00000320: d268 6c3e ddde 68be 4103 61bd ef2f 6ebe
00000330: 0683 95be c302 0dbd bb29 513f 7ddc dabc
00000340: ecd5 15be d41c 9c3e 7d81 183f fc27 863d
00000350: 2f56 61be 109c 0e3d 308c acbe 820b afbb
00000360: b0df 1bbf 6ef1 2ebf 90b1 05bf 7e38 80be
00000370: cf6a 0fbf 38f1 87be 1a76 17bf 0015 f2be
00000380: 4b0d 56bf 55d1 e83e 8570 563e 0feb b0bd
00000390: e1b5 60bd 62ed ff3d 9822 d53c c718 6dbe
000003a0: 615b 723d e400 53be fd4d 91be 735f 29be
000003b0: bdb1 fe3e 544c 043f aed7 7fbe ac1a 323e
000003c0: a453 32be d8cf 1ebe dca0 01be d936 7fbc
000003d0: e6f3 debd 1e41 bd3d 3e44 bf3d 265c 2e3e
000003e0: 171c 17be 719b c93d c84f 25be 1e58 393f
000003f0: c9eb 943e 90b9 893e fee4 c03e 9836 fd3e
-0.03566338 -0.079202704 -0.0830122 -0.08142196 0.5876604 -0.1638083 -0.33145484 0.39791843
0.17845708 0.2199565 0.080582626 0.093398176 -0.05994375 -0.42653525 -0.20082387 -0.27093565
0.4036343 0.14334476 -0.48761094 0.35807416 0.51576316 -0.096262835 0.3570511 0.42166436
-0.020707099 0.22136295 -0.31478265 -0.4049402 0.9229628 -0.26716226 0.61213595 0.16809168
-0.38023007 0.44784778 0.21160236 -0.7530058 -0.38510224 -0.30723917 -0.54980123 -0.3609696
-0.14994773 -0.3443836 -0.16210012 -0.53660494 -0.6430749 0.2975462 -0.1180394 0.5666211
0.5682519 -0.06604888 0.13167682 -0.07449408 -0.13202775 -0.13722305 -0.2701329 0.07394914
-0.24073529 -0.17268547 -0.4949971 -0.12918758 0.17921188 0.23814753 0.34882036 0.10669324
0.24704927 -0.12257325 0.12094175 0.030085865 0.11938983 0.11265743 0.06475178 0.12663421
0.41715986 -0.15152374 0.002996851 -0.19466874 0.75761265 0.028267365 -0.48454535 -0.39281094
-0.24741505 -0.27402294 0.36879012 0.29231387 0.24303623 0.26502693 -0.13900454 0.1076349
1.1648331 -0.034736805 0.621872 0.239422 0.020091748 0.028588364 0.17946756 0.34520093
0.024206305 0.49363968 -0.29113743 -0.37097546 -0.07693792 -0.06487387 0.05400473 -0.51374525
-0.05989994 0.24253824 -0.23831514 -0.013158996 0.22264116 0.5256514 0.42052984 -0.13607933
-0.20595406 -0.22602607 -0.12311257 -0.018959403 0.62362885 0.19418596 -0.51566184 0.16065362
-0.10002561 0.29626206 -0.17059705 -0.28355497 -0.023220686 -0.20810403 -0.18566662 -0.025453283
-0.04183991 0.17272459 -0.09876259 -0.023875587 0.20616223 0.06678424 -0.0845339 0.10937759
-0.34937087 -0.36628708 0.23593938 -0.08472866 0.15671256 0.6417874 0.015913956 -0.12459666
0.3909336 0.25108448 -0.3945007 -0.50431293 0.46461755 -0.4088252 -0.02243955 -0.52889335
0.34171596 0.6323725 -0.10115583 -0.08170609 -0.36371413 0.19747415 -0.23263396 -0.067594
-0.12738907 0.1567931 1.1051245 -0.4098825 -0.08012082 -0.043196958 0.10560874 0.031760827
-0.44585755 0.22475573 0.41213617 0.16655773 0.17072353 -0.35299483 -0.16380554 0.12553802
0.6763494 0.58841836 -0.16737798 0.1209394 -0.0315107 0.015427829 -0.18850724 0.3975913
-0.02217342 -0.287285 -0.10003479 -0.11286917 0.12931524 0.141664 0.8000687 -0.74086595
-0.72695374 -0.55153567 0.93571883 0.036241762 0.31567034 -0.17592403 -0.10699789 0.27422395
0.23086861 -0.22741266 -0.054934744 -0.23260473 -0.29201525 -0.034426462 0.817043 -0.026716465
-0.14632386 0.30490744 0.59572583 0.06550595 -0.22005533 0.0348168 -0.33700705 -0.005341948
-0.60888195 -0.6833714 -0.52224064 -0.250431 -0.5602235 -0.26551223 -0.59164584 -0.47281647
-0.83614033 0.45472208 0.2094136 -0.08638584 -0.054860953 0.12496449 0.026017472 -0.23153983
0.059169177 -0.20605808 -0.28379813 -0.16540317 0.4974498 0.5167897 -0.24984619 0.17392987
-0.17414719 -0.15508974 -0.12659019 -0.015577042 -0.10886364 0.09240936 0.09339188 0.1702734
-0.14756809 0.09844101 -0.16143715 0.7240008 0.2908614 0.26899385 0.37674707 0.49455714

adj_embedding.0.bias f4 [32]
00000000: 2954 213e 7edd 683e 92e1 d23c 0ba3 9c3d
00000010: d564 d9be ad60 853e c749 c2bc 159f 703c
00000020: a67f 26be fd1f 943c 374d 5a3e 649e ca3e
00000030: b740 c23b 9ec1 e83d 1726 2d3e 76ae 8e3d
00000040: cdb1 c93e a671 613d 61e0 9abe 3a03 e73d
00000050: 278b 06be 395c c53e 5ddc 353c e9ad e93d
00000060: 2ffb 0b3e 33f3 e63c df64 97bc 18a8 9e3c
00000070: a266 2dbd 2f0a 313e 66bb a53d f290 1cbe
0.15754761 0.22740743 0.025742326 0.076482855 -0.4245974 0.2605032 -0.02371682 0.014686366
-0.16259632 0.01808166 0.21318518 0.39573967 0.0059281248 0.113650545 0.16909061 0.069668695
0.39393464 0.055040024 -0.30249313 0.11279912 -0.1313902 0.38546923 0.011099902 0.11410124
0.13670038 0.028192138 -0.018480716 0.019367263 -0.042334206 0.17289041 0.08092384 -0.15289667

graph_rnn.weight_ih_l0 f4 [192, 32]
00000000: d421 abbe 5b0f bebe 5750 f93e 2cc1 cf3c
00000010: c87d 81be 797e 35be 211a 2fbe bd7f 41be
00000020: 8a64 103d a99e c33c 0a4a a93e 0d61 1abf
00000030: 53d8 8f3f 4436 8bbe 8675 26be cc46 9bbe
00000040: dcc2 34be ebfe a53e fe72 7e3e 022c b2bd
00000050: 0de0 063e f028 393e 9e99 933e 9466 e3be
00000060: 420c 073e bca4 ec3e 9296 a1be f105 ef3e
00000070: 9d0d 873e 259f e83e 3edc 81bf 9a1b 013e
00000080: 8727 cbbe 4ea2 d9be d3ff 2ebe f98a 153e
00000090: 32b1 5fbf c3d4 62bf 68f8 68be 7473 983e
000000a0: 975c 87bd 7b44 d3be 13d6 223f 203b ad3c
000000b0: a0b9 483e a9e6 b6be eeaf b33c 1ad0 94be
000000c0: e781 643e 304d 38bd d19c 72be 4c40 eebe
000000d0: b7ef 4dbf 13d1 263e d887 ea3e b50c e4bd
000000e0: fb48 653e 73cb 003e 7f9a f83e 1e2a ebbd
000000f0: 189d 5ebd 5cac c33e d056 123f bdbb 54bd
00000100: 5cb0 403a c875 713d a061 06bd 0f09 09bf
00000110: 83a2 3dbe a557 633e 819f 23be 3874 8ebd
00000120: 43cf c03d 0383 1bbe ac27 aebe bb48 eabd
00000130: fc31 95bd 32dc 933d d28b 07be 299e 763d
00000140: 8490 373e 477c ebba 0159 21bf 22bc c63b
00000150: dde2 6bbc ae05 0cbe fe90 9bbe 067a b53d
00000160: 8aa1 d8be cb18 adbe d294 86bd a519 a3be
00000170: 94e2 203c fcbd d6be c8fc 74be d9ab 15bf
00000180: 5bb3 3e3b 8a02 debe 5a14 35be 3cf4 823e
00000190: 2fb7 633e 4b09 a8be 8f4e c7bd 845b 29be
000001a0: 50fc f9bd 6c04 38bf 905e 3d3f 0a3f eabd
000001b0: 47a8 e53e 7206 7cbe 7127 15be 80bd b9bd
000001c0: a1cb 77bd 97fa 573e 05ae 1d3f 367c a8bd
000001d0: 162e b5bd aea6 0fbd 95c7 0f3e d917 c9be
000001e0: c4b7 a43e 0283 e93e ff1a b23d 473c 88be
000001f0: 67a0 22be af47 f73e 2f7f 98be 588b 943e
00000200: e2e3 e43d 993b 833e ac74 ed3c 6bea 43bc
00000210: 1e5d 5abe 4794 153f 38d8 163e 11c1 95be
00000220: 44ec 323d 8837 80bd 4ddc 833d aca3 813e
00000230: cbcb f83c 6da7 da3d 87b6 e93d 731e 773e
00000240: 02c5 063e 80fd 00bd 2c12 9f3d 1065 b33e
00000250: 0f78 533e 0cf8 1abe 0a63 fb3d 088d 24be
00000260: 5735 f0be 075c bd3c 12b4 0bbd 4f55 c6be
00000270: 8f4d 223f 2418 723e 07d3 443e 5dbc 903d
00000280: 92d6 44bf a552 10bc 70a6 88bd e016 6f3e
00000290: de96 073e 8a87 903e 8e18 b3bd 710b bebe
000002a0: 0b48 adbd 6b8a 823d 5f34 b0be 8325 3dbe
000002b0: cfbb ce3b 898b 8abd 4cb7 ffbd 6eee 5bbd
000002c0: 8893 1e3c 9afd 18be e8e0 2c3e b33d 933d
000002d0: 48b6 6e3d b639 02bf 041d 033f 7bc8 d3be
000002e0: 953a 8ebe cfe4 203e b2cf dfbd 4c89 6ebe
000002f0: acd2 dabe 0b4b 923e 697b f5bd b309 333e
00000300: a3ad b4be 8784 2d3e c28b d6be 1c33 37be
00000310: dd3c aabe 6441 143e 9b18 66be 01b2 29be
00000320: 6614 f43d 6c0c a23e 45fa 26bf fa99 213e
00000330: 0eb2 98be 0756 cdbd 0c9c c1be 4bad c5bd
00000340: 6da8 d63d ef53 d8be 02a6 c9be a9ad fcbc
00000350: 8264 983c 89f4 d1be f510 543e 281e 16be
00000360: 1861 b6be 555b 14bf 10ba 8abd 460c 28be
00000370: 8651 c0bc d1af 0a3e 9aa5 aebe c3ea a7be
00000380: ec21 cfbe bea3 c8be f115 7b3d ef05 693e
00000390: 1480 b63d 3d84 b0be 0f74 9bbe 6b0a 3dbd
000003a0: 3800 b0bd c4d8 1abd 0742 1d3f 9dc5 c2be
000003b0: dae9 4f3f 3148 bbbe ac58 0cbe fabe 2abe
000003c0: 9912 59be 803c 573e 5b93 e33d f222 04bd
000003d0: 737f d4bd 607a b93d a99c af3e 5b4d c7be
000003e0: cd7f f23d 2810 733e a567 c83d a13e 4f3e
000003f0: a678 f63e f6bf 0e3f 06fb 03bf f7f8 853e
-0.33424246 -0.3712109 0.48694107 0.025360666 -0.25291276 -0.17724027 -0.17099811 -0.18896385
0.03525213 0.023879366 0.330643 -0.6030434 1.1237892 -0.2718984 -0.16255769 -0.3032745
-0.17652458 0.3242105 0.24848554 -0.086998 0.13171406 0.18082023 0.28828138 -0.44414198
0.1318827 0.46219432 -0.3156019 0.4668422 0.26377574 0.45433918 -1.0145338 0.12608185
-0.39678594 -0.4250664 -0.17089777 0.14603795 -0.87379754 -0.886059 -0.2275101 0.29775584
-0.06609457 -0.41263184 0.636079 0.021146357 0.1960206 -0.35722855 0.021934476 -0.2906502
0.22315179 -0.044995487 -0.23692633 -0.4653343 -0.804439 0.16290693 0.45806766 -0.11135236
0.22391121 0.1257761 0.4855537 -0.114826426 -0.054349035 0.38217437 0.57163715 -0.051936854
0.00073504983 0.058950216 -0.032807946 -0.5352945 -0.18519025 0.22201402 -0.15978815 -0.06955761
0.09414532 -0.15186696 -0.34014642 -0.114396535 -0.072849244 0.07219733 -0.13236931 0.060209427
0.17926222 -0.0017966115 -0.63026434 0.0060649076 -0.01439735 -0.13674042 -0.30384058 0.08861165
-0.42310745 -0.33807978 -0.06571354 -0.31855503 0.009819645 -0.41941822 -0.23924553 -0.58465344
0.0029098603 -0.43361312 -0.17683545 0.2557696 0.22237848 -0.3281959 -0.09731781 -0.16538817
-0.12206328 -0.7188175 0.73972416 -0.11437805 0.44854948 -0.24611834 -0.14565827 -0.090693474
-0.06049693 0.21091686 0.6159366 -0.08226816 -0.08846681 -0.035071068 0.14040978 -0.39276007
0.32171452 0.45607764 0.08696555 -0.26608488 -0.15881501 0.48296878 -0.29784533 0.2901256
0.11176278 0.25631407 0.028986298 -0.011957745 -0.21324584 0.5842938 0.14730918 -0.2924886
0.04368235 -0.06260592 0.064385034 0.25320184 0.030370614 0.10676465 0.114117675 0.24132709
0.1316109 -0.031491756 0.07767138 0.35038042 0.20651267 -0.15133685 0.122747496 -0.16069424
-0.46915695 0.023115171 -0.034107275 -0.3873696 0.63399595 0.23642021 0.19221126 0.070671774
-0.7688991 -0.0088087665 -0.066723704 0.2334857 0.13241145 0.28228408 -0.08744918 -0.37118104
-0.08461007 0.063740574 -0.34414956 -0.18471341 0.0063090096 -0.067648955 -0.12486133 -0.05369418
0.009678729 -0.14940491 0.1688267 0.071895026 0.058279306 -0.5086931 0.5121615 -0.41363892
-0.2777907 0.15712284 -0.109282866 -0.23294562 -0.42738855 0.28572878 -0.11986429 0.17484169
-0.35288724 0.16945086 -0.41903502 -0.1789059 -0.3324956 0.1447807 -0.22470324 -0.1657181
0.11917953 0.31650102 -0.6522563 0.15781394 -0.29823345 -0.10026174 -0.37814367 -0.09652194
0.104813434 -0.42251536 -0.39384466 -0.030844526 0.018602613 -0.41006878 0.20709594 -0.14659941
-0.35620952 -0.5795186 -0.0677377 -0.16410932 -0.023476373 0.13543631 -0.3411072 -0.32796296
-0.40455568 -0.39187425 0.06130022 0.2275617 0.08911148 -0.3447589 -0.30361983 -0.046152513
-0.08593792 -0.03780438 0.61428875 -0.38041392 0.81216204 -0.36578515 -0.137057 -0.16674414
-0.211985 0.21019173 0.1111209 -0.03225989 -0.103758715 0.09056544 0.3429921 -0.38926205
0.11840782 0.23736632 0.097853936 0.20238735 0.48138922 0.5576166 -0.51554906 0.26166508

graph_rnn.weight_hh_l0 f4 [192, 64]
00000000: 5fa9 44be 2919 d6bd d55f a0bc c51b 563e
00000010: 857e 693c b715 303d 1aef b13d 1b6d 84bd
00000020: c394 cbbd 967e a43d 63d8 95bd c6f9 353d
00000030: cdc9 053e 5437 33be 4300 f6bd 239e 97bd
00000040: a52a 97bd 816e afbd 86c1 153e 00b8 a5bd
00000050: 2c45 e03c 9306 d3bd c3fd d33b 0109 98be
00000060: 88a0 f83d bf4e 3d3c de64 6abe 0432 efbb
00000070: cf60 32bd d99d 423e 9035 d6bc dd1b 07be
00000080: 03f4 183a 1aa5 4bbe 2c51 023e 0e57 533d
00000090: f33a 3abe d63c bcbd 7bdd 033d 141c 2bbe
000000a0: e199 373b b547 f3bd 2238 4ebd 1c03 fa3d
000000b0: 2748 f5bd 9079 833c 3ec1 2dbd 7107 0f3e
000000c0: cdb1 22bc 736c 19be 8269 383c aed9 d6bd
000000d0: 4500 03be 9e39 143d c9eb 1dbd 47a5 a5bc
000000e0: dfc2 173e a210 69be c41a 6b3e 9998 90bc
000000f0: 9252 233e 3dc8 7dbd ae90 1439 edee 8e3d
00000100: b7de 1c3e b14f 8a3c 885b 88bc 22d8 a0bd
00000110: ba01 3abc b7b3 4abc c419 f7bd 82d1 163e
00000120: 4e46 09be 0314 1e3e fd78 9abd 796e e9bc
00000130: e210 c63d 68f4 86bd fa4e 4dbe 67cb 0bbe
00000140: 0608 1bbe 94f1 50be fa12 b33d f484 17be
00000150: 171e 293c 3ef8 c3bd f3f1 7fbd e4db 4fbe
00000160: 0805 283e 6386 fcbd 80f7 af3d 87dc 7ebe
00000170: eb9a b93d e2e8 1bbe 42cd 8e3c a9aa 853c
00000180: 5ce9 c13d 0353 74bc a55a 8f3c 56cf 2abd
00000190: 2741 013e 04e8 b0bd af93 6f3d 5456 8ebd
000001a0: 8f61 023e 80dc 9b3d 9793 95bc 1756 c03a
000001b0: c892 46be e2f2 97bc 2eb8 88bc 83ec 43bd
000001c0: 4b9a 15be 1f9c 14bd 6dca 99ba b009 083e
000001d0: 046a a33d 8bb3 3cbe 7869 223e 7798 42bd
000001e0: 1b2c 5c3d 8530 cdbc 95ab d1ba 2254 363c
000001f0: 6247 2ebe a2d2 3f3e e052 febd ed64 163e
00000200: 83d5 1cbb 5772 8c3d c7a5 853e 4fcc de3d
00000210: fbdd 173e 6f02 6bbd 747a 13be d867 21be
00000220: da4c 69be f0e6 47be 3649 e5bd b6d4 13bc
00000230: 250f 89bc d627 a43d 4dbc 2d3e 10af 763d
00000240: 6e08 98ba a1b6 103c b889 8b3d b997 ecbd
00000250: ba75 2f3e 2f1a ba3c 3f30 313e 2c71 6bbe
00000260: 66d6 27be b434 a9bd 21b3 1abd acd2 a0bd
00000270: f87c d73d a5ba b73d e549 6fbd b203 5c3e
00000280: 3ceb 343d 884d 0ebd dacd 9c3d 8990 a73e
00000290: 52c5 8abe cdf8 543e d93f 2e3e bb8b 883b
000002a0: feca ca3d f78a 063d cd34 12be 2ead b53d
000002b0: ad8a a53e c25b 0cbe 8fca d63d 2605 023e
000002c0: 2d49 8b3c 07ab f4bd 0a10 13be 3cbc 97bc
000002d0: 6164 cbbd f336 043e 006a 46be 0e81 0bbd
000002e0: 01bf 803d f996 cd3d 476a 48bd 6bee 6f3e
000002f0: 214e a93d 294b aabe 6cc6 933d 5792 9dbd
00000300: ebf0 ac3d 9eee 45bc 79e4 103e 2ae5 c2bd
00000310: 63d6 7dbd 4c49 b43d 11be 0cbe f85c 03bd
00000320: 15a3 22be 6fa9 a03e edb7 a23d 0df6 7f3d
00000330: cb78 f23d ecd6 3d3e 7de0 d2bd 5359 a6be
00000340: 280b e7bd cc1e b13c 4c58 88bd a5a6 8bbc
00000350: ca7d 1bbd e14f f1bd f929 f1bd 9ecc 96be
00000360: 9f43 0e3d d4ab 4bbd 425d 593d 5333 5bbe
00000370: f7cc 96bc b6b9 babd a215 163e b179 4bbc
00000380: 47d4 a5bc eb49 6ebd ad53 84be a4ca c2bd
00000390: fc7c c9bd 6aea 17be 81b6 7ebd 0cfd ee3c
000003a0: 326a 31be 9729 463d a518 713d 1abc 10bb
000003b0: bd9d 62be befd d23d 3228 423e 0b50 cdbc
000003c0: f359 bcbc c399 24be 031c 0f3e e29d 803b
000003d0: 0fd8 a5bd 93f2 fbbd 10ba 523e a878 913d
000003e0: 6d59 aa3c cb71 2a3e 305f 69be 21fd 883d
000003f0: a33b 35bd 5451 79bd 9943 783d 772a d13c
-0.19205235 -0.10454018 -0.019576946 0.2090903 0.014251356 0.04298946 0.08688183 -0.06466123
-0.099404834 0.08031957 -0.07316663 0.044427656 0.13065262 -0.17501575 -0.12011769 -0.07403209
-0.07381181 -0.08565999 0.14624605 -0.08091736 0.027376734 -0.10303988 0.0064694597 -0.2969437
0.12139994 0.011554419 -0.2289004 -0.0072996635 -0.043549355 0.19005527 -0.026148587 -0.13194223
0.00058347004 -0.198872 0.12726277 0.051596694 -0.1818655 -0.09191291 0.032193642 -0.1670993
0.0028015303 -0.118789114 -0.0503465 0.12207624 -0.119766526 0.016049176 -0.04242062 0.13967682
-0.009930086 -0.14982776 0.011255624 -0.10490738 -0.12793072 0.03618776 -0.03855494 -0.020220412
0.14820431 -0.22760251 0.22959429 -0.01765089 0.15949467 -0.06195854 0.00014168277 0.06979165
0.15319334 0.016883703 -0.016645208 -0.07853724 -0.011352951 -0.012371949 -0.12065461 0.14728358
-0.13405725 0.15437321 -0.07542608 -0.02849506 0.09671189 -0.065895855 -0.20049658 -0.1365181
-0.1513978 -0.20404655 0.08743854 -0.14796811 0.010322115 -0.09568833 -0.0624866 -0.20298725
0.1640817 -0.1233032 0.08592129 -0.24888812 0.090627514 -0.15225556 0.017431859 0.016316729
0.09468338 -0.01491237 0.017499277 -0.041701637 0.1262251 -0.086380035 0.05849045 -0.069500595
0.12732528 0.076104164 -0.018258853 0.0014674094 -0.1939193 -0.018548433 -0.016689386 -0.047832977
-0.1460964 -0.0362817 -0.0011733301 0.13284945 0.07979205 -0.18427865 0.15860546 -0.047508683
0.053753 -0.02504755 -0.001599657 0.011128457 -0.17019418 0.18732694 -0.12418151 0.14686938
-0.0023930974 0.06857746 0.2610304 0.108788125 0.14830773 -0.057375368 -0.14402181 -0.1576227
-0.22783223 -0.1952169 -0.111956045 -0.009022882 -0.016730854 0.080154106 0.16966362 0.060225546
-0.0011599192 0.008832605 0.06813377 -0.11552376 0.17134753 0.022717563 0.1730356 -0.2299239
-0.1639038 -0.082620054 -0.037768487 -0.078526825 0.10521883 0.089711465 -0.05842008 0.21485785
0.04416965 -0.03474191 0.076564506 0.3272746 -0.27103668 0.20798035 0.17016543 0.004167048
0.09901999 0.03284737 -0.14277954 0.08870922 0.32332364 -0.13706878 0.10487854 0.12697276
0.017002666 -0.119466834 -0.14361587 -0.018522374 -0.09931255 0.12911586 -0.19376373 -0.034058623
0.06286431 0.100385614 -0.04892948 0.23430793 0.08266855 -0.33260468 0.0721558 -0.07693928
0.08444389 -0.012080817 0.14149655 -0.09516366 -0.061972033 0.08803043 -0.1374438 -0.032071084
-0.15882523 0.31379268 0.07945237 0.06249051 0.11839446 0.18539017 -0.10296724 -0.32490024
-0.11281425 0.02162113 -0.06657466 -0.017047236 -0.03796176 -0.11782814 -0.11775584 -0.29452986
0.034732457 -0.049724415 0.053067453 -0.21406297 -0.018408282 -0.09117453 0.1465669 -0.01241915
-0.020242823 -0.058175962 -0.2584509 -0.09511307 -0.09838292 -0.14835516 -0.062185768 0.029173397
-0.17325667 0.048379507 0.058861393 -0.0022084774 -0.22130485 0.10302304 0.18960646 -0.025062582
-0.02299211 -0.1607428 0.1397553 0.003925071 -0.080978505 -0.12302127 0.2057879 0.071030915
0.020794595 0.16644971 -0.22790217 0.066889055 -0.044246327 -0.060868576 0.06061134 0.025532944

graph_rnn.bias_ih_l0 f4 [192]
00000000: 0ebb 18be 72f5 0abd f58e 153d 028f 82bd
00000010: 1ccb 853e d550 eabd fe20 8abb 8416 2abe
00000020: 002e fc3c f107 89bd 75fa b4bd c2cd 6fbd
00000030: 81af 06be 22bb b43b c38c b1bc 6832 d43b
00000040: 8485 1e3e 80c3 963d 1869 48be bb30 b9bd
00000050: f2de ce3d 26d6 823d d411 933d 49f6 a8bd
00000060: 2217 0bbd 33f2 b93d 6d8d 2e3c 7229 cdbd
00000070: cf64 16be 9a9f ddbd 996f 1abe 9221 cebc
00000080: 8d2a a6bd 1fe2 d1bd 74e7 b6bd 3edc c53d
00000090: 63e8 b03c 46b1 bf3d d299 543e b402 9c3b
000000a0: 96da 023d 9c48 573c cdae 9e3d 8af3 93be
000000b0: fb53 8d3d 2abe f4bd 311e efbc 1a77 22be
000000c0: 7200 203c 1c95 65bd c550 cfbc d90b 7bbd
000000d0: af3d c1bd 9916 443c c584 c0bd 17d6 2cbd
000000e0: 683a 6cbd 1962 613d 12f6 903c 87e7 463e
000000f0: 4af4 623d 471b 50be 011b e43d 1a17 4e3e
00000100: f12c 20be 6bd5 0fbe 4d63 e4bd e2a7 21be
00000110: 4f62 13bd 3373 b63d 471c afbd 38fd 6bbe
00000120: dfd9 0bbd 673f 8fbe 20b4 09be 070d 89be
00000130: 5b4b c6bd b20d 91bc 1113 bdbd c52a 6fbe
00000140: 38be a7bd cbb7 1bbe 77ae 56bd 2b08 65bd
00000150: f37b 14be bede d33a 0e6f 14bc 1b68 05be
00000160: b047 5abd 9a2d 3bbe 0735 80bd 45f6 d1ba
00000170: 090c 7cbe 7d24 74be 327c 29be 890e 3dbe
00000180: 0576 f4bd 8b58 40bd f129 38be 4254 40be
00000190: 1fd0 86bd 9990 4ebe 1d4e 8bbc f48c 0cbe
000001a0: 403f ad3a 6d5d 47be e4a7 2dbe fe06 1abe
000001b0: 10a9 e0bd ddb1 b03d 3272 fdbd e38f 9dbd
000001c0: 4541 bdbd 2557 00be 08ff c3bc fc54 83be
000001d0: a9d3 fd3b 9692 47be 7b0a d8be 59e3 e2bd
000001e0: 61fb 8ebe a687 c6bd bbea 58be 580e febd
000001f0: 9d46 36be 9eea 1abd 1683 8ebe caad 6ebd
00000200: 0a0c 4c3e 60db fabd 7d0e 133e a746 c0bd
00000210: ec2b ce3d 9f4f c7bd fef1 46bd 56b9 f23d
00000220: d5f8 af3d f98e 61be a7c3 f5bd be8d 583c
00000230: 7f49 d93d 5509 253e 52c5 acbc 34a6 25be
00000240: 166a 9abe d136 433e 74d6 6b3d 7965 bebd
00000250: 4adf c73d 4206 8ebd c987 153e be23 bd3d
00000260: d40f 213e 9eb6 4abc 8fbf bd3d c8c5 09be
00000270: b40a 7e3e 5c66 f4bd 4348 06be f69c 793e
00000280: 93b8 8cbc c730 073d b336 e73d 4a02 643e
00000290: 853d 36be 5ec1 acbc 4987 003e 6ead cf3c
000002a0: 3d4a fabd 7d27 073c 9668 01be 5bab 40be
000002b0: af2d 483e dd9f 8ebd 679f e4bc 723e 02bc
000002c0: 9e2d 83be 2d77 e9bd f718 a63d 88a3 fabd
000002d0: de06 8d3d e203 433e 2da4 71be e894 94bc
000002e0: 1365 14be afd5 1bbd 362e 923d 60d4 323e
000002f0: 011d 0d3e 85b2 0ebb 854c cb3c 7fd0 5fbe
-0.14915106 -0.03392548 0.036513288 -0.06374933 0.26131523 -0.11441199 -0.0042153588 -0.16610152
0.030783653 -0.06690968 -0.088368334 -0.058545835 -0.13152887 0.005515472 -0.021673566 0.0064757355
0.1548062 0.073615074 -0.1957134 -0.09042498 0.10101117 0.06388502 0.07181135 -0.082501
-0.033957608 0.09079399 0.010653836 -0.10017671 -0.14686893 -0.10821457 -0.15081634 -0.025162492
-0.08113585 -0.10248207 -0.08930865 0.096611485 0.021595186 0.09359984 0.20761803 0.0047610644
0.03194674 0.01313987 0.07748184 -0.28896743 0.06900784 -0.119503334 -0.029189201 -0.15865746
0.009765731 -0.056050405 -0.025307069 -0.061290596 -0.09435593 0.011968278 -0.09400324 -0.04219636
-0.057672888 0.055025194 0.01769546 0.19424258 0.055408753 -0.20322905 0.11137963 0.20126
-0.15642144 -0.14046256 -0.111517526 -0.15786698 -0.035982426 0.08908691 -0.08550315 -0.23045814
-0.034143325 -0.2797806 -0.13447618 -0.26767752 -0.09682342 -0.017706726 -0.09232152 -0.23356159
-0.08190578 -0.1520683 -0.052412476 -0.055915993 -0.14500408 0.0016164405 -0.009059681 -0.13027994
-0.053291023 -0.18279114 -0.06260114 -0.0016018829 -0.24613966 -0.23842044 -0.16551283 -0.18462576
-0.11936573 -0.04695944 -0.1798475 -0.18782142 -0.06582665 -0.20172347 -0.01700502 -0.13725644
0.0013217703 -0.19469233 -0.16958576 -0.1504173 -0.10969746 0.08627675 -0.12375297 -0.0769346
-0.09240965 -0.12533243 -0.02392532 -0.25650775 0.007746179 -0.19489512 -0.42195496 -0.110785194
-0.27926162 -0.09693842 -0.21183293 -0.124050796 -0.17800374 -0.037821405 -0.27834386 -0.058271207
0.19926468 -0.12248874 0.14360996 -0.09388476 0.10066971 -0.097319834 -0.048570625 0.11851756
0.08592383 -0.22027196 -0.12000208 0.013217388 0.106097214 0.16116841 -0.021090183 -0.16176683
-0.30159062 0.1906388 0.057577565 -0.09296698 0.09759386 -0.06934787 0.14602579 0.09235333
0.15728694 -0.012372641 0.092650525 -0.13454354 0.2480877 -0.11933586 -0.13113503 0.24376282
-0.017177856 0.033005502 0.1128973 0.22266498 -0.17796905 -0.021088298 0.12551607 0.025351252
-0.12221191 0.008249161 -0.12637553 -0.18815367 0.19548677 -0.06964085 -0.02790804 -0.007949458
-0.2562074 -0.11399684 0.081102304 -0.12238222 0.068860754 0.1904445 -0.23597784 -0.01813741
-0.14491682 -0.03804558 0.0713772 0.17463827 0.13780595 -0.0021773886 0.02481676 -0.21856879

graph_rnn.bias_hh_l0 f4 [192]
00000000: a7e5 e1bd 65fb fabd 9987 723c 3510 96bd
00000010: 67ba a23e eda1 cf3d 3ca8 053d 3d96 38bd
00000020: 3dd2 063e 9b84 cfbd 01d6 93bd 9206 8c3d
00000030: 7b2d bbbd 35f1 4a3d 2386 02bd 8642 17be
00000040: e7c3 be3d b8f3 c1bc 6501 cbbc b907 4ebd
00000050: c369 713d 46b8 6dbc 0247 9d3d c13b 61bd
00000060: 20d6 51bd bdd6 b13d 3a38 613d f27c 4f3b
00000070: 8519 05bc def1 1abe ed00 04be 5bbd 0e3b
00000080: f93a 02bd abf9 4dbd 05c9 373d e729 32bd
00000090: 7666 193e 1e42 1a3e 28f8 a13e e699 593d
000000a0: 8bb5 63bd 19b2 d63d 5fce 33bd 2298 78be
000000b0: 0d0f 7dbb 908c b63d 0697 58bd 5f14 95bd
000000c0: 07e1 7e3e 809d 2f3e 58f1 97bd 9e59 ecbd
000000d0: 95a3 2bbe 3f27 e5bd 9df1 93be c728 693d
000000e0: 4cf0 36be cc82 3e3d aeeb 70bd e3a0 323e
000000f0: d9cc 84bd 4b9d 65be 997f 59bd 22ae 7c3e
00000100: 0e8e 7c3d 4a2f 17be 9922 80be e4a4 c2bd
00000110: fae7 29be b54c bdbd 5b99 2abd 74c5 0dbe
00000120: 1e63 4cbd 36ff 70be 8d76 7dbe 8d69 8ebe
00000130: 9e0d 2dbd 742d f3bc 734d 5cbd 303d 02be
00000140: 8a0a 6abd b650 68be 70a8 aabd aeee 41be
00000150: 51f5 1bbe 3b1d ed3c d182 16be 2e10 08be
00000160: 823d 1fbe 4972 adbd d1b0 6e3c f1a8 72bd
00000170: 452f 7ebd a174 3bbe 5b73 11be 85b4 6bbe
00000180: c0df 3dbe 3a04 62bd 3d80 d8be 9983 a5bd
00000190: edd3 883b d7c8 0dbd c7cc 23bd a2c5 6a3b
000001a0: 737a 3abc 55e2 a1bd bfd5 ecbd e1e8 bbbe
000001b0: f182 41be fbea 4fbd 29d3 6dbd b800 e0bd
000001c0: 147d 0abe 9a84 e93c e126 c5bd 45a6 a7be
000001d0: 4580 493d c75c 52be 524f e3be 0caf b7bd
000001e0: fde9 9cbe 4997 693b 9b14 cfbd cbab adbd
000001f0: 71ff cbbd e5d0 80bc 0007 98be 08ea 2abe
00000200: 2025 6f3d 06ba 97be fd65 0b3e 78bd 0dbe
00000210: 037c 643e 4600 39bd 4322 4e3d 11ff bc3c
00000220: e21b e93c d3e0 37be 18d9 97be 9246 b6bd
00000230: a548 56bb 3b50 503e 725b 31be 6060 29bd
00000240: 542a 73be 65ea 473e 61ec 8b3d bf53 fdbd
00000250: 5079 803e 9994 5c3e 8ecb 74bb 979a 8a3d
00000260: 94d2 a43d 491d 2e3c f6bb 863c b385 adbd
00000270: f3cf 63bc 4d86 00be eb0c e33d 4135 643e
00000280: 535f 403d dae8 ebbd 9b93 0d3e 26d9 0b3e
00000290: f011 05bc 2175 8c3d 0281 063e 267e 11be
000002a0: 53b2 c0bd 1704 1f3c c877 0cbe 5ba9 61be
000002b0: 3d6f 603e 2215 1fbe 48b7 2fbd dbc6 3a3e
000002c0: 3cb7 bebd 77fc 7d3d 4b5d 423e 4bf4 873d
000002d0: e4b5 f6bd d13d 5d3e 5ab6 14be 3672 783d
000002e0: 4ecb aabd 562a 753c a74c 893d ac41 853e
000002f0: 7373 7e3d 4682 cfbc 5b68 3d3e 63e4 84be
-0.11030131 -0.12254981 0.014802837 -0.0732731 0.3178284 0.10138307 0.032631144 -0.045065153
0.13166137 -0.10132714 -0.072185524 0.06837191 -0.09139534 0.04954644 -0.031866204 -0.1477147
0.09314709 -0.023675784 -0.024780938 -0.050300334 0.058938753 -0.014509266 0.07679559 -0.054988626
-0.051229596 0.08683536 0.054985262 0.0031660167 -0.00812376 -0.15131328 -0.12890978 0.0021780345
-0.031794522 -0.05028693 0.04486944 -0.043496992 0.14980492 0.15064284 0.3163464 0.053125285
-0.055593055 0.10483188 -0.043897983 -0.24276784 -0.0038613707 0.08913529 -0.052878402 -0.07279276
0.24890529 0.17149925 -0.074190795 -0.115405306 -0.1676162 -0.11189126 -0.28895274 0.056923654
-0.17865103 0.046511456 -0.05881851 0.17444186 -0.06484384 -0.22423284 -0.053100202 0.24675801
0.06165891 -0.14764133 -0.25026396 -0.09504107 -0.16592398 -0.09243146 -0.041650157 -0.13844854
-0.049899213 -0.23534855 -0.24752255 -0.27814904 -0.042249314 -0.02968476 -0.0537848 -0.12718654
-0.057138957 -0.22687039 -0.08332908 -0.18938705 -0.152303 0.028944602 -0.1469834 -0.13287422
-0.15550807 -0.08469064 0.0145685235 -0.059243146 -0.0620568 -0.18306209 -0.14204161 -0.23018081
-0.18542385 -0.055179812 -0.42285338 -0.08081741 0.004175654 -0.034615364 -0.039990213 0.0035823365
-0.011381733 -0.079044975 -0.11564206 -0.3670111 -0.18897606 -0.050761204 -0.058062706 -0.10937637
-0.13524276 0.028505612 -0.09626556 -0.3274404 0.049194593 -0.20543204 -0.44396454 -0.089689344
-0.3064727 0.0035643151 -0.10111352 -0.084800325 -0.09960831 -0.015724609 -0.2969284 -0.16690838
0.058385015 -0.29634112 0.13613124 -0.13841808 0.22312932 -0.045166276 0.050325643 0.023070844
0.028455678 -0.17956857 -0.29657817 -0.08900179 -0.0032697108 0.20343105 -0.1732004 -0.041351676
-0.23746616 0.19523008 0.06832195 -0.12369489 0.25092554 0.2154106 -0.0037352773 0.06767767
0.08047977 0.010627099 0.016447049 -0.08472767 -0.013904559 -0.12551232 0.11086448 0.2228594
0.04696591 -0.11519022 0.13825838 0.13657054 -0.008121952 0.06858278 0.1313515 -0.14208278
-0.09409013 0.009705565 -0.13717568 -0.2203726 0.21917434 -0.15535405 -0.0428994 0.1823992
-0.09312293 0.062008347 0.18980901 0.06638392 -0.12046412 0.21605612 -0.14522687 0.060655795
-0.083395585 0.014963707 0.067040734 0.26026666 0.06212182 -0.025330674 0.1849684 -0.25955495

graph_rnn.weight_ih_l1 f4 [192, 64]
00000000: 82be 763d 2576 9d3d d32d bebe 714f 7abe
00000010: 77c7 5fbc 3d49 dfbc d65e f53d 865e aebd
00000020: f4df 84bd 48d8 963e 8b6c 54bc 9c4b e7bd
00000030: 0adb f2be 6c82 3fbe 9af7 a83d aa9e 09bd
00000040: 3f9d 993d 9926 903d e061 4c3e f756 86be
00000050: 525e 19be eb38 61be 5ba7 d9bd f0a3 6ebd
00000060: 1d76 873e 7b83 35be d230 40bc 9ae5 dcbc
00000070: 5363 1f3e 086d 563e 4e6f 06bd cd83 813e
00000080: ca35 a0bd 7490 993e 784b 14be d71d 6abe
00000090: 61d1 bbbd b855 80be 568e 5ebe 7535 573e
000000a0: ca9b 33be ec61 08be 2401 ec3d 7e79 d33d
000000b0: 338a 3ebd c280 13be 845a e7bd d5a1 973c
000000c0: 7768 ae3d 4cc3 17be 11e1 833e b946 88bd
000000d0: a128 52be 83ae 29be 415e 7cbe f52e 9ebd
000000e0: 23c0 24bc 7ccb 5bbd 2988 1f3e 74ff 253e
000000f0: c129 173e 9f2f c33c 6c3b 13be a9eb 84bd
00000100: 8ec0 c33c b895 a2be d80e 3abe 6815 5cbd
00000110: 600d 93be 1b0d 1f3e d260 763e d35c 42be
00000120: 9c2d 753e 85ec 0bbe 93ed 983d fce6 be3e
00000130: 5813 81be 687e 48be 6974 553e f010 973e
00000140: 7bb4 b03e a138 533e 1e6d 913d 1771 87be
00000150: 249b afbd 8173 56be b0c4 54bc d541 b1bd
00000160: 7858 29be d4b9 53bd 2235 edbe 02f1 1a3e
00000170: d19d 9b3e 1dbb b83c 1c1e 9ebe 4c39 e03e
00000180: f0e0 9dbb 5443 50be 4132 70bd ea6e 31be
00000190: d708 6fbe 5de8 97bd 4bb8 d63b 2347 a03c
000001a0: 3845 a83d 178f 31bf 895a f83e f9ca 36be
000001b0: 59f2 60be ed1a b23d 7e63 91be aa64 be3e
000001c0: c517 b53e ed49 80be a32e cb3d 079a 90bd
000001d0: e4b2 47be 6f2a a5bd cf2e c9be 1570 4b3e
000001e0: ee6f 363d 0594 acbc 8b24 073f 102a d7bd
000001f0: 8411 f33e 09d6 04be df92 263e 361e 2c3e
00000200: 486c 4b3e 55ef 733f d3a8 33bf 4c8a b83e
00000210: 7c89 923e 1377 f13d 8948 803e 2b79 a93c
00000220: c2bd 863e bb08 18be 3d10 ad3d 972d d7bd
00000230: 3a32 9a3d eda1 fcbe 3859 e9bd bd7c 0cbe
00000240: a98a d73d 318e 67be 0ed3 093e c5fa f83d
00000250: 519a b63c 1582 76be d82e ebbc 51ef 86be
00000260: 5207 0cbe 621b 8cbe 2f13 d1be 2958 873e
00000270: 4875 103e f976 25bf b115 5fbe 2096 07bc
00000280: eb68 bd3d 528a e83d 32ea 95be 2e4d 9bbd
00000290: ac03 ae3d 4490 c03c 5468 ec3d 2b6c 183e
000002a0: 2dea 163e 2e42 b93e 9b50 2b3d d96e 89be
000002b0: a2e8 f4be 1f97 8f3d d431 373c 2454 e3be
000002c0: 01d6 e93e abb5 e4b9 51e5 aabd 018e 6e3e
000002d0: a905 9a3d 7d84 ea3c 7510 9f3c c01e ed3e
000002e0: 44d7 003e d532 0a3f 0796 b1be 4fa0 8ebd
000002f0: c58b 99be eeac 4e3f 8443 10be ccfa f43d
00000300: 1f97 463d 50f7 d23e 61d2 96be b446 92bd
00000310: eb37 713e 355e 24be 0923 1e3e 07ac 0c3e
00000320: 663d d93d cce7 b0be 9dcc a6be 8d2d cd3b
00000330: 4f2f cebd b8cc 083e d723 dd3e 0c6b d6bd
00000340: 539c 0cbe 3038 ad3e 2245 013e 54be a2bd
00000350: a18e 0b3f 5718 563d f007 bfbc deac aebd
00000360: 3786 823c fccb 763b 2575 113d 8eaf 203e
00000370: 130c 81bd 577c a3be 0728 fb3d 31fc 9ebd
00000380: d836 0dbe 5eca b3bd b95a 623e d6f1 2a3e
00000390: f824 d4bd dc26 bf3e 4b60 3d3e 6088 d53d
000003a0: 218c 383e 6563 133f 8ae1 30be c9c9 c5bd
000003b0: d75d 9d3d be89 373d 73f7 823d d1b2 4fbe
000003c0: f3d7 673d 3f56 1f3e 3725 063e 298b 88bd
000003d0: 1dfd ac3e 27c1 0f3e f1db d43e 9888 893e
000003e0: 8ef3 b7bd 1d7d 83bc ea5a 8ebd c070 923c
000003f0: 9b71 91be 2ad8 7cbd 5441 46be fdc0 47bd
0.060240276 0.0768855 -0.37144336 -0.24444367 -0.013658396 -0.027256602 0.11980979 -0.08514123
-0.06488028 0.29461884 -0.012965332 -0.11293718 -0.4743274 -0.18702096 0.08250351 -0.03359858
0.075006954 0.07038612 0.19959211 -0.26238224 -0.14977387 -0.21994369 -0.10627624 -0.05826181
0.264573 -0.17725937 -0.01173039 -0.026964951 0.15565233 0.2094003 -0.032820992 0.2529587
-0.078227594 0.2999302 -0.14481914 -0.22862945 -0.09170795 -0.25065398 -0.21733984 0.21016486
-0.17539898 -0.13318604 0.11523655 0.10325907 -0.046518516 -0.14404586 -0.11296561 0.018509785
0.08516019 -0.14820594 0.2575765 -0.06654114 -0.20523311 -0.16570477 -0.2464533 -0.077238
-0.010055575 -0.053660855 0.15579285 0.16210729 0.14762022 0.023826418 -0.14378136 -0.06490261
0.023895528 -0.3175485 -0.18169725 -0.053731352 -0.28721142 0.15532343 0.24060372 -0.18980722
0.2394318 -0.13664444 0.07467189 0.37285602 -0.2521007 -0.1957947 0.20845188 0.2950511
0.34512696 0.20627071 0.071008906 -0.26453468 -0.085745126 -0.20942499 -0.012986347 -0.086551346
-0.16537654 -0.05169089 -0.463296 0.15131 0.30393842 0.02255016 -0.30882347 0.43793714
-0.0048180744 -0.20338184 -0.058641676 -0.17327467 -0.23343216 -0.07417367 0.006552731 0.01956517
0.082163274 -0.6935896 0.48506573 -0.17850865 -0.21967448 0.08696542 -0.2839622 0.37186176
0.35369697 -0.250564 0.099210046 -0.070606284 -0.19501835 -0.08064734 -0.39293525 0.19866975
0.04454034 -0.021066675 0.52790135 -0.1050607 0.474743 -0.12972273 0.16266964 0.168084
0.19865525 0.95287067 -0.7017948 0.36043012 0.28620517 0.1179029 0.2505534 0.02068766
0.2631665 -0.1484708 0.08450363 -0.105067424 0.07529111 -0.4934229 -0.1139397 -0.13719459
0.10524494 -0.22612835 0.13459417 0.121572055 0.02229038 -0.2407306 -0.02870886 -0.2635446
-0.13674667 -0.2736464 -0.40834948 0.26434448 0.14107239 -0.6463466 -0.21785618 -0.008275539
0.09248527 0.113545075 -0.2928024 -0.0758308 0.08496794 0.023506291 0.115433365 0.14885013
0.14737768 0.36183304 0.04182492 -0.26842383 -0.47833735 0.07011246 0.011181314 -0.44400132
0.45671085 -0.00043622902 -0.0834452 0.23296358 0.07520611 0.028627628 0.019417027 0.46312523
0.12582117 0.53983814 -0.34684774 -0.0696417 -0.29989448 0.8073262 -0.14088255 0.11961898
0.048483964 0.4120431 -0.2945738 -0.07142392 0.23556487 -0.16051562 0.15443052 0.13737498
0.10607414 -0.34551847 -0.32577983 0.0062615336 -0.10067617 0.13359344 0.43191406 -0.10469636
-0.13731508 0.3383193 0.12624028 -0.079464585 0.5451451 0.052269306 -0.023319215 -0.085290655
0.01593314 0.0037658205 0.03551211 0.15691969 -0.06301131 -0.319308 0.12263494 -0.077629454
-0.13790452 -0.08778833 0.2210492 0.16693816 -0.10358614 0.37334335 0.18493764 0.10426402
0.18022205 0.5757354 -0.17273536 -0.09657628 0.07683914 0.044809096 0.063948534 -0.20283057
0.05660243 0.15560244 0.13100134 -0.06667168 0.3378686 0.14038526 0.41574052 0.26862025
-0.08982001 -0.01605087 -0.06950934 0.017876029 -0.28406987 -0.061729588 -0.19360858 -0.048768032

graph_rnn.weight_hh_l1 f4 [192, 64]
00000000: 4986 e23d f057 c9bc d9f1 06be 4285 b8bc
00000010: 3894 1f3e ca72 fcbd 71de fe3d f950 60be
00000020: a78f 18be 825f 923d 71b8 eb3d 3617 b0bd
00000030: 8dce 35be 37c5 05bd c438 cdbd 5b16 18be
00000040: 2932 f5bd c128 04be b3ed edbd 7068 27be
00000050: 2c91 b6bd 9769 a1bc 92f2 3e3e 609d 273d
00000060: daa4 983e 8e58 643d d511 2ebd 0f78 4d3e
00000070: 72ef 283d f337 3cbe ac70 ee3d c29f 0e3e
00000080: 979f 59be c74d f73d 31fc 403d 6f2d 8e3d
00000090: ee49 1ebf 070e 1bbe a7d7 67bd 6a90 c53d
000000a0: 8e8c 513d 61ba a6be 2bd6 ae3e 6195 66be
000000b0: 674b 4ebe f425 af3d 75fc a23c 5be0 dcbc
000000c0: e4d9 4e3e 5e9f 973d 24af 93be 6ad6 b63d
000000d0: 41b5 443d 1f8b a9bd 7a85 92bd 3781 adbc
000000e0: 36f4 9abe d336 933e fe6e fcba 5c42 953e
000000f0: ee11 6bbe 06fe 613e c6ce 9a3e 9321 9e3e
00000100: 6b2c fbbe c324 99bd 18c2 fa3d 50ab 813d
00000110: d443 1b3c 175e b53d 2fde 683e e1ac 923a
00000120: 06b2 d2bd f71d 85be f521 443d 4e9c 693c
00000130: 69cf e33d 6a1e e9bd a523 c83d e465 643b
00000140: d9d8 01be aa60 61be a011 09be f715 7fbd
00000150: 77e9 eabb 3db2 a4be 3027 9d3e 864d c03d
00000160: 94aa 0e3d 9451 2abe 955b 3cbe 2b0b 6cbd
00000170: 547b b4bb 976b ca3e cf0e 863d dea9 373e
00000180: 0494 0cbe 451d 1d3d 28d4 45bd 677d 5ebd
00000190: 2596 d63e aa11 0c3e 9c88 1dbe db00 0cbe
000001a0: 7400 903e 4aa5 0f3f 1503 813e 81a9 fbbd
000001b0: c668 38be 4db4 a13d 383b 10be 168d 0d3c
000001c0: 212f 13be bc11 c23c 6975 a4bd 97de f43c
000001d0: b5e7 52bd a18e 393e 3863 9b3e b1d4 cb3e
000001e0: 4294 3bbc 9ff1 af3e 19f3 7c3d 017c f63e
000001f0: fe7e 903b 49c6 b4bb 76ac 533e 9e86 debd
00000200: 2594 ba3d d9bf debc d4c5 88bc cfbf 8f3e
00000210: 3df1 2abd 5282 c53c f496 36bd 553c 253e
00000220: 1cbd 69bd 1cd9 653e bd86 bfbe d91b 803e
00000230: 0af7 833e 347d a4be 676e 503e 9382 c1bd
00000240: ef2f 973e 0010 ed3d 8f94 ea3d e3c0 b03d
00000250: b52a 0cbd c27d af3d 3048 b4be cdbc 9cbe
00000260: f9d7 323e 502f 613e 8941 453b 4f5f 123d
00000270: 58bc 863d 2069 d23d 1f1b 6b3e 07aa e93d
00000280: c360 963d 11ae 76be 826c 90bd e0a9 f73d
00000290: 96b0 b73e 80a9 663a 4b2a a53e 3b7c 893c
000002a0: 8ed1 81be 37b9 9bbd 4dcf bdbe b9b2 d2bc
000002b0: 51e5 2e3e 813f 06be 47ae 343e 51fe a8bd
000002c0: b2b9 e7be a96c 75be 7b8e 883e e705 95be
000002d0: c8ef 96be 5490 333d e4c6 87be 0d2e 94be
000002e0: 56be ef3e 463f 10be 083d 0f3e 03f4 3ebd
000002f0: b54f 713e 76e5 e1bd 2598 48bd 6eeb 403e
00000300: a338 d43d dbc5 e6bc f382 093e f1cb 59be
00000310: 2961 2dbe a1b7 8dbd 2502 873e f7da fe3d
00000320: 1a18 bf3e 905c e03d 3704 5b3d 3163 d6bd
00000330: 85d4 febd 5c58 9ebd 1627 fcbd 6a7d 753d
00000340: d997 9c3d 72ee 2b3d b2f8 0fbe 2f84 08bf
00000350: c55e 28be 84eb 15bd db77 0dbe c78a f4bc
00000360: 73ff a73d cc50 233e e2fd a0be f772 fabe
00000370: f6a6 24be d29d 3fbe b7ca 6e3e 4a02 3abe
00000380: 9ea8 16bd 2e12 2cbd f7d5 2f3e e3cc 8abd
00000390: 8477 8d3d 5098 0f3d 932d babd 1de1 893c
000003a0: ae8e a0bd 8791 93be 09b0 503d 7695 a43e
000003b0: 61b1 b73e ccc2 9bbd 2a12 d6bd 78a6 3cbd
000003c0: 0d10 07be 3ea4 a63d 383d c5bd 967e 9c3d
000003d0: a95b 163e ad38 0fbe 5366 953d d742 1ebe
000003e0: d459 9d3d c4cf 143c 604c 27bf 1848 f23c
000003f0: 1160 003e 6b30 2fbd c923 3e3e f050 303e
0.11060769 -0.024578065 -0.13178195 -0.02252448 0.15583885 -0.12326582 0.12444771 -0.21905889
-0.14898549 0.07147123 0.11509789 -0.08598177 -0.17754574 -0.03265878 -0.10020593 -0.14852278
-0.11972458 -0.12906171 -0.11617603 -0.16348433 -0.08914408 -0.01970367 0.1864722 0.04092157
0.29813272 0.055748515 -0.042497475 0.2006533 0.041243978 -0.18380718 0.11642584 0.1392813
-0.21252285 0.12075382 0.04711551 0.069422595 -0.6183156 -0.1514207 -0.056602146 0.096466854
0.051159434 -0.3256407 0.34147772 -0.22517921 -0.20145951 0.08552161 0.019895772 -0.02696245
0.20200306 0.07403444 -0.2884456 0.08927615 0.04802442 -0.08278488 -0.07154365 -0.021179779
-0.30264443 0.28752765 -0.0019259152 0.2915219 -0.22956058 0.22069559 0.3023588 0.3088499
-0.49057326 -0.07477715 0.12244052 0.063315034 0.009476621 0.08855837 0.22741006 0.0011190438
-0.102878615 -0.25999424 0.047883946 0.014258457 0.11123545 -0.11382754 0.09772424 0.003485077
-0.12680377 -0.2200953 -0.1338563 -0.062276807 -0.0071689445 -0.32167235 0.3069396 0.093897864
0.034830645 -0.16632682 -0.18394311 -0.057627838 -0.005507866 0.3953521 0.06545793 0.17935893
-0.13728338 0.03835799 -0.04829803 -0.05431881 0.41911426 0.13678613 -0.15384144 -0.13672201
0.28125346 0.56111586 0.25197664 -0.1228819 -0.18008718 0.07895718 -0.1408509 0.008639595
-0.14373447 0.023690097 -0.08030207 0.029891295 -0.051490504 0.18120815 0.30349135 0.39810708
-0.011448922 0.3436403 0.061755273 0.48141482 0.00440967 -0.0055168015 0.20671257 -0.1086552
0.091102876 -0.02719109 -0.016695894 0.28076026 -0.04173397 0.024109993 -0.044577554 0.16136296
-0.057065114 0.22446102 -0.37407485 0.25021246 0.25774413 -0.32126772 0.20354615 -0.09448733
0.29528758 0.115753174 0.114541166 0.0863054 -0.034220416 0.08568908 -0.35211325 -0.30612794
0.174652 0.21990705 0.0030098876 0.035735425 0.065788925 0.10273957 0.22959565 0.11409383
0.073426746 -0.24089839 -0.07051946 0.12092948 0.35876912 0.0008799061 0.3225883 0.01678287
-0.2535519 -0.07603686 -0.3707222 -0.025719987 0.17079665 -0.13110162 0.17644607 -0.08251632
-0.45258862 -0.23967232 0.26671204 -0.29106066 -0.29479814 0.043838814 -0.2651893 -0.28941384
0.46824902 -0.14086637 0.13988125 -0.046619426 0.23565562 -0.11030094 -0.04897322 0.1883981
0.10362365 -0.028170517 0.1342886 -0.21269204 -0.16931595 -0.0691979 0.26368824 0.12444108
0.37323076 0.10955155 0.053470816 -0.10468138 -0.12442879 -0.07731697 -0.123121426 0.059934057
0.0764615 0.041975446 -0.14059713 -0.53326696 -0.16442402 -0.03660156 -0.13815252 -0.02985133
0.0820302 0.1594879 -0.31443697 -0.48915836 -0.16079316 -0.18712547 0.23319517 -0.18164936
-0.0367819 -0.042009525 0.17171465 -0.0677736 0.069075614 0.035057366 -0.09090724 0.016830975
-0.07839714 -0.28821966 0.05094913 0.3214528 0.35877517 -0.07605514 -0.10452683 -0.046057194
-0.13189717 0.081367955 -0.09630817 0.07641332 0.14683403 -0.13986464 0.072949074 -0.15455185
0.07683149 0.009082738 -0.65350914 0.029575393 0.12536646 -0.042770784 0.18568338 0.17218375

graph_rnn.bias_ih_l1 f4 [192]
00000000: b029 c63d b309 043d 631f cfbd 93e1 68bd
00000010: 319c 8abe 1eef 653c 1b12 6c3d 6dd1 2bbe
00000020: 084f 8f3e c1b7 00be 3337 0cbe 4c5c 7abe
00000030: 0938 a1bc 4ef2 3a3e 3026 45be 6d5d bc3c
00000040: 764f e5bd e9f8 90bc 0de8 23be 5258 e63d
00000050: 6e9b 0f3d 337c c5bd 967f 88bc f914 61bd
00000060: af50 b6bb 3511 56be 1281 4a3d da80 123e
00000070: fce6 ca3d 9ad4 f33d 2fdf b33e fbdc 833e
00000080: fd21 36be 30ad bf3d a7aa 923e 908d 28bd
00000090: c88b e13c b6b0 81be c3b6 2c3e be18 f13d
000000a0: 485e acbc 5acc c93d 9c69 ab3d 2261 423e
000000b0: 4fbf 4dbc 1963 c8bd 44e1 74bd 3243 a63d
000000c0: c23c debd d5d1 573d ecd4 a93d 1243 703e
000000d0: 6163 3a3e ff57 a23d e6ce 4abe 1086 a23e
000000e0: fab6 993d e74f 803d a556 f1bd c449 c03c
000000f0: 311f cfbd c91c 963d f8cd 19bd 11d6 e6bd
00000100: 57f1 c9be 09f2 9cbe e6f7 f8bd be13 19bc
00000110: 05ad 51be 1a6f 8dbe 16ad 833d 5829 03be
00000120: 459e e6bd eca8 51bd 58da 0b3e 6fdb 8ebd
00000130: 111b a83d 8383 18be 79c9 dfbd ffe7 29be
00000140: 21bd 02be 7de1 bfbd fdd9 b4be a886 bbbd
00000150: 4b9b 72be fa8d b2be 8539 a9bd d291 31be
00000160: 69ae 25be aec1 95be 278c 01be ec1e e7bd
00000170: aad1 66be 8d7a 4fbe af4e a9be bbe7 88be
00000180: b74f 8bbe f0cb c5be a121 23be 44de afbd
00000190: b8d8 68be ec4b 82be 5138 da3d f17e bbbe
000001a0: e023 c7bc 80f1 b5ba 91b1 64be a039 88be
000001b0: 20e5 f0bd d426 ed3d a129 cf3c 1938 a13b
000001c0: f9bc c5bd f692 34bd f993 2fbe a6ec c4bd
000001d0: 6e9a c03b b6f9 16be b176 493e e761 953d
000001e0: d926 65be f8d6 d7bd 344e 933d 9425 61be
000001f0: 2cc9 87be fcda 9d3c b1b9 03bf 7cbe 9a3d
00000200: bb95 483e 0893 85be 305f 42be d300 02be
00000210: 0c65 343e db6a e83d ac85 24be 69aa 85bd
00000220: f17a 883e c01f 03be 772a 73be ad2f 7abd
00000230: 8e1a 1c3c 126d 403e 6e88 d3bd cd33 8d3e
00000240: 23f8 c2bc 7da6 73bd 0af0 0b3e bcd8 403c
00000250: 589b 3e3d 49c3 ccbd 7b34 0cbc 4db4 613d
00000260: 49dc 84be e814 7ebe 09fd ba3d 654c 83be
00000270: 95c2 ccbd e1bf 2a3e cfbf 16be f405 d4be
00000280: ffa1 dabd 1d78 5e3e f217 72be 0cd6 89bd
00000290: 1375 bb3d ba3b 2bbe 81ea c4bc 3ff8 2a3e
000002a0: be40 d43d 91ac cf3d 28a8 5f3e 32cc aa3d
000002b0: 038e 3c3e 4c9e 9e3c 09b7 ffbd 1952 ff3d
000002c0: 75fc fd3c 326c 5e3d 4c38 41be 5961 05bb
000002d0: a38d 1c3e ca33 fc3d ee48 ae3c f3f6 3e3e
000002e0: 7e43 f6bd b867 213d ed74 01be 43e8 b83d
000002f0: f2c8 353d 2497 1d3e 62b5 263d 5e56 53be
0.0967592 0.032235812 -0.101134084 -0.05685575 -0.2707229 0.014034061 0.057634454 -0.16779108
0.27989984 -0.12570097 -0.13692932 -0.24449271 -0.01968004 0.18256494 -0.19252849 0.022993768
-0.111967966 -0.017696815 -0.16006489 0.112473145 0.03506034 -0.0964283 -0.0166624 -0.05495164
-0.0055638175 -0.20905001 0.049439497 0.14306965 0.09907338 0.11905785 0.35131213 0.25754532
-0.17786403 0.09359205 0.28645822 -0.04115063 0.027532473 -0.25330132 0.16866593 0.11772297
-0.02104105 0.0985343 0.08369753 0.18982366 -0.012557819 -0.097845264 -0.059785143 0.08118285
-0.108514324 0.052690346 0.08292565 0.23463085 0.18201973 0.0792694 -0.19805488 0.31742907
0.07505603 0.0626524 -0.11784104 0.023472674 -0.10113371 0.07329709 -0.037549943 -0.11271299
-0.3944194 -0.30653408 -0.12156658 -0.009343086 -0.20476158 -0.27623826 0.06429498 -0.1280874
-0.11260656 -0.051186487 0.1365751 -0.069754474 0.082082875 -0.14893918 -0.109271 -0.16592406
-0.1276746 -0.0936918 -0.35322562 -0.09156543 -0.23692052 -0.34873945 -0.08262924 -0.17340782
-0.16179813 -0.29249328 -0.1265112 -0.11285195 -0.22540918 -0.20261593 -0.33067843 -0.26739296
-0.27209255 -0.38632154 -0.15930797 -0.08587316 -0.22738922 -0.2544855 0.10655273 -0.36620286
-0.024309099 -0.0013881177 -0.22333361 -0.26606464 -0.11762452 0.115796715 0.025288405 0.0049200174
-0.09655184 -0.044085465 -0.17146291 -0.096154496 0.0058777845 -0.14743695 0.19674183 0.07294064
-0.223781 -0.10539049 0.071926504 -0.21986991 -0.2652067 0.019269459 -0.5145522 0.07555863
0.19588368 -0.26088738 -0.18981624 -0.12695627 0.17616671 0.11348506 -0.16066617 -0.06526644
0.26656297 -0.1280508 -0.23746668 -0.061080623 0.0095278155 0.18791607 -0.10328756 0.27578583
-0.023799961 -0.059484947 0.13665786 0.0117704235 0.046534866 -0.09998185 -0.008557434 0.05510359
-0.25949314 -0.24812663 0.09130294 -0.25644222 -0.09998051 0.16674758 -0.14721607 -0.41410792
-0.106754296 0.21725507 -0.23641947 -0.06730279 0.091531895 -0.16722003 -0.024037601 0.16696261
0.10363911 0.10140336 0.2184149 0.083397284 0.18413548 0.019362591 -0.12486083 0.12466831
0.03100417 0.0543024 -0.18869132 -0.0020352213 0.15288405 0.123145655 0.02127501 0.18648891
-0.12024592 0.039405555 -0.1264226 0.090286754 0.04438109 0.15389687 0.040700324 -0.20638415
