graphrnn_v2/experiments/structures/k_regulars/vary_m/3_regular_vary_m_8_graphrnn_s/model_at_800.pt (torch, 398227 bytes, 22 tensors)

embedding.0.weight f4 [32, 8]
000000 f2 6c 1c 3e 35 d1 1e 3f cb c2 5f 3e a8 01 41 bd
       0.15275934 0.62037975 0.21851651 -0.04712072
000010 f6 4c 3a bd 80 5c a3 bd 0a 5b f1 3e e5 14 b0 3e
       -0.045483552 -0.07976627 0.4713977 0.3439094
000020 18 d5 0f 3f 02 3e 9f bd 24 d6 56 be 7d 7b 1f 3e
       0.5618453 -0.07775499 -0.20980126 0.15574451
000030 6f 4a c0 be b3 55 a3 3d 78 d1 cb 3e 82 af 90 3e
       -0.37556788 0.0797533 0.3980825 0.28258902
000040 c7 34 4b be 71 a3 bc be b2 bc 64 3c 93 76 f7 3e
       -0.19844352 -0.36843446 0.013961004 0.48332652
000050 73 81 35 be 92 24 2c be 53 e0 10 ba 02 6f cb 3e
       -0.17725162 -0.16810825 -0.0005526591 0.3973313
000060 2f 4f 1b be 64 a7 80 3e 02 28 fa be 07 de 9d 3e
       -0.15166925 0.2512771 -0.4885865 0.30833456
000070 3b 8b fe 3e c5 10 bb 3e 28 87 fd 3e 65 38 56 3e
       0.497156 0.36536232 0.4951718 0.2091995
000080 2e 17 04 be 2c 81 04 bf 67 51 b9 3c 37 79 92 3e
       -0.12899467 -0.517596 0.022621823 0.28608105
000090 99 13 dc bd b9 c5 2d bf 8d 09 26 bf 9c 21 2e bf
       -0.107459255 -0.67879826 -0.64858323 -0.68020034
0000a0 1a da 05 3f 14 ea 73 3e 37 27 20 3e 7e 5f ed 3c
       0.5228592 0.23819762 0.1563996 0.028976198
0000b0 e3 cf 0f 3e 34 42 a6 bc d1 8c 80 be 72 1d e8 bd
       0.14044146 -0.02029524 -0.25107434 -0.11333741
0000c0 a5 8b 5b 3b 04 0e 70 3e 86 04 bf 3e cb 70 7e 3e
       0.0033499983 0.23442847 0.3730814 0.24847715
0000d0 33 57 1f bd e5 f3 13 be 61 7e c8 be 60 26 d1 be
       -0.03890152 -0.14448507 -0.3915892 -0.4084959
0000e0 6b cb ff 3e 7e ed f0 bd 2e 1a a0 3e c8 94 aa 3e
       0.49959883 -0.11764048 0.31269974 0.33316636
0000f0 60 15 78 3d e8 f6 67 be e0 8a 2c be af 37 e6 be
       0.06056726 -0.22652781 -0.16849852 -0.44964358
000100 64 4b cc bd 60 41 81 bd 20 4f 75 bd 4a 4a fe be
       -0.09975317 -0.063112974 -0.059889913 -0.49666053
000110 f6 b1 98 3e 67 0e 80 3e 8e 93 23 3e d4 7e 00 3f
       0.29823273 0.25010988 0.15974256 0.50193524
000120 be 82 8b be a1 92 87 be 1a 2a 81 be 5c 56 85 be
       -0.27248186 -0.26479056 -0.25227433 -0.2604245
000130 ab 9b 23 be d8 d9 91 bd 9b 3e b0 3d 19 52 a7 be
       -0.15977351 -0.071216285 0.08605691 -0.32679823
000140 b5 01 82 bb 2c 83 93 be 21 69 9b 3e 3a b7 e2 3e
       -0.0039674887 -0.28811014 0.30353644 0.44280416
000150 81 14 f6 3e 43 c7 fe 3e 01 c4 3f 3e ba e7 38 3d
       0.48062518 0.497614 0.18727113 0.045142867
000160 78 22 f0 3e 95 70 a7 3e f5 87 5a be 17 72 bd 3e
       0.46901298 0.3270308 -0.21340926 0.37001106
000170 8c 0f 0d 3d 9d 2c 9a be 72 e2 40 be f0 dc 3a 3c
       0.034438655 -0.30112162 -0.18836382 0.011405215
000180 0c c1 d1 bd 3b 6b 06 be 59 d9 5f be ae 76 83 3e
       -0.10241899 -0.13126843 -0.21860255 0.25676483
000190 da e7 7b be 30 46 e2 35 9c bf 45 be 57 81 de bd
       -0.24600163 1.6858739e-06 -0.19311374 -0.10864513
0001a0 36 35 c1 3e 1e e8 18 3d 73 74 aa 3d af 1b 9b bc
       0.3773591 0.03733074 0.08322992 -0.018934099
0001b0 84 bc 01 3f c4 61 12 bd e7 17 54 3e d9 0e 4a 3e
       0.50678277 -0.035737768 0.20712243 0.19732226
0001c0 f6 fe a2 3e 6e aa 90 3e 20 1f 89 3e ab 97 05 3f
       0.31835145 0.28255028 0.2678156 0.5218455
0001d0 38 81 33 3e a7 3d a6 3e ba 7b ee 3d 92 d5 f8 3d
       0.17529762 0.32468912 0.11644693 0.1215011
0001e0 33 0f dc 3e d6 4c d6 3e a7 4a 0b 3f 61 b7 16 3d
       0.42980346 0.41855496 0.54410785 0.036795978
0001f0 13 77 c5 3e 6f 84 1d 3d b8 bd 63 3e c9 1e 02 3d
       0.3856741 0.038456377 0.2224034 0.03176764
000200 40 9e 16 be 20 b9 6f 3c 53 4b cf bd be 76 03 3f
       -0.14708805 0.01463154 -0.10121789 0.5135306
000210 c3 d7 83 3e b5 3e 0f 3e e4 86 07 3f 9e 25 a6 3e
       0.2575055 0.13988765 0.529402 0.32450575
000220 bf ce 66 bd bc a0 2b 3f 2f a3 a4 3e aa 48 fe 3d
       -0.056349512 0.67042136 0.3215575 0.12416203
000230 b7 f1 e4 bc 55 18 a5 3e 5a 94 86 bd 45 78 29 be
       -0.02794729 0.32245126 -0.065712646 -0.16549785
000240 1a 59 d1 be 60 e5 d1 bd 6a 2f 02 3f 31 14 02 bf
       -0.40888292 -0.10248828 0.508536 -0.5081206
000250 ef 1c 6a be 6b 13 f3 3e 7b 39 ce 3e 97 b9 3e 3e
       -0.228626 0.47475752 0.4027823 0.18625484
000260 7d d5 a1 3d e0 3d 8d be 93 83 9d be 51 8f bc be
       0.07902048 -0.2758627 -0.30764446 -0.36828092
000270 9b a3 24 be f5 10 2b be cb 79 92 3d 42 17 b4 3e
       -0.16078036 -0.16705687 0.071521364 0.35173994
000280 73 ef 2d bc 75 70 2e 3e ac 45 c6 3e 5e 00 df 3e
       -0.010616171 0.17035086 0.3872503 0.43554968
000290 1a 7b a9 3d ab 65 04 be 47 56 22 bd 0b 6f b0 bd
       0.08275433 -0.12929408 -0.03963306 -0.0861493
0002a0 9d b2 0d be 70 ac 2a 3d ce c8 bd be d4 33 43 3d
       -0.13837667 0.041668355 -0.37067264 0.04765685
0002b0 87 e0 7a bd a6 1b 79 3d 4a 52 8d 3e 5a 9e b9 3d
       -0.061249282 0.060817383 0.27601844 0.09063406
0002c0 93 31 08 3f 68 f9 36 be dd 22 53 bd 5b 3d 5a 3e
       0.53200644 -0.17868578 -0.05154692 0.21312468
0002d0 02 8d 01 3e 20 8e 55 3e 7c 56 9c 3e 09 4c cd 3e
       0.12651446 0.20854998 0.30534732 0.40097073
0002e0 a5 7b ac 3e 8a 9d f6 3e 7d 09 05 3f 81 43 55 3d
       0.33688083 0.48167068 0.519676 0.05206633
0002f0 d5 49 85 3e 11 99 72 be 19 d6 52 3d 9e 2e 97 3d
       0.26032892 -0.23691203 0.05147371 0.073819384
000300 96 68 86 3e 5e 95 1c 3e 09 c9 6f 3e af 48 8a 3d
       0.26251668 0.15291354 0.23416533 0.067521445
000310 d6 01 24 bd d6 6b c3 3e 2e 9b 54 3e 92 da 68 3e
       -0.040040813 0.3816821 0.20762321 0.22739628
000320 b3 0c 11 3f 48 1c f0 3d 74 7a cf be 49 4f 00 be
       0.5666 0.11724144 -0.40523112 -0.12530245
000330 87 d6 4b bf 70 98 36 3e 69 c2 76 bf 9d 1e 18 3f
       -0.7962422 0.17831588 -0.96390396 0.5942171
000340 4e 8f 04 3f ce 18 7c 3e 02 84 54 bd 38 98 0b be
       0.51781166 0.24618837 -0.051883705 -0.13632286
000350 19 c7 69 3e 8e 0b 31 3f a2 3c 12 3f 44 d9 e5 bd
       0.22829856 0.69158256 0.5712377 -0.11223081
000360 f6 ec 91 bd 2c c4 0e be e3 24 f5 3e ec 5f d6 3e
       -0.07125275 -0.13942021 0.47879705 0.41870058
000370 35 32 ad 3e bd c7 c1 3e eb bf 3b 3e c7 a0 bf 3d
       0.33827367 0.378477 0.1833493 0.09356838
000380 d4 a8 c4 bd b3 0a af 3e 0e ae cb 3e 9e dc e7 3e
       -0.09602514 0.3418785 0.3978123 0.45285505
000390 51 8a a1 3e 27 ac dd 3e 12 45 66 3e bb 06 e4 3e
       0.3155084 0.43295404 0.22487286 0.44536385
0003a0 b9 2e cf 3e d9 01 17 3f 8c 71 ba bd 8b 72 83 3d
       0.40465334 0.58987194 -0.091036886 0.06418332
0003b0 db a6 f4 3e 9e 1b ca 3e ad a3 01 be be ba ac 3e
       0.4778355 0.39474195 -0.12660094 0.33736223
0003c0 91 c8 4a 3e 31 39 6c bb cd d6 b9 be 21 76 a3 3e
       0.19803073 -0.003604483 -0.36296692 0.31926063
0003d0 80 b8 d2 3e 39 95 25 bc 34 98 aa be fa 59 da be
       0.41156387 -0.010106378 -0.33319247 -0.42646772
0003e0 d3 e3 e6 3e 46 44 21 3e f0 2c 86 3e df e1 ac 3e
       0.4509569 0.157487 0.2620616 0.33766076
0003f0 c7 88 54 bd ed bb 2f 3e 71 73 1b 3e aa 87 7e 3d
       -0.051888254 0.17161532 0.15180756 0.062141098

embedding.0.bias f4 [32]
000000 67 f6 9c 3d b1 ca 8b 3e b4 12 3b 3e e5 46 23 3e
       0.07664185 0.2730308 0.18268853 0.15945013
000010 8e 89 bc 3e cb a7 83 3d a5 e9 74 be 80 4d 49 be
       0.36823696 0.06428488 -0.23917253 -0.1965847
000020 50 b0 67 3d 95 6f a9 be 59 0c e4 bb 1f 3c 5f be
       0.05656463 -0.33092943 -0.00695948 -0.21800278
000030 43 a6 98 be 8f 7e 0a bb 25 c0 af bd 9b 2b 28 bd
       -0.29814348 -0.0021132564 -0.085815705 -0.04105721
000040 c1 b5 10 bd ca 7b 46 3d 6e 3a fa 3c eb 00 da 3e
       -0.035329584 0.0484579 0.03054544 0.42578825
000050 c9 1c 4f 3d cc ad a0 3e 94 e1 07 be cd 7a 6c 3e
       0.05056456 0.31382596 -0.13269645 0.2309372
000060 6b 81 71 be f0 b2 fe bd d2 65 21 3e fe 0d 57 3e
       -0.23584525 -0.12436473 0.15761498 0.21001431
000070 53 d9 52 be c1 70 26 3e 94 52 78 be 3a c7 33 3d
       -0.20590715 0.1625395 -0.24250251 0.04389117

rnn.weight_ih_l0 f4 [192, 32]
000000 9d 80 39 3e e5 89 23 3e 06 5d 8f 3c a5 7e 01 3d
       0.18115468 0.15970571 0.017500412 0.03161492
000010 b5 d1 78 be 59 a0 ce 3d 0a 0e 52 bd d2 87 5d 3d
       -0.24298747 0.10089178 -0.05128292 0.054084606
000020 d7 4a 80 3e 7c 3e 6b bd 6d 34 6a 3d 73 c0 08 3f
       0.25057098 -0.057432637 0.057178903 0.53418654
000030 74 f6 39 bd f3 f0 16 3e 12 15 f4 bc c4 17 29 be
       -0.04540105 0.14740352 -0.029795203 -0.16512972
000040 64 ac 08 3e 4b 19 14 bd 85 0a e9 3d fc 4b d0 3e
       0.13347012 -0.036156934 0.113789596 0.4068297
000050 3c 6d 2e be 51 4f 4b 3c ca 17 56 3e a9 70 9f bc
       -0.17033857 0.012409047 0.20907512 -0.0194629
000060 17 35 9e 3e 88 c6 38 3b bd 2b 12 3e 01 b8 f1 bc
       0.3089988 0.0028194506 0.14274497 -0.029506685
000070 8e c5 1e be df 74 e5 3c ae a4 84 be 9b cc 83 3d
       -0.15505049 0.02800983 -0.2590689 0.0643551
000080 59 00 b5 be 5b b4 3d be 1f 6a c2 3d 6b b9 6e bd
       -0.35351828 -0.18525831 0.09492897 -0.058282297
000090 34 c4 32 3f 25 b6 92 bd 26 21 bd 3e 2f c0 a3 3e
       0.6983063 -0.071636476 0.36939353 0.31982562
0000a0 b7 65 4b bd 32 f5 9f bd 93 84 ad 3e f3 a3 28 3e
       -0.04965755 -0.07810439 0.3389021 0.16468792
0000b0 80 a1 93 bb b8 09 eb bd c2 27 85 be 4c bf 92 bc
       -0.0045053363 -0.11476463 -0.26006895 -0.017913483
0000c0 4c 06 4c be 6c 72 27 be e1 0b 1a 3c fb 4f 82 be
       -0.19924277 -0.16352242 0.009402246 -0.25451645
0000d0 6c ae ee 3d 83 5d 64 be 4c 9a 2f bd 19 f8 ff 3c
       0.11654362 -0.22301297 -0.04287176 0.031246232
0000e0 8b fc 12 bf eb bb 28 3e e4 a5 0a be 88 f1 b5 bc
       -0.574166 0.16477935 -0.13539845 -0.022209898
0000f0 6c e3 54 be ba f7 13 be ef 6d be bd 29 62 3e 3a
       -0.2078988 -0.14449969 -0.09298312 0.0007262552
000100 7d ba 70 be 23 67 b3 bb 22 8a eb 3e af f7 38 3e
       -0.2350864 -0.0054749413 0.46003824 0.18063234
000110 62 87 92 3e 4c e8 ba bd 5b 5c 8e bd e6 f0 5c 3e
       0.28618914 -0.09126338 -0.06951209 0.2157627
000120 5b 9a 46 3e bc 40 11 bd 05 40 18 3e b8 5a 32 3e
       0.1939482 -0.035462126 0.14868172 0.17417419
000130 68 ab 80 3d dd 8a d6 39 3b 81 19 3c 95 fe 4b be
       0.06282693 0.00040920722 0.00936919 -0.19921334
000140 6d d6 39 3e 65 a1 12 be d2 c1 0f be 07 b4 c4 3e
       0.18148203 -0.1431938 -0.1403878 0.384186
000150 d0 e4 c6 3c ca 73 c6 3d bb 7b 47 3d ac 3d ba bc
       0.024279028 0.09690054 0.048701983 -0.022734486
000160 62 64 0b be 29 ea 38 bd 66 c1 ec bd 08 f2 df 3d
       -0.13612512 -0.045145188 -0.11560325 0.10934836
000170 2c d0 bf 3d 92 2e 23 bd 51 6b a3 3d d6 03 08 3b
       0.093658775 -0.039839335 0.07979453 0.002075424
000180 65 2f 94 3e 90 db 28 3e 79 c9 db 3e a4 84 aa 3d
       0.2894241 0.16490006 0.4292715 0.083260804
000190 f5 80 dd 3e 7d 84 e7 bd ad 19 d2 3d 77 88 92 3e
       0.4326245 -0.11304567 0.102588035 0.2861974
0001a0 a9 3f 8b be a4 a3 f4 bd fc a7 3f be 6e 66 95 bd
       -0.27197006 -0.119452745 -0.18716425 -0.072949275
0001b0 2a 4b 95 3d 80 7d a0 be e0 a7 28 be 1c d6 d9 bd
       0.07289727 -0.3134575 -0.16470289 -0.10636541
0001c0 85 30 d8 3d 90 4b 0f be 8a 59 70 bd 61 1b 46 3e
       0.10556129 -0.13993669 -0.05867914 0.19346382
0001d0 59 e2 82 3e 52 50 87 3d 17 fc 22 3d 93 c2 1f 3d
       0.25563315 0.06607117 0.039791193 0.03900392
0001e0 b4 60 a5 be 71 0b ae bd e1 a8 b4 be f7 34 03 be
       -0.3230034 -0.08498276 -0.35285094 -0.12813173
0001f0 7c 23 2b be f9 d1 88 bd 9b 98 5e 3e eb ba e6 3d
       -0.16712755 -0.06680674 0.21737902 0.112661205
000200 f8 79 94 3d 02 f1 ae 3d 4d e3 a4 3d 4c 35 c3 3d
       0.07249826 0.08542062 0.08051167 0.0953165
000210 97 ee 25 3e 9f 25 41 3e c2 40 3d 3e 14 5e fb 3d
       0.16204296 0.18862008 0.18481734 0.12273803
000220 f2 d7 b1 3e 20 1d a0 3d 0a 2b ae 3e 23 94 3d bc
       0.34735066 0.07818055 0.3401721 -0.011570963
000230 ce ec cf 3d be ba aa 3e 50 56 80 3d f3 06 2e 3e
       0.10152589 0.33345598 0.06266463 0.16994838
000240 7f 12 bc 3e 05 37 9d 3d 44 42 3d 3d d4 07 9a 3e
       0.3673286 0.0767651 0.046205774 0.30084097
000250 35 87 5e 3e a6 8c 80 3e 75 59 9c 3e 0e f6 80 3e
       0.21731265 0.25107306 0.30537 0.25187725
000260 8c 51 e1 3d 48 22 37 3e 41 9e cd 3d 2e 4e 8a 3e
       0.11001882 0.17884171 0.1003995 0.2701277
000270 3d db 0d 3e 81 99 c6 3d 92 4e 6d 3e b2 30 7f 3e
       0.13853164 0.09697247 0.23174503 0.2492092
000280 e5 3e 72 3e fc 5a 51 3e 80 20 9a 3d af 00 3a 3e
       0.23656805 0.20444864 0.0752573 0.18164323
000290 17 79 92 3d e1 4a c6 3d 20 2b b1 3e 98 4c 14 3e
       0.07152002 0.09682251 0.34603214 0.14482343
0002a0 06 11 f9 3e 18 70 c1 bd 93 e9 09 3e 73 f2 4b be
       0.486458 -0.09445208 0.13468008 -0.19916706
0002b0 00 b9 fc bd 12 db 8d 3e 6e 35 ff 3d 5a d8 aa 3e
       -0.123399734 0.277062 0.12461363 0.33368188
0002c0 35 40 83 3e a9 45 93 3e 5c 82 fe 3e 0f 53 07 3e
       0.25634924 0.28764084 0.4970883 0.13215278
0002d0 2f dc 0b 3e 35 33 9a 3e 37 0d ca 3d 8a d9 9d 3e
       0.13658212 0.30117193 0.09865802 0.30830032
0002e0 e3 bc 95 3e f3 87 3f 3d e1 55 09 3e 52 00 9f 3e
       0.29245672 0.04676051 0.13411666 0.31054932
0002f0 cf d4 7f 3e bb e6 29 3e eb 99 e5 3d f2 dd 3d 3e
       0.24983524 0.16591923 0.11210998 0.18541697
000300 19 27 a8 be 45 98 2b be 9c c6 07 3e 10 a3 28 bd
       -0.3284233 -0.16757305 0.13259357 -0.041171134
000310 e8 07 a0 3e de 0e a1 be 11 bb 01 bf 1a 65 6f be
       0.31256032 -0.31456655 -0.50676066 -0.23378411
000320 a3 86 7a 3e 30 a5 af 3c c8 dc 94 3b e2 1e 0c bf
       0.24465422 0.021441072 0.0045429207 -0.54734623
000330 8c 31 3e 3d 60 2e 24 be 87 d0 da be d8 e7 fa be
       0.04643397 -0.16033316 -0.4273722 -0.49005008
000340 ce 79 c5 3d ed c0 1e be 87 b8 e5 3e e4 1c b0 3d
       0.09642373 -0.15503283 0.44867346 0.085992604
000350 49 fd 1f be f4 63 27 3e f2 50 64 be ef 1e 88 be
       -0.15623964 0.16346723 -0.22296503 -0.265861
000360 30 af 4a bf 3e a3 d7 3d 2b 74 77 be 68 a1 6e bd
       -0.79173565 0.10529183 -0.24165408 -0.058259398
000370 b5 8e 90 be ca 1d cd bd e2 f9 9f 3c 8d df 73 be
       -0.28233877 -0.100154474 0.019528333 -0.23815747
000380 ae db d0 3d 80 3c 53 3e ad 1f 9d 3d d0 e9 0c 3d
       0.101981506 0.20628548 0.07672057 0.03440267
000390 3d 09 89 3e 2b d2 36 bd 07 64 8d 3e 19 4c e0 bb
       0.2676486 -0.044634026 0.27615377 -0.006845009
0003a0 b9 5b 65 3e f4 4b 29 bd 9f 44 f2 3d 88 5e 03 bd
       0.2239827 -0.0413322 0.11829495 -0.032072574
0003b0 58 10 0d bd e4 d7 66 3d a8 de de bd c3 3d 51 3d
       -0.034439415 0.056358233 -0.10882312 0.05108429
0003c0 1b 07 83 3d ab f0 40 3e f3 dc 7d 3d e1 0f 77 3e
       0.0639784 0.18841808 0.06197829 0.24127151
0003d0 7b 49 d9 bd 0a ea 15 3e 80 63 07 bd 89 0f 22 3d
       -0.106097184 0.1464006 -0.033053875 0.039565597
0003e0 7b c8 b0 be 4b fb c9 bc b7 fd 43 3e 8e 37 a5 bc
       -0.34527954 -0.024655959 0.19139753 -0.020168092
0003f0 92 4f 43 bc fd 89 22 bc e6 24 9c bc b0 26 09 bb
       -0.0119208265 -0.009920594 -0.019060563 -0.00209276

rnn.weight_hh_l0 f4 [192, 64]
000000 9f fb f5 3d 63 f9 80 bd 13 16 01 bd c2 1d 89 3e
       0.120108835 -0.06297567 -0.031515192 0.26780516
000010 25 71 d7 bc e7 f3 4d 3e 93 80 18 3e da dd 03 3e
       -0.026299069 0.20112573 0.14892797 0.12877598
000020 cb a8 12 be ec 23 37 3c 23 31 54 3d 53 73 bf 3c
       -0.14322202 0.011177998 0.051804673 0.02337042
000030 43 ec 64 bd 3d ef aa bd 3d f3 f0 3c 4f 45 85 be
       -0.05588938 -0.08346412 0.02941286 -0.2602944
000040 44 f7 38 3c ce 1f 3f be ff 1d 03 3d 7e 94 1c be
       0.0112894215 -0.18664476 0.03201103 -0.1529102
000050 94 22 7c bd 0a 54 40 3d ce 96 1c bd 24 ee 64 bd
       -0.061556414 0.046955146 -0.038229756 -0.05589117
000060 73 11 a0 3b c1 8e 98 bd 58 ca b3 bc e2 7b 1e 3d
       0.0048848926 -0.07449103 -0.021947071 0.038692363
000070 23 3e 5b 3d 3f 9c be 3c c7 ed 08 be e6 7b 9f 3d
       0.053526055 0.023267863 -0.13371955 0.077873036
000080 b2 f4 af 3d e1 27 07 3d 8d 86 a5 3d 1c ca bd 3d
       0.08591594 0.032997016 0.08082304 0.09267065
000090 9a 2a 8a bc 26 38 9d bb fb 59 0c bc 8c 79 d5 3c
       -0.016866017 -0.004797953 -0.008566375 0.026058935
0000a0 76 4b 94 be 81 3c 90 3d a2 be 7d 3e 64 4a cd bd
       -0.28963822 0.0704279 0.24779752 -0.100239545
0000b0 30 ea 0c bd 05 48 d7 3d b0 98 42 3e 74 0f 07 be
       -0.034403026 0.105117835 0.19003558 -0.13189489
0000c0 5b c1 04 be ff 0f c4 3d d8 d3 fd bc cd 5c 0a bc
       -0.12964384 0.095733635 -0.030984804 -0.008444977
0000d0 7b aa d5 3c a6 db e3 3c 89 80 1d be 39 fa e5 3c
       0.026082268 0.027814697 -0.15381064 0.028073417
0000e0 9f 38 f5 3d 58 f1 a1 bd e1 9c 3b 3d 3c 47 04 3e
       0.1197369 -0.07907361 0.04580391 0.12917799
0000f0 ab a0 dc 3d 98 8b b9 bd 7c 4b aa 3c c9 64 a7 be
       0.107728325 -0.090598285 0.020787947 -0.3269408
000100 9a a7 de 3e df 5e df 3d ad d1 d2 bd 96 ed 9a bd
       0.43487245 0.10906767 -0.10293899 -0.07564847
000110 90 21 92 3d bf 28 f0 bd 67 16 e9 bd b9 8c e1 bd
       0.07135308 -0.11726522 -0.11381226 -0.11013169
000120 9c cb de 3d 92 59 02 be 1d c8 4e be 32 6b 03 3d
       0.10878679 -0.12729481 -0.20193525 0.03208465
000130 ce 92 d4 3d a3 ce 8f be cd b6 93 3e da 05 2b 3e
       0.10379563 -0.2808734 0.28850403 0.16701451
000140 63 9c 64 bd b3 85 8b be 0b f2 a6 bc 97 06 df 3c
       -0.055813204 -0.27250442 -0.020379087 0.027224822
000150 15 6f 75 bd f1 6c bb bd b6 fa 92 3d 16 44 ac 3b
       -0.05992039 -0.09151638 0.071767256 0.00525714
000160 97 76 d8 bd 01 5f 59 3b 23 b3 b2 3d 14 a2 bd 3d
       -0.10569494 0.00331682 0.08725574 0.092594296
000170 2d b8 7d 3e 87 ea fd 3d 07 c7 12 3e da 47 b9 3e
       0.24777289 0.12398248 0.14333735 0.3618763
000180 a2 da 1c be 1d 86 a4 be 90 73 cf bd 26 d8 cc bd
       -0.15317777 -0.3213357 -0.10129464 -0.100021645
000190 90 8a 1e be 55 6c 31 3e 8b 32 cb bc 60 e8 3f bd
       -0.15482545 0.17326482 -0.024804374 -0.04685247
0001a0 d0 83 de 3d 05 03 e3 3d 81 1a b1 3c 7e b5 b5 3d
       0.10864985 0.1108456 0.021619083 0.088725075
0001b0 1d 7b 35 3e e1 7f ab 3d 8d 96 a0 3d f2 3b b7 3d
       0.17722745 0.08374 0.07841215 0.089469805
0001c0 f0 f6 4e 3e ea 32 85 3c 70 2d 0a be 78 c7 38 ba
       0.20211387 0.01625963 -0.13493896 -0.0007048766
0001d0 4e 8e 1f 3f 0f 7a b3 bd bc dd 6e 3e 8c 29 22 be
       0.62326515 -0.08763515 0.23326772 -0.15836161
0001e0 be 27 47 bd 74 d1 89 be 5e 12 f7 3e 2e 09 cf bd
       -0.048621885 -0.26917613 0.482562 -0.10109173
0001f0 d0 cc 27 3d 15 53 2a 3e 24 df cf 3d 35 03 5f be
       0.04096681 0.16633256 0.101499826 -0.21778567
000200 0a 92 95 be 70 7c 81 be b4 6a 89 3c ce e1 85 3e
       -0.2921298 -0.2529025 0.016774513 0.26148838
000210 e7 8f 65 3b 0f 1b 38 3e 40 59 de 3c ac 33 16 3d
       0.00350284 0.17979072 0.027142167 0.036670372
000220 5e d4 d1 3d e4 49 33 bd b9 84 30 3d 6b 3e 4a 3e
       0.10245584 -0.04377164 0.043095324 0.19750373
000230 80 10 d4 bd 87 dd 35 bd f6 94 a6 be 33 02 ba 3d
       -0.103547096 -0.044400718 -0.32535523 0.09082451
000240 e9 32 87 bd b3 57 dc bd 3e 01 9b 3d b9 fa f2 bc
       -0.06601507 -0.10758915 0.07568596 -0.02966057
000250 c7 9d e0 3d 19 9f af bb 64 8e ac bd fa 66 ec bd
       0.10967594 -0.005359542 -0.08425596 -0.11543079
000260 73 41 9f 3e 2f 8f 76 3d a3 10 fd 3c b6 e5 08 3f
       0.3110462 0.060195144 0.030891722 0.5347551
000270 2d 32 4c 3e 3f 39 b4 be 9a c5 b7 bd a9 3f 1e be
       0.19941016 -0.35199925 -0.089732364 -0.15453972
000280 f6 59 59 3d 8e 4e db bd 99 04 3c 3e 1a bc 3e bd
       0.05306431 -0.107083425 0.18361129 -0.046566106
000290 95 73 55 3e 9c 4d 7d 3c bf 3c 2d bd a6 58 93 3d
       0.20844872 0.015460398 -0.04229426 0.07194643
0002a0 99 41 11 be cd be 48 bd 01 02 cf 3e 8f 67 4f be
       -0.1418518 -0.049010087 0.40431216 -0.20254348
0002b0 7b e6 7c be f6 9b c1 3d fa a2 34 bd 0e ed 9b bc
       -0.24697296 0.09453575 -0.04410074 -0.019033935
0002c0 64 5c 54 3e 75 45 32 3e 80 1e 04 bf a1 ad eb 3d
       0.20738369 0.17409308 -0.5160904 0.115077265
0002d0 a4 f7 d5 3a 97 ee 08 bd 9f 17 d3 bc 20 80 58 3e
       0.0016324413 -0.033430662 -0.0257681 0.21142626
0002e0 32 c4 f0 3e cb a2 58 be 2d 5f 38 bd c6 70 27 3e
       0.47024685 -0.2115585 -0.04501264 0.16351613
0002f0 e4 3f 89 bc a7 08 46 bd a0 c4 77 3d bc 7c 53 3e
       -0.016754098 -0.048348095 0.06049025 0.20653051
000300 c3 77 42 bd 8b ba a3 3b 54 a8 a5 3d 1e 7c 12 3e
       -0.047477495 0.004996603 0.08088747 0.1430516
000310 3f 09 26 be 51 30 21 3e 5c 9e 33 3e 6a 69 cd bc
       -0.16214465 0.15741087 0.17540878 -0.02507468
000320 06 ff 1b bd f8 49 10 be ee 3a ad bd e0 47 8e be
       -0.038085006 -0.14090717 -0.084585056 -0.2778921
000330 bd c0 9a bd f5 38 17 be a0 b2 78 3d 92 e4 3a be
       -0.07556293 -0.14767821 0.060717225 -0.18251255
000340 d5 07 f5 3d 9f 7b 0f 3e f3 a6 77 3c d3 9b b3 bd
       0.119643845 0.14012001 0.015115487 -0.087699555
000350 69 b7 fa 3d ff c8 07 3d 6c dd 00 3d 11 b1 84 3d
       0.12242014 0.03315067 0.031461164 0.06479085
000360 9a 08 b5 bc 21 f1 22 bd 16 32 f4 3d 3c a1 44 bc
       -0.022098828 -0.03978074 0.11923616 -0.012001332
000370 3a c1 b0 3e c8 f6 21 bd 63 f9 8a bd 98 4e 1f 3c
       0.3452242 -0.03954199 -0.06785848 0.009723328
000380 40 5c 28 3e d8 f5 0d bd 7f e2 b0 bd e0 04 aa 3e
       0.1644144 -0.034658283 -0.08636951 0.33206844
000390 ec d6 15 3c 90 0b 03 bc dc b9 8d bc 23 5a 0c be
       0.00914548 -0.007998362 -0.017300539 -0.1370626
0003a0 38 76 1c be 07 d5 10 bc 5d c5 ae 3d 94 74 87 bd
       -0.15279472 -0.008839852 0.08533738 -0.066140324
0003b0 5e c1 17 be d0 b5 20 be 0e 9a 14 3c d0 0b 94 3a
       -0.14819857 -0.15694356 0.009069933 0.0011295024
0003c0 15 e8 6b 3d 69 cf c5 3d af 28 1a be 1b 93 f3 3d
       0.057594378 0.09658701 -0.15054582 0.118932925
0003d0 93 e5 bf 3e fe b4 a3 bd 1a 55 0b 3b ca ac d8 3d
       0.3747984 -0.07993506 0.0021260441 0.10579832
0003e0 0a b8 24 3d ab 49 7f 3d 69 ac 4a 3e 7a 14 c5 3c
       0.040214576 0.062326115 0.19792332 0.024057616
0003f0 b9 e8 92 3d 0f d8 3d 3c 07 60 6b 3d bf 85 1c be
       0.071732946 0.011587157 0.057464626 -0.15285395

rnn.bias_ih_l0 f4 [192]
000000 28 6d eb bc f0 74 63 bc 82 13 d8 bc b5 3c 30 bd
       -0.028738573 -0.013882861 -0.02637649 -0.043026645
000010 87 a2 81 3d 6f 54 72 3e 4f 6c 6e bd 4d 17 78 3e
       0.06329828 0.23665021 -0.05820876 0.24227639
000020 6e 58 3a bd 06 e4 5a 3d 1b 3b 85 3d f4 10 28 3d
       -0.04549449 0.053440116 0.06505414 0.041031793
000030 0e a6 84 3d 52 58 a7 3d 14 43 25 3d 51 ec f2 ba
       0.06476985 0.08171143 0.040347174 -0.0018533563
000040 c1 8f 0e be 1f 1e b5 3d 33 36 71 3e ae 16 6a 3d
       -0.13922025 0.08843636 0.23555832 0.057150535
000050 84 34 a4 3d ec 7f 42 3d 8c d6 4e 3e b2 ce 14 3e
       0.08017829 0.047485277 0.2019903 0.14531973
000060 2e 02 ca 3a 08 7c e1 bd 4c 35 36 3d 5e 3b 82 3d
       0.0015412027 -0.11009985 0.04448442 0.0635898
000070 a6 2f 8f 3c d9 9f 36 3d c3 04 bf 3d 59 26 2d bc
       0.017478775 0.044586036 0.0932708 -0.010568225
000080 6d 0a 03 3e ec 89 0a 3e 47 33 0a 3e fd 14 9e bd
       0.12796946 0.13529176 0.13496123 -0.07718847
000090 04 aa 62 3e 8e 0f fe 3d b4 f4 56 bd b5 1e fa 3d
       0.22135168 0.124053106 -0.05247946 0.12212888
0000a0 4c a7 d0 bb 36 ec 36 bc 98 41 dd 3d 3b 78 a3 bd
       -0.0063675996 -0.0111647155 0.10803527 -0.079819165
0000b0 35 2a 00 3d c8 ab 02 be 5b 4b 8a 3e 53 f7 bf 3b
       0.03129025 -0.12760842 0.27010617 0.0058583408
0000c0 c6 ea 49 3d ab 02 19 bc 40 4a 7e 3d 02 bb 34 bc
       0.049296163 -0.009339015 0.06208253 -0.011030914
0000d0 9c 55 6b bd 00 ad 3f 3d 8b 7f 78 bd 6d 27 2f 3e
       -0.05745469 0.046795845 -0.06066851 0.17104883
0000e0 75 52 40 3e 04 9c a7 3e 1d 69 51 3d be 45 b3 bd
       0.18781455 0.32736218 0.051125634 -0.08753537
0000f0 7c 83 ed 3d 7f 3c 33 bd be 4f 9f 3d 9d 3a 26 3d
       0.11597344 -0.043758865 0.077788815 0.04058324
000100 e5 33 48 bc 50 1a fa bc a6 dc 51 3e 33 1b f7 bd
       -0.012219404 -0.030530125 0.20494327 -0.12065735
000110 63 1c 81 3d c8 da c0 bd 49 29 6f bd 14 ba 46 3e
       0.063042425 -0.09416729 -0.058388982 0.1940692
000120 ee e4 48 bd 10 fd cb b8 0d 4e a7 3c f7 2e 6c be
       -0.04904645 -9.726931e-05 0.02042296 -0.2306479
000130 af 64 ac bd e4 4e e1 3c 2f 2a 2b be 1d f2 b8 3c
       -0.08417641 0.027503438 -0.1671531 0.022576386
000140 03 96 4c bd 90 e9 7f be ee f7 b4 3d 3e db 69 3d
       -0.04994775 -0.24991441 0.08836351 0.05709385
000150 73 64 86 3d 9b ca 2c be a9 ee 33 3e 75 9c f0 3d
       0.06562128 -0.16874163 0.1757151 0.11748592
000160 56 0a 9d bd 65 e7 d5 bd a7 60 7e bd b5 90 cc bd
       -0.07667987 -0.10444526 -0.062103894 -0.09988538
000170 dd c0 73 3c e2 3d b6 be 13 8a c2 3c 0f 6f 5c 3d
       0.014877525 -0.35594088 0.02374748 0.05381685
000180 99 cf 83 bc 06 93 9a bd 86 ae cb bd 97 c8 61 be
       -0.016090201 -0.07547574 -0.09945397 -0.22049175
000190 2a c7 f2 bd df 5b 02 bc c0 24 44 bd 76 30 dc 3d
       -0.11854394 -0.007956474 -0.04788661 0.10751431
0001a0 84 ff 5b be df 97 88 bd d6 b9 4c 3d 67 f6 e9 3c
       -0.2148419 -0.06669592 0.049981914 0.028559877
0001b0 5d 28 05 be be dc 23 bd 30 49 ba 3b 57 63 01 be
       -0.13003679 -0.040005438 0.005684994 -0.12635551
0001c0 a9 14 89 be 6e a4 8b ba 28 f5 af 3c 34 c3 fd 3c
       -0.26773575 -0.0010653862 0.021479204 0.03097687
0001d0 2f 05 51 be e0 e2 f5 bd 93 11 2b bd 58 42 12 39
       -0.20412134 -0.120061636 -0.041764807 0.0001394836
0001e0 49 0b 98 3d 23 dc a5 3d 99 c7 02 bc 0f 19 2a bd
       0.074240275 0.08098628 -0.007982158 -0.041527804
0001f0 39 f4 fc bd ba f0 e5 bc 39 c3 55 3d 7d 86 6e be
       -0.12351269 -0.028068889 0.052188132 -0.2329349
000200 16 15 4e 3d 3f 5b 33 3e be ab 81 bd fc bf e0 3d
       0.050313078 0.17515276 -0.06331585 0.10974118
000210 97 6f c8 bd 26 8a 81 3d 9b 61 7b 3c 42 27 8c 3e
       -0.09786909 0.06325178 0.015343095 0.273737
000220 95 22 b3 3c 27 0f 00 bb 1b 94 e5 3b 6b 6c 1d 3e
       0.021867076 -0.0019540282 0.007006181 0.1537339
000230 0e de 87 3d 3f 25 21 3c c2 81 59 bd df c8 38 bd
       0.066341504 0.00983554 -0.053102262 -0.04511344
000240 b9 79 b0 3d 91 7e 70 bd cb da 95 3d 93 b8 e2 3d
       0.08616967 -0.058714453 0.07317122 0.11070361
000250 88 ca a0 bc b6 98 29 3c 9d e8 1b be b2 02 42 bd
       -0.019627824 0.0103513505 -0.15225454 -0.04736585
000260 e8 41 6c bd b5 66 e4 bc 13 7f f6 3d dc c5 f4 bd
       -0.05768004 -0.027881006 0.12035956 -0.11951801
000270 83 d1 bd bd a5 8c 82 bc 85 89 d2 bd 70 50 27 3e
       -0.09268477 -0.015936205 -0.10280136 0.16339278
000280 0e 71 ac 3d 84 c9 ab 3b 2d 52 41 bd 49 68 f7 3d
       0.08420001 0.0052425284 -0.04719751 0.12080438
000290 50 f7 77 bb 36 82 93 ba 00 f5 9c 3d b1 f9 ff 3d
       -0.0037836619 -0.0011254016 0.076639175 0.12498797
0002a0 6e 54 e8 bc af 1b 7b bc 9a bd fe bd 83 95 01 3c
       -0.028360572 -0.0153264245 -0.124385074 0.0079091815
0002b0 cb 8b 9d bd d2 a4 ff 3c f1 16 6c 3c c0 b0 ab bd
       -0.07692679 0.031206522 0.0144097665 -0.08383322
0002c0 bb c9 00 be f3 36 11 3e 98 00 68 bd 92 13 8b 3c
       -0.12576954 0.14181118 -0.05664119 0.016977105
0002d0 9b 6e 9b bd d4 1f 26 3e ef 25 d0 bc 2e 5d 1b 3e
       -0.07589456 0.16223079 -0.025408713 0.15172264
0002e0 85 2e 83 bd 02 93 db 3d 3b ed 63 3d 7a ff cc bd
       -0.06405357 0.10721399 0.055646162 -0.10009666
0002f0 a4 f5 de 3d b3 03 ce 3d 1e 08 04 3e 1f ae 10 be
       0.10886696 0.10059299 0.12893721 -0.14128922

rnn.bias_hh_l0 f4 [192]
000000 c0 4e 01 bd 79 2a b2 bd 7f db f7 3d bb 04 d9 3d
       -0.031569242 -0.08699507 0.121024124 0.105966054
000010 8b 9a 2a 3e eb 5c 6a 3e 0d e5 82 3d df 57 89 3d
       0.16660516 0.22887008 0.06391344 0.06706213
000020 22 09 aa 3d e8 13 0d 3d f0 d2 fd 3c a8 96 5a 3d
       0.08302523 0.034442812 0.030984372 0.053366333
000030 f1 2b 08 3e c7 1c 75 3d b3 2e 68 bd f8 af 20 3e
       0.13298012 0.059841897 -0.05668516 0.15692127
000040 61 1b 9c bd b6 54 53 bd ec f9 68 3e d9 c2 4f 3d
       -0.076224096 -0.05159446 0.22751588 0.05072293
000050 25 65 ce 3b 80 19 98 bd 40 7b 0b 3e a1 bb 58 3e
       0.0062986785 -0.07426739 0.13621235 0.21165325
000060 57 1f 46 3d 39 79 96 bc ea 54 64 3d f4 95 b0 bd
       0.04836973 -0.01836835 0.055745043 -0.08622351
000070 a2 28 98 3d d1 d9 10 3d b7 02 b9 3d 2c 04 bf bc
       0.07429625 0.035363976 0.09033721 -0.023317419
000080 89 e8 77 bd 4f ba 42 bd ee 1e 4a 3e f5 8e 8e bd
       -0.060524497 -0.04754096 0.19738361 -0.06960861
000090 62 f1 87 3e 9b 5f 81 3d 77 fa 4f 3d 82 a6 08 3c
       0.26551348 0.063170634 0.05077597 0.00834048
0000a0 80 db c2 bc 3a 56 de 3d 64 d6 0a 3d c3 73 89 bd
       -0.023786306 0.1085629 0.033895865 -0.06711533
0000b0 fb e8 ea bd a7 e8 00 be 73 d3 41 3e 81 55 af 3a
       -0.11470219 -0.1258875 0.18928318 0.0013376923
0000c0 40 a3 87 bd 1e bf 9e 3d 6f 1d ee 3d a5 3c c7 bd
       -0.06622934 0.077512965 0.11626708 -0.09728364
0000d0 44 4c 0f 3c fc b8 d9 3d c6 63 cc 3c 5e 9b ff 3d
       0.0087462105 0.10630986 0.02494992 0.12480806
0000e0 6c 52 33 3e 75 95 4f 3e e2 14 d1 3b 9f cf 27 3d
       0.1751191 0.20271857 0.0063806633 0.040969487
0000f0 d4 4b 6e 3d f2 69 08 be 33 1c 5c bd 80 1b 7b bc
       0.058177784 -0.13321665 -0.05373783 -0.015326381
000100 a9 23 27 bd 89 93 e7 bd 7b 7c c9 3c 82 8b 7d be
       -0.040805493 -0.11307437 0.02459549 -0.2476025
000110 b9 93 7a bd c1 4e fe bd 4f 56 22 be 68 9d 64 3d
       -0.061176036 -0.12417365 -0.15853237 0.055814177
000120 54 d9 0e bd aa 52 14 3e 61 60 19 3e eb e7 aa bd
       -0.03487523 0.14484659 0.14978172 -0.08345016
000130 d9 22 b3 bc b0 45 02 bd 5e 3d eb bd dd f3 48 bb
       -0.021867203 -0.03180474 -0.11486314 -0.0030662932
000140 3c e6 b7 bd 7c 69 da bd a1 c2 4c 3d cd 27 e6 3d
       -0.089794606 -0.10664651 0.0499903 0.1123806
000150 d5 6b 1f be e4 82 78 be 92 ab 9d 3d cc 4b 04 3e
       -0.15568478 -0.24268681 0.0769874 0.12919539
000160 bd c2 1b bc 66 10 c1 bc ee 2c 85 3d bb 92 85 3d
       -0.009506878 -0.02356739 0.0650271 0.06522127
000170 5f a8 9a bd dd 3b 42 be 2f 1c 8f bc 95 ee 13 be
       -0.075516455 -0.18968149 -0.017469494 -0.1444648
000180 9f 03 06 be b0 5a 50 bd cc e1 fe bc 55 a6 bf be
       -0.13087319 -0.050867736 -0.031113528 -0.3743159
000190 2a a1 7c bd 9e c6 1b 3e 64 bd 6f 3d 1d a9 9b 3d
       -0.061677136 0.15212485 0.058530226 0.07600615
0001a0 a6 a1 11 be 53 63 42 3d 42 a1 55 3d 86 cc c4 3d
       -0.1422182 0.047458004 0.05215574 0.09609322
0001b0 cf 7c ec bd d9 01 9a bd 0d 6d cd bc ef 6b c1 bc
       -0.11547243 -0.07519884 -0.025076414 -0.023611037
0001c0 99 47 94 be 58 4a d2 bd d3 ac 0d be 10 c0 25 3d
       -0.28960875 -0.10268086 -0.13835458 0.04046637
0001d0 31 74 78 be e2 63 14 be 13 27 d9 bd 1e 84 a7 3b
       -0.24263074 -0.14491227 -0.10603156 0.005112185
0001e0 65 d3 75 3c 28 9e 65 3d 85 21 48 bd c1 87 31 bd
       0.015004014 0.056059033 -0.04886009 -0.043342356
0001f0 3b a5 80 bd de 21 94 bd 09 11 01 3e 6a 9b 46 bd
       -0.06281515 -0.07233022 0.12604155 -0.04848806
000200 70 d8 c9 3d 52 8b 18 3e 1d 8a 21 3e 4a 79 a5 3c
       0.09855735 0.14896896 0.15775342 0.020199437
000210 34 53 81 be 7d 50 4d 3e 1b 16 f5 bd d2 47 b8 3d
       -0.2525879 0.20050235 -0.11967107 0.08998074
000220 c2 65 70 bd 90 cf 3e 3c cd 48 c2 3d cd 3a f8 3d
       -0.058690794 0.011646166 0.09486542 0.1212059
000230 f1 8b 8d 3b ed 5e 00 bd cb 59 dd 3d 8c 39 ce bc
       0.004319661 -0.03134053 0.10808142 -0.025173925
000240 22 e7 e6 3d f7 35 92 3d 0a e1 81 bd 51 c6 fe 3d
       0.11274554 0.07139199 -0.06341751 0.124401696
000250 c8 2a 20 3c 2e 07 cc 3d 55 03 6a be 30 3b 31 be
       0.009775825 0.09962307 -0.22852834 -0.17307734
000260 3e d2 f2 3c a5 21 08 3c 46 0a 93 3d c8 8c 7b bd
       0.029641267 0.008308803 0.07179694 -0.061413556
000270 b4 5e b7 bd a3 5c f0 3b 1e a5 58 bd 67 f3 83 bc
       -0.0895361 0.007335262 -0.052891843 -0.016107274
000280 c2 c2 7b bc 85 14 89 bd 93 53 3d 3d ef 0c 18 bc
       -0.015366258 -0.06693367 0.04622228 -0.009280427
000290 eb c6 1f 3c e5 5f a6 bd f0 f7 77 bd 19 f2 26 3d
       0.009752016 -0.08123759 -0.060539186 0.040758226
0002a0 09 15 6f 3c 5d 42 a9 bc bc 92 1c 3d 5f bf e3 3c
       0.0145924175 -0.020661527 0.038225874 0.027801214
0002b0 6e d9 f9 bd 2b 96 ce bd b6 ec 7e 3d bd 39 00 be
       -0.121996745 -0.10087236 0.062237464 -0.12522025
0002c0 7b c6 1e 3c ee 2e 1f 3e 33 0d 85 3b 83 6b 27 3e
       0.009690876 0.15545246 0.0040604114 0.16349606
0002d0 4b 97 17 be e3 f4 ac 3d 4b 37 b9 bc b4 f4 96 3d
       -0.14803807 0.08445146 -0.022609374 0.07370892
0002e0 35 a7 2b 3e b8 6c ee 3d 21 a3 c8 bd ea 79 a5 3c
       0.16763003 0.1164183 -0.09796739 0.020199735
0002f0 b5 db 33 3e 66 5b c4 3d 9d f3 db 3d 5d b9 d6 bd
       0.1756428 0.09587745 0.10739825 -0.10484574

rnn.weight_ih_l1 f4 [192, 64]
000000 b0 b1 01 3f 7a 37 53 3e 6f bf 79 bd df b2 24 3e
       0.50661755 0.20626631 -0.06097358 0.16083859
000010 3b d9 3a bd df bf ca 3c e8 7b 5b 3c 25 85 a8 bc
       -0.045617323 0.024749694 0.013396241 -0.0205713
000020 67 31 77 bd e9 57 23 be 71 2b 8e be 2a ac 17 3e
       -0.060349848 -0.15951504 -0.27767518 0.14811769
000030 61 be 21 bc a8 fe 5d be 07 a2 fe 3e 29 d8 c5 bd
       -0.00987205 -0.21679175 0.49732992 -0.0966037
000040 41 42 1f be 37 3f b3 be bc 7c 0b be 98 64 aa ba
       -0.15552618 -0.35009167 -0.13621801 -0.001299995
000050 e7 7f f0 bd 0f 2c 9d be d3 0f ab bb 31 97 7a 3d
       -0.117431454 -0.30697677 -0.0052203923 0.061179344
000060 a9 2d a2 3e f1 05 d9 3d 31 cd 87 be 3b 3d 1b bd
       0.3167546 0.10596836 -0.26523736 -0.03790019
000070 9a ea 82 3e f1 e6 b2 be 10 35 71 3e ef 78 01 3e
       0.25569612 -0.3494182 0.23555398 0.12643789
000080 33 88 9e be 3b 52 19 3e aa 7b 47 3d 00 d5 39 bf
       -0.30963287 0.14972775 0.04870192 -0.7259064
000090 58 4a a0 3d 43 9f 88 3e 35 c9 bd bd c8 a7 e5 bc
       0.0782668 0.26684007 -0.09266893 -0.028034106
0000a0 b8 e1 87 3e 27 9b 1c 3e 1e c3 bf be b1 0c 17 be
       0.26539397 0.15293561 -0.3745355 -0.14750935
0000b0 91 23 b2 3d 7a 55 43 3e b8 c5 1e 3e ce 82 7f 3c
       0.0869819 0.19075575 0.15505111 0.015595151
0000c0 81 23 14 be 99 96 09 3f b4 cc 27 3f a9 0c 45 be
       -0.14466669 0.5374542 0.6554673 -0.1924311
0000d0 88 6e a5 3e fc ec e6 bc 9b e6 75 3d 09 29 95 be
       0.3231089 -0.028189175 0.060034376 -0.2913287
0000e0 c4 f5 e4 bd 52 ca ad bc 34 8f e0 3e 01 10 48 3d
       -0.111796886 -0.021214638 0.43859255 0.048843388
0000f0 51 78 80 3d ef 40 37 3f af 77 75 3e 2b 1c 9b be
       0.062729485 0.71583456 0.23971437 -0.30294928
000100 97 c0 fb 3c d4 17 7a 3c a8 56 be 3d 61 66 46 3e
       0.030731482 0.01526447 0.09293872 0.19374992
000110 9d 74 1a 3c 99 75 6d 3e e5 1b 89 bd 17 e8 7a bb
       0.009427217 0.23189391 -0.066947736 -0.003828531
000120 0e 41 13 bd f8 a3 e3 bc 9a b1 d2 bd c6 69 aa 3e
       -0.035950713 -0.027788147 -0.10287781 0.33283824
000130 05 69 0f be 57 33 22 3e fc 8d e9 3e 24 cc 88 be
       -0.14004906 0.15839897 0.45616138 -0.26718247
000140 9a 67 e1 3d 99 5d 89 3d f9 b5 79 3b fe 72 63 be
       0.110060886 0.067073055 0.003810285 -0.22211835
000150 e3 e3 f5 bd b4 d5 68 be 79 d5 0f be 4d bb 05 be
       -0.120063566 -0.22737771 -0.14046277 -0.13059731
000160 88 1c 11 be 1b 36 bc bd d0 07 1d bd 82 15 c0 bc
       -0.1417104 -0.09190007 -0.03833753 -0.023447756
000170 00 1d b7 3d a4 06 eb 3e ea 1d 57 3e 2a 95 df 3c
       0.08941078 0.45903504 0.21007505 0.027292807
000180 10 c4 09 3e 93 19 8a 3d a8 22 e4 3c ee e9 75 3e
       0.13453698 0.06743159 0.027848557 0.24015018
000190 87 7f 6c bd 56 38 3c be b7 c9 75 bd 2c e2 7f bd
       -0.057738807 -0.18380865 -0.060006823 -0.062471554
0001a0 43 2e 4e 3e 96 0b 42 3e 54 b0 ca 3e 69 e9 0b 3f
       0.20134835 0.18949732 0.39587653 0.5465303
0001b0 f8 a5 ef bc a8 ab be bc 49 fc 94 bd af f9 2a 3e
       -0.029253945 -0.023275211 -0.07274682 0.16696809
0001c0 c4 71 18 3e 52 33 3b 3e a6 91 01 3e f4 4f 64 bd
       0.14887148 0.18281296 0.12653217 -0.05574031
0001d0 89 75 18 be 78 8a 18 be 70 1f ff bd a5 b4 e4 3d
       -0.14888586 -0.14896572 -0.12457168 0.11167268
0001e0 39 c9 26 3e c2 11 0c bf df 0c f1 bd 12 03 43 3e
       0.16287698 -0.54714596 -0.11770033 0.1904414
0001f0 1f 8e 6f 3d 88 50 0d 3f 59 b4 1e be 78 ae fb be
       0.058485147 0.55201006 -0.15498485 -0.49156547
000200 ef ab b1 bc 29 bf 7d be 46 ad de 3d d0 49 eb bd
       -0.02168843 -0.24779953 0.10872893 -0.11488688
000210 a9 66 8c bd 86 55 3f 3e f2 1d ac 3e f6 bb 27 3d
       -0.06855518 0.18684968 0.33616596 0.040950738
000220 87 b8 4b 3e 0d b6 2a be 1d 0a 1e be 9b d7 9e 3d
       0.1989461 -0.1667101 -0.15433545 0.07755967
000230 13 ee 1b bd 76 d1 7f bd 96 68 f7 3d 63 53 b6 3e
       -0.038068842 -0.062455617 0.12080495 0.35610494
000240 14 03 5c be 4d da 22 3d 2a 9f 37 be ab a6 9f be
       -0.21485549 0.03975897 -0.1793181 -0.31181845
000250 c7 cd c6 be 54 fb 25 3e 1c 1f 42 bd 83 53 5a 3c
       -0.3882887 0.16209155 -0.04739295 0.013325575
000260 be 92 0e bd 3f 96 d7 3c 1a ec 43 be 43 b0 9d bd
       -0.034807913 0.02631676 -0.19133034 -0.07699635
000270 1f 07 09 3e ad 1c db 3e 06 d1 10 3c df 83 3c be
       0.13381623 0.42795315 0.008838898 -0.1840968
000280 ab 6a 59 3e 3b 40 3f 3d 93 88 81 3d d5 19 2c be
       0.21232097 0.046692114 0.063248776 -0.16806729
000290 07 71 b6 bc fe 41 36 bd 7e c6 51 bd 90 16 83 3e
       -0.022270693 -0.04449653 -0.051214688 0.2560315
0002a0 eb cf 1b 3e c8 9b dc bd 5f d6 ed bd b2 6d 8c 3e
       0.15216033 -0.107719004 -0.11613154 0.2742744
0002b0 1e 44 47 bd eb 48 a5 3e 6c 7f c3 bd c8 a3 42 bc
       -0.048648946 0.32282194 -0.09545788 -0.011879869
0002c0 12 db 9c 3e ea c5 bb be 80 7f 0b be ff 2d 69 bd
       0.30635887 -0.36674434 -0.13622856 -0.05692863
0002d0 61 1c 44 3e 3d 1d 91 be 12 27 9a 3c 66 9a bc bc
       0.1915145 -0.2834262 0.018817458 -0.023022842
0002e0 47 6d 1d bd ab e4 ad be ef 27 db 3d 5f a9 31 bd
       -0.038434293 -0.33963522 0.10700976 -0.043374415
0002f0 07 ec c9 3d 0c ce 3b 3e 79 b3 22 be b6 db bb 3e
       0.09859472 0.1834032 -0.15888776 0.36691064
000300 02 09 a9 3e 92 fe e5 3e 03 57 bc 3c d0 fb 0d 3f
       0.33014685 0.44920784 0.02299071 0.5546236
000310 42 c9 6d bd 28 d8 45 bd 9c 24 54 bf 7e 2b ef 3d
       -0.058053263 -0.048301846 -0.8286836 0.11678217
000320 a1 c6 0f bd 79 53 1f 3e 66 0c 85 3d b7 7e 50 3f
       -0.035101537 0.15559186 0.064965054 0.8144335
000330 0f 75 04 3e 23 20 10 3e 53 0e 98 3c ac 73 65 be
       0.1293528 0.14074759 0.018561518 -0.22407407
000340 9c b5 09 3e e2 c3 08 be a5 07 1a 3d 41 d4 29 3e
       0.13448185 -0.13355973 0.037604947 0.16584875
000350 bf 58 9f be c3 a6 b8 be 89 5c 39 3d fc c1 e4 bd
       -0.31122395 -0.3606473 0.045254264 -0.11169812
000360 14 9f 37 be b2 4d 8f 3d 32 2c f4 3d cc d1 03 bf
       -0.17931777 0.06997241 0.11922492 -0.51492
000370 5b 44 cf be c7 0a ea 3e 62 82 35 be b2 4e 62 3e
       -0.4048184 0.45711347 -0.17725518 0.22100332
000380 67 de f0 be 36 fe 8d bb bf 79 91 3d 32 75 01 3d
       -0.4704468 -0.004333283 0.07103299 0.031605907
000390 44 3f 0c 3e ba 23 dc 3c a9 55 6d 3b e5 57 b7 bb
       0.13696009 0.026872505 0.0036214388 -0.0055951946
0003a0 d4 65 ae 3d 3a f6 ce 3d 11 df 1d 3e 30 02 3c be
       0.08515516 0.10105558 0.15417124 -0.1836021
0003b0 70 2b 88 bc 50 ab 21 be 93 d2 20 3e 34 1b 19 be
       -0.016622275 -0.15788007 0.15705328 -0.14951783
0003c0 4d 9c 3a bf ad bb e7 3d 21 6e 26 3f 25 30 f5 bc
       -0.72894746 0.11315093 0.65011793 -0.029930184
0003d0 ce fd bf be b2 e1 7c 3e 5b 02 a6 be c9 9e 62 3d
       -0.37498325 0.24695471 -0.32423672 0.05532721
0003e0 fc 57 32 be ed da d9 3d 1e 0b 86 3d 05 f0 08 3f
       -0.17416376 0.1063746 0.06545089 0.5349124
0003f0 b2 43 5f bc 65 98 98 3e e2 c6 4d bc 3c d3 7d bf
       -0.01362698 0.29803768 -0.012559624 -0.99150443

rnn.weight_hh_l1 f4 [192, 64]
000000 9d 66 bc 3e f2 46 a1 3c a5 82 eb bd 26 e8 8d 3d
       0.36797038 0.01968715 -0.11499528 0.069290444
000010 00 92 1a 3d 3c 47 e2 bd 58 af 00 3e 18 21 92 bd
       0.037736893 -0.11048743 0.12566888 -0.071352184
000020 f9 8d 26 3e e1 0c 0a 3e 3b e5 89 be d7 25 91 3e
       0.16265096 0.13481475 -0.269327 0.28349182
000030 92 1a 28 3e 5c 50 6d 3d ce 0f 12 3e c0 49 a8 bd
       0.16416386 0.057937965 0.14263842 -0.08217192
000040 b0 d0 34 be 0d f8 67 bd 7b 4b db bd 1a 4e 8d 3e
       -0.17657733 -0.056633044 -0.10707756 0.2759865
000050 69 8e 48 be df e0 7f 3d 42 d7 ca 3d cf 15 0b be
       -0.19585575 0.062470313 0.099043384 -0.13582538
000060 6f b4 20 bd 55 c1 1b be 05 32 16 3e d4 b0 9f bd
       -0.039234575 -0.15210469 0.14667518 -0.07797399
000070 b2 92 99 3e 6c 43 5d 3e cb 61 ee be 64 52 7d be
       0.29994732 0.2160775 -0.46558985 -0.24738461
000080 72 f0 5e bd f1 a7 71 3e 07 02 9a 3e ee bc 06 3d
       -0.054428525 0.23599221 0.30079672 0.03289502
000090 bf d1 19 be 72 a9 0a 3e 8a c3 35 be dd 9b 06 be
       -0.15021418 0.13541201 -0.17750373 -0.13145395
0000a0 bc 1c fd 3d df 0e 19 3e d0 07 80 bd a0 ae fb 3d
       0.12358996 0.14947079 -0.0625149 0.122891665
0000b0 56 81 8e 3d 9c d5 34 3e 01 2e f0 bb ea 4e 43 3e
       0.069582626 0.1765961 -0.007329703 0.19073072
0000c0 84 7d 7b 3e 73 43 8a 3d e5 5c 53 be c0 d5 11 bf
       0.24559599 0.06751146 -0.20640905 -0.5696678
0000d0 95 3b 92 3b 08 9b 72 be 91 4a ba 3e b8 5c a7 bd
       0.004462669 -0.23691952 0.36385015 -0.081719816
0000e0 f7 5c ea 39 40 43 83 3c 3a 9b d1 3e cf 60 96 3d
       0.00044701222 0.016023278 0.4093874 0.073426835
0000f0 4e 2c 28 3e 7e a0 ad be 4b 13 51 3e f4 e5 92 3d
       0.16423151 -0.33911508 0.20417516 0.07172766
000100 68 7f 24 be 88 7b dd 3d 12 12 b6 bd f7 cb a9 3c
       -0.16064227 0.10814577 -0.088901654 0.02072714
000110 4b 64 0d 3d e5 d0 24 3e 0b 4c 86 bd f3 56 ec 3d
       0.034519475 0.16095312 -0.06557473 0.11540022
000120 df 95 e1 bd 45 ab fa bd 52 cb 9e 3b c4 eb 4e be
       -0.11014914 -0.12239698 0.004846015 -0.20207125
000130 21 a4 32 be 3a 2f a9 bc 59 aa 08 3b 39 5b c6 bd
       -0.17445423 -0.020652402 0.0020853488 -0.09685368
000140 7d 75 93 3d 5d eb 4b be 43 2f 85 3e 7f c5 bc bd
       0.072001435 -0.19914003 0.2601262 -0.09217357
000150 90 cc ec 3c a4 0b 04 be 6d 9e 48 be 96 ba 20 3d
       0.028906137 -0.12895066 -0.19591685 0.039240442
000160 6c 9f 49 be bf 3a 2f 3e 16 b7 3d be d3 cd 70 3d
       -0.19689721 0.17112254 -0.18526873 0.05879004
000170 4c 2a 26 3e 64 25 76 3d 3d 2b 8d 3d 8b 20 7d 3e
       0.16227072 0.060094252 0.06893013 0.24719445
000180 3f ab 68 3d ba d4 02 3e 25 6f e3 3b 9f df bf 3d
       0.056803938 0.12776461 0.0069407397 0.09368824
000190 ba 15 f2 bc 53 21 01 bc 11 2c 51 3e be 82 97 3d
       -0.029551376 -0.00788148 0.20426966 0.07397984
0001a0 91 e6 13 3e 22 11 48 be c0 ab 06 bd 3f bd 55 3d
       0.14443423 -0.19537786 -0.032878637 0.052182432
0001b0 d1 ca 96 bb 7b ba 06 3e 6d 84 e0 3b 53 4c cd 3e
       -0.0046018143 0.13157074 0.006851724 0.40097293
0001c0 64 df af ba 80 92 f9 3d fc 27 b5 bc 0d 7f 54 3d
       -0.0013418016 0.12186146 -0.022113793 0.051878978
0001d0 04 00 d3 bd b7 da a6 bd 9d 01 00 3e 1a ee d4 3c
       -0.10302737 -0.08147185 0.12500615 0.025992442
0001e0 f4 4b ad bd 2f 66 9a be 3a d6 c3 bd 17 d7 33 be
       -0.084617525 -0.30156085 -0.09562345 -0.17562519
0001f0 4a 2c a9 bd 0f 9e 43 3d f9 f9 31 3e 20 5a 2c 3e
       -0.082604006 0.04775816 0.17380513 0.16831255
000200 2c a2 93 3d e3 27 35 bc ef ec 58 be b9 18 40 3d
       0.07208666 -0.011056873 -0.21184133 0.046898577
000210 c1 5c c6 3b 82 01 05 3e 23 e5 ae 3d b4 3e e6 3c
       0.0060535376 0.12988856 0.08539798 0.028106071
000220 69 a7 11 be a4 88 cb 3d a8 c0 5f 3d 6f 65 3b bd
       -0.14224018 0.099381715 0.05462709 -0.04575103
000230 22 98 e6 bd c1 6a a5 bd 8d a3 dc 3e 9d 04 86 bd
       -0.11259486 -0.08077002 0.4309353 -0.06543849
000240 81 f7 e0 3e 8a 58 31 be ce 43 82 be 20 94 25 3d
       0.4393883 -0.17318931 -0.25442356 0.040424466
000250 f1 5b cf bd 50 08 87 3d 2d 8b 42 be 4d 81 14 3d
       -0.10124958 0.06593382 -0.18998404 0.036256123
000260 8d ae 8e bd 3c 74 32 3e d5 ca cd 3e 47 9b 09 3e
       -0.06966887 0.17427152 0.4019381 0.1343814
000270 56 26 6e bd a1 ba 47 bd a5 94 56 bc 2b 76 03 be
       -0.05814203 -0.048761968 -0.013096963 -0.12838046
000280 3b 71 cf be 43 5d b7 bb a9 de 11 3d aa 45 6d 3c
       -0.40516075 -0.0055958345 0.035612736 0.014481941
000290 25 dc 5a 3c 31 86 1a 3d b0 10 0f bb bc 6f fe 3d
       0.013358151 0.03772563 -0.0021830015 0.124236554
0002a0 4a 01 bc 3c a0 40 c0 bc 11 13 90 3d 47 01 8d 3e
       0.022949833 -0.023468316 0.07034887 0.27540037
0002b0 23 ab 24 be 72 be 7f 3d a5 10 d0 3d 0e 4a 06 3e
       -0.16080908 0.062437482 0.10159425 0.13114187
0002c0 33 46 5a bb 7b 9e 6a be 27 0d 34 bc b4 fd 0b 3e
       -0.0033306002 -0.22912018 -0.010989464 0.13670999
0002d0 9c 5a 11 be e8 23 a9 bd b4 c7 51 be 8c 9c 24 bc
       -0.14194721 -0.08258802 -0.20486337 -0.010047089
0002e0 48 b0 aa be c9 cc 55 bd 75 38 3d be 30 8f 0c 3e
       -0.33337617 -0.05219725 -0.18478568 0.13726497
0002f0 b8 3a 88 bb 0d 15 13 be 8c 50 2f be aa 01 df be
       -0.0041573904 -0.14363499 -0.1712057 -0.43555957
000300 82 88 e9 3e 0b d6 e9 bd 7d 43 78 bd 70 5e 08 be
       0.4561196 -0.114177786 -0.060611237 -0.13317275
000310 fd e6 3c bd d6 4d 8a be a4 28 c8 3d c0 f4 d4 3d
       -0.046118725 -0.2701251 0.097733766 0.10398245
000320 34 5c bc 3c 22 47 c5 3d 16 83 0b 3d 07 00 3e be
       0.022993185 0.09632708 0.03406056 -0.18554698
000330 29 2a 04 3d 6b 22 fd ba 2a 22 49 bd d4 4f 34 bd
       0.03226677 -0.0019312626 -0.049104847 -0.044021443
000340 93 2d ba bd 9e db 11 be b2 e3 0f bd 39 cb b2 bd
       -0.09090724 -0.14243934 -0.035129257 -0.08730168
000350 1d 77 32 3d 9a 28 6e be 25 44 6c 3d 43 0a e3 39
       0.043570627 -0.23257676 0.057682175 0.0004330446
000360 98 32 6f be 9a 9f 0b 3d 4a a5 16 3d 67 37 fb 3d
       -0.23359144 0.034087755 0.036778726 0.122664265
000370 c8 61 40 be d2 d6 66 3d c4 e3 e3 bd 21 c9 d9 3d
       -0.187873 0.056357212 -0.11127427 0.106340654
000380 9e 88 be bb 2d 22 c4 be a3 70 d0 bd 04 2b b1 bd
       -0.005814626 -0.38307324 -0.10177734 -0.08650783
000390 1f 5f 02 be e4 2c 52 be 7f f1 e5 be 09 e3 bb 3e
       -0.12731598 -0.20524937 -0.4491081 0.36696652
0003a0 38 20 19 3d 35 f5 dc bb ca cf d3 bd f2 49 93 3d
       0.03738424 -0.006743098 -0.10342367 0.07191838
0003b0 23 76 82 be 73 d2 84 be 4e d9 68 bd 89 f6 49 bc
       -0.25480756 -0.2594181 -0.056847863 -0.012326845
0003c0 f9 88 42 3d 4c d8 3d be 66 58 46 be 35 0e d5 3e
       0.04749391 -0.18539542 -0.19369659 0.41612402
0003d0 98 ea 7c be de cd 80 bd e2 8b d5 3d 81 6b 0f bd
       -0.24698865 -0.06289266 0.10427071 -0.035014633
0003e0 9d 15 9b bd 93 3c 62 3e 37 38 a9 3e 96 0f 0f 3e
       -0.07572482 0.2209342 0.330507 0.1397079
0003f0 e2 8e 25 3e 8a f1 8e be ac 31 8c bd 8f 03 f5 3c
       0.16167787 -0.27918655 -0.06845412 0.029908923
