graphrnn_v2/experiments/structures/k_regulars/vary_m/3_regular_vary_m_8_graphrnn_s/model_at_1800.pt (torch, 398227 bytes, 22 tensors)

embedding.0.weight f4 [32, 8]
000000 0f 75 19 3e 78 9d 20 3f 87 e3 66 3e 52 42 3d bd
       0.1498606 0.6274028 0.22547732 -0.046205826
000010 6d dc 3f bd 5c 25 a0 bd 55 9e f2 3e 17 36 b3 3e
       -0.046841074 -0.07819626 0.47386423 0.35002205
000020 20 ec 11 3f 64 57 98 bd a4 f0 5b be cb 8a 19 3e
       0.57000923 -0.074385434 -0.21478516 0.14994352
000030 c9 28 c1 be 25 16 96 3d 8a 9c ce 3e 49 16 91 3e
       -0.3772643 0.073284425 0.40353805 0.28337315
000040 75 93 3a be f2 21 c4 be 1e 8b ad 3c e7 68 fa 3e
       -0.18220313 -0.38307148 0.0211845 0.4890816
000050 84 a5 34 be c4 e5 24 be 2c b7 04 3b 9c ae d0 3e
       -0.17641264 -0.16103274 0.002025078 0.40758216
000060 b0 cd 20 be 59 7a 85 3e 04 9d 02 bf 25 90 9c 3e
       -0.15703464 0.26069906 -0.51020837 0.30578724
000070 db f6 00 3f 8c c0 b5 3e 86 ce fe 3e ba 34 44 3e
       0.5037667 0.35498464 0.4976694 0.19160739
000080 c2 45 fd bd 8f dc 08 bf e2 82 8d 3c 13 65 94 3e
       -0.12366821 -0.53461546 0.017274324 0.28983364
000090 72 f7 e9 bd f6 1c 31 bf 6e 0a 2b bf b4 e7 30 bf
       -0.114241496 -0.69184816 -0.6681279 -0.6910355
0000a0 d1 ab 0a 3f ff 82 7c 3e 84 d9 25 3e e7 4f da 3c
       0.5416842 0.24659346 0.16196257 0.026649429
0000b0 5a 26 0f 3e 5d 6a af bc 23 27 75 be 97 ef 00 be
       0.13979474 -0.021413023 -0.2394071 -0.12591396
0000c0 24 ad 1d 3c 50 ef 72 3e cf 3e c4 3e b6 13 81 3e
       0.0096237995 0.23724103 0.3832917 0.2521035
0000d0 6d 93 15 bd ab b6 0c be 34 b9 c0 be 60 26 d1 be
       -0.03651755 -0.13741557 -0.376413 -0.4084959
0000e0 99 3f 03 3f 02 bd 01 be a5 60 a2 3e ce bc ac 3e
       0.5126892 -0.12669757 0.3171436 0.33737797
0000f0 7c 34 88 3d 36 39 79 be a8 85 36 be e2 15 ed be
       0.066506356 -0.2433823 -0.17824423 -0.46305758
000100 0f 03 e1 bd 18 7d 89 bd cf 8f 47 bd e3 f6 00 bf
       -0.109869115 -0.06713313 -0.04872113 -0.5037672
000110 73 49 9f 3e 35 9f 78 3e 77 fe 1c 3e c4 d4 00 3f
       0.31110725 0.24279483 0.15331446 0.50324655
000120 be 82 8b be a1 92 87 be 1a 2a 81 be 5c 56 85 be
       -0.27248186 -0.26479056 -0.25227433 -0.2604245
000130 ab 9b 23 be d8 d9 91 bd 9b 3e b0 3d 19 52 a7 be
       -0.15977351 -0.071216285 0.08605691 -0.32679823
000140 a2 8c 97 bb 73 3f 96 be 1e d8 9b 3e 11 35 e3 3e
       -0.004624919 -0.29345283 0.30438322 0.44376424
000150 5f 03 f8 3e 23 39 01 3f 2c 44 49 3e d5 25 29 3d
       0.48440072 0.5047781 0.19654912 0.041295845
000160 28 e2 f0 3e 14 2c a8 3e 15 e6 82 be 98 69 bf 3e
       0.47047544 0.3284613 -0.25566164 0.3738525
000170 31 65 1f 3d 47 ce 98 be 7c be 40 be 55 78 0d 3b
       0.038914863 -0.29844877 -0.18822664 0.0021586616
000180 0c c1 d1 bd 3b 6b 06 be 59 d9 5f be ae 76 83 3e
       -0.10241899 -0.13126843 -0.21860255 0.25676483
000190 da e7 7b be 30 46 e2 35 9c bf 45 be 57 81 de bd
       -0.24600163 1.6858739e-06 -0.19311374 -0.10864513
0001a0 15 92 c3 3e ae 7d 28 3d 06 59 b6 3d 13 ca 8c bc
       0.3819739 0.041135482 0.089036986 -0.0171862
0001b0 e5 b1 03 3f 78 95 3a bd 33 66 54 3e 3d 06 4e 3e
       0.5144332 -0.0455527 0.20742111 0.20119567
0001c0 cc 3f a3 3e a6 bb 92 3e 6d 0f 8a 3e 43 9b 07 3f
       0.3188461 0.2865879 0.26964894 0.52971286
0001d0 e7 3b 35 3e 94 16 a7 3e b6 a5 ee 3d aa ce fc 3d
       0.17698632 0.32634413 0.116527006 0.123441055
0001e0 fe b3 de 3e 72 04 d7 3e 77 91 0e 3f 75 d2 2b 3d
       0.43496698 0.4199558 0.5569071 0.041948754
0001f0 10 48 c8 3e b2 b1 23 3d 3c ac 64 3e ea 88 0e 3d
       0.3911748 0.039964385 0.22331327 0.03479854
000200 72 36 2b be 15 b5 59 3c a4 87 bf bd da 24 04 3f
       -0.16719988 0.013287802 -0.09352043 0.5161873
000210 cb 3c 86 3e a9 e3 14 3e a1 6d 08 3f 2c 53 a6 3e
       0.26218256 0.1453997 0.5329228 0.3248533
000220 6b c8 2c bd 69 e9 2f 3f 1c 97 a5 3e 1a d8 01 3e
       -0.04218332 0.6871553 0.3234185 0.12680092
000230 86 c1 07 bd 54 5c a6 3e 28 d3 7a bd 40 a6 37 be
       -0.033143543 0.32492316 -0.06123653 -0.17934513
000240 50 5b ce be 52 f4 da bd 7f 41 05 3f 9e 9a fe be
       -0.4030404 -0.10691132 0.52053064 -0.4972734
000250 46 16 7a be 5c a2 f4 3e af e0 d0 3e d6 77 45 3e
       -0.24422559 0.4778012 0.4079642 0.19283995
000260 c4 9f a6 3d b7 e7 87 be 26 4a 9f be 6a 2c ba be
       0.081359416 -0.26543972 -0.31111258 -0.3636201
000270 dd 16 28 be df 7e 34 be ae f7 91 3d 2c c8 b4 3e
       -0.16414972 -0.17626522 0.07127319 0.3530897
000280 c9 ff 8a bc 8e 7c 39 3e 85 61 c7 3e 39 0a e6 3e
       -0.016967671 0.1811392 0.3894159 0.44929674
000290 1c 67 b0 3d 5f 5f 0b be a6 c5 1d bd 66 8a a7 bd
       0.086134166 -0.136106 -0.03851857 -0.08180694
0002a0 5b 2d 0f be 83 cc 0f 3d 19 ce c1 be 16 6a 3e 3d
       -0.13982145 0.035107147 -0.37852553 0.04648789
0002b0 10 ba 96 bd 64 ca 44 3d dd 19 8e 3e da c0 b7 3d
       -0.07359707 0.048044577 0.27754107 0.089723304
0002c0 93 4e 0a 3f 0b be 3b be e6 a9 5d bd 8f 7a 64 3e
       0.54026145 -0.18334214 -0.054117106 0.22312377
0002d0 64 9a fb 3d 7a 00 5d 3e 95 16 9e 3e 36 f1 d1 3e
       0.12285307 0.21582213 0.30876604 0.41004342
0002e0 ff 90 af 3e 2a e0 fa 3e 55 d5 06 3f 4f 9e 65 3d
       0.3429031 0.4899915 0.5266927 0.056059178
0002f0 e9 d0 86 3e 24 f4 6c be 2f 4e 4a 3d 8a a9 9a 3d
       0.2633126 -0.23140007 0.049390968 0.07551868
000300 a7 66 89 3e 00 2f 19 3e bf f4 75 3e 46 39 93 3d
       0.2683613 0.14959335 0.24019144 0.071886584
000310 2d 30 29 bd 3c af c6 3e 1e 99 56 3e e1 f3 70 3e
       -0.04130571 0.38805568 0.20956847 0.23530532
000320 dd 28 13 3f 9d 60 f8 3d 74 df de be 47 b6 01 be
       0.5748423 0.121278025 -0.43529856 -0.1266719
000330 31 96 6e bf ba d0 2e 3e 46 f9 70 bf 3b 04 20 3f
       -0.93197924 0.1707181 -0.9413036 0.62506455
000340 de 3e 05 3f 77 f1 7f 3e 30 10 73 bd 24 f3 05 be
       0.5204905 0.24994455 -0.05934161 -0.13081032
000350 72 ff 65 3e 4c b6 32 3f 60 d4 13 3f ef 15 cc bd
       0.22460726 0.6980941 0.57745934 -0.09965121
000360 52 e4 9e bd 63 90 0f be 5c 4a f8 3e 9f df d6 3e
       -0.077583924 -0.14019923 0.48494232 0.41967484
000370 cc e1 ae 3e ac b4 c2 3e ac 73 38 3e 8a 82 cb 3d
       0.34156644 0.38028467 0.18012875 0.09937008
000380 b7 5d d0 bd 6a 3f ae 3e e7 ef cc 3e 7e ae e9 3e
       -0.10174125 0.34032756 0.4002678 0.4564094
000390 98 37 a5 3e 4c 0b dd 3e 25 4a 6b 3e 9e 6d e7 3e
       0.32268977 0.4317268 0.22977503 0.4520082
0003a0 96 31 ce 3e 80 87 17 3f 28 cc cf bd 94 9a 72 3d
       0.40272206 0.5919113 -0.101463616 0.05922945
0003b0 65 cc f7 3e 14 1f cc 3e 8c 6d 0b be 55 d0 ab 3e
       0.48398128 0.3986746 -0.13616008 0.33557382
0003c0 69 c4 52 3e 42 2e 43 bc 78 de c5 be 9c 98 a6 3e
       0.20582737 -0.011912884 -0.38646293 0.32538307
0003d0 6c 41 d4 3e fa f6 42 b6 05 6c b0 be 55 f6 f1 be
       0.41456163 -2.9052012e-06 -0.34457412 -0.4725825
0003e0 5a 8c ea 3e 6e 3f 29 3e 3f 24 88 3e 83 b1 ad 3e
       0.45810205 0.16528103 0.26590154 0.33924493
0003f0 77 4d 44 bd b1 4b 2d 3e 93 ac 1c 3e 05 d2 75 3d
       -0.04792544 0.16923405 0.15300207 0.060014743

embedding.0.bias f4 [32]
000000 6e 74 98 3d bc 3c 8a 3e 60 71 35 3e ee 37 1b 3e
       0.07444082 0.26999462 0.1771903 0.15158054
000010 54 42 c1 3e ad 47 74 3d 9c a1 75 be a0 1c 45 be
       0.37745917 0.059638668 -0.2398743 -0.19249201
000020 16 d9 6d 3d 95 6f a9 be 94 07 97 bb 3c 7c 5e be
       0.058068357 -0.33092943 -0.0046090577 -0.21727079
000030 43 a6 98 be 81 de f9 b9 cb 1e b5 bd bb 38 2e bd
       -0.29814348 -0.0004765876 -0.08843764 -0.04253457
000040 61 35 18 bd 83 ad 28 3d 97 ef 2c 3d 36 7f db 3e
       -0.03716028 0.0411811 0.04222068 0.42870492
000050 1b ab 4b 3d 30 06 9f 3e c2 14 04 be b7 33 6b 3e
       0.049723726 0.31059408 -0.12898543 0.22968946
000060 f8 4b 76 be 0f 8c f4 bd 33 7b 21 3e 9e 79 4e 3e
       -0.24052417 -0.119407766 0.15769653 0.20163581
000070 1f 92 56 be 03 72 1e 3e ab 99 79 be 51 a4 1b 3d
       -0.20954178 0.1547318 -0.24375026 0.0379985

rnn.weight_ih_l0 f4 [192, 32]
000000 d2 ad 2d 3e 7e 5c 27 3e 77 10 a0 3c 16 2b 0a 3d
       0.16960838 0.16343877 0.019539101 0.033732496
000010 68 07 74 be 4c 26 d4 3d b4 79 8f bd fa 97 53 3d
       -0.2383095 0.10358867 -0.07005635 0.051658608
000020 fd ed 86 3e 7c 3e 6b bd b5 c0 5b 3d 97 62 09 3f
       0.26353446 -0.057432637 0.053650577 0.5366606
000030 74 f6 39 bd fd b1 11 3e 74 24 0e bd ed db 35 be
       -0.04540105 0.14228053 -0.034702733 -0.17759676
000040 56 d2 00 3e ca 76 1f bd dd 5d ed 3d c3 07 d2 3e
       0.12580237 -0.038931645 0.115901686 0.41021547
000050 c6 b4 3d be 04 e1 9d 3c a6 a5 63 3e b6 ea 00 bd
       -0.18525991 0.019272335 0.22231159 -0.031473838
000060 41 a3 9f 3e 31 f0 21 3d 78 1b 19 3e ae db 18 bd
       0.3117924 0.039535705 0.14951885 -0.037318878
000070 eb 40 2f be fe d3 0a 3d 2e 8f 85 be e5 b4 7e 3d
       -0.17114608 0.033893578 -0.260858 0.062184233
000080 a0 23 bd be 05 05 52 be f0 b0 82 3d 0c 60 8a bd
       -0.36941242 -0.20509727 0.063814044 -0.06756601
000090 03 23 33 3f 31 ee 81 bd 8c a2 c0 3e 72 3b a1 3e
       0.699753 -0.063442595 0.37624013 0.31490666
0000a0 91 90 9b 3b 32 f5 9f bd 6c 98 ae 3e 68 00 26 3e
       0.0047474583 -0.07810439 0.34100664 0.16211092
0000b0 80 a1 93 bb fa ec d2 bd 54 b4 8e be f8 bf 2b bc
       -0.0045053363 -0.10299106 -0.27871954 -0.010482781
0000c0 5e c0 6a be 6d 4f 2d be b1 14 1a 3d 48 f9 78 be
       -0.22924945 -0.1692483 0.03761739 -0.24313843
0000d0 13 ba c2 3d 60 48 75 be c7 b8 b1 bd eb 60 fa 3c
       0.09508147 -0.2395339 -0.086778216 0.030563792
0000e0 b0 1f 0b bf 36 21 3a 3e 7d f9 ee bd 02 07 b4 bc
       -0.54345226 0.18176731 -0.1166868 -0.021975998
0000f0 5e 3e 6a be 79 14 08 be 5c 5a df bd 3d b6 6e bc
       -0.22875354 -0.1328906 -0.109059066 -0.014569816
000100 1c 2a 6b be 60 0b e2 bc 5b bf ea 3e 65 ba 3c 3e
       -0.22965282 -0.027593315 0.45849118 0.18430479
000110 26 a4 92 3e d5 0c bc bd eb 65 1d bd 6e 5a 58 3e
       0.2864086 -0.09182135 -0.038427275 0.21128246
000120 b5 ff 4e 3e bc 40 11 bd e5 54 1d 3e 2d 20 23 3e
       0.20214732 -0.035462126 0.15364416 0.15930243
000130 68 ab 80 3d d9 97 62 3c 1e 40 44 3c de a4 3f be
       0.06282693 0.013830149 0.011978177 -0.18715236
000140 45 51 45 3e 13 bd 0c be a4 2a 24 be 5d b1 bd 3e
       0.19269283 -0.13744001 -0.16031891 0.3704938
000150 70 41 12 3d 2d 05 bb 3d 3b d5 9e 3c a3 de 60 bc
       0.035706937 0.091318466 0.019388786 -0.013724956
000160 8b b3 19 be 68 4a b3 bd f2 ed 02 be b9 58 ed 3d
       -0.15009896 -0.08754426 -0.12786081 0.11589188
000170 0a 17 e1 3d cb 8f 18 bd 23 62 a0 3d 57 94 71 bb
       0.109907225 -0.037246507 0.07831218 -0.00368621
000180 66 76 98 3e 93 2d 2a 3e e7 63 d2 3e 37 ec a5 3d
       0.2977783 0.16618948 0.41091844 0.08101695
000190 4c 0e e5 3e 12 62 f4 bd 6c c2 b8 3d 91 86 9d 3e
       0.4473747 -0.11932768 0.09021458 0.3076673
0001a0 49 83 86 be a4 a3 f4 bd f3 2d 4b be 9d 09 92 bd
       -0.26272038 -0.119452745 -0.19841747 -0.0713074
0001b0 2a 4b 95 3d c8 9a 9d be 96 35 38 be e0 29 c3 bd
       0.07289727 -0.3078215 -0.17989191 -0.095294714
0001c0 25 1d c6 3d e5 5d 16 be 58 1c 25 bd d6 8e 45 3e
       0.09673528 -0.14684255 -0.040310234 0.19292769
0001d0 94 f0 81 3e 99 82 89 3d 7d b6 29 3d c9 57 3e 3d
       0.2537886 0.06714363 0.0414338 0.046470437
0001e0 c2 74 a8 be b4 89 6f bd 4d 70 b2 be 53 ef 07 be
       -0.3290158 -0.058480933 -0.34851304 -0.13274889
0001f0 37 8d 3c be 8f df 98 bd fd 22 58 3e a8 15 da 3d
       -0.18413244 -0.074645154 0.21107097 0.10648662
000200 22 4e a3 3d a6 cb 95 3d 46 90 5c 3d 52 53 08 3e
       0.07973887 0.073142335 0.053848527 0.13313034
000210 81 9f db 3d dd 6b 2e 3e 5e cf e9 3d 80 5b 99 3d
       0.10723782 0.17033334 0.11416505 0.07488155
000220 23 b0 b2 3e 20 1d a0 3d 09 58 a6 3e 5b e7 88 3c
       0.34900007 0.07818055 0.3248904 0.016711881
000230 ce ec cf 3d cd 45 b1 3e d0 68 a0 3d 16 46 10 3e
       0.10152589 0.34623566 0.078324914 0.14089236
000240 69 68 da 3e 0e 4d a8 3d 5f 67 15 bd 42 5b 88 3e
       0.42657784 0.08217822 -0.036475535 0.26632124
000250 5d c0 3f 3e 56 99 7f 3e 1e 6d b1 3e b2 99 61 3e
       0.18725725 0.24960837 0.34653562 0.22031286
000260 b2 fa ec 3d 07 ae 1e 3e ef 89 de 3d 69 f8 63 3e
       0.11571254 0.15496074 0.108661525 0.2226273
000270 55 6d 0b 3e 4d 22 f9 3d a7 4f 9d 3e 1d 6c 69 3e
       0.13615926 0.121647455 0.30724832 0.22795148
000280 b3 26 2b 3e d9 17 30 3e 2d 2e 1b 3d 18 58 e8 3d
       0.16713981 0.17196597 0.037885834 0.113449275
000290 b2 54 7c 3c 98 18 b5 3d ec 38 81 3e 1a f2 30 3e
       0.015401052 0.088425815 0.2523874 0.17279854
0002a0 ab ca 09 3f 18 70 c1 bd f0 03 0f 3e 1d e9 7b be
       0.5382487 -0.09445208 0.13966346 -0.24600644
0002b0 00 b9 fc bd 55 47 97 3e 9b 74 c9 3d 31 7b 9d 3e
       -0.123399734 0.2954661 0.09836694 0.3075805
0002c0 a0 cc 47 3e 2b 56 63 3e cf 9d 00 3f c8 49 c3 3d
       0.19511652 0.22200839 0.50240797 0.09535557
0002d0 b7 6f 4a 3d 6a c0 5e 3e 92 69 20 3e aa 94 81 3e
       0.049422946 0.21753088 0.15665272 0.25308734
0002e0 1f b4 c4 3e ae 5d 02 3e 50 e7 e6 3d 2a 04 8e 3e
       0.3841867 0.12731048 0.11274588 0.27737552
0002f0 0c a6 7c 3e bf e7 1e 3e 84 b8 ce 3d fb a1 24 3e
       0.24672717 0.15518092 0.10093787 0.16077416
000300 40 35 ab be c4 5f 37 be 8e c2 0e 3e 32 48 2c bd
       -0.33439064 -0.17907625 0.13941404 -0.04206104
000310 66 75 9f 3e f1 d6 a8 be 24 bd 05 bf c1 10 80 be
       0.31144255 -0.32976487 -0.5224173 -0.25012782
000320 bc 84 7f 3e 30 a5 af 3c e3 80 b4 ba 0f ad 0b bf
       0.24952978 0.021441072 -0.0013771321 -0.5456094
000330 8c 31 3e 3d 7d 53 2d be 63 d4 e0 be 0b d8 00 bf
       0.04643397 -0.1692638 -0.43912038 -0.50329655
000340 0f d7 b6 3d e4 76 21 be 7e 0c f0 3e 1f 58 b8 3d
       0.08927738 -0.1576801 0.4688453 0.09001183
000350 b9 58 25 be 0c ab 26 3e 65 ac 7d be 7c 68 8b be
       -0.16147126 0.16276187 -0.24772795 -0.27228153
000360 20 03 4e bf 5f 5e a9 3d 05 70 80 be a4 6d 79 bd
       -0.8047352 0.08269953 -0.25085464 -0.060895577
000370 64 a5 94 be 44 62 d4 bd ca 49 e7 3c 2a 73 80 be
       -0.29032433 -0.10370305 0.028233428 -0.25087863
000380 ef c3 f8 3d 2e 1a 28 3e 14 37 77 3d cc 94 04 3c
       0.12146746 0.16416237 0.06035526 0.008092117
000390 68 ac 41 3e f5 03 8e bd bc d8 c9 3e e9 c6 fe bc
       0.18913424 -0.069343485 0.39423168 -0.031100707
0003a0 17 0d 82 3e f4 4b 29 bd c3 5d 08 3e bf 55 e8 bd
       0.25400612 -0.0413322 0.13317017 -0.1134448
0003b0 58 10 0d bd 38 2d e3 3d 73 c8 f6 bd 86 02 ed 3d
       -0.034439415 0.11092609 -0.120499514 0.11572747
0003c0 91 17 8e 3d 71 73 29 3e 2d 03 c0 3d 84 8d 59 3e
       0.06938089 0.16547944 0.09375606 0.2124539
0003d0 e5 02 e7 bd b1 c6 bd 3d 74 7b 96 bc 38 f3 23 3d
       -0.11279849 0.09266413 -0.018369414 0.040026873
0003e0 79 6a aa be 1f 2c cc 39 d9 1a 22 3e 2b 35 9c bc
       -0.33284357 0.00038942785 0.15830554 -0.019068321
0003f0 a4 a6 e8 3c 67 8f e3 bc 3b db e3 bc 9d 41 89 bc
       0.028399773 -0.02777834 -0.027814498 -0.01675492

rnn.weight_hh_l0 f4 [192, 64]
000000 af c9 04 3e 28 25 86 bd ba a0 c3 bc e6 f6 89 3e
       0.12967561 -0.06550056 -0.023880351 0.2694618
000010 38 98 db bc f5 12 4d 3e 84 6e 19 3e eb a1 04 3e
       -0.026805982 0.20026763 0.14983565 0.12952392
000020 2c f3 1e be bd 3f be 3b 51 1a 4d 3d 4c 72 86 3c
       -0.1552245 0.005805938 0.050073925 0.016411923
000030 0f fc 56 bd a9 38 ab bd 0a 3b 52 3c 15 36 82 be
       -0.052486476 -0.083604164 0.012831459 -0.25431886
000040 8d 71 05 3c 56 c5 2f be 95 30 30 3d f6 c4 17 be
       0.008144748 -0.17165121 0.04301508 -0.14821228
000050 a4 b2 5f bd ad 90 69 3d 9c 39 1f bd 47 79 68 bd
       -0.054613724 0.05702274 -0.0388733 -0.056756284
000060 bc a7 c0 bc ab ba cf bd 23 66 b0 bc 00 a3 45 3d
       -0.023517482 -0.10143026 -0.021533078 0.048251152
000070 3e 9f 7d 3d cf 9e f8 3c 73 6a 09 be 65 99 9b 3d
       0.061919443 0.030349163 -0.13419513 0.07597617
000080 40 ff 9f 3d 7a 92 06 3d cb 78 9b 3d 0a 89 bd 3d
       0.07812357 0.032854535 0.07591399 0.09254654
000090 23 00 82 bc 37 c5 a6 b9 ff 17 80 bb 7d 7b c3 3c
       -0.015869206 -0.00031808924 -0.0039091106 0.023862595
0000a0 44 b8 95 be c2 c5 8a 3d 4c 70 78 3e 55 7f e6 bd
       -0.29242146 0.067760006 0.24261588 -0.112547554
0000b0 6c d3 0f bd 78 0f cd 3d ee 73 44 3e 8a f7 0d be
       -0.035113737 0.10012716 0.19184849 -0.1386396
0000c0 a9 59 ee bd 57 84 bd 3d 35 f1 03 bd 5b 5f 79 ba
       -0.11638195 0.092537574 -0.032212455 -0.0009512805
0000d0 ef 4d 11 3d 08 e7 91 3c 94 3f 15 be 68 3c f7 3c
       0.035474714 0.01781036 -0.14575034 0.030180171
0000e0 58 fc fe 3d 4c e6 82 bd 0d c7 3e 3d b2 2a f1 3d
       0.124504745 -0.06391582 0.04657655 0.117757216
0000f0 e0 b9 de 3d fb 79 c7 bd f4 ef 9f 3c 4d df a3 be
       0.108752966 -0.09740063 0.019523598 -0.32006302
000100 9a 09 db 3e 5d 13 b5 3d 7e a4 d2 bd 3f b4 c4 bd
       0.42780763 0.08841584 -0.10285281 -0.09604692
000110 ea 3f 8d 3d b1 54 f1 bd 78 9b d4 bd 78 bc db bd
       0.06896956 -0.11783732 -0.10381216 -0.10729307
000120 b5 cc 03 3e 9a de f6 bd f6 f2 60 be 3d 0c 4c 3d
       0.12871058 -0.12054177 -0.21967682 0.04981636
000130 3c f2 cc 3d ad 7b 85 be 32 a6 a9 3e ef 30 32 3e
       0.1000714 -0.2607092 0.3313461 0.17401479
000140 2f e6 3e bd de 97 a3 be 23 12 6d bd 0f 2b 97 3c
       -0.04660624 -0.31951803 -0.057878625 0.01845315
000150 41 29 7f bd 9e 38 c3 bd b4 e2 8c 3d ed c6 0f 3b
       -0.062295202 -0.09532283 0.06879178 0.0021938637
000160 07 d7 20 be 95 29 8c 3c ef b5 a6 3d 71 6b dc 3d
       -0.15707026 0.017109672 0.0814017 0.1076268
000170 9e 92 81 3e c1 2c 34 3e 15 6a 11 3e b2 da b1 3e
       0.25307173 0.17595197 0.14200623 0.34737164
000180 0a ce ea bd 90 88 b0 be f4 0b a9 bd 4f 63 d0 bd
       -0.1146508 -0.3447919 -0.08254233 -0.101751916
000190 be 97 1d be 02 6f 28 3e 9a 00 4c bc 09 54 cd bc
       -0.15389916 0.16448596 -0.012451315 -0.025064485
0001a0 82 4c e3 3d e9 98 f4 3d a7 4a 8f 3d 7d 7d d8 3d
       0.11098577 0.11943228 0.06996661 0.1057081
0001b0 cb db e1 3d 2b 71 d3 3d b3 bf 90 3d af 36 d8 3d
       0.1102825 0.103243195 0.07067814 0.10557305
0001c0 5c 4b 49 3e e4 3a c3 3c 6d 09 21 be 8e 4a cf 3c
       0.19657654 0.023831792 -0.15726252 0.025304105
0001d0 9a c8 28 3f a7 53 9e bd 00 34 93 3e fe 49 21 be
       0.65931094 -0.07730799 0.2875061 -0.15750882
0001e0 d2 1e 14 bd 02 83 80 be 1b 1c f3 3e 97 e4 d5 bd
       -0.036162205 -0.2509995 0.4748238 -0.10443991
0001f0 30 f7 14 3d 5a 30 24 3e d9 a4 f0 3d c5 e8 3f be
       0.03636855 0.1603407 0.11750192 -0.18741138
000200 ba 51 a2 be 7d 7f 83 be 98 4f d7 3b de 42 80 3e
       -0.31702977 -0.25683203 0.0065707676 0.25051016
000210 05 5e a9 3b 3a ed 31 3e 15 ce cd 3c 4a d2 10 3d
       0.0051686787 0.17375651 0.025122682 0.035356797
000220 6a cb be 3d 29 b1 20 bd 28 e1 1c 3d c6 81 39 3e
       0.09316142 -0.039231453 0.038300663 0.18115911
000230 8e 4c d1 bd 1c 8c 55 bd 2c 47 aa be 45 39 c3 3d
       -0.1021968 -0.05213557 -0.33257425 0.09532408
000240 e9 09 bb bd 24 3d b4 bd 5c 5c 8f 3d 33 cb f0 bc
       -0.091327496 -0.08800724 0.07000038 -0.029393768
000250 b9 3c 00 3e 91 6a 4a bc 4e f4 a9 bd f0 2e ea bd
       0.12523164 -0.012354509 -0.082985505 -0.11434734
000260 27 a8 ab 3e 0b 2c 2a 3d 90 b5 02 3d 8f 40 0d 3f
       0.33526728 0.04154591 0.031911433 0.55176634
000270 e8 77 50 3e 66 69 b7 be 13 7e bb bd 33 a2 1f be
       0.2035824 -0.358226 -0.09154906 -0.15589218
000280 95 1b 80 3d 6a be eb bd 28 90 45 3e 89 00 66 bd
       0.06255261 -0.11510928 0.19293272 -0.056152854
000290 07 b0 52 3e a6 e0 a4 3c d4 c0 2b bd c6 4f 91 3d
       0.20574962 0.020126652 -0.041931942 0.07095294
0002a0 6f d5 0e be ba 45 48 bd 52 b0 d5 3e 91 4b 42 be
       -0.13948606 -0.04889462 0.41736084 -0.18974139
0002b0 9d 00 8c be b4 6d 9d 3d db 43 42 bd cd de 66 bc
       -0.27344218 0.0768694 -0.047427993 -0.014091206
0002c0 f8 c4 55 3e 03 63 3c 3e 87 1c 07 bf 35 f3 f2 3d
       0.20875919 0.18397145 -0.52777904 0.11862794
0002d0 c0 1c 44 3c f1 24 64 bc 21 9c ec bb 33 39 5c 3e
       0.011969745 -0.013924823 -0.0072207605 0.21506195
0002e0 71 d0 eb 3e 2c 3c 40 be 51 52 2c bd b2 4e 1b 3e
       0.46057466 -0.18772954 -0.04207069 0.15166739
0002f0 6e 20 97 bc 9a 5b 5f bd 28 5d 96 3d a7 0a 5c 3e
       -0.01844808 -0.054530717 0.07341987 0.21488439
000300 ec 77 07 bd 9c 86 24 3c 69 9c af 3d 66 43 26 3e
       -0.03307335 0.010041859 0.08574755 0.16236648
000310 e1 32 27 be b2 72 25 3e 28 e6 3b 3e fe f7 c2 bc
       -0.16328003 0.16157034 0.18349516 -0.023799893
000320 54 e6 5e bd 7d 79 0e be 9b 0a af bd 25 6f 96 be
       -0.054418877 -0.13913532 -0.08546945 -0.29381672
000330 f6 23 a6 bd 13 f5 1f be 73 7a 7e 3d 44 f2 21 be
       -0.08112328 -0.15620832 0.062128495 -0.15815073
000340 b5 17 0d 3e 2b e2 05 3e 8f 81 56 3c 15 7b bc bd
       0.13778575 0.13074557 0.013092413 -0.092031635
000350 bf 54 e2 3d 05 ef 19 3d c3 06 f7 3c bd 59 81 3d
       0.1105132 0.037581462 0.030154591 0.06315944
000360 bd 5a f6 bc be 69 2d bd d5 8e 02 3e 5b 83 7c bc
       -0.030072564 -0.04233717 0.12749799 -0.015412177
000370 25 54 b1 3e 23 80 6c bd 23 a1 79 bd d4 72 21 bc
       0.3463451 -0.05773939 -0.060944688 -0.009854037
000380 cf 88 21 3e bd 82 8e bc 56 3e c6 bd 66 de a0 3e
       0.15774845 -0.017396325 -0.096798584 0.31419677
000390 23 e7 28 3c 7b 70 5e ba 7a 55 db bc 16 cd 05 be
       0.010309014 -0.0008485389 -0.026774157 -0.13066515
0003a0 89 b9 0d be 02 c5 59 bc 5b 27 a6 3d c4 3f 95 bd
       -0.13840307 -0.013291599 0.08112975 -0.07287553
0003b0 5d 8e 1f be 8f 19 4e be ab 54 fd 3b fe 0d 56 3c
       -0.15581651 -0.20126937 0.0077310405 0.013064859
0003c0 29 41 82 3d 3a ca d3 3d fb 5a 07 be 03 17 00 3e
       0.063600846 0.10341306 -0.132183 0.12508778
0003d0 7d 4a c6 3e 86 05 b3 bd 21 7c 7a 3c f5 69 e7 3d
       0.38728705 -0.08741288 0.015288384 0.112995066
0003e0 af 16 36 3d fc 02 22 3d 52 97 50 3e cc a9 d2 3c
       0.044455227 0.039553627 0.20370224 0.025715731
0003f0 20 20 95 3d a7 d7 6c 3c 50 49 36 3d 19 29 1d be
       0.07281518 0.014455712 0.04450351 -0.15347709

rnn.bias_ih_l0 f4 [192]
000000 03 2b e6 bc a8 b3 30 bc 3f 6d e2 bc 6d e2 2a bd
       -0.028096681 -0.010785021 -0.027639983 -0.041719843
000010 20 17 02 3d 2a ee 35 3e d9 3f 6d bd 88 fa 4f 3e
       0.031760335 0.17766634 -0.057922218 0.20310414
000020 26 af 35 bd aa 3a 5c 3d e7 f2 8d 3d 6d 05 1a 3d
       -0.044356488 0.053766884 0.069310956 0.03760283
000030 37 a2 86 3d 5e 78 ac 3d b0 86 2c 3d 30 61 1b bb
       0.06573909 0.08421396 0.042120636 -0.0023709051
000040 56 8b f5 bd 4a 4d c6 3d cb 9b 77 3e d3 72 51 3d
       -0.11989467 0.096827105 0.24180524 0.051134896
000050 cc aa a7 3d 49 23 3e 3d 2e 79 48 3e ad d5 10 3e
       0.08186874 0.04642037 0.19577476 0.14144011
000060 d7 98 17 3c 00 e8 e4 bd c4 6f 33 3d 23 b2 8d 3d
       0.009252748 -0.11177063 0.04380776 0.069187425
000070 6e 69 60 3c b4 05 42 3d d7 8b c4 3d 44 a4 93 bc
       0.013697011 0.04736872 0.09596985 -0.018022664
000080 b3 e6 03 3e 1d 6d 0c 3e cf 59 0f 3e 27 64 93 bd
       0.12880974 0.13713498 0.13999103 -0.07196837
000090 8a a7 5b 3e 17 38 fb 3d fe e6 6f bd 5e 55 fb 3d
       0.2145063 0.12266558 -0.0585699 0.12272142
0000a0 78 62 81 bb bc 2a dc bb 74 e8 e8 3d e6 89 93 bd
       -0.003948506 -0.0067189615 0.11372462 -0.072040364
0000b0 89 62 27 3d 1c 63 0c be b5 1b 82 3e ec 6d 1c 3c
       0.040865455 -0.13709682 0.25411764 0.009547692
0000c0 65 cb 44 3d b8 cb 5e bc 88 b3 90 3d b3 ab 9d bb
       0.048045535 -0.013598375 0.07065493 -0.004811728
0000d0 cb 0f 67 bd c6 1e 49 3d b7 fb 43 bd 56 81 3c 3e
       -0.056411546 0.049101613 -0.047847476 0.18408713
0000e0 e3 1e 2e 3e 52 ce 99 3e dd 93 59 3d 29 ac bb bd
       0.1700397 0.30040222 0.05311953 -0.09163696
0000f0 d6 a0 f3 3d db 66 28 bd 66 3c a5 3d 2a ef 48 3d
       0.118959114 -0.041113716 0.08068161 0.04905621
000100 d9 8d 33 bc c7 a9 08 bd d0 11 56 3e 48 b0 da bd
       -0.010959112 -0.033365037 0.20905232 -0.10678154
000110 c7 8e 2d 3d df ed bc bd e0 a5 66 bd 6a 01 38 3e
       0.04237249 -0.09225058 -0.056310534 0.1796929
000120 00 62 4b bd af 7d ef 39 49 88 cc 3c d0 bd 65 be
       -0.049654007 0.00045679274 0.02496733 -0.22435689
000130 75 22 a9 bd 80 6f 00 3d ab cc 25 be df f6 ba 3c
       -0.08258525 0.031356335 -0.16191356 0.022822795
000140 1c 99 39 bd c9 2a 85 be e2 90 d0 3d 36 e5 80 3d
       -0.045312032 -0.26009205 0.10183884 0.062937185
000150 b3 21 8f 3d f2 d5 37 be 86 60 29 3e 9a 27 ee 3d
       0.069888495 -0.17952707 0.16540727 0.11628647
000160 6b 4e a8 bd aa c8 e5 bd 9b 03 5d bd ab 0d db bd
       -0.08218082 -0.11219914 -0.053958517 -0.10695966
000170 18 5f 6e 3c 90 0b b8 be 44 a4 be 3c cd be 72 3d
       0.014549039 -0.3594632 0.023271687 0.059263993
000180 ca 61 80 bc 68 c0 9d bd 72 90 c5 bd 23 11 6b be
       -0.01567163 -0.07702714 -0.096466914 -0.22955756
000190 6c d3 e2 bd 39 46 f6 39 40 91 2d bd 75 58 e1 3d
       -0.11075482 0.00046973096 -0.04237485 0.110032
0001a0 de 8f 5d be 64 a9 8a bd b8 b7 34 3d cb 30 23 3d
       -0.21636912 -0.0677059 0.04412052 0.039841454
0001b0 70 41 09 be b9 2f 12 bd ae cb 1f 3c 8e 11 e8 bd
       -0.13403869 -0.035690043 0.009753151 -0.11331473
0001c0 ce 93 8a be 6c a5 74 3b 3c 1c 50 3c 80 78 05 3d
       -0.2706589 0.0037330044 0.012702044 0.03258562
0001d0 df d0 45 be 53 75 f9 bd f7 50 02 bd ae 0d 46 ba
       -0.19317959 -0.12180581 -0.031815495 -0.0007555139
0001e0 9f 94 9c 3d 4c 63 a4 3d d1 a9 5f bb 3b 36 3d bd
       0.07645535 0.08026752 -0.0034128318 -0.046194296
0001f0 41 61 f9 bd 36 8d d3 bc e1 7b 44 3d be 8f 80 be
       -0.12176753 -0.02582417 0.047969703 -0.25109667
000200 aa 78 48 3d a3 c2 34 3e 9a ab 87 bd b9 fc e0 3d
       0.0489432 0.17652373 -0.06624527 0.10985703
000210 e8 bb 9f bd f0 75 89 3d d4 ae 57 3c 3b 94 7e 3e
       -0.07799512 0.06711948 0.013164241 0.24861233
000220 89 61 7b 3c 65 b6 e1 bb ac 78 f3 3b e4 73 20 3e
       0.015343078 -0.006888198 0.0074301567 0.15669209
000230 98 8c 82 3d f7 cd 4e 3c 1e a0 5b bd 93 9c 3f bd
       0.063744724 0.012622348 -0.053619497 -0.04678018
000240 64 04 b2 3d 7a 1b 76 bd dc 61 97 3d cb ac de 3d
       0.08692244 -0.060084797 0.07391712 0.108728014
000250 39 56 b1 bc 46 db 99 3c c8 ae 11 be 2e 9f 2a bd
       -0.02164756 0.018781316 -0.1422683 -0.04165571
000260 a8 b3 75 bd 94 69 06 bd 55 b7 f7 3d df b9 fe bd
       -0.059985787 -0.03281553 0.12095515 -0.12437796
000270 b9 f0 c5 bd 9b df df bc 22 80 d2 bd c1 ae 2a 3e
       -0.09665055 -0.027328303 -0.10278346 0.16668226
000280 41 ec ac 3d 78 bd 9f 3b 9f df 5f bd ee 30 e4 3d
       0.08443499 0.0048748814 -0.05465662 0.11142145
000290 07 9e 52 bc 97 f3 e9 ba 3e 8b a6 3d 14 58 05 3e
       -0.0128550595 -0.0017849085 0.08132027 0.1302188
0002a0 54 12 c5 bc c8 57 8c bc 05 27 01 be 75 fd 4f 3c
       -0.024056591 -0.017131701 -0.12612541 0.012694706
0002b0 ce b8 94 bd 0e f7 c5 3c 9e 8c 13 3c ef 31 b7 bd
       -0.07261811 0.024165656 0.009005694 -0.08945071
0002c0 24 54 01 be 61 7a 13 3e 22 d9 62 bd 3b 4c 93 3c
       -0.12629753 0.14402153 -0.055382855 0.017980685
0002d0 26 5a a8 bd ea 85 26 3e 2e ce aa bc 8b 4b 1e 3e
       -0.082203194 0.16262022 -0.020850267 0.15458505
0002e0 c3 7b 69 bd 36 67 00 3e f0 40 5e 3d 04 1a b8 bd
       -0.057002794 0.12539372 0.054261148 -0.08989337
0002f0 e5 29 dc 3d c5 6d d1 3d f9 86 01 3e 14 b7 0b be
       0.10750178 0.10226015 0.12649144 -0.13644058

rnn.bias_hh_l0 f4 [192]
000000 99 5b fd bc 46 d2 ab bd 5f 45 f5 3d c8 b1 db 3d
       -0.030927466 -0.08389716 0.11976122 0.107272685
000010 0a 4f 0a 3e a6 f6 2d 3e 56 7b 83 3d 23 76 e4 3c
       0.13506714 0.1698862 0.06420009 0.027888363
000020 c2 5d ac 3d 88 6a 0e 3d c0 58 10 3d 21 8b 4c 3d
       0.084163204 0.034769565 0.03524089 0.04993737
000030 ff 29 09 3e b5 5c 7f 3d 17 eb 60 bd b9 28 20 3e
       0.13394926 0.06234427 -0.0549117 0.15640534
000040 9b 0d 69 bd 2e f6 30 bd 84 5f 6f 3e fe 1e 37 3d
       -0.05689774 -0.043203525 0.2337628 0.04470729
000050 be e4 02 3c e9 47 9a bd e2 1d 05 3e 9c c2 54 3e
       0.007989107 -0.07533247 0.1299968 0.20777363
000060 5d b5 65 3d 13 29 a4 bc 62 8f 61 3d 2f 1f a5 bd
       0.056081165 -0.020039117 0.05506838 -0.080625884
000070 19 6a 90 3d ac 3f 1c 3d cb 89 be 3d 4a 15 fc bc
       0.070514865 0.03814666 0.09303626 -0.03077187
000080 e6 77 74 bd e0 2b 3b bd 76 45 4f 3e 1f de 83 bd
       -0.059684657 -0.04569614 0.20241341 -0.064388506
000090 2e 70 84 3e f3 0f 7d 3d 2d 08 37 3d 15 5a 12 3c
       0.25866836 0.06178279 0.04468553 0.00893261
0000a0 3b 0a af bc 53 71 e7 3d b5 23 22 3d 33 0a 73 bd
       -0.021367183 0.11300912 0.039584834 -0.0593359
0000b0 e2 4c d7 bd fe 9f 0a be 94 74 31 3e 06 ba a4 3b
       -0.10512711 -0.13537595 0.17329627 0.0050270585
0000c0 9f 32 8a bd 0a 06 96 3d de ab ff 3d 65 80 ba bd
       -0.067479365 0.073253706 0.12483953 -0.091065206
0000d0 b4 63 20 3c e1 71 de 3d 65 b5 1a 3d 96 27 0d 3e
       0.009789396 0.108615644 0.037770648 0.13784632
0000e0 da 1e 21 3e a9 f9 33 3e f6 33 09 3c f0 02 17 3d
       0.15734425 0.17575707 0.008374205 0.036868036
0000f0 3b 86 7a 3d a5 b4 05 be aa 42 50 bd e4 90 e0 bb
       0.06116317 -0.13057192 -0.050844826 -0.00685321
000100 59 fa 21 bd 8c 61 ed bd a5 26 eb 3c 2a 56 6f be
       -0.03954539 -0.11590871 0.02870495 -0.23372713
000110 ff 9e a7 bd d8 61 fa bd 8a 35 20 be 67 bb 29 3d
       -0.08184623 -0.122256935 -0.15645424 0.041438486
000120 63 56 11 bd 12 e4 14 3e 8d 07 1e 3e c0 05 9e bd
       -0.035482775 0.14540127 0.15432568 -0.077159405
000130 87 1a a6 bc 25 fb e4 bc b6 82 e0 bd 92 cd 38 bb
       -0.020276321 -0.027951786 -0.10962431 -0.0028198701
000140 4f 67 ae bd fa 40 ef bd 94 fa 81 3d 16 1f f2 3d
       -0.08515798 -0.11682315 0.06346622 0.118223354
000150 15 0d 1b be 2b c7 81 be 46 8f 88 3d 74 11 03 3e
       -0.15141709 -0.25347266 0.06667952 0.12799627
000160 cb e2 75 bc f8 4a 00 bd 51 db 95 3d e3 2b 6e 3d
       -0.015007685 -0.031321496 0.07317222 0.058147322
000170 ed 54 9b bd ad d7 45 be ee 01 93 bc 8e 5a 0e be
       -0.07584558 -0.19320555 -0.017945256 -0.13901731
000180 6d 96 05 be 66 b5 56 bd a6 68 e6 bc 86 4a c4 be
       -0.13045664 -0.05241909 -0.028126072 -0.38338107
000190 c5 b9 5c bd 79 67 24 3e 34 28 83 3d 1c d1 a0 3d
       -0.0538881 0.16055097 0.064041525 0.078523844
0001a0 00 32 13 be d7 3f 3e 3d 24 9f 3d 3d 31 e7 db 3d
       -0.14374542 0.0464476 0.046294346 0.10737456
0001b0 5c ae f4 bd 14 2b 91 bd a7 19 ac bc c3 2f 2d bc
       -0.11947319 -0.070882946 -0.021008326 -0.010570469
0001c0 be c6 95 be 5c 76 c8 bd ce a9 16 be c1 56 2c 3d
       -0.2925319 -0.097882 -0.14713213 0.042074922
0001d0 e1 3f 6d be 65 2d 16 be dd c6 c4 bd 58 30 8a 3b
       -0.23168899 -0.14665754 -0.09608243 0.004217189
0001e0 bc 0d 8d 3c c9 ab 62 3d 22 6a 35 bd ed a4 44 bd
       0.017218463 0.05533961 -0.04429067 -0.048008848
0001f0 68 25 7a bd 46 89 8f bd db 7d f9 3d e9 7f 88 bd
       -0.06107083 -0.07008605 0.12182208 -0.06665022
000200 9a ea cb 3d 5e 99 1a 3e 39 ee 1c 3e b3 75 9d 3c
       0.09956856 0.15097567 0.1532525 0.019221162
000210 0c 7b 74 be f2 87 56 3e a8 6d 02 be 6f aa 88 3d
       -0.23875064 0.20950297 -0.12737143 0.06673133
000220 d9 75 69 bd b7 a5 ca 3c 54 82 c2 3d 3e 82 f6 3d
       -0.056997154 0.024737222 0.09497514 0.120365605
000230 0e e8 cd 3a 44 d4 e7 bc 84 e9 e9 3d 20 3a d4 bc
       0.0015709416 -0.028299458 0.11421493 -0.025906622
000240 ea c7 f2 3d e6 91 8c 3d 9d 35 82 bd 1b 18 f7 3d
       0.11854537 0.068637654 -0.06357882 0.12065145
000250 50 e6 d5 3b 17 70 cc 3d 4a b3 5f be 39 66 2e be
       0.0065276995 0.09982317 -0.21845737 -0.17031182
000260 74 20 e0 3c 75 87 88 3c 4a c1 9b 3d 9e d3 80 bd
       0.027359225 0.016666153 0.07605226 -0.06290363
000270 49 31 be bd e7 2f 11 3c 04 cc 52 bd 03 24 5b bc
       -0.09286744 0.008861518 -0.051464096 -0.013375285
000280 26 d1 84 bc f0 09 94 bd c7 54 43 3d ee 92 4f bc
       -0.016213011 -0.07228458 0.04768827 -0.012669308
000290 a0 90 c7 39 88 22 a8 bd 95 c6 7e bd 48 57 32 3d
       0.00038063992 -0.08209711 -0.0622011 0.04354027
0002a0 0e 83 89 3c 80 78 86 bc 40 fe 0a 3d 03 87 a2 3c
       0.016786125 -0.01641488 0.033933878 0.01983977
0002b0 4c b6 01 be cb 63 d0 bd f1 d2 69 3d 34 e1 fd bd
       -0.12667197 -0.10175284 0.057085935 -0.1239647
0002c0 b4 b3 12 3c 1c 97 21 3e 4f f0 8c 3b 59 fe 29 3e
       0.008953977 0.157803 0.004301108 0.16600932
0002d0 ae ad 1b be 1f 27 a8 3d dd 6c d5 bc 0b 12 9e 3d
       -0.15202972 0.08210587 -0.026052887 0.07718285
0002e0 28 f9 36 3e a8 95 09 3e a3 c2 cc bd 24 fd 3d 3c
       0.17868483 0.13435996 -0.099980615 0.011595998
0002f0 27 4c 32 3e 0f 8d be 3d eb eb dc 3d c4 0a cf bd
       0.17411862 0.093042485 0.10787185 -0.10109475

rnn.weight_ih_l1 f4 [192, 64]
000000 93 3f 00 3f 65 c4 23 3e 5b 55 6e bd dd 32 3c 3e
       0.50097007 0.15992887 -0.05818687 0.18378778
000010 7b c5 3f bd 38 50 b7 3c 55 90 03 3d 0c d5 a0 bc
       -0.04681919 0.022377118 0.032120068 -0.019632839
000020 bc 52 5d bd e8 4b 20 be 8b 25 96 be 80 92 2f 3e
       -0.05403398 -0.15653956 -0.29325518 0.17145729
000030 b4 b9 65 bb f7 b6 5b be 35 fa 02 3f 2c 6a 6e bd
       -0.0035053315 -0.21456514 0.51163036 -0.058206722
000040 50 92 42 be d8 54 b0 be 6d 09 ef bd 29 d2 a6 3b
       -0.19001126 -0.3443973 -0.1167172 0.005090971
000050 3a 62 c8 bd 86 02 99 be 56 0a cc bb 36 e6 76 3d
       -0.0978436 -0.29884738 -0.006226818 0.06027814
000060 75 65 9b 3e 98 61 d3 3d dc 28 8c be be 58 a8 bd
       0.30350843 0.10321349 -0.27374923 -0.08220051
000070 e2 d1 90 3e de 19 9d be cf 40 85 3e 24 5c 0c 3e
       0.28285128 -0.30683798 0.26026008 0.13707024
000080 a4 5b a6 be d0 f0 13 3e 25 0f 36 3a be ef 49 bf
       -0.3249179 0.14447331 0.0006945006 -0.7888144
000090 0e 65 a9 3d 70 fe 96 3e 16 c9 ce bd 5d d7 c9 bc
       0.08271228 0.29490995 -0.10096948 -0.024638826
0000a0 60 e8 88 3e c0 05 30 3e 7e 64 d6 be bd 47 3c be
       0.26739788 0.17189693 -0.41873544 -0.18386741
0000b0 bf 85 74 3d d0 31 30 3e ff 49 32 3e df 1e 22 3d
       0.059697863 0.17206502 0.1741104 0.039580222
0000c0 ea cc cd bd 2d f1 08 3f 0e ec 24 3f de 14 66 be
       -0.1004885 0.53493005 0.6442269 -0.22468898
0000d0 ff 3e b3 3e f3 c4 b2 bc 4e 23 1b 3d 4a 84 a2 be
       0.35009 -0.021822428 0.037875466 -0.31741554
0000e0 7e 4b 04 be e2 94 f1 bc 2d 6a dc 3e fc 67 67 3d
       -0.12919423 -0.029489938 0.43049756 0.05649565
0000f0 28 54 a0 3d e9 d5 3c 3f 03 ed 7f 3e ad b7 97 be
       0.078285515 0.737639 0.24992757 -0.2963232
000100 1a 1e ed 3c 20 7c a0 3c 93 60 b8 3d 3a c5 48 3e
       0.028945018 0.019590437 0.09002795 0.19606486
000110 f2 8c 18 3c 32 a8 67 3e b4 7d b8 bd 39 04 6f bb
       0.009310948 0.22622755 -0.09008351 -0.0036471023
000120 23 ea 06 bd 8c fd 0a bd e9 74 02 be 11 8d b0 3e
       -0.032938134 -0.033933207 -0.1273991 0.34482625
000130 f8 2d 0f be 97 ff 20 3e 88 7a e8 3e f7 92 9a be
       -0.1398238 0.157225 0.45405984 -0.3019025
000140 5e f7 08 3e f4 e7 7f 3d ab 7d 7a 3c 14 8a 83 be
       0.13375613 0.062477067 0.015288751 -0.25691283
000150 61 49 bf bd 60 de 66 be 17 0c 10 be e0 cb 05 be
       -0.09340168 -0.22545767 -0.14067112 -0.13066053
000160 26 7d f8 bd 10 46 a0 bd 07 bc 2e bd f9 ed 68 3b
       -0.12133245 -0.07825863 -0.042659786 0.0035542233
000170 45 9b be 3d 3c 6e e0 3e 93 b8 5e 3e c6 80 c7 3c
       0.09306959 0.43834102 0.21750097 0.024353396
000180 eb 37 f9 3d cb b3 64 3d af 84 90 3d 37 81 6f 3e
       0.12168869 0.055835526 0.070565574 0.23389135
000190 30 43 6a bd f7 b8 42 be 03 b1 6b bd ab 86 7f bd
       -0.05719298 -0.19015871 -0.05754186 -0.06238429
0001a0 ad 28 4a 3e f1 74 48 3e d1 76 c9 3e 14 b3 13 3f
       0.19742079 0.1957586 0.39348462 0.57695127
0001b0 52 88 40 bc 1f 64 08 bd c7 d7 8d bd 53 28 47 3e
       -0.011751251 -0.033298608 -0.06925922 0.19448976
0001c0 19 fa 2d 3e 06 8b 30 3e 97 cb 04 3e b8 3a 30 bd
       0.16989936 0.17240533 0.12968288 -0.04302475
0001d0 7e ef 26 be 76 24 22 be be 97 df bd 73 22 cf 3d
       -0.16302297 -0.15834221 -0.109176144 0.101139925
0001e0 5a 69 22 3e 1a a1 05 bf 26 e5 ed bd 40 ab 34 3e
       0.15860501 -0.52198946 -0.11615972 0.17643452
0001f0 b1 4f 6f 3d 11 b6 10 3f 7e f4 0e be b8 b7 f6 be
       0.05842561 0.5652781 -0.13960454 -0.4818704
000200 b3 54 56 bd 67 da 83 be 3d 3c fa 3d 17 ad da bd
       -0.05232687 -0.25752565 0.12218521 -0.106775455
000210 a1 19 94 bd 49 31 41 3e f6 84 be 3e c8 1d 38 3d
       -0.07231451 0.18866457 0.37210816 0.044950277
000220 33 bc 6c 3e 16 4a 20 be 4d 5c 10 be 11 f3 cd 3d
       0.23118667 -0.15653262 -0.1409771 0.10056127
000230 11 49 4e bd 67 cb 3d bd 65 c0 0d 3e 7f 5c ad 3e
       -0.05036265 -0.046336558 0.13842924 0.3385963
000240 8c 19 5a be 74 29 5f 3d 08 0a 4b be 9a 50 9d be
       -0.21298808 0.054482892 -0.19828045 -0.30725557
000250 02 db c5 be 8b d4 32 3e fa e9 52 bd c8 ad 15 3c
       -0.38643652 0.17463891 -0.05149267 0.009135671
000260 58 50 c0 bc 6f 4f 78 3d eb 5d 54 be b6 14 a7 bc
       -0.02347581 0.06062263 -0.20738952 -0.020395618
000270 07 20 0c 3e 6b 88 c6 3e 8f 95 ad 3b 02 79 4a be
       0.13684092 0.38775954 0.00529737 -0.19772723
000280 79 0e 6a 3e bb 07 34 3d f0 eb 61 3d 08 97 32 be
       0.22857083 0.043952685 0.05515665 -0.17440426
000290 08 d8 8b bc 40 c5 3b bd 59 37 76 bd 2e 4d 88 3e
       -0.017070785 -0.04584241 -0.060111377 0.26621383
0002a0 44 39 21 3e 2b 63 d7 bd 84 15 c3 bd d5 3e 86 3e
       0.15744501 -0.10516962 -0.09525588 0.26219812
0002b0 d2 e3 d1 bc 41 d5 b5 3e eb 4c ce bd a0 8b 1b bd
       -0.025621329 0.35514262 -0.10073265 -0.037974954
0002c0 50 85 ad 3e 22 ff b3 be ef 3c 18 be f0 1c 7c bd
       0.33890772 -0.35155588 -0.14866994 -0.061551034
0002d0 48 87 37 3e d3 31 83 be 73 a8 e8 ba 68 e5 9f bc
       0.179227 -0.2562395 -0.0017750397 -0.01951857
0002e0 fc c8 f6 bc 93 ef f0 be 7c a4 d1 3d 09 7a 1e bd
       -0.030125134 -0.4705778 0.10236451 -0.0386906
0002f0 6b 76 ce 3d 23 60 35 3e 73 bb 4b be f9 d7 b3 3e
       0.1008118 0.17712454 -0.19895725 0.35125712
000300 97 82 b1 3e e1 47 d8 3e 52 9c 61 3c 52 8a 1c 3f
       0.34669945 0.4224234 0.01377018 0.6114856
000310 7a c0 64 bd d4 d4 49 bd 1a c1 59 bf de b3 eb 3d
       -0.055847622 -0.049275234 -0.85060275 0.11508916
000320 8e 8e a4 bd 2b 91 45 3e 62 50 6d 3d 78 9a 5c 3f
       -0.08035003 0.19293658 0.057937987 0.861732
000330 ea c4 0a 3e 71 5c 09 3e cd ca 21 3b fb 96 6c be
       0.13551679 0.1341417 0.002468753 -0.2310447
000340 9f 19 0a 3e 54 25 1a be c8 32 0a 3d 3b 13 40 3e
       0.13486336 -0.15053302 0.033739835 0.18757336
000350 1a 4b a8 be ce 58 c1 be db f5 40 3d 0d 4d e2 bd
       -0.32869798 -0.37763065 0.047109466 -0.110498525
000360 b1 a1 31 be 75 f4 83 3d e3 b5 04 3e 8c e9 07 bf
       -0.17346837 0.06443111 0.1296001 -0.5309074
000370 3a c6 d2 be db b0 ec 3e 7d f1 4e be 97 dc 67 3e
       -0.4116686 0.4622868 -0.20209308 0.22642742
000380 14 eb e8 be 74 44 44 3c f8 c4 81 3d 87 0b 4a 3d
       -0.4549185 0.011979211 0.06336397 0.0493274
000390 70 29 0a 3e b7 1a 40 3d 3c ac 1c 3c 4b 68 c1 3a
       0.1349237 0.046900477 0.009562548 0.0014755813
0003a0 75 49 61 3d 30 da b4 3d c9 13 21 3e f5 5b 19 be
       0.055001695 0.088306785 0.15730204 -0.14976485
0003b0 89 9c db bc 75 7a 43 be d4 f5 24 3e 0f 0f 20 be
       -0.02680804 -0.19089682 0.16109401 -0.15630744
0003c0 c7 20 43 bf 77 88 00 3e b1 f7 24 3f ac 89 17 bd
       -0.7622189 0.12552057 0.6444045 -0.03699653
0003d0 ac 7c b9 be 9f e2 79 3e 53 9d b2 be 21 c6 5f 3d
       -0.3622793 0.24402855 -0.34885654 0.05463231
0003e0 e0 4c 45 be 13 ad 1d 3e 89 e3 91 3d 8d 0b 08 3f
       -0.19267607 0.15398054 0.07123477 0.53142625
0003f0 9d 80 6e bc b2 cf 96 3e bd d2 f6 bc d3 62 77 bf
       -0.014557031 0.29455334 -0.030129785 -0.9663517

rnn.weight_hh_l1 f4 [192, 64]
000000 ed 03 d9 3e a9 99 59 3d 92 90 d8 bd 58 5d a3 3d
       0.42385808 0.053125057 -0.105744496 0.07976788
000010 6b 3a 32 3d d4 9c da bd d6 d0 10 3e 21 f5 23 bd
       0.043512743 -0.10674444 0.14142165 -0.040028695
000020 77 7b 2f 3e a2 ba 22 3e 13 5f a0 be 7b a3 7e 3e
       0.17136942 0.15891507 -0.31322536 0.2486705
000030 98 da 14 3e 34 56 6b 3d ec 31 02 3e 51 cb c0 bd
       0.14536512 0.057455257 0.12714356 -0.094137795
000040 85 b3 2e be 2a bd 1d bd 71 9b f8 bd fe 51 90 3e
       -0.17060669 -0.03851048 -0.12139023 0.28187555
000050 00 84 49 be 54 30 73 3d 2e fe c1 3d 46 90 0b be
       -0.1967926 0.05937226 0.09472309 -0.13629255
000060 cd bd 07 bd 5a 52 25 be be c9 22 3e 8f 7a 0a be
       -0.033139993 -0.16144696 0.15897271 -0.13523315
000070 14 22 9e 3e 1d 16 69 3e 58 67 fb be 01 a2 50 be
       0.30885375 0.22762342 -0.49102283 -0.203743
000080 a5 e1 5d bd 98 d0 7b 3e ca a9 a4 3e 75 dd b6 3c
       -0.05417027 0.24591291 0.3216079 0.022322396
000090 95 e9 16 be c4 1e 2d 3e ad 2c 32 be 91 1e 08 be
       -0.14737542 0.16906267 -0.17399855 -0.1329291
0000a0 c0 ea 0a 3e c5 f6 15 3e f9 f3 9c bd 48 32 00 3e
       0.13566113 0.14644916 -0.076637216 0.12519181
0000b0 36 74 c0 3d 61 56 57 3e 78 04 06 bb 60 eb 4b 3e
       0.093971655 0.21029045 -0.002044944 0.19914007
0000c0 8e 1b 72 3e 15 f5 8e 3d ba 99 63 be a9 8d 26 bf
       0.23643324 0.069803394 -0.22226611 -0.65059906
0000d0 21 df 2c bc 57 eb 7a be 42 4c bf 3e 77 74 4a bd
       -0.010551245 -0.24503838 0.37362868 -0.049427476
0000e0 87 b2 dc 39 b2 34 69 3c 92 c9 c9 3e 68 06 c5 3d
       0.00042094683 0.014233755 0.39411598 0.096203625
0000f0 ac 02 ef 3d 1e 23 a1 be 16 d6 30 3e 68 66 98 3d
       0.116704315 -0.31472105 0.17269167 0.074414074
000100 3d 10 21 be d5 34 00 3e 7c be ad bd 3a 28 4c 3d
       -0.1572885 0.12520154 -0.08483598 0.04984305
000110 f1 b0 09 3d 0b a2 29 3e a7 f3 92 bd 3e aa 23 3e
       0.03361601 0.1656572 -0.07175379 0.15982911
000120 c6 e3 09 be 59 47 f9 bd 2e d4 13 3c 89 95 3a be
       -0.13465795 -0.121718116 0.009022756 -0.18221106
000130 d9 1d 38 be 95 80 5e 3c 65 6a 9d bc f9 6a b8 bd
       -0.17980136 0.013580461 -0.019215772 -0.090047784
000140 19 cb 8f 3d ce 11 57 be 3e 31 84 3e dd 6c a7 bd
       0.0702116 -0.21002886 0.2581882 -0.08175061
000150 45 43 e4 3c f1 f4 02 be 38 ac 55 be ad 93 21 3d
       0.027864108 -0.1278875 -0.20866477 0.039447475
000160 d1 8c 7e be 1b a8 31 3e 47 45 65 be d7 24 69 3d
       -0.24858405 0.17349283 -0.22389708 0.0569199
000170 46 2f 28 3e 1e d5 67 3d e6 d1 20 3d 27 5c 79 3e
       0.16424283 0.05659973 0.039262675 0.2435156
000180 46 0f 8c 3d 28 d0 c8 3d eb b9 43 3c 74 e8 c8 3d
       0.06838851 0.09805328 0.011946182 0.09809962
000190 59 7b d3 bc 9b 89 2c bc fa e4 6d 3e f4 b4 a3 3d
       -0.025815653 -0.010530855 0.23231879 0.079934984
0001a0 c4 29 fd 3d 3e 13 61 be f4 e6 a8 bc c0 34 b8 3d
       0.12361482 -0.21979997 -0.02061794 0.08994436
0001b0 a8 98 65 3c 25 d3 1e 3e 85 21 c1 3b 98 a6 eb 3e
       0.014013447 0.15510233 0.0058938884 0.46025538
0001c0 5b 31 f1 3a 77 5b ae 3d 0c b8 a7 bc e1 e7 6c 3b
       0.001840155 0.08513539 -0.020473503 0.0036148953
0001d0 45 33 be bd fc ac b9 bd da 22 e4 3d 50 8d 0e 3d
       -0.09287123 -0.09066197 0.1113946 0.034802735
0001e0 5b 0c d1 bd 92 39 9d be 3b 32 9f bd e2 38 39 be
       -0.10207435 -0.30707985 -0.077732526 -0.18088105
0001f0 40 63 94 bd 2a e7 a4 3c e2 e5 37 3e 6c e0 58 3e
       -0.07245493 0.020129759 0.17958787 0.2117936
000200 bb a2 81 3d f5 1e 6a bc d8 00 5d be 53 d0 b8 3c
       0.063298665 -0.014289607 -0.21582353 0.022560274
000210 72 2c 7a 3b f6 5b f0 3d 97 6d 9f 3d 1d 33 5a 3c
       0.0038173464 0.1173629 0.077845745 0.01331785
000220 ef 34 18 be 44 fb e1 3d 68 34 57 3d 13 76 63 bc
       -0.14863943 0.11034253 0.052540213 -0.013883132
000230 88 04 c1 bd 26 03 96 bd b5 6d e0 3e ec 7b ab bd
       -0.094246924 -0.07324819 0.438337 -0.083732456
000240 bf 24 f3 3e 41 46 38 be 16 96 82 be f4 86 12 3d
       0.47488973 -0.1799555 -0.2550513 0.035773233
000250 04 6f a9 bd 36 48 d0 3d 36 dc 54 be f6 b9 27 3d
       -0.08273128 0.10170023 -0.20787129 0.04094883
000260 75 88 a2 bd aa ea 35 3e 89 85 c6 3e 38 3b 09 3e
       -0.07936183 0.17765298 0.38773754 0.13401496
000270 da ee 92 bd c9 80 13 bd fe e9 22 bc 50 a0 11 be
       -0.071744636 -0.03601149 -0.009943483 -0.1422131
000280 00 f6 d4 be 75 d0 85 3c 4c 31 59 3d a6 ae 5b 3c
       -0.41593933 0.016334752 0.05302553 0.013408339
000290 f3 60 f2 3c 0b 95 3a 3d 02 2f 01 bd b3 1f ff 3d
       0.029587245 0.045552295 -0.03153897 0.12457218
0002a0 01 16 1d 3c f5 9d 0c bc ab 35 8e 3d bb ef 8f 3e
       0.009587766 -0.008582582 0.0694383 0.28112587
0002b0 86 72 2a be 05 8b b3 3d 5e 89 d5 3d 13 c7 16 3e
       -0.1664525 0.0876675 0.10426591 0.14724378
0002c0 cc de 36 bc 5e 51 78 be cf 46 8b bc ea bd 27 3e
       -0.011161517 -0.24249789 -0.017001538 0.1638104
0002d0 ac c6 0c be 28 68 ad bd b0 0f 68 be d2 a1 a3 bc
       -0.13747662 -0.08467132 -0.22662234 -0.019974623
0002e0 40 98 b2 be 50 b0 31 bd 92 8d 34 be 38 4a 05 3e
       -0.34881783 -0.043381035 -0.1763213 0.13016593
0002f0 f3 77 96 3a 88 ab 19 be 24 4b 22 be 57 aa e6 be
       0.001147984 -0.1500684 -0.15848976 -0.45051834
000300 96 56 e9 3e 8a 4e b1 bd 56 d1 9c bd 21 18 0e be
       0.45573872 -0.08657558 -0.07657115 -0.13876392
000310 8b d9 2d bd 9c d9 88 be 90 c0 ce 3d 66 6b b4 3d
       -0.042443793 -0.26728523 0.10095322 0.08809547
000320 96 1d cd 3c 27 9e ca 3d d6 d8 10 3d 90 88 2d be
       0.025038522 0.098934464 0.03536304 -0.16946626
000330 4b 81 35 3d 74 f4 29 3c bb 96 22 bd b5 52 46 bd
       0.044312757 0.010373224 -0.03969453 -0.04841872
000340 f1 2a b5 bd 4c d3 21 be 16 ea 12 bd 2a 95 a5 bd
       -0.08846081 -0.1580326 -0.035867773 -0.080850914
000350 b9 61 e5 3c f2 ee 8c be d1 35 8b 3d 74 29 05 bb
       0.0280007 -0.2752605 0.06797374 -0.0020318897
000360 d6 fb 80 be b6 cb 02 3d 5d b6 d0 3c 9c 1b f7 3d
       -0.25192136 0.031932555 0.025477583 0.12065813
000370 2f cc 65 be 0c 18 68 3d 62 c5 0b be 9c 0f e4 3d
       -0.22441171 0.056663558 -0.13649514 0.1113579
000380 bb 4d 90 3c 74 bf ce be 2b 41 c2 bd 70 9b b6 bd
       0.01761519 -0.40380442 -0.09485086 -0.08916366
000390 51 96 15 be 7f 06 65 be 8c d5 e9 be 80 de bd 3e
       -0.14608122 -0.2236576 -0.45670736 0.37083817
0003a0 04 6c df 3c 05 76 5d bc 70 f5 a1 bd 5c 5e aa 3d
       0.027273186 -0.013516908 -0.079081416 0.08318779
0003b0 2b b5 7c be e8 55 83 be ca 51 6d bd 41 3e 99 3c
       -0.24678485 -0.2565148 -0.05793933 0.018706443
0003c0 2c 19 91 3d b2 4b 3a be 05 a5 27 be fd 63 c9 3e
       0.07084879 -0.18192938 -0.16371544 0.39334098
0003d0 c0 61 78 be 35 f6 0d bd 45 4a f1 3d 57 b7 ce bb
       -0.24256039 -0.03465863 0.11781744 -0.006308477
0003e0 45 42 9f bd 54 c8 5b 3e 81 15 ac 3e 28 3a 1a 3e
       -0.07776312 0.21463138 0.33610156 0.15061247
0003f0 63 c9 32 3e cc d4 94 be 44 f1 a1 bd 71 e7 29 3d
       0.17459635 -0.290686 -0.07907346 0.041480485
